AIRocketLanding/results/AIRocketAgain1/AIRocket/AIRocket-166499951.onnx (onnx, 84776 bytes, 9 tensors)

action_model._continuous_distribution.log_sigma f4 [1, 2]
000000 f5 55 86 c0 52 34 8e c0
       -4.197993 -4.4438868

action_model._continuous_distribution.mu.bias f4 [2]
000000 60 30 bc 3d 57 99 ce 3e
       0.09188914 0.40351364

action_model._continuous_distribution.mu.weight f4 [2, 128]
000000 7c 37 01 be e1 39 b7 bd fc b8 e5 bd 87 72 ad bd
       -0.12618822 -0.089465864 -0.112169236 -0.0846911
000010 ca 3f 4c be 59 0f 8f bd a5 bb b5 bd 35 78 d3 bd
       -0.19946209 -0.06985349 -0.08873681 -0.10325662
000020 10 4c c8 bc 03 37 9c bd f7 62 41 bd f9 c6 96 bd
       -0.024450332 -0.0762768 -0.04721352 -0.0736217
000030 b4 46 43 bd da f5 91 bd 9a b1 ad bd 82 e8 aa bd
       -0.04767485 -0.071269706 -0.084811404 -0.083451286
000040 98 c5 e3 bd ba 6c 81 bd c1 5a 42 bd 6a 43 c3 bd
       -0.111216724 -0.06319566 -0.04744983 -0.095343426
000050 29 14 c4 bd 53 85 a3 bd f9 ef 95 bd bd 80 b8 bd
       -0.09574158 -0.07984414 -0.07321162 -0.0900893
000060 0d 6f b3 bd 6f 12 db bd 59 3d 96 bd 7f 34 ad bd
       -0.08761416 -0.10696875 -0.0733592 -0.084572785
000070 27 c8 0f 3f 1d 02 36 3c eb 8a b4 bd 1d 42 b0 bd
       0.56164783 0.011108902 -0.08815559 -0.0860636
000080 6d f1 5a bd 83 f4 92 bd d8 6c 94 bd ab a1 8a bd
       -0.053452898 -0.07175543 -0.07247323 -0.06769117
000090 fc cd c5 bd e3 c4 80 bd 3b 33 d9 bd 73 fb 11 3c
       -0.09658429 -0.06287553 -0.106054746 0.008910048
0000a0 f7 8d 93 bd 40 a5 ba bd 1a ef 0f bd 7c 0f 92 bd
       -0.07204812 -0.0911355 -0.035140134 -0.0713186
0000b0 3a 91 0e be fd 65 90 bd c7 02 ad bd 8a 86 66 bd
       -0.13922587 -0.07050703 -0.08447795 -0.05628065
0000c0 f3 5e 97 bd d4 71 2f bd 3f 01 e8 bc fa d0 a6 bd
       -0.07391157 -0.042833164 -0.028320907 -0.08145328
0000d0 0c 8b fb 3d ba 6f b1 bd b8 16 c6 bd 27 b4 b9 bd
       0.122823805 -0.08663888 -0.09672302 -0.090675645
0000e0 f6 fe f4 bd 79 9f a3 bd 6e 23 3e bd b0 20 be bd
       -0.119626924 -0.07989401 -0.046420507 -0.092835784
0000f0 a4 11 d5 bd a3 8a a5 3e 0f 8b 5e bd de e4 8f bd
       -0.10403755 0.32332334 -0.054331835 -0.07026075
000100 18 89 e4 bc 01 77 c6 bd c8 e9 85 bd 45 07 96 bd
       -0.027897403 -0.09690667 -0.06538731 -0.07325605
000110 62 b3 9c bd cd a6 c5 bd 36 e2 f6 bd 69 24 c6 bd
       -0.07651402 -0.09650955 -0.12054865 -0.096749134
000120 27 c2 bf bd 74 60 15 bd 35 04 9a bd ac c5 80 bd
       -0.093632035 -0.036468938 -0.07520334 -0.06287703
000130 87 dc 7a bd 2e 26 b0 bd 94 6b 24 bd 23 72 28 be
       -0.061245468 -0.08601032 -0.040141657 -0.1644979
000140 92 24 9c bd 59 64 b1 bd 29 68 ee 3e 3a a5 ab bd
       -0.07624163 -0.08661718 0.46563843 -0.08381124
000150 5e 33 c2 bd 63 fb 28 bc f4 41 85 bd b2 3f 02 3e
       -0.09482454 -0.0103138415 -0.0650672 0.1271961
000160 3e b8 c2 bd f4 e3 92 bd c3 f9 cd bd 17 58 cf bd
       -0.09507798 -0.07172385 -0.10057404 -0.10124224
000170 e6 45 09 be 1c 14 cf bd ae 1f a2 bd 94 f9 ac bd
       -0.1340557 -0.101112574 -0.07916199 -0.08446041
000180 94 f6 d6 bd 78 82 8a bd 67 09 01 be df 0b 4d 3d
       -0.1049625 -0.06763166 -0.12601243 0.05006015
000190 9c ad 8b bd 8a 78 d4 bd e9 02 07 bd ad a2 dd bd
       -0.06820223 -0.103745535 -0.03296176 -0.108220436
0001a0 1e f9 72 bd 83 fc a3 bd d1 f4 eb bd 7e a0 87 bd
       -0.059319608 -0.08007147 -0.115213044 -0.06622408
0001b0 9e 3b af bd 5c b2 d5 bd 2e 88 8d bd a5 a7 b5 bd
       -0.08556293 -0.1043441 -0.0691074 -0.08869866
0001c0 86 4d 95 bd ea 2d a5 bd 7e 50 c2 bd d2 40 9b bd
       -0.07290177 -0.08065398 -0.09488009 -0.07580723
0001d0 5b a9 ab bd 03 44 db bd 32 47 c3 bd 0c ce d4 bb
       -0.08381911 -0.107063316 -0.09535064 -0.0064942893
0001e0 f2 69 c4 bd 46 dd e1 bd d7 d4 2b be a3 68 29 bd
       -0.0959052 -0.11028533 -0.1678041 -0.041359555
0001f0 c5 45 cb 3c f4 f7 98 bd cd 45 f2 bd 6b 29 91 bd
       0.024813542 -0.07469168 -0.1182972 -0.07087978
000200 60 e9 dd 3d 3e 9b 35 3d 25 92 08 3e 19 e4 f1 3d
       0.108355284 0.044337504 0.13337 0.11811084
000210 18 ab f3 3c 0a a5 07 3d 54 c3 4d 3d cb e7 99 3d
       0.02974467 0.033116378 0.050235108 0.07514914
000220 6e 5d 81 3d ad af d3 3d e9 37 5d 3d 61 05 11 3d
       0.063166484 0.10336242 0.0540084 0.03540552
000230 9a 1c 5b 3d d1 e2 db 3c 0d 5b 8c 3d 91 cd 95 3d
       0.053494073 0.026841553 0.06853304 0.07314599
000240 bf df ab 3c 38 d8 d5 3c 38 fa 07 3d b9 4f cd 3d
       0.020980714 0.026104078 0.03319761 0.100249715
000250 fa 07 8c 3d 74 ab cc 3b 3b 68 b2 3b 09 8d 0e bb
       0.06837459 0.0062460247 0.005444554 -0.0021751544
000260 f2 c5 98 3d 43 8a de 3c d1 ac aa 3d 96 c8 29 3d
       0.0745963 0.027165538 0.08333743 0.04145106
000270 38 fa 1b 3e 0a 52 c2 ba 77 20 49 3d 85 4e 98 3d
       0.1523217 -0.0014825475 0.049103227 0.074368514
000280 b2 28 18 3d 04 fe 14 3d 0a ff 3f 3c 7d 2c 48 3d
       0.037148185 0.03637506 0.011718521 0.048870552
000290 01 3a 7e 3d 86 7b 5e 3d 85 d2 a1 3d 50 e3 94 3c
       0.062067036 0.05431702 0.079014815 0.018174797
0002a0 0a e3 ff 3b a0 1b be 3c 09 37 cb 3c fc 68 48 3d
       0.0078090476 0.023206532 0.024806516 0.048928246
0002b0 ab ee 0d 3e bf 6d 70 3c 4c ec 82 3d 9d c9 61 3d
       0.13860576 0.014674603 0.06392726 0.055123914
0002c0 50 30 85 3d 90 e6 3c 3d d8 f8 39 3c cb 52 59 3d
       0.065033555 0.04611832 0.011350833 0.053057473
0002d0 ff 43 e6 3c d5 98 86 3d 8d 16 b8 3d f8 4c dd 3d
       0.028108595 0.06572119 0.08988676 0.10805696
0002e0 f1 d1 4d 3d e3 99 b6 3d 9c 2f 8a 3c 70 c5 9a 3d
       0.050249044 0.0891607 0.016868405 0.075571895
0002f0 75 10 98 3d 74 e5 3a 3e e3 b7 5c 3d 0a 8b 14 3d
       0.07425014 0.18251592 0.053886306 0.03626541
000300 4f 1b 99 3c f0 3e b2 3c cc 61 82 3d 99 84 38 3d
       0.01868978 0.021758527 0.063663095 0.04504833
000310 b0 5e 4f 3d 39 92 5e 3d 70 b8 d6 3d 49 18 73 3d
       0.05062741 0.054338668 0.104843974 0.059349332
000320 f3 14 7c 3d b9 bd 4c bc 9e c8 6f 3d 3b f9 53 3d
       0.061543416 -0.012496405 0.058540933 0.051751357
000330 9e 84 50 3b 54 5e f9 3d a7 dc 64 3d a1 c8 cc 3d
       0.0031817327 0.12176195 0.055874493 0.099992044
000340 42 4c df 3c b3 c0 91 3d f8 5a 9b 3e e5 97 dd 3d
       0.027258042 0.071168326 0.3034284 0.10819987
000350 df ed 9c 3d 5e ec 3f 3c fc 94 63 3d 17 e4 81 3d
       0.07662558 0.011714069 0.055562004 0.06342333
000360 49 c2 d3 3d 63 ee c8 3c d2 8b a5 3b 7b 31 c1 3d
       0.10339791 0.024527734 0.0050520683 0.09433266
000370 dd ed f8 3d 97 59 99 3d b4 a1 a9 3d 80 d0 44 3d
       0.12154744 0.07487791 0.082827955 0.048050404
000380 98 69 52 3d f3 a8 84 3d d2 b7 d2 3d b0 4f be bb
       0.051370233 0.06477537 0.10288967 -0.0058078393
000390 85 57 a9 3d 84 f8 76 3d 46 50 0a 3d 0f 43 10 3c
       0.08268646 0.060295597 0.03376796 0.0088050505
0003a0 96 e0 3a bc d3 50 90 3c 84 33 98 3d e2 d5 92 bc
       -0.0114060845 0.017616665 0.07431701 -0.017924253
0003b0 57 d0 fa 3d 57 6c 45 3d 79 eb 5b 3d 59 38 8a 3c
       0.12246769 0.048199024 0.05369136 0.016872572
0003c0 7f 22 8b 3d 92 b9 b6 3d 5f 7e 52 3d aa f1 9a 3d
       0.06793689 0.089221135 0.051390048 0.07565625
0003d0 1a 48 54 3d e4 ea b6 3d f0 da 9e 3d 4a 75 e5 3c
       0.051826574 0.089315206 0.07756603 0.02801003
0003e0 aa 27 2d 3e 2d bf ba 3d 27 14 ac 3d 89 f5 b8 3c
       0.16909662 0.09118495 0.08402281 0.022578018
0003f0 30 4e 02 bc 67 eb e2 3d ba 20 4d 3d 51 b9 99 3d
       -0.007953212 0.11080056 0.05008004 0.075060494

action_model._discrete_distribution.branches.0.bias f4 [2]
000000 24 d4 7f 3f 50 d2 7f bf
       0.99933076 -0.99930286

action_model._discrete_distribution.branches.0.weight f4 [2, 128]
000000 2f 8e f5 3e eb dc f3 3d 83 07 ba be 9c 52 0d bd
       0.4796004 0.11907371 -0.36333856 -0.03450261
000010 a5 d7 48 be c9 7c b4 3d 9a 01 46 be ef 26 46 3d
       -0.19613512 0.088128634 -0.19336548 0.048376974
000020 46 e2 11 bd 2f f6 d7 3d 89 ff c0 3e af 2c a2 3e
       -0.03561618 0.10545003 0.37694958 0.31674716
000030 14 5c e5 3c 2e 85 02 3e 7c e2 b6 bd 5b d2 e3 be
       0.027998008 0.12746117 -0.08929917 -0.44496426
000040 aa 35 53 3d 95 2f fa 3e 90 40 e8 3e 62 e1 63 3d
       0.05156485 0.48864427 0.45361757 0.055634864
000050 13 53 cb 3d 88 0e bb bd 37 f7 12 bd 65 15 15 3f
       0.099279545 -0.09133631 -0.035880294 0.5823577
000060 e9 e3 9d 3d ee 17 81 be ca 6b 9e 3c 7d 39 85 3e
       0.07709486 -0.2521357 0.019338507 0.26020423
000070 b0 a1 d2 3f 2b ad c4 3e ab c6 4f be 1c 79 2f 3e
       1.6455593 0.38413367 -0.2029063 0.17136043
000080 9f 5a cc 3e 76 1b 03 bd 24 3d 89 3e 91 4f 27 3e
       0.39912888 -0.03200861 0.2680446 0.16338946
000090 f7 02 09 3e 2d 8f ec bd 82 48 78 3e b0 b1 85 bd
       0.13380037 -0.11550746 0.2424641 -0.06528032
0000a0 d5 84 25 be ae b2 10 bf 8f 51 5b 3e 22 c7 41 3e
       -0.16163953 -0.56522644 0.21417831 0.1892362
0000b0 d4 84 1b 3f 45 51 30 be ff 12 00 3d a8 56 73 3d
       0.60749555 -0.17218502 0.031268116 0.059408814
0000c0 d7 6a 31 3f ad 0e 9c 3d 85 35 22 3e 77 fd c8 bc
       0.6930365 0.07619987 0.15840729 -0.024534924
0000d0 00 19 3a 40 1f 60 fb bc 95 aa e0 3d 73 f5 6b 3e
       2.9077759 -0.030685483 0.10970036 0.2304285
0000e0 ff d6 38 3f 41 67 31 be f5 c7 63 3e 7f 96 a1 be
       0.7220306 -0.17324544 0.22244246 -0.31560132
0000f0 80 48 a3 3e 18 f0 27 3c e2 98 e5 bd 80 47 65 bf
       0.3189125 0.010250114 -0.11210801 -0.89562225
000100 18 97 36 be c9 d9 c5 bd 82 07 af 3e 9f 50 25 3e
       -0.17831075 -0.0966068 0.34185416 0.16144036
000110 35 f6 97 be fa 32 81 3c 31 94 aa 3c a9 18 8d be
       -0.2968003 0.015771378 0.020822616 -0.27557877
000120 ce b4 fb 3d 89 a7 9c 3e 33 52 3a 3e 0e 96 38 be
       0.12290345 0.3059657 0.18195419 -0.18025991
000130 31 2f a5 bf 3b 43 19 3e 25 5f 88 3e 0a 3b 55 3c
       -1.2905027 0.14967053 0.2663509 0.013014564
000140 ca 73 3c be ff 2c 36 3c 1f b6 3c 3f e5 8c 3a 3e
       -0.18403545 0.011119126 0.73715395 0.1821781
000150 3d fe a6 be ed 07 08 40 65 8b ab 3d cc 13 35 40
       -0.32615843 2.1254838 0.08376197 2.8293333
000160 c7 98 8e 3d 85 e5 b7 bd 4f ba e3 3e 8b e8 54 be
       0.06962734 -0.08979324 0.4447808 -0.20791833
000170 4a 68 a7 3f 65 4e de 3e 47 0f dc bd 14 92 07 bd
       1.3078701 0.43419185 -0.107451014 -0.033098295
000180 97 d5 5c 3e 95 5d 44 3e f4 00 2c 3e d8 f0 2f 3f
       0.21565853 0.19176324 0.16797239 0.68726873
000190 2a d4 29 bd 20 39 75 be 5c 47 9d 3e 94 82 a0 3e
       -0.0414621 -0.23947573 0.30718505 0.31349623
0001a0 b7 c9 ec 3e e7 5e 47 3f b6 2f c1 3d f1 13 2e 3b
       0.46247646 0.77879184 0.09432928 0.002656218
0001b0 9d f0 9e 3d 5a 21 06 3e 32 5e 7d be a2 32 36 bd
       0.07760737 0.1309866 -0.24742964 -0.04448188
0001c0 b9 c8 9f 3e 11 a9 a1 3c d8 03 99 3e 39 b9 98 bd
       0.31207827 0.019733937 0.29885745 -0.074572034
0001d0 f9 b4 c4 3e fe 59 2f be 39 54 30 3e e7 e1 a1 3d
       0.3841932 -0.17124173 0.17219628 0.079044156
0001e0 53 15 cb be 6e 4d 2c 3f f9 76 52 be 5e 1e 8b 3e
       -0.39664707 0.6730565 -0.20553197 0.27171606
0001f0 54 f1 56 40 c4 b1 a0 3e 7d d9 71 3e a9 d3 4f bd
       3.3584795 0.31385624 0.23618121 -0.050738964
000200 22 ec f6 be 66 cb fe bd 41 9d af 3e c2 82 ef 3c
       -0.4822703 -0.12441139 0.34299663 0.029237155
000210 6d e3 3e 3e e0 4c ac bd 09 73 33 3e 40 14 84 bd
       0.18641444 -0.084131 0.17524351 -0.06449175
000220 25 b2 0e 3d f3 f8 e5 bd be 1f ba be 2a 6c a5 be
       0.03483786 -0.11229124 -0.36352342 -0.32309085
000230 52 7c e8 bc f4 53 f2 bd 18 be 96 3d 68 b0 dd 3e
       -0.028379593 -0.11832419 0.07360476 0.4329865
000240 27 86 34 bd 2e b6 f1 be 61 7b f4 be 91 f3 68 bd
       -0.04407325 -0.47209305 -0.4775038 -0.056872908
000250 67 64 f3 bd a6 4d b8 3d 14 85 11 3d 30 5c 14 bf
       -0.118843846 0.08999185 0.035527304 -0.57953167
000260 3b 81 7c bd 10 b7 88 3e df f9 ce bc 59 6f 80 be
       -0.06164668 0.26702166 -0.025265632 -0.25084952
000270 31 26 d3 bf ed f4 c4 be c2 0f 58 3e d3 79 26 be
       -1.649603 -0.38468114 0.21099761 -0.1625741
000280 ac 17 c9 be 5b 8b 8e 3c 42 a6 87 be 9e 40 30 be
       -0.39275873 0.017400434 -0.26494032 -0.1721215
000290 2f 3b 19 be c2 86 e4 3d 98 07 78 be 86 ff 9a 3d
       -0.14963983 0.111585155 -0.24221647 0.075682685
0002a0 58 6f 18 3e 17 57 14 3f f9 7f 58 be 76 3a 40 be
       0.14886224 0.5794539 -0.21142568 -0.18772301
0002b0 e2 39 1e bf 63 53 30 3e da 4f 63 bd bf 0d 8f bd
       -0.6180707 0.1721931 -0.055496074 -0.06985044
0002c0 8a 46 32 bf 96 4a 6d bd 29 a7 1a be 50 f2 b2 3c
       -0.69638884 -0.05793246 -0.15102829 0.02184406
0002d0 92 e4 3a c0 8f 07 bd 3c b5 f4 c9 bd 6f d8 83 be
       -2.9202008 0.023074893 -0.09861127 -0.25751063
0002e0 fd 71 3b bf 7a 38 33 3e 8c a3 3f be 8f 7d 97 3e
       -0.7322081 0.17502013 -0.18714732 0.2958798
0002f0 1f 14 ab be 28 70 d4 bc f8 8d e2 3d 2a ac 66 3f
       -0.3341379 -0.025932387 0.11062235 0.9010645
000300 6a 4d 40 3e 7e 28 cb 3d f7 63 ab be 33 d6 2e be
       0.18779531 0.09919833 -0.33474705 -0.17073898
000310 e0 4e 99 3e cf 11 bb bc db 72 bd bc c0 ea 96 3e
       0.2994299 -0.02283564 -0.023126056 0.29475975
000320 43 0b 0a be 1e bb a5 be 0d 2e 3a be 57 90 30 3e
       -0.13480859 -0.32369322 -0.1818163 0.17242561
000330 49 1a a4 3f 96 77 18 be 21 bc 8b be 57 e0 7f bc
       1.2820522 -0.14889368 -0.27291968 -0.015617452
000340 6f 41 3d 3e 74 40 a2 b8 f8 c6 3e bf 83 2d 3b be
       0.18481992 -7.736767e-05 -0.7452235 -0.1827908
000350 61 7a a9 3e d0 6d 06 c0 c6 7b be bd d5 3e 36 c0
       0.3310118 -2.1004524 -0.09300952 -2.847585
000360 59 33 70 bd 48 7d a8 3d 8e 6c df be 58 16 5e 3e
       -0.05864272 0.082270205 -0.43637508 0.21688211
000370 69 9f a7 bf 94 71 e9 be ae 7a bb 3d a8 f2 49 3d
       -1.3095523 -0.45594466 0.09154259 0.04930368
000380 30 76 5d be ed ce 25 be 8b b9 1c be 7d dc 31 bf
       -0.21627116 -0.16192217 -0.15305154 -0.69477063
000390 2b c6 f7 3c 3f 98 73 3e 4d 54 98 be db f0 aa be
       0.030245861 0.23788546 -0.29751816 -0.33386883
0003a0 88 b0 e1 be 5d f0 4b bf bf 4a cc bd 36 95 ce bb
       -0.44079995 -0.7966364 -0.09975194 -0.0063044084
0003b0 2e a8 ac bd 20 02 02 be f7 d6 64 3e 06 ce 01 3d
       -0.08430515 -0.12696123 0.22347628 0.03169062
0003c0 e1 bf a7 be b9 c7 77 bc 0f 2d 99 be 04 d0 98 3d
       -0.3276358 -0.015123301 -0.2991719 0.07461551
0003d0 d7 ec c4 be b1 8b 29 3e 06 bc 38 be e1 8c 7f bd
       -0.38461944 0.16557194 -0.18040475 -0.062390212
0003e0 db b6 c8 3e 31 bb 28 bf 78 56 60 3e 19 b6 84 be
       0.39202008 -0.6591063 0.21907985 -0.2592018
0003f0 19 f8 56 c0 db e2 9a be 4e c5 6c be 2a 8c 4a 3c
       -3.3588927 -0.30251202 -0.23122141 0.012362519

network_body._body_endoder.seq_layers.0.bias f4 [128]
000000 fc fd 6e 3e 5a c8 04 be 6c fd 72 be d7 90 33 be
       0.23339075 -0.12967053 -0.23729485 -0.17535721
000010 b6 ce a8 3e 0b 3c 0d 3e 45 8f 8e be ff 08 ac bc
       0.32970208 0.13792436 -0.2784368 -0.021000383
000020 3e e8 81 be 49 fe 82 3e 87 6f a7 be 79 55 5b 3e
       -0.253725 0.2558463 -0.32702276 0.21419324
000030 9a c3 b4 bf e7 62 c8 be b0 24 66 bd 64 7c 02 bf
       -1.4122193 -0.39137957 -0.05618733 -0.50971055
000040 e7 70 34 3e 2f ef 6f bf db 40 bd bd 84 fc d3 be
       0.17621194 -0.9372434 -0.09240886 -0.41403592
000050 c3 eb 4e bf 71 16 95 3d 0b 17 99 bd 21 bb 84 be
       -0.80828494 0.07279671 -0.07475098 -0.25924018
000060 46 8f aa be fb c6 65 bc ac b2 4f 3e 6b 17 e6 3d
       -0.33312434 -0.014024491 0.20283002 0.112349354
000070 4c 17 38 be 83 85 89 be a7 80 fd be 4b b1 f3 3d
       -0.17977637 -0.26859674 -0.49512216 0.1189905
000080 7c ea 14 bf 26 9a 0a be 56 6c f5 3c bd c2 6d 3b
       -0.58170295 -0.13535365 0.029958885 0.0036279403
000090 f2 c4 26 bf f7 b0 a0 3d e5 ac 7b 3e d5 d5 fb 3c
       -0.65144265 0.07846253 0.24577673 0.030741611
0000a0 32 cb 15 3d c9 87 2c bf fa 48 95 be 9b eb 1d be
       0.036570735 -0.6739469 -0.2915724 -0.15421908
0000b0 6b 5a 06 bf 48 f4 60 bf 65 fd 1e bf d7 2f 58 bd
       -0.52481717 -0.87872744 -0.621054 -0.05278
0000c0 83 6a da be 25 0d 4b bc a0 cb 26 bf 94 b2 53 be
       -0.42659387 -0.012393271 -0.6515446 -0.20673591
0000d0 e9 9f a8 bd 19 f6 4c bf aa 92 13 bf fa 30 6d be
       -0.082336254 -0.80063015 -0.57645667 -0.23163214
0000e0 63 a5 9e be cf cc e7 3e f6 d6 42 bf 41 8a a0 bd
       -0.30985555 0.45273444 -0.76109254 -0.0783887
0000f0 bc 85 49 bf a5 0a 02 bf 56 2b 8c be 3d 66 e3 be
       -0.7871969 -0.5079749 -0.27376813 -0.4441394
000100 e6 9d d9 be d9 d4 98 be f6 3e 10 be b7 ac aa bc
       -0.4250328 -0.2984989 -0.14086518 -0.02083431
000110 39 cc 81 3e 69 47 4c bf c0 9a 51 bd 90 97 6d bf
       0.25351122 -0.79796463 -0.05117297 -0.9280939
000120 17 d2 3e be 63 05 00 be 47 6d 1e be b2 17 a0 be
       -0.1863483 -0.12502055 -0.15471373 -0.31268078
000130 22 70 1a be cd 69 36 3d f8 f4 cd bd 7c 65 27 3e
       -0.15081838 0.044534493 -0.1005649 0.16347307
000140 26 3f f6 bb 80 4a 2f bf 5a df a8 be cd 21 e3 3e
       -0.007514852 -0.6847305 -0.32982904 0.44361725
000150 2b 2f 15 bf d2 b5 05 bd 7c 12 6d bd d9 76 4f bf
       -0.582751 -0.0326441 -0.057878956 -0.8104072
000160 5c 83 a6 3d 90 64 54 3e f9 6b a6 3e 70 e6 25 bd
       0.081305236 0.20741487 0.32504252 -0.040502965
000170 34 c7 ce be 8c 66 12 3e 7b c8 7b bf 0b df a7 bd
       -0.40386355 0.14296931 -0.98352784 -0.08196839
000180 2c 77 21 be 05 2e 30 be 08 e1 c1 3d a9 68 42 be
       -0.15768117 -0.17205055 0.094667494 -0.18985237
000190 bc 83 07 bf d1 6e 3e bf 45 c4 65 be 17 bb 11 3e
       -0.52935386 -0.7438784 -0.22438152 0.14231525
0001a0 7a ea 04 be dc f3 b7 bf 55 33 19 3e c5 a0 93 be
       -0.1298007 -1.4371295 0.14960988 -0.28833595
0001b0 10 1d 93 3d 05 20 1e be 1e be 35 bf 81 39 7f 3d
       0.071832776 -0.15441902 -0.7099322 0.0623107
0001c0 98 e6 a2 be 08 93 8b bf fe 5c 40 bd b9 93 ca 3b
       -0.31816554 -1.0904245 -0.046963684 0.0061821607
0001d0 56 8a 10 bf eb 84 ac bc a2 36 b6 be e7 fb bc 3e
       -0.56461084 -0.021059474 -0.35588557 0.36910936
0001e0 22 96 6c be f4 d8 01 3e a7 56 5d be 4e 29 95 3e
       -0.23104146 0.12680417 -0.21615086 0.29133075
0001f0 b5 c3 0e be ae ae 85 3e 25 38 2b 3e 0b 97 88 be
       -0.13941844 0.26109833 0.16720636 -0.26677737

network_body._body_endoder.seq_layers.0.weight f4 [128, 26]
000000 2c 7c d6 3b 36 4c 31 bf d9 4d 22 bf df 89 fc 3e
       0.006545564 -0.69256914 -0.63400036 0.49323937
000010 36 89 87 3e f6 f7 0f 3e 40 52 10 3e ca f2 41 be
       0.2647187 0.14059433 0.14093876 -0.18940273
000020 28 4d 9a 3e b0 94 0d 3e f6 c8 bc 3e 5a af 3d 3e
       0.3013699 0.13826251 0.3687207 0.18523923
000030 1f 73 26 3e 85 63 66 3e fe dc 13 bf ba 9a ff be
       0.16254853 0.22498901 -0.5775908 -0.49922734
000040 a8 c1 09 3e 78 9d b4 3a 9d 35 b7 bc 63 26 c6 3d
       0.1345278 0.001377984 -0.022364432 0.096752904
000050 5f 8e 5c 3d ca d4 47 be 0b 9b b6 be b2 da 3f be
       0.053846713 -0.19514766 -0.35665163 -0.1873577
000060 ad 89 7a 3e 31 13 fe 3d 7a e5 e9 38 14 10 64 bf
       0.24466582 0.12406004 0.00011153049 -0.89087033
000070 a7 67 a3 be 2d 73 98 be 76 2a 29 be c5 ca ed 3e
       -0.31915018 -0.29775372 -0.16520104 0.46443763
000080 ce a5 b3 be e6 79 ec 3e 6d 11 6c be fc 0a 9c 3d
       -0.35087436 0.4618675 -0.23053522 0.076192826
000090 0c 47 ac bf a5 95 96 3d ce 42 9b 3e 32 28 24 be
       -1.3459182 0.07352761 0.30324405 -0.16030958
0000a0 7c a8 f6 be 68 f1 e4 be 4f ab d6 be 5e ef fe 3d
       -0.48175418 -0.44715428 -0.41927573 0.124479994
0000b0 a2 a3 e3 bc 55 da 54 be 89 fc 96 3d 8f 65 ef be
       -0.027787987 -0.20786412 0.07372386 -0.4675717
0000c0 e6 2b 1e bf 8b a4 98 bf 59 f8 f5 bb 4f 02 4e be
       -0.61785734 -1.1925215 -0.007506412 -0.20118068
0000d0 97 cc 06 be 1d d7 cd be 7a 97 11 3d 68 a9 a7 bd
       -0.13163982 -0.4020318 0.03554485 -0.081866086
0000e0 51 62 01 bf 6d ad 68 3e 24 c5 d7 be 19 72 bc 3e
       -0.50540644 0.22722407 -0.42142594 0.368058
0000f0 3d 44 94 be 5e 92 bc 3d bc 3c 1f be 9d 48 8e be
       -0.28958312 0.09207605 -0.15550512 -0.27789775
000100 02 7c 32 be 32 4c dd 3d f1 0f 37 bd 13 46 4a 3e
       -0.17430118 0.10805549 -0.044692937 0.19753294
000110 f2 c0 3a be 5b 85 0d be 3c 04 3a bc b1 ec 7c be
       -0.18237665 -0.13820402 -0.011353549 -0.24699666
000120 9a f4 08 3f 1f c6 28 bf 69 be b9 3e 4b d3 59 be
       0.5349823 -0.6592731 0.36278084 -0.21272008
000130 26 fd ea 3d 6a 2e 15 be b6 aa ab be 7b c9 6c be
       0.114740655 -0.14568487 -0.3352868 -0.23123734
000140 a3 44 f8 3e 3a 47 d0 bd e1 dc 0f bf 06 65 29 3e
       0.48489866 -0.101698354 -0.5619641 0.16542444
000150 4e ef ac bb 16 88 d5 bc 7e 57 bf bc 59 36 45 be
       -0.005277551 -0.026065867 -0.02335715 -0.19259013
000160 5b 4a 3f be 69 9e 2a 3e 64 83 fe 3e b2 c3 2f bf
       -0.18680708 0.16661991 0.49709618 -0.6865798
000170 7d 5e 02 3e b4 f3 94 3e c8 4e 98 bd 36 fd 72 be
       0.12731357 0.2909218 -0.07436901 -0.23729405
000180 ac 7d 8d 3d 34 ed 20 3f f7 c3 c3 3e 2a e6 a8 be
       0.06908736 0.62861943 0.38235447 -0.329881
000190 af fb dd be 75 73 07 bf c7 e9 d8 3e 32 e8 69 3c
       -0.43356082 -0.5291055 0.42365858 0.014276551
0001a0 77 6f 01 3f d5 c3 0b bf 60 82 d6 be cc 97 95 3e
       0.50560707 -0.5459569 -0.41896343 0.29217374
0001b0 a8 e4 72 3e 4d 91 f4 bd d0 71 8f bd bf a4 81 3d
       0.23720038 -0.119417764 -0.0700413 0.06330251
0001c0 99 cb 34 bc cb 01 b6 be ee 3c 17 3e 62 13 24 3f
       -0.01103487 -0.35548243 0.14769337 0.64092076
0001d0 df 59 95 bd e0 0b 19 be 95 f3 08 bf b9 6c 3e bf
       -0.07292532 -0.14945936 -0.53496677 -0.7438465
0001e0 d3 af e6 3b 7d 74 05 3e fd 5a 81 be e4 4d 9b be
       0.007040003 0.13032718 -0.2526473 -0.30332863
0001f0 b4 78 82 bd 7b 4d ff be 78 4f d5 be b9 8f 92 be
       -0.063706785 -0.498638 -0.41662192 -0.28625277
000200 e6 3d d6 3e 50 a6 f0 be c4 50 fa bd fd bc 3c 3f
       0.418441 -0.47001886 -0.12222436 0.73725873
000210 9a ff 80 3f 35 86 0b be 4c 34 46 3c d6 9c d3 bd
       1.0078003 -0.13625415 0.0120974295 -0.103326485
000220 ef 59 8b 3c 22 98 a1 3e 3c 69 da be 6f 23 9d 3e
       0.017010657 0.3156138 -0.42658412 0.30691096
000230 3a 33 42 bf f1 ad b8 be 57 43 d6 bd 8d 7d 52 3e
       -0.75859416 -0.36070207 -0.10462063 0.20555706
000240 e3 46 e4 3e e4 9c 65 3f 48 7b 13 3e db b6 19 3d
       0.44585332 0.8969252 0.14402497 0.0375279
000250 2d 70 2f 3d 1d 0f 12 bf d3 0b a7 3e 4e 42 c0 be
       0.04283159 -0.5705431 0.3262621 -0.37550586
000260 71 ba 91 3d c9 bb 02 bf 0c 36 3d bf 57 9a ad be
       0.07115639 -0.5106779 -0.73910594 -0.33906814
000270 3a c4 f5 3e 2a b2 00 bf 52 88 04 be 30 d3 13 be
       0.4800127 -0.50271857 -0.12942627 -0.1443603
000280 ba 2b b1 be bc 0b 3a 3e 4b e3 fe bc 98 ba 53 be
       -0.34603673 0.18168539 -0.031114241 -0.20676649
000290 46 15 84 3e 33 c6 87 be d0 6b 39 bf e0 e2 de be
       0.2579748 -0.26518402 -0.72430134 -0.43532467
0002a0 22 57 7a bd f8 06 b9 3e 14 17 d8 bc e9 82 57 be
       -0.061118253 0.3613813 -0.026378192 -0.21046032
0002b0 27 2b f7 be 0d ed 9b bd 6c bc 63 3e cf b8 fc be
       -0.4827511 -0.07613573 0.22239846 -0.49359748
0002c0 63 43 59 be 62 81 c7 3e ee 78 2d be bf 9f 85 bf
       -0.21217112 0.389659 -0.16940662 -1.0439376
0002d0 66 ec 35 3e 3e 7b ca bd f4 5d 3f be d6 07 70 3d
       0.1776596 -0.09886788 -0.18688184 0.058601223
0002e0 0c 3f f0 be 4f 71 9a 3d 10 6c 47 bd 0d 73 4e 3e
       -0.469231 0.07541143 -0.04868704 0.20161076
0002f0 a4 d1 c1 bc 82 38 9d 3d 5f 5a 24 bc 69 90 c5 3c
       -0.023659535 0.07676794 -0.010031312 0.024116712
000300 e2 78 29 bf 56 ef 1b 3c 2e 3a 29 3e d7 cd b1 be
       -0.6620008 0.009517511 0.165261 -0.34727356
000310 30 84 b4 3d cd 2d 51 be a5 03 80 3c 08 16 10 3e
       0.08814275 -0.20427628 0.015626738 0.14070904
000320 ba 23 93 3e 9d bd 30 bc 7d 1f 09 be ee 90 88 bc
       0.28738195 -0.010787395 -0.13390918 -0.01667067
000330 f4 bf 51 bd 01 7e 2d 3f 31 a6 d6 3b d4 50 20 be
       -0.05120845 0.6777039 0.0065505733 -0.15655833
000340 a8 94 0a bf 8d 36 8e 3f 5c c9 c1 3f 64 24 cf be
       -0.5413308 1.1110398 1.5139575 -0.4045745
000350 ea 8d d1 bd c3 98 cc 3e 14 5d e1 bd 78 39 07 3f
       -0.10232146 0.39960298 -0.11004081 0.52822065
000360 7e e0 21 be 6a 71 9a be 08 b5 a4 3c 72 96 88 be
       -0.15808293 -0.30164653 0.020105854 -0.2667728
000370 30 fc 33 be 44 46 41 bf 8f 7c cb 3e 40 47 98 3f
       -0.1757667 -0.7549784 0.39743468 1.1896744
000380 44 84 72 be 2f 61 de bd 38 ef e7 3d 3f b7 8c bd
       -0.23683268 -0.1085838 0.11324924 -0.06870889
000390 ef 5d 12 3f 76 43 47 be 96 50 8d be 59 ef b0 3d
       0.5717458 -0.19459328 -0.27600545 0.08639402
0003a0 70 68 ab be 34 95 58 be 4e 29 0d 3f 93 48 01 bf
       -0.33478117 -0.21150666 0.5514115 -0.50501364
0003b0 2b a4 f2 be ef f6 84 bd b3 5c 08 bd 94 70 e6 3d
       -0.47390875 -0.06492411 -0.03329153 0.11251941
0003c0 b0 93 46 3a 6f 64 4f bd fc 2c a3 bd ca ac 38 bd
       0.0007575108 -0.05063289 -0.079675645 -0.04508666
0003d0 21 37 58 3e 73 1b 29 3f c4 90 50 be 21 60 1b 3f
       0.2111478 0.6605751 -0.20367724 0.60693556
0003e0 48 28 20 be 60 73 ce be d8 0b b8 3e d6 22 ed 3e
       -0.15640366 -0.403224 0.35946536 0.4631564
0003f0 55 c6 be be 74 b0 19 be 41 ce 7f be 89 c8 de 3c
       -0.3726069 -0.15008718 -0.24981023 0.027195232

network_body._body_endoder.seq_layers.2.bias f4 [128]
000000 f0 23 1d bf c5 b6 87 bf 57 00 76 bf 9b 39 75 bf
       -0.6138296 -1.0602652 -0.9609427 -0.95791024
000010 30 05 4f bf 1d d8 1c bf 68 ff 3f bf 17 74 5f bf
       -0.8086729 -0.6126726 -0.74999094 -0.87286514
000020 f0 ae 6b bf 87 fc 5e bf 33 fe 3a bf 86 69 4b bf
       -0.9206381 -0.87104076 -0.7304413 -0.7945789
000030 eb 19 63 bf 15 e5 51 bf 91 d0 78 bf f5 a9 5b bf
       -0.8871142 -0.81990176 -0.9719325 -0.8580621
000040 57 a3 6f bf aa 0b 65 bf ff 60 6d bf 15 89 62 bf
       -0.9360861 -0.8947092 -0.9272613 -0.8849042
000050 69 41 68 bf f9 3b 4c bf 11 a2 73 bf f8 b7 48 bf
       -0.9072481 -0.7977901 -0.9516917 -0.78405714
000060 bc 65 52 bf 16 c3 64 bf 1f 41 6d bf e1 3d 50 bf
       -0.82186484 -0.8936018 -0.9267749 -0.8134442
000070 2e 6b 74 be ed dc 5a bf 15 e8 78 bf 73 80 4e bf
       -0.23869011 -0.85493356 -0.9722913 -0.8066475
000080 92 ff 55 bf 7c f0 64 bf d6 a5 59 bf a5 c7 73 bf
       -0.83593094 -0.8942945 -0.8501867 -0.9522651
000090 10 08 62 bf 05 33 62 bf 78 54 0e bf cb 75 8e be
       -0.8829355 -0.883591 -0.5559764 -0.27824244
0000a0 48 80 6c bf 14 d3 62 bf b7 c2 7d bf 6c f0 50 bf
       -0.9238324 -0.8860333 -0.99125236 -0.81616855
0000b0 2b 31 0f bf 26 49 89 bf 5f 49 52 bf 4e b3 58 bf
       -0.559344 -1.0725448 -0.82143205 -0.846486
0000c0 86 4a 56 bf e8 41 82 bf c6 ce 79 bf a9 07 66 bf
       -0.83707464 -1.0176363 -0.97581136 -0.8985544
0000d0 1c 68 86 be 4c 50 5e bf 34 f7 25 bf 0b 4b 58 bf
       -0.26251304 -0.86841273 -0.6483033 -0.84489506
0000e0 82 09 27 bf 90 83 42 bf 17 cd 3b bf 16 03 63 bf
       -0.6524888 -0.75982 -0.7335982 -0.88676584
0000f0 60 e5 1e bf 65 c9 bc bd ae 24 58 bf 68 fe 1a bf
       -0.6206875 -0.092181005 -0.8443097 -0.60544443
000100 a6 cc 41 bf a1 a8 6e bf fa 6c 4f bf 00 ab 1e bf
       -0.75702894 -0.9322606 -0.8102566 -0.61979675
000110 5d 23 7b bf a8 1b 42 bf 2d 32 37 bf e0 f7 68 bf
       -0.98100835 -0.7582345 -0.7156094 -0.9100323
000120 91 de 61 bf df 87 6f bf 2d bc 94 bf e8 2d 7d bf
       -0.88230234 -0.935667 -1.1619927 -0.9889817
000130 28 e7 4c bf d5 20 63 bf 97 a0 32 bf 55 c6 46 bf
       -0.80040216 -0.8872197 -0.6977629 -0.7764638
000140 9f 93 47 bf 8b d8 6e bf 2a 82 5b be 32 d5 31 bf
       -0.77959627 -0.9329917 -0.21436372 -0.69465935
000150 79 39 61 bf 47 6e 1f bd 6c 16 70 bf ff 44 01 3d
       -0.8797832 -0.038923528 -0.93784213 0.03155994
000160 8a 6f 1b bf a2 8e 66 bf 7e 82 42 bf e5 38 73 bf
       -0.6071707 -0.9006139 -0.75980365 -0.9500869
000170 8b d2 e4 be ce 75 4a bf 18 07 5c bf ed 2b 38 bf
       -0.44691882 -0.79086006 -0.85948324 -0.71942025
000180 41 a1 56 bf ed 98 7e bf 5d 0c 09 bf 0f 98 f1 bd
       -0.83839804 -0.99452096 -0.5353449 -0.11796581
000190 9e 58 a2 bd 3d 3b 5e bf c5 5e 3f bf d2 61 2c bf
       -0.07927059 -0.8680914 -0.7475398 -0.6733676
0001a0 ca 18 4b bf c9 ed 79 bf 9a 08 82 bf 85 40 54 bf
       -0.793347 -0.97628456 -1.0158875 -0.8291095
0001b0 1d 3b 5e bf 13 8f 42 bf 78 b3 53 bf fa 7d 6f bf
       -0.8680895 -0.75999564 -0.8269572 -0.935516
0001c0 ab fe 5d bf 35 65 32 bf b0 28 65 bf ec 51 4c bf
       -0.8671672 -0.6968568 -0.8951521 -0.798125
0001d0 c9 a8 55 bf 18 16 75 bf 16 ab 37 bf 03 8f 51 bf
       -0.8346067 -0.9573684 -0.7174543 -0.81858844
0001e0 1e 53 78 be c2 d3 1b bf 78 e7 25 bf 0d d2 62 bf
       -0.24250457 -0.6086999 -0.6480632 -0.8860176
0001f0 70 a6 89 bb 08 e0 38 bf f8 5d 36 bf 73 8d 7c bf
       -0.004200749 -0.72216845 -0.71237135 -0.98653334

network_body._body_endoder.seq_layers.2.weight f4 [128, 128]
000000 f5 04 88 be 78 b4 83 3e c6 c8 e8 be 73 f2 47 bd
       -0.26566282 0.25723624 -0.45465678 -0.048815202
000010 bc a7 10 bf 2b f1 05 bf 06 87 03 3e 00 54 bb bc
       -0.5650594 -0.5232112 0.12844476 -0.022867203
000020 58 93 65 be 7f 0d 08 bf 7c 80 d8 3e 93 67 8f be
       -0.22419488 -0.53145593 0.42285526 -0.28008708
000030 b2 8f e9 3e b1 38 30 bf 85 5d 51 bf 21 fe ca 3e
       0.45617443 -0.68836504 -0.81783324 0.3964701
000040 82 ac d1 3e 5e f6 9a 3e 05 6a cc be 7d ef 0d 3f
       0.40951926 0.30266088 -0.39924636 0.55443555
000050 63 a9 6b 3e 07 69 0d bf e4 0c f5 be 32 5e 1c be
       0.23013835 -0.55238384 -0.47861397 -0.15270308
000060 0e 83 98 3e f6 15 a1 be b3 2b 45 bf ba 22 17 bf
       0.29787487 -0.31462067 -0.77019805 -0.59037364
000070 f9 97 6d 3e c1 db 92 3e ed b4 a5 3e d4 a5 17 bf
       0.23202504 0.28683284 0.32364598 -0.5923741
000080 ae 5c f8 3e c2 8f d8 bd 1e 22 22 bf fe f7 ee be
       0.4850821 -0.105742946 -0.6333331 -0.46673578
000090 53 3c ec 3e a0 ed 05 bf ab 42 22 bf a3 c2 4b bf
       0.46139774 -0.5231571 -0.6338298 -0.7959387
0000a0 8f bb 2d bf 97 e4 70 3e a7 b4 ae 3e 18 6c 97 3e
       -0.67864317 0.235247 0.34122202 0.29574656
0000b0 97 51 82 3e 4a 2b b0 3e 1c f8 e9 3e b9 74 89 be
       0.25452873 0.34408027 0.45697105 -0.26846865
0000c0 39 bf a8 3e bf 2a 07 bf 61 ca ba 3e 41 9c 2d 3e
       0.3295839 -0.527996 0.36482528 0.16954137
0000d0 50 cd a0 3e 3f fe ea 3e 66 ee 1d 3e 01 b7 13 be
       0.3140664 0.458971 0.15422973 -0.14425279
0000e0 85 40 7f 3e 71 ba 96 be 96 77 8f 3e 25 1f 85 be
       0.24926956 -0.29439119 0.28020924 -0.26000324
0000f0 a3 1b a1 3e 5c 3a 4f be 6e 06 97 3e 23 b4 91 3d
       0.31466398 -0.20237106 0.29497093 0.071144365
000100 8c 5f d0 3e 88 92 19 3f eb 84 cc 3d 66 68 83 3e
       0.40697896 0.59989214 0.099862896 0.25665587
000110 c5 9f 3d bf d8 54 b5 3e df ac fd be b6 cd 87 3e
       -0.74071914 0.35416293 -0.49545953 0.26524132
000120 8c 1a ef be ad 14 da 3e e5 89 c9 be 52 4e dc 3c
       -0.4669994 0.425939 -0.39363018 0.026892815
000130 a1 97 a8 3d e3 d2 ec be b3 9b f8 be 98 e1 8e be
       0.08232046 -0.46254644 -0.4855629 -0.2790649
000140 ef 4a 42 be ab 3a e2 3d 6a 98 60 3e 8c 5a 39 bf
       -0.18973897 0.11046346 0.21933141 -0.7240379
000150 3b 8c bb 3e 6c 7b f4 be 30 f8 94 3e 66 5e 08 3f
       0.36630425 -0.47750413 0.29095602 0.5326904
000160 c0 00 2a bf 0e d8 21 bd 6b 18 0e bf 3e 36 12 bf
       -0.66407394 -0.039512686 -0.5550601 -0.57114017
000170 5e 8a 34 3c 7c 22 b3 be bf d6 95 3e cc 76 00 bf
       0.011019317 -0.34987247 0.292654 -0.5018127
000180 b9 61 b6 bd 24 0e 59 3e ce f2 fa be e9 e6 c4 3e
       -0.08905358 0.211968 -0.4901337 0.3845742
000190 28 d6 de 3e 17 26 9b 3e fb 9f a5 bd 91 9e 08 bf
       0.43522763 0.30302498 -0.080871545 -0.53366953
0001a0 ed 52 21 be 40 9d 05 3f 47 53 3a bf 44 45 80 be
       -0.1575429 0.5219307 -0.7278332 -0.25052845
0001b0 4f 6d 2f bf cb 4a 33 bf b0 e0 95 3e fb e9 fa be
       -0.68526167 -0.70036 0.29272985 -0.49006638
0001c0 95 1c 59 bd ac 3c 08 3f 3b a6 06 be 34 a1 b6 bd
       -0.053005774 0.5321758 -0.1314935 -0.08917466
0001d0 5e 7e 47 3d 7b 7b fd bd 09 fa 3a 3e bc 5a a7 3e
       0.048704498 -0.12377068 0.18259443 0.32686412
0001e0 82 56 eb 3e 23 cf 3e bf 56 f8 bf be 72 08 65 bf
       0.45964438 -0.74534816 -0.37494153 -0.8946601
0001f0 98 32 fb be 55 d4 d7 be de 87 4e bf cd 49 1f 3d
       -0.49062037 -0.42154184 -0.80676067 0.03888874
000200 54 92 69 be d5 ff 7f 3d 54 34 97 be f3 ad 19 bd
       -0.22809726 0.06249984 -0.2953211 -0.037519407
000210 c4 78 07 be 2f cd fc be 8c 14 c6 3c 1e db 6d be
       -0.13229662 -0.49375293 0.02417972 -0.23228118
000220 57 0f 9f be ef 5b 9c be fd 95 ac 3e f5 8a aa be
       -0.3106639 -0.3053889 0.33708182 -0.3330914
000230 56 ac b2 3e 76 43 af be 69 5f df be 9e f7 84 3e
       0.34897107 -0.34231156 -0.4362748 0.25970167
000240 0b b2 2b 3e 4c 8f 50 3e 8e 9d 17 bf ac 51 ab 3e
       0.16767137 0.20367163 -0.59224784 0.33460748
000250 61 05 c3 3e 7f d0 32 bf d1 8a 0f bf 0c c3 d4 3d
       0.3809004 -0.6984939 -0.5607119 0.10388765
000260 c5 81 90 3b 77 8d c3 be b0 93 50 bf af fa 19 bf
       0.004410001 -0.38193867 -0.81475353 -0.6014814
000270 ef a7 18 3e 9b d6 32 3f ae cb f4 3e e8 28 5b bf
       0.14907812 0.6985871 0.47811645 -0.85609293
000280 eb da e9 3e 52 24 9a be 58 a8 51 bf c1 45 d0 be
       0.45674834 -0.30105835 -0.818975 -0.40678218
000290 48 5a 15 3f 95 50 bb be 1c 5a 11 bf b6 da 29 be
       0.58340883 -0.36584917 -0.5677812 -0.16587338
0002a0 64 a7 6c bf 2a 3d 59 3e 40 94 92 3e 96 d0 e1 3d
       -0.9244292 0.21214738 0.2862873 0.11026113
0002b0 e3 8f 11 bd 3d 2e 57 3e 20 e9 f5 3e ca 64 84 be
       -0.03553761 0.21013732 0.48029423 -0.25858146
0002c0 bd c4 3e 3e cd 26 03 bf 83 81 1d 3f e4 47 e6 bd
       0.18629737 -0.5123108 0.61525744 -0.11244181
0002d0 a3 ba 7d 3c b1 54 0c 3f d5 d4 86 3e 9b 63 4c 3c
       0.015486392 0.5481673 0.26334253 0.01247492
0002e0 d9 f4 f3 3e df 9f f9 be cd e2 20 3e 4d d7 12 bf
       0.4764774 -0.48754784 0.15711518 -0.5735977
0002f0 a1 a0 92 3e 28 15 1d bc d8 2b 8f 3e 51 a2 5c be
       0.28638175 -0.009587564 0.27963138 -0.21546294
000300 9b 5a 66 bd 1c b3 c3 3e 2f 80 06 3e fb 06 b6 bb
       -0.05623875 0.38222587 0.13134836 -0.0055550314
000310 b1 e4 38 bf 00 d6 f7 3d aa 7a 0f bf 61 82 88 3e
       -0.72223955 0.12101364 -0.56046546 0.2666197
000320 35 ed ab be 5c c7 0d 3f 77 7d 16 bf e1 cc 80 3e
       -0.33579412 0.55382323 -0.58785194 0.2515631
000330 e1 b5 b0 3d 8b 37 62 be b8 0c ee be 69 e2 2b be
       0.08628441 -0.220915 -0.4649408 -0.16785587
000340 12 6c e1 3d 89 13 3a be 39 8b 7a bd 78 3c c0 be
       0.11006941 -0.18171515 -0.06116793 -0.37546134
000350 72 3e 2c 3f b6 2e ae bd e2 f6 9d 3b b2 a0 33 3f
       0.67282784 -0.08505003 0.0048206905 0.70167077
000360 e0 0d ff be f7 11 f0 bd 9f 02 08 bf 60 27 e0 be
       -0.49815273 -0.117221765 -0.53129 -0.4378004
000370 58 90 de bd 7b 65 fb be 77 3b 48 3e a5 ad 89 be
       -0.10867375 -0.4910086 0.19553934 -0.26890293
000380 e3 0c f8 ba e4 38 12 3e b0 c1 ea be f9 cf b1 3e
       -0.0018924739 0.14279515 -0.45850897 0.34728983
000390 89 62 d5 3d 90 a6 17 3e 7e cd 0b be 88 cd 6c be
       0.10419185 0.14809632 -0.13652608 -0.23125279
0003a0 22 40 56 be 68 68 01 3f 99 30 c9 be ac 5d db bd
       -0.20922902 0.50549936 -0.3929489 -0.10711226
0003b0 dc ac 2c bf f7 9e 14 bf 23 a4 1b 3f 0f 75 2d bf
       -0.6745126 -0.5805506 0.6079733 -0.6775674
0003c0 8d fe 3a be 3c 98 af 3e 18 76 9f be d3 95 22 bd
       -0.18261166 0.34295833 -0.31144786 -0.039693665
0003d0 1e 0d 3e bc 18 44 7d bd a2 a7 33 be db a8 91 be
       -0.011599807 -0.061832517 -0.17544416 -0.2844914
0003e0 8b 14 90 3d 82 aa 1c bf 47 2b 3d be 50 b0 7a bf
       0.07035168 -0.61197674 -0.1847354 -0.9792528
0003f0 01 6f 2d bf 33 13 08 bf 7b 0f 3e bf f6 d1 cd 3d
       -0.67747504 -0.53154296 -0.7424237 0.100498125
