AIRocketLanding/results/AIRocketAgain1/AIRocket/AIRocket-165999969.pt (torch, 505935 bytes, 42 tensors)

network_body._body_endoder.seq_layers.0.weight f4 [128, 26]
0	0xbaac2641	-0.0013133959
1	0xbf34004f	-0.7031297
2	0xbf24dc75	-0.6439889
3	0x3efc5867	0.49286196
4	0x3e875507	0.26432058
5	0x3e105f85	0.14098938
6	0x3e0bf881	0.13669015
7	0xbe51834c	-0.20460242
8	0x3ea1cd7a	0.3160208
9	0x3e260262	0.16211846
10	0x3ebc0738	0.36724257
11	0x3e3e35c6	0.185752
12	0x3e25ffdb	0.16210882
13	0x3e5e61bc	0.2171697
14	0xbf169144	-0.5881541
15	0xbf025e41	-0.5092507
16	0x3e095d70	0.1341455
17	0x3a7e5eb5	0.00097034435
18	0xbcb3e81b	-0.021961262
19	0x3dbf9d2a	0.093561485
20	0x3d1c2bcd	0.03812771
21	0xbe384727	-0.17995892
22	0xbeaa5fa3	-0.3327609
23	0xbe40de74	-0.18834859
24	0x3e7b0c44	0.24516398
25	0x3dfd30fb	0.12362858
26	0x3b5e2822	0.0033898433
27	0xbf65173d	-0.89488584
28	0xbea2bb83	-0.31783685
29	0xbe9a2b89	-0.3011134
30	0xbe2cbaa3	-0.16868071
31	0x3eef901d	0.46789637
32	0xbeb2f9df	-0.34956262
33	0x3ee91924	0.45526993
34	0xbe658100	-0.22412491
35	0x3da31c75	0.07964412
36	0xbfac98b7	-1.3484105
37	0x3d9cd175	0.07657138
38	0x3e99a226	0.30006522
39	0xbe20cc00	-0.1570282
40	0xbef8a93e	-0.48566622
41	0xbee437ac	-0.44573724
42	0xbed85d41	-0.42258647
43	0x3df7e956	0.12105052
44	0xbcc7b531	-0.024378391
45	0xbe536c79	-0.20646848
46	0x3d893282	0.06699087
47	0xbeec089e	-0.46100324
48	0xbf1d4932	-0.6143981
49	0xbf99009d	-1.1953312
50	0xbb925ba6	-0.0044664918
51	0xbe5149d7	-0.20438324
52	0xbe04c89d	-0.12967153
53	0xbed0b652	-0.407641
54	0x3d1e8304	0.038699165
55	0xbdaebd5b	-0.085322104
56	0xbf024d4b	-0.5089919
57	0x3e6c5353	0.2307866
58	0xbed27dee	-0.41111702
59	0x3eb7f1e8	0.35926747
60	0xbe8f8a05	-0.28034988
61	0x3db915ea	0.09037383
62	0xbe21e055	-0.15808232
63	0xbe8cc0ef	-0.27490947
64	0xbe358b96	-0.17729029
65	0x3de16489	0.11005504
66	0xbd4a3b39	-0.049372885
67	0x3e4da427	0.2008215
68	0xbe3e254c	-0.18568915
69	0xbe11096a	-0.14163747
70	0xbc021760	-0.007940143
71	0xbe7282c8	-0.23682702
72	0x3f06c0b8	0.52637815
73	0xbf26756e	-0.65022933
74	0x3eb8e0e5	0.3610908
75	0xbe5c7d76	-0.21532235
76	0x3df11e89	0.11773402
77	0xbe183f9f	-0.1486802
78	0xbeaa84c6	-0.33304423
79	0xbe612c30	-0.21989512
80	0x3efb0508	0.49027276
81	0xbdcb0c5f	-0.09914469
82	0xbf0f29e6	-0.55923307
83	0x3e26a108	0.16272366
84	0x39a1d1fa	0.00030864758
85	0xbcb6e556	-0.022326153
86	0xbcdbe127	-0.02684076
87	0xbe4d1571	-0.2002771
88	0xbe3c82f1	-0.18409325
89	0x3e27e395	0.1639541
90	0x3effae40	0.4993763
91	0xbf2f301e	-0.68432796
92	0x3e0ddf28	0.13854659
93	0x3e97b13a	0.296274
94	0xbd931d39	-0.07183308
95	0xbe70367b	-0.23458283
96	0x3d87ffe9	0.06640608
97	0x3f225cc4	0.634228
98	0x3ec5af29	0.386102
99	0xbeaab064	-0.333377
100	0xbee1edd1	-0.44126752
101	0xbf06c6d3	-0.5264713
102	0x3ed78b59	0.420985
103	0x3c87f3b5	0.0165957
104	0x3ef95c97	0.48703453
105	0xbf0b0fb5	-0.5432084
106	0xbed51877	-0.41620228
107	0x3e95f3f3	0.2928768
108	0x3e753da3	0.23949294
109	0xbdf7f231	-0.12106741
110	0xbd94c5cf	-0.072642915
111	0x3d87960c	0.06620416
112	0xbc5f2dff	-0.013621806
113	0xbeb48e54	-0.35264838
114	0x3e193a52	0.14963654
115	0x3f247c7f	0.64252466
116	0xbd97f696	-0.074200794
117	0xbe287fa9	-0.16454948
118	0xbf0a9345	-0.54130965
119	0xbf400d92	-0.75020707
120	0x3b8e5afa	0.0043443413
121	0x3dff09fb	0.124530755
122	0xbe7db4d0	-0.24776006
123	0xbe97e54f	-0.29667136
124	0xbd791e54	-0.06081994
125	0xbf0050b6	-0.50123155
126	0xbed86eb7	-0.4227197
127	0xbe989dbf	-0.2980785
128	0x3ed71eac	0.42015588
129	0xbef155f4	-0.4713589
130	0xbdffdb3a	-0.12492986
131	0x3f3c2f9a	0.73510134
132	0x3f80a8a8	1.005147
133	0xbe0ae145	-0.13562496
134	0x3c508941	0.012728036
135	0xbdd4e75b	-0.1039569
136	0x3c7643d5	0.015030821
137	0x3ea2aedc	0.31774032
138	0xbedb5f79	-0.42846277
139	0x3e9d4304	0.3071519
140	0xbf421900	-0.75819397
141	0xbeb8ed94	-0.36118758
142	0xbdd514c5	-0.10404352
143	0x3e4fb9aa	0.20285669
144	0x3ee327f3	0.44366416
145	0x3f64ef56	0.894277
146	0x3e141cc1	0.14464094
147	0x3d1c3d62	0.038144477
148	0x3d2ce9b4	0.042215064
149	0xbf12931d	-0.5725573
150	0x3ea81ea0	0.32835865
151	0xbec13905	-0.37738815
152	0x3d92697a	0.07149024
153	0xbf02b173	-0.51052016
154	0xbf3d5673	-0.73960036
155	0xbead4f36	-0.33849496
156	0x3eecb7eb	0.46234068
157	0xbf0505da	-0.51962054
158	0xbe1a5b0e	-0.15073797
159	0xbe18982a	-0.14901796
160	0xbeb43201	-0.351944
161	0x3e3fd6f9	0.1873435
162	0xbc9deeed	-0.019278968
163	0xbe693599	-0.22774352
164	0x3e8e9da8	0.27854657
165	0xbe863f64	-0.26220238
166	0xbf38a526	-0.72126997
167	0xbedce61d	-0.43144313
168	0xbd878a1d	-0.0661814
169	0x3eb008ce	0.34381717
170	0xbd2c1798	-0.04201469
171	0xbe6c68a4	-0.23086792
172	0xbef939ee	-0.4867701
173	0xbda671d1	-0.081271775
174	0x3e68c40f	0.2273104
175	0xbef6d6d1	-0.48210767
176	0xbe6f39ad	-0.23361845
177	0x3ed24aad	0.41072598
178	0xbe29bdf3	-0.16576366
179	0xbf855547	-1.041665
180	0x3e39fa18	0.1816181
181	0xbdd513f1	-0.10404194
182	0xbe3ae0c8	-0.1824981
183	0x3d83306d	0.06405721
184	0xbeedae5e	-0.46422094
185	0x3d9ac61e	0.07557319
186	0xbd44d773	-0.04805703
187	0x3e4e00c1	0.20117475
188	0xbcc5125c	-0.024056606
189	0x3d9b64dc	0.07587597
190	0xbc19a2ce	-0.009377195
191	0x3cd069bd	0.025441045
192	0xbf2a2874	-0.66467977
193	0x3c1597f8	0.00913047
194	0x3e294e46	0.16533765
195	0xbeaf9a63	-0.34297475
196	0x3db8d045	0.09024099
197	0xbe4de62b	-0.20107333
198	0x3c7b7c41	0.015349449
199	0x3e0f6a91	0.14005496
200	0x3e936a86	0.28792208
201	0xbc1b3232	-0.009472417
202	0xbe09f203	-0.13471226
203	0xbc83ec63	-0.016103929
204	0xbd5627b4	-0.052283958
205	0x3f2c7957	0.6737265
206	0x3bca1a56	0.0061676903
207	0xbe20328d	-0.15644284
208	0xbf0bbda0	-0.5458622
209	0x3f8df595	1.1090571
210	0x3fc11ff5	1.5087878
211	0xbece2c3c	-0.40268123
212	0xbdcda9b8	-0.10042137
213	0x3ecb9fd9	0.39770392
214	0xbde4887d	-0.111588456
215	0x3f077c9c	0.52924514
216	0xbe22c505	-0.1589547
217	0xbe99fa61	-0.30073836
218	0x3cb3669a	0.02189951
219	0xbe8985c2	-0.26859862
220	0xbe32041c	-0.1738438
221	0xbf426ec2	-0.75950253
222	0x3eca7513	0.39542446
223	0x3f979e37	1.1845158
224	0xbe7095fc	-0.23494714
225	0xbdda80c7	-0.106690936
226	0x3de40f78	0.11135763
227	0xbd8feb89	-0.07027347
228	0x3f129e13	0.5727245
229	0xbe48231b	-0.19544642
230	0xbe8cce6b	-0.27501234
231	0x3db431d0	0.087985635
232	0xbeac58cd	-0.336615
233	0xbe569eeb	-0.2095906
234	0x3f075123	0.5285818
235	0xbf000221	-0.5000325
236	0xbeeffe21	-0.46873572
237	0xbd7bb900	-0.061455727
238	0xbce8cf42	-0.02841914
239	0x3ddd1482	0.10794927
240	0xbb827273	-0.0039809286
241	0xbd3f3cba	-0.046688773
242	0xbdaa5cf7	-0.08318513
243	0xbd23990b	-0.039940875
244	0x3e597703	0.21236806
245	0x3f291826	0.6605247
246	0xbe4faad2	-0.20280007
247	0x3f17450c	0.5908973
248	0xbe1d0a61	-0.1533599
249	0xbeccd6ee	-0.40007728
250	0x3eb93f69	0.3618119
251	0x3eeeaed9	0.46617773
252	0xbec03fbd	-0.37548628
253	0xbe1c8207	-0.15283976
254	0xbe7bc379	-0.24586286
255	0x3cc1c608	0.023653999

network_body._body_endoder.seq_layers.0.bias f4 [128]
0	0x3e6e92b8	0.23298156
1	0xbe084d2c	-0.13310689
2	0xbe7684b0	-0.24074054
3	0xbe30c5d7	-0.1726297
4	0x3ea59718	0.32341838
5	0x3e0ddcd0	0.13853765
6	0xbe913d39	-0.28367022
7	0xbcb1e7ff	-0.02171707
8	0xbe80f045	-0.2518331
9	0x3e84934d	0.25893632
10	0xbea3fa42	-0.3202687
11	0x3e5f49a2	0.21805432
12	0xbfb3fe4e	-1.4061983
13	0xbec739a0	-0.38911152
14	0xbd63cb04	-0.055613533
15	0xbf005a92	-0.501382
16	0x3e3d00ad	0.18457289
17	0xbf6f303b	-0.9343297
18	0xbdbe04cc	-0.09278259
19	0xbed3eff6	-0.41394013
20	0xbf4dafd5	-0.80346423
21	0x3d95aa42	0.07307865
22	0xbd9610b5	-0.07327405
23	0xbe7d4989	-0.24735083
24	0xbeaa4bae	-0.33260864
25	0xbc8536a6	-0.01626141
26	0x3e5026f2	0.20327356
27	0x3de1f161	0.110323675
28	0xbe352877	-0.17691217
29	0xbe8a4578	-0.27006125
30	0xbefd797e	-0.49506754
31	0x3df7a75b	0.120924674
32	0xbf13a6a6	-0.5767616
33	0xbe03af0f	-0.12859748
34	0x3d064b9a	0.032786943
35	0x3bc8e846	0.006131205
36	0xbf25922b	-0.6467616
37	0x3da27502	0.07932474
38	0x3e7c4073	0.2463396
39	0x3d26f825	0.040763993
40	0x3d2bbb7b	0.041926842
41	0xbf2a2896	-0.6646818
42	0xbe94af5c	-0.2904004
43	0xbe1d31a7	-0.15350972
44	0xbf05f4fb	-0.52326936
45	0xbf5f9e8c	-0.873513
46	0xbf1d9a8d	-0.6156395
47	0xbd664dcf	-0.056226548
48	0xbed99285	-0.42494598
49	0xbc098079	-0.008392447
50	0xbf26c537	-0.65144676
51	0xbe53839f	-0.20655678
52	0xbdad5f7c	-0.08465478
53	0xbf4b8cda	-0.795118
54	0xbf13565b	-0.57553643
55	0xbe6b94cb	-0.23005979
56	0xbe9c51db	-0.305312
57	0x3ee6e828	0.45098996
58	0xbf40ffc3	-0.7539026
59	0xbd978005	-0.07397465
60	0xbf4a9db4	-0.79146886
61	0xbeffaf23	-0.49938306
62	0xbe8b0984	-0.27155697
63	0xbedfd2f1	-0.43715623
64	0xbed6f317	-0.41982338
65	0xbe99308d	-0.29919854
66	0xbe0db936	-0.13840184
67	0xbc19f9e6	-0.009397959
68	0x3e81c2b6	0.25343865
69	0xbf4dbbd6	-0.8036474
70	0xbd54c090	-0.051941454
71	0xbf6d3b09	-0.92668205
72	0xbe3f5343	-0.18684106
73	0xbdf2d5d8	-0.11857194
74	0xbe20106a	-0.15631261
75	0xbe9d17f7	-0.30682346
76	0xbe17d456	-0.14827093
77	0x3d49b027	0.049240258
78	0xbdc2c7ab	-0.0951074
79	0x3e265fd2	0.1624749
80	0xbc262650	-0.01014097
81	0xbf30f0e4	-0.6911757
82	0xbea51759	-0.32244375
83	0x3ee4e608	0.4470675
84	0xbf143fe7	-0.5791001
85	0xbced5ffd	-0.028976435
86	0xbd70e2c3	-0.058810007
87	0xbf4f1932	-0.8089782
88	0x3dadc773	0.084853075
89	0x3e50e3aa	0.20399347
90	0x3ea7453e	0.32670015
91	0xbd207a3b	-0.039179068
92	0xbece5b32	-0.40303952
93	0x3e1337b4	0.14376718
94	0xbf7a2edc	-0.9772775
95	0xbda6e650	-0.081493974
96	0xbe1de2cc	-0.15418547
97	0xbe2978fc	-0.16550058
98	0x3dbe3e30	0.09289205
99	0xbe3f7b18	-0.186993
100	0xbf05a3c5	-0.5220302
101	0xbf3effa4	-0.74608827
102	0xbe69e97c	-0.22842973
103	0x3e12f9a7	0.14353047
104	0xbdebba12	-0.115100995
105	0xbfb77bf3	-1.4334701
106	0x3e19c583	0.15016751
107	0xbe955cfb	-0.291725
108	0x3d988865	0.0744789
109	0xbe19b0e6	-0.15008888
110	0xbf34a26d	-0.7056034
111	0x3d804118	0.06262416
112	0xbea46cb8	-0.32114196
113	0xbf8ad03e	-1.08448
114	0xbd3dce9a	-0.04633961
115	0x3c9cb100	0.019127369
116	0xbf109840	-0.56482315
117	0xbcbeddb5	-0.023299078
118	0xbeb44b42	-0.35213667
119	0x3ebc53cc	0.36782682
120	0xbe6c201b	-0.23059122
121	0x3e02bb0c	0.12766665
122	0xbe5a01ee	-0.21289799
123	0x3e9565dd	0.29179278
124	0xbe0cef6c	-0.13763207
125	0x3e85c1ad	0.26124325
126	0x3e3403e5	0.1757961
127	0xbe87214b	-0.26392588

network_body._body_endoder.seq_layers.2.weight f4 [128, 128]
0	0xbe8754e5	-0.26431957
1	0x3e86e0ab	0.26343283
2	0xbee4e421	-0.447053
3	0xbd402428	-0.04690948
4	0xbf10bb35	-0.56535655
5	0xbf06f2f7	-0.52714485
6	0x3e06cb90	0.1316359
7	0xbd474f52	-0.04865963
8	0xbe6c46bc	-0.23073858
9	0xbf07e718	-0.53086996
10	0x3ed8f235	0.4237229
11	0xbe8ef20f	-0.2791905
12	0x3ee9769c	0.45598304
13	0xbf345225	-0.7043784
14	0xbf5143df	-0.8174419
15	0x3ecab47c	0.39590824
16	0x3ed1e9f9	0.4099882
17	0x3e9ac43c	0.3022784
18	0xbecacbee	-0.3960871
19	0x3f0f2fad	0.5593212
20	0x3e6b3e05	0.22972877
21	0xbf0b4a03	-0.5440981
22	0xbef37919	-0.47553328
23	0xbe1bb1cb	-0.15204541
24	0x3e963ee5	0.2934486
25	0xbea16c89	-0.31528118
26	0xbf461cbe	-0.7738761
27	0xbf1654e8	-0.58723307
28	0x3e6dbdda	0.23216954
29	0x3e946fcd	0.28991547
30	0x3ea8e159	0.32984427
31	0xbf166317	-0.5874495
32	0x3efbfe2f	0.49217364
33	0xbdd21d04	-0.102594405
34	0xbf217b1d	-0.6307848
35	0xbeeeb7ee	-0.46624702
36	0x3eebdbd6	0.4606616
37	0xbf07233c	-0.5278814
38	0xbf231a24	-0.6371176
39	0xbf4bad53	-0.79561347
40	0xbf2dd9c6	-0.6791042
41	0x3e74d9db	0.2391123
42	0x3ea9fc2e	0.3320021
43	0x3e99b44e	0.30020374
44	0x3e7d0537	0.2470902
45	0x3eaffd89	0.3437312
46	0x3ee9e6a1	0.45683768
47	0xbe87d5b5	-0.26530233
48	0x3ea62488	0.32449746
49	0xbf07225c	-0.52786803
50	0x3eba5e04	0.36399853
51	0x3e29645c	0.1654219
52	0x3ea30f08	0.31847405
53	0x3eeabeab	0.45848593
54	0x3e17053e	0.14748093
55	0xbe0f0418	-0.13966405
56	0x3e7f4dd3	0.24932031
57	0xbe95201a	-0.29126054
58	0x3e8f1dc0	0.27952385
59	0xbe84f527	-0.25968286
60	0x3ea0d578	0.31412864
61	0xbe4ffb1c	-0.20310634
62	0x3e96fe35	0.2949082
63	0x3d915d28	0.07097846
64	0x3ed0cedb	0.40782818
65	0x3f1a5c2c	0.60296893
66	0x3dd28b13	0.102804326
67	0x3e83509a	0.25647432
68	0xbf3d0402	-0.7383424
69	0x3eb51094	0.3536421
70	0xbefb98fb	-0.49140152
71	0x3e8788bc	0.26471508
72	0xbeed7b06	-0.46382922
73	0x3eda0188	0.42579293
74	0xbec836c0	-0.3910427
75	0x3cd48819	0.025943803
76	0x3da9d3be	0.0829234
77	0xbeec7ad9	-0.46187475
78	0xbef88af9	-0.48543528
79	0xbe8e408b	-0.27783617
80	0xbe41245a	-0.18861523
81	0x3de0ca67	0.10976105
82	0x3e618b9a	0.2202591
83	0xbf3860f9	-0.7202297
84	0x3ebdca2d	0.3706831
85	0xbef4e054	-0.478274
86	0x3e9890ca	0.29797965
87	0x3f083ec6	0.53220785
88	0xbf28ec21	-0.65985304
89	0xbd1c2dfb	-0.038129788
90	0xbf0ceff1	-0.5505362
91	0xbf117ca7	-0.5683083
92	0x3beb7959	0.0071860966
93	0xbeb34823	-0.35015973
94	0x3e959999	0.29218748
95	0xbefbb2aa	-0.49159747
96	0xbda08cc3	-0.07839348
97	0x3e58b267	0.21161805
98	0xbefb4bb7	-0.49081203
99	0x3ec1e34c	0.37868726
100	0x3edeb5c9	0.43498066
101	0x3e9af45f	0.30264565
102	0xbd97fa82	-0.074208274
103	0xbf08aae6	-0.5338577
104	0xbe2172e8	-0.1576649
105	0x3f058c2e	0.5216702
106	0xbf3b4cc2	-0.73164
107	0xbe7cd9f6	-0.2469252
108	0xbf2edeb1	-0.6830855
109	0xbf3346fd	-0.70030195
110	0x3e9581d8	0.29200625
111	0xbef50936	-0.4785859
112	0xbd81b729	-0.06333763
113	0x3f0820f8	0.53175306
114	0xbe0a0533	-0.13478546
115	0xbdb61d4d	-0.088923074
116	0x3d444978	0.047921628
117	0xbded7877	-0.115952425
118	0x3e3af565	0.18257673
119	0x3ea85c85	0.32883087
120	0x3ee94bdf	0.45565698
121	0xbf3f1a8a	-0.7464987
122	0xbebc05dd	-0.36723223
123	0xbf63f84e	-0.8905076
124	0xbefb352f	-0.49064013
125	0xbed939f3	-0.42427024
126	0xbf4ebe2d	-0.80758935
127	0x3cf48df5	0.029852847
128	0xbe6bf1ff	-0.23041533
129	0x3d78511a	0.06062422
130	0xbe977c4e	-0.29587024
131	0xbd23bb37	-0.039973464
132	0xbe07a72a	-0.13247362
133	0xbefa7fbb	-0.48925576
134	0x3cb54ac2	0.022130374
135	0xbe6eca02	-0.23319247
136	0xbe9d6599	-0.30741575
137	0xbe9c301c	-0.30505455
138	0x3eab463f	0.3345203
139	0xbeaa454c	-0.33255994
140	0x3eb29e16	0.34886235
141	0xbeb0122a	-0.34388858
142	0xbedf41cb	-0.43604884
143	0x3e84cd67	0.2593796
144	0x3e2bfc87	0.1679555
145	0x3e5055fb	0.20345299
146	0xbf182090	-0.59424686
147	0x3eaa4dc4	0.33262455
148	0x3ec2e68f	0.38066527
149	0xbf313c3d	-0.6923254
150	0xbf0fd4ad	-0.5618389
151	0x3dd59d92	0.10430445
152	0x3c0481b2	0.008087562
153	0xbec3c046	-0.3823263
154	0xbf4f4e0a	-0.80978453
155	0xbf1a7d75	-0.6034768
156	0x3e18bd26	0.14915904
157	0x3f3251f4	0.696563
158	0x3ef4866c	0.47758806
159	0xbf5aea63	-0.85513896
160	0x3ee98b89	0.4561427
161	0xbe9b3880	-0.30316544
162	0xbf51b44a	-0.81915724
163	0xbed01e0f	-0.40647933
164	0x3f1542ab	0.5830485
165	0xbeb908bb	-0.36139473
166	0xbf103908	-0.5633702
167	0xbe29a537	-0.1656693
168	0xbf6c7ec0	-0.92380905
169	0x3e58e3c7	0.2118064
170	0x3e935bc8	0.2878096
171	0x3ddde48c	0.108346075
172	0xbd071a27	-0.032983925
173	0x3e56f963	0.20993571
174	0x3ef5b7c5	0.47991768
175	0xbe8565e8	-0.2605431
176	0x3e41f5c0	0.18941402
177	0xbf0320f6	-0.5122217
178	0x3f1d6404	0.61480737
179	0xbddd982a	-0.108200386
180	0x3c557de8	0.013030507
181	0x3f0c4265	0.5478881
182	0x3e885b16	0.26631993
183	0x3c2a86d0	0.010408118
184	0x3ef3f8e6	0.47650832
185	0xbef87e7c	-0.48534
186	0x3e2077e5	0.15670736
187	0xbf12cbb9	-0.57342106
188	0x3e927805	0.28607193
189	0xbc24055c	-0.010011043
190	0x3e8f29ad	0.27961484
191	0xbe5cb200	-0.21552277
192	0xbd687a79	-0.056757424
193	0x3ec29339	0.38002947
194	0x3e0433b9	0.12910356
195	0xbbb77009	-0.0055980724
196	0xbf3720f7	-0.71534675
197	0x3df737ab	0.12071165
198	0xbf0fd359	-0.56181866
199	0x3e885ac3	0.26631746
200	0xbeacebcb	-0.33773646
201	0x3f0dc270	0.55374813
202	0xbf16f588	-0.589684
203	0x3e809238	0.25111556
204	0x3db16d51	0.086634286
205	0xbe61c28e	-0.22046873
206	0xbeedf6a8	-0.46477246
207	0xbe2b1ff4	-0.16711408
208	0x3de2c9b1	0.11073626
209	0xbe3a7cc9	-0.18211664
210	0xbd82b941	-0.06382991
211	0xbec08479	-0.3760107
212	0x3f2c26ec	0.6724689
213	0xbdaf1c02	-0.08550264
214	0x3b480176	0.003051845
215	0x3f338ec6	0.7013973
216	0xbeff591f	-0.49872681
217	0xbdee5a47	-0.11638313
218	0xbf08065f	-0.5313472
219	0xbee0b97e	-0.4389152
220	0xbdd5daac	-0.10442099
221	0xbefb7b89	-0.49117687
222	0x3e47f4b8	0.19526947
223	0xbe89dd5b	-0.26926693
224	0xbb01a9e9	-0.0019785112
225	0x3e120cd0	0.142627
226	0xbeeac466	-0.45852965
227	0x3eb379ac	0.35053766
228	0x3dd4a88c	0.1038371
229	0x3e176d11	0.147877
230	0xbe0dd8e9	-0.13852276
231	0xbe6ce9b3	-0.23136024
232	0xbe564dcd	-0.20928116
233	0x3f015eb7	0.5053515
234	0xbec6bf54	-0.38817847
235	0xbddbdf04	-0.10735896
236	0xbf2c8bd8	-0.67400885
237	0xbf149c58	-0.5805106
238	0x3f1b8cb7	0.6076159
239	0xbf2d26d3	-0.67637366
240	0xbe3c2696	-0.18374094
241	0x3eaf787a	0.34271604
242	0xbe9d19ad	-0.30683652
243	0xbd21dad5	-0.039515335
244	0xbc456251	-0.012047366
245	0xbd8179db	-0.0632207
246	0xbe33a1bd	-0.17542167
247	0xbe910570	-0.2832446
248	0x3d987508	0.07444197
249	0xbf1bd73e	-0.6087531
250	0xbe3e02f9	-0.18555821
251	0xbf7a8b10	-0.9786844
252	0xbf2d7031	-0.67749316
253	0xbf06c95b	-0.52650994
254	0xbf3de248	-0.741734
255	0x3dcfc272	0.101445094

network_body._body_endoder.seq_layers.2.bias f4 [128]
0	0xbf1df32b	-0.6169917
1	0xbf8729b4	-1.0559602
2	0xbf76cbd4	-0.9640477
3	0xbf75f386	-0.9607471
4	0xbf4d797a	-0.80263484
5	0xbf1bd0d4	-0.6086552
6	0xbf3f16b9	-0.7464405
7	0xbf5ea62b	-0.869723
8	0xbf6bf059	-0.92163616
9	0xbf6031f3	-0.87576216
10	0xbf3ad063	-0.7297422
11	0xbf4a51a7	-0.7903084
12	0xbf630e61	-0.88693815
13	0xbf50950b	-0.8147742
14	0xbf77e675	-0.96836025
15	0xbf5b5e04	-0.8569033
16	0xbf6d7663	-0.9275877
17	0xbf64452c	-0.8916805
18	0xbf6d0e8b	-0.92600316
19	0xbf63b3c2	-0.88946164
20	0xbf6727d4	-0.9029515
21	0xbf4a7496	-0.79084146
22	0xbf720abc	-0.9454763
23	0xbf46ecb8	-0.77704954
24	0xbf525230	-0.8215666
25	0xbf62d18b	-0.8860099
26	0xbf6d4283	-0.92679614
27	0xbf4ef816	-0.808473
28	0xbe72d66e	-0.23714611
29	0xbf5ab10d	-0.8542641
30	0xbf781030	-0.968997
31	0xbf4e2bb8	-0.8053546
32	0xbf554f99	-0.8332458
33	0xbf64125a	-0.890905
34	0xbf57f74d	-0.84361726
35	0xbf735f2a	-0.95067084
36	0xbf61211f	-0.87941164
37	0xbf61a36b	-0.8813998
38	0xbf0dfef3	-0.55467147
39	0xbe8f6aae	-0.28011078
40	0xbf6ab626	-0.91684186
41	0xbf614e23	-0.8800985
42	0xbf7d66f2	-0.9898521
43	0xbf503785	-0.81334716
44	0xbf0fb595	-0.5613645
45	0xbf88a9fd	-1.0676876
46	0xbf51c3ee	-0.8193959
47	0xbf587333	-0.8455078
48	0xbf55fd94	-0.83590055
49	0xbf822887	-1.0168618
50	0xbf798d70	-0.9748144
51	0xbf653ab9	-0.8954273
52	0xbe8b340d	-0.2718815
53	0xbf5d9b96	-0.8656553
54	0xbf25bd99	-0.6474243
55	0xbf594efb	-0.8488614
56	0xbf26015c	-0.64845824
57	0xbf434b1f	-0.762865
58	0xbf3a79cf	-0.72842115
59	0xbf62a396	-0.8853086
60	0xbf1ed6a1	-0.6204625
61	0xbdca0850	-0.09864867
62	0xbf57e4cd	-0.843335
63	0xbf19eba0	-0.6012516
64	0xbf41a0f3	-0.75636214
65	0xbf6cf821	-0.92566115
66	0xbf4f53ec	-0.8098743
67	0xbf1dca7d	-0.616371
68	0xbf79a2b5	-0.97513896
69	0xbf415c1a	-0.7553116
70	0xbf376a53	-0.7164661
71	0xbf6846b4	-0.90732884
72	0xbf60b479	-0.8777538
73	0xbf6db3bb	-0.9285237
74	0xbf948019	-1.1601592
75	0xbf7ce6d1	-0.987897
76	0xbf4ae14f	-0.79250044
77	0xbf6481cd	-0.8926056
78	0xbf32a3e2	-0.69781315
79	0xbf47f9e0	-0.78115654
80	0xbf46098a	-0.77358305
81	0xbf6e9251	-0.9319201
82	0xbe5c9efd	-0.21545024
83	0xbf32f399	-0.6990295
84	0xbf60feec	-0.8788898
85	0xbce56ee7	-0.028006984
86	0xbf6fe42f	-0.93707556
87	0x3cfabff9	0.030609118
88	0xbf1b6bb0	-0.60711193
89	0xbf656f7b	-0.8962323
90	0xbf40bfda	-0.7529274
91	0xbf731e1c	-0.9496782
92	0xbee3fac5	-0.4452726
93	0xbf4a02c8	-0.78910494
94	0xbf5c209f	-0.85987276
95	0xbf362695	-0.7115262
96	0xbf55d87f	-0.8353347
97	0xbf7e4864	-0.9932921
98	0xbf08de38	-0.5346408
99	0xbdea16aa	-0.11430104
100	0xbda1166d	-0.078656055
101	0xbf5d36c1	-0.8641167
102	0xbf3f275e	-0.74669445
103	0xbf2c4477	-0.6729197
104	0xbf496606	-0.786713
105	0xbf77b16c	-0.967551
106	0xbf8210ea	-1.0161412
107	0xbf5178f7	-0.818252
108	0xbf611802	-0.8792726
109	0xbf413cb0	-0.75483227
110	0xbf533ea0	-0.82517433
111	0xbf6d6649	-0.927342
112	0xbf5d715a	-0.86501086
113	0xbf32aa3e	-0.6979102
114	0xbf642d4a	-0.89131606
115	0xbf4c4d10	-0.7980509
116	0xbf54a59e	-0.8306521
117	0xbf7670b6	-0.96265733
118	0xbf37bb48	-0.71770144
119	0xbf517ac6	-0.8182796
120	0xbe72ba22	-0.23703817
121	0xbf1bbc5f	-0.60834306
122	0xbf25a2dd	-0.64701635
123	0xbf625cde	-0.88422954
124	0xbc284a9f	-0.010271697
125	0xbf3a4845	-0.72766525
126	0xbf35024b	-0.70706624
127	0xbf7d0410	-0.98834324

action_model._continuous_distribution.log_sigma f4 [1, 2]
0	0xc087e7a4	-4.2470264
1	0xc08d064b	-4.407018

action_model._continuous_distribution.mu.weight f4 [2, 128]
0	0xbe0afe76	-0.13573632
1	0xbdcdfb94	-0.1005775
2	0xbdf90e83	-0.12160971
3	0xbdc4385d	-0.09581063
4	0xbe532c29	-0.20622315
5	0xbda36c67	-0.079796605
6	0xbdccdb49	-0.10002763
7	0xbde8268c	-0.11335477
8	0xbd12fd71	-0.03588623
9	0xbdb38a30	-0.087665915
10	0xbd6a2954	-0.05716832
11	0xbdaf8100	-0.08569527
12	0xbd74b62b	-0.05974404
13	0xbda51221	-0.080600984
14	0xbdc44596	-0.09583585
15	0xbdc1bbf3	-0.094596766
16	0xbdf41cd4	-0.11919561
17	0xbd933021	-0.07186914
18	0xbd5b3902	-0.053521164
19	0xbddc0524	-0.10743168
20	0xbdd90280	-0.1059618
21	0xbdb80085	-0.08984474
22	0xbda8b7bb	-0.08238169
23	0xbdc9ee02	-0.098598495
24	0xbdcc0eee	-0.09963785
25	0xbdefa669	-0.11701662
26	0xbdaf19f0	-0.08549869
27	0xbdc3bf62	-0.09557988
28	0x3f108233	0.5644867
29	0x3b26a487	0.0025427656
30	0xbdcb9054	-0.09939638
31	0xbdc808e6	-0.09767322
32	0xbd825d98	-0.06365508
33	0xbda5fd18	-0.081049144
34	0xbda81245	-0.0820661
35	0xbd9ef1eb	-0.07760986
36	0xbdded7ce	-0.10881005
37	0xbd976e79	-0.07394118
38	0xbdf07fb4	-0.117431074
39	0x3bdd6217	0.006756078
40	0xbda75a3f	-0.0817151
41	0xbdce5eb2	-0.100766554
42	0xbd33e614	-0.04392059
43	0xbdaa4670	-0.08314216
44	0xbe148737	-0.14504705
45	0xbda24eeb	-0.07925209
46	0xbdc5c045	-0.09655813
47	0xbd824d76	-0.06362431
48	0xbdaf4b03	-0.08559229
49	0xbd5521f2	-0.052034326
50	0xbd0e597b	-0.034753304
51	0xbdbea110	-0.09308064
52	0x3dfa6ca2	0.12227751
53	0xbdc5db24	-0.096609384
54	0xbddb139d	-0.106971
55	0xbdd26809	-0.102737494
56	0xbe041615	-0.12899049
57	0xbdba8faf	-0.09109437
58	0xbd64ff11	-0.055907313
59	0xbdd49214	-0.10379425
60	0xbdeb38fb	-0.114854775
61	0x3ea5ab5e	0.32357305
62	0xbd86f8b6	-0.065904066
63	0xbd9ea577	-0.07746404
64	0xbd116cf6	-0.035504304
65	0xbddaf59c	-0.106913775
66	0xbd997018	-0.07492083
67	0xbdabc152	-0.08386482
68	0xbdb8e498	-0.09027976
69	0xbddbc659	-0.10731191
70	0xbe030b3b	-0.12797253
71	0xbddb2d74	-0.10702029
72	0xbdd76790	-0.105178
73	0xbd3847c7	-0.044990327
74	0xbdaf90bb	-0.08572527
75	0xbd93f27d	-0.07223985
76	0xbd9d96be	-0.076947674
77	0xbdc842b1	-0.097783454
78	0xbd49699c	-0.049172983
79	0xbe3198ee	-0.17343494
80	0xbdb0d977	-0.08635228
81	0xbdc69e37	-0.09698146
82	0x3eeec029	0.46630982
83	0xbdc430a1	-0.09579588
84	0xbdd87893	-0.10569873
85	0xbc45127d	-0.012028334
86	0xbd9c9449	-0.07645471
87	0x3e04c2b5	0.129649
88	0xbdd7a77f	-0.10529994
89	0xbda54132	-0.08069076
90	0xbddecc3f	-0.108788006
91	0xbde5f3c4	-0.11228135
92	0xbe0e4f51	-0.13897444
93	0xbde53edf	-0.11193632
94	0xbdb94994	-0.09047237
95	0xbdb9424c	-0.09045848
96	0xbdec4876	-0.11537258
97	0xbda1a25e	-0.07892297
98	0xbe0cd508	-0.1375314
99	0x3d30a9ce	0.04313069
100	0xbd8dc8dc	-0.069230765
101	0xbde7c9c4	-0.113177806
102	0xbd2a5e94	-0.041594103
103	0xbde06ea7	-0.10958605
104	0xbd84deee	-0.06487833
105	0xbdbb86f9	-0.09156603
106	0xbe01296d	-0.12613459
107	0xbd913289	-0.07089717
108	0xbdc67d14	-0.096918255
109	0xbdee1a65	-0.11626128
110	0xbda21104	-0.07913402
111	0xbdc83f81	-0.097777374
112	0xbdab4ded	-0.083644725
113	0xbdbda4a8	-0.09259921
114	0xbdd983cb	-0.10620841
115	0xbdad69c9	-0.084674425
116	0xbdc16bfd	-0.09444425
117	0xbdef5f6d	-0.11688123
118	0xbdda4edd	-0.10659573
119	0xbc54ae22	-0.01298097
120	0xbdc72eac	-0.09725699
121	0xbdf8a198	-0.121401966
122	0xbe361f73	-0.17785434
123	0xbd4c293c	-0.04984401
124	0x3d1c8bae	0.038219146
125	0xbdb12faf	-0.08651673
126	0xbe041432	-0.12898329
127	0xbdaaf132	-0.083467856
128	0x3db6043b	0.08887526
129	0x3ce50857	0.027958078
130	0x3df3e3d9	0.11908693
131	0x3dd355fd	0.10319135
132	0x3c07ffff	0.00830078
133	0x3cabdcb8	0.02097927
134	0x3d0e8952	0.034798928
135	0x3d82d355	0.06387965
136	0x3d3bbee8	0.04583636
137	0x3dab4808	0.08363348
138	0x3d21613c	0.03939937
139	0x3cb662e9	0.02226396
140	0x3d05e6ae	0.032690696
141	0x3c03f91a	0.008054996
142	0x3d6a01a9	0.05713049
143	0x3d6db43f	0.058033224
144	0xb91fcbc0	-0.00015239324
145	0x3c760cb7	0.01501768
146	0x3cd38090	0.02581814
147	0x3d9e2cb6	0.07723372
148	0x3d71fd0e	0.059079222
149	0xbc144e99	-0.009051942
150	0xbc18090b	-0.0092795
151	0xbc8a8db5	-0.016913274
152	0x3d60745b	0.054798465
153	0x3b8b8cd5	0.004258732
154	0x3d89d1f7	0.06729501
155	0x3cbfe227	0.023423268
156	0x3e1d09ba	0.15335742
157	0xbba92815	-0.005162249
158	0x3ce7de6c	0.028304301
159	0x3d6cd00a	0.05781559
160	0x3cbd5075	0.023109654
161	0x3cbdd5c2	0.023173217
162	0xbbaa53ce	-0.0051979786
163	0x3d0d3292	0.034472056
164	0x3d322b81	0.04349852
165	0x3d27d759	0.040976856
166	0x3d7ad06f	0.061233934
167	0x3c93130c	0.017953418
168	0xbc2193c5	-0.009861891
169	0x3b6c619f	0.003606893
170	0x3c730ed1	0.0148350755
171	0x3d02cfaa	0.031936325
172	0x3e02ddac	0.12779874
173	0xbb69e192	-0.003568743
174	0x3d3d6373	0.04623742
175	0x3d35d12d	0.04438894
176	0x3d38f4c1	0.04515529
177	0x3d1bfaf4	0.038081124
178	0x3c023728	0.007947721
179	0x3d182166	0.037141226
180	0x3cec2edf	0.028830944
181	0x3d5bc613	0.053655695
182	0x3d9c7323	0.07639148
183	0x3db27bfe	0.08715056
184	0x3ce58962	0.02801961
185	0x3d8dae56	0.069180176
186	0xbadcbb62	-0.0016840512
187	0x3d785bf7	0.06063458
188	0x3d585fa9	0.052825604
189	0x3e3dc41e	0.18531844
190	0x3d1a0662	0.037603743
191	0x3cdd4c44	0.027013905
192	0x3c7a3003	0.015270236
193	0x3b8cf04e	0.0043011075
194	0x3d3966b9	0.04526398
195	0x3cf5381b	0.02993398
196	0x3d10fc94	0.035397127
197	0x3d15326d	0.036425043
198	0x3dbc8e09	0.092067786
199	0x3d41f0a3	0.04734863
200	0x3d4ea06e	0.050445966
201	0xbceaf2e8	-0.02868028
202	0x3d2f2736	0.042762004
203	0x3d15f59f	0.036611196
204	0xbc13d2c0	-0.009022415
205	0x3dd3977a	0.10331626
206	0x3d11fc37	0.03564092
207	0x3d9037c2	0.07041885
208	0x3badc6ab	0.005303224
209	0x3d6230bd	0.05522226
210	0x3e9c54f1	0.30533555
211	0x3db55d16	0.08855645
212	0x3d73716e	0.059434347
213	0x3bc2bff7	0.005943294
214	0x3d0c4c5b	0.034252506
215	0x3d68eb42	0.056864984
216	0x3dba404c	0.09094295
217	0x3bf10a7f	0.0073559876
218	0xbc314a13	-0.010820883
219	0x3da2d696	0.07951085
220	0x3dee2221	0.11627603
221	0x3d6cd9df	0.057824966
222	0x3d87b05d	0.066254355
223	0x3d467fae	0.04846161
224	0x3ce154b6	0.027506214
225	0x3d45484f	0.048164662
226	0x3db0ebde	0.08638738
227	0xbc1b723a	-0.009487683
228	0x3da90921	0.08253694
229	0x3d46e5d7	0.048559036
230	0x3cda21cd	0.026627446
231	0x3c155a78	0.009115808
232	0xbcc7999b	-0.024365237
233	0xbb38a80f	-0.0028176343
234	0x3d4c7e3d	0.049925078
235	0xbd0d9cda	-0.034573413
236	0x3dc44859	0.09584112
237	0x3d07cc49	0.033153806
238	0x3d28470b	0.041083377
239	0xbb989fb2	-0.004657709
240	0x3d60701f	0.054794427
241	0x3d934d0f	0.07192432
242	0x3ce76e21	0.028250756
243	0x3d741526	0.05959048
244	0x3d1815d3	0.03713019
245	0x3d7f27de	0.06229388
246	0x3d6a29bd	0.05716871
247	0x3c8a852a	0.0169092
248	0x3e321f0b	0.17394654
249	0x3d97464e	0.073864564
250	0x3d7aa67c	0.061193928
251	0x3c2c213f	0.010505973
252	0xbc16b4c8	-0.009198375
253	0x3db909cd	0.090350725
254	0x3cecbcc3	0.028898602
255	0x3d5832aa	0.052782692

action_model._continuous_distribution.mu.bias f4 [2]
0	0x3dbf8c3c	0.093529195
1	0x3ecc638b	0.39919695

action_model._discrete_distribution.branches.0.weight f4 [2, 128]
0	0x3ef54bbf	0.47909352
1	0x3df49ef4	0.119443804
2	0xbebb9f7a	-0.36645108
3	0xbd0bd2cb	-0.034136575
4	0xbe42e49b	-0.19032519
5	0x3db4f6b0	0.088361144
6	0xbe459b47	-0.19297515
7	0x3d477586	0.048696063
8	0xbd100ebe	-0.03517031
9	0x3dd8cff1	0.10586537
10	0x3ec136ae	0.3773703
11	0x3ea268c8	0.31720567
12	0x3ce8d40a	0.02842142
13	0x3e02f755	0.12789662
14	0xbdb5fcd6	-0.08886115
15	0xbee3a8f6	-0.44464844
16	0x3d560a46	0.05225589
17	0x3efa6380	0.48904037
18	0x3ee87247	0.45399687
19	0x3d64ff76	0.05590769
20	0x3dcc0446	0.099617526
21	0xbdba0e15	-0.09084717
22	0xbd108997	-0.035287466
23	0x3f153308	0.5828099
24	0x3d9ef5d0	0.07761729
25	0xbe80de9a	-0.25169832
26	0x3ca14d45	0.019690165
27	0x3e857096	0.2606246
28	0x3fd2ec65	1.6478392
29	0x3ec4fa7b	0.3847235
30	0xbe4f2e21	-0.2023244
31	0x3e2fe84b	0.17178456
32	0x3ecc947a	0.3995703
33	0xbd01c395	-0.031680662
34	0x3e897c37	0.2685258
35	0x3e27b1de	0.16376445
36	0x3e096749	0.13418306
37	0xbdeba073	-0.11505213
38	0x3e7897f5	0.24276717
39	0xbd3ec4e7	-0.0465745
40	0xbe250425	-0.16114862
41	0xbf1093d1	-0.5647555
42	0x3e5bb2ed	0.21454974
43	0x3e42276e	0.18960354
44	0x3f18834a	0.5957533
45	0xbe2fe11f	-0.1717572
46	0x3d01c16d	0.031678606
47	0x3d74f602	0.059804924
48	0x3f318cb5	0.69355327
49	0x3d9cf22b	0.076633774
50	0x3e22b8f4	0.15890867
51	0xbcc60841	-0.024173858
52	0x4038feb6	2.8905463
53	0xbcf80a62	-0.030278388
54	0x3de15b86	0.11003785
55	0x3e6c6252	0.23084381
56	0x3f390b92	0.7228328
57	0xbe30d877	-0.17270075
58	0x3e644a62	0.22294
59	0xbea15999	-0.3151367
60	0x3ea37f44	0.31933033
61	0x3be8bd38	0.0071026348
62	0xbde4bb94	-0.1116859
63	0xbf6522c2	-0.8950616
64	0xbe362148	-0.17786133
65	0xbdc4da7d	-0.09611986
66	0x3eaf3868	0.34222722
67	0x3e2595a0	0.16170359
68	0xbe973cfb	-0.29538712
69	0x3c83ab45	0.016072879
70	0x3ca81935	0.020519832
71	0xbe8ceaa7	-0.27522776
72	0x3dfc8fe5	0.12332133
73	0x3e9d2fcc	0.3070053
74	0x3e3ad184	0.18243986
75	0xbe382e6d	-0.1798646
76	0xbfa4e405	-1.2882086
77	0x3e18d8b6	0.14926419
78	0x3e888bda	0.26669198
79	0x3cbc81da	0.023011137
80	0xbe3bf56e	-0.18355343
81	0x3c3cfd81	0.011535049
82	0x3f3ba7a6	0.73302686
83	0x3e3b04ee	0.182636
84	0xbea6c953	-0.32575473
85	0x40107615	2.2572072
86	0x3dac854c	0.08423862
87	0x403377f8	2.8041973
88	0x3d8ef58c	0.06980428
89	0xbdb6ff1d	-0.08935378
90	0x3ee3f502	0.44522864
91	0xbe548ccb	-0.20756833
92	0x3fa58249	1.2930385
93	0x3ede81d2	0.4345842
94	0xbddb3d1b	-0.10705014
95	0xbd041307	-0.03224471
96	0x3e5d44c3	0.21608262
97	0x3e44e03b	0.19226162
98	0x3e2c523b	0.16828243
99	0x3f37c317	0.7178206
100	0xbb81652d	-0.0039488287
101	0xbe74cc3d	-0.23906036
102	0x3e9d7bd0	0.30758524
103	0x3eba45c5	0.36381355
104	0x3eed0956	0.46296185
105	0x3f479328	0.7795892
106	0x3dc1ecc2	0.09468986
107	0x3b55aff4	0.0032606097
108	0x3d9e3e74	0.07726756
109	0x3e069150	0.1314137
110	0xbe7cf8f0	-0.24704337
111	0xbd33e285	-0.043917198
112	0x3ea00169	0.31251076
113	0x3ca4f8a7	0.020138098
114	0x3e9940ae	0.2993216
115	0xbd97d55d	-0.07413743
116	0x3ec4e269	0.38453987
117	0xbe2ead10	-0.17058206
118	0x3e30c9a9	0.17264427
119	0x3da2b665	0.07944945
120	0xbee47c93	-0.44626293
121	0x3f2c30c1	0.6726189
122	0xbe4e2df3	-0.20134716
123	0x3e8b66a2	0.2722674
124	0x4055b355	3.3390706
125	0x3ea0e757	0.31426498
126	0x3e7222e9	0.2364613
127	0xbd4d8083	-0.050171386
128	0xbef6a9bb	-0.4817637
129	0xbdff8d70	-0.12478149
130	0x3eb13521	0.34610847
131	0x3cec8344	0.028871186
132	0x3e38ee0b	0.18059556
133	0xbdacc6c8	-0.08436352
134	0x3e330cb7	0.17485319
135	0xbd84bb58	-0.064810455
136	0x3d0cde9d	0.034391988
137	0xbde6d2b4	-0.11270657
138	0xbeba56e3	-0.36394414
139	0xbea5a843	-0.32354936
140	0xbcebf449	-0.028803008
141	0xbdf33826	-0.11875944
142	0x3d95d873	0.07316675
143	0x3edd8703	0.43267068
144	0xbd375ace	-0.044764332
145	0xbef1ea19	-0.47248915
146	0xbef4ad19	-0.47788313
147	0xbd6a11b8	-0.057145804
148	0xbdf4159a	-0.11918183
149	0x3db74d33	0.089502715
150	0x3d0f1772	0.03493447
151	0xbf1479d3	-0.5799839
152	0xbd7ea51e	-0.062169187
153	0x3e887dbc	0.26658428
154	0xbcd1db5a	-0.02561729
155	0xbe80a672	-0.25126988
156	0xbfd370e6	-1.6518829
157	0xbec5423d	-0.38527098
158	0x3e577737	0.2104157
159	0xbe26e903	-0.16299824
160	0xbec95187	-0.39320013
161	0x3c8bdbea	0.017072637
162	0xbe87e555	-0.26542154
163	0xbe30a2eb	-0.17249648
164	0xbe199f84	-0.15002257
165	0x3de39808	0.11112982
166	0xbe78570b	-0.24251954
167	0x3d696091	0.05697686
168	0x3e17eea8	0.14837134
169	0x3f14383a	0.57898295
170	0xbe58e157	-0.2117971
171	0xbe409ac2	-0.18809035
172	0xbf1b3878	-0.6063304
173	0x3e2fe33c	0.17176527
174	0xbd64fe39	-0.055906508
175	0xbd8fdd78	-0.07024664
176	0xbf326868	-0.6969056
177	0xbd6f11a1	-0.05836642
178	0xbe1b2a98	-0.15152967
179	0x3caffd1a	0.021482993
180	0xc039ca4a	-2.9029717
181	0x3cb9b1d0	0.022667795
182	0xbdcaa5a6	-0.09894876
183	0xbe840ed7	-0.25792572
184	0xbf3ba696	-0.73301065
185	0x3e32a9b0	0.17447543
186	0xbe4025fa	-0.18764487
187	0x3e9740a8	0.29541516
188	0xbeab4ae3	-0.33455572
189	0xbcbaa7c7	-0.02278508
190	0x3de1b0a9	0.110200234
191	0x3f66876c	0.9005039
192	0x3e3fd79a	0.18734589
193	0x3dca2930	0.09871137
194	0xbeab94dd	-0.3351201
195	0xbe2f1b34	-0.17100221
196	0x3e9895a6	0.29801673
197	0xbcbd8a1c	-0.023137145
198	0xbcbaf828	-0.022823408
199	0x3e96bcbe	0.29440874
200	0xbe0a78d6	-0.13522658
201	0xbea64361	-0.3247328
202	0xbe3aad5e	-0.18230197
203	0x3e3028b6	0.1720303
204	0x3fa3cf1d	1.2797581
205	0xbe180d17	-0.14848743
206	0xbe8be8d6	-0.27326077
207	0xbcd1f250	-0.025628239
208	0x3e3cc312	0.18433788
209	0xba014fdc	-0.00049328594
210	0xbf3db87e	-0.7410964
211	0xbe3ba58b	-0.18324868
212	0x3ea94577	0.3306081
213	0xc00edbf7	-2.2321756
214	0xbdbf75ad	-0.09348617
215	0xc034a303	-2.8224494
216	0xbd70ed1b	-0.05881987
217	0x3da796dd	0.08183072
218	0xbedfa742	-0.43682295
219	0x3e5dba98	0.21653211
220	0xbfa5b97e	-1.2947233
221	0xbee9a501	-0.456337
222	0x3dbaa882	0.091141716
223	0x3d467399	0.048450086
224	0xbe5de55d	-0.21669526
225	0xbe265193	-0.16242056
226	0xbe1d0ad2	-0.15336159
227	0xbf39aebf	-0.72532266
228	0xbbee226f	-0.0072672884
229	0x3e732b5c	0.23747009
230	0xbe9888c1	-0.29791835
231	0xbec4b400	-0.3841858
232	0xbee1f027	-0.44128534
233	0xbf4c249e	-0.79743373
234	0xbdcd07ce	-0.10011254
235	0xbbe26337	-0.0069088
236	0xbdabf653	-0.08396592
237	0xbe027216	-0.12738833
238	0x3e6471b5	0.22309001
239	0x3cfefbe7	0.031125976
240	0xbea7f891	-0.3280683
241	0xbc7e66a7	-0.015527404
242	0xbe9969e7	-0.2996361
243	0x3d97ec28	0.0741809
244	0xbec51a46	-0.38496608
245	0x3e28dec2	0.16491225
246	0xbe393178	-0.18085277
247	0xbd809b0a	-0.06279571
248	0x3ee21e04	0.44163525
249	0xbf289e88	-0.658669
250	0x3e5c0be5	0.21488912
251	0xbe84fe5d	-0.25975314
252	0xc055ba17	-3.339483
253	0xbe9b186d	-0.30292073
254	0xbe6d0ebb	-0.2315015
255	0x3c413f23	0.011794838

action_model._discrete_distribution.branches.0.bias f4 [2]
0	0x3f85ee18	1.0463285
1	0xbf85ed2e	-1.0463006

exp_avg f4 [128, 26]
0	0x36f256ec	7.222281e-06
1	0xb95d39dd	-0.00021097758
2	0x37431685	1.1628149e-05
3	0xb2e9400e	-2.7153899e-08
4	0xb4e28f2c	-4.2199952e-07
5	0x3406216c	1.2491881e-07
6	0x39990562	0.00029186445
7	0xb8fdc949	-0.000121014724
8	0x38c716bb	9.493293e-05
9	0xb905f45f	-0.00012774904
10	0xba248cf9	-0.000627711
11	0x3bcf6fb7	0.006330456
12	0xbbcccc67	-0.0062499526
13	0x36f5f445	7.3300057e-06
14	0xb948ea3e	-0.00019160748
15	0x3763529a	1.35494865e-05
16	0xb2df43c8	-2.599144e-08
17	0xb4d8dc3a	-4.039337e-07
18	0x3400636e	1.1957101e-07
19	0x399398fc	0.00028152007
20	0xb8fba26c	-0.00011998866
21	0x38c60a62	9.44331e-05
22	0xb8efb2d3	-0.00011429717
23	0xba24b28a	-0.0006282708
24	0x3bcf5f80	0.006328523
25	0xbbccaa47	-0.0062458846
26	0xb62a5a38	-2.5384488e-06
27	0xb80f1a13	-3.411814e-05
28	0xb7879a12	-1.6164999e-05
29	0x31013223	1.880047e-09
30	0x32fafaea	2.9217933e-08
31	0xb214969f	-8.648981e-09
32	0x3a9675da	0.0011479214
33	0xb9c1c566	-0.00036958902
34	0x39a00551	0.0003052154
35	0xba3bc859	-0.0007163338
36	0x387bc6ef	6.0028335e-05
37	0xba0a88b4	-0.00052846526
38	0x39e75bef	0.0004412825
39	0xb6266a70	-2.4797882e-06
40	0xb81ea570	-3.782421e-05
41	0xb78b08dd	-1.6574219e-05
42	0x30e33a8d	1.6533065e-09
43	0x32dcb60d	2.5694158e-08
44	0xb202ab0e	-7.605889e-09
45	0x3a96bec7	0.0011500948
46	0xb9ba8442	-0.00035575224
47	0x399aa7c1	0.00029498155
48	0xba439fdd	-0.0007462481
49	0x3882e522	6.2415624e-05
50	0xba08e620	-0.00052222796
51	0x39e996e9	0.0004455366
52	0xb75c0ede	-1.3116483e-05
53	0x393ed8d4	0.00018200587
54	0xb802b43f	-3.1162283e-05
55	0x331c8bb6	3.6448647e-08
56	0x35180e1b	5.664494e-07
57	0xb4340b12	-1.6767834e-07
58	0xb9ed77e8	-0.000452935
59	0x39aad473	0.00032583214
60	0xb988c674	-0.000260878
61	0xb8b14daa	-8.454484e-05
62	0x3a552af4	0.00081317057
63	0xbc04d6ce	-0.008107854
64	0x3c049b0e	0.008093609
65	0xb760160e	-1.3356575e-05
66	0x38b8b9dc	8.808423e-05
67	0xb82943f6	-4.0356033e-05
68	0x3303e480	3.0708634e-08
69	0x35001bf1	4.7724376e-07
70	0xb417b08c	-1.4127198e-07
71	0xb9c90277	-0.00038339544
72	0x39a821b6	0.00032068574
73	0xb986db78	-0.0002572199
74	0xb93380d2	-0.0001711876
75	0x3a5585c0	0.00081452355
76	0xbc04d860	-0.008108228
77	0x3c049b94	0.008093733
78	0x3784d86d	1.5836407e-05
79	0xb9c3dd11	-0.00037358006
80	0x37cf0a60	2.4681154e-05
81	0xb35e8c7b	-5.181617e-08
82	0xb5582a30	-8.052766e-07
83	0x347ff412	2.3837518e-07
84	0x3981cfe6	0.00024759694
85	0xb99d34cd	-0.00029984713
86	0x396bebfb	0.00022499256
87	0x3992f527	0.00028029943
88	0xba9388ba	-0.0011255958
89	0x3c3e17fb	0.011602397
90	0xbc3c3dce	-0.011489345
91	0x3785d037	1.5951793e-05
92	0xb9b2e3b6	-0.00034120464
93	0x37ea53c0	2.7933973e-05
94	0xb3563d5e	-4.988157e-08
95	0xb5501818	-7.75211e-07
96	0x347665ad	2.2947525e-07
97	0x3976a2c8	0.00023521029
98	0xb99e801f	-0.00030231566
99	0x396e5774	0.00022730028
100	0x399f6fb1	0.0003041006
101	0xba9366ee	-0.0011245885
102	0x3c3e1f03	0.011604073
103	0xbc3c631a	-0.011498237
104	0xb1eaebfc	-6.8371246e-09
105	0xb6b95f02	-5.52449e-06
106	0xb50d5a7b	-5.265826e-07
107	0xafba3a9f	-3.3874856e-10
108	0xb1b4e303	-5.2644977e-09
109	0x30d62e81	1.5583766e-09
110	0x369404d8	4.4113076e-06
111	0x329731e6	1.7601405e-08
112	0xb25f5892	-1.3000447e-08
113	0xb6d1178c	-6.2314266e-06
114	0x33bd95ec	8.828269e-08
115	0x348e55d3	2.6512006e-07
116	0x350482c3	4.9364115e-07
117	0x33bb1a7e	8.712685e-08
118	0x37d5b2d1	2.5474847e-05
119	0x36278683	2.4963235e-06
120	0x30d76827	1.5672911e-09
121	0x32d13a4d	2.4357314e-08
122	0xb1f7bd45	-7.2101636e-09
123	0xb7ab60de	-2.0429896e-05
124	0x32998620	1.7872537e-08
125	0xb2634172	-1.322802e-08
126	0x37eeb8df	2.8457898e-05
127	0x32881df7	1.584611e-08
128	0x35af4be2	1.3060601e-06
129	0xb50346b1	-4.890417e-07
130	0xb8f21c36	-0.00011544714
131	0x3ae0805b	0.0017128097
132	0xb9dbd18f	-0.00041927068
133	0x34b75619	3.414905e-07
134	0x36b213b9	5.3071094e-06
135	0xb5d2dad2	-1.5709904e-06
136	0x3bdf1c57	0.0068087983
137	0x3a224f53	0.000619163
138	0xb984c34a	-0.00025322504
139	0xbc210729	-0.009828367
140	0x3bec0f35	0.0072039613
141	0xbd9a0304	-0.075201064
142	0x3d9a1523	0.07523563
143	0xb8f470a6	-0.00011655809
144	0x3ad8a726	0.0016529306
145	0xb9def26f	-0.00042523767
146	0x34b572d9	3.379744e-07
147	0x36b03e56	5.2524656e-06
148	0xb5d0af0b	-1.5548152e-06
149	0x3bdc760c	0.0067279395
150	0x3a40b690	0.00073514227
151	0xb9b3ef38	-0.00034319772
152	0xbc231978	-0.009954803
153	0x3bf2a9a0	0.007405475
154	0xbd99fd1a	-0.075189784
155	0x3d9a5729	0.07536156
156	0xb4f2aa83	-4.5200076e-07
157	0xb90a517f	-0.00013191065
158	0xb73db3dd	-1.1307156e-05
159	0xb211bd74	-8.4831875e-09
160	0xb40d8f35	-1.3183747e-07
161	0x33279d99	3.902605e-08
162	0x394548c1	0.00018814487
163	0xb762f251	-1.3527068e-05
164	0x37540549	1.2637415e-05
165	0xb96654be	-0.00021966078
166	0xb8a87a25	-8.0336154e-05
167	0x3aac3e6b	0.0013141161
168	0xbac13a4a	-0.0014742103
169	0xb4e0165b	-4.1739517e-07
170	0xb90930b0	-0.00013083476
171	0xb73ba828	-1.11852205e-05
172	0xb210bca7	-8.424798e-09
173	0xb40c95c4	-1.3093e-07
174	0x33267640	3.8757435e-08
175	0x39443447	0.00018711491
176	0xb74d5f14	-1.2241089e-05
177	0x37442213	1.1690444e-05
178	0xb96736da	-0.0002205031
179	0xb8b8140b	-8.777537e-05
180	0x3aadac33	0.0013250172
181	0xbac35275	-0.0014901893
182	0x338c0afd	6.521257e-08
183	0xb51ebd0f	-5.9134703e-07
184	0x34427622	1.8110634e-07
185	0xaf1d39c7	-1.4299593e-10
186	0xb118b734	-2.222305e-09
187	0x3034d348	6.578387e-10
188	0xb6b2547d	-5.314649e-06
189	0x356cc438	8.8202387e-07
190	0xb55baee3	-8.183835e-07
191	0x36a6a9c2	4.966948e-06
192	0xb68301c4	-3.90431e-06
193	0x38210265	3.838762e-05
194	0xb814aecd	-3.5448746e-05
195	0x3397fb10	7.0771534e-08
196	0x363b3d3d	2.7900817e-06
197	0x35099a48	5.1260986e-07
198	0x2e8dab8b	6.44241e-11
199	0x30899b1a	1.0012144e-09
200	0xafa2ef3a	-2.963761e-10
201	0xb705f45a	-7.98431e-06
202	0x35559dab	7.957812e-07
203	0xb549bbc0	-7.515155e-07
204	0x37143f54	8.836232e-06
205	0xb6767880	-3.6726997e-06
206	0x382089d9	3.8275353e-05
207	0xb8136d04	-3.514906e-05
208	0xb89d53c5	-7.501947e-05
209	0x3a2b6204	0.0006537738
210	0xb99e328e	-0.00030173775
211	0x3447d955	1.8612384e-07
212	0x36421dc2	2.8925574e-06
213	0xb565d8ae	-8.562446e-07
214	0x3be9a510	0.0071302727
215	0xb9acc640	-0.00032954104
216	0x39ecffb7	0.0004520395
217	0xbc08b695	-0.008344312
218	0x3b80b825	0.0039282017
219	0xbd27d550	-0.040974915
220	0x3d27bb7e	0.04095029
221	0xb89e6281	-7.552375e-05
222	0x3a2b94e0	0.00065453164
223	0xb99e329b	-0.00030173812
224	0x3447fa4c	1.8624377e-07
225	0x36423dc6	2.894421e-06
226	0xb565fe9a	-8.567964e-07
227	0x3be6a12c	0.007038256
228	0xb9638c83	-0.00021700752
229	0x39bfb94f	0.00036568425
230	0xbc0a5ed9	-0.008445465
231	0x3b8541b4	0.0040666703
232	0xbd27c3c2	-0.040958174
233	0x3d2813d8	0.04103455
234	0x31a19a13	4.703233e-09
235	0x37e3fc41	2.7177974e-05
236	0x3628c7c0	2.515022e-06
237	0x30e964b5	1.6981604e-09
238	0x32e2b2bd	2.6391143e-08
239	0xb2063674	-7.812208e-09
240	0xb7bc3da1	-2.2440045e-05
241	0x3251bc05	1.2208152e-08
242	0xb211967c	-8.474327e-09
243	0x380046f8	3.0583673e-05
244	0x3634f600	2.696528e-06
245	0xb863bc38	-5.429631e-05
246	0x38719c57	5.760448e-05
247	0x331fdb02	3.721926e-08
248	0xb825ec4f	-3.9559145e-05
249	0xb688fb17	-4.0823465e-06
250	0xb12467cc	-2.3924143e-09
251	0xb31fb078	-3.718057e-08
252	0x323d153f	1.1006079e-08
253	0x38056cee	3.181112e-05
254	0x32561f0e	1.24635005e-08
255	0xb2151d6e	-8.679633e-09

exp_avg_sq f4 [128, 26]
0	0x31536370	3.0761065e-09
1	0x35198be0	5.7200486e-07
2	0x3305c963	3.1149636e-08
3	0x2854cd43	1.1812873e-14
4	0x2c48c4a7	2.8530873e-12
5	0x2a8cbd51	2.500036e-13
6	0x35ba72ab	1.3891453e-06
7	0x359b09dc	1.1551269e-06
8	0x3536309f	6.7871036e-07
9	0x360a4578	2.0604039e-06
10	0x36c22084	5.785436e-06
11	0x3a1a5247	0.0005886894
12	0x3a1a7146	0.0005891513
13	0x3154bc6e	3.095717e-09
14	0x35198dce	5.7203295e-07
15	0x330627c4	3.1235473e-08
16	0x2854ea13	1.1819121e-14
17	0x2c48dfcd	2.8545944e-12
18	0x2a8cd064	2.5013596e-13
19	0x35c07efe	1.4342074e-06
20	0x359bd23e	1.1609588e-06
21	0x3537869e	6.8368706e-07
22	0x36069334	2.005324e-06
23	0x36c21857	5.784484e-06
24	0x3a1a5cd2	0.0005888465
25	0x3a1a76b1	0.000589232
26	0x3229d22e	9.884884e-09
27	0x36382d2e	2.7444435e-06
28	0x338d7ce8	6.5885445e-08
29	0x29907040	6.414357e-14
30	0x2d884545	1.5492172e-11
31	0x2bbf0da4	1.3575152e-12
32	0x36d86b22	6.4497735e-06
33	0x35c8c366	1.495803e-06
34	0x35739434	9.074022e-07
35	0x370ed9ef	8.514601e-06
36	0x3803e803	3.144891e-05
37	0x3b50c457	0.003185531
38	0x3b53f670	0.0032342933
39	0x322a4807	9.9116795e-09
40	0x36368971	2.7200115e-06
41	0x338ed658	6.651379e-08
42	0x299021ba	6.400735e-14
43	0x2d87fb46	1.5459311e-11
44	0x2bbea5d1	1.3546335e-12
45	0x36d41d77	6.3215225e-06
46	0x35c7db95	1.4890562e-06
47	0x35719a08	9.000364e-07
48	0x3710b139	8.624332e-06
49	0x380412d4	3.1488787e-05
50	0x3b50dd47	0.0031870173
51	0x3b53fa73	0.0032345324
52	0x3232f82c	1.0417391e-08
53	0x355e6e69	8.286211e-07
54	0x33bf7bee	8.916673e-08
55	0x293da245	4.2107177e-14
56	0x2d32e91c	1.0169889e-11
57	0x2b7ad5a2	8.9114317e-13
58	0x36be0df7	5.664067e-06
59	0x362103da	2.3993111e-06
60	0x35c12512	1.439041e-06
61	0x36d6374c	6.3841344e-06
62	0x37aeff53	2.0861311e-05
63	0x3b08de1b	0.0020884338
64	0x3b08d72d	0.0020880208
65	0x3233a808	1.0457377e-08
66	0x3567b664	8.631962e-07
67	0x33c00825	8.942178e-08
68	0x293ef26f	4.2398753e-14
69	0x2d342631	1.0240296e-11
70	0x2b7c9240	8.973135e-13
71	0x36be697d	5.6747217e-06
72	0x3620b3ff	2.394663e-06
73	0x35c0be55	1.4360509e-06
74	0x36d7d826	6.4326623e-06
75	0x37af0624	2.0864485e-05
76	0x3b08e083	0.0020885773
77	0x3b08d974	0.0020881565
78	0x3186ce12	3.9233408e-09
79	0x35574378	8.019192e-07
80	0x3310994c	3.3667035e-08
81	0x28b4fd9b	2.0093998e-14
82	0x2caac17b	4.8531713e-12
83	0x2aef66c7	4.2526245e-13
84	0x362a7f21	2.5405973e-06
85	0x358500a9	9.909464e-07
86	0x351820b3	5.6671996e-07
87	0x36bae7e6	5.5702285e-06
88	0x3730f786	1.05480485e-05
89	0x3a88f608	0.00104493
90	0x3a869568	0.0010267915
91	0x31873fd9	3.9362757e-09
92	0x3555b7f1	7.9616353e-07
93	0x33123181	3.4038298e-08
94	0x28b44727	2.0014872e-14
95	0x2caa153d	4.8340485e-12
96	0x2aee756c	4.235877e-13
97	0x3626ec81	2.487359e-06
98	0x3587c650	1.0116e-06
99	0x351aec05	5.7712924e-07
100	0x36bbd533	5.597854e-06
101	0x3730c56e	1.0536385e-05
102	0x3a88e0bb	0.0010442951
103	0x3a867287	0.001025752
104	0x28605c7f	1.2454555e-14
105	0x320f7d65	8.352207e-09
106	0x2ea91ac8	7.6899875e-11
107	0x24143b0a	3.2142392e-17
108	0x280bd931	7.763146e-15
109	0x264411b0	6.802513e-16
110	0x31be8678	5.545015e-09
111	0x287a15c1	1.3882505e-14
112	0x2813f419	8.2130695e-15
113	0x32356407	1.055833e-08
114	0x2bcb7bfd	1.4458431e-12
115	0x32b4cb58	2.1047228e-08
116	0x32afc541	2.0462382e-08
117	0x296570cf	5.094606e-14
118	0x32f70401	2.8756405e-08
119	0x2f966a58	2.7360403e-10
120	0x24fb9636	1.09108365e-16
121	0x28ed5c1c	2.6352232e-14
122	0x272663fe	2.3091334e-15
123	0x32a23982	1.8885434e-08
124	0x287ab289	1.39165014e-14
125	0x2814ba76	8.256083e-15
126	0x3319b5c9	3.578842e-08
127	0x2c10b101	2.0561888e-12
128	0x32e03088	2.6099102e-08
129	0x32db66f7	2.5541778e-08
130	0x368bfb9e	4.171815e-06
131	0x3a00a276	0.0004907021
132	0x3810384a	3.43847e-05
133	0x2d9dcd7b	1.7940085e-11
134	0x3194e12d	4.3329664e-09
135	0x2fd0bb0f	3.7967893e-10
136	0x3af7b27f	0.00188978
137	0x3aa0d5c4	0.0012270738
138	0x3a409260	0.00073460303
139	0x3ae87b9c	0.0017737034
140	0x3c0a2d1f	0.008433609
141	0x3f5d2d22	0.8639699
142	0x3f5f20da	0.871595
143	0x368cd64e	4.1972735e-06
144	0x3a0077eb	0.00049006817
145	0x38109134	3.4467506e-05
146	0x2d9df569	1.7957818e-11
147	0x319506cb	4.337243e-09
148	0x2fd0efda	3.8005404e-10
149	0x3afe287e	0.001939073
150	0x3aa06a15	0.0012238646
151	0x3a407a1d	0.0007342415
152	0x3ae3b1be	0.0017371697
153	0x3c0a42d4	0.008438785
154	0x3f5d5732	0.86461174
155	0x3f5f502e	0.8723172
156	0x2eecd88b	1.0770503e-10
157	0x34ad1577	3.223938e-07
158	0x316c9988	3.4429792e-09
159	0x26fd126c	1.7560395e-15
160	0x2aeec2bf	4.2412425e-13
161	0x29275f6f	3.7164224e-14
162	0x349a0ddf	2.8694828e-07
163	0x3329caa2	3.9532672e-08
164	0x32c9aa0a	2.3476805e-08
165	0x350b34f7	5.185861e-07
166	0x34c43bda	3.6551393e-07
167	0x3827f021	4.003954e-05
168	0x3834936c	4.305264e-05
169	0x2eedf24c	1.0820553e-10
170	0x34b3ba33	3.3476826e-07
171	0x317405d9	3.5509997e-09
172	0x27022b8b	1.8064729e-15
173	0x2af59e47	4.363057e-13
174	0x292c2e12	3.823163e-14
175	0x349ea3ee	2.9549068e-07
176	0x332a18c5	3.9603737e-08
177	0x32ca2d21	2.3536417e-08
178	0x350fa3a0	5.3509757e-07
179	0x34c4d872	3.666533e-07
180	0x382951e0	4.0368992e-05
181	0x3836cc4f	4.358246e-05
182	0x2c95938a	4.251215e-12
183	0x308e7ed6	1.0367909e-09
184	0x2e2b1983	3.8903557e-11
185	0x23c0ff6c	2.0924857e-17
186	0x27b6157f	5.0538454e-15
187	0x25ff48b1	4.4284706e-16
188	0x311eb194	2.3092968e-09
189	0x30ae4bc8	1.2681705e-09
190	0x30504a3c	7.577545e-10
191	0x313c1b41	2.7373093e-09
192	0x321be7ab	9.074863e-09
193	0x357b94c7	9.3721286e-07
194	0x357ee574	9.495627e-07
195	0x2c96693f	4.274941e-12
196	0x30969537	1.0956346e-09
197	0x2e2ce865	3.931468e-11
198	0x23c3d13e	2.123056e-17
199	0x27b8be87	5.127683e-15
200	0x260181c0	4.493171e-16
201	0x312425ca	2.3886622e-09
202	0x30adebe3	1.265445e-09
203	0x30503453	7.5744316e-10
204	0x313df165	2.7640337e-09
205	0x321c106c	9.084129e-09
206	0x357be4a8	9.3837525e-07
207	0x357f5842	9.5123335e-07
208	0x3608d552	2.0389748e-06
209	0x39a06389	0.00030591738
210	0x378976ee	1.6387054e-05
211	0x2d268e1c	9.467562e-12
212	0x311d230c	2.2866429e-09
213	0x2f5c4eb7	2.0036849e-10
214	0x3a83c752	0.0010053909
215	0x3a1c3ada	0.00059596973
216	0x39bb9bd4	0.0003578352
217	0x3a74591b	0.0009321139
218	0x3b90d983	0.0044204607
219	0x3ee8dec1	0.45482448
220	0x3eeb4c85	0.45956817
221	0x3609a64d	2.051139e-06
222	0x399fea5a	0.0003050145
223	0x3789d592	1.6431124e-05
224	0x2d26a844	9.47337e-12
225	0x311d3bb0	2.2880435e-09
226	0x2f5c7155	2.0049147e-10
227	0x3a86b8c9	0.0010278459
228	0x3a1b9efe	0.00059364724
229	0x39bb4092	0.00035715528
230	0x3a70a32c	0.0009179588
231	0x3b90f39e	0.0044235727
232	0x3ee910f7	0.45520756
233	0x3eeb82cd	0.4599823
234	0x2b25c0bd	5.8887254e-13
235	0x34b9179d	3.4476116e-07
236	0x31610e09	3.2749787e-09
237	0x26bcc3b7	1.3098169e-15
238	0x2ab21717	3.1635174e-13
239	0x28f9af4a	2.7720573e-14
240	0x3472f631	2.262757e-07
241	0x29d29eae	9.3534e-14
242	0x297ca13f	5.60951e-14
243	0x34e6dedc	4.300299e-07
244	0x2f691213	2.1197648e-10
245	0x34e94df0	4.345634e-07
246	0x34ef9901	4.4628544e-07
247	0x2b5ee540	7.918839e-13
248	0x34edf742	4.4324594e-07
249	0x31909272	4.2076005e-09
250	0x26f2a461	1.6836678e-15
251	0x2ae4ebbb	4.0664507e-13
252	0x2920799a	3.563261e-14
253	0x349c386c	2.9098317e-07
254	0x29d1dcaf	9.319747e-14
255	0x297c4e7c	5.6023315e-14
