AIRocketLanding/results/AIRocketAgain1/AIRocket/AIRocket-166999960.onnx (onnx, 84776 bytes, 9 tensors)

action_model._continuous_distribution.log_sigma f4 [1, 2]
00000000: 49e4 83c0 5e8d 8dc0
-4.121617 -4.4235067

action_model._continuous_distribution.mu.bias f4 [2]
00000000: 36ec b13d 3a5e cf3e
0.08687632 0.40501577

action_model._continuous_distribution.mu.weight f4 [2, 128]
00000000: 6e5b 0cbe 6b9b ccbd 9a43 fbbd 0c67 c2bd
00000010: 98f0 58be 9b36 a0bd 01df cabd 4fb5 e9bd
00000020: a99a 13bd e47c b2bd 8d17 72bd 08d3 a8bd
00000030: 49fb 6ebd 929e a9bd 640c c3bd efac c0bd
00000040: 55a7 fabd 0be0 93bd f37a 66bd 5057 d8bd
00000050: 1d1a d9bd 6dac b6bd 2bfe aabd ec10 ccbd
00000060: eb4f c9bd 56d9 f0bd 43a6 aabd 42c8 c2bd
00000070: 765a 0f3f f28b 3d3b c650 ccbd 72da c5bd
00000080: bf11 81bd 32cf a6bd 4f33 aabd b7e4 9ebd
00000090: 5061 dabd 612f 95bd 5ca1 eebd 1eba 243c
000000a0: c6b0 a9bd 21bf d2bd 52f0 37bd affd a6bd
000000b0: cc64 1bbe afb7 a6bd 02d8 c2bd 0174 87bd
000000c0: 6db7 afbd 49eb 58bd 0d6c 1abd 450d bcbd
000000d0: b1ce f23d 2c0e c9bd 847d dcbd 2da0 cfbd
000000e0: 8fa7 06be bc35 bbbd 6298 6ebd 57f1 d3bd
000000f0: 01a8 ecbd 9f1a a93e a44f 85bd 8c5e adbd
00000100: 4502 13bd c5d3 dcbd 40c8 9cbd ff74 aabd
00000110: a91b b1bd 4328 dcbd 75e1 07be 9673 d8bd
00000120: 7fe1 d3bd d579 4abd 0d5a b0bd 709b 96bd
00000130: 5e11 95bd 958a c5bd b4f0 56bd 080d 35be
00000140: 5229 b3bd 837a c7bd deb2 f13e 3851 c1bd
00000150: ce5c d9bd 238b 873b 9cad 9cbd be57 013e
00000160: 4b7b d7bd bea4 a9bd b8a5 e2bd 4606 e6bd
00000170: 6f4d 17be 8600 e6bd 60b9 b8bd e2ec c8bd
00000180: 17e7 edbd ec88 a0bd fcd2 0bbe 2729 133d
00000190: b296 8bbd 541c ecbd aa90 2dbd 9762 dbbd
000001a0: 4b80 8dbd 2f6c bbbd 3c0b 01be 16b3 9fbd
000001b0: cdc7 c5bd 653a ebbd 87cb a1bd 56fd ccbd
000001c0: bae6 aabd dcaf b9bd 6b5c d8bd 94e1 b2bd
000001d0: bb7f c1bd 6072 f3bd a5ba d9bd 5d10 8ebc
000001e0: 0b63 dcbd dcbd f8bd 25db 37be 677c 57bd
000001f0: 1e46 b43c 8cad aebd fd56 04be 612e a7bd
00000200: d4fb df3d ce2d 483d 2a62 093e 2fe5 f33d
00000210: 45af 103d 2d14 1b3d 51d6 5c3d cae6 9c3d
00000220: b9a2 8d3d 696c d63d 693a 773d 91e0 273d
00000230: 6ff0 6b3d 2dc5 fe3c 981c 8f3d c67e 9b3d
00000240: 339b ce3c f05d 003d 79e2 1d3d 9e26 d23d
00000250: 2245 8f3d 17d5 633c 6b02 4a3c 0544 b83b
00000260: a9a2 9d3d 252c 053d 1bdf b03d 237f 3a3d
00000270: bce5 223e 56bf c438 9d30 583d 6f59 9b3d
00000280: 18fe 2e3d 3980 273d 5746 983c 4e39 603d
00000290: 6b02 863d ceb8 6c3d e4c8 a53d 02ef 983c
000002a0: 55c9 6e3c 470c ec3c 4dc6 fe3c 7365 573d
000002b0: e141 0c3e 7625 b33c cd0a 893d cb4f 773d
000002c0: a897 8e3d 51cc 533d c5d2 6e3c ad69 663d
000002d0: 417c e63c 99a2 893d 8018 ba3d be88 e13d
000002e0: 6ef4 583d 3a9e b93d e49d b83c 3580 a13d
000002f0: dcc0 9b3d 9a5f 403e c068 6d3d dc50 0e3d
00000300: d4c1 a33c fe6c e43c f591 883d 6368 463d
00000310: 3cf8 5c3d aca0 6e3d 7212 d53d f085 833d
00000320: 255b 823d 1298 29bb 5c4a 803d 66b8 693d
00000330: ba38 3e3c ec95 fc3d 2578 783d d618 d43d
00000340: d1ce 003d 4c93 993d 18ea 9d3e 044e e03d
00000350: a87d a13d 6035 8f3b b309 753d 522d 803d
00000360: b200 d33d df3c f63c 839b 463c 3059 c43d
00000370: bbee f13d 10ab 9d3d 758e ac3d 1719 303d
00000380: 8610 613d 0a9d 8c3d dc7c d53d bde2 eeba
00000390: 92ec a93d 9306 7e3d a59d 203d 46c1 093c
000003a0: e959 6dbb 899d cd3c e402 9d3d 3f01 19bc
000003b0: fccf fe3d 974e 543d ecd7 6c3d 2c55 bd3c
000003c0: 2c39 8e3d 5e58 ba3d e742 5e3d 221b a33d
000003d0: d493 5e3d 2e7b ba3d 5a82 a23d 3f7a 0f3d
000003e0: d411 283e cdee bd3d bf88 b33d 0410 f23c
000003f0: 2bc0 babb 1884 e63d 3209 5b3d 2476 9f3d
-0.13706753 -0.09990581 -0.12268753 -0.09492311 -0.21185529 -0.07822915 -0.09905816 -0.11411535
-0.036036167 -0.08715227 -0.05910449 -0.08243376 -0.058345113 -0.08282198 -0.09523848 -0.094079845
-0.12238947 -0.07220467 -0.056269597 -0.105635285 -0.10600684 -0.08919606 -0.0834926 -0.09964165
-0.09829696 -0.117602035 -0.08332493 -0.095108524 0.5599741 0.0028922525 -0.09976344 -0.09660806
-0.06302213 -0.08144988 -0.083105676 -0.07758468 -0.10663092 -0.072844274 -0.116518706 0.010054139
-0.0828567 -0.10290361 -0.04490692 -0.08153855 -0.1517517 -0.081405036 -0.095138565 -0.06613923
-0.085799076 -0.05295876 -0.0377007 -0.091822185 0.118558295 -0.09817156 -0.10766128 -0.10137973
-0.13149856 -0.091411084 -0.058250792 -0.10348766 -0.11555482 0.33028123 -0.06509331 -0.08465299
-0.035890836 -0.10782579 -0.07655382 -0.083230965 -0.08647854 -0.10749867 -0.13269599 -0.10568921
-0.10345744 -0.049432594 -0.08610926 -0.07353866 -0.07278703 -0.09645573 -0.052475646 -0.17680752
-0.087481156 -0.09740164 0.47206777 -0.09439319 -0.10613404 0.0041364594 -0.07650301 0.12631127
-0.10521563 -0.08283375 -0.110667646 -0.11231665 -0.14775632 -0.112305686 -0.090197325 -0.09810807
-0.116163425 -0.07838616 -0.13654703 0.035927918 -0.06815852 -0.11528841 -0.04237429 -0.10712164
-0.069092356 -0.09151494 -0.12601942 -0.0779783 -0.096572496 -0.11485747 -0.07900148 -0.100092575
-0.08344789 -0.09066746 -0.10564502 -0.08734432 -0.09448191 -0.1188705 -0.10631303 -0.017341787
-0.107610784 -0.12145588 -0.17954691 -0.052608874 0.02200609 -0.08529195 -0.12923808 -0.08163143
0.10936704 0.048871808 0.13416353 0.11908948 0.0353234 0.037861038 0.053915326 0.07661207
0.069158025 0.10469896 0.06035844 0.040985648 0.057602342 0.03109988 0.06987876 0.075925395
0.02522049 0.031339586 0.03854606 0.10261272 0.06995608 0.013905785 0.012329678 0.005623343
0.076970406 0.032512803 0.08636304 0.045531403 0.15907949 9.3816474e-05 0.052780736 0.075854175
0.04272279 0.040893767 0.018588228 0.05474215 0.0654343 0.05779343 0.080949575 0.018668655
0.0145743685 0.028814448 0.031100417 0.052586984 0.13697006 0.021868449 0.06691513 0.06037883
0.0696252 0.051708523 0.014576619 0.056253124 0.02813542 0.06720466 0.09086704 0.110124096
0.05296748 0.090633824 0.022536226 0.07885782 0.076051444 0.18786469 0.057961226 0.034745082
0.019989885 0.027884003 0.06668464 0.048439395 0.053947672 0.058258697 0.10403909 0.06422031
0.06365041 -0.0025877994 0.06264183 0.05706062 0.011610204 0.12333283 0.060661454 0.103562996
0.031447235 0.07498798 0.30842662 0.1095238 0.07885295 0.0043703765 0.059823703 0.06258644
0.10302867 0.030058322 0.012122038 0.09587324 0.11813112 0.07698643 0.08425609 0.042992678
0.0549474 0.0686589 0.10424206 -0.0018225532 0.08297075 0.06201799 0.03921284 0.008407896
-0.003621692 0.025099533 0.07666567 -0.009338676 0.124420136 0.05183276 0.057823107 0.023111902
0.069444984 0.09098886 0.05426302 0.079641595 0.0543402 0.09105526 0.07935019 0.035028692
0.16413051 0.09274063 0.087663166 0.029548652 -0.0056991777 0.11255664 0.053475566 0.077862054

action_model._discrete_distribution.branches.0.bias f4 [2]
00000000: 198c 813f 2f8b 81bf
1.012088 -1.01206

action_model._discrete_distribution.branches.0.weight f4 [2, 128]
00000000: 11e0 f83e ca2e f43d 3cd6 b3be 6b75 0abd
00000010: 37b4 22be ecb8 b43d a1da 45be eced 463d
00000020: c578 11bd 945a d93d f40a c13e 093e a23e
00000030: 7d83 e63c 69ae 023e 5358 b6bd e7bc e3be
00000040: ed51 563d d33c fa3e ed4a e83e ba82 723d
00000050: 0dc4 cb3d 70c5 babd 0d5b 12bd 1e1d 153f
00000060: 169c 9e3d 25f9 80be 2ac0 9f3c 9d58 853e
00000070: 74df d13f ecba c43e 7985 4fbe 24c6 2f3e
00000080: 686b cc3e 619a 02bd cc4f 893e 2068 273e
00000090: ab6c 093e 4e41 ecbd 5181 783e 8c9f 3abe
000000a0: 9362 25be 99a8 10bf 176b 5b3e 14eb 413e
000000b0: e431 1c3f cc32 30be 2bcd 003d a4bc 733d
000000c0: ae73 313f 903d 9c3d b54c 223e a3c8 c7bc
000000d0: 1c3d 3f40 37cb f9bc 205e e13d eb55 6c3e
000000e0: b348 3b3f 6a29 30be 65ed 633e f47c a1be
000000f0: ee6a a33e 2c7a 673b 4f55 e5bd 943e 65bf
00000100: eb81 36be 4083 c5bd 711a af3e 8172 253e
00000110: 63ab 97be 925f 823c 5ca5 ce3c 2908 8dbe
00000120: 1d10 fc3d 28c2 9c3e c179 3a3e 7e79 38be
00000130: dd1e a5bf eb74 233e 6d6b 883e c8c2 433d
00000140: 7243 3cbe 1633 383c f7c5 3a3f 15e4 3b3e
00000150: 18ce a6be 190e 0540 5501 ac3d 3d56 3640
00000160: 17d6 903d 419c b7bd 62ca e33e bdaa 54be
00000170: ba24 a73f 1d96 de3e d36c dbbd 896c 07bd
00000180: c62d 5d3e 6482 443e ad60 2c3e 5b7a 303f
00000190: 2e0d 55bd 1ffc 74be 0e52 9d3e c661 923e
000001a0: 15da ec3e 606d 473f 999a c33d 2001 383b
000001b0: 0336 be3d 2d4d 063e 8b40 7dbe 3d60 35bd
000001c0: 32e8 9f3e b3c7 a33c 7aa1 993e d276 98bd
000001d0: 93cf c43e 44d7 2dbe 231c 313e 7611 a23d
000001e0: d485 d0be a07b 2e3f b9d5 3cbe e72c 8b3e
000001f0: 6304 5840 26f2 a03e 28dc 733e 5480 4ebd
00000200: ff3d fabe 461d ffbd fc6b a93e 59c8 e93c
00000210: cac0 183e 0389 acbd 104c 333e a477 84bd
00000220: a448 0e3d 585d e7bd 292b babe 847d a5be
00000230: bba3 e9bc 3ca6 f2bd f033 963d f49a dd3e
00000240: 67a2 37bd 6cc3 f1be be85 f4be dd94 77bd
00000250: 61d5 f3bd 8e04 b83d ebe8 103d e963 14bf
00000260: b4f1 7dbd 4798 883e 3f4e d0bc 7a8e 80be
00000270: f763 d2bf ae02 c5be 90ce 573e dbc6 26be
00000280: 7528 c9be 0c89 8d3c eab8 87be 2d59 30be
00000290: e3a4 19be e438 e43d 6740 78be 7046 453e
000002a0: 164d 183e 024d 143f 8199 58be 685e 40be
000002b0: e5e6 1ebf ea34 303e f909 64bd ce40 8fbd
000002c0: 614f 32bf 57a8 6dbd 59be 1abe 7cbd b13c
000002d0: ac08 40c0 aa72 bb3c 3ea8 cabd c708 84be
000002e0: ace3 3dbf a3fa 313e fcc8 3fbe 0364 973e
000002f0: 8d36 abbe 8267 9dbc 654a e23d 3ea3 663f
00000300: 3d38 403e f6d1 ca3d e576 abbe 15f8 2ebe
00000310: 0e04 993e 683e bcbc d783 e1bc 40da 963e
00000320: 0939 0abe bdd5 a5be 9b55 3abe c773 303e
00000330: f509 a43f 3da9 22be 69c8 8bbe 5a68 4ebd
00000340: 1711 3d3e 54a8 52b9 cbd6 3cbf b584 3cbe
00000350: 3d4a a93e fb73 03c0 b5f1 bebd 4881 37c0
00000360: dfad 74bd 0434 a83d a27c dfbe 8ad8 5d3e
00000370: d05b a7bf 4db9 e9be 3ad8 ba3d 23cd 493d
00000380: 5ece 5dbe bcf3 25be 4419 1dbe 0066 32bf
00000390: 491c 273d 3f5b 733e ff5e 98be 13d0 9cbe
000003a0: e6c0 e1be d6fe 4bbf a6b5 cebd f08b d3bb
000003b0: 53ed cbbd f32d 02be 50b9 643e a2fb 003d
000003c0: 59df a7be 2305 7cbc b1ca 99be 9d8d 983d
000003d0: 7107 c5be f808 283e ef83 39be 14ec 7fbd
000003e0: 5a27 ce3e 5de9 2abf a2b5 4a3e a2c4 84be
000003f0: 2a0b 58c0 3d23 9bbe f8c7 6ebe 463f 453c
0.4860845 0.11922987 -0.35124385 -0.033803385 -0.15889059 0.088243335 -0.19321682 0.048566744
-0.035515565 0.106129795 0.3770367 0.31687954 0.02813887 0.12761845 -0.08903565 -0.4448006
0.052324224 0.4887453 0.45369664 0.0592067 0.09949503 -0.091196895 -0.035731364 0.58247554
0.07744615 -0.25190082 0.01950081 0.2604417 1.6396317 0.3842386 -0.2026576 0.17165428
0.39925694 -0.03188551 0.26818693 0.16348314 0.1342036 -0.115358934 0.2426808 -0.18224925
-0.16150884 -0.5650726 0.2142757 0.18937331 0.6101363 -0.17206877 0.031445663 0.059506074
0.6931714 0.076289296 0.15849574 -0.024387663 2.9881048 -0.030492408 0.11004281 0.2307965
0.73157805 -0.17203298 0.22258528 -0.31540644 0.31917518 0.0035320623 -0.11197912 -0.8954861
-0.17822997 -0.096441746 0.3419986 0.16156961 -0.29622945 0.015914712 0.025225334 -0.27545288
0.12307761 0.3061688 0.18210508 -0.18015096 -1.2900044 0.1596257 0.2664446 0.04779318
-0.18385103 0.011242649 0.7295832 0.18348725 -0.32579112 2.0789855 0.083986916 2.8490136
0.070720844 -0.0896535 0.44490343 -0.20768256 1.3058083 0.43473902 -0.10714116 -0.03306249
0.21599492 0.19190365 0.16833754 0.689367 -0.052014522 -0.23924302 0.30726665 0.2859022
0.46260133 0.7790127 0.095509715 0.0028076842 0.09287646 0.13115378 -0.24731652 -0.044281233
0.31231838 0.019992685 0.3000601 -0.07444538 0.38439617 -0.16976649 0.1729589 0.07913487
-0.40727103 0.68157387 -0.18440904 0.27182695 3.3752677 0.31434745 0.23814452 -0.050415352
-0.48875424 -0.12456755 0.33090198 0.028537916 0.14917293 -0.084245704 0.17509484 -0.06468132
0.034737244 -0.11297101 -0.36361054 -0.32322323 -0.028520456 -0.11848113 0.07334125 0.43282282
-0.044832613 -0.47219408 -0.47758287 -0.0604447 -0.11905933 0.08985244 0.035378378 -0.5796495
-0.061998084 0.26678678 -0.025427936 -0.251087 -1.6436757 -0.38478607 0.21074891 -0.16286795
-0.3928868 0.017277263 -0.26508266 -0.17221518 -0.15004306 0.111436635 -0.24243318 0.19265151
0.14873156 0.57930005 -0.21152307 -0.18786013 -0.6207107 0.17207685 -0.055673573 -0.069947824
-0.6965237 -0.05802187 -0.15111674 0.021696799 -3.0005293 0.022881825 -0.09895371 -0.25787947
-0.74175525 0.17380767 -0.18729013 0.2956849 -0.33440056 -0.019214395 0.11049346 0.9009284
0.18771453 0.09903328 -0.33489147 -0.17086823 0.29885906 -0.022978976 -0.027528686 0.29463387
-0.1349832 -0.32389632 -0.18196718 0.17231666 1.2815539 -0.15884872 -0.27301338 -0.050392486
0.1846355 -0.00020089868 -0.7376525 -0.18409999 0.33064452 -2.053954 -0.09323446 -2.8672657
-0.05973613 0.08213046 -0.43649775 0.21664634 -1.3074894 -0.45649186 0.09123273 0.0492679
-0.21660754 -0.16206259 -0.1534167 -0.6968689 0.04079846 0.23765276 -0.29759976 -0.30627498
-0.44092482 -0.79685724 -0.100932404 -0.006455891 -0.099573754 -0.1271284 0.22336316 0.031489976
-0.32787588 -0.015382084 -0.30037454 0.074488856 -0.3848224 0.16409671 -0.18116735 -0.062481
0.40264398 -0.66762334 0.1979585 -0.2593127 -3.3756814 -0.30300322 -0.2331847 0.012039011

network_body._body_endoder.seq_layers.0.bias f4 [128]
00000000: b537 763e f1c1 07be 7737 6dbe 8f05 34be
00000010: a1a0 aa3e 18ba 0c3e ea1b 93be f45d bdbc
00000020: e8d4 81be 41c4 863e af0a a8be b46f 603e
00000030: 2874 b5bf 6033 c9be c283 7dbd 6daf 00bf
00000040: 42f8 383e cb9c 6dbf 4924 c5bd 2bf5 d2be
00000050: 8e0f 4dbf 3197 943d 0dd2 9bbd 3a99 7ebe
00000060: 02b8 aabe 647e 31bc f13f 4f3e 2d7c e93d
00000070: 83d7 31be 35bf 89be 458b fcbe 4d55 fa3d
00000080: 8d2d 16bf 1319 0bbe 57eb f93c ba62 133c
00000090: 3a7e 25bf 1460 9e3d 22b1 7a3e b46b df3c
000000a0: f3b9 da3c 78ce 2bbf 3754 95be 0e7d 22be
000000b0: a665 06bf a149 61bf 8be8 1dbf 0e24 60bd
000000c0: 5120 dabe f8df bcbb 6e91 26bf c4a7 54be
000000d0: 141e b2bd a5a3 4bbf fae3 13bf 48dd 6abe
000000e0: ebdb 9abe 01b1 e93e e7da 43bf 92c4 92bd
000000f0: f99f 4abf 1cbc 00bf 3100 88be f463 e0be
00000100: 743a dcbe 73a5 99be 5faa 11be 615b 61bc
00000110: 3d9e 813e e24f 4ebf 1fb7 56bd 79ec 6dbf
00000120: f7ea 42be ef92 f6bd e908 23be b473 a3be
00000130: f16e 14be c418 653d debd bcbd b36c 2c3e
00000140: 6c96 e4ba f11a 2dbf ff72 a8be 614f e33e
00000150: b688 14bf 2304 15bd abd7 74bd d782 4dbf
00000160: 7655 a73d bd2f 593e 809b a43e 9a63 32bd
00000170: 141f cfbe bd8d 183e f4c7 7abf 71f6 9ebd
00000180: ee79 21be 8b7a 28be 5c57 c73d b940 42be
00000190: f0d0 05bf 0da6 40bf 814c 61be 9305 183e
000001a0: 8247 01be e168 b7bf e35e 183e ba37 94be
000001b0: b6c0 943d 6001 28be 1d03 35bf b1a8 803d
000001c0: 42a6 a2be d784 8bbf 4d8b 43bd b933 723c
000001d0: 5f68 11bf 74e8 ccbc 5a87 b4be 7697 bf3e
000001e0: 7221 6dbe ddcf fb3d 9a7d 5dbe c139 933e
000001f0: 4bb7 08be 0451 853e 106c 2a3e 2ac4 89be
0.24044688 -0.13257577 -0.2316569 -0.17580245 0.33325675 0.13742864 -0.28732234 -0.02311609
-0.25357747 0.26321605 -0.3282065 0.21917611 -1.4176073 -0.3929701 -0.061893232 -0.5026768
0.18063453 -0.9281737 -0.096260615 -0.41202673 -0.8010186 0.072554 -0.076084234 -0.24863139
-0.33343512 -0.0108333565 0.20239235 0.11400638 -0.17367367 -0.26903692 -0.49325004 0.12223301
-0.58663255 -0.13583784 0.030507727 0.008995706 -0.6464573 0.07733169 0.24481633 0.027273037
0.026699996 -0.6711192 -0.29165813 -0.15868017 -0.52498853 -0.88002974 -0.6168296 -0.054721884
-0.4260278 -0.005764004 -0.6506566 -0.20767123 -0.08697143 -0.79546577 -0.5776974 -0.22935975
-0.3024591 0.45642856 -0.76505893 -0.07166399 -0.7915035 -0.5028703 -0.26562646 -0.43826258
-0.43013346 -0.3000904 -0.14225148 -0.013754697 0.2531604 -0.8059064 -0.05242073 -0.92938954
-0.19034944 -0.12039744 -0.15921368 -0.31924212 -0.14495446 0.05593182 -0.09215902 0.1683834
-0.0017439849 -0.67619234 -0.32900235 0.443965 -0.58021104 -0.0363809 -0.05977599 -0.8027777
0.08170597 0.21209617 0.32149887 -0.04355202 -0.40453398 0.14897819 -0.97961354 -0.07761849
-0.15769169 -0.16452996 0.09733459 -0.18970002 -0.5227194 -0.75253373 -0.2200184 0.14845876
-0.12624934 -1.4328882 0.14879946 -0.28948766 0.07263319 -0.16406775 -0.70707875 0.06282175
-0.3176747 -1.0899915 -0.04774027 0.014782839 -0.5679988 -0.025013186 -0.35259515 0.37420243
-0.2315729 0.12295506 -0.21629944 0.28755 -0.1335117 0.26038373 0.16642785 -0.26907474

network_body._body_endoder.seq_layers.0.weight f4 [128, 26]
00000000: 8fed 993a 56a9 2fbf 74f4 22bf 21cd ff3e
00000010: 3919 8b3e bef2 083e 2c55 0d3e eac9 46be
00000020: 87ec 9c3e 4743 163e 4edc be3e 8197 373e
00000030: 8067 2d3e f6eb 603e db04 12bf e878 00bf
00000040: 4656 103e 1b69 093c ccc9 efbc 627a c03d
00000050: 7550 493d 8e9f 42be 5048 b2be cf87 3cbe
00000060: d069 743e 9200 063e 0685 a33b d880 64bf
00000070: 08b8 a2be bded 99be 573c 2cbe 4f51 ef3e
00000080: 1f9d b3be 24fe e83e 1e08 67be 1e87 a63d
00000090: d878 acbf fc97 9c3d 98b1 993e 661e 1fbe
000000a0: 5e57 f7be 1135 e4be db19 d8be 62fe f83d
000000b0: 8004 ccbc 1bc1 54be 37bc 883d 4dc7 ecbe
000000c0: cad7 1cbf a6d0 98bf 9979 95bb 3924 51be
000000d0: 85df 0cbe 120d cabe e4a3 f83c 9128 9dbd
000000e0: 5504 00bf 553f 633e ccf5 dcbe 7f7b c13e
000000f0: 729f 98be aa21 bc3d a93d 1abe faeb 90be
00000100: 033c 2dbe 841b d13d f213 13bd 7644 453e
00000110: 2b38 35be f1c2 07be eec6 8abc 83ce 83be
00000120: 8d76 0b3f 88f0 2abf 550e ba3e e21e 55be
00000130: f56d e03d d1ed 0fbe dd7f a8be 32b7 60be
00000140: a756 fb3e 6527 d1bd fefa 0fbf cedb 293e
00000150: e3f3 d9bb 9086 c8bc 173a d2bc 189b 45be
00000160: cc26 42be 2813 2c3e 593d fe3e 422b 2ebf
00000170: 8f9f 0e3e d6fe 973e 2826 99bd 4071 73be
00000180: 4963 8e3d 5c8c 203f b4a3 c43e 551e aabe
00000190: 022d debe d62b 08bf e6a1 d93e b61b 613c
000001a0: e4b4 fd3e 43cc 0abf 6c9a d4be bde6 953e
000001b0: f5db 753e 7d50 f8bd 00db 96bd 6c8f 873d
000001c0: f914 5bbc 310c b4be 90c2 053e 7291 233f
000001d0: 501a 93bd 38d8 13be c50a 08bf 7f91 3dbf
000001e0: fda1 f53b 955d 083e 6849 82be 981a 9dbe
000001f0: 41b7 78bd 5c46 00bf 847b d3be 4b66 94be
00000200: f10d d53e e1e0 efbe 1741 f5bd 5dd3 3d3f
00000210: 5174 813f 4c00 0cbe 8c8d 3e3c 22a8 d2bd
00000220: 7db6 6a3c d1c6 a33e b083 dcbe 5425 9c3e
00000230: 2268 42bf ee88 b8be 74ef d6bd a806 553e
00000240: ca65 e63e 0184 663f 91f9 123e b0ae 173d
00000250: 1a78 313d 70bf 12bf df39 a93e a05b c2be
00000260: 3dd7 8d3d 93f3 02bf c223 3dbf b2c5 adbe
00000270: ddbd f23e 7b21 04bf 9613 12be 5bfe 1bbe
00000280: 95f0 b5be 3554 433e 87a2 95bc 5fd7 4fbe
00000290: 472f 823e 9150 8fbe abab 39bf b129 dabe
000002a0: d8bd 92bd 48ff b53e 5bfe 1dbd 6da0 64be
000002b0: da05 fbbe a4e8 adbd 157d 6c3e 368c f6be
000002c0: ed3b 55be 4e8b c53e cbce 3bbe e87c 85bf
000002d0: c873 3f3e 810a e0bd 419e 41be 6585 673d
000002e0: 1680 f0be f1eb 993d 0787 4abd ad09 4f3e
000002f0: 69de eabc f1af 9b3d cd80 2cbc 97cc fd3c
00000300: 2af1 29bf be00 233c 9d16 293e 19f8 b2be
00000310: add1 ab3d c60f 53be b67b 743c 522b 0e3e
00000320: f9e4 933e 6769 68bc 1549 0abe 736f 89bc
00000330: a365 3cbd c511 2d3f 5ea6 e43b c273 20be
00000340: 5cdd 09bf 2ce6 8e3f 9f4a c23f 960d cfbe
00000350: c432 d1bd e781 cc3e 7eb5 e4bd 4ff1 073f
00000360: 6dfb 24be 850c 9bbe 5c52 a13c 5cbf 88be
00000370: 40ac 33be 2b8e 40bf be33 ce3e 2dc7 983f
00000380: 605c 72be ff10 debd 029f e73d d213 90bd
00000390: d116 133f 3061 4abe 52ea 8dbe fb10 b03d
000003a0: ae91 abbe a045 58be 856c 0c3f 38d6 00bf
000003b0: 79bb f1be 2e1d 82bd 3067 01bd f60c e33d
000003c0: 2be1 91ba 2a09 49bd 574c a5bd ba04 32bd
000003d0: 4af4 603e 102e 293f a851 52be e9c3 1b3f
000003e0: 4093 18be aa97 cabe 8a6e ba3e c0c5 f03e
000003f0: 4c1f c2be 165a 21be 793e 7ebe 6f81 d63c
0.0011743772 -0.6861776 -0.63654256 0.49961188 0.2716768 0.13373849 0.13802022 -0.19412962
0.30649206 0.14674102 0.37277454 0.17928888 0.16934013 0.21965012 -0.5703866 -0.5018449
0.1409541 0.0083868755 -0.029271029 0.09398343 0.049148995 -0.19006178 -0.34820795 -0.18411182
0.2386849 0.13086155 0.004990223 -0.892591 -0.3178103 -0.30064192 -0.16819893 0.4674172
-0.3508081 0.45506394 -0.2256169 0.0813124 -1.3474379 0.07646176 0.30018306 -0.1553894
-0.48308843 -0.44571736 -0.42207226 0.12157895 -0.02490449 -0.20776789 0.06676524 -0.46245804
-0.6126677 -1.1938674 -0.0045616147 -0.20423974 -0.13757141 -0.39463097 0.030351587 -0.07673753
-0.5000661 0.22192128 -0.43156278 0.37789533 -0.29809147 0.091861084 -0.15062584 -0.28305036
-0.16917424 0.10210326 -0.035907693 0.19264397 -0.17697208 -0.13257958 -0.01694056 -0.25743493
0.5447777 -0.6677327 0.3633906 -0.20812562 0.10958473 -0.14055564 -0.32910052 -0.21944883
0.49089548 -0.10212592 -0.5624236 0.16587755 -0.006651388 -0.024478227 -0.025662465 -0.19297445
-0.18960112 0.16804183 0.4965618 -0.68034756 0.13928054 0.29686612 -0.07477981 -0.2377367
0.06952531 0.6271417 0.38406146 -0.33226267 -0.43393713 -0.5319189 0.4250633 0.013739517
0.4955207 -0.5421793 -0.41524065 0.29277602 0.24009688 -0.12124727 -0.0736599 0.066191524
-0.0133716995 -0.3516555 0.13062501 0.63893807 -0.07182753 -0.1443795 -0.53141433 -0.74050134
0.007496117 0.13316949 -0.2544663 -0.30684352 -0.06072164 -0.5010736 -0.41305172 -0.28984293
0.416122 -0.46851256 -0.119753055 0.7415064 1.0113622 -0.13671988 0.011630427 -0.10285975
0.014325735 0.31987622 -0.4306922 0.3049723 -0.75940144 -0.3604197 -0.10494891 0.2080332
0.44999534 0.9004517 0.14353015 0.03703183 0.04332743 -0.5732336 0.33051965 -0.3796053
0.06925819 -0.51152915 -0.7388269 -0.33939892 0.4741048 -0.5161359 -0.14265284 -0.15233748
-0.35535112 0.19075091 -0.018265976 -0.20297001 0.25426695 -0.27991155 -0.7252757 -0.42609933
-0.07165116 0.35546327 -0.03857265 -0.22326823 -0.49027902 -0.08491638 0.2309459 -0.48153847
-0.20823641 0.38582844 -0.18340604 -1.0428743 0.18696511 -0.109395035 -0.18908025 0.0565237
-0.46972722 0.075157054 -0.04944518 0.20218535 -0.028670507 0.076019175 -0.010528755 0.030981345
-0.6638361 0.009948907 0.16512533 -0.34954908 0.08389602 -0.20611486 0.014922073 0.13883713
0.2888563 -0.014185286 -0.13504441 -0.016776776 -0.045995366 0.6760524 0.0069778403 -0.15669158
-0.5385339 1.1163993 1.5179023 -0.40440053 -0.10214761 0.39942858 -0.111674294 0.5310258
-0.16111536 -0.3028299 0.019692592 -0.26708496 -0.17546177 -0.7521693 0.4027385 1.1935784
-0.23668051 -0.108430855 0.11309625 -0.070350304 0.5745669 -0.19763637 -0.27717835 0.08596989
-0.33509582 -0.2112031 0.5485309 -0.5032687 -0.47213343 -0.06353222 -0.031592548 0.110864565
-0.0011129727 -0.049081005 -0.08071201 -0.04346154 0.21968189 0.6608591 -0.20538962 0.6084581
-0.14899921 -0.39568835 0.3641246 0.4702587 -0.37914503 -0.15757021 -0.24828519 0.026184766

network_body._body_endoder.seq_layers.2.bias f4 [128]
00000000: 856c 1bbf d408 87bf c4a2 74bf c822 74bf
00000010: 1501 4cbf 0914 1cbf f1c5 3ebf 6b0b 5ebf
00000020: 051d 6bbf 20d1 5dbf 0260 3abf 0b9d 4abf
00000030: 7730 62bf 45a3 50bf a693 77bf fa6c 5abf
00000040: 0c70 6dbf d773 64bf 0c06 6dbf 69f8 60bf
00000050: 39f1 66bf d07e 4bbf 22e0 72bf 9707 48bf
00000060: 07ec 50bf 58fb 62bf 252b 6cbf 3fc1 4ebf
00000070: b5e4 76be f3f1 5abf 5c3c 77bf 582f 4dbf
00000080: a83c 55bf 77fd 63bf 86bb 58bf dd05 73bf
00000090: e064 60bf 6f49 61bf 00dc 0cbf 4f3e 90be
000000a0: a5ac 6bbf 775f 61bf 716a 7dbf 2de6 4fbf
000000b0: d1b8 0dbf 3cd9 88bf 1ff9 50bf f00b 58bf
000000c0: 9b09 55bf 8713 82bf 23ab 79bf 9bd7 64bf
000000d0: 0a6b 82be 4bf3 5cbf 5299 24bf b1f0 56bf
000000e0: c5bd 24bf ac1c 41bf baff 3abf fca3 61bf
000000f0: 353d 1dbf a8d3 bdbd d73f 57bf 966f 19bf
00000100: f0b7 41bf e044 6dbf 7d4f 4ebf 1b9f 1dbf
00000110: 4aa3 79bf 39a4 40bf fa93 35bf 76e8 67bf
00000120: 02af 60bf 0643 6fbf 3025 94bf 444f 7cbf
00000130: 351e 4cbf dfdd 61bf 4fcd 31bf d426 44bf
00000140: f425 46bf fbb1 6dbf 00a0 5bbe 32a3 30bf
00000150: 0e9d 5fbf fb6c 49bd f3ab 6ebf 6179 013d
00000160: ee63 1abf ca77 65bf 2788 41bf 11cf 71bf
00000170: 52e9 e1be 82b8 48bf f4c3 5abf 30a0 36bf
00000180: 1ca9 54bf e693 7dbf ff86 07bf 89f2 0abe
00000190: b0a4 a1bd 2092 5cbf ab20 3fbf 8159 2cbf
000001a0: 95c0 4abf 0b8b 78bf c314 81bf c1b8 53bf
000001b0: bfe4 5cbf 1626 41bf 14de 52bf 5df5 6dbf
000001c0: 52dc 5cbf a53d 31bf eb4c 63bf 3926 4bbf
000001d0: 7247 54bf c04c 73bf 8a0e 36bf 265a 51bf
000001e0: f82c 78be 0116 1abf c844 23bf 3e5e 62bf
000001f0: 65cc 2b39 a5ba 37bf 662c 34bf ce33 7bbf
-0.6071246 -1.0549569 -0.9556086 -0.9536557 -0.7968915 -0.6096807 -0.74520785 -0.8673617
-0.91841155 -0.86647224 -0.72802746 -0.7914588 -0.883552 -0.8149913 -0.9670967 -0.85322535
-0.92749095 -0.8923926 -0.9258735 -0.87879044 -0.90211827 -0.79490376 -0.9487325 -0.7813658
-0.8161015 -0.8866477 -0.92253333 -0.8076362 -0.24110682 -0.85525435 -0.96576476 -0.80150366
-0.8329568 -0.8905863 -0.8466114 -0.9493082 -0.87653923 -0.88002676 -0.55023193 -0.28172538
-0.9206031 -0.8803629 -0.9899054 -0.81210595 -0.5536013 -1.0691295 -0.8163013 -0.84393215
-0.8321778 -1.0162209 -0.9752676 -0.8939149 -0.2547229 -0.86308736 -0.6429645 -0.83961016
-0.64352065 -0.75434375 -0.7304646 -0.88140845 -0.6142152 -0.09268886 -0.84081787 -0.5993589
-0.7567129 -0.9268322 -0.8059004 -0.615709 -0.97514784 -0.75250584 -0.7092892 -0.9058908
-0.8776704 -0.93461645 -1.1573849 -0.9855845 -0.7973359 -0.88229173 -0.694539 -0.76621747
-0.7740166 -0.928497 -0.21447754 -0.68999016 -0.8734902 -0.049176197 -0.93231124 0.031609897
-0.6030873 -0.8963591 -0.75598377 -0.94456583 -0.44123322 -0.78406537 -0.8545525 -0.71338177
-0.8307054 -0.990538 -0.5294036 -0.13569082 -0.0789274 -0.8616047 -0.7465922 -0.6732407
-0.79200107 -0.9708716 -1.0084461 -0.8270379 -0.8628654 -0.7544874 -0.82370114 -0.9295252
-0.8627368 -0.6923469 -0.8878924 -0.793552 -0.82921517 -0.95038986 -0.71115935 -0.8177818
-0.24235904 -0.60189825 -0.63776827 -0.8842505 0.00016383974 -0.7176917 -0.70380247 -0.9812592

network_body._body_endoder.seq_layers.2.weight f4 [128, 128]
00000000: 35b8 8abe 1555 803e 95b3 ecbe ad9c 61bd
00000010: f4b9 10bf 4825 04bf 2d42 f93d 850e b2bc
00000020: 8d25 5ebe e3f5 07bf 3640 d53e b011 8fbe
00000030: 077d e93e 8588 30bf 7348 51bf 04c6 ca3e
00000040: 8ad6 d13e 21d2 9a3e ccd3 cfbe 1f3c 0c3f
00000050: 345a 6b3e 28d7 0bbf 7b93 f8be 79e7 1bbe
00000060: b5ef 9b3e 685a a1be 476c 43bf 32d7 18bf
00000070: 9ba8 6d3e bb76 8f3e d687 a23e 549f 19bf
00000080: 6048 f53e 3135 e6bd 35f7 23bf 5bc5 eebe
00000090: 08c1 eb3e db24 04bf 9279 20bf 0fb1 4bbf
000000a0: 7405 2fbf c8b9 6b3e f13f b23e 0c0a 943e
000000b0: 8ece 853e c506 b03e 0ffb e83e b5dc 8cbe
000000c0: 6d2a ac3e 0428 07bf 755d ba3e 2668 343e
000000d0: 55a8 9d3e 2bcf ea3e 6ecc 243e 4a1b 1abe
000000e0: 9239 7f3e 9b4a 95be 112d 8f3e 3b07 85be
000000f0: d3e4 a03e afce 4fbe 7dfb 963e 4356 913d
00000100: 8556 ce3e d0df 173f 5919 bf3d 8f50 833e
00000110: 3b05 3cbf 5114 b53e c584 00bf f799 873e
00000120: 6687 f2be cf00 da3e 30d5 ccbe 72c6 d43c
00000130: 8979 a93d f1a5 ecbe b0a7 f8be 6567 8ebe
00000140: 9870 41be d418 e13d 4a5d 5a3e ad29 3bbf
00000150: d5b5 b83e 60ce f4be 4ce3 913e 7f47 083f
00000160: f6ad 2bbf 4286 1dbd 28cb 0fbf afed 13bf
00000170: 2125 923c f745 b3be eba8 953e d46b 02bf
00000180: 21e7 c5bd caa8 583e c9d0 fbbe cb52 c83e
00000190: 4a15 de3e 7af9 9a3e 1e10 b3bd 0bac 08bf
000001a0: f268 21be 3191 053f cf8b 38bf 99f6 82be
000001b0: 3a4f 31bf e845 33bf 6f82 953e 74a4 fdbe
000001c0: 9146 6ebd 8628 083f d3a1 ffbd 9a40 b6bd
000001d0: 60f6 443d 2afe 05be ede0 3a3e 1029 a83e
000001e0: 08c3 ee3e e1b1 3ebf 7ae2 c3be f9c2 66bf
000001f0: e53a fbbe 8773 d4be 5c8e 4fbf cfb5 423d
00000200: 71ee 6abe a119 783d 2dee 97be 559f 22bd
00000210: 4a9e 07be e7ec f8be 700e b33c e3d4 6dbe
00000220: 8820 9cbe 3741 9cbe 1573 ab3e 495b aabe
00000230: 24a2 b23e d231 afbe 1048 dfbe ffd9 843e
00000240: bee3 2b3e 3d68 503e 7231 18bf 5b0f aa3e
00000250: e1ef c23e 8ace 31bf ddf1 0fbf fd57 d53d
00000260: 3f7d 433c e7b2 c3be eca0 4ebf 778e 1abf
00000270: f0b1 183e 3744 323f 2286 f43e dc21 5bbf
00000280: 1899 e93e 0c54 9bbe 5ee1 51bf 9826 d0be
00000290: 9e49 153f ec7b b7be 3d8f 0fbf deb2 29be
000002a0: 6e88 6cbf acf3 583e f9f8 953e 4988 dd3d
000002b0: 010a e8bc 9508 573e 59c5 f53e cd88 85be
000002c0: 3819 463e d923 03bf d66b 1d3f bdcf d7bd
000002d0: 7cdc 593c ff47 0c3f 029e 8a3e 4a47 2d3c
000002e0: 6ff5 f33e e8bd f8be 7896 203e a3d0 12bf
000002f0: e382 923e 1b0d 22bc fc29 8f3e 92b2 5cbe
00000300: 30e6 67bd 707f c23e 1119 043e d985 b7bb
00000310: 1257 37bf c861 f73d 1bed 0fbf a966 883e
00000320: 5e11 adbe adc2 0d3f 3000 17bf 8ba2 803e
00000330: b231 b13d 37dd 61be b7ff edbe 5a59 2bbe
00000340: c55f e23d d25f 3abe 64ac 81bd abe5 c0be
00000350: 262a 2c3f 5cda aebd 12b9 583b 4f94 333f
00000360: 6098 ffbe e4d9 eebd 1027 08bf 87ed e0be
00000370: c0a8 cebd bc77 fbbe c109 483e 882c 8abe
00000380: f27f 31bb ef15 123e a5c3 eabe 5a97 b53e
00000390: fadd d43d 447c 173e 48d6 0dbe 42e7 6cbe
000003a0: eb4c 56be eb61 013f 8e45 c5be 31d1 dbbd
000003b0: a2b5 2cbf 219c 14bf b793 1b3f 3694 2dbf
000003c0: 9f02 3bbe a682 af3e d861 9bbe 7913 22bd
000003d0: ab5b 43bc ffeb 82bd 37ab 33be 8031 91be
000003e0: dcd4 9f3d 397b 1cbf 9ac4 3ebe 5be2 7abf
000003f0: 5371 2dbf 9810 06bf 20ec 3dbf 2e58 d63d
-0.27093664 0.25064912 -0.4623076 -0.05508106 -0.5653374 -0.51619387 0.12170825 -0.02173544
-0.21694012 -0.5310957 0.41650552 -0.27943182 0.456032 -0.6895831 -0.81751174 0.396042
0.40983993 0.3023844 -0.40591276 0.5477924 0.22983629 -0.5462518 -0.4855002 -0.15225019
0.3045632 -0.31514287 -0.76337093 -0.5970336 0.23208849 0.28020272 0.3174426 -0.6000874
0.4790678 -0.11240614 -0.64049083 -0.46634945 0.4604571 -0.51618737 -0.626855 -0.79567045
-0.68367696 0.23020089 0.34814408 0.28913915 0.2613415 0.34380165 0.45504043 -0.27512136
0.33626118 -0.52795434 0.36399427 0.17617854 0.3079249 0.45861182 0.16093609 -0.15049472
0.24924305 -0.29158482 0.2796407 -0.2598208 0.3142458 -0.20293687 0.29488745 0.07096531
0.40300384 0.59325886 0.093310066 0.256474 -0.7344548 0.35367063 -0.5020259 0.26484653
-0.47368926 0.42578742 -0.400064 0.025973532 0.08275134 -0.46220353 -0.48565435 -0.2781326
-0.18890607 0.10991064 0.2132465 -0.7311047 0.36076227 -0.47813702 0.28493726 0.53234094
-0.6706232 -0.038458116 -0.56169367 -0.5778455 0.01783997 -0.35014316 0.29230437 -0.5094578
-0.09663225 0.21158138 -0.49182728 0.39125666 0.43375617 0.3026846 -0.087433085 -0.53387517
-0.1576269 0.5217467 -0.7208833 -0.25578764 -0.69261515 -0.70028543 0.29201075 -0.4953953
-0.058172766 0.53186834 -0.124820374 -0.088990405 0.048086524 -0.13085237 0.18249865 0.32843828
0.46633172 -0.7449017 -0.38258725 -0.90141255 -0.4906837 -0.4149439 -0.810766 0.047536667
-0.2294252 0.060571317 -0.296739 -0.039702732 -0.13243976 -0.48618242 0.02185747 -0.23225741
-0.3049357 -0.30518505 0.33486238 -0.3327277 0.34889328 -0.34217697 -0.43609667 0.25947568
0.16786095 0.20352264 -0.5945045 0.3321484 0.38073638 -0.6945578 -0.5622843 0.10417173
0.011931716 -0.3822243 -0.807143 -0.60373634 0.14911628 0.6963534 0.47758585 -0.8559854
0.45624614 -0.3033756 -0.8198451 -0.40654445 0.58315456 -0.35836732 -0.5607794 -0.16572139
-0.92395675 0.21186703 0.29291514 0.1081701 -0.028325083 0.20999368 0.48002127 -0.26080933
0.19345558 -0.51226574 0.6149267 -0.1053767 0.0132971965 0.5479736 0.27073675 0.010576079
0.47648188 -0.48582387 0.156824 -0.57349604 0.28615484 -0.00989082 0.2796172 -0.21552494
-0.05661601 0.37987852 0.12900187 -0.0056006727 -0.71617234 0.12079197 -0.5622117 0.26640823
-0.33802313 0.55375177 -0.5898466 0.2512401 0.08652057 -0.22057043 -0.46484157 -0.16733304
0.11053423 -0.18200615 -0.06331709 -0.37675223 0.67251813 -0.085377425 0.0033069295 0.70148176
-0.4992094 -0.11662653 -0.53184605 -0.4393122 -0.1009078 -0.49114788 0.19534971 -0.269871
-0.0027084318 0.1426618 -0.4585239 0.35467035 0.10393901 0.14793497 -0.13851273 -0.23135093
-0.2092778 0.50540036 -0.3852963 -0.107332595 -0.6746465 -0.58050734 0.6077227 -0.67804277
-0.18262719 0.34279364 -0.30348086 -0.03956935 -0.011923711 -0.06392669 -0.17545782 -0.28358078
0.078042716 -0.6112552 -0.18629685 -0.9800164 -0.67751044 -0.5236907 -0.74188423 0.10466038
