AIRocketLanding/results/AIRocketNew6/AIRocket/AIRocket-66736.pt (torch, 505935 bytes, 42 tensors)

network_body._body_endoder.seq_layers.0.weight f4 [128, 26]
-0.2622597 0.49742192 0.17218539 0.13526635 0.09584683 -0.35326922 -0.03233388 -0.24699268
-0.19440064 -0.16509664 0.050363235 0.42686355 0.1278067 0.13016227 0.29548854 0.42392972
-0.0050357515 0.30082935 0.04954516 0.18130471 -0.18379216 -0.011841858 0.0030685994 -0.15867415
0.18947564 -0.14767334 0.010059594 0.09427026 0.28177458 -0.08355207 -0.110457495 -0.18712267
0.12757574 -0.13361788 -0.09495589 0.13045008 0.2795551 -0.011708775 -0.018700914 0.019682998
-0.262421 0.23838769 -0.023992632 -0.34916943 -0.3192153 0.2760486 -0.36493698 0.23892014
0.03508772 -0.14949156 0.003684122 0.045080323 -0.38959917 0.20738025 -0.13459474 0.120666325
0.4259267 0.1522806 -0.09282208 -0.18911569 0.22686528 -0.023722164 0.030496601 -0.12369532
-0.20106995 0.06609922 0.34308854 -0.114835024 -0.2780661 -0.06145083 0.19685605 -0.02469165
-0.14377582 0.10626729 -0.5195241 -0.05802322 -0.031798806 -0.051996533 0.4803521 -0.06812221
0.3058055 -0.23327515 0.015869725 0.10241284 0.29494572 -0.33039352 -0.10874532 0.13599762
0.15303062 0.0134481825 0.3592677 -0.03992599 0.3837056 0.082042746 -0.28218743 0.028026294
-0.009500814 0.14709845 0.30522025 0.15270929 -0.07559244 0.043855574 0.09095679 0.03552785
0.20859338 0.242619 -0.04562316 -0.21852034 -0.16037087 -0.043541927 -0.0825737 -0.01269368
0.13168292 -0.022850972 -0.27515137 -0.25796506 -0.29019594 -0.09969923 0.25463602 0.20006406
-0.38693136 -0.03756765 0.20419045 -0.083928905 0.1182332 0.022732988 -0.13109225 -0.11739896
-0.26623887 0.18076025 -0.23641165 0.45951647 -0.03553363 0.28268787 0.07470651 -0.016086731
-0.3178727 0.11877872 0.013647805 0.12812352 0.10271527 0.4028155 -0.2920647 0.03558491
0.26605216 0.11679418 0.34865427 0.3232622 -0.09542869 -0.20740128 -0.30146027 -0.45510113
-0.11234819 0.45333266 0.07632234 -0.02842048 -0.21223421 0.8057992 0.118308365 0.032640886
-0.08244254 -0.14726877 0.122609675 -0.318519 -0.31445813 -0.20668486 0.07923898 -0.44555703
0.3064412 0.010578892 0.39082238 -0.43071678 0.057118755 -0.051086433 -0.047463465 -0.12207495
-0.17584883 0.062277682 -0.11572964 -0.007386929 -0.05105481 -0.050761636 0.09023863 -0.26543432
0.12557176 -0.21746224 -0.2360401 0.26149294 -0.17552736 -0.07267336 -0.1375134 0.2020805
-0.2694063 0.04093441 0.14811754 -0.002493229 -0.1343277 -0.3762112 -0.16808885 0.19286951
0.15978912 -0.15158132 -0.09967645 0.02160849 0.23556592 -0.40850127 -0.03447184 -0.19078903
0.2619667 -0.32905316 0.17114478 0.15652339 -0.26433143 -0.31486234 0.050420478 0.08338938
-0.20449276 0.2526467 -0.050140236 0.0077381516 0.20271815 -0.0042634644 -0.16918778 0.20929396
0.22787565 0.1472522 -0.27311802 -0.19039829 0.08823181 -0.24660976 0.1769248 -0.051370688
-0.07625687 0.040411316 -0.29233107 -0.21924707 0.064911745 0.41296017 -0.16771369 -0.008159537
0.097840354 -0.07467928 0.15736333 -0.14430748 0.36157542 0.21909294 0.044971347 0.34685838
0.20652118 -0.21055236 0.16118467 -0.010918462 -0.02009842 -0.013385191 0.14523427 0.0776751
00000000: e746 86be 16ae fe3e 5e51 303e 4383 0a3e
00000010: 584b c43d b4df b4be 8870 04bd a6eb 7cbe
00000020: f610 47be 180f 29be ae49 4e3d dc8d da3e
00000030: c2df 023e 4249 053e 464a 973e 510d d93e
00000040: f202 a5bb 4e06 9a3e deef 4a3d f1a7 393e
00000050: 0334 3cbe 5a04 42bc 8e1a 493b 7a7b 22be
00000060: e705 423e ae37 17be ffd0 243c c410 c13d
00000070: c244 903e 591d abbd 8a37 e2bd 169d 3fbe
00000080: 37a3 023e 20d3 08be 3c78 c2bd b594 053e
00000090: d921 8f3e 29d6 3fbc a932 99bc 3d3e a13c
000000a0: 0c5c 86be e71b 743e 328c c4bc 56c6 b2be
000000b0: 3070 a3be 3e56 8d3e 05d9 babe 7ba7 743e
000000c0: 24b8 0f3d 5114 19be 5071 713b 25a6 383d
000000d0: 8b79 c7be 7d5b 543e 34d3 09be e81f f73d
000000e0: 1013 da3e 72ef 1b3e 8119 bebd 8ba7 41be
000000f0: 5f4f 683e fc54 c2bc 02d4 f93c f953 fdbd
00000100: 48e5 4dbe 075f 873d 4da9 af3e a02e ebbd
00000110: ae5e 8ebe deb3 7bbd a294 493e 2546 cabc
00000120: f839 13be aaa2 d93d 88ff 04bf c2a9 6dbd
00000130: 773f 02bd 51fa 54bd b6f0 f53e a883 8bbd
00000140: 8a92 9c3e aedf 6ebe 3a01 823c d3bd d13d
00000150: 2003 973e 5729 a9be deb5 debd f642 0b3e
00000160: 0fb4 1c3e c455 5c3c f0f1 b73e 6f89 23bd
00000170: 0f75 c43e 0706 a83d df7a 90be 6697 e53c
00000180: 4da9 1bbc faa0 163e d445 9c3e d35f 1c3e
00000190: 36d0 9abd e7a1 333d 8e47 ba3d a785 113d
000001a0: 8199 553e 1d71 783e 5adf 3abd ccc3 5fbe
000001b0: 4338 24be 0559 32bd 661c a9bd 27f9 4fbc
000001c0: e3d7 063e f631 bbbc a4e0 8cbe ff13 84be
000001d0: 9094 94be 1c2f ccbd a75f 823e 98dd 4c3e
000001e0: de1b c6be 89e0 19bd 4d17 513e ebe2 abbd
000001f0: 3f24 f23d 883a ba3c 0c3d 06be de6e f0bd
00000200: 7650 88be 3719 393e e515 72be be45 eb3e
00000210: b68b 11bd 77bc 903e baff 983d 52c8 83bc
00000220: 36c0 a2be 4242 f33d 0b9b 5f3c d032 033e
00000230: 625c d23d d53d ce3e 8189 95be 7cc1 113d
00000240: fd37 883e c931 ef3d d082 b23e a082 a53e
00000250: 1e70 c3bd 0061 54be 0059 9abe 0403 e9be
00000260: cf16 e6bd 381b e83e e34e 9c3d 11d2 e8bc
00000270: ed53 59be db48 4e3f a84b f23d 73b2 053d
00000280: a2d7 a8bd a0cd 16be c81a fb3d ec14 a3be
00000290: a800 a1be 32a5 53be 0c48 a23d 0d20 e4be
000002a0: dce5 9c3e 1753 2d3c df19 c83e e986 dcbe
000002b0: 5bf5 693d 0240 51bd 0d69 42bd 6e02 fabd
000002c0: b711 34be e216 7f3d a903 edbd 0d0e f2bb
000002d0: d91e 51bd 6feb 4fbd 08cf b83d 02e7 87be
000002e0: e295 003e 6cae 5ebe 7fb4 71be 67e2 853e
000002f0: 72bd 33be c5d5 94bd 50d0 0cbe 31ee 4e3e
00000300: 9fef 89be d7aa 273d 20ac 173e 7165 23bb
00000310: 338d 09be c19e c0be 7c1f 2cbe 967f 453e
00000320: c29f 233e 2238 1bbe 2b23 ccbd 4a04 b13c
00000330: 3138 713e 1427 d1be 5832 0dbd 335e 43be
00000340: 8020 863e a879 a8be 9440 2f3e ab47 203e
00000350: 7356 87be a335 a1be b485 4e3d 0dc8 aa3d
00000360: 8d66 51be e95a 813e d95f 4dbd 5290 fd3b
00000370: 5995 4f3e 88b4 8bbb 903f 2dbe 2851 563e
00000380: 3c58 693e 48c9 163e 20d6 8bbe c5f7 42be
00000390: e1b2 b43d 4587 7cbe c62b 353e 126a 52bd
000003a0: 902c 9cbd 5686 253d 6bac 95be 4e82 60be
000003b0: 73f0 843d 846f d33e 23bd 2bbe 94af 05bc
000003c0: 8660 c83d 73f1 98bd da23 213e 57c5 13be
000003d0: 6a20 b93e e659 603e e033 383d 6c97 b13e
000003e0: 4a7a 533e 0a9b 57be 980d 253e 59e3 32bc
000003f0: 71a5 a4bc 8f4d 5bbc 4bb8 143e 1f14 9f3d

network_body._body_endoder.seq_layers.0.bias f4 [128]
0.04248663 -0.12470279 0.021649854 -0.018400228 -0.007869512 0.07029549 -0.02729398 -0.0048230006
-0.007839851 -0.008937705 -0.02093562 0.033802316 0.019834956 -0.034883283 -0.0020864292 -0.085994564
-0.06539152 0.022203207 -0.0495943 0.01785354 -0.028646477 -0.16980805 -0.11841843 0.051250666
-0.02304472 0.028207673 -0.060401104 0.025966031 -0.07891057 -0.040474992 0.0689762 -0.1525918
0.02403161 3.916726e-05 0.009010228 -0.015883375 -0.041179888 -0.025248896 0.016772628 0.121095836
-0.09625874 0.0002956301 0.0012992169 -0.032500017 0.064665586 -0.027626645 0.0638561 -0.0050335345
-0.07030781 -0.0670815 -0.049235135 -0.11989966 0.03688132 0.033732623 -0.04434375 0.014847175
-0.02200064 0.011685536 -0.01650803 -0.04617976 -0.041778322 -0.071267225 -0.027407078 -0.023845546
-0.056075357 -0.017697295 -0.031621326 0.026872328 0.03352448 0.08237358 0.0040981 0.057282098
0.031100558 0.03172502 0.028473657 -0.029749336 -0.0048420755 -0.03676383 -0.061895143 -0.05825813
0.042153362 -0.018782068 -0.03833334 -0.019479632 -0.024901474 0.049052212 0.0014837872 0.038452942
0.0049354015 -0.023188833 -0.08821647 -0.02344231 -0.03421751 -0.06941253 0.0076712808 -0.19634612
-0.016761871 -0.046590287 0.06376007 -0.08381641 -0.040289212 -0.076362126 0.011935086 -0.0753761
-0.038093586 -0.016422093 -0.02371497 0.0385461 0.03355809 -0.047476802 -0.07390059 0.016324952
-0.057877254 -0.02458607 -0.016950218 -0.01096883 0.08970144 -0.17948723 0.055087406 -0.06578569
0.04443483 -0.010573455 0.04319877 0.032133613 -0.0032472908 -0.054913495 0.00020290804 0.00965896
00000000: 7606 2e3d 2d64 ffbd 095b b13c 13bc 96bc
00000010: 20ef 00bc 15f7 8f3d a097 dfbc 430a 9ebb
00000020: b872 00bc 746f 12bc 2d81 abbc 4c74 0a3d
00000030: eb7c a23c c6e1 0ebd 79bc 08bb eb1d b0bd
00000040: fdeb 85bd 80e3 b53c 6523 4bbd 9641 923c
00000050: 04ac eabc 29e2 2dbe 5d85 f2bd 38ec 513d
00000060: 48c8 bcbc c713 e73c 2667 77bd b7b6 d43c
00000070: dd9b a1bd 1bc9 25bd 6543 8d3d 0641 1cbe
00000080: f0dd c43c 8647 2438 a39f 133c da1d 82bc
00000090: 3eac 28bd c6d6 cebc c066 893c 1801 f83d
000000a0: 4d23 c5bd cdfe 9a39 7c4a aa3a bd1e 05bd
000000b0: 646f 843d 4651 e2bc fdc6 823d 59f0 a4bb
000000c0: 8bfd 8fbd 0762 89bd c8aa 49bd f48d f5bd
000000d0: de10 173d 382b 0a3d cba1 35bd 9141 733c
000000e0: b03a b4bc b174 3f3c d93b 87bc fd26 3dbd
000000f0: bf1f 2bbd 8df4 91bd cf84 e0bc bc57 c3bc
00000100: 46af 65bd ebf9 90bc 5d85 01bd 5b23 dc3c
00000110: f750 093d 7bb3 a83d 5b49 863b a2a0 6a3d
00000120: 99c6 fe3c 18f2 013d 9641 e93c e1b4 f3bc
00000130: 46aa 9ebb ab95 16bd c385 7dbd 14a0 6ebd
00000140: 01a9 2c3d dadc 99bc 6c03 1dbd c093 9fbc
00000150: 2dfe cbbc f9ea 483d a37b c23a d580 1d3d
00000160: 26b9 a13b 82f6 bdbc d6aa b4bd 160a c0bc
00000170: a927 0cbd 2828 8ebd 5e5f fb3b f50e 49be
00000180: 3150 89bc 75d5 3ebd a494 823d f0a7 abbd
00000190: 4d06 25bd bf63 9cbd 618b 433c c95e 9abd
000001a0: 0508 1cbd a087 86bc e645 c2bc 84e2 1d3d
000001b0: 3574 093d 0977 42bd 3159 97bd e8bb 853c
000001c0: b310 6dbd ba68 c9bc 2fdb 8abc 9cb6 33bc
000001d0: 63b5 b73d 80cb 37be 55a3 613d a6ba 86bd
000001e0: 4c01 363d 493c 2dbc 32f1 303d 899e 033d
000001f0: 80d0 54bb f9ec 60bd b6c3 5439 9d40 1e3c

network_body._body_endoder.seq_layers.2.weight f4 [128, 128]
0.0014217293 0.048019975 -0.11622572 -0.026359953 -0.23604602 -0.15738261 -0.0038636653 0.17128757
-0.07867101 -0.04703797 -0.1327255 0.011517182 0.058988236 -0.124673 -0.059315935 -0.10784544
0.15245332 0.00086688716 0.03297423 -0.05134555 -0.0138964895 -0.059805002 -0.12271369 0.057898577
-0.10622333 -0.3320413 0.004414265 0.067583166 0.01599148 -0.039905105 -0.11472047 0.070844606
0.060867757 0.09911689 0.22287504 -0.24662612 -0.022112327 -0.075470306 -0.114354916 -0.18502827
-0.07861705 -0.08197404 -0.031800933 -0.101323724 0.07049676 -0.20905386 -0.14682926 0.024636617
-0.02412784 -0.019065807 -0.0040310007 -0.15300561 -0.066609785 0.13711466 -0.21829502 -0.05873619
-0.06933798 0.172388 0.006704028 0.13309084 -0.07374826 -0.27490765 0.045047596 0.12647153
-0.08115696 -0.010592934 0.05664468 0.068324536 -0.01767089 0.019421104 -0.029281428 0.07036855
-0.2997459 -0.3410437 0.062112782 -0.00092674035 -0.06096237 -0.015455296 -0.16405065 -0.19904734
0.14497484 -0.07657663 0.06631544 0.016203502 0.07936489 0.045300964 -0.12402177 -0.08428974
0.04495399 -0.30832115 0.039450943 -0.051576674 -0.14369677 0.03797151 -0.09626112 0.11765902
-0.15967174 0.08155754 -0.06311733 0.08340472 0.06887469 -0.22778328 -0.10017639 0.01080696
-0.0662711 -0.023283314 0.045102827 -0.089162685 -0.17127384 -0.004129069 -0.11577586 0.024440385
-0.022841305 0.028988313 0.18510222 -0.03885735 -0.13287178 -0.039080076 -0.052481353 -0.019940289
-0.137464 -0.07015251 -0.04024148 -0.00055012695 -0.20663865 0.087179415 -0.043415986 -0.2953387
-0.08614681 -0.10021059 0.21853274 -0.005498804 -0.19025424 -0.02510407 0.014331295 0.12490324
-0.035071123 -0.018368192 -0.04111058 -0.197581 0.07025576 -0.027146332 -0.24922584 -0.05946736
0.02701058 -0.21698168 -0.111763775 -0.054230552 -0.25836387 -0.13454485 0.12979084 -0.014532146
-0.014486826 -0.20401955 0.08436842 0.08683 0.05804259 -0.0942233 0.05433463 0.08112392
0.002450632 -0.019569047 0.08575613 0.10567503 -0.0967558 -0.14786805 -0.11629929 0.010747851
0.08053769 0.01793395 -0.1423503 0.05898749 -0.28134942 0.017005626 -0.10868014 -0.072760716
0.021420304 0.039175995 -0.15664686 0.05530059 -0.0545939 0.078194305 0.085538484 -0.02543877
-0.04108621 0.002835057 0.042695563 -0.2536695 -0.12711489 0.20707572 -0.09643871 -0.015930401
0.018150471 0.05947962 0.032795284 0.09272988 -0.0019209959 -0.16383624 0.11946455 -0.29522875
0.039605837 0.07160458 -0.04495944 -0.052559085 -0.056584302 0.23458575 0.16400973 -0.07105088
0.16780551 -0.08909153 -0.03632319 0.11082079 0.05016614 -0.056176107 -0.100467205 -0.0040975157
-0.015078904 -0.021715578 -0.028806835 -0.23568855 -0.04305205 -0.10467328 0.13982457 0.10730138
0.14757176 -0.046866942 -0.009817091 -0.22639956 -0.085073724 -0.010733513 -0.08959905 -0.05304414
0.1827636 0.03055596 -0.03433458 0.034861676 -0.045170967 -0.12243081 0.11357247 -0.084358424
0.15493065 0.08523546 -0.025947155 0.004856716 -0.05498704 0.06968797 -0.07903051 -0.15182091
0.037881326 -0.017504973 0.04791284 -0.19224258 -0.05688863 -0.013856656 -0.06425078 0.020873414
00000000: 5259 ba3a 98b0 443d c007 eebd d4f0 d7bc
00000010: 0cb6 71be e828 21be 8c35 7dbb 0266 2f3e
00000020: 441e a1bd e3aa 40bd 32e9 07be 90b2 3c3c
00000030: a69d 713d 8f54 ffbd 44f5 72bd 12de dcbd
00000040: b91c 1c3e d03f 633a fc0f 073d b64f 52bd
00000050: 1aae 63bc 17f6 74bd 5151 fbbd 0f27 6d3d
00000060: 9e8b d9bd 5101 aabe 8aa5 903b 0b69 8a3d
00000070: 9000 833c 8973 23bd 91f2 eabd fa16 913d
00000080: 7850 793d ccfd ca3d 5b39 643e 8f8b 7cbe
00000090: e924 b5bc 2d90 9abd e932 eabd 0d78 3dbe
000000a0: fa01 a1bd 01e2 a7bd b241 02bd d082 cfbd
000000b0: 9b60 903d 3712 56be 695a 16be bbd2 c93c
000000c0: bfa7 c5bc e52f 9cbc 7c16 84bb 81ad 1cbe
000000d0: b66a 88bd c967 0c3e bb88 5fbe 5c95 70bd
000000e0: 1201 8ebd 7b86 303e 77ad db3b f748 083e
000000f0: 5409 97bd b2c0 8cbe d483 383d c181 013e
00000100: 9f35 a6bd fc8d 2dbc 4104 683d bced 8b3d
00000110: 8bc2 90bc 0219 9f3c 9bdf efbc 631d 903d
00000120: 4b78 99be 489d aebe f969 7e3d 7ef0 72ba
00000130: aeb3 79bd 3638 7dbc e5fc 27be 11d3 4bbe
00000140: 4974 143e 35d4 9cbd 64d0 873d 35bd 843c
00000150: 0f8a a23d 818d 393d 20ff fdbd 19a0 acbd
00000160: ad21 383d 45dc 9dbe 5097 213d 1042 53bd
00000170: 3f25 13be 0488 1b3d 8d24 c5bd 36f7 f03d
00000180: fd80 23be a407 a73d a943 81bd 18d0 aa3d
00000190: 2c0e 8d3d 0540 69be 4729 cdbd ad0f 313c
000001a0: 24b9 87bd a6bc bebc bebd 383d ed9a b6bd
000001b0: 6962 2fbe 244d 87bb e51b edbd 3437 c83c
000001c0: b01d bbbc e678 ed3c 708b 3d3e e228 1fbd
000001d0: 8a0f 08be 6e12 20bd b0f6 56bd d159 a3bc
000001e0: 5dc3 0cbe 1fac 8fbd 40d4 24bd 6536 10ba
000001f0: 1599 53be 1f8b b23d f6d4 31bd a236 97be
00000200: bd6d b0bd 363b cdbd 0cc7 5f3e 502f b4bb
00000210: 02d2 42be 0da7 cdbc cfcd 6a3c 45cd ff3d
00000220: bda6 0fbd e478 96bc 9163 28bd ac52 4abe
00000230: 40e2 8f3d fc61 debc 0f35 7fbe 0c94 73bd
00000240: 4b45 dd3c 7230 5ebe 68e4 e4bd db20 5ebd
00000250: 4548 84be 20c6 09be e4e7 043e 3d18 6ebc
00000260: 275a 6dbc 80ea 50be 5ac9 ac3d edd3 b13d
00000270: 11be 6d3d 25f8 c0bd fd8d 5e3d 4c24 a63d
00000280: c89a 203b 444f a0bc e9a0 af3d 266c d83d
00000290: e827 c6bd b96a 17be 522e eebd c117 303c
000002a0: f2f0 a43d 38ea 923c 47c4 11be de9c 713d
000002b0: 080d 90be 624f 8b3c b193 debd 9203 95bd
000002c0: a279 af3c 0277 203d 0968 20be df82 623d
000002d0: da9d 5fbd 5624 a03d cd2e af3d f864 d0bc
000002e0: 044a 28bd 5dcc 393b 8be1 2e3d f8e0 81be
000002f0: 682a 02be a80b 543e a981 c5bd 7980 82bc
00000300: 4cb0 943c e7a0 733d 5954 063d 2ae9 bd3d
00000310: edc9 fbba b0c4 27be d4a9 f43d 3928 97be
00000320: bb39 223d 6ca5 923d 6427 38bd 3248 57bd
00000330: f1c4 67bd 3f37 703e 2bf2 273e 2083 91bd
00000340: 35d5 2b3e 9f75 b6bd a0c7 14bd 03f6 e23d
00000350: 037b 4d3d eb18 66bd c0c1 cdbd 7444 86bb
00000360: 820d 77bc dee4 b1bc 50fc ebbc 5758 71be
00000370: 5957 30bd f25e d6bd 2c2e 0f3e d3c0 db3d
00000380: 0d1d 173e 8df7 3fbd ddd7 20bc 49d5 67be
00000390: 223b aebd 9edb 2fbc b57f b7bd d044 59bd
000003a0: 6226 3b3e 7e50 fa3c 6ba2 0cbd 1ecb 0e3d
000003b0: 3105 39bd 01bd fabd af98 e83d 1cc4 acbd
000003c0: 24a6 1e3e ee8f ae3d 218f d4bc 1625 9f3b
000003d0: 173a 61bd 91b8 8e3d bfda a1bd f176 1bbe
000003e0: 7329 1b3d 9766 8fbc 4140 443d 3ddb 44be
000003f0: 0d04 69bd 0707 63bc ea95 83bd b9fe aa3c

network_body._body_endoder.seq_layers.2.bias f4 [128]
0.058407646 -0.016956905 0.018184194 -0.06408162 -0.037173044 -0.07372643 -0.11889811 -0.060826596
0.0035268334 0.008689449 -0.03032158 0.02138726 0.005857646 -0.017158054 -0.055940375 -0.034052923
-0.015463558 0.013375403 0.017795369 -0.0090702865 0.009583576 0.043955255 -0.018437145 -0.053654775
0.0398907 -0.042543914 0.021011073 3.007497e-05 0.016175792 -0.019702394 -0.07995123 0.029728716
-0.03306728 -0.04266522 0.022778958 0.023225488 -0.06960342 0.026369363 -0.017781088 -0.0058612744
-0.05416318 0.011916938 -0.00521195 -0.05296738 -0.017133951 0.0024190838 -0.02024303 0.005127073
-0.0064387317 -0.018192062 -0.028755099 -0.077955864 -0.037804537 -0.100900844 -0.0033615504 -0.035393275
0.049891274 -0.022388138 0.012780401 0.02224727 0.010559276 0.015053686 -0.019106718 -0.053378504
0.07967279 0.0005316458 0.027250445 0.03314961 -0.013168179 -0.09304526 0.026832642 0.06704586
-0.066064864 -0.030457085 0.010098193 -0.007178451 -0.005162519 -0.07001748 0.0047317925 0.07378823
-0.0048182644 0.0103206085 -0.1107807 -0.050782066 -0.042771023 0.00535608 -0.081321426 -0.06798029
0.0022780641 -0.013182149 0.026929388 -0.025546951 -0.04371143 -0.028704554 -0.00024434878 0.038955636
0.0039691217 0.043069378 -0.0021972347 0.0042372197 0.00952014 -0.042352702 -0.036181252 0.09977408
-0.02603896 0.05360687 -0.015577012 -0.027716167 0.0029609988 0.09453786 0.0138075305 -0.03507817
-0.11799866 -0.041341387 -0.078098 -0.045268077 0.017922217 0.036003754 0.03712895 -0.049202926
-0.0018607172 0.05018392 0.050671924 0.017228184 0.0054524434 0.039950036 -0.011162114 0.017355837
00000000: db3c 6f3d 35e9 8abc 05f7 943c 393d 83bd
00000010: c342 18bd e2fd 96bd da80 f3bd 4f25 79bd
00000020: 7222 673b 315e 0e3c f664 f8bc 5634 af3c
00000030: 7ff1 bf3b 0c8f 8cbc bc21 65bd 147b 0bbd
00000040: dd5a 7dbc 8224 5b3c 98c7 913c 8a9b 14bc
00000050: 6e04 1d3c 6d0a 343d 7f09 97bc 1cc5 5bbd
00000060: 6e64 233d 8742 2ebd 6a1f ac3c 8249 fc37
00000070: 1883 843c ea66 a1bc 78bd a3bd a389 f33c
00000080: 8e71 07bd bac1 2ebd f09a ba3c 6143 be3c
00000090: 3d8c 8ebd 9004 d83c a5a9 91bc ef0f c0bb
000000a0: 36da 5dbd 433f 433c 01c9 aabb 53f4 58bd
000000b0: 805c 8cbc 7e89 1e3b b6d4 a5bc 0101 a83b
000000c0: fffb d2bb 8507 95bc d08f ebbc 53a7 9fbd
000000d0: eed8 1abd 1aa5 cebd 754d 5cbb 8af8 10bd
000000e0: cb5a 4c3d 5467 b7bc e364 513c e83f b63c
000000f0: d000 2d3c bca3 763c b185 9cbc 6ba3 5abd
00000100: 7d2b a33d 255e 0b3a 533c df3c e3c7 073d
00000110: 59bf 57bc 838e bebd 21d0 db3c 574f 893d
00000120: 044d 87bd 2381 f9bc e472 253c 3639 ebbb
00000130: 592a a9bb 5365 8fbd 270d 9b3b 491e 973d
00000140: 88e2 9dbb c517 293c fee0 e2bd db00 50bd
00000150: ab30 2fbd 0e82 af3b d98b a6bd 4039 8bbd
00000160: 934b 153b f1f9 57bc 059b dc3c d747 d1bc
00000170: c20a 33bd d025 ebbc f01b 80b9 f28f 1f3d
00000180: 680f 823b 8469 303d 7bff 0fbb 60d8 8a3b
00000190: 5cfa 1b3c 077a 2dbd cb32 14bd 5a56 cc3d
000001a0: a84f d5bc e192 5b3d b936 7fbc 040d e3bc
000001b0: 510d 423b 119d c13d fb38 623c 21ae 0fbd
000001c0: 48a9 f1bd 9655 29bd d8f1 9fbd 056b 39bd
000001d0: 9dd1 923c ac78 133d 8714 183d 0289 49bd
000001e0: 4fe3 f3ba a78d 4d3d 5d8d 4f3d 1f22 8d3c
000001f0: 69aa b23b a6a2 233d 4de1 36bc d42d 8e3c

action_model._continuous_distribution.log_sigma f4 [1, 2]
-0.7681832 -0.70623976
00000000: a7a7 44bf 21cc 34bf

action_model._continuous_distribution.mu.weight f4 [2, 128]
-0.06491275 -0.039822854 -0.037856765 -0.0014022622 0.0071815574 -0.030087037 -0.013769591 -0.018482124
0.0035700237 0.06913299 0.02294828 -0.12120484 -0.049278907 0.03509341 -0.011872073 -0.009725519
0.005604024 0.010502008 -0.051711787 -0.0017281757 0.018959334 -0.060409978 0.0031878976 0.032680985
-0.0508838 0.025868768 -0.028711107 0.015200239 -0.008064156 0.009158937 0.009234266 -0.036045298
0.0058391183 0.00466203 0.078110896 -0.058998752 -0.09540141 -0.054100163 -0.044759803 0.046968292
0.0027595505 -0.021054873 0.0046732295 -0.035566617 -0.010266714 0.031275913 -0.036300033 0.028582249
0.092587344 -0.0054556876 -0.035640433 -0.091107704 -0.018771943 0.0136666335 0.048367348 -0.005909586
-0.030384982 0.05829749 0.009639335 0.00068067026 0.05370663 0.11236956 -0.009379995 0.021483343
-0.033677164 0.008200547 -0.02197674 -0.006753222 0.010965709 0.00049736083 -0.007134461 -0.012969226
-0.01865949 0.011862763 0.027797496 0.049676705 0.014955052 -0.047556892 0.011484305 0.001834356
-0.0703046 -0.07749415 -0.026544603 -0.020713735 0.06308721 0.0029320267 0.029570585 -0.014207794
0.033742536 -0.0032871226 0.010649754 -0.0060940282 -0.08055501 0.012627545 0.06659749 0.047234926
-0.0003899349 -0.060643323 0.023893008 0.08917164 0.08033399 -0.018863408 0.0016309184 -0.06499976
-0.0045559807 -0.023590388 -0.028054226 -0.009247516 -0.00723329 -0.031897966 -0.042723987 0.038453087
0.010336309 -0.025988003 -0.027912837 -0.021121468 -0.042397924 -0.014060701 0.03127587 -0.008884994
0.03256132 -0.05473702 -0.066349275 0.0015396109 0.031911142 -0.060106825 0.015475244 -0.031415
-0.03960743 0.019383263 0.029640922 0.029909676 -0.0038335854 -0.044638656 -0.025405211 -0.029710451
-0.034186304 0.0058410224 -0.08504882 -0.0114512965 0.09156278 0.019568698 0.01255376 -0.03584015
-0.03940043 -0.067926876 0.014886802 0.0182131 -0.017745225 -0.041809265 0.0019285452 0.037143394
-0.032281432 0.003562727 -0.022238862 0.011160747 -0.05760224 -0.036113903 -0.0032176322 -0.025024496
-0.026083158 -0.0010663323 0.0070945113 0.0938432 -0.006256373 -0.051319875 -0.05492374 0.017109392
-0.04448427 -0.0449135 0.046892162 -0.08724632 -0.024755603 0.07087248 0.031383995 -0.069501944
-0.12513241 -0.010244058 -0.043677896 -0.00858902 0.017774988 -0.07968483 -0.041547097 -0.026622029
-0.033341896 -0.019353395 0.00077959936 -0.0019528233 0.027067253 -0.021031974 0.01825281 0.017305914
0.08187894 -0.0040282453 -0.015042396 -0.030272331 -0.043760594 -0.078354314 -0.011815009 -0.020171722
-0.047368214 0.021877803 -0.022940433 0.0041349507 -0.019766618 -0.06913145 -0.008118299 0.106697746
-0.08869894 -0.057171453 -0.047878284 -0.027761485 0.008845016 -0.09255828 0.01683047 -0.015719831
0.011190056 -0.044719417 -0.074800186 -0.0011639483 -0.05801323 -0.032794733 -0.041604567 -0.08957625
-0.07334615 -0.045341745 0.020088313 -0.0077050277 0.008946438 -0.045456097 -0.018898042 0.14372832
0.0133837415 -0.0037029309 0.027989395 0.00071181194 -0.013137612 -0.040863488 -0.026520053 0.074754484
-0.002068114 -0.024133392 -0.027328862 -0.045843147 -0.020818166 0.012949918 0.020584509 0.023671146
0.024906635 0.039997514 -0.015788047 0.03645217 0.028752388 -0.057972927 0.0029614759 0.016850658
00000000: faf0 84bd 4a1d 23bd b20f 1bbd 1dcc b7ba
00000010: 4553 eb3b 1779 f6bc da99 61bc d367 97bc
00000020: 0ff7 693b 9995 8d3d 08fe bb3c 3e3a f8bd
00000030: aed8 49bd 1cbe 0f3d 1583 42bc c957 1fbc
00000040: f6a1 b73b 9d10 2c3c bdcf 53bd f483 e2ba
00000050: 9b50 9b3c 7470 77bd 0cec 503b 7fdc 053d
00000060: 886b 50bd bdea d33c 8e33 ebbc 6c0a 793c
00000070: 861f 04bc 5e0f 163c 524b 173c 3ca4 13bd
00000080: 1356 bf3b f1c3 983b 9bf8 9f3d ada8 71bd
00000090: d061 c3bd 2298 5dbd 0e56 37bd d361 403d
000000a0: 93d9 343b 457b acbc e421 993b 4dae 11bd
000000b0: b835 28bc 2c1b 003d 58af 14bd 5225 ea3c
000000c0: 6f9e bd3d a0c5 b2bb b4fb 11bd ad96 babd
000000d0: 9ec7 99bc 04ea 5f3c d71c 463d 33a5 c1bb
000000e0: ede9 f8bc 59c9 6e3d 4dee 1d3c 026f 323a
000000f0: 7cfb 5b3d 0322 e63d 8dae 19bc d6fd af3c
00000100: 11f1 09bd 965b 063c 9008 b4bc 224a ddbb
00000110: 84a9 333c 5261 023a 32c8 e9bb e07c 54bc
00000120: c9db 98bc 095c 423c 93b7 e33c cd79 4b3d
00000130: 0906 753c 04cb 42bd ab28 3c3c c66e f03a
00000140: dcfb 8fbd 41b5 9ebd 1174 d9bc daaf a9bc
00000150: de33 813d 3f27 403b 033e f23c cfc7 68bc
00000160: 9d35 0a3d c46c 57bb 4e7c 2e3c 6ab0 c7bb
00000170: 06fa a4bd c3e3 4e3c 4464 883d 6979 413d
00000180: 2d70 ccb9 2265 78bd 45bb c33c 9f9f b63d
00000190: 2686 a43d 6f87 9abc 8ac4 d53a 981e 85bd
000001a0: 564a 95bb a140 c1bc fad1 e5bc e582 17bc
000001b0: 3c05 edbb 71a7 02bd 59ff 2ebd fc80 1d3d
000001c0: 9f59 293c cbe4 d4bc 76a9 e4bc ee06 adbc
000001d0: 72a9 2dbd db5e 66bc 201b 003d 5e92 11bc
000001e0: 055f 053d ed33 60bd 21e2 87bd c5cc c93a
000001f0: 42b5 023d 9332 76bd e18b 7d3c 04ad 00bd
00000200: 673b 22bd a6c9 9e3c 85d1 f23c 2305 f53c
00000210: e43c 7bbb 06d7 36bd 971e d0bc 5563 f3bc
00000220: f006 0cbd 0c66 bf3b 132e aebd 389e 3bbc
00000230: 4485 bb3d 894e a03c 49ae 4d3c 1fcd 12bd
00000240: 5862 21bd 3f1d 8bbd c6e7 733c a433 953c
00000250: 6f5e 91bc 3140 2bbd 3dc7 fc3a ac23 183d
00000260: 8939 04bd a47c 693b 462e b6bc 91db 363c
00000270: 54f0 6bbd 2cec 13bd e9de 52bb 2c00 cdbc
00000280: 59ac d5bc 2dc4 8bba 1379 e83b dd30 c03d
00000290: 4302 cdbb ca34 52bd b7f7 60bd ff28 8c3c
000002a0: 2335 36bd 38f7 37bd ff11 403d 33ae b2bd
000002b0: 43cc cabc 9725 913d 818c 003d 0957 8ebd
000002c0: b622 00be b2d6 27bc 98e7 32bd f6b8 0cbc
000002d0: da9c 913c cd31 a3bd 4a2d 2abd 7116 dabc
000002e0: 8391 08bd 038b 9ebc 075e 4c3a e0f5 ffba
000002f0: 25bc dd3c 3f4b acbc eb86 953c 22c5 8d3c
00000300: 25b0 a73d 5fff 83bb 6274 76bc aefd f7bc
00000310: 4f3e 33bd 3a78 a0bd bd93 41bc 2b3f a5bc
00000320: 2c05 42bd 1439 b33c 93ed bbbc 7b7e 873b
00000330: 9aed a1bc ca94 8dbd 9d02 05bc 5984 da3d
00000340: caa7 b5bd 9d2c 6abd 051c 44bd 0e6c e3bc
00000350: b0ea 103c 328f bdbd 0ee0 893c e0c6 80bc
00000360: 7f56 373c b52b 37bd d730 99bd a08f 98ba
00000370: 489f 6dbd c553 06bd 8d69 2abd c173 b7bd
00000380: 8236 96bd 44b8 39bd 3f90 a43c 757a fcbb
00000390: 1594 123c 2c30 3abd 11d0 9abc 842d 133e
000003a0: 7b47 5b3c dfac 72bb 044a e53c e498 3a3a
000003b0: 233f 57bc 7960 27bd 9540 d9bc e118 993d
000003c0: 3289 07bb 64b3 c5bc c7e0 dfbc 06c6 3bbd
000003d0: dc8a aabc e52b 543c d8a0 a83c fee9 c13c
000003e0: 0009 cc3c 6fd4 233d ef55 81bc df4e 153d
000003f0: 218a eb3c 0575 6dbd 5215 423b 640a 8a3c

action_model._continuous_distribution.mu.bias f4 [2]
-0.012396921 0.020188142
00000000: 751c 4bbc 9a61 a53c

action_model._discrete_distribution.branches.0.weight f4 [2, 128]
0.025591405 -0.028288871 0.058355253 0.097591065 -0.010680012 -0.075048886 -0.06514928 -0.012286117
0.1579415 0.048747517 -0.052166846 0.08413648 0.03883898 -0.09488499 -0.004797098 -0.10039506
-0.03998344 0.073711604 -0.13462846 0.10241914 -0.11531952 -0.02965842 0.14661892 0.009075192
0.14702098 0.08775651 0.06497854 -0.03329531 -0.12820606 0.107704274 -0.039127864 0.019003922
0.04351259 0.085883625 0.0028135853 -0.023345564 0.0199382 -0.048238967 0.020215433 -0.12626575
0.12096414 -0.09312388 0.110575624 -0.10284633 0.13022129 -0.107025705 -0.056089554 0.0178472
0.009761253 0.104005374 -0.036325123 0.047021974 -0.055288304 -0.039823413 0.08632033 0.05664256
-0.08869453 0.039819755 -0.11128062 -0.11554697 0.07210285 -0.076258235 0.16184472 0.019319212
0.17592399 -0.09500355 -0.08253076 -0.16508405 0.10423435 -0.10035237 -0.08874585 -0.077852346
-0.018554283 -0.12857054 0.07870333 -0.023835937 0.13766336 0.07681607 -0.102653064 0.08483125
0.056844346 0.04077118 -0.06926939 -0.08705259 0.02152926 -0.12490929 0.057259176 0.040153522
-0.114539094 0.1362155 0.15284002 0.1602214 -0.037834346 0.08765223 -0.043761324 -0.018788693
-0.11303711 -0.055659015 -0.118695274 -0.07567089 -0.08887964 -0.14296757 0.13419431 0.035285853
-0.04184328 -0.061874684 0.06682215 -0.0010094838 -0.072959475 -0.103446 0.05878912 0.13710922
0.08988455 -0.013713221 0.07591932 0.057862215 -0.09514039 -0.073773175 -0.03132543 0.07397466
-0.052568603 -0.04150908 -0.08287914 -0.08495292 -0.048140883 -0.07233531 -0.08615121 -0.023142735
-0.010769554 0.033810917 -0.05854777 -0.105347894 0.005845313 0.081267715 0.05644194 0.011627161
-0.14728081 -0.04126441 0.041956607 -0.102902375 -0.016873727 0.072314374 0.008898401 0.103669986
0.048951253 -0.087889 0.12170969 -0.105726086 0.11843829 0.050259367 -0.14721273 -0.023968086
-0.16521882 -0.11000505 -0.057212677 0.028493201 0.14792688 -0.10609877 0.030448949 -0.018121671
-0.04650456 -0.08861428 0.0041495888 0.020717243 -0.016141757 0.052538864 -0.025834791 0.13835274
-0.12858309 0.092692904 -0.1136836 0.09826767 -0.11545902 0.100669995 0.052840743 -0.03572211
-0.014503294 -0.10802746 0.014089564 -0.053434063 0.043128934 0.04093452 -0.10198757 -0.041497044
0.09447832 -0.026890924 0.10160174 0.09662036 -0.08203924 0.07698514 -0.13201715 -0.009346311
-0.15198262 0.07890377 0.0713574 0.1768064 -0.09019376 0.08923163 0.086081006 0.0664271
0.03136094 0.11105997 -0.08666654 0.017256556 -0.13142492 -0.072448246 0.07143059 -0.09461921
-0.04028193 -0.0648405 0.07114085 0.080074266 -0.010427962 0.09525616 -0.05968266 -0.03936607
0.0870647 -0.14576729 -0.15579459 -0.13645886 0.051314592 -0.07771911 0.04597096 0.004858951
0.11637659 0.05847369 0.09542373 0.062376805 0.08315384 0.11354947 -0.1393815 -0.02286173
0.039127696 0.05373176 -0.07002618 -0.0071795 0.081794456 0.09754565 -0.068127386 -0.13245875
-0.101541415 0.013671177 -0.08324363 -0.053166855 0.08652343 0.054536022 0.015587982 -0.09006768
0.04164084 0.06868348 0.07951701 0.07238709 0.035894033 0.07070599 0.08055361 0.034769602
00000000: 11a5 d13c 10be e7bc eb05 6f3d d3dd c73d
00000010: 38fb 2ebc 3bb3 99bd fc6c 85bd b64b 49bc
00000020: 6bbb 213e 7aab 473d e7ac 55bd bf4f ac3d
00000030: 9f15 1f3d 1053 c2bd fa30 9dbb ed9b cdbd
00000040: adc5 23bd 1cf6 963d 0bdc 09be 20c1 d13d
00000050: a42c ecbd 37f6 f2bc 4523 163e 1db0 143c
00000060: ab8c 163e afb9 b33d 7813 853d aa60 08bd
00000070: 7348 03be 0f94 dc3d 8a44 20bd 1dae 9b3c
00000080: 423a 323d c1e3 af3d 2164 383b 323f bfbc
00000090: 7055 a33c 3996 45bd d69a a53c cf4b 01be
000000a0: 0cbc f73d bcb7 bebd 7975 e23d 19a1 d2bd
000000b0: bb58 053e 4b30 dbbd 29be 65bd 4b34 923c
000000c0: aaed 1f3c c500 d53d a7c9 14bd 1d9a 403d
000000d0: fd75 62bd e01d 23bd b7c8 b03d 0702 683d
000000e0: 7aa5 b5bd 0a1a 233d 18e7 e3bd e4a3 ecbd
000000f0: a9aa 933d 472d 9cbd 9fba 253e 5343 9e3c
00000100: 6b25 343e 3991 c2bd e305 a9bd cb0b 29be
00000110: d278 d53d 8b85 cdbd 62c0 b5bd 0d71 9fbd
00000120: 27ff 97bc ffa7 03be 362f a13d 9543 c3bc
00000130: a0f7 0c3e be51 9d3d c53b d2bd 02bc ad3d
00000140: 9ed5 683d aeff 263d 1cdd 8dbd a148 b2bd
00000150: 215e b03c 71d0 ffbd 9988 6a3d 0578 243d
00000160: 7993 eabd 137c 0b3e 1882 1c3e 1411 243e
00000170: 30f8 1abd 0383 b33d 133f 33bd bfea 99bc
00000180: 0080 e7bd b5fa 63bd 8216 f3bd 57f9 9abd
00000190: 8706 b6bd 1766 12be 3c6a 093e e687 103d
000001a0: dc63 2bbd 4f70 7dbd 0dda 883d a850 84ba
000001b0: c76b 95bd 7fdb d3bd dccc 703d 5c66 0c3e
000001c0: 6415 b83d 6bad 60bc 977b 9b3d ee00 6d3d
000001d0: f7d8 c2bd 6416 97bd 184f 00bd 0780 973d
000001e0: 2d52 57bd 6d05 2abd 8abc a9bd ccfb adbd
000001f0: 602f 45bd 8924 94bd 0c70 b0bd d595 bdbc
00000200: c972 30bc 517d 0a3d c9cf 6fbd a3c0 d7bd
00000210: 0a8a bf3b b06f a63d aa2f 673d d97f 3e3c
00000220: c8d0 16be df04 29bd b1da 2b3d 7bbe d2bd
00000230: c53a 8abc 8f19 943d 99ca 113c ee50 d43d
00000240: 1c81 483d 26ff b3bd ee42 f93d eb86 d8bd
00000250: c68f f23d c4dc 4d3d efbe 16be b858 c4bc
00000260: 1f2f 29be 544a e1bd d757 6abd 936a e93c
00000270: 257a 173e 504a d9bd 1370 f93c e673 94bc
00000280: 917b 3ebd 677b b5bd 46f9 873b 35b7 a93c
00000290: b83b 84bc fe32 573d 7ca3 d3bc 57ac 0d3e
000002a0: 49ab 03be c7d5 bd3d f3d2 e8bd 8f40 c93d
000002b0: c775 ecbd 122c ce3d 896f 583d 5951 12bd
000002c0: 399f 6dbc 803d ddbd ead7 663c addd 5abd
000002d0: f7a7 303d f5aa 273d dcde d0bd cef8 29bd
000002e0: d97d c13d 5b4a dcbc 9314 d03d e5e0 c53d
000002f0: 3004 a8bd 63aa 9d3d 812f 07be 4521 19bc
00000300: 55a1 1bbe 4d98 a13d d423 923d bd0c 353e
00000310: 82b7 b8bd 13bf b63d 3d4b b03d ee0a 883d
00000320: 5474 003d 6973 e33d 3a7e b1bd 9f5d 8d3c
00000330: 4194 06be bf5f 94bd 334a 923d b7c7 c1bd
00000340: aafe 24bd 19cb 84bd 4bb2 913d fafd a33d
00000350: 0bda 2abc a915 c33d ce75 74bd 513e 21bd
00000360: fa4e b23d 0544 15be 9e88 1fbe dfbb 0bbe
00000370: 402f 523d 322b 9fbd 0c4c 3c3d d637 9f3b
00000380: da56 ee3d 1c82 6f3d 846d c33d d27e 7f3d
00000390: 8f4c aa3d a08c e83d 06ba 0ebe 8648 bbbc
000003a0: 5d44 203d d515 5c3d e369 8fbd 0342 ebbb
000003b0: da83 a73d 04c6 c73d 5f86 8bbd 44a3 07be
000003c0: f2f4 cfbd 13fd 5f3c a37b aabd 7dc5 59bd
000003d0: 3233 b13d 2a61 5f3d bc64 7f3c 6775 b8bd
000003e0: 968f 2a3d eda9 8c3d d0d9 a23d af3f 943d
000003f0: 9f05 133d 4dce 903d 4bf9 a43d 926a 0e3d

action_model._discrete_distribution.branches.0.bias f4 [2]
0.006355416 -0.006355445
00000000: 1841 d03b 5641 d0bb

exp_avg f4 [128, 26]
-9.1427525e-12 -2.7886203e-06 -2.2678294e-07 -1.5430329e-10 -2.3975697e-09 7.097398e-10 1.9743484e-06 5.82302e-09
-4.424797e-09 -2.8347413e-06 3.2848404e-09 4.3798853e-05 5.2928728e-05 5.661614e-09 9.613045e-06 -1.2602538e-06
1.2748569e-09 1.9808782e-08 -5.8638885e-09 -1.648357e-05 5.7183996e-08 -4.1184805e-08 2.3296738e-05 -5.149668e-10
-0.0002779927 -0.0002628496 -3.8123114e-09 3.1277286e-06 -5.161125e-07 3.7580142e-10 5.8392144e-09 -1.7285501e-09
-4.667487e-06 -1.389074e-09 1.4354653e-09 7.006169e-06 4.435452e-09 -9.6923985e-05 -0.00011534778 -2.69361e-09
5.528127e-06 -7.338144e-07 6.580431e-10 1.02246975e-08 -3.026762e-09 -8.312501e-06 8.81357e-09 -5.8655973e-09
1.2166959e-05 2.7609333e-09 -0.00015903299 -0.00018181295 -1.0584678e-07 -0.00014565948 -2.3154316e-06 -1.192483e-08
-1.8528857e-07 5.4849995e-08 0.00015529439 1.6190008e-07 -1.2414048e-07 -0.00021712168 1.6046735e-07 0.0027157948
0.002786788 -1.055011e-07 -0.00014545333 -2.5384077e-06 -1.1831576e-08 -1.8383963e-07 5.442106e-08 0.00015409353
1.6631462e-07 -1.273005e-07 -0.00021541413 -1.742939e-08 0.002722953 0.0027806985 -6.315208e-10 -2.5862794e-06
-2.4605902e-07 -1.4192725e-10 -2.2052726e-09 6.5281497e-10 1.8449261e-06 4.9747477e-09 -3.76354e-09 -2.5864942e-06
2.8808478e-09 3.7966536e-05 4.2885993e-05 -6.5409106e-10 -2.6233715e-06 -2.3823608e-07 -1.4767737e-10 -2.2946187e-09
6.792635e-10 1.919143e-06 4.7528124e-09 -3.6047247e-09 -2.6916664e-06 -2.570596e-09 3.9446466e-05 4.444649e-05
8.985043e-08 4.3660722e-05 8.76922e-06 1.8287457e-09 2.8415114e-08 -8.411579e-09 -2.6788608e-05 -7.390745e-08
5.2268593e-08 3.114717e-05 -2.0435884e-07 -0.0002868668 -0.00010873595 8.337335e-08 3.0430449e-05 1.0227048e-05
1.8869946e-10 2.9319909e-09 -8.679425e-10 -5.6118984e-06 -1.34288e-07 9.546876e-08 1.1563577e-06 -1.7233894e-08
4.8347232e-05 0.00029053586 4.793305e-09 1.6842315e-06 -4.8524845e-07 2.67049e-10 4.1494146e-09 -1.2283283e-09
-3.3463511e-06 7.514127e-09 -5.468541e-09 4.9579194e-06 9.159521e-09 -6.477164e-05 -6.556986e-05 1.1546717e-08
1.6067175e-05 -1.8299446e-06 1.9720574e-09 3.0641917e-08 -9.0707655e-09 -2.5365081e-05 6.938187e-08 -4.9747374e-08
3.6134454e-05 3.601121e-09 -0.00044369706 -0.00044214042 -7.161738e-08 -4.5572087e-05 -3.9480587e-06 -3.1882836e-09
-4.9539715e-08 1.4664987e-08 4.319599e-05 5.9472e-08 -4.3236355e-08 -5.683934e-05 1.1376654e-07 0.0006149053
0.0005101426 -6.717392e-08 -3.663049e-05 -4.9879995e-06 -2.0618154e-09 -3.2036585e-08 9.48363e-09 2.8651535e-05
1.0120251e-07 -7.3094945e-08 -3.6239468e-05 7.740919e-09 0.00038816116 0.00024017776 -3.9290882e-10 -1.4936757e-05
-1.997589e-06 -5.2880433e-10 -8.216579e-09 2.4323066e-09 6.5590634e-06 2.1924288e-08 -1.7047395e-08 -9.864396e-06
2.6114247e-08 0.00018931218 0.00024791498 -5.5048948e-09 -2.6586376e-05 -1.2027117e-06 -1.8132967e-09 -2.8175089e-08
8.340516e-09 2.315089e-05 -2.3487557e-08 1.5452603e-08 -3.3349057e-05 -1.7349076e-09 0.00048208173 0.0005468848
-1.6073e-08 -6.8744125e-06 2.062943e-06 -1.2947711e-09 -2.0118215e-08 5.9554877e-09 1.6859123e-05 -1.4165469e-08
1.0246453e-08 -2.3577e-05 -1.4824898e-08 0.0002423079 0.00021445383 -1.4529891e-08 -2.9438356e-06 1.944565e-06
-9.1014346e-10 -1.4141844e-08 4.1863353e-09 1.1888943e-05 -1.1999165e-09 9.663392e-10 -1.6546115e-05 -3.4967735e-09
0.00015044924 0.00012291379 -7.544041e-09 -7.372393e-06 -3.880238e-07 -5.5522004e-10 -8.627032e-09 2.5538154e-09
7.3593246e-06 9.913612e-09 -7.4084534e-09 -1.0016039e-05 1.5868926e-08 0.00011818075 0.00011253248 -9.059779e-09
-1.0537913e-05 -6.7739975e-08 -9.383107e-10 -1.4579514e-08 4.3158965e-09 1.2306344e-05 -4.0843395e-09 2.6105238e-09
00000000: 4cd7 20ad 2224 3bb6 9f81 73b4 84a8 29af
00000010: 7ec2 24b1 8017 4330 0c7f 0436 d313 c831
00000020: ed08 98b1 7c3c 3eb6 86bb 6131 a9b4 3738
00000030: caff 5d38 1588 c231 b747 2137 fe25 a9b5
00000040: 0a37 af30 f927 aa32 4f7b c9b1 3246 8ab7
00000050: 789a 7533 2ce3 30b3 5d6d c337 918d 0db0
00000060: 8cbf 91b9 13cf 89b9 72fd 82b1 f8e5 5136
00000070: fb8a 0ab5 5999 ce2f 46a2 c831 f391 edb0
00000080: 689d 9cb6 b2e9 beb0 f249 c530 8916 eb36
00000090: a666 9831 ab43 cbb8 dee6 f1b8 7d1a 39b1
000000a0: 407e b936 57fb 44b5 abe1 3430 b2a8 2f32
000000b0: 5cff 4fb1 ec75 0bb7 7e6a 1732 578a c9b1
000000c0: b120 4c37 daba 3d31 18c2 26b9 0ba5 3eb9
000000d0: e24d e3b3 2bbc 18b9 d062 1bb6 f5dd 4cb2
000000e0: bcf3 46b4 3594 6b33 85d6 2239 c1d6 2d34
000000f0: 7a4b 05b4 28ab 63b9 ee4c 2c34 7afb 313b
00000100: 8ba2 363b d88f e2b3 d584 18b9 8359 2ab6
00000110: d243 4bb2 7465 45b4 97bc 6933 2b94 2139
00000120: 3794 3234 18b0 08b4 cae0 61b9 a2b7 95b2
00000130: 9273 323b 613c 363b 5397 2db0 f18f 2db6
00000140: 181a 84b4 f80c 1caf 918b 17b1 c571 3330
00000150: 2e9f f735 58ee aa31 7350 81b1 a293 2db6
00000160: 69f8 4531 423e 1f38 7ce0 3338 91cb 33b0
00000170: 2e0d 30b6 d6cd 7fb4 7c5f 22af 5caf 1db1
00000180: ebb6 3a30 a0ca 0036 2e4e a331 fdb6 77b1
00000190: 7aa2 34b6 67a6 30b1 5273 2538 0e6c 3a38
000001a0: ccf3 c033 5820 3738 831f 1337 4557 fb30
000001b0: 7f15 f432 8482 10b2 19b8 e0b7 0db7 9eb3
000001c0: ed7d 6033 05a4 0238 bb6d 5bb4 9c66 96b9
000001d0: 2b09 e4b8 fc0a b333 e444 ff37 d694 2b37
000001e0: 2d7a 4f2f 217c 4931 0694 6eb0 d74d bcb6
000001f0: ce30 10b4 8104 cd33 2634 9b35 bc09 94b2
00000200: 72c8 4a38 1053 9839 5bb2 a431 c10d e235
00000210: 0542 02b5 cecf 922f a392 8e31 f6d1 a8b0
00000220: e091 60b6 7b17 0132 cce5 bbb1 345c a636
00000230: 005c 1d32 02d6 87b8 8d82 89b8 005f 4632
00000240: ffc7 8637 6b9c f5b5 cd84 0731 259b 0333
00000250: a6d5 1bb2 19c7 d4b7 16ff 9433 d1a9 55b3
00000260: 138f 1738 9777 7731 03a0 e8b9 15cf e7b9
00000270: 12cc 99b3 a824 3fb8 9179 84b6 e118 5bb1
00000280: 7ec5 54b3 4bf1 7b32 572d 3538 286e 7f33
00000290: e0b2 39b3 c766 6eb8 d14f f433 9931 213a
000002a0: 17bb 053a 4141 90b3 b0a3 19b8 975e a7b6
000002b0: d7af 0db1 9998 09b3 72ed 2232 b458 f037
000002c0: ab54 d933 5ff8 9cb3 d5ff 17b8 ecfc 0432
000002d0: 1c82 cb39 3ad8 7b39 0001 d8af e298 7ab7
000002e0: 510e 06b6 4c5b 11b0 e628 0db2 9725 2731
000002f0: ed15 dc36 0554 bc32 9e6f 92b2 427f 25b7
00000300: d651 e032 1a82 4639 96fa 8139 9125 bdb1
00000310: cf05 dfb7 dc6c a1b5 b537 f9b0 ad05 f2b2
00000320: fa49 0f32 2834 c237 afc1 c9b2 a2bc 8432
00000330: 47e0 0bb8 a271 eeb0 eabf fc39 d15c 0f3a
00000340: e710 8ab2 c1aa e6b6 1771 0a36 b5f3 b1b0
00000350: 6cd0 acb2 06a1 cc31 b16c 8d37 645c 73b2
00000360: 6008 3032 39c7 c5b7 97b0 7eb2 0814 7e39
00000370: 03df 6039 239f 79b2 b68e 45b6 5f7f 0236
00000380: a72d 7ab0 7df4 72b2 65d7 8f31 9f76 4737
00000390: 4fea a4b0 0ad0 8430 83cc 8ab7 e44b 70b1
000003a0: e9c1 1d39 6be2 0039 0b9b 01b2 6060 f7b6
000003b0: 9651 d0b4 239e 18b0 1736 14b2 327f 2f31
000003c0: 1ef0 f636 8750 2a32 728d feb1 8f0a 28b7
000003d0: 2350 8832 cfd7 f738 6aff eb38 54a5 1bb2
000003e0: fecb 30b7 7278 91b3 dff5 80b0 6179 7ab2
000003f0: 074b 9431 5877 4e37 3b56 8cb1 d264 3331

exp_avg_sq f4 [128, 26]
3.0129677e-10 1.8406354e-08 3.823719e-09 9.555487e-16 2.3069906e-13 2.0216318e-14 7.1607865e-08 7.8499326e-08
3.2968874e-08 2.9544452e-07 4.05561e-07 1.042617e-06 1.0213034e-06 3.0558894e-10 2.0612175e-08 3.8547676e-09
9.675771e-16 2.336029e-13 2.0470818e-14 7.335979e-08 7.890104e-08 3.3132864e-08 2.990341e-07 4.0551615e-07
1.3326575e-06 1.3018425e-06 1.139416e-09 1.7838756e-09 1.19906645e-08 2.8334014e-15 6.8407096e-13 5.9945464e-14
1.4925212e-07 2.9027797e-07 1.2241166e-07 8.575203e-07 1.3649649e-06 6.488478e-07 1.780808e-06 1.155752e-09
1.8133948e-09 1.198601e-08 2.834038e-15 6.842251e-13 5.9959064e-14 1.4864406e-07 2.917379e-07 1.2301139e-07
8.5637583e-07 1.364375e-06 6.546229e-07 1.7940879e-06 1.6671102e-09 7.093747e-07 2.1148521e-08 9.797898e-15
2.3655164e-12 2.0729189e-13 1.2174704e-06 4.0818563e-07 1.7324675e-07 3.1135025e-06 1.9153622e-06 0.00016099456
0.00013138632 1.690811e-09 7.119344e-07 2.1201606e-08 9.827969e-15 2.3727754e-12 2.079278e-13 1.2223849e-06
4.102009e-07 1.7408362e-07 3.121704e-06 1.9105737e-06 0.00016207184 0.00013230636 2.7409948e-09 1.16243e-08
4.9963646e-08 1.0179306e-14 2.4576027e-12 2.153614e-13 8.239395e-07 7.405503e-07 3.159896e-07 3.2182545e-06
4.964563e-06 1.0082933e-06 5.6123395e-06 2.7809521e-09 1.42830165e-08 5.0020844e-08 1.01875626e-14 2.4595965e-12
2.1553541e-13 8.236274e-07 7.4451e-07 3.176448e-07 3.2180205e-06 4.9608298e-06 1.0011627e-06 5.617215e-06
7.6184586e-10 4.671881e-07 1.3732262e-08 6.6618104e-15 1.6083657e-12 1.4094226e-13 9.174092e-07 1.962694e-07
8.3101405e-08 2.1424903e-06 9.941377e-07 0.00013029289 0.00010616037 7.7274254e-10 4.658496e-07 1.375225e-08
6.6535366e-15 1.6063683e-12 1.407671e-13 9.154788e-07 1.9726511e-07 8.3515005e-08 2.1388682e-06 9.93956e-07
0.00012964409 0.00010544633 3.4993684e-09 5.6642993e-08 6.3515934e-08 1.338974e-14 3.2326912e-12 2.8328221e-13
1.103844e-06 9.515884e-07 4.0436962e-07 4.237122e-06 6.3173616e-06 4.937088e-06 9.026473e-06 3.5504053e-09
5.8162136e-08 6.357677e-08 1.339681e-14 3.2343965e-12 2.834317e-13 1.1026804e-06 9.566633e-07 4.0648726e-07
4.2356387e-06 6.3153398e-06 5.1665656e-06 9.29575e-06 4.6932005e-09 1.1724724e-07 5.116454e-08 1.2957828e-14
3.128424e-12 2.741458e-13 8.369681e-07 1.1916493e-06 5.0288355e-07 3.9578317e-06 5.663248e-06 4.0438503e-05
3.9187926e-05 4.760364e-09 1.17540104e-07 5.1156785e-08 1.2959417e-14 3.1288004e-12 2.7417933e-13 8.3400556e-07
1.1976385e-06 5.053488e-07 3.952649e-06 5.6616695e-06 4.0139614e-05 3.8907117e-05 3.549933e-10 3.7155232e-08
7.591556e-09 1.8543669e-15 4.477013e-13 3.923239e-14 2.004219e-07 9.4450925e-08 4.014666e-08 5.917053e-07
6.069253e-07 8.995031e-06 6.6574753e-06 3.6009934e-10 3.8710088e-08 7.624523e-09 1.8755647e-15 4.528189e-13
3.9680858e-14 2.0348749e-07 9.494869e-08 4.0354312e-08 5.9828733e-07 6.067785e-07 9.663662e-06 7.3530714e-06
1.6266681e-09 4.1813394e-08 3.6244447e-08 7.367e-15 1.778623e-12 1.5586168e-13 6.928188e-07 4.4497253e-07
1.9011709e-07 2.3562784e-06 3.370506e-06 4.083355e-06 5.3824742e-06 1.6504741e-09 4.383332e-08 3.6312603e-08
7.373239e-15 1.7801278e-12 1.5599368e-13 6.9333174e-07 4.4738053e-07 1.9112903e-07 2.3567216e-06 3.3704907e-06
4.2184397e-06 5.581478e-06 1.752991e-10 2.2400062e-09 2.106953e-09 4.9897255e-16 1.2046713e-13 1.0556624e-14
3.19568e-08 4.5399034e-08 1.9135234e-08 1.531715e-07 2.3298819e-07 6.389651e-07 7.580854e-07 1.7781734e-10
2.4200872e-09 2.1081314e-09 4.9999275e-16 1.2071382e-13 1.05782235e-14 3.1971425e-08 4.5631012e-08 1.9230312e-08
00000000: c0a3 a52f 001c 9e32 ca61 8331 86b5 8926
00000010: 3ddf 812a a817 b628 d7c6 9933 7693 a833
00000020: a999 0d33 969d 9e34 e1bb d934 0cf0 8b35
00000030: b813 8935 d2ff a72f a70e b132 e572 8431
00000040: 4b71 8b26 ba81 832a 7e62 b828 f989 9d33
00000050: 4e70 a933 f84d 0e33 ef8a a034 b7b5 d934
00000060: c3dd b235 f8ba ae35 a399 9c30 8b2c f530
00000070: 80ff 4d32 082b 4c27 828c 402b 35fc 8629
00000080: 1c42 2034 80d7 9b34 4370 0334 5930 6635
00000090: d633 b735 7b2c 2e35 1904 ef35 69d8 9e30
000000a0: 283b f930 08eb 4d32 c636 4c27 9d97 402b
000000b0: 0c04 8729 f89a 1f34 27a0 9c34 1d15 0434
000000c0: b3e1 6535 911f b735 58b9 2f35 64cc f035
000000d0: 3a20 e530 dc6b 3e35 17aa b532 d480 3028
000000e0: 5b75 262c d263 692a f767 a335 9b24 db34
000000f0: b405 3a34 91f1 5036 ac89 0036 a6d0 2839
00000100: bfc4 0939 2062 e830 c21b 3f35 d31e b632
00000110: 820b 3128 1ff8 262c 1c1b 6a2a d310 a435
00000120: 9539 dc34 beeb 3a34 777e 5136 6837 0036
00000130: d4f1 2939 b8bb 0a39 175c 3c31 36b4 4732
00000140: 9c97 5633 c35f 3728 3cf0 2c2c b379 722a
00000150: b12c 5d35 3bca 4635 48a5 a934 31f9 5736
00000160: 4595 a636 b254 8735 a151 bc36 071b 3f31
00000170: 5f61 7532 80d6 5633 d785 3728 2714 2d2c
00000180: daab 722a 3e17 5d35 56da 4735 c588 aa34
00000190: 2cf5 5736 3475 a636 b05f 8635 827b bc36
000001a0: 236a 5130 d8d1 fa34 21eb 6b32 5b04 f027
000001b0: 7b5b e22b d7af 1e2a e143 7635 1fbe 5234
000001c0: 7b75 b233 b4c7 0f36 506e 8535 3b9f 0839
000001d0: 6aa2 de38 ec68 5430 e219 fa34 0943 6c32
000001e0: 0bb8 ef27 8413 e22b 5b7d 1e2a 39bf 7535
000001f0: d2cf 5334 dc58 b333 7a89 0f36 1168 8535
00000200: 12f1 0739 1123 dd38 8a79 7031 a147 7333
00000210: 4166 8833 4735 7128 fd7a 632c 4579 9f2a
00000220: cb27 9435 a870 7f35 2318 d934 9a2c 8e36
00000230: b9f9 d336 43a9 a536 6870 1737 64fb 7331
00000240: f2cd 7933 b387 8833 e255 7128 b599 632c
00000250: d08e 9f2a cfff 9335 b366 8035 2f3b da34
00000260: dc1f 8e36 5be8 d336 765c ad36 f1f4 1b37
00000270: d441 a131 5ac9 fb33 02c0 5b33 6f6d 6928
00000280: ad24 5c2c 9354 9a2a 03ac 6035 c2f0 9f35
00000290: e5fd 0635 84cd 8436 ee06 be36 839c 2938
000002a0: b75d 2438 9b90 a331 5b6a fc33 7bb7 5b33
000002b0: c374 6928 752b 5c2c 6859 9a2a 6de0 5f35
000002c0: 8cbe a035 4ea7 0735 ffa0 8436 5ff9 bd36
000002d0: 955b 2838 3330 2338 de28 c32f 9c94 1f33
000002e0: 046c 0232 089f 0527 8f08 fc2a deaf 3029
000002f0: 8d33 5734 f2d4 ca33 b86d 2c33 aed5 1e35
00000300: 97eb 2235 5de9 1637 4763 df36 7af7 c52f
00000310: 3142 2633 02fd 0232 1026 0727 15ea fe2a
00000320: eab4 3229 377e 5a34 98e6 cb33 0952 2d33
00000330: fe99 2035 80e1 2235 1d21 2237 67ba f636
00000340: 4c91 df30 5096 3333 31ab 1b33 4ab6 0428
00000350: a651 fa2b 127c 2f2a 25fa 3935 8fe4 ee34
00000360: fd22 4c34 8e20 1e36 da30 6236 c103 8936
00000370: 1a9b b436 e5d6 e230 3f43 3c33 21f6 1b33
00000380: 10d3 0428 dd87 fa2b 1ea2 2f2a 651d 3a35
00000390: 832f f034 2639 4d34 2b28 1e36 9730 6236
000003a0: 1f8c 8d36 8848 bb36 4fbe 402f 9bee 1931
000003b0: e9c9 1031 add1 0f26 49a2 072a d62b 3e28
000003c0: e040 0933 c4fc 4233 d35e a432 7677 2434
000003d0: 4e2b 7a34 5985 2b35 3b7f 4b35 2283 432f
000003e0: a04e 2631 a4de 1031 f41c 1026 64e9 072a
000003f0: 728f 3e28 f450 0933 d4fb 4333 e72f a532

exp_avg f4 [128]
2.853878e-05 1.4730869e-05 -0.0002648603 -3.3058898e-06 4.2241745e-06 4.4146254e-05 -4.6155572e-05 -4.0592226e-05
-2.0374368e-05 -2.1004913e-05 -7.318646e-05 -3.8741764e-05 -0.0004254076 0.0001010762 -0.000335444 3.8144517e-05
1.7219079e-06 -0.0001419217 0.00025450645 -7.656404e-05 5.777321e-05 -0.00014035635 0.00019737096 -1.28708025e-05
-2.1033333e-05 0.00030178888 0.00015164596 -1.2122803e-05 -0.00022214101 -4.7147343e-05 0.00017174808 0.00017062562
-0.00029046365 3.0719915e-05 -0.0001407952 -9.859179e-05 -2.7391292e-05 0.00023154334 0.00035502086 0.0005140813
0.00026957685 0.00013018564 0.00039711013 0.0006495154 0.00035992952 -0.000104122984 3.457361e-05 6.273238e-05
5.5711338e-05 -3.6013047e-05 -0.00022703923 8.7635425e-07 1.4799875e-05 -1.49343405e-05 -4.439353e-06 -0.00011734504
-0.00033830258 4.9097303e-05 -3.0591822e-05 -5.1086113e-06 -2.2086838e-06 -0.0002046619 0.00023954509 2.9598315e-05
-1.7717975e-05 -5.252226e-07 -5.8927315e-05 2.3358645e-05 0.0001505023 -2.7912138e-05 -9.845524e-05 1.104312e-05
-5.189343e-06 -0.00018120128 -1.9171584e-05 -5.3003467e-05 -1.1406073e-06 7.4106365e-06 0.00019978256 1.879024e-05
-4.5129367e-05 0.00033930544 -1.238587e-06 -0.000109331835 -4.761536e-05 0.00025883084 -3.3369943e-05 0.00019081318
-2.5016681e-05 7.603618e-05 0.00011465933 4.2320153e-05 0.00031485493 9.2279326e-05 -0.000121893514 7.028114e-05
0.00010729534 8.178024e-06 -3.3611361e-06 -0.00013055389 -1.8532788e-05 -3.0279258e-05 -7.8597e-06 3.0424157e-05
-0.00065491 0.00012932194 -7.276574e-06 1.5721569e-06 0.00028523934 6.4954445e-05 0.00011356164 -4.8023658e-06
-0.00015840656 -0.00024140009 -5.00121e-05 -0.00030822124 0.00051620894 0.00019882787 -3.253258e-05 5.6983066e-05
-0.00019447834 -4.460273e-06 -0.00031634246 0.00022416638 -0.00037084907 -7.917096e-05 -2.4483701e-05 0.00028794035
00000000: 9066 ef37 9a24 7737 f3dc 8ab9 c1da 5db6
00000010: 62bd 8d36 ae29 3938 2b97 41b8 9241 2ab8
00000020: 9fe9 aab7 b533 b0b7 ae7b 99b8 a77e 22b8
00000030: 3e09 dfb9 dff8 d338 88de afb9 5dfd 1f38
00000040: 4e1c e735 d1d0 14b9 476f 8539 0291 a0b8
00000050: 8351 7238 9f2c 13b9 5df5 4e39 adef 57b7
00000060: bd70 b0b7 6b39 9e39 2703 1f39 0b63 4bb7
00000070: 86ee 68b9 13c0 45b8 4617 3439 f7e9 3239
00000080: 5f49 98b9 42d9 0038 6ca2 13b9 10c3 ceb8
00000090: 5ac6 e5b7 71ca 7239 1822 ba39 69c3 063a
000000a0: fe55 8d39 7182 0839 3833 d039 3e44 2a3a
000000b0: ecb4 bc39 9a5c dab8 2203 1138 318f 8338
000000c0: 98ab 6938 b70c 17b8 6111 6eb9 9b3e 6b35
000000d0: fb4c 7837 818e 7ab7 c0f5 94b6 2317 f6b8
000000e0: 345e b1b9 d4ed 4d38 b84f 00b8 a36a abb6
000000f0: e638 14b6 839a 56b9 652e 7b39 e649 f837
00000100: 10a1 94b7 06fd 0cb5 b928 77b8 4ff2 c337
00000110: 27d0 1d39 dc24 eab7 c179 ceb8 d745 3937
00000120: 1e20 aeb6 d900 3eb9 aad2 a0b7 0a50 5eb8
00000130: f816 99b5 e2a8 f836 b97c 5139 bc9f 9d37
00000140: 4a49 3db8 cee4 b139 863d a6b5 1549 e5b8
00000150: 9ab6 47b8 b0b3 8739 b4f6 0bb8 0615 4839
00000160: eada d1b7 9d75 9f38 4275 f038 eb80 3138
00000170: 1d13 a539 1686 c138 15a1 ffb8 e663 9338
00000180: bf03 e138 5834 0937 e18f 61b6 4be5 08b9
00000190: dc76 9bb7 3600 feb7 28dd 03b7 6137 ff37
000001a0: 44ae 2bba 989a 0739 4b29 f4b6 e602 d335
000001b0: 2d8c 9539 2738 8838 f127 ee38 0224 a1b6
000001c0: f019 26b9 5820 7db9 15c4 51b8 c198 a1b9
000001d0: 3252 073a 737c 5039 9773 08b8 1a01 6f38
000001e0: e2ec 4bb9 74a9 95b6 c4da a5b9 340e 6b39
000001f0: 856e c2b9 9608 a6b8 5962 cdb7 b3f6 9639
