AIRocketLanding/results/AIRocketNew6/AIRocket/checkpoint.pt (torch, 505935 bytes, 42 tensors)

network_body._body_endoder.seq_layers.0.weight f4 [128, 26]
-0.26097724 0.5410259 0.19225374 0.14503357 0.110599786 -0.36677444 -0.055612862 -0.24744475
-0.19387823 -0.1491903 0.04910704 0.44853005 0.14704031 0.13073657 0.29395023 0.4259767
-0.007396706 0.29610583 0.053560503 0.18669118 -0.18425134 -0.011311016 -0.0020622718 -0.15955302
0.21008196 -0.12907308 0.0131170135 0.1329083 0.281068 -0.0756112 -0.0991115 -0.19765607
0.110850886 -0.13408713 -0.094420716 0.14242885 0.2810284 -0.035113998 -0.037169207 0.022725716
-0.22499521 0.23781604 -0.015982104 -0.33770078 -0.32985762 0.25923756 -0.36541218 0.23946306
0.04720024 -0.14735764 -0.0178246 0.027157258 -0.38132727 0.17325914 -0.14655061 0.10982355
0.4134207 0.16447859 -0.08006144 -0.1882524 0.22592032 -0.03645076 0.030262465 -0.11059244
-0.19044758 0.07463541 0.31610835 -0.12328567 -0.2857244 -0.07041671 0.20557843 -0.015836658
-0.14290762 0.10531716 -0.5286593 -0.057639517 -0.018964345 -0.041459084 0.48096648 -0.03884749
0.30937135 -0.23171568 0.017347677 0.10087592 0.2915691 -0.3297277 -0.109487385 0.13747348
0.15288252 0.033186022 0.3739241 -0.039545752 0.35767257 0.07915258 -0.28774577 0.02079001
-0.0024929522 0.15833014 0.30588815 0.15196303 -0.08307622 0.044876337 0.109465644 0.048360072
0.19929074 0.22361073 -0.05648965 -0.22307247 -0.16583753 -0.038249593 -0.07686845 -0.012171509
0.13109127 -0.028482446 -0.2765965 -0.25463897 -0.28765818 -0.10907558 0.23314835 0.18865895
-0.39246404 -0.04413393 0.21056132 -0.077163056 0.118765466 0.022130333 -0.13783273 -0.11919609
-0.2623299 0.18355352 -0.23679599 0.5068579 -0.021566205 0.2889841 0.08389175 -0.024575375
-0.32947934 0.11806037 0.0144596705 0.13766076 0.10186381 0.38133174 -0.30623195 0.035270434
0.32382268 0.133371 0.3577087 0.3358001 -0.10717276 -0.22389013 -0.3021835 -0.45428395
-0.09933368 0.4515459 0.05478901 -0.04162568 -0.21551806 0.8648799 0.16514155 0.029103478
-0.0862831 -0.14348151 0.12818533 -0.3176649 -0.31542823 -0.21082525 0.07801291 -0.43944988
0.31436098 0.0073515996 0.45227382 -0.38379055 0.05391735 -0.0545766 -0.044024013 -0.117360584
-0.17498812 0.061300028 -0.11949324 -0.008510328 -0.04538749 -0.042865373 0.0887239 -0.3311203
0.10300611 -0.23222461 -0.25689867 0.28101292 -0.15114973 -0.07393155 -0.13611314 0.18063442
-0.26840627 0.06672463 0.17114337 -0.0040637543 -0.19555746 -0.39822266 -0.18231517 0.17275682
0.17860782 -0.12827104 -0.10093737 0.023012796 0.214902 -0.40716895 -0.009675474 -0.16793197
0.2610616 -0.31637436 0.17705353 0.15833002 -0.26331905 -0.3163291 0.04823638 0.08333251
-0.20444347 0.25353286 -0.05081613 0.0038866547 0.19913805 -0.005414427 -0.19146313 0.20920484
0.22361107 0.14020672 -0.2669839 -0.180707 0.08817355 -0.24655911 0.16937074 -0.05203405
-0.079903714 0.03673719 -0.29214624 -0.21665503 0.086329445 0.40729898 -0.18363611 0.0037856586
0.121715926 -0.07476832 0.1574753 -0.16359252 0.36297125 0.26188955 0.08863445 0.34700927
0.2086558 -0.19018267 0.15490544 -0.02797889 -0.00700655 0.011374352 0.14514218 0.07779138
00000000: cf9e 85be ac80 0a3f 2ade 443e ae83 143e
00000010: 2482 e23d dcc9 bbbe 50ca 63bd 2862 7dbe
00000020: 0488 46be 58c5 18be 7724 493d bba5 e53e
00000030: bc91 163e cfdf 053e a580 963e 9e19 da3e
00000040: 1160 f2bb 2f9b 973e 4262 5b3d f92b 3f3e
00000050: 62ac 3cbe d751 39bc 2e27 07bb de61 23be
00000060: ba1f 573e bc2b 04be bee8 563c 1d19 083e
00000070: 25e8 8f3e 0bda 9abd f8fa cabd 5a66 4abe
00000080: ca05 e33d 234e 09be a65f c1bd ded8 113e
00000090: f4e2 8f3e b2d3 0fbd bd3e 18bd 482b ba3c
000000a0: 2565 66be 0c86 733e e7ec 82bc 1ee7 acbe
000000b0: 19e3 a8be c9ba 843e 4e17 bbbe ce35 753e
000000c0: 0a55 413d ece4 16be e504 92bc e678 de3c
000000d0: 543d c3be d86a 313e 5d11 16be 2beb e03d
000000e0: e1ab d33e 136d 283e 41f7 a3bd 3dc5 40be
000000f0: a857 673e 644d 15bd fde8 f73c 4a7e e2bd
00000100: b104 43be 73da 983d f4d8 a13e 337d fcbd
00000110: 784a 92be a336 90bd 2783 523e e1bb 81bc
00000120: 6056 12be 86b0 d73d 3756 07bf 6a17 6cbd
00000130: 1d5b 9bbc 00d1 29bd 3d41 f63e 8c1e 1fbd
00000140: ec65 9e3e e046 6dbe b71c 8e3c 0998 ce3d
00000150: 8c48 953e 12d2 a8be ec3a e0bd d9c5 0c3e
00000160: 3c8d 1c3e 11ee 073d fb72 bf3e bafa 21bd
00000170: dc20 b73e bf1a a23d 6a53 93be d04f aa3c
00000180: cc60 23bb 4c21 223e 5f9d 9c3e 329c 1b3e
00000190: dd23 aabd 40d0 373d 862f e03d 3615 463d
000001a0: df12 4c3e 36fa 643e b161 67bd 1c6d 64be
000001b0: 50d1 29be 9bab 1cbd 356d 9dbd 026b 47bc
000001c0: ca3c 063e 0554 e9bc 0e9e 8dbe 0a60 82be
000001d0: ef47 93be 0563 dfbd 71be 6e3e d02f 413e
000001e0: 0cf1 c8be c8c5 34bd 639d 573e aa07 9ebd
000001f0: 4f3b f33d ac4a b53c 0624 0dbe 141d f4bd
00000200: 1b50 86be 74f5 3b3e a67a 72be 70c1 013f
00000210: 9cab b0bc b9f5 933e 70cf ab3d 4c52 c9bc
00000220: 84b1 a8be a3c9 f13d 41e8 6c3c f1f6 0c3e
00000230: f99d d03d ea3d c33e 6fca 9cbe bb77 103d
00000240: 16cc a53e 6892 083e 9825 b73e feed ab3e
00000250: 647d dbbd 7443 65be ccb7 9abe e897 e8be
00000260: 756f cbbd 0631 e73e 716a 603d b07f 2abd
00000270: c4b0 5cbe c568 5d3f de1a 293e 6b6a ee3c
00000280: 32b5 b0bd d1ec 12be 0443 033e f9a4 a2be
00000290: cf7f a1be 93e2 57be 3cc5 9f3d 93ff e0be
000002a0: ecf3 a03e b0e5 f03b 6f90 e73e 3280 c4be
000002b0: 70d8 5c3d b78b 5fbd 8652 34bd bf5a f0bd
000002c0: 1630 33be bd15 7b3d dfb8 f4bd e76e 0bbc
000002d0: 3ce8 39bd 9a93 2fbd e0b4 b53d 9a88 a9be
000002e0: def4 d23d 4acc 6dbe 3988 83be ede0 8f3e
000002f0: ffc6 1abe 6d69 97bd 3e61 0bbe 3bf8 383e
00000300: 8c6c 89be eca6 883d 3540 2f3e 3e29 85bb
00000310: 3740 48be d7e3 cbbe d4b0 3abe 2ae7 303e
00000320: f8e4 363e 7c59 03be 40b8 cebd 5585 bc3c
00000330: 450f 5c3e 7378 d0be e185 1ebc 5cf6 2bbe
00000340: dea9 853e d2fb a1be 854d 353e 4421 223e
00000350: c1d1 86be e3f5 a1be 8393 453d 3caa aa3d
00000360: a159 51be 0fcf 813e 9324 50bd 3fb7 7e3b
00000370: d8ea 4b3e 816b b1bb e90e 44be cb39 563e
00000380: 4dfa 643e 5a92 0f3e 1db2 88be 410b 39be
00000390: 5694 b43d fe79 7cbe 866f 2d3e a821 55bd
000003a0: 8fa4 a3bd bc79 163d 3194 95be d1da 5dbe
000003b0: 7ecd b03d 7e89 d03e 1b0b 3cbe d018 783b
000003c0: 3346 f93d 2220 99bd 3441 213e cc84 27be
000003d0: 5ed7 b93e 6316 863e fb85 b53d 33ab b13e
000003e0: dea9 553e 3fbf 42be 889f 1e3e fc33 e5bc
000003f0: 3497 e5bb 7d5b 3a3c 27a0 143e 1651 9f3d

network_body._body_endoder.seq_layers.0.bias f4 [128]
0.037331052 -0.11283116 0.012577193 -0.02565967 -0.014521741 0.083210595 -0.030805962 -0.025537997
-0.015449555 -0.028760578 -0.047138095 0.029347131 0.019773362 -0.046550766 -0.00091204635 -0.122010805
-0.08053721 0.008312788 -0.0535279 0.024260294 -0.04560106 -0.17237702 -0.11414134 0.044382233
-0.02843325 0.028391546 -0.059343074 0.02249181 -0.09332724 -0.03151004 0.06853663 -0.16183878
0.018094784 -0.018901633 -0.0067846645 -0.031033203 -0.04600552 -0.017871408 0.00849626 0.10947756
-0.085989855 0.012134687 0.0022577588 -0.033802748 0.07341606 -0.061138302 0.067466386 -0.018915752
-0.079131424 -0.08159773 -0.05726296 -0.14903198 0.019087952 0.011405951 -0.024851441 0.00972201
-0.056624934 0.0089838365 -0.011925743 -0.067427896 -0.05810353 -0.10176502 -0.03143752 -0.01661091
-0.08156365 -0.051063906 -0.026584782 0.03364462 0.029628007 0.07879092 0.0017314735 0.043052517
0.022171954 0.02042489 0.027351901 -0.007223126 -0.009008204 -0.037508275 -0.060461666 -0.054819062
0.044787206 -0.013290741 -0.043824516 -0.024989905 -0.03570973 0.03971799 -0.031605653 0.037541155
-0.012049841 -0.05032696 -0.10263072 0.004784613 -0.03730079 -0.04788491 0.009632389 -0.19880992
-0.031599995 -0.058676124 0.0340903 -0.091590755 -0.039580815 -0.111486435 -7.291285e-05 -0.09528127
-0.0394511 -0.026403477 -0.03114701 0.0323546 0.045419686 -0.041391898 -0.06534481 0.025082925
-0.086405806 -0.02303051 -0.025835868 -0.013551722 0.09992834 -0.17713624 0.057281345 -0.09036858
0.040536147 -0.010438754 0.02783686 0.03707151 -0.015857678 -0.070635304 0.00659627 0.020149637
00000000: 72e8 183d 0614 e7bd 9210 4e3c 3a34 d2bc
00000010: 99ec 6dbc 516a aa3d c95c fcbc 1035 d1bc
00000020: 2120 7dbc 4e9b ebbc e013 41bd 6569 f03c
00000030: bffb a13c 04ac 3ebd 6516 6fba cde0 f9bd
00000040: b1f0 a4bd 5c32 083c 1240 5bbd 86bd c63c
00000050: 2dc8 3abd 9a83 30be efc2 e9bd 25ca 353d
00000060: d9ec e8bc 6395 e83c b911 73bd bf40 b83c
00000070: 5a22 bfbd ac10 01bd ef5c 8c3d 11b9 25be
00000080: 833b 943c 99d7 9abc e451 debb 5839 febc
00000090: 4970 3cbd 0f67 92bc e633 0b3c c535 e03d
000000a0: 731b b0bd 91d0 463c e8f6 133b c074 0abd
000000b0: 295b 963d 286c 7abd d12b 8a3d 35f5 9abc
000000c0: a80f a2bd b61c a7bd 918c 6abd d79b 18be
000000d0: 565e 9c3c 07e0 3a3c 4095 cbbc 1149 1f3c
000000e0: 8cef 67bd f130 133c 3164 43bc a317 8abd
000000f0: f8fd 6dbd 2e6a d0bd a1c4 00bd 9a13 88bc
00000100: d80a a7bd 6328 51bd 54c8 d9bc f1ce 093d
00000110: 6fb6 f23c 225d a13d 9cf2 e23a d657 303d
00000120: f5a1 b53c 1952 a73c 1811 e03c f9af ecbb
00000130: 2597 13bc 47a2 19bd a7a6 77bd f489 60bd
00000140: ca72 373d 68c1 59bc 5681 33bd a1b7 ccbc
00000150: 5e44 12bd 55af 223d ee74 01bd c1c4 193d
00000160: b26c 45bc a423 4ebd 0e30 d2bd 3ec8 9c3b
00000170: b7c8 18bd f822 44bd 2bd1 1d3c d494 4bbe
00000180: ff6e 01bd 6056 70bd 45a2 0b3d ef93 bbbd
00000190: 7e1f 22bd 0053 e4bd cae8 98b8 d422 c3bd
000001a0: 7a97 21bd 1b4c d8bc 0428 ffbc 4286 043d
000001b0: fe09 3a3d 8d8a 29bd 80d3 85bd b57a cd3c
000001c0: 87f5 b0bd 7baa bcbc bea5 d3bc 0b08 5ebc
000001d0: 3ba7 cc3d 3463 35be d89f 6a3d 2913 b9bd
000001e0: 3b09 263d 4f07 2bbc 200a e43c 4cd8 173d
000001f0: f6e7 81bc 3ea9 90bd 8625 d83b da10 a53c

network_body._body_endoder.seq_layers.2.weight f4 [128, 128]
0.009258505 0.048973404 -0.12550163 -0.022336427 -0.25523272 -0.1569597 -0.01668523 0.16879143
-0.07788069 -0.03522382 -0.14304203 0.014178848 0.061027303 -0.14584704 -0.06503254 -0.10823069
0.15876114 0.0037294456 0.032540705 -0.06273726 -0.012645396 -0.059420694 -0.12326646 0.06353171
-0.09848638 -0.35729814 -0.015430756 0.08308731 0.00060143135 -0.04179898 -0.13986154 0.072788194
0.062197 0.09684101 0.22561249 -0.26394492 -0.020080846 -0.08461393 -0.13255554 -0.20558438
-0.078290656 -0.09113337 -0.05198874 -0.13101369 0.051071458 -0.22674215 -0.14736395 0.03285206
-0.026327677 -0.019093825 -0.015958019 -0.15391836 -0.063364625 0.1216329 -0.24262425 -0.052124303
-0.07478784 0.16617423 0.022231905 0.13696875 -0.07332206 -0.28452063 0.036708616 0.1170676
-0.07923584 -0.011265391 0.05408512 0.072903715 -0.018306423 0.02538996 -0.01928644 0.08744164
-0.30079034 -0.35846892 0.06672728 0.0091944365 -0.059218537 -0.028828487 -0.18176061 -0.22397956
0.1484711 -0.0918223 0.07571986 0.021434793 0.09366712 0.036954682 -0.12572064 -0.09676799
0.031411566 -0.3178543 0.0398133 -0.068717286 -0.16367762 0.03715028 -0.093390636 0.11861473
-0.17045815 0.08477279 -0.0604824 0.07512683 0.06749746 -0.23727871 -0.08712672 0.010845964
-0.051445775 -0.042996947 0.047331434 -0.08802225 -0.17720829 -0.0010121866 -0.1224269 0.026524901
-0.026555542 0.04801649 0.18957554 -0.037480235 -0.15325315 -0.03687698 -0.059754055 -0.019685382
-0.13356894 -0.06771252 -0.046829853 -0.025197757 -0.21783905 0.093432665 -0.04830199 -0.32115322
-0.09371177 -0.15756004 0.2105066 -0.011860612 -0.19657984 -0.03143554 0.005588857 0.14356303
-0.024530258 -0.013615455 -0.046962526 -0.19674034 0.06121982 -0.036181584 -0.25190955 -0.06877314
0.01230328 -0.2052363 -0.11568746 -0.047947127 -0.24122043 -0.1439969 0.121082045 -0.005739752
-0.0040184585 -0.20975947 0.07349481 0.08815454 0.049383257 -0.08713352 0.04640468 0.063204296
-0.0032458762 -0.027541071 0.08838079 0.0989946 -0.091648 -0.15612075 -0.12195955 0.0050022965
0.067577384 0.0266928 -0.14520067 0.053832825 -0.2924024 0.009176826 -0.09859541 -0.0643644
0.0110304365 0.046432164 -0.16149667 0.049907025 -0.052751403 0.06856255 0.0899821 -0.024516772
-0.04892344 0.011003196 0.037898112 -0.25664786 -0.11148741 0.19719024 -0.10106222 -0.015135297
0.018219337 0.06320573 0.017435538 0.09084131 -0.018865135 -0.15431803 0.12065052 -0.28786218
0.05021611 0.06313532 -0.04452797 -0.042608842 -0.06187033 0.22436334 0.1538458 -0.078272015
0.17537393 -0.09313907 -0.027812399 0.10489253 0.060795132 -0.06394424 -0.10458666 -0.014450915
-0.020873038 -0.03155234 -0.03532985 -0.2512493 -0.050194383 -0.11586321 0.12472505 0.09307258
0.14011167 -0.043825578 -0.014218164 -0.22997688 -0.06605329 -0.016598796 -0.116091184 -0.057831846
0.17073874 0.022516381 -0.040706366 0.021900471 -0.058543637 -0.088519044 0.101562865 -0.07943433
0.14644276 0.062461965 -0.015135865 -0.011358568 -0.046864588 0.05536088 -0.07750745 -0.13425231
0.023118857 -0.018536905 0.03902263 -0.18525939 -0.06510476 -0.013767124 -0.06514428 0.0134694725
00000000: fcb0 173c 5698 483d 8083 00be e2fa b6bc
00000010: ddad 82be 0bba 20be 77af 88bc a9d7 2c3e
00000020: e97f 9fbd da46 10bd 9c79 12be 664e 683c
00000030: c4f7 793d ed58 15be c82f 85bd 0da8 ddbd
00000040: 4892 223e b769 743b 6749 053d 647c 80bd
00000050: a32e 4fbc 1d63 73bd 2073 fcbd ea1c 823d
00000060: 3ab3 c9bd c8ef b6be 48d1 7cbc ae29 aa3d
00000070: 60a9 1d3a 6835 2bbd dd37 0fbe fa11 953d
00000080: 48c2 7e3d 9454 c63d f606 673e ca23 87be
00000090: 9680 a4bc 114a adbd a4bc 07be b684 52be
000000a0: da56 a0bd 22a4 babd 25f2 54bd 7428 06be
000000b0: 4e30 513d 182f 68be 93e6 16be e28f 063d
000000c0: 24ad d7bc a76a 9cbc 64ba 82bc c69c 1dbe
000000d0: 50c5 81bd ab1a f93d 7e72 78be 4b80 55bd
000000e0: 5e2a 99bd 9429 2a3e af1f b63c 8941 0c3e
000000f0: e029 96bd b0ac 91be c65b 163d 23c1 ef3d
00000100: 6646 a2bd 7992 38bc 5c88 5d3d 8b4e 953d
00000110: 5af7 95bc 9bfe cf3c 99fe 9dbc 9a14 b33d
00000120: 3101 9abe 3d89 b7be 50a8 883d 43a4 163c
00000130: 238f 72bd b829 ecbc 741f 3abe e65a 65be
00000140: cf08 183e 540d bcbd 0413 9b3d 0598 af3c
00000150: 8cd4 bf3d cb5d 173d e9bc 00be 4c2e c6bd
00000160: 6aa9 003d ccbd a2be 4513 233d a6bb 8cbd
00000170: 1b9b 27be e42a 183d 9743 bfbd 48ec f23d
00000180: 958c 2ebe 5b9d ad3d 65bc 77bd 18dc 993d
00000190: 1c3c 8a3d 31f9 72be 7e6f b2bd 45b3 313c
000001a0: ceb8 52bd 911d 30bd 9bde 413d 0245 b4bd
000001b0: 1776 35be 59ab 84ba f4ba fabd c04a d93c
000001c0: 028b d9bc f0ac 443d 1720 423e e084 19bd
000001d0: 65ee 1cbe 510c 17bd abc0 74bd 3d43 a1bc
000001e0: 4cc6 08be ddac 8abd a9d0 3fbd 876b cebc
000001f0: 3311 5fbe a059 bf3d 4fd8 45bd 326e a4be
00000200: f5eb bfbd 6b57 21be 0b8f 573e 0353 42bc
00000210: 3a4c 49be 8ec2 00bd bb22 b73b 3002 133e
00000220: aef3 c8bc 5b13 5fbc c75b 40bd 4d76 49be
00000230: a2c1 7a3d 2433 14bd 4afa 80be efd8 8cbd
00000240: b293 493c 7729 52be 8ced ecbd 3564 44bd
00000250: 7d02 77be ec73 13be ddf9 f73d 8814 bcbb
00000260: 46ad 83bb 30cb 56be 7284 963d 5e8a b43d
00000270: 1946 4a3d 0f73 b2bd d512 3e3d 4171 813d
00000280: c4b8 54bb d09d e1bc fd00 b53d aebd ca3d
00000290: f2b1 bbbd 1ede 1fbe eec5 f9bd 4eea a33b
000002a0: 0366 8a3d dcaa da3c 7caf 14be cf7f 5c3d
000002b0: c4b5 95be 665a 163c 64ec c9bd 7cd1 83bd
000002c0: 01b9 343c a72f 3e3d 625f 25be 4f6b 4c3d
000002d0: db11 58bd 866a 8c3d 8948 b83d 66d7 c8bc
000002e0: f263 48bd c046 343c 0d3b 1b3d 5967 83be
000002f0: 8353 e4bd 3dec 493e b6f9 cebd 09fa 77bc
00000300: b840 953c 0172 813d f9d4 8e3c 020b ba3d
00000310: 0e8b 9abc 8c05 1ebe 9f17 f73d ac62 93be
00000320: 68af 4d3d 174d 813d f662 36bd 9c86 2ebd
00000330: be6b 7dbd 81bf 653e c189 1d3e 144d a0bd
00000340: 3995 333e b2bf bebd d4d6 e3bc e5d1 d63d
00000350: 5104 793d 33f5 82bd 8831 d6bd 88c3 6cbc
00000360: effd aabc 073d 01bd 08b6 10bd c0a3 80be
00000370: a098 4dbd b149 edbd d96f ff3d d69c be3d
00000380: 6f79 0f3e 7382 33bd 4df3 68bc 0f7f 6bbe
00000390: f346 87bd 33fa 87bc 37c1 edbd 16e1 6cbd
000003a0: 23d6 2e3e 4674 b83c b8bb 26bd 9e68 b33c
000003b0: 74cb 6fbd 7949 b5bd 3100 d03d 77ae a2bd
000003c0: 17f5 153e 1ed8 7f3d 6bfc 77bc 4a19 3abc
000003d0: 15f5 3fbd 17c2 623d 3abc 9ebd 7079 09be
000003e0: c263 bd3c b5da 97bc 31d6 1f3d a3b4 3dbe
000003f0: a555 85bd 818f 61bc 5d6a 85bd 10af 5c3c

network_body._body_endoder.seq_layers.2.bias f4 [128]
0.056860898 -0.023058297 0.006919876 -0.07287505 -0.041236836 -0.067021556 -0.12411428 -0.06876943
-0.007025699 0.0056852307 -0.043864183 0.019621879 -0.000933267 -0.02792341 -0.049144235 -0.052694704
-0.02010387 0.0013850831 0.021089483 -0.015799256 0.010204738 0.038708147 -0.032326158 -0.054350577
0.027539155 -0.039876763 0.013373617 -0.0011993112 0.010961553 -0.032377716 -0.090846546 0.02413732
-0.037610706 -0.052880008 0.010799226 0.0066876095 -0.06824382 0.024935026 -0.023816051 -0.02333035
-0.065908015 0.01407338 -0.016460016 -0.06877884 -0.030786334 -0.0074317874 -0.04368901 -0.006386854
-0.018491194 -0.03393753 -0.03545156 -0.07054462 -0.05131034 -0.101863265 0.008700619 -0.03488136
0.049143 -0.014238789 0.0072387396 0.011338488 0.002992063 -0.0102715725 -0.02603399 -0.062228862
0.07782135 -0.026377233 0.023703942 0.03191758 -0.026354311 -0.09553668 0.04814475 0.06522636
-0.07158052 -0.044696655 0.023852643 -0.022353703 -0.0059552286 -0.07332276 -0.020736823 0.07419737
-0.005144346 0.016750569 -0.13097031 -0.05184469 -0.05146917 -0.005300355 -0.08337433 -0.081912
-0.013758435 -0.023988735 0.014156929 -0.033444468 -0.043921154 -0.035031553 -0.0061085536 0.031851593
0.005354048 0.04237104 -0.020582749 -0.010393673 0.0016734306 -0.053801488 -0.044819243 0.10274974
-0.020026969 0.047627136 0.0007768179 -0.028382571 -0.0015831246 0.09155196 0.008200803 -0.04355629
-0.13357258 -0.043823663 -0.076703 -0.04825752 0.015029116 0.02836557 0.020253018 -0.061339036
-0.0145619465 0.054443747 0.049251225 0.0022912712 -0.0070219315 0.035439003 -0.019305928 0.02180165
00000000: f9e6 683d c1e4 bcbc 21c0 e23b 843f 95bd
00000010: f5e7 28bd 9942 89bd a12f febd fdd6 8cbd
00000020: d637 e6bb 2c4b ba3b eeaa 33bd 10be a03c
00000030: 7da6 74ba a3bf e4bc 774b 49bd 67d6 57bd
00000040: dfb0 a4bc ad8b b53a dac3 ac3c 716d 81bc
00000050: c631 273c 6f8c 1e3d 6f68 04bd b69e 5ebd
00000060: cb99 e13c d155 23bd 041d 5b3c 3532 9dba
00000070: 1698 333c 7f9e 04bd c10d babd a1bb c53c
00000080: af0d 1abd b598 58bd 3def 303c bc23 db3b
00000090: 6ac3 8bbd 8a44 cc3c e119 c3bc 4a1f bfbc
000000a0: c8fa 86bd 0994 663c 28d7 86bc ecdb 8cbd
000000b0: 9f33 fcbc 5a86 f3bb 3ff3 32bd d148 d1bb
000000c0: d87a 97bc 1402 0bbd a835 11bd b379 90bd
000000d0: cb2a 52bd b09d d0bd 0b8d 0e3c c2df 0ebd
000000e0: 2c4a 493d cf49 69bc f332 ed3b 11c5 393c
000000f0: 7d16 443b 194a 28bc 3c45 d5bc b1e3 7ebd
00000100: cd60 9f3d 1115 d8bc c52e c23c 02bc 023d
00000110: ffe4 d7bc bca8 c3bd 6e33 453d 6695 853d
00000120: cf98 92bd d713 37bd 9e66 c33c 1d1f b7bc
00000130: 1424 c3bb 3e2a 96bd 45e0 a9bc caf4 973d
00000140: e791 a8bb 7d38 893c 151d 06be 195b 54bd
00000150: 56d1 52bd 9aae adbb 29c0 aabd 7bc1 a7bd
00000160: 0f6b 61bc 0684 c4bc 77f2 673c 11fd 08bd
00000170: abe6 33bd 3f7d 0fbd 432a c8bb d176 023d
00000180: 0371 af3b 418d 2d3d 279d a8bc 394a 2abc
00000190: 0357 db3a f35e 5cbd 6294 37bd 756e d23d
000001a0: 990f a4bc ac14 433d 5ea3 4b3a 9182 e8bc
000001b0: d980 cfba 987f bb3d a95c 063c 1568 32bd
000001c0: 40c7 08be 7180 33bd 7616 9dbd ada9 45bd
000001d0: ae3c 763c e95e e83c a8e9 a53c a43e 7bbd
000001e0: 3b95 6ebc 6800 5f3d a7bb 493d 2729 163b
000001f0: 3b18 e6bb 7d28 113d 7727 9ebc 6099 b23c

action_model._continuous_distribution.log_sigma f4 [1, 2]
-1.0320165 -0.90741915
00000000: 1e19 84bf 9f4c 68bf

action_model._continuous_distribution.mu.weight f4 [2, 128]
-0.055113703 -0.024710584 -0.018926067 0.016487418 0.014136809 -0.022507679 -0.01679201 -0.013599793
0.008733034 0.07389011 0.03744559 -0.11191986 -0.0536886 0.037500374 -0.004612303 -0.00012577268
0.018867293 0.021616807 -0.026623026 0.0045931074 0.013204085 -0.03668094 0.015621008 0.030641275
-0.043064 0.033917338 -0.016722156 0.021411777 0.0046958076 0.022588708 0.018615693 -0.022207819
0.02765377 0.018613406 0.058880214 -0.04071292 -0.11110075 -0.043173794 -0.027950129 0.029534822
0.014807417 -0.006010301 0.02067753 -0.014015827 0.004542391 0.021513026 -0.014302449 0.045288496
0.10967831 0.009750972 -0.018369138 -0.10899782 -0.00475775 0.024400922 0.0725071 -0.0056576836
-0.01909901 0.07531833 0.00019858865 -0.00022373805 0.06686285 0.09065325 2.0947355e-05 0.02722515
-0.024651024 -0.00062603207 -0.023325652 0.00815357 0.023086498 0.013205027 0.0031121676 -0.0030926105
0.003625733 -0.00043548964 0.056615982 0.052874748 0.030276148 -0.030744689 -0.00057399116 0.000774921
-0.07751427 -0.0699356 -0.025281973 0.00021404294 0.078519456 0.01653847 0.030855289 -0.006898821
0.016101263 0.004870328 0.016682882 0.008114521 -0.08113745 0.034539945 0.097802885 0.052754156
0.013501418 -0.050840907 0.013527144 0.094659895 0.09028141 -0.0076123984 0.017099755 -0.08173781
0.005967486 -0.013694855 -0.022795174 3.3725497e-05 0.003888912 -0.012363502 -0.031022852 0.043191873
0.020965282 -0.027504342 -0.0041320743 -0.020182557 -0.028964058 -0.013666023 0.014082667 0.0068479944
0.042120602 -0.05610252 -0.052478686 -0.0016237024 0.03480451 -0.045716 0.028577756 -0.022994224
-0.053158533 0.014080492 0.014428291 0.013772894 -0.0022376569 -0.026325077 -0.024919614 -0.032788087
-0.030017212 0.003258862 -0.0886974 -0.022187188 0.08125492 0.022746956 0.009136005 -0.03986883
-0.04820854 -0.06693901 -0.023179058 0.012573778 -0.0049020527 -0.04354734 0.010302609 0.035421975
-0.031743985 -0.0011359934 -0.030516487 -0.0026545848 -0.068473205 -0.030050607 -0.018287979 -0.03152136
-0.022330478 -0.01087648 0.00791297 0.07277205 -0.0119850375 -0.070162445 -0.07023018 0.020563753
-0.039776035 -0.06724155 0.023678986 -0.07224856 -0.018338928 0.05282556 0.020755833 -0.06808395
-0.11083806 -0.012351947 -0.059580766 -0.012993014 0.011148983 -0.08898141 -0.031705555 -0.049484253
-0.059386723 -0.011850591 -0.00075605087 -1.4822177e-05 0.031977274 -0.025524594 0.022955813 0.004218491
0.048739098 -0.002434982 -0.017643856 -0.042933848 -0.030526884 -0.09011346 0.0079303505 -0.0259862
-0.0618703 -0.0039779805 -0.019189015 0.0017908743 -0.015548189 -0.05195766 -0.0044739977 0.08301154
-0.060632322 -0.04945969 -0.049685623 -0.018505184 0.0113629345 -0.09990354 0.01817669 -0.01864562
0.008045682 -0.043468576 -0.07226396 0.0020118635 -0.036621694 -0.040828366 -0.02845248 -0.08388614
-0.085155845 -0.060759496 0.0034652005 -0.0035844338 0.011393633 -0.053205024 -0.012397013 0.12632349
0.001217328 -0.0126507245 0.028110608 -0.0002968949 -0.023776151 -0.037500925 -0.032973778 0.056606002
-0.003354194 -0.02597468 -0.027347187 -0.03920288 -0.034047686 0.0046895486 0.009438727 0.010728011
0.025538927 0.020531632 -0.038440656 0.019174106 0.031993646 -0.08161071 -0.014646989 0.0063546863
00000000: e8be 61bd da6d cabc d70a 9bbc 9f10 873c
00000010: 139e 673c 0662 b8bc 668f 89bc abd1 5ebc
00000020: 0015 0f3c b353 973d 8c60 193d 3d36 e5bd
00000030: 94e8 5bbd fe99 193d cd22 97bb d9e1 03b9
00000040: 958f 9a3c bb15 b13c 8818 dabc c781 963b
00000050: f255 583c c13e 16bd 42ef 7f3c 6903 fb3c
00000060: e063 30bd e8ec 0a3d e7fc 88bc c067 af3c
00000070: 4adf 993b f40b b93c f07f 983c 2ced b5bc
00000080: 298a e23c 247b 983c 612c 713d 97c2 26bd
00000090: ca88 e3bd 01d7 30bd abf7 e4bc 03f3 f13c
000000a0: cf9a 723c 0ff2 c4bb ec63 a93c a4a2 65bc
000000b0: 56d8 943b 163c b03c d254 6abc 6e80 393d
000000c0: 069f e03d 8ac2 1f3c e07a 96bc 403a dfbd
000000d0: e6e6 9bbb 71e4 c73c 9a7e 943d 1764 b9bb
000000e0: 8775 9cbc 7f40 9a3d 3c3c 5039 3a9b 6ab9
000000f0: 64ef 883d 69a8 b93d 1ab8 af37 4707 df3c
00000100: f2f0 c9bc 4d1c 24ba 7015 bfbc 8d96 053c
00000110: e51f bd3c e659 583c 82f5 4b3b 65ad 4abb
00000120: b59d 6d3b 6e52 e4b9 29e6 673d 3193 583d
00000130: af05 f83c 49dc fbbc e577 16ba 1124 4b3a
00000140: cdbf 9ebd 653a 8fbd 241c cfbc b770 6039
00000150: cfce a03d af7b 873c 3bc4 fc3c 810f e2bb
00000160: cce6 833c 4697 9f3b 8aaa 883c c5f2 043c
00000170: 642b a6bd c279 0d3d e14c c83d be14 583d
00000180: 0d35 5d3c 8e3e 50bd f4a0 5d3c 0cdd c13d
00000190: 76e5 b83d 6d71 f9bb c914 8c3c 2766 a7bd
000001a0: e78a c33b 6360 60bc f2bc babc 7a74 0d38
000001b0: 1edd 7e3b 4990 4abc a323 febc f6e9 303d
000001c0: 62bf ab3c c950 e1bc 5a66 87bb e455 a5bc
000001d0: 0846 edbc 74e7 5fbc fdba 663c 2465 e03b
000001e0: a786 2c3d c2cb 65bd e4f3 56bd 69d2 d4ba
000001f0: 2d8f 0e3d b340 3bbd e61b ea3c 625e bcbc
00000200: c3bc 59bd ddb1 663c a364 6c3c b4a7 613c
00000210: a7a5 12bb b0a7 d7bc 3824 ccbc cd4c 06bd
00000220: a8e6 f5bc a292 553b fca6 b5bd e8c1 b5bc
00000230: fb68 a63d d357 ba3c 2faf 153c 804d 23bd
00000240: 5176 45bd 5217 89bd 02e2 bdbc 3f02 4e3c
00000250: 66a1 a0bb b25e 32bd 46cc 283c a216 113d
00000260: fb05 02bd 9de5 94ba b6fd f9bc 8bf8 2dbb
00000270: ae3b 8cbd b12c f6bc acd0 95bc 8b1c 01bd
00000280: 68ee b6bc 4333 32bc 67a5 013c 8309 953d
00000290: e45c 44bc 54b1 8fbd d7d4 8fbd 5175 a83c
000002a0: 32ec 22bd f0b5 89bd 6ffa c13c 0ef7 93bd
000002b0: 853b 96bc 9d5f 583d 2308 aa3c 996f 8bbd
000002c0: 11ff e2bd d25f 4abc f60a 74bd a7e0 54bc
000002d0: 39aa 363c e33b b6bd afdd 01bd 00b0 4abd
000002e0: 7e3f 73bd fb28 42bc b731 46ba c4ac 78b7
000002f0: 9afa 023d f418 d1bc d40d bc3c 443b 8a3b
00000300: a6a2 473d 3894 1fbb d989 90bc 67db 2fbd
00000310: 8413 fabc 688d b8bd 4dee 013c 03e1 d4bc
00000320: b66b 7dbd b859 82bb 4832 9dbc c5bb ea3a
00000330: d5bd 7ebc 8ed1 54bd 9d9a 92bb f401 aa3d
00000340: 9959 78bd 3e96 4abd 2783 4bbd 2f98 97bc
00000350: 9a2b 3a3c 3a9a ccbd 48e7 943c b3be 98bc
00000360: 09d2 033c 1b0c 32bd 21ff 93bd 78d9 033b
00000370: a100 16bd a53b 27bd 2d15 e9bc 7fcc abbd
00000380: 3066 aebd f3de 78bd 6b18 633b d2e8 6abb
00000390: 5cac 3a3c 83ed 59bd d71c 4bbc f25a 013e
000003a0: c08e 9f3a fc44 4fbc 3848 e63c 8fa8 9bb9
000003b0: 34c6 c2bc 929a 19bd 830f 07bd b2db 673d
000003c0: 0ad2 5bbb dac8 d4bc 3507 e0bc 3393 20bd
000003d0: 9675 0bbd c9aa 993b e4a4 1a3c 8ac4 2f3c
000003e0: 0337 d13c f431 a83c f373 1dbd 0413 9d3c
000003f0: c50b 033d 8423 a7bd edf9 6fbc f93a d03b

action_model._continuous_distribution.mu.bias f4 [2]
-0.020638889 0.017189344
00000000: e312 a9bc abd0 8c3c

action_model._discrete_distribution.branches.0.weight f4 [2, 128]
0.0423842 -0.0649611 0.07993904 0.111388996 -0.0030012708 -0.08233496 -0.13535766 -0.01622252
0.16187361 0.062998936 -0.03588578 0.09312138 0.0169025 -0.060250074 0.027058633 -0.09519055
-0.032864362 0.084320866 -0.19904704 0.09712425 -0.12236945 -0.025069062 0.13316305 0.049488313
0.14670466 0.093758576 0.07563166 -0.017899038 -0.114092566 0.11313062 -0.059406053 0.026782744
0.042773254 0.048061904 -0.03629892 0.004357272 0.034682915 -0.037008606 0.03460476 -0.08956758
0.12673907 -0.08204304 0.11518101 -0.09232215 0.13119158 -0.15112758 -0.03926984 0.026122844
0.016275624 0.09602441 -0.017891081 0.0647892 -0.031836208 -0.032225475 0.09840622 0.017036583
-0.07650641 0.049910136 -0.021049043 -0.056624703 0.05606027 -0.050396644 0.15951042 0.023107579
0.19366306 -0.104765564 -0.13981873 -0.15846708 0.08230159 -0.091563985 -0.1084692 -0.07889247
-0.0005343742 -0.1208422 0.08406621 -0.0043548136 0.1371898 -0.011452936 -0.14729242 0.093313366
0.041790284 0.026974844 -0.062766105 -0.07830885 0.041984707 -0.107536465 0.089939035 -0.021046054
-0.16333227 0.1432353 0.15924813 0.15786567 -0.052754827 0.0443813 -0.036558956 -0.009977105
-0.10380279 -0.041297033 -0.0717672 -0.058042116 -0.065351106 -0.12746006 0.1299607 0.015064574
-0.03831358 -0.06650243 0.10720229 0.007932964 -0.06710921 -0.088594325 0.069642015 0.15185249
0.07303989 -0.07100011 0.049224693 -0.02801967 -0.08726507 -0.039019488 -0.03305141 0.077611305
-0.024810147 -0.048403095 -0.07124925 -0.11899552 -0.012993444 -0.048377126 -0.04469685 0.019523934
-0.027562346 0.0704831 -0.08013146 -0.11914582 -0.001833448 0.08855378 0.12665036 0.015563574
-0.15121295 -0.055515863 0.025675397 -0.111887276 0.0050626923 0.03767946 -0.022957353 0.09846548
0.041832156 -0.09849827 0.18612826 -0.100431174 0.12548791 0.045670092 -0.13375686 -0.06438123
-0.1649025 -0.11600712 -0.06786579 0.013096921 0.13381363 -0.11152515 0.050727084 -0.025900487
-0.04576523 -0.050792567 0.043262087 -0.0069855265 -0.030886503 0.04130852 -0.040224012 0.101654306
-0.13435873 0.081612065 -0.11828902 0.08774352 -0.116429366 0.14477211 0.036021043 -0.043997854
-0.021017676 -0.10004649 -0.0043444494 -0.07120141 0.019676823 0.03333659 -0.11407346 -0.0018910154
0.0822902 -0.03698128 0.011370356 0.03769818 -0.065997064 0.05112367 -0.12968262 -0.013134685
-0.1697217 0.08866577 0.128645 0.17018944 -0.06826099 0.08044326 0.10580439 0.067467354
0.013340943 0.10333197 -0.092029445 -0.0022245906 -0.13095132 0.01582056 0.116069734 -0.103101335
-0.025227662 -0.051044133 0.06463764 0.07133055 -0.030883402 0.07788329 -0.09236264 0.021833606
0.13585797 -0.1527871 -0.16220273 -0.134103 0.06623476 -0.034448087 0.038768593 -0.003952686
0.10714229 0.04411171 0.048495647 0.04474811 0.059625402 0.098042965 -0.13514775 -0.002640436
0.035597984 0.058359597 -0.110406294 -0.01612195 0.07594411 0.082694 -0.07898004 -0.14720191
-0.084696785 0.07095818 -0.056549057 0.032715123 0.07864812 0.019782221 0.01731391 -0.09370436
0.013882432 0.07557762 0.06788708 0.1064298 0.0007466564 0.046747815 0.039099213 -0.007897048
00000000: 0e9b 2d3d 530a 85bd 14b7 a33d ea1f e43d
00000010: f8b0 44bb 3b9f a8bd 339b 0abe 17e5 84bc
00000020: 32c2 253e 9605 813d f8fc 12bd 6cb6 be3d
00000030: 1d77 8a3c c8c8 76bd 11aa dd3c 43f3 c2bd
00000040: c89c 06bd 6bb0 ac3d fdd2 4bbe 14e9 c63d
00000050: d69c fabd a25d cdbc e55b 083e 42b4 4a3d
00000060: bf39 163e 7f04 c03d c6e4 9a3d 01a1 92bc
00000070: 5da9 e9bd 07b1 e73d c353 73bd 7c67 db3c
00000080: 0233 2f3d 8fdc 443d 2dae 14bd 72c7 8e3b
00000090: ac0f 0e3d 5696 17bd b9bd 0d3d 356f b7bd
000000a0: e3c7 013e 2e06 a8bd 05e4 eb3d 6513 bdbd
000000b0: 1657 063e 30c1 1abe 69d9 20bd 93ff d53c
000000c0: 7554 853c 72a8 c43d 5190 92bc 33b0 843d
000000d0: af66 02bd dcfe 03bd 3389 c93d 4e90 8b3c
000000e0: 65af 9cbd 926e 4c3d 0b6f acbc 4eef 67bd
000000f0: 749f 653d b66c 4ebd b356 233e 1b4c bd3c
00000100: 9c4f 463e 548f d6bd a42c 0fbe 3245 22be
00000110: bc8d a83d e685 bbbd 1a25 debd 6092 a1bd
00000120: 3f15 0cba 1e7c f7bd e82a ac3d d3b2 8ebb
00000130: 7c7b 0c3e 18a5 3bbc d3d3 16be 141b bf3d
00000140: 4a2c 2b3d 59fa dc3c 848b 80bd 6460 a0bd
00000150: 28f8 2b3d 143c dcbd f531 b83d c668 acbc
00000160: 9340 27be 46ac 123e f111 233e 8aa7 213e
00000170: 7215 58bd 2bc9 353d d8be 15bd 0377 23bc
00000180: 8f96 d4bd 1427 29bd affa 92bd 92bd 6dbd
00000190: cdd6 85bd e484 02be 6b14 053e 67d1 763c
000001a0: b3ee 1cbd 6d32 88bd e08c db3d 43f9 013c
000001b0: 8e70 89bd f170 b5bd 79a0 8e3d 387f 1b3e
000001c0: f095 953d 8168 91bd d59f 493d 8289 e5bc
000001d0: 07b8 b2bd e6d2 1fbd ea60 07bd adf2 9e3d
000001e0: a63e cbbc 5342 46bd 20eb 91bd ecb3 f3bd
000001f0: 74e2 54bc 1827 46bd 0b14 37bd a8f0 9f3c
00000200: 6eca e1bc 7259 903d f71b a4bd b902 f4bd
00000210: 4e50 f0ba af5b b53d a2b0 013e 5cfe 7e3c
00000220: 91d7 1abe 9a64 63bd 3655 d23c 2825 e5bd
00000230: f1e4 a53b c755 1a3d 0f11 bcbc 45a8 c93d
00000240: 3258 2b3d 76b9 c9bd 6898 3e3e dcae cdbd
00000250: e77f 003e 9010 3b3d 8ff7 08be 4eda 83bd
00000260: 33dc 28be 2495 edbd 38fd 8abd 7894 563c
00000270: 7106 093e 4c67 e4bd 34c7 4f3d 422d d4bc
00000280: 5274 3bbd de0b 50bd 9633 313d d8e6 e4bb
00000290: b105 fdbc 1f33 293d efc1 24bd 2230 d03d
000002a0: 5695 09be 3a24 a73d 8441 f2bd e0b2 b33d
000002b0: 8572 eebd 243f 143e cd8a 133d 1837 34bd
000002c0: 432d acbc 2de5 ccbd e25b 8ebb 0bd2 91bd
000002d0: 4a31 a13c f38b 083d 599f e9bd f3db f7ba
000002e0: c487 a83d af79 17bd bb4a 3a3c 6869 1a3d
000002f0: 7829 87bd 0e67 513d 85cb 04be dd32 57bc
00000300: 86cb 2dbe 6696 b53d 84bb 033e 2446 2e3e
00000310: 6bcc 8bbd 70bf a43d f9af d83d 532c 8a3d
00000320: f893 5a3c b69f d33d ef79 bcbd 70ca 11bb
00000330: 1a18 06be 1e9a 813c f8b5 ed3d cb26 d3bd
00000340: 3eaa cebc a713 51bd bd60 843d c015 923d
00000350: 30ff fcbc 4681 9f3d a028 bdbd 64dc b23c
00000360: 5a1e 0b3e 3974 1cbe 7918 26be 4c52 09be
00000370: 17a6 873d 7019 0dbd d1cb 1e3d 8985 81bb
00000380: 6b6d db3d 7bae 343d 5fa3 463d cb49 373d
00000390: c439 743d c0ca c83d 2c64 0abe 2a0b 2dbb
000003a0: 31cf 113d 790a 6f3d b21c e2bd 2e12 84bc
000003b0: 9688 9b3d 795b a93d 4ac0 a1bd 19bc 16be
000003c0: 8275 adbd 8652 913d fc9f 67bd 4b00 063d
000003d0: 4412 a13d 530e a23c e7d5 8d3c 12e8 bfbd
000003e0: 2473 633c 70c8 9a3d 6208 8b3d def7 d93d
000003f0: 43bb 433a a37a 3f3d 7f26 203d 9f62 01bc

action_model._discrete_distribution.branches.0.bias f4 [2]
-0.027801994 0.027801959
00000000: 02c1 e3bc efc0 e33c

exp_avg f4 [128, 26]
-2.1186453e-09 -1.553294e-07 1.9002363e-07 -7.9777455e-11 -1.2395858e-09 3.669479e-10 1.0417344e-06 -5.424099e-10
3.8305334e-10 -1.4505309e-06 -1.06967796e-10 1.7893608e-05 1.7853288e-05 -2.1186621e-09 -1.5381754e-07 1.9037908e-07
-7.977807e-11 -1.2395953e-09 3.6695072e-10 1.041743e-06 -5.4195404e-10 3.827037e-10 -1.4505417e-06 4.858486e-10
1.7885062e-05 1.7828896e-05 -1.4013902e-09 1.9914444e-06 3.703319e-07 7.465361e-11 1.159971e-09 -3.4338019e-10
-1.0437349e-06 -5.543457e-09 3.9601358e-09 1.3075548e-06 -1.4494472e-09 -1.6836588e-05 -1.6717002e-05 -1.4013555e-09
1.990235e-06 3.6996636e-07 7.4653596e-11 1.159971e-09 -3.4338013e-10 -1.0437326e-06 -5.5413087e-09 3.9584886e-09
1.307556e-06 3.3030525e-09 -1.7058725e-05 -1.6692678e-05 -2.6681448e-07 -5.3742747e-06 2.2557515e-05 -8.209407e-09
-1.2755814e-07 3.7760348e-08 0.000106710504 -8.381106e-08 5.9087196e-08 -0.00014961678 -4.538407e-08 0.0018435224
0.0018361008 -2.668145e-07 -5.216767e-06 2.2594115e-05 -8.2094065e-09 -1.2755814e-07 3.7760348e-08 0.00010671061
-8.369172e-08 5.8998094e-08 -0.00014961671 2.2181419e-07 0.0018388854 0.0018301324 8.0350504e-10 3.7988393e-08
-7.459629e-08 2.880274e-11 4.475383e-10 -1.3248239e-10 -3.750045e-07 2.963795e-10 -2.1036586e-10 5.244949e-07
4.6059385e-11 -6.456857e-06 -6.445441e-06 8.0348683e-10 3.7431164e-08 -7.472601e-08 2.8802427e-11 4.4753345e-10
-1.3248093e-10 -3.750006e-07 2.9619654e-10 -2.1022482e-10 5.2448917e-07 -2.339873e-10 -6.4528413e-06 -6.4370847e-06
-2.4737804e-07 -2.6800291e-05 2.569297e-05 -1.13429275e-08 -1.7624696e-07 5.217345e-08 0.00014847165 -6.5006525e-08
4.622834e-08 -0.00020598376 2.0961657e-08 0.0025404086 0.0025389995 -2.473773e-07 -2.6584423e-05 2.5743337e-05
-1.13429275e-08 -1.7624696e-07 5.217345e-08 0.00014847165 -6.502717e-08 4.6240743e-08 -0.00020598377 -1.1455192e-07
0.0025441598 0.0025399618 2.054973e-08 -5.480401e-07 -1.5300474e-06 4.6467064e-10 7.2200708e-09 -2.1373203e-09
-5.9916797e-06 7.019788e-09 -4.931847e-09 8.503508e-06 5.7217817e-09 -0.00010464124 -0.00010395736 2.0549782e-08
-5.5707926e-07 -1.5321477e-06 4.6467033e-10 7.2200654e-09 -2.1373185e-09 -5.991687e-06 7.0043216e-09 -4.920423e-09
8.503491e-06 -2.8739247e-08 -0.00010397493 -0.000103315455 5.609313e-07 2.8890427e-05 -5.4483746e-05 2.1362844e-08
3.3193686e-07 -9.826151e-08 -0.00027870026 1.7513659e-07 -1.2404936e-07 0.000388609 2.8818649e-08 -0.004789034
-0.004780373 5.6093046e-07 2.848186e-05 -5.4578377e-05 2.1362844e-08 3.3193686e-07 -9.826151e-08 -0.0002787004
1.7503385e-07 -1.2396877e-07 0.0003886089 -8.741177e-08 -0.004788271 -0.0047757174 -8.176864e-08 -3.4689865e-06
8.097745e-06 -3.1107292e-09 -4.8334645e-08 1.430825e-08 4.0589424e-05 -2.4856678e-08 1.7587022e-08 -5.6581935e-05
-5.6331135e-09 0.0006974224 0.00069596374 -8.1768555e-08 -3.4094985e-06 8.111419e-06 -3.1107288e-09 -4.8334645e-08
1.4308248e-08 4.058944e-05 -2.4841052e-08 1.7574784e-08 -5.6581925e-05 1.4416749e-08 0.00069724635 0.0006952132
-9.358567e-11 1.5885854e-07 1.5237648e-08 9.689576e-12 1.5055715e-10 -4.4568585e-11 -1.3190099e-07 -3.0396685e-10
2.171367e-10 1.7229766e-07 -7.0898884e-11 -2.1720834e-06 -2.1989074e-06 -9.3596436e-11 1.5866586e-07 1.518466e-08
9.689268e-12 1.5055253e-10 -4.4567208e-11 -1.3189697e-07 -3.038457e-10 2.1702401e-10 1.722921e-07 2.2445892e-09
-2.131526e-06 -2.1900273e-06 -9.575204e-09 -6.525234e-07 9.4651483e-07 -3.8751785e-10 -6.02127e-09 1.7824447e-09
5.064162e-06 -2.5931792e-09 1.8355754e-09 -7.043085e-06 -2.1307672e-10 8.685936e-05 8.670636e-05 -9.575187e-09
-6.4513193e-07 9.482249e-07 -3.8751774e-10 -6.0212684e-09 1.7824444e-09 5.064163e-06 -2.5921496e-09 1.8347319e-09
00000000: 9a97 11b1 9fc8 26b4 4c09 4c34 b76e afae
00000010: 0c5e aab0 53bb c92f b9d1 8b35 b418 15b0
00000020: f795 d22f ddaf c2b5 8439 ebae 3b1a 9637
00000030: a5c3 9537 e697 11b1 0b29 25b4 016b 4c34
00000040: 106f afae 625e aab0 b9bb c92f 04d2 8b35
00000050: a0f8 14b0 c264 d22f 3cb0 c2b5 8e8c 0530
00000060: e107 9637 438f 9537 099b c0b0 c1a4 0536
00000070: 07d2 c634 3f2a a42e da6c 9f30 77c6 bcaf
00000080: 7516 8cb5 c378 beb1 b911 8831 3e7f af35
00000090: e435 c7b0 4c3c 8db7 7d3b 8cb7 d099 c0b0
000000a0: fa8f 0536 ca9f c634 3d2a a42e da6c 9f30
000000b0: 75c6 bcaf 6116 8cb5 de65 beb1 3c03 8831
000000c0: 487f af35 eafb 6231 5519 8fb7 4107 8cb7
000000d0: b43e 8fb4 ab54 b4b6 e539 bd37 5b09 0db2
000000e0: eaf6 08b4 f12d 2233 c4c9 df38 9efb b3b3
000000f0: 0fc7 7d33 73e2 1cb9 50ec 42b3 59a2 f13a
00000100: 52a9 f03a b53e 8fb4 b00b afb6 7e88 bd37
00000110: 5a09 0db2 eaf6 08b4 f12d 2233 d3c9 df38
00000120: 02ba b3b3 1765 7d33 6ee2 1cb9 d22b 6e34
00000130: c106 f13a 0ee1 ef3a a4dd 5c30 ae28 2333
00000140: be31 a0b3 015a fd2d 6b09 f62f 7aaa 11af
00000150: 3a54 c9b4 b5ef a22f ba4c 67af 04cb 0c35
00000160: 4292 4a2e fba7 d8b6 eb45 d8b6 5cdc 5c30
00000170: 00c4 2033 0f79 a0b3 4d59 fd2d bc08 f62f
00000180: 11aa 11af b153 c9b4 f5d5 a22f 0725 67af
00000190: 9fca 0c35 c9a2 80af 7c85 d8b6 23fe d7b6
000001a0: 61cf 84b4 30d1 e0b7 3c87 d737 b9de 42b2
000001b0: 653e 3db4 5115 6033 0eaf 1b39 b799 8bb3
000001c0: 998c 4633 58fd 57b9 2c0f b432 fc7c 263b
000001d0: 5865 263b 47cf 84b4 9d01 dfb7 65f3 d737
000001e0: b9de 42b2 653e 3db4 5115 6033 0eaf 1b39
000001f0: 11a5 8bb3 3c9a 4633 59fd 57b9 96ff f5b3
00000200: ebbb 263b 7d75 263b 5685 b032 071d 13b5
00000210: 075c cdb5 9474 ff2f 6a14 f831 23e0 12b1
00000220: 230c c9b6 b532 f131 fc74 a9b1 4aaa 0e37
00000230: 5399 c431 d772 dbb8 af03 dab8 7385 b032
00000240: 328a 15b5 32a4 cdb5 8974 ff2f 5e14 f831
00000250: 1be0 12b1 330c c9b6 aaaa f031 8010 a9b1
00000260: 37aa 0e37 46de f6b2 1e0d dab8 10ab d8b8
00000270: e892 1635 b859 f237 7a85 64b8 6481 b732
00000280: 0e35 b234 d603 d3b3 841e 92b9 2e0d 3c34
00000290: 6e32 05b4 38be cb39 e18c f732 54ed 9cbb
000002a0: ada4 9cbb d992 1635 54ec ee37 16eb 64b8
000002b0: 6481 b732 0e35 b234 d603 d3b3 891e 92b9
000002c0: f0f0 3b34 471c 05b4 34be cb39 21b7 bbb3
000002d0: eee6 9cbb 9f7d 9cbb c998 afb3 bccc 68b6
000002e0: 8ddb 0737 87c4 55b1 8198 4fb3 59d0 7532
000002f0: 903e 2a38 6a84 d5b2 4512 9732 6452 6db8
00000300: 648d c1b1 3ad3 363a 5671 363a bd98 afb3
00000310: bdce 64b6 4816 0837 85c4 55b1 8198 4fb3
00000320: 57d0 7532 943e 2a38 0d62 d5b2 5cf7 9632
00000330: 6152 6db8 88ad 7732 69c7 363a f83e 363a
00000340: 0ccc cdae b492 2a34 f1e3 8232 f975 2a2d
00000350: 128a 252f c403 44ae aba0 0db4 881b a7af
00000360: 8cbe 6e2f d200 3934 86e8 9bae 1cc4 11b6
00000370: f190 13b6 1cd2 cdae bd5d 2a34 6c6f 8232
00000380: 9574 2a2d c588 252f 3702 44ae 909f 0db4
00000390: 7b0a a7af d49e 6e2f 4bff 3834 3b3f 1a31
000003a0: 560b 0fb6 62f8 12b6 3180 24b2 1129 2fb5
000003b0: 0114 7e35 4a0a d5af a7e3 ceb1 33fa f430
000003c0: d2ec a936 b133 32b1 9147 fc30 a453 ecb6
000003d0: c447 6aaf 4428 b638 1fd6 b538 1e80 24b2
000003e0: 212d 2db5 8589 7e35 460a d5af a3e3 ceb1
000003f0: 30fa f430 d4ec a936 9421 32b1 e429 fc30

exp_avg_sq f4 [128, 26]
1.138993e-13 2.6755622e-09 2.7996072e-11 1.0784626e-17 2.6037426e-15 2.2816778e-16 1.8391632e-09 2.8279755e-11
1.1864741e-11 3.5250634e-09 1.3510858e-10 1.8232283e-08 1.4942218e-08 1.1570173e-13 2.8271725e-09 2.92304e-11
1.14007475e-17 2.7524948e-15 2.4120311e-16 1.945707e-09 2.8422514e-11 1.1922805e-11 3.7270342e-09 1.3580466e-10
1.9316843e-08 1.5156667e-08 4.4117536e-13 5.5106324e-09 3.0384234e-10 7.711724e-17 1.8618469e-14 1.6315476e-15
1.3203966e-08 1.04673444e-10 4.410542e-11 2.5292488e-08 4.6092666e-10 3.439328e-06 3.1718573e-06 4.4710036e-13
5.498738e-09 3.0460226e-10 7.7138715e-17 1.8623658e-14 1.6320027e-15 1.3207406e-08 1.05194076e-10 4.431839e-11
2.529906e-08 4.6102994e-10 3.449144e-06 3.1794073e-06 1.4763194e-12 1.0869762e-07 9.599052e-09 2.2640894e-15
5.4662064e-13 4.790064e-14 3.9021344e-07 1.4754295e-10 6.260611e-11 7.4416704e-07 6.5006595e-10 0.00010934764
0.00010540676 1.485172e-12 1.08448226e-07 9.630877e-09 2.264534e-15 5.4672727e-13 4.791014e-14 3.902899e-07
1.4826514e-10 6.2905486e-11 7.443125e-07 6.4863914e-10 0.00010944721 0.00010555472 9.950737e-13 1.7132377e-09
3.000957e-11 9.623756e-18 2.323475e-15 2.0360716e-16 1.3457583e-09 2.6529848e-10 1.12965755e-10 3.0979392e-09
1.4634275e-09 1.4681968e-08 8.24946e-09 1.0098461e-12 2.0415558e-09 3.3090468e-11 1.0872185e-17 2.6248748e-15
2.3001913e-16 1.561588e-09 2.6667824e-10 1.1353793e-10 3.5061019e-09 1.4632435e-09 1.5667743e-08 8.511862e-09
7.78868e-13 7.2625504e-08 5.623427e-09 1.3506078e-15 3.260781e-13 2.8574467e-14 2.328571e-07 7.0790006e-11
2.9952096e-11 4.4386587e-07 3.3606773e-10 6.403975e-05 6.243971e-05 7.8320987e-13 7.273662e-08 5.6419567e-09
1.352325e-15 3.26493e-13 2.8610798e-14 2.3315306e-07 7.1143674e-11 3.009819e-11 4.4443004e-07 3.3803693e-10
6.4092776e-05 6.249791e-05 1.2875455e-12 7.593335e-09 1.991609e-10 6.3965864e-17 1.5443327e-14 1.3533044e-15
1.0637664e-08 3.4096612e-10 1.4458759e-10 2.0927017e-08 1.907824e-09 1.7967986e-06 1.7995991e-06 1.3062152e-12
7.8391365e-09 2.0151776e-10 6.502941e-17 1.5700083e-14 1.3758072e-15 1.0821112e-08 3.4273612e-10 1.4532014e-10
2.127442e-08 1.910728e-09 1.8053483e-06 1.8014827e-06 3.5236607e-12 1.5554203e-07 2.2633905e-08 4.73913e-15
1.144173e-12 1.002645e-13 8.161647e-07 4.3017315e-10 1.8143678e-10 1.5581202e-06 1.9503479e-09 0.00023421127
0.00023264879 3.548033e-12 1.5499049e-07 2.2717662e-08 4.737608e-15 1.143805e-12 1.0023243e-13 8.1589707e-07
4.3230966e-10 1.8231423e-10 1.557624e-06 1.9528137e-09 0.00023426214 0.00023270618 1.8381123e-13 4.636747e-09
6.905995e-10 1.431141e-16 3.4552117e-14 3.0278283e-15 2.4622686e-08 3.3840413e-11 1.435407e-11 4.704628e-08
1.8281418e-10 6.8576164e-06 6.849263e-06 1.85684e-13 4.6566817e-09 6.9358896e-10 1.4318105e-16 3.456832e-14
3.0292463e-15 2.4634243e-08 3.401362e-11 1.4425742e-11 4.7067974e-08 1.836757e-10 6.859327e-06 6.852143e-06
5.943388e-13 3.028614e-09 4.1358555e-11 1.5939276e-17 3.8482303e-15 3.3722338e-16 2.5640228e-09 1.5916453e-10
6.78427e-11 5.193923e-09 9.80548e-10 2.528314e-07 1.2937264e-07 6.0304284e-13 3.0847491e-09 4.1803123e-11
1.6177719e-17 3.9058023e-15 3.4226794e-16 2.605292e-09 1.6000017e-10 6.8190335e-11 5.2714144e-09 9.821121e-10
2.5881997e-07 1.3233698e-07 6.439154e-14 2.1367098e-10 1.0727558e-11 2.4277716e-18 5.8613854e-16 5.136369e-17
3.9981976e-10 1.6357539e-11 6.88762e-12 7.934191e-10 7.629239e-11 7.918444e-08 7.729864e-08 6.5313606e-14
2.2608314e-10 1.0871829e-11 2.4762152e-18 5.9783607e-16 5.238868e-17 4.0820047e-10 1.6440035e-11 6.9213246e-12
00000000: 3d3d 002a fddc 3731 8d41 f62d f5f0 4623
00000010: 939e 3b27 9f87 8325 cdc5 fc30 59c0 f82d
00000020: 0bba 502d 923d 7231 af8d 142f 379d 9c32
00000030: 495a 8032 c144 022a 2548 4231 818e 002e
00000040: 824e 5223 9156 4627 4c0b 8b25 3db5 0531
00000050: d001 fa2d 8abf 512d 570f 8031 9d51 152f
00000060: 30ee a532 dd31 8232 125c f82a 0958 bd31
00000070: 020a a72f fcd1 b124 44b3 a728 7b21 eb26
00000080: a8d7 6232 e92d e62e 4afa 412e c542 d932
00000090: a965 fd2f 35cf 6636 18dc 5436 f4b1 fb2a
000000a0: 69ef bc31 f574 a72f a9de b124 3bbf a728
000000b0: 4632 eb26 c9e6 6232 0053 e72e 12ea 422e
000000c0: 3951 d932 3274 fd2f d877 6736 cd5d 5536
000000d0: 03c6 cf2b 266d e933 14e9 2432 1425 2327
000000e0: 2bdc 192b aeb9 5729 877e d134 a639 222f
000000f0: 1bac 892e c5c2 4735 53b0 3230 9151 e538
00000100: d30d dd38 f604 d12b 0be4 e833 0c75 2532
00000110: 472d 2327 dae3 192b a1c4 5729 0989 d134
00000120: ed04 232f a454 8a2e c4cc 4735 ec4b 3230
00000130: 0687 e538 425d dd38 4f0b 8c2b 3177 eb30
00000140: c6fb 032e e786 3123 8c6c 2727 3abe 6a25
00000150: a9f5 b830 71d9 912f 116a f82e 86e3 5431
00000160: c721 c930 fa3b 7c32 82b9 0d32 8a1f 8e2b
00000170: 6e4b 0c31 8e88 112e 718e 4823 6524 3d27
00000180: d598 8425 7e9f d630 a09b 922f 2cac f92e
00000190: ffef 7031 4e1b c930 bb95 8632 913b 1232
000001a0: 5b3b 5b2b 4bf6 9b33 3038 c131 a2a4 c226
000001b0: cf90 b72a 1eb0 0029 4607 7a34 3bab 9b2e
000001c0: 10bb 032e 764c ee34 54c1 b82f 144d 8638
000001d0: 10f2 8238 3874 5c2b 6133 9c33 2ddb c131
000001e0: fde3 c226 9acc b72a 01da 0029 a058 7a34
000001f0: 5472 9c2e 8d5f 042e 009a ee34 78d6 b92f
00000200: 8c69 8638 4f11 8338 b734 b52b d773 0232
00000210: cffa 5a2f c87e 9324 e319 8b28 1f08 c326
00000220: f1c0 3632 b772 bb2f caf9 1e2f ffc2 b332
00000230: cb1a 0331 8829 f135 c189 f135 5dd5 b72b
00000240: e3ac 0632 3592 5d2f 97f2 9524 ed69 8d28
00000250: 5446 c626 c1e7 3932 d26b bc2f fcc7 1f2f
00000260: f2be b632 e24d 0331 4c4f f235 79ca f135
00000270: a1f4 772c 1103 2734 7c6c c232 c2be aa27
00000280: 2d07 a12b 8dc6 e129 6916 5b35 7d7d ec2f
00000290: ea7d 472f 9a20 d135 e206 0631 9c96 7539
000002a0: 2ff3 7339 aeab 792c 766b 2634 ab24 c332
000002b0: b9b0 aa27 ebf9 a02b 10b4 e129 0504 5b35
000002c0: 2daa ed2f e574 482f 8e0f d135 4332 0631
000002d0: 44a4 7539 9702 7439 fbf3 4e2a 4251 9f31
000002e0: 9fd4 3d30 d4ff 2425 e19b 1b29 932d 5a27
000002f0: dc81 d332 ebd4 142e fc84 7c2d ef0f 4a33
00000300: 9e01 492f 7a1a e636 b9d2 e536 c50f 512a
00000310: 9b00 a031 fca6 3e30 9613 2525 8fae 1b29
00000320: bb47 5a27 469b d332 ee97 152e c4c7 7d2d
00000330: c927 4a33 1df4 492f 2c29 e636 76eb e536
00000340: a04a 272b f11f 5031 98e5 352e 8d03 9323
00000350: a9a5 8a27 6365 c225 c432 3031 d500 2f2f
00000360: 0b30 952e 3b76 b231 f7c3 8630 e2bc 8734
00000370: aee9 0a34 d1bd 292b 7bfb 5331 22da 372e
00000380: 8f36 9523 abb8 8c27 d54d c525 c808 3331
00000390: 0bec 2f2f bff3 952e da1f b531 fffa 8630
000003a0: f2f3 8a34 8318 0e34 32ff 9029 09ef 6a2f
000003b0: a0b8 3c2d 4f23 3322 64f1 2826 8bdf 6c24
000003c0: a1cd db2f e7e1 8f2d 2a56 f22c e817 5a30
000003d0: ccc4 a72e 1b0c aa33 60ff a533 bb12 9329
000003e0: bf94 782f 5d42 3f2d 62b6 3622 8450 2c26
000003f0: a399 7124 1c69 e02f ab9b 902d c085 f32c

exp_avg f4 [128]
-1.7859021e-06 1.6711851e-06 -0.0001837747 6.447677e-07 -0.0002539215 1.040205e-05 0.0004782261 -6.963641e-05
2.1690289e-07 -8.674927e-06 -0.00046803168 -9.442981e-06 -0.00016821535 0.00026525752 -0.0002593567 9.268774e-05
-9.089973e-07 1.694113e-05 2.4533716e-05 3.849955e-06 4.552667e-05 -0.000125298 -0.00018091903 -8.245267e-06
-1.1828025e-06 0.00014073787 0.00014254353 -3.84921e-06 -0.0001010555 -1.9779958e-05 0.00027367787 -0.000102256956
-0.00025808095 -0.00023503511 -1.236282e-05 -0.00022599615 -3.9500737e-06 7.4120486e-05 0.00031194737 4.573643e-05
0.0004033294 8.9209396e-05 0.00026269726 0.00063376233 -3.372176e-05 0.0001307561 -5.105665e-06 3.3201e-06
0.000101219244 2.2937118e-06 -5.0594652e-05 -7.4036916e-07 -7.895309e-05 8.512495e-05 0.00013641547 -6.0451017e-05
-0.00015619902 -9.830768e-06 -9.870582e-06 2.7259233e-07 1.6501923e-05 0.00016376603 8.60505e-05 0.00016264798
-1.2397098e-05 -5.704094e-05 0.00020048562 1.3744037e-05 6.505468e-05 1.5497742e-05 -0.00010526443 -1.0587605e-05
2.6941274e-05 0.00036930735 -3.261651e-06 -5.733223e-05 2.147527e-06 0.00040821097 0.0007560414 0.00012363566
-1.877649e-06 -7.449796e-05 -1.403956e-06 -2.4263221e-05 2.2786126e-05 9.849421e-05 3.0272433e-05 0.00017725553
-0.0002607666 0.00018414922 -0.00020412936 0.00012322998 9.6847005e-05 -0.00016075512 -8.290063e-06 0.00010231575
-3.8744813e-05 2.8005495e-06 -5.5050805e-06 0.00010337065 -8.315289e-06 -8.01413e-05 -1.285916e-07 -9.005774e-07
-0.00045118414 0.00014329626 -2.3377586e-06 3.484459e-06 1.2745887e-05 -2.8592879e-06 0.00014940677 -2.9731532e-06
0.00026305515 -0.00023190092 -6.1152895e-07 -4.8661823e-05 0.00040935236 0.00017179722 -2.3673425e-05 1.0163521e-05
-0.00025718883 -7.3034703e-06 -4.679801e-05 -1.1191534e-05 -9.507452e-05 -9.857827e-06 1.1319007e-06 0.00079067546
00000000: 21b3 efb5 7c4d e035 a5b3 40b9 1914 2d35
00000010: c420 85b9 7784 2e37 6cba fa39 c309 92b8
00000020: d0e5 6834 878a 11b7 2662 f5b9 4b6d 1eb7
00000030: f762 30b9 4312 8b39 44fa 87b9 5a61 c238
00000040: d201 74b5 cd1c 8e37 c1cd cd37 dd2e 8136
00000050: e4f3 3e38 6d62 03b9 15b5 3db9 2755 0ab7
00000060: c9c0 9eb5 0993 1339 bd77 1539 7628 81b6
00000070: c2ed d3b8 23ed a5b7 6c7c 8f39 c972 d6b8
00000080: 0a4f 87b9 c273 76b9 e869 4fb7 61f9 6cb9
00000090: e08a 84b6 2271 9b38 de8c a339 1ed5 3f38
000000a0: f575 d339 ee15 bb38 a1ba 8939 1223 263a
000000b0: 7770 0db8 931b 0939 5451 abb6 e2ce 5e36
000000c0: ab45 d438 abed 1936 9835 54b8 c8bd 46b5
000000d0: 9e93 a5b8 1c85 b238 c00a 0f39 c98c 7db8
000000e0: 5bc9 23b9 d4ee 24b7 d499 25b7 ce58 9234
000000f0: 9c6d 8a37 9cb8 2b39 0376 b438 7c8c 2a39
00000100: 21fd 4fb7 3e3f 6fb8 7339 5239 3096 6637
00000110: f76d 8838 2601 8237 69c1 dcb8 6ba1 31b7
00000120: f2ff e137 989f c139 bde2 5ab6 0378 70b8
00000130: 3c1e 1036 2605 d639 1431 463a 32a4 0139
00000140: 8703 fcb5 ca3b 9cb8 906f bcb5 df88 cbb7
00000150: d524 bf37 ad8e ce38 8ef1 fd37 abdd 3939
00000160: 80b7 88b9 2e18 4139 8f0b 56b9 4c37 0139
00000170: 571a cb38 6090 28b9 8d15 0bb7 5a92 d638
00000180: ed81 22b8 13f1 3b36 48b8 b8b6 b2c8 d838
00000190: e581 0bb7 8811 a8b8 fd12 0ab4 35bf 71b5
000001a0: e98c ecb9 cc41 1639 63e2 1cb6 8dd6 6936
000001b0: 2bd7 5537 31e2 3fb6 13aa 1c39 6286 47b6
000001c0: aaea 8939 6e2a 73b9 f327 24b5 3c1a 4cb8
000001d0: 589e d639 7724 3439 4b96 c6b7 fe83 2a37
000001e0: 4dd7 86b9 5510 f5b6 fb48 44b8 46c3 3bb7
000001f0: bf62 c7b8 0b63 25b7 d0eb 9735 5545 4f3a
