AIRocketLanding/Assets/Models/Again 1/3/AIRocket-39499959.onnx (onnx, 84776 bytes, 9 tensors)

action_model._continuous_distribution.log_sigma f4 [1, 2]
000000 c4 d2 7a c0 8d e5 8e c0
       -3.919114 -4.4655213

action_model._continuous_distribution.mu.bias f4 [2]
000000 b8 fe fe 39 1f 19 88 bc
       0.00048636436 -0.016613541

action_model._continuous_distribution.mu.weight f4 [2, 128]
000000 3f b7 a1 3c aa 6d 1a 3d 39 42 48 3d e0 8d b8 3b
       0.019740699 0.03770224 0.04889128 0.005632147
000010 ae bc b9 3c 7d 9a 16 bd e1 e8 e9 3c 32 4c 97 3c
       0.022672977 -0.036768425 0.028553428 0.01846895
000020 88 65 eb 3c 23 cf c4 3c 5c d6 4f 3c fc ee 3b 3c
       0.028734937 0.024024552 0.012685385 0.0114705525
000030 da d0 bf 3c 3a a7 35 3d 62 69 2c 3d ad 72 24 3d
       0.023415018 0.044348933 0.04209269 0.040148426
000040 1d 73 9c 3b 80 34 9c 3c a6 70 7c 3c 1c 00 49 3d
       0.0047744648 0.019068003 0.015407717 0.04907237
000050 3b 94 1a 3d d9 fc ed 3c 65 01 b1 3c 93 98 52 3d
       0.03773902 0.029051231 0.02160711 0.051415037
000060 c0 29 3a 3d 64 82 40 3d 52 9e 99 3c 8d a2 8f 3c
       0.045449972 0.04699935 0.01875225 0.017533565
000070 ef 96 c5 3d d3 12 77 bc 11 e9 b3 3c a3 bc 45 3c
       0.09647929 -0.015080172 0.02196172 0.0120689
000080 0f fd bf 3c a0 1f e7 3c 7a 7f d8 3c d6 73 aa 3c
       0.023436097 0.028213322 0.026427973 0.020807188
000090 e1 8a 4b 3d 00 15 86 3c 7e 4f 06 bc bd 9a e5 3b
       0.049692992 0.016367435 -0.008197663 0.0070069716
0000a0 dc d2 84 3c 30 87 d4 bc da f4 04 3d b4 a8 ef 3c
       0.016213827 -0.025943369 0.03246007 0.029255249
0000b0 ed e7 45 bc 81 9f e1 3c 4d cf 5b 3c 7c 8f b3 3c
       -0.012079221 0.027541878 0.013416124 0.021919005
0000c0 71 72 0b bb 6a 18 d4 3c 8a 1d 6d 3d 3c 5d 70 3c
       -0.002127793 0.025890548 0.0578895 0.014670666
0000d0 be 28 3f 3c e6 fe b7 3c 64 d4 11 bc 6a 39 db 3c
       0.011667429 0.022460412 -0.0089007355 0.026760776
0000e0 01 7e fa 3c 7b 0f 8c 3c 16 0e 30 3d dd ca 0b 3d
       0.030577661 0.017097225 0.042982183 0.034129012
0000f0 3a 7b 19 3c db 1c 98 3d 61 53 3e 3c 5e 10 ab 3b
       0.009367758 0.07427379 0.011616559 0.005220457
000100 20 09 21 be 2c c2 c3 3c 17 a3 bf 3c 81 ae a4 bc
       -0.15726137 0.0238963 0.023393197 -0.020102741
000110 36 11 07 3d 51 fc d3 ba 04 ae 4c bc 8f e7 15 3d
       0.032975398 -0.0016173219 -0.01249266 0.036597785
000120 86 e6 e8 3c 5e 0b af 3d 60 27 05 3d 03 77 11 3d
       0.028430235 0.0854709 0.032508254 0.03551389
000130 e1 70 a7 3c b1 2e 31 3d 88 83 2b 3d a3 f1 36 3c
       0.020439567 0.04325742 0.041873485 0.011166009
000140 25 d9 53 bd c9 f3 c4 3c e7 ac 9e 3c 1c dc a6 3d
       -0.051720757 0.024042027 0.019369556 0.08147451
000150 18 37 0a 3d cc 1b 42 3d 3d 06 a8 3c ad 38 56 3d
       0.033743948 0.04738979 0.020510787 0.052300144
000160 08 8c 5d 3a e1 47 fb 3c 49 63 b2 3c c4 3c 2a 3d
       0.0008451347 0.030673923 0.021775858 0.041561857
000170 b9 16 8a 3c 47 13 8b 3c 87 3d 8f 3c 73 bc 83 3c
       0.016856538 0.016976966 0.017485393 0.01608107
000180 b7 05 45 3d 01 d2 2a 3d de bb 5c bd 8c 24 8e bd
       0.048101153 0.04170418 -0.0538901 -0.069405645
000190 6c a3 c0 bd 47 cc 33 3d ff d2 39 3b 3f 20 25 3d
       -0.0940617 0.043895986 0.0028354523 0.040313955
0001a0 1a d4 01 3d 18 36 d6 3c e1 c8 15 3d a2 3b 26 3d
       0.031696416 0.02614884 0.036568526 0.040584214
0001b0 69 e1 6b 3c b3 b9 12 3c b9 27 0c 3d 74 52 51 3d
       0.014397004 0.008955407 0.03421757 0.051104024
0001c0 92 d8 0d 3d f1 ac aa bc 39 67 29 3d 96 97 83 3c
       0.034630366 -0.020834418 0.041358206 0.016063493
0001d0 a1 7d 48 3c ab 8e cd 3c 04 76 c0 3b 85 b3 00 3d
       0.0122369835 0.025092443 0.0058734436 0.031421203
0001e0 18 35 20 3d 06 97 bd 3c 0b c4 5c bb ff db 80 3c
       0.039113134 0.023143303 -0.0033686187 0.015729902
0001f0 b6 7e a7 3c cd e8 b5 3c 29 44 41 3d 57 ed 7e 3d
       0.020446163 0.022205735 0.047184143 0.062238064
000200 97 90 34 3b 86 6c 7e 3c 69 36 fa 3b 21 45 68 ba
       0.0027552003 0.015528804 0.0076358807 -0.00088603987
000210 07 ca 50 3b 48 8b 11 bd e2 54 16 bb 84 6c 02 3c
       0.00318587 -0.03553322 -0.0022938778 0.007960442
000220 5f 71 07 3c 85 93 05 39 7b 3d 5c 3c e8 66 b6 3c
       0.008266776 0.00012738824 0.013442392 0.022265866
000230 08 e1 17 bc 32 52 7f 3b 50 99 98 3b a7 ee ba 3b
       -0.00926996 0.0038958904 0.004656948 0.005704719
000240 38 7b c0 3b 71 b8 61 3c 1d b1 ac 3c 3b b1 5d 3c
       0.005874064 0.013776884 0.021080548 0.013531025
000250 43 c1 5c 3c 9d ef b3 bc e4 af b3 3b ed ea c2 bb
       0.013473812 -0.021964842 0.0054836143 -0.0059484155
000260 ee 6a 63 3c 43 59 19 3c dd 5d 1f 3c ea 30 58 3d
       0.0138804745 0.009359661 0.009726969 0.052781023
000270 b2 b0 fe 3b af 95 ec bc c3 52 cc 3a d3 76 9f 3c
       0.0077725286 -0.028879968 0.001558863 0.01946584
000280 89 89 bc 3c d2 c0 eb 3b 79 08 8a 3c 23 28 90 3c
       0.0230148 0.007194617 0.016849743 0.017597264
000290 43 36 5b 3c 7d 01 87 bb 61 28 75 bc 6b f8 42 3c
       0.013379636 -0.0041200505 -0.01496324 0.011900048
0002a0 a5 fd 94 b9 19 00 c4 bb 93 30 8b 3c 7c 4c 32 3c
       -0.0002841774 -0.005981457 0.016990935 0.010882493
0002b0 a2 0e dc bc de 26 ac b9 5f ff 83 3b 53 f4 27 ba
       -0.026862446 -0.00032835355 0.0040282453 -0.00064069516
0002c0 e8 40 94 39 c6 5f 77 3c 22 58 91 3c 2d 0c a3 3b
       0.0002827712 0.015098518 0.01774222 0.0049758167
0002d0 71 c1 b1 3c c3 44 b5 3b 05 32 b0 bc 4a c8 69 3c
       0.021698685 0.0055318787 -0.021508226 0.014268944
0002e0 b6 83 f0 3c 4a 92 70 bb a2 48 ea 3b 12 5b e4 3b
       0.02935968 -0.0036708289 0.007149772 0.0069688642
0002f0 d5 a4 4e 3c 53 aa 8f 3b 34 98 4b 3c 02 6b 17 bd
       0.012612541 0.004384318 0.012426425 -0.036967285
000300 ef 87 be bd 06 2a 35 b9 e6 3c 3c 3c 2d 19 d4 bc
       -0.09303271 -0.0001727716 0.011489129 -0.025890911
000310 5e d3 88 3c 43 74 d6 bb 8b ab ba bc a5 d5 4d bc
       0.01670235 -0.006544621 -0.022786876 -0.012563144
000320 91 31 89 3c af 37 86 bd ad c4 34 3c fc ee 4f 3c
       0.016747268 -0.065535896 0.011033219 0.012691256
000330 7a 63 4b 3b ea 80 b9 3c dd 7e 82 bb 26 ff 6b 3b
       0.0031034634 0.022644479 -0.0039824084 0.0036010235
000340 1c 96 04 bd 50 13 8f 3c 58 ad 04 3c 81 45 9e 3c
       -0.032369718 0.017465264 0.008097969 0.019320251
000350 5b 76 95 3b 23 1f ff 3b b6 c6 6f 3c df 4a 89 3c
       0.004561228 0.007785694 0.014634779 0.016759334
000360 8a 69 b0 bc cc a5 31 bb f9 44 40 3c bb 8f 76 3c
       -0.0215347 -0.002710688 0.011735194 0.015048916
000370 ff 6f 02 3b e3 f6 17 3c ad 8c 87 3c cc e3 76 3b
       0.001990318 0.009275171 0.016546572 0.0037672399
000380 10 9b f5 3b 3a da 44 3b 61 48 e4 bc a9 eb ed bb
       0.0074952915 0.00300373 -0.027866544 -0.007260759
000390 0d df c8 bc 6e 7b f3 3b 18 bb a3 bb ff 87 6c 3a
       -0.024520421 0.0074304854 -0.0049966685 0.00090229505
0003a0 ca 55 0a 3c d0 1c 0d 3c c9 c9 20 ba 2b 26 f8 3b
       0.008443305 0.0086128265 -0.0006133584 0.0075729094
0003b0 b6 fa 09 3c 4b 89 86 bb f5 1d 26 3c 45 f9 e8 bb
       0.008421591 -0.004105722 0.010138978 -0.0071097934
0003c0 d3 e1 97 3a 07 4b c7 bc d7 86 79 3c f9 e4 2a bb
       0.0011587687 -0.024327768 0.015229902 -0.002607642
0003d0 4c d4 26 3c 66 07 ca 3b f4 86 39 bb ba f2 1d 3c
       0.010182451 0.0061654327 -0.0028309198 0.00964039
0003e0 7d 56 aa 3c bb 66 26 3c ba 13 69 bb dd 41 02 3d
       0.020793194 0.010156329 -0.0035564736 0.031801093
0003f0 d9 0a c9 3b 4f f0 63 bc c4 cd 22 3c 64 01 6a 3c
       0.0061353263 -0.0139122745 0.009936754 0.014282558

action_model._discrete_distribution.branches.0.bias f4 [2]
000000 f3 03 b2 be fc 03 b2 3e
       -0.34768638 0.34768665

action_model._discrete_distribution.branches.0.weight f4 [2, 128]
000000 fb 20 86 3e 18 a4 09 3e 83 48 80 be d3 bd 6e bb
       0.26197037 0.13441503 -0.25055322 -0.0036429062
000010 e6 2d cb be e8 77 f2 3d c6 7a 88 be 52 19 c4 3c
       -0.39683455 0.118392766 -0.2665617 0.023937855
000020 fa bc 7f 3d 02 ba c6 3d 54 3b 8c 3e 09 9f 5d 3e
       0.06243608 0.09703447 0.27389014 0.21642698
000030 03 16 cd 3d 0e 5c 47 3e 9d 5c d6 bd 83 39 e1 be
       0.10013964 0.1946871 -0.10466883 -0.4398919
000040 0a 0b 08 be a8 91 c4 3e 74 e8 b5 3e 56 1b 9f 3d
       -0.13285461 0.38392377 0.3552891 0.07768886
000050 ca bb bf 3d 1d 8d 04 be 7b 46 a3 bc 3b 53 96 3e
       0.0936199 -0.12944455 -0.019931069 0.29360375
000060 55 2a b6 3d d9 12 17 be ff a3 a3 3d a4 e6 13 3e
       0.08894793 -0.14753284 0.07990264 0.14443451
000070 2d 03 79 bd d5 f9 ba 3e e7 39 50 be e4 95 fa 3d
       -0.060794044 0.36518732 -0.20334588 0.122356206
000080 f9 b2 9e 3e fb 13 24 be f1 2e 78 3e 63 f7 e4 3d
       0.3099592 -0.16023247 0.24236657 0.11179998
000090 2e ae d7 3d 1d 3d b3 bd 39 06 9b 3e 09 3d 29 bf
       0.10531269 -0.08751891 0.30278185 -0.6610876
0000a0 af 12 2a be 23 39 6f be 78 9a f5 3d 03 54 16 3e
       -0.1660869 -0.2336164 0.11992353 0.14680485
0000b0 11 8d d4 3e cb 84 c4 bd 83 cc 83 bb 78 d0 50 3b
       0.41513875 -0.09595641 -0.0040221824 0.0031862538
0000c0 dc 52 04 3f 12 35 c4 3d 75 09 ab bc 44 ee c0 3c
       0.51688933 0.09580435 -0.020878533 0.023551114
0000d0 f2 bb d0 3e b0 3c 97 bc ed a4 00 3e 85 fd 4e 3e
       0.4076839 -0.018461555 0.12562914 0.20213898
0000e0 55 c0 f7 3e 44 3e 5a be 63 3d 53 3e 8c 99 89 be
       0.48388925 -0.21312815 0.20628886 -0.2687496
0000f0 e1 27 8a 3e 8c 47 27 be 36 6b 61 be 31 3b f3 bc
       0.2698355 -0.16335887 -0.22013554 -0.02969131
000100 e8 77 16 bc df 82 17 be 01 27 bc 3e 74 85 1d 3e
       -0.009183861 -0.14796017 0.36748508 0.1538294
000110 a3 cc 32 be 08 af 57 3c 87 de 75 be 4c 52 50 be
       -0.17460875 0.013164289 -0.24010669 -0.20343894
000120 f9 30 de 3d 2e fc 52 3e 3b e5 48 3e 18 6d 1b be
       0.108491845 0.20604011 0.19618694 -0.15178335
000130 91 17 3b be ff 7b ac 3d b6 b7 7d 3e 06 99 d6 bd
       -0.18270709 0.08422088 0.24777111 -0.10478406
000140 2e a2 37 be 0e 4a 76 3d 1d 1e ad be c3 38 2f 3e
       -0.1793296 0.060129218 -0.33812037 0.17111497
000150 96 03 98 be 3a 55 59 be 72 be 12 bd c3 0e fd 3e
       -0.29690236 -0.21223918 -0.035826154 0.49425325
000160 0d 20 ba 3d 91 61 1d be a0 d4 ae 3e a6 b0 29 be
       0.090881445 -0.1536925 0.34146595 -0.16571292
000170 18 89 3b 3f b4 78 91 3e a2 a6 20 be ad 39 1f 3f
       0.73256063 0.28412402 -0.15688565 0.6219738
000180 7d 9a 7d 3e 85 e6 0c 3e 77 9f 67 3e 74 a3 97 3e
       0.24765964 0.13759811 0.22619425 0.29616892
000190 ca 03 eb be b5 06 58 be d8 42 64 3e c8 cf d2 be
       -0.45901328 -0.21096309 0.22291124 -0.4117415
0001a0 44 a9 b5 3e 40 fa 2e 3f f3 fe ea 3d 32 62 54 3d
       0.35480702 0.683506 0.11474409 0.05185146
0001b0 94 7b 4d 3d 6d 6b eb 3d 27 07 9a be 72 30 0b bd
       0.05016668 0.11495099 -0.30083582 -0.033981748
0001c0 54 39 68 3e 02 e6 a8 3d 95 ba 9f 3e 9a fb 9c bc
       0.22678119 0.082469955 0.31197038 -0.019162942
0001d0 17 80 8e 3e fa e8 37 be 69 ce 12 3e 3c fd b4 bc
       0.278321 -0.17959967 0.14336552 -0.022093408
0001e0 d0 ea aa 3e d0 ca ae 3e 8b 6a 99 be ff e9 28 3e
       0.33382273 0.3413911 -0.29964098 0.16495512
0001f0 bc 09 75 3f 87 68 8d 3e 8c aa 61 3e 5e 06 e3 bd
       0.9571798 0.2761881 0.22037715 -0.11085199
000200 b9 3f 85 be 50 4e 08 be 86 0a 7a 3e 62 9b 5c 3b
       -0.2602518 -0.13311124 0.24418077 0.0033661951
000210 18 87 c7 3e 92 58 e2 bd 43 6f 7e 3e 7a b7 23 bd
       0.38970256 -0.1105205 0.2484713 -0.0399699
000220 1c 7a 84 bd b5 a5 d3 bd ba 59 85 be 00 1e 64 be
       -0.06468603 -0.103343405 -0.26045018 -0.22277069
000230 7f 7f d0 bd 7e 62 3f be ba a0 b3 3d d6 00 dc 3e
       -0.10180568 -0.18689916 0.087708905 0.42969388
000240 00 11 0f 3e 8e 18 bc be 03 24 c2 be 65 c6 9c bd
       0.13971329 -0.36737484 -0.379181 -0.07655028
000250 6c 14 e8 bd 9f 1c 03 3e 66 7c 93 3c 0a de 94 be
       -0.1133202 0.12803887 0.018003654 -0.29075652
000260 b1 f7 8d bd 49 49 29 3e ed 8b aa bd 64 55 0a be
       -0.06932009 0.16531862 -0.0832747 -0.13509136
000270 58 44 69 3d 0b 3f bb be a7 26 57 3e 62 9a e8 bd
       0.056949943 -0.36571535 0.21010838 -0.11357571
000280 10 70 9b be 21 1f 15 3e 8e b2 75 be f6 d8 f6 bd
       -0.30358934 0.14562656 -0.23993894 -0.12053101
000290 50 75 ee bd 5f 67 a8 3d c2 5a 98 be 1c d7 2b 3f
       -0.11643469 0.082228415 -0.29756743 0.67125106
0002a0 ee ee 1d 3e 87 ca 7d 3e 78 f6 ef bd 1c c8 14 be
       0.15423176 0.2478429 -0.11716932 -0.1452946
0002b0 49 bb d9 be f5 9b d0 3d 9c 96 a0 bc a0 11 76 bc
       -0.425257 0.101859964 -0.019603066 -0.015018851
0002c0 2b 76 05 bf b7 70 a0 bd 43 0d e5 3c 80 e4 9e bc
       -0.52133435 -0.07833999 0.027960425 -0.019396067
0002d0 5f 1a d7 be 16 3e 7c 3c 2b 15 e7 bd 73 65 65 be
       -0.42012307 0.015395662 -0.11283334 -0.22401981
0002e0 af f3 fc be 2f f7 58 3e d2 14 41 be 69 76 7d 3e
       -0.49404666 0.21188043 -0.18855599 0.24752201
0002f0 d5 f1 91 be 8f 26 17 3e a8 dd 5f 3e cb e5 0f 3d
       -0.28504816 0.14760803 0.21861899 0.035131257
000300 ec f0 98 3c 91 26 1a 3e 9b 78 b9 be 56 19 24 be
       0.018669568 0.15053774 -0.36224827 -0.1602529
000310 79 f0 36 3e c7 e9 95 bc ae 28 77 3e 54 f4 61 3e
       0.1786517 -0.01829995 0.24136612 0.2206586
000320 7a 8e f6 bd 36 1c 65 be 49 8d 4a be 62 3d 14 3e
       -0.12038894 -0.22374043 -0.19780459 0.1447654
000330 70 5a 3a 3e 16 23 ab bd fb 29 82 be a2 43 d3 3d
       0.18198562 -0.083563015 -0.25422654 0.10315634
000340 6b 16 39 3e 18 d8 4c bd f6 08 a9 3e af cf 2f be
       0.18074958 -0.05001077 0.3301465 -0.17169069
000350 45 3e 9b 3e aa f3 72 3e 3c 3c c9 3c c6 30 03 bf
       0.30320945 0.23725763 0.024564855 -0.512463
000360 74 b3 a3 bd df 9e 13 3e 08 87 aa be 50 f4 35 3e
       -0.07993212 0.14416073 -0.33306146 0.17768979
000370 5c de 3b bf 8e 9b 9c be 7f a7 0e 3e 44 1d 1b bf
       -0.7338617 -0.3058743 0.13931082 -0.6059153
000380 17 6f 7c be 37 de dc bd 52 1e 55 be 68 74 9b be
       -0.24651752 -0.107845716 -0.20812348 -0.30362248
000390 2e 45 e5 3e 63 60 5b 3e 5b 5c 5a be 63 28 ca 3e
       0.44779342 0.21423487 -0.21324293 0.39483938
0003a0 86 8d aa be 5d 8b 33 bf b0 fa f5 bd 53 57 67 bd
       -0.333111 -0.70134526 -0.120107055 -0.056479763
0003b0 86 c1 5b bd ef 2b e3 bd 60 c5 8d 3e 3b 12 ac 3c
       -0.053651355 -0.11092364 0.27689648 0.021004787
0003c0 00 25 78 be e1 0f 94 bd 09 7d 9e be 10 07 94 3c
       -0.24232864 -0.07229591 -0.3095477 0.018069774
0003d0 8c c0 8e be 68 7a 35 3e a1 cf 18 be 15 ab 1e 3d
       -0.27881277 0.17722476 -0.14922954 0.038737375
0003e0 53 3e ad be 95 a6 a7 be 74 a4 a0 3e 21 1a 1c be
       -0.33836612 -0.3274428 0.31375468 -0.15244342
0003f0 31 23 75 bf f8 df 86 be 16 44 5c be c7 e6 9e 3d
       -0.9575682 -0.2634275 -0.21510348 0.07758861

network_body._body_endoder.seq_layers.0.bias f4 [128]
000000 55 19 54 3e 54 92 8b bc 43 6f af 3c f1 7d b6 bd
       0.20712788 -0.017037548 0.021415358 -0.0891074
000010 3a 9f 0e 3e 2c 1f 1f 3c 7c 37 88 3d 8b 48 3a 3d
       0.13927928 0.009712022 0.06651208 0.04547934
000020 37 c3 80 bd 2e db ea 3c 09 24 3a be 8c f8 33 3d
       -0.06287234 0.028668966 -0.18177809 0.043938205
000030 9f 42 d5 be ae e7 1a be ad 83 0e 3d ac 6c 6d be
       -0.4165239 -0.15127441 0.034793545 -0.23185986
000040 14 01 36 be e6 6c e8 bd 89 68 5c bd c0 08 26 be
       -0.17773849 -0.11348896 -0.05381063 -0.16214275
000050 0b 15 21 be 23 6c 5f 3d d8 8d 4c bc 34 3a 03 be
       -0.15730684 0.054546487 -0.01248499 -0.12815171
000060 b1 7f 1c be 5e 45 49 bd dc 81 3e 3e 5f 09 0c 3e
       -0.15283085 -0.04913842 0.18604225 0.1367545
000070 fe 13 1f be c5 f7 a3 be be 9b 85 be a5 37 d0 3d
       -0.1553497 -0.3202497 -0.26095384 0.10166863
000080 b6 96 05 be a0 57 d9 bd 5f cf 43 3b 4e 35 52 3d
       -0.13045773 -0.10612416 0.0029878241 0.051320367
000090 b2 07 57 be f6 19 67 bd 2e 05 6e 3e 01 67 42 3e
       -0.2099903 -0.056421243 0.23244163 0.18984605
0000a0 9c fe de 3d c9 d6 b8 be ed 80 54 be bd f0 ce bd
       0.10888407 -0.36101368 -0.20752306 -0.10104511
0000b0 84 cf a0 be 52 09 89 be 2f 2a 85 be 3d 66 5a 3e
       -0.31408322 -0.26764923 -0.26008746 0.21328063
0000c0 86 38 9a bd 95 e3 dd 3d e2 0c a7 be 8b 9f cf bd
       -0.07530312 0.108344235 -0.32627016 -0.10137852
0000d0 40 9d 49 3d f7 4c 14 be 13 ea a1 be 08 43 3c 3c
       0.04922223 -0.14482485 -0.31623897 0.011490591
0000e0 06 9d 58 be 87 d0 97 3d 9b a5 01 be a7 fa ec bb
       -0.2115365 0.0741282 -0.1266083 -0.0072320285
0000f0 52 ba 05 bd 8d a5 9f bc 18 cc be be 25 40 97 bd
       -0.032648392 -0.01948812 -0.37265086 -0.073852815
000100 ee 5e 70 be 95 8f a4 be f4 b8 14 bd 47 47 0d bd
       -0.23473713 -0.32140794 -0.036309198 -0.034491803
000110 26 43 f4 3d a2 7e 8c be 47 96 ef 3c d3 90 74 be
       0.1192687 -0.27440363 0.029246463 -0.23883371
000120 ee 85 ce bc 61 46 2c be 4f bc 0f 3d b9 5a 1b bd
       -0.025210347 -0.16823722 0.035091694 -0.037928317
000130 09 18 56 be fe 2e 5c bd 95 8e 90 3d e1 ab c3 bc
       -0.20907606 -0.053755753 0.07058445 -0.02388567
000140 04 b4 a6 bd c4 37 57 3d 7b c1 22 be da b4 54 3e
       -0.08139804 0.052543417 -0.1589412 0.20772114
000150 7f fa 97 be c9 69 13 3e 31 92 7a 3e 4c 57 6c be
       -0.296833 0.14395823 0.2446983 -0.23080176
000160 00 e1 1a 3e c8 fe 9f bc 7f 36 6d 3e 13 17 3e 3c
       0.15124893 -0.019530669 0.2316532 0.011602181
000170 ae 05 e6 3d 3e ef a4 3c 72 5e b6 be 5b a6 96 bc
       0.11231552 0.02013361 -0.3561893 -0.018389871
000180 e7 db 2c bd 34 8c 86 be 92 98 6f 3e a9 aa 39 bd
       -0.042201903 -0.26278841 0.23398045 -0.04532877
000190 a3 92 8c be 58 93 73 be 26 8d 0a 3d 7b 01 b5 3d
       -0.27455625 -0.23786676 0.033826016 0.08838173
0001a0 6f 22 e6 bc ce 1e 39 be 89 d2 bb 3d 6a df 89 3c
       -0.028092591 -0.18078157 0.09171016 0.016830165
0001b0 9d e2 55 3d 2c 2d 42 3e 50 53 8e be ca c7 e0 3c
       0.05221807 0.18962544 -0.27797937 0.027439017
0001c0 47 d8 12 3e 38 44 97 be d8 33 8a 3e cb a6 b2 bd
       0.14340316 -0.29544234 0.2699268 -0.087232195
0001d0 00 2f 28 bd e7 4e 04 3e 76 f5 4f be 5d 6e 62 3c
       -0.041060448 0.12920724 -0.2030848 0.013820258
0001e0 1d 13 7c bd c8 1a 06 3e d9 bb 32 bd 97 9f 81 3e
       -0.061541665 0.13096154 -0.043636177 0.2531707
0001f0 eb 1b 5e 3d f7 9a af 3e 10 5c 8c 3e b5 01 b0 bd
       0.054225843 0.34297916 0.27413988 -0.085940756

network_body._body_endoder.seq_layers.0.weight f4 [128, 26]
000000 ac fc 1a 3e 81 ce 99 be 23 8e f3 be 3c 35 f2 3e
       0.15135449 -0.30040362 -0.4756938 0.4730624
000010 3d 1d 79 3e fd b3 25 3e 92 50 91 bd 41 ce 2c be
       0.2432756 0.16181941 -0.07095446 -0.16875555
000020 10 05 a1 3e a1 57 ec 3e f7 63 c3 3e 8b 19 a2 3d
       0.31449175 0.46160606 0.38162205 0.07915028
000030 2f 9b d7 3d a7 27 bd 3e fe fc 4c be 4c 61 b2 be
       0.10527646 0.36944315 -0.20018384 -0.34839857
000040 11 f6 e0 3d f9 47 cb bc eb 0a 69 3b 4d 4d d5 bd
       0.109844334 -0.024814593 0.0035559486 -0.104151346
000050 03 dd 89 3d df d5 31 be 05 0f 17 bd 71 af a4 3e
       0.06731608 -0.17366742 -0.036879558 0.321651
000060 9f 9b 0b 3e 21 d5 93 3d 9b 19 f2 3d 94 56 ab be
       0.13633583 0.072183855 0.1182129 -0.3346449
000070 2b d7 13 be 52 77 3c be fb 9c 4e bd f4 1c b3 3e
       -0.14437549 -0.18404892 -0.050442677 0.34983027
000080 28 f8 c3 be aa 98 0d 3e ec a2 65 3e 7d de ea 3e
       -0.38275266 0.13827768 0.22425431 0.4587287
000090 35 63 24 bf bd 05 17 3e 92 bd e0 3e 3d 05 2e bd
       -0.6421388 0.14748283 0.4389463 -0.042485464
0000a0 60 33 90 3d 72 bf 8c be b3 8b 9d be 56 bb 72 3e
       0.07041049 -0.2748981 -0.30770645 0.23704275
0000b0 5f 90 0f be 08 85 6c be f3 0c 7e be f3 c0 59 bc
       -0.14019917 -0.23097622 -0.24809627 -0.013290632
0000c0 8b 92 7a be 79 e9 77 be 28 91 89 3d 88 18 8a bd
       -0.24469964 -0.24210157 0.067171395 -0.0674296
0000d0 73 7c 64 be 86 5c 20 bf 1a ee c2 be 15 5b e4 3d
       -0.22313099 -0.6264118 -0.38072282 0.11150185
0000e0 6d 4b 88 be 1f f2 03 bb 24 eb b1 be a3 88 80 bd
       -0.26620045 -0.002013333 -0.3474971 -0.062760614
0000f0 43 4f 59 3d 4f 40 a8 3d 07 4d fc bd ad b4 db bd
       0.053054105 0.08215391 -0.12319379 -0.107278205
000100 ce 81 e4 3c e5 da b7 3c 13 79 79 be d3 37 2c be
       0.027893927 0.022443244 -0.24362592 -0.1681817
000110 4e ae ea 3c bb 50 ee 3d 6a 86 83 be ea 06 5e be
       0.028647568 0.11636492 -0.25688487 -0.21682325
000120 be 76 cd 3d 14 25 97 be 52 53 cc 3e 3c 50 91 be
       0.10032414 -0.29520476 0.39907318 -0.28381526
000130 31 c5 89 3e 44 73 60 3d d0 48 9d bd a6 63 ae 3e
       0.26908258 0.054797426 -0.076799035 0.340604
000140 ea ad 27 3f 2c ef 4c bc f5 d3 f0 be 8d 08 98 3d
       0.65499747 -0.012508195 -0.4703671 0.07423506
000150 68 f2 2a be 84 25 99 be 44 83 ae 3e 9e 6a f8 3d
       -0.16694033 -0.29911435 0.34084523 0.121297106
000160 16 62 8b 3d ce 9e 76 3c 79 2a 13 3f b4 88 df be
       0.06805818 0.01505251 0.57486683 -0.43658984
000170 d5 1a 31 3f cf 1a e9 3e 84 2c 1f 3c db c8 1a be
       0.6918157 0.45528266 0.009715203 -0.15115683
000180 06 d9 88 bc f8 62 f4 3e e1 69 e0 3d c2 05 14 3d
       -0.016705047 0.47731757 0.10957695 0.036138304
000190 dd 1c 03 be 4c 71 26 3d e6 f2 8a 3e 0e ba bb 3d
       -0.12803979 0.040635392 0.27138442 0.091663465
0001a0 21 ad b5 3e 6b 52 12 3e 1d 64 c9 3c 8b 3a 54 3e
       0.3548365 0.14289252 0.02458387 0.20725457
0001b0 0c 3a 41 3e 24 05 6c bd dd 79 ab be 89 96 ca ba
       0.188698 -0.05762209 -0.33491412 -0.001545624
0001c0 16 ef 16 3e 6b b4 4f 3d aa 6a cc 3e db 70 c2 3e
       0.14739642 0.05070917 0.39925128 0.37976727
0001d0 2f 42 d9 bc 9d e8 3e be 10 31 ed bb f1 e2 e6 be
       -0.026520817 -0.18643422 -0.0072385147 -0.45095018
0001e0 ac 9f 08 be 85 27 57 bd 73 a4 a9 bd b9 45 d5 be
       -0.1334216 -0.052527923 -0.08283319 -0.41654757
0001f0 fb c7 08 be 51 4e ab be 96 f7 28 be fb 12 04 3f
       -0.13357536 -0.33458188 -0.16500697 0.5159146
000200 3a ad 29 3e 50 90 dd be ab ee c1 bd c9 8e a3 3e
       0.16569987 -0.43274164 -0.094693504 0.31944874
000210 63 d2 5c 3d 8b 37 94 be fb 40 13 be e3 df 56 3d
       0.053911578 -0.28948626 -0.14380257 0.05245961
000220 e5 cd 8b 3e 4e 9d 8e bd 8f 74 00 bd 65 27 4b 3e
       0.27305523 -0.06963597 -0.03136116 0.19839247
000230 13 11 c1 be e5 b1 57 bd b9 96 15 bd 8a 49 94 3e
       -0.3770834 -0.052659888 -0.036520693 0.28962356
000240 05 cc 64 3d da a1 eb bc 9d 0f 44 3c 85 c2 ba bd
       0.05585863 -0.0287637 0.011966613 -0.09119133
000250 03 bc 30 3e 5a 63 ae be 62 86 56 bd ce 3a 54 3c
       0.17259221 -0.34060174 -0.05237425 0.012953473
000260 8c 1d 46 bc 84 43 7f be 2a 8b d7 be 67 e9 92 be
       -0.012092005 -0.24928099 -0.4209836 -0.28693697
000270 69 31 de 3d 38 bc 35 be c1 b1 11 3e 9a dd 59 3e
       0.10849268 -0.17747581 0.14227964 0.2127594
000280 7c 34 03 3d 9a 4b 45 be 20 ed 1b be 5a 0a 35 be
       0.032032475 -0.19267121 -0.15227175 -0.1767973
000290 31 e8 92 3e c6 a5 a0 bd 73 4b 3b be a0 73 80 be
       0.28692773 -0.07844119 -0.182905 -0.25088215
0002a0 56 7b 96 3e c8 f9 4b bb 1d 97 7b 3e 63 82 3e 3c
       0.29390973 -0.0031124223 0.24569364 0.011627766
0002b0 f4 ba 1f be 73 f9 88 3e bd 46 f2 bd 45 5a 13 bf
       -0.1559866 0.26752815 -0.118298985 -0.57559615
0002c0 9b 3a 3a be b2 f5 d4 3e ba e6 a4 bc 4e be ae be
       -0.18186419 0.415937 -0.02012955 -0.34129566
0002d0 85 03 bb 3e 1d 35 84 3e fd 0e b9 3d 48 56 93 bd
       0.36526123 0.25821772 0.09036062 -0.07194191
0002e0 53 d9 21 bf b2 f7 4e 3e 83 15 1a 3e 51 d1 c4 3c
       -0.63222235 0.20211676 0.15047269 0.024025591
0002f0 e9 5f 83 be a6 36 87 3d f0 47 21 3d 7f 40 8f 3e
       -0.2565911 0.0660222 0.039375246 0.27978894
000300 27 44 89 3d 8e 14 0e 3d c1 fc 7c 3e 31 2f ad bd
       0.06702452 0.03468757 0.24705793 -0.08456267
000310 4d 28 6d be 4d 14 f9 be 41 39 9a 3d a9 0d 55 3e
       -0.23159905 -0.486483 0.075304516 0.20805992
000320 de 3d 61 3e 06 45 aa bd e5 bc 1b be b2 1a 1f 3d
       0.21996257 -0.083139464 -0.15208776 0.038843818
000330 26 22 45 3d cf 35 1d 3f d1 0a 0e 3d 5a a8 90 bd
       0.04812827 0.6141023 0.034678284 -0.070633605
000340 81 ff eb be f6 2e 6d 3f f8 a5 18 3f 00 4c 66 be
       -0.46093372 0.9264978 0.5962825 -0.22489929
000350 e4 43 bf 3d c4 4d 54 3e a7 0d 49 be 6d de 2f be
       0.09339121 0.2073279 -0.19634114 -0.17174692
000360 b8 3a 16 3f 91 ac d4 bd 84 55 21 3e 02 21 28 bd
       0.5868335 -0.10384477 0.15755278 -0.041047104
000370 64 18 d8 3d fb 26 2c bf 7d b4 5e 3e d0 e3 89 3e
       0.10551527 -0.6724698 0.21748538 0.2693162
000380 6b d9 86 bd dc d7 a4 3d 4e 40 93 bd 07 75 14 be
       -0.06584438 0.080489844 -0.071899995 -0.14497767
000390 42 fb 00 be 7e 4c 0c 3f a8 2a bb bd 7b 14 24 be
       -0.12595847 0.5480422 -0.091389954 -0.16023438
0003a0 93 26 cc bd e4 f7 80 3d df 23 bb 3b 9d e2 5b be
       -0.09968295 0.062972814 0.0057110633 -0.21473165
0003b0 35 6f 7d be eb 73 50 be 9a bd 4f be e9 e1 8c 3e
       -0.24749453 -0.20356719 -0.20287171 0.27516106
0003c0 7e 04 83 3c 9d d7 90 bd 23 00 62 bc cc a6 3d 3e
       0.015993353 -0.07072375 -0.013793978 0.18520659
0003d0 97 a0 a0 3e 27 0f ea 3e 22 e6 95 be 65 e5 bb 3e
       0.3137252 0.45714685 -0.2927714 0.36698452
0003e0 b1 62 82 3d e8 97 6d be 61 11 2f 3e 73 ee 74 3e
       0.0636648 -0.23202479 0.17096473 0.23919086
0003f0 dd 95 1f be e6 a4 a6 bd 00 27 8c be dd dd c5 3d
       -0.15584512 -0.08136921 -0.27373505 0.09661458

network_body._body_endoder.seq_layers.2.bias f4 [128]
000000 43 10 69 be b2 c1 26 bf da 80 1f bf 23 56 1b bf
       -0.2276011 -0.65139306 -0.62305987 -0.6067831
000010 cc df c8 be fe b3 6a be 8f cc cb be a6 f6 0e bf
       -0.39233243 -0.22920224 -0.39804503 -0.55845106
000020 0a 31 13 bf 76 d2 f8 be e7 96 e3 be 1c 96 fd be
       -0.574967 -0.4859807 -0.44451067 -0.49528587
000030 c8 36 f8 be 92 9e cc be a3 2a 14 bf d2 c4 03 bf
       -0.48479295 -0.3996473 -0.5787756 -0.514722
000040 e7 9d 92 be 8b 7d 19 bf f6 74 1f bf b3 60 02 bf
       -0.28636095 -0.5995719 -0.62287843 -0.509288
000050 54 77 05 bf 65 61 24 be 7a 27 fc be 26 48 17 be
       -0.52135205 -0.16052778 -0.49248868 -0.14773616
000060 a2 2f c3 be 40 56 d1 be e2 cc 1a bf 9b ed 20 be
       -0.38122278 -0.40886116 -0.60468876 -0.1571564
000070 7a 7f 0b be fa a5 80 be a9 b3 de be f6 0c 02 bf
       -0.13622847 -0.2512663 -0.43496445 -0.50801027
000080 c6 9a 01 bf d2 d2 14 bf 34 56 ed be 2b b4 32 bf
       -0.5062679 -0.58134186 -0.4635483 -0.69806165
000090 ae 5f df be 9d 18 0e bf cc c4 a8 be 1c c9 1b be
       -0.43627685 -0.55506307 -0.32962644 -0.15213436
0000a0 53 f6 8a be 4e f9 e8 bd 35 14 27 bf 3b 70 01 bf
       -0.27141055 -0.11375676 -0.6526521 -0.50561875
0000b0 ae c6 9a be e8 82 2e bf 06 68 00 bf ed c0 0c bf
       -0.30229706 -0.681685 -0.5015873 -0.5498188
0000c0 71 0e 00 bf 3d 3b 2f bf 4e 5b 74 be f2 76 19 bf
       -0.50022036 -0.68449765 -0.23862955 -0.5994712
0000d0 44 82 1a be 55 5b f8 be 52 be a7 be fa c1 ff be
       -0.15088755 -0.4850718 -0.3276239 -0.4995268
0000e0 3e 83 0f bc 57 18 8f be c5 b6 bc be 06 ff 0f bf
       -0.008759318 -0.27948257 -0.36858192 -0.5624851
0000f0 0e 41 b7 be 4a 61 16 be 5c 34 f0 be 9d 53 d4 bd
       -0.3579182 -0.1468555 -0.46914947 -0.103675105
000100 7e a8 3e be 11 15 e8 be 21 59 fb be 40 68 bd be
       -0.18618962 -0.45328572 -0.49091437 -0.369936
000110 34 79 0a bf 81 e4 03 bf 93 1f e2 bd f3 93 20 bf
       -0.5409119 -0.51520544 -0.110411786 -0.6272575
000120 2d 02 11 bf 4f 45 5d be ee 48 51 bf 64 f6 24 bf
       -0.56643945 -0.2160847 -0.81751907 -0.6443846
000130 16 9d d2 be db e9 12 bf a1 86 d1 be 04 df 8d be
       -0.41135472 -0.57388085 -0.40923026 -0.2770921
000140 4b ec 50 bc 95 35 25 bf 58 94 10 be e2 92 c1 be
       -0.012751649 -0.64534885 -0.14119089 -0.37807375
000150 b4 dc 02 bf 47 b8 0b bd 4d 22 e6 be 4c ef dc 3c
       -0.51118016 -0.034111287 -0.44948044 0.026969574
000160 c2 f6 51 be 30 7e d2 be 26 71 e5 be d5 5f 15 bf
       -0.20504287 -0.41111898 -0.44812888 -0.58349353
000170 4e 6b 5e bc 25 44 c1 be d5 29 ed be bf 2c 2d be
       -0.013575388 -0.37747303 -0.46320978 -0.169116
000180 45 47 db be fb 40 15 bf 73 b0 a3 be 17 6d 6f 3d
       -0.42827812 -0.5830228 -0.31970558 0.058453646
000190 f1 20 09 be 23 20 e4 be e0 2a f9 be 08 81 da be
       -0.13391472 -0.44555768 -0.48665524 -0.42676568
0001a0 d2 e0 e2 be 5b 1f 8a be 9b 10 20 bf c2 5a 9b be
       -0.4431215 -0.26977047 -0.6252534 -0.3034268
0001b0 71 1d cc be 89 2a a3 be 24 d6 e4 be c4 64 e5 be
       -0.39866212 -0.3186839 -0.44694626 -0.4480344
0001c0 42 27 0e bf 34 05 b5 be 78 cb da be e3 ec 0d bf
       -0.5552865 -0.35355532 -0.4273336 -0.55439585
0001d0 7d 4c 01 bf d1 d6 e8 be 6f f8 8d be 1c 2f b6 be
       -0.50507337 -0.45476392 -0.27728602 -0.35582817
0001e0 fb 61 f6 3c 74 b5 67 bd dd d5 18 be df 74 ec be
       0.030076018 -0.05656953 -0.14925332 -0.46182916
0001f0 62 61 ac 3d 8d 4e cc be d3 bd 97 be f6 5f fc be
       0.08417012 -0.3990368 -0.29637012 -0.49291962

network_body._body_endoder.seq_layers.2.weight f4 [128, 128]
000000 15 84 86 be fe e4 c8 3d 07 d8 93 be e5 4e 3b be
       -0.26272646 0.09809302 -0.28875753 -0.18291815
000010 61 e7 fa be 0d 6e 11 be a0 7f 04 3e 2a e5 ab bd
       -0.49004653 -0.14202137 0.1293931 -0.08393319
000020 67 d0 3e be 64 a1 a7 be 03 5c 35 3e bb 88 8f be
       -0.18634187 -0.3274032 0.17710881 -0.28034005
000030 a0 11 4a 3e a5 71 80 be 93 2e 29 bf 5f bb 33 3e
       0.19733286 -0.25086704 -0.6608669 0.17551945
000040 27 86 36 3e 41 b7 1e 3e 13 29 8b be c5 d5 cf 3e
       0.17824613 0.15499593 -0.27179775 0.4059278
000050 87 b8 9c 3d 72 ec 9c be 0c 02 9a be 01 8d 63 bc
       0.07652383 -0.30649143 -0.30079687 -0.013888598
000060 2b 64 91 3d 51 83 a6 be 69 24 f6 be 95 f7 de be
       0.07099184 -0.3252206 -0.48074654 -0.43548265
000070 6a 97 33 3d ab ce f1 3d 88 8b cb 3d db 7b 6c be
       0.04384557 0.11806997 0.09938723 -0.23094122
000080 55 7b 46 3e 1d 40 47 bd 69 07 db be 1e 7a 7d be
       0.19382985 -0.048645128 -0.4277909 -0.24753615
000090 35 69 87 3e f8 b1 5f be 11 6b dc be c5 e5 21 bf
       0.26447454 -0.21845233 -0.43050435 -0.63241225
0000a0 5d ba c3 be 81 50 3b 3d 91 1b 36 3e 25 25 04 3e
       -0.3822812 0.04573107 0.17783953 0.12904795
0000b0 ee 97 12 3e 5e 89 1e 3e 40 b4 78 3e f8 c2 3d be
       0.14315769 0.15482089 0.2428751 -0.18531406
0000c0 20 b3 40 3e 26 6b df be 5a 75 37 3e 3f 63 2f 3e
       0.18818331 -0.43636435 0.1791586 0.17127703
0000d0 43 49 d6 3d 90 2d 75 3e bb 66 84 3d 07 a8 c3 bd
       0.10463192 0.23943162 0.06464907 -0.09553533
0000e0 61 d0 ac 3d d8 ec 92 3c db aa e4 3d 4e b3 4c be
       0.084381826 0.017935202 0.111654006 -0.19990274
0000f0 53 af 24 3e 6c 21 23 be b8 d6 9e 3d fc 95 1f 3d
       0.16082506 -0.15930718 0.07755798 0.038961396
000100 1f 76 43 3e e3 93 a4 3e a3 e0 8d bd f8 7e 3f 3c
       0.19088028 0.3214408 -0.06927612 0.011687987
000110 41 f4 cb be e5 63 27 3c fe 20 8b be 81 16 5e 3d
       -0.39834788 0.010216688 -0.2717361 0.05422068
000120 a9 96 b7 be 5b 78 87 3e dd 98 21 be c4 46 c9 bd
       -0.35857132 0.2645901 -0.15780969 -0.098279506
000130 8b d1 3e 3c e7 5b cb be 0a c1 b7 be a4 a9 6a be
       0.011646639 -0.39718553 -0.35889465 -0.22916275
000140 9d 27 d5 bd 84 91 85 3d a0 35 ac 3d d8 2c 0f bf
       -0.10407946 0.065218955 0.08408666 -0.559278
000150 5c 89 22 3e 86 94 01 bf fb b6 8e 3e b8 c6 9e 3e
       0.15872711 -0.50617254 0.27873978 0.31010985
000160 71 15 03 bf 1c d8 6a bd f0 d2 b2 be 70 c5 bc be
       -0.5120459 -0.057335004 -0.34926558 -0.36869383
000170 3c 60 2a bc 08 32 c0 be 79 0f 92 3d ee 7d e6 be
       -0.010398921 -0.3753817 0.071318574 -0.45017952
000180 83 64 cc bd c1 6b 15 3b 4e a6 88 be 99 15 97 3e
       -0.099801086 0.0022799822 -0.2668938 0.29508665
000190 9f 43 6b 3e 44 36 16 3d 39 4b 7d bd 08 c2 0e bf
       0.22975014 0.036672845 -0.061839316 -0.5576482
0001a0 85 7f 06 be 07 6f 85 3e 39 15 af be f2 ba 3a be
       -0.13134582 0.2606127 -0.3419588 -0.18235376
0001b0 b5 f6 c3 be 69 7c 03 bf 80 a7 a7 3d 4b f8 88 be
       -0.3827416 -0.5136171 0.08186245 -0.26751933
0001c0 2d e1 41 be 11 4f a9 3e 25 e3 e0 b9 97 98 2d be
       -0.18933554 0.33068135 -0.00042893845 -0.1695274
0001d0 fb f5 be bc 17 1d 26 be ab 96 ad 3b 95 fe c4 3e
       -0.023310652 -0.16222034 0.005297502 0.3847548
0001e0 ce 0b ae 3e 4d c2 9a be 3c 8f 9c be aa a4 8b be
       0.3399338 -0.30226365 -0.3057803 -0.27274066
0001f0 19 cc c7 be 68 d3 8e be ae 7c ed be a1 f7 d8 3d
       -0.39022902 -0.27895665 -0.46384186 0.105941065
000200 ad 3f 50 be 07 bc da bc f4 11 45 be 89 ed a2 bd
       -0.2033679 -0.026700987 -0.1924513 -0.079554625
000210 69 e9 bc bc 91 5f 88 be 1c 53 e4 3c f3 3d 87 be
       -0.023060517 -0.2663541 0.02787166 -0.2641445
000220 84 1c a2 be 80 cc c5 bd d1 cb 60 3e 3b d9 88 be
       -0.3166238 -0.09658146 0.2195275 -0.26728234
000230 09 09 42 3e e6 f8 26 be 7c 54 af be b6 79 b2 3e
       0.18948759 -0.16305885 -0.34244144 0.34858483
000240 03 83 c4 bc 93 7b 08 3c 74 51 10 bf e7 ed 8a 3e
       -0.023988253 0.008330244 -0.5637429 0.2713463
000250 4f c7 b7 3e 2c c0 fe be 5b 73 01 bf cb 87 c3 3d
       0.35894248 -0.4975599 -0.50566643 0.09547385
000260 2e 7c 15 be f4 95 a8 be d3 83 01 bf f2 53 18 bf
       -0.14598152 -0.32926905 -0.5059177 -0.5950309
000270 47 cc e2 3b fb 23 d6 3e d1 b5 e6 3e 19 92 04 bf
       0.0069213244 0.41824326 0.4506059 -0.5178543
000280 6d c5 76 3e 55 1f 89 be b0 38 2c bf 32 7d 88 be
       0.2409875 -0.26781717 -0.67274 -0.26658016
000290 e7 8e 12 3f 44 a3 16 be ca 46 cd be a1 fd 93 bd
       0.572493 -0.14710718 -0.4009307 -0.0722611
0002a0 7d 90 26 bf 42 26 36 3e 72 5f f9 3d 18 78 95 3d
       -0.6506422 0.17788032 0.12176408 0.07298297
0002b0 74 f4 56 be 4a 26 8e 3e 29 00 ea 3e a8 6c 38 be
       -0.20991689 0.27763587 0.45703247 -0.18010199
0002c0 ec 3e 45 3e 92 0b f3 be 42 46 a4 3e ca 16 9b 3b
       0.19262284 -0.47469765 0.32084852 0.0047329413
0002d0 0d 6a 2e be 85 c7 02 3f 17 f0 9f 3e e5 3f f0 bc
       -0.17032643 0.5108569 0.31237862 -0.029327342
0002e0 1a df 6a 3e 55 b6 5d be bf 82 e0 3d 09 57 04 bf
       0.22936669 -0.21651585 0.10962438 -0.51695305
0002f0 78 fa 8d 3e 6f fc 09 be ab 32 f8 3b f8 ab 7f be
       0.27730155 -0.13475202 0.0075743995 -0.24967945
000300 c9 69 06 be 8f a3 37 3e 40 be b8 3d 99 d0 cb bd
       -0.13126291 0.17933486 0.09020662 -0.09951896
000310 f4 52 9c be b7 7b 76 3c 9b 43 ca be 44 4e dc 3d
       -0.30532038 0.015044144 -0.39504704 0.107571155
000320 93 2c 8b be 9b 32 dc 3e d4 83 03 bf ed bd 7c 3e
       -0.27182445 0.4300736 -0.5137303 0.24681826
000330 50 ed 31 3c be b4 1c be 38 5c ff be 37 d5 89 be
       0.010859802 -0.15303323 -0.49875045 -0.26920483
000340 98 05 e5 bb d2 2b 36 be 16 2f d3 bd e3 71 8b be
       -0.006989192 -0.17790154 -0.10311715 -0.27235326
000350 16 6f 22 3f 95 ff 88 bd f1 ac e4 bd 61 53 22 3f
       0.63450754 -0.066893734 -0.111657985 0.63408476
000360 fa e1 b3 be b2 74 d8 bd c5 a2 c3 be 9f fe b9 be
       -0.35133344 -0.10569133 -0.3821012 -0.36327073
000370 c7 9a 80 be 71 bd c9 be f4 74 13 3e a1 b7 54 be
       -0.25118086 -0.39402345 0.14400083 -0.20773174
000380 3e fc 98 bd 13 90 95 bd 65 7f 92 be 78 00 c2 3e
       -0.074699864 -0.073028706 -0.2861282 0.37890983
000390 ee e7 cc 3d a4 91 49 3c c4 9e 15 be c2 b7 1d be
       0.100051746 0.01230279 -0.14611346 -0.1540213
0003a0 55 55 82 bd 24 e8 b0 3e c5 34 0e be bd ee 33 be
       -0.06363932 0.3455211 -0.13887317 -0.1757154
0003b0 d7 41 fd be 61 a1 fb be de 84 13 3f 0e fc f5 be
       -0.49464294 -0.4914656 0.57624614 -0.48043865
0003c0 5b 2e 35 be 86 62 7b 3e f1 31 21 be a5 50 e1 bd
       -0.17693464 0.24549302 -0.15741707 -0.1100171
0003d0 e5 94 60 bd 54 c3 e6 bc f9 27 ab be e4 86 80 be
       -0.054829497 -0.028169312 -0.33428934 -0.25102913
0003e0 22 84 a1 3d b5 47 91 be 69 a9 44 be a4 56 19 bf
       0.078865305 -0.2837502 -0.1920525 -0.5989783
0003f0 9f 2f 07 bf 00 76 c4 be 6f b7 f0 be 2e 12 94 3d
       -0.5280704 -0.38371277 -0.4701495 0.0723003
