AIRocketLanding/Assets/Models/3/AIRocket.onnx (onnx, 84776 bytes, 9 tensors)

action_model._continuous_distribution.log_sigma f4 [1, 2]
0	0xbf97a89e	-1.1848333
1	0xbf9ac293	-1.2090629

action_model._continuous_distribution.mu.bias f4 [2]
0	0x3ced9e2d	0.029006088
1	0xbcd32c4f	-0.025777964

action_model._continuous_distribution.mu.weight f4 [2, 128]
0	0x3d839705	0.06425289
1	0x3c8a120b	0.016854307
2	0xbd90a560	-0.07062793
3	0xbd6ba35c	-0.05752884
4	0x3d1060ca	0.035248555
5	0xbc2873f2	-0.01028155
6	0xbd60ed5a	-0.054913856
7	0xbc8115a4	-0.01575739
8	0x3cb52001	0.022109987
9	0xbc2db7bd	-0.010602889
10	0xbd6844fe	-0.05670642
11	0xbc9648d3	-0.018345272
12	0xbde59844	-0.11210683
13	0xbd44b374	-0.048022702
14	0xbc919266	-0.017770004
15	0x3cbf63ff	0.023363112
16	0xbd124638	-0.035711497
17	0xbd787f4f	-0.060668286
18	0xbc96e70b	-0.018420717
19	0x3b701a2e	0.0036636698
20	0xbd4f51f2	-0.05061526
21	0xbd649b79	-0.055812333
22	0xbcc721d0	-0.024308115
23	0xbd16c66f	-0.036810335
24	0xbd1b9f3c	-0.037993655
25	0xbd744251	-0.059633557
26	0xbce44d50	-0.027868897
27	0xbcec90f1	-0.028877707
28	0xbd41690c	-0.04721932
29	0xbd36f817	-0.04467019
30	0xbdaf221f	-0.0855143
31	0xbd4b2331	-0.049594108
32	0xbcfa2ef1	-0.030539962
33	0xbd979f17	-0.07403391
34	0xbce6dbda	-0.028181005
35	0xbc2b63bb	-0.010460789
36	0xbd96ce78	-0.073635995
37	0xbd2d41c3	-0.042299043
38	0xbb846a7e	-0.004041015
39	0xbd221507	-0.039570834
40	0xbd7b74a9	-0.061390553
41	0xbcb49555	-0.022043863
42	0xbd038ec1	-0.032118563
43	0xbd9c2df2	-0.07625951
44	0x3c030ce0	0.007998675
45	0xbcf1ceaa	-0.02951749
46	0xbbf47772	-0.007460528
47	0xbcbd6b9b	-0.0231226
48	0xbbfb9fd5	-0.0076789656
49	0xbcd27bd4	-0.025693811
50	0x3bfc5f38	0.0077017806
51	0xbbe2bf31	-0.0069197644
52	0xbdb980c2	-0.09057762
53	0xbd254310	-0.04034716
54	0x3c4ee2c2	0.012627305
55	0xbd174aa4	-0.036936417
56	0xbd2ee014	-0.042694166
57	0xbe032dd7	-0.12810455
58	0xbd89509f	-0.067048304
59	0xbcb344db	-0.021883419
60	0xbce8f5f5	-0.028437594
61	0xbd09b0e2	-0.033615954
62	0xbb0e0753	-0.0021671846
63	0xbd401c6d	-0.04690211
64	0xbd944ff9	-0.07241816
65	0x3b88247b	0.0041547394
66	0xbd839121	-0.064241655
67	0xbd0f63da	-0.035007335
68	0x3c7869b7	0.015161923
69	0xbcfc5fc2	-0.03080738
70	0xbd802e64	-0.06258848
71	0xbd0373bf	-0.032092806
72	0xbd5e15a0	-0.054219842
73	0x3c94ab9d	0.018148238
74	0xbd5ef428	-0.054432064
75	0xbd048b7b	-0.03235958
76	0xbd235ae6	-0.03988161
77	0xba88a281	-0.0010424407
78	0xbcf3268d	-0.029681468
79	0xbcf208cd	-0.029545212
80	0xbdc807d3	-0.09767117
81	0xbc1d198a	-0.0095886085
82	0xbbd31035	-0.006441141
83	0xbd21b94d	-0.039483357
84	0xbcca9f96	-0.0247343
85	0xbd5ffd95	-0.054685194
86	0xbd326f92	-0.043563433
87	0xbd791f2f	-0.060820755
88	0xbc6a3ded	-0.014296991
89	0xbbb275ce	-0.0054461723
90	0xbb86d7a9	-0.004115064
91	0x3aa4788d	0.0012548134
92	0xbc259100	-0.0101053715
93	0x3c34bf02	0.011031868
94	0x3d9bd862	0.07609631
95	0xbd071dc0	-0.032987356
96	0xba2d559a	-0.0006612182
97	0xbc965ad9	-0.018353866
98	0xbcbf531f	-0.023355065
99	0xbdc85b20	-0.09783006
100	0xbd614c11	-0.055004183
101	0x3cec4641	0.028842093
102	0xbcd812aa	-0.026376087
103	0xbcb9e4d2	-0.022692118
104	0xbc88ff09	-0.016723173
105	0xbcfb3c6d	-0.030668462
106	0xbd24ac7a	-0.04020355
107	0x3dc04999	0.09389038
108	0xba5787db	-0.0008221843
109	0xbc86a0c4	-0.01643408
110	0x3b711f77	0.0036792436
111	0xbc92b7fe	-0.01791
112	0xbc45ffa5	-0.012084876
113	0xbc871fec	-0.016494714
114	0x3d45f294	0.048327044
115	0xbb1be4df	-0.002378754
116	0xbca92b6b	-0.020650586
117	0xbd031bbb	-0.032008868
118	0xbdb734b5	-0.089456
119	0xbd8f114f	-0.06985723
120	0x3d9167b2	0.070998564
121	0xbd7bf1f9	-0.06151006
122	0xbd92dc9d	-0.07170985
123	0xbbac507e	-0.005258619
124	0xbc53ce10	-0.012927547
125	0xbd8f59d8	-0.06999558
126	0xbdbb4c71	-0.091454394
127	0xbccb9761	-0.024852457
128	0xbcdf8c20	-0.027288496
129	0xbd12e9d5	-0.03586753
130	0xba827710	-0.0009953696
131	0xbc1b75ac	-0.009488504
132	0x3e0826a8	0.13295996
133	0xbd06ff4e	-0.03295832
134	0x3c989cdf	0.01862949
135	0xbd3976eb	-0.045279425
136	0xbd2111fb	-0.039323788
137	0x3d6072d0	0.054796994
138	0xbc87709b	-0.016533187
139	0xbbd93883	-0.006629051
140	0xbd88fa11	-0.066883214
141	0xb9a5d9dc	-0.0003163357
142	0xbc9154ec	-0.01774069
143	0xbc27b7c4	-0.010236684
144	0xbd03999f	-0.032128926
145	0x3c8024db	0.015642574
146	0xbb5521ff	-0.0032521484
147	0xbd345b9f	-0.04403269
148	0xba4fae8f	-0.00079224346
149	0xbc00c7c9	-0.0078601325
150	0x3b906344	0.0044063646
151	0xbd0ca1a7	-0.03433385
152	0x3c1c6398	0.009545229
153	0xba8648f2	-0.0010245128
154	0xba5290ef	-0.0008032461
155	0xbc7c7ef5	-0.015411128
156	0xbc5228d8	-0.012827121
157	0xbcd0f9b7	-0.025509698
158	0xbe31aa60	-0.17350149
159	0xbb2ba48e	-0.0026190612
160	0xbca65e6e	-0.0203087
161	0x3c430f74	0.01190554
162	0x3d3f5bb3	0.04671831
163	0x3d676198	0.056489557
164	0x3c93e26b	0.0180523
165	0xbc9a90db	-0.0188679
166	0xbc68d64a	-0.014211247
167	0xbcda7105	-0.02666522
168	0x3d8de1be	0.069278225
169	0xbd33a636	-0.043859683
170	0xb9cd56be	-0.00039165275
171	0xbdc40e4e	-0.09573041
172	0x3d0d4d63	0.03449763
173	0xbc6f31d2	-0.01459928
174	0x3d483fcd	0.04888897
175	0x3ba56a54	0.0050480757
176	0xbd816188	-0.06317431
177	0x3b393717	0.0028261596
178	0xbcff71eb	-0.03118225
179	0x3bb9efc8	0.005674336
180	0xbd964669	-0.073376484
181	0x3b0617b6	0.002046091
182	0x3caf50ad	0.021400774
183	0xbd043cf8	-0.032284707
184	0xbc967537	-0.01836644
185	0xbe2e8f5f	-0.17046879
186	0xbd90dbf9	-0.070732065
187	0xbccd2d46	-0.025046002
188	0xbaae9c48	-0.0013321722
189	0xbcd80d70	-0.026373595
190	0xbcf7ee15	-0.030264894
191	0xbced37ff	-0.028957365
192	0xbdfb3b73	-0.122671984
193	0xbc1e7baa	-0.0096730385
194	0xbb65febc	-0.003509446
195	0xbe0d5af7	-0.13804232
196	0x3d10e12b	0.035370987
197	0xbd49a369	-0.049228106
198	0xbd321eed	-0.043486524
199	0x3c8f4063	0.017486757
200	0x3bb6bdf9	0.0055768457
201	0x3d248d2e	0.040173702
202	0xba508ced	-0.000795557
203	0x3cdffd54	0.027342476
204	0xbc3ef52c	-0.011655133
205	0x3d6fe83c	0.058571085
206	0xbcd57733	-0.026057815
207	0xbd88f090	-0.06686509
208	0xbdeb89b2	-0.11500873
209	0x3b213cbd	0.0024602853
210	0xbb97271d	-0.004612817
211	0xbcc26590	-0.02373007
212	0x3cd543c3	0.026033288
213	0x3ca98a10	0.020695716
214	0xbc633853	-0.013868409
215	0x3c188d09	0.009310969
216	0xbcd4c352	-0.025972042
217	0xbc537860	-0.012907118
218	0x3d968d24	0.07351139
219	0xbcc88531	-0.024477573
220	0xbb067e5b	-0.002052209
221	0x3c006690	0.007836953
222	0xbdabc934	-0.08387986
223	0xbd2aae71	-0.041670267
224	0xbc9cdf4c	-0.019149445
225	0x3d173838	0.03691885
226	0xbd19f213	-0.037584376
227	0xbd394029	-0.045227204
228	0x3cf8e9ff	0.030385016
229	0xbd11b8de	-0.035576694
230	0xbcdb2cc8	-0.026754752
231	0x3c965d19	0.01835494
232	0xbd2f7d27	-0.042843964
233	0xbd094fea	-0.033523478
234	0xbd021e13	-0.031766962
235	0xbd1302ae	-0.035891227
236	0x3d73bcfd	0.059506405
237	0xbd20da6b	-0.0392708
238	0x3cf0b33b	0.029382339
239	0xbcd383f3	-0.025819754
240	0xbdab0159	-0.083498664
241	0x3ca606ac	0.020266853
242	0xbc705711	-0.014669196
243	0x3a5b7039	0.00083709095
244	0xbc22594e	-0.009908987
245	0xba68168e	-0.00088534586
246	0xbd4505fb	-0.048101407
247	0x3ba4a716	0.005024801
248	0xbb6f977d	-0.00365588
249	0x3b98e22f	0.004665635
250	0xbba29a7f	-0.004962265
251	0x3ca9229c	0.020646386
252	0xbb1ee336	-0.0024244315
253	0xbd1d1484	-0.038349643
254	0xbd3148d5	-0.04328235
255	0x3b805a7e	0.0039170375

action_model._discrete_distribution.branches.0.bias f4 [2]
0	0xbe8b5527	-0.27213404
1	0x3e8b5532	0.27213436

action_model._discrete_distribution.branches.0.weight f4 [2, 128]
0	0xbe190384	-0.14942747
1	0x3e723433	0.23652725
2	0x3e8ec9c3	0.27888307
3	0x3e84ee9e	0.259633
4	0xbdb23790	-0.08702004
5	0x3eb08f80	0.34484482
6	0x3e5c16b7	0.2149304
7	0x3e0d578b	0.13802926
8	0x3deef380	0.11667538
9	0xbe03eca9	-0.12883247
10	0x3dd9ce90	0.10635102
11	0x3e928395	0.28616014
12	0x3e22d264	0.1590057
13	0x3e05a0fd	0.13049693
14	0x3e60464e	0.21901819
15	0xbe5658cb	-0.2093231
16	0x3e39a33d	0.18128677
17	0x3ea7ff88	0.32812142
18	0x3df3dcd0	0.11907351
19	0x3e84c48a	0.25931197
20	0x3e888887	0.26666662
21	0x3e648a53	0.22318392
22	0xbc8b9d07	-0.01704265
23	0x3e2ba8a8	0.16763556
24	0x3e8c6389	0.2741969
25	0x3dce96bb	0.10087343
26	0x3e5ceeae	0.21575424
27	0x3d7801aa	0.060548462
28	0x3de57d07	0.11205488
29	0x3e6a09cd	0.22855301
30	0x3d9834ee	0.074319705
31	0x3e2da822	0.16958669
32	0x3e2de69b	0.169825
33	0x3d9ce698	0.0766117
34	0xbc752689	-0.014962801
35	0xbd83bdfe	-0.064327225
36	0x3e0cc4f6	0.1374701
37	0x3e834217	0.2563636
38	0x3e7bb163	0.24579386
39	0x3e43093e	0.19046494
40	0x3da2ad3f	0.079432
41	0x3e5db2b6	0.21650204
42	0x3e868591	0.26273778
43	0x3d6fad09	0.05851463
44	0xbc990683	-0.018679863
45	0x3e708cea	0.23491254
46	0xbce09a8c	-0.027417444
47	0x3e60f6bc	0.21969122
48	0xbc2274be	-0.009915529
49	0x3e404a8d	0.18778439
50	0x3e58c13d	0.21167465
51	0xbe3015ba	-0.17195788
52	0x3e0f219c	0.13977665
53	0x3e7d83a0	0.24757242
54	0xbe66c1ad	-0.22534819
55	0x3dd57f54	0.104246765
56	0x3dd21848	0.102585375
57	0x3d9b2f77	0.075774126
58	0xbbc4df7e	-0.0060080877
59	0x3db54907	0.088518195
60	0x3e9adaaa	0.30244952
61	0x3dff7c19	0.124748416
62	0x3e81a3c7	0.25320265
63	0x3dcf47a0	0.10121083
64	0x3deb6c52	0.1149527
65	0x3dc21dbf	0.0947833
66	0x3e6bfa0b	0.23044603
67	0xbd0b762c	-0.034048244
68	0xbd38c790	-0.045112193
69	0x3e597135	0.21234591
70	0x3e7284d8	0.23683488
71	0x3d7c584c	0.061607644
72	0x3e4d2b57	0.20036064
73	0x3d155672	0.036459394
74	0x3e78da45	0.24302013
75	0x3d07aa8c	0.03312163
76	0x3e362de8	0.1779095
77	0x3d841b98	0.064505756
78	0x3e4d203b	0.20031826
79	0x3e66613d	0.22498031
80	0x3e025b4d	0.12730141
81	0x3e80634e	0.25075763
82	0x3e95d88e	0.2926678
83	0x3dbe10ce	0.09280549
84	0x3cb9f3f5	0.022699336
85	0x3e6b64bd	0.22987647
86	0x3e361056	0.17779669
87	0x3e981a30	0.2970748
88	0x3e5d0976	0.2158564
89	0x3dd904de	0.105966315
90	0xbce1d792	-0.027568612
91	0x3db11f0c	0.086485
92	0x3d685542	0.056721933
93	0xbe85532b	-0.26040015
94	0xbb433892	-0.0029788357
95	0x3e59ebdd	0.21281381
96	0x3ea1c3b4	0.31594622
97	0xbb098f44	-0.0020989934
98	0x3e248190	0.16065049
99	0xbb88b39e	-0.0041718027
100	0x3d9e3fef	0.07727038
101	0x3e0e0064	0.13867337
102	0x3dc4deee	0.09612833
103	0x3e6e415d	0.23267122
104	0x3dbd8b11	0.092550404
105	0x3dc5ee03	0.09664538
106	0x3df81cb7	0.12114852
107	0xbda285f4	-0.07935706
108	0xbe130b62	-0.14359811
109	0x3acc3fcd	0.0015582979
110	0xbe069659	-0.1314329
111	0x3e23c1f9	0.15991963
112	0x3e23b9cc	0.15988845
113	0x3d28cc21	0.041210297
114	0x3d709ae7	0.058741476
115	0x3e98d319	0.29848555
116	0x3eb378c7	0.35053083
117	0x3e6babe2	0.23014787
118	0x3dbc527e	0.09195422
119	0x3e35dae0	0.17759275
120	0x3d73ec16	0.05955132
121	0x3e887bda	0.2665699
122	0x3e49a641	0.19692327
123	0xbe3fed4e	-0.18742868
124	0x3e83f15e	0.25770086
125	0x3e2ca05e	0.1685805
126	0x3e19f15b	0.15033476
127	0x3ea4031a	0.32033616
128	0x3e20e474	0.15712148
129	0xbe7ca045	-0.24670513
130	0xbe8570f2	-0.26062733
131	0xbe82b1cf	-0.25526282
132	0x3db1b3f4	0.086769015
133	0xbeaf07ed	-0.34185734
134	0xbe647adc	-0.22312492
135	0xbe18e5a1	-0.14931346
136	0xbdf16fa0	-0.11788869
137	0x3e089a24	0.1334005
138	0xbdf080af	-0.117432944
139	0xbe95331e	-0.29140562
140	0xbe1b9358	-0.15192926
141	0xbdf34833	-0.11879005
142	0xbe601660	-0.21883535
143	0x3e4217b9	0.18954362
144	0xbe318d90	-0.17339158
145	0xbea3defb	-0.32006058
146	0xbdfd8073	-0.12378015
147	0xbe8c4165	-0.27393642
148	0xbe8eb52a	-0.27872592
149	0xbe6ca65f	-0.2311034
150	0x3bddca08	0.006768469
151	0xbe23d0eb	-0.15997665
152	0xbe866931	-0.2625213
153	0xbdb088e7	-0.08619862
154	0xbe461b64	-0.19346386
155	0xbd72f737	-0.059317794
156	0xbdfb955a	-0.12284346
157	0xbe6008ce	-0.21878359
158	0xbdd77b79	-0.105215974
159	0xbe3395c8	-0.17537606
160	0xbe24340a	-0.16035476
161	0xbd868201	-0.06567765
162	0x3c2702c5	0.010193531
163	0x3d82806b	0.0637215
164	0xbe160bcb	-0.14652936
165	0xbe86cd6f	-0.26328608
166	0xbe8085b2	-0.25102
167	0xbe4c88dd	-0.19974084
168	0xbdbb8766	-0.091566846
169	0xbe5c54c4	-0.2151671
170	0xbe7f026c	-0.24903268
171	0xbd9f5ce7	-0.077813916
172	0x3cc09168	0.023506835
173	0xbe5aca57	-0.21366249
174	0x3d276f97	0.040877905
175	0xbe634ca6	-0.22197208
176	0xbb852f89	-0.0040645045
177	0xbe4bbf1d	-0.19897123
178	0xbe460a81	-0.19339944
179	0x3e2f2ec1	0.17107679
180	0xbe03a79a	-0.12856904
181	0xbe7d79a5	-0.24753435
182	0x3e63290e	0.2218363
183	0xbde689ed	-0.11256776
184	0xbdc98847	-0.09840446
185	0xbdb5d60a	-0.08878715
186	0x3b837858	0.004012149
187	0xbdc19486	-0.09452157
188	0xbe965e15	-0.29368654
189	0xbdf891c7	-0.1213718
190	0xbe834206	-0.2563631
191	0xbdd0a989	-0.10188586
192	0xbe004969	-0.12528004
193	0xbd916f6d	-0.07101331
194	0xbe6b95f0	-0.23006415
195	0x3d3b008e	0.045654826
196	0x3d1f488b	0.03888754
197	0xbe686f61	-0.22698738
198	0xbe7c43db	-0.2463526
199	0xbd6c0056	-0.057617508
200	0xbe49e35b	-0.19715635
201	0xbd18c195	-0.03729399
202	0xbe6b768b	-0.2299444
203	0xbcd15334	-0.02555237
204	0xbe29e7cb	-0.16592328
205	0xbd6a1355	-0.057147343
206	0xbe53218e	-0.20618269
207	0xbe6821d8	-0.2266916
208	0xbe07062d	-0.1318595
209	0xbe86870e	-0.26274914
210	0xbe8e7aeb	-0.27828154
211	0xbdc7b991	-0.09752191
212	0xbc99cf55	-0.018775621
213	0xbe45bdf2	-0.1931074
214	0xbe492327	-0.19642316
215	0xbe95a742	-0.2922917
216	0xbe5af2e7	-0.21381722
217	0xbdb0288f	-0.08601486
218	0x3d197a8d	0.03747039
219	0xbdc44251	-0.09582961
220	0xbd24553b	-0.040120345
221	0x3e80c693	0.251515
222	0xbc081205	-0.008305077
223	0xbe512b7c	-0.20426744
224	0xbea1c130	-0.31592703
225	0x3c0d7393	0.008633512
226	0xbe1b0295	-0.15137704
227	0x3ccda020	0.025100768
228	0xbdcd2a18	-0.10017794
229	0xbe17fbc5	-0.14842136
230	0xbdc98172	-0.09839143
231	0xbe693207	-0.2277299
232	0xbdae4606	-0.0850945
233	0xbdc6975b	-0.096968375
234	0xbe07cb83	-0.13261227
235	0x3da70dea	0.08156951
236	0x3e011c5a	0.12608472
237	0xbc0fb088	-0.008770116
238	0x3dedc73c	0.116102666
239	0xbe2cab13	-0.16862135
240	0xbe192aee	-0.14957783
241	0xbd51193f	-0.051049467
242	0xbd89f6f0	-0.06736553
243	0xbe9d3818	-0.3070686
244	0xbea33bfc	-0.31881702
245	0xbe68efd0	-0.22747731
246	0xbdb3892e	-0.08766399
247	0xbe34793d	-0.17624374
248	0xbd1d8431	-0.038456146
249	0xbe8b0981	-0.27155688
250	0xbe53e629	-0.20693268
251	0x3e27c3a0	0.16383219
252	0xbe8d7957	-0.27631637
253	0xbe3219c1	-0.17392637
254	0xbe119fed	-0.14221163
255	0xbea0324b	-0.3128837

network_body._body_endoder.seq_layers.0.bias f4 [128]
0	0xbbf28e34	-0.007402206
1	0xbd7e3fb5	-0.062072475
2	0xbc9316ad	-0.017955149
3	0xbd3dfae6	-0.046381854
4	0xbc722970	-0.014780387
5	0xbcda131f	-0.026620446
6	0xbca51c1b	-0.020155003
7	0xbbc72027	-0.006076831
8	0x3c73780a	0.0148601625
9	0x3d512189	0.051057372
10	0x3d3efa0e	0.04662519
11	0xbe0867ec	-0.13320893
12	0xbc28cc4c	-0.010302614
13	0xbb2f8a72	-0.00267854
14	0xbc0d3119	-0.008617663
15	0xbd1a2537	-0.037633147
16	0xbc3c39b0	-0.011488363
17	0x3bb40803	0.005494119
18	0x3d5479e7	0.051874068
19	0xbcf3db17	-0.029767556
20	0x3d74a06e	0.05972331
21	0xbdff2347	-0.124579005
22	0x3c9ac2b3	0.018891668
23	0xbd6de888	-0.058083087
24	0xbd27a287	-0.040926483
25	0xbcd45d70	-0.02592346
26	0x3d2480f3	0.040162038
27	0xbd5233cd	-0.051318932
28	0xbdd9e13d	-0.10638664
29	0xbc6488ee	-0.013948662
30	0xbcc34601	-0.023837091
31	0x3cdabf7c	0.026702635
32	0xbcd10a66	-0.025517654
33	0xbd87dbca	-0.06633718
34	0xbd734c1f	-0.059398767
35	0xbd1c93be	-0.038226835
36	0xbcfe7134	-0.031059839
37	0x3cefe7a6	0.029285263
38	0x3c43447e	0.011918185
39	0xbd6590a4	-0.056046143
40	0xbe19c2a7	-0.1501566
41	0xbd8bbed2	-0.068235055
42	0x3d31be5e	0.04339444
43	0xb9d04ef9	-0.0003973169
44	0xbb22b27d	-0.0024825626
45	0xbced160e	-0.02894118
46	0xbac5d18d	-0.0015092358
47	0x3c02ece3	0.0079910485
48	0xbccf1db8	-0.025282726
49	0xbd49c105	-0.049256343
50	0xbdfd2857	-0.1236121
51	0xbd919a14	-0.07109466
52	0x3c4c203b	0.012458856
53	0xbcadb8b6	-0.021206241
54	0xbd1a970e	-0.037741713
55	0xbd1b3846	-0.037895463
56	0xbcd2d120	-0.025734484
57	0xbce7ed7e	-0.028311487
58	0x3cfa44e7	0.030550433
59	0x3b312798	0.0027031656
60	0x3d3bc0ec	0.04583828
61	0xbad4bf22	-0.0016231278
62	0x3c53b15f	0.0129207065
63	0x3cd73015	0.026268044
64	0xbd98a530	-0.07453382
65	0x3d78c33a	0.060733058
66	0x3d4f9ec1	0.05068851
67	0x3ce7f07c	0.028312914
68	0x3d14a06d	0.036285806
69	0xbc06444b	-0.008194993
70	0xbd5ec8a5	-0.05439057
71	0x3c0d283f	0.008615552
72	0xbd9e2bcc	-0.07723197
73	0xbd06438e	-0.03277927
74	0xbc2e1962	-0.010626169
75	0x3d9c49cc	0.07631263
76	0xbd5bf76b	-0.053702753
77	0x3d9a4926	0.07533483
78	0x3c1d41bf	0.009598195
79	0x3d2b34ea	0.04179851
80	0x3c1bd16b	0.009510378
81	0x3c17a9ee	0.009256823
82	0xbe21eb20	-0.1581235
83	0xbcf934df	-0.030420719
84	0x3a2defeb	0.0006635177
85	0x3bc5333c	0.0060180705
86	0x3dcdada5	0.10042886
87	0xbd99db93	-0.075125836
88	0x3da9552d	0.08268199
89	0xbd9c8fe0	-0.076446295
90	0xbcb75009	-0.02237703
91	0xbd664182	-0.056214817
92	0xbd07b0c8	-0.033127576
93	0x3c412ecc	0.011790942
94	0x3b17f062	0.002318405
95	0xbdce9b7c	-0.1008825
96	0xbcc8f5de	-0.024531301
97	0x3c88ccc5	0.016699204
98	0xbb56696f	-0.0032716652
99	0x3ba9dde0	0.0051839203
100	0xbd91fa80	-0.07127857
101	0xbcbf7a02	-0.023373608
102	0x3a8d3b30	0.0010775086
103	0x3d53597d	0.051599015
104	0xbd5139c0	-0.051080465
105	0xbddb81a6	-0.10718088
106	0x3d5527e1	0.052039985
107	0xbd8a7136	-0.067598745
108	0x3c270661	0.010194392
109	0xbcbb60fd	-0.022873396
110	0xbdcc80e1	-0.09985519
111	0xbc81778d	-0.015804077
112	0x3c345e96	0.011008879
113	0x3d91198c	0.07084951
114	0x3cf287ce	0.029605772
115	0xbd8ff449	-0.070290156
116	0x3bea4e7f	0.0071504707
117	0x3b62da47	0.0034614967
118	0xbcf39e49	-0.029738562
119	0xbd04efe7	-0.03245535
120	0xbc54d261	-0.012989611
121	0xbd52755d	-0.051381458
122	0x3d22c065	0.039734263
123	0xbba0caf9	-0.0049070087
124	0x3ce5bd67	0.028044416
125	0xbca7cf1e	-0.020484503
126	0x3d520c28	0.051281124
127	0xbc809dbb	-0.015700212

network_body._body_endoder.seq_layers.0.weight f4 [128, 26]
0	0x3c756198	0.014976881
1	0x3dbf4f69	0.09341318
2	0xbe0a088b	-0.13479821
3	0x3e1019d1	0.14072348
4	0xbde40e3b	-0.11135527
5	0xbd14de83	-0.036345016
6	0x3e3aced2	0.18242958
7	0xbe29ae68	-0.16570437
8	0xbe7e37dd	-0.24825998
9	0xbc52c4b2	-0.012864279
10	0x3d707a38	0.058710307
11	0xbe6d12b3	-0.23151664
12	0x3e5477eb	0.2074887
13	0x3cf08a3d	0.029362792
14	0x3ee625ec	0.44950807
15	0x3e028594	0.12746269
16	0x3e220441	0.15821935
17	0x3d9f365d	0.07774041
18	0xbd825a13	-0.063648365
19	0xbea268b6	-0.31720513
20	0x3d916612	0.070995465
21	0xbdeb79da	-0.11497851
22	0xbe9cb845	-0.30609336
23	0x3e83cf79	0.25744227
24	0xbeca97cb	-0.39568934
25	0x3d862e19	0.06551761
26	0x3e1cfac5	0.15330036
27	0xbdbfed80	-0.093714714
28	0xbe82abea	-0.25521785
29	0xbeda0a11	-0.42585805
30	0xbd38f4e6	-0.04515543
31	0x3d872462	0.06598736
32	0x3d2880e2	0.041138537
33	0xbdf49731	-0.119429
34	0x3ea0eaf2	0.3142925
35	0xbdf5aa5a	-0.119953826
36	0x3e1b2085	0.15149124
37	0x3dc1d829	0.094650574
38	0x3e36a7cf	0.17837451
39	0xbd7cc8e2	-0.061715014
40	0xbde13369	-0.10996134
41	0xbe01473c	-0.1262483
42	0x3c7820d8	0.015144549
43	0xbd850273	-0.06494608
44	0xbc6ff83b	-0.014646585
45	0x3e6be410	0.23036218
46	0xbdc336fe	-0.09531973
47	0x3ed17e94	0.40916884
48	0x3cc7987f	0.024364708
49	0xbe853330	-0.26015615
50	0xbdb7b622	-0.08970286
51	0x3dec8d94	0.115504414
52	0x3cce844a	0.025209565
53	0x3d86526c	0.065586895
54	0x3e64abc7	0.22331153
55	0x3db2bd43	0.08727505
56	0xbce70d11	-0.028204473
57	0x3e3fd3ca	0.18733135
58	0xbc9f6726	-0.019458365
59	0x3ed9db53	0.42550144
60	0xbd82c7a4	-0.06385735
61	0x3d9b6977	0.07588475
62	0xbe9800d0	-0.2968812
63	0x3e85ecfe	0.26157373
64	0x3d0ec8fe	0.03485965
65	0xbdf7cdd2	-0.12099804
66	0xbdf4412f	-0.11926495
67	0xbdf6cc5a	-0.12050696
68	0xbd8f7fc3	-0.070067905
69	0xbed870e7	-0.42273638
70	0x3d53f426	0.05174651
71	0x3e0011cb	0.12506787
72	0x3d00609f	0.031342145
73	0x3e40190d	0.18759556
74	0x3e33dad4	0.17563945
75	0x3de7a5a8	0.11310893
76	0xbec4afd6	-0.38415402
77	0x3ef255bb	0.47331032
78	0x3e995cac	0.29953516
79	0xbe9892a9	-0.29799393
80	0x3c1a6cf3	0.00942539
81	0xbebbe6c6	-0.36699504
82	0xbc4b8965	-0.012422894
83	0x3d13a45f	0.03604543
84	0xbeb11cfb	-0.34592423
85	0xbd76ce97	-0.060255613
86	0xbe899c3d	-0.26877013
87	0x3e2743d4	0.16334468
88	0x3ed3ef9e	0.4139375
89	0xbe213b23	-0.15745215
90	0x3e36c69e	0.17849204
91	0xbeb17a9a	-0.3466385
92	0xbf1d4607	-0.6143498
93	0xbd797cc7	-0.060910013
94	0xbd31db37	-0.04342195
95	0x3e414f67	0.18877946
96	0x3c8a96d2	0.01691762
97	0xbe38bc5f	-0.18040608
98	0x3d345766	0.044028662
99	0xbee6e0f6	-0.45093507
100	0x3e2c8a3f	0.16849612
101	0xbd1b6013	-0.03793342
102	0x3dd82203	0.10553362
103	0x3d67802b	0.056518715
104	0xbc924907	-0.017857088
105	0x3eb7af7c	0.3587607
106	0x3e711799	0.23544158
107	0x3ec5ca0e	0.38630718
108	0x3e5c12d2	0.21491554
109	0xbdefb0f3	-0.11703672
110	0x3e0b571c	0.13607448
111	0xbe088263	-0.13330989
112	0x3e542495	0.2071708
113	0x3eb3cfe0	0.35119534
114	0x3e255b12	0.16148022
115	0x3e2df9f1	0.16989876
116	0xbcbdd180	-0.023171186
117	0xbe04cb29	-0.12968124
118	0x3e163180	0.1466732
119	0x3dae836d	0.08521161
120	0xbdc6cbba	-0.097068265
121	0xbdeeebe4	-0.11666086
122	0xbdb51264	-0.08841398
123	0xbe9072d7	-0.28212616
124	0xbea17316	-0.31533116
125	0xbe58ba6a	-0.21164861
126	0xbee22360	-0.44167614
127	0x3e6f5bb4	0.23374826
128	0x3b39ec56	0.0028369627
129	0x3c3c67a4	0.011499319
130	0xbed56fdc	-0.41686904
131	0xbe471f9c	-0.19445652
132	0xbd85fdc7	-0.06542545
133	0xbe9d35b2	-0.3070503
134	0xbea0b6ba	-0.3138941
135	0x3d1d6f3c	0.03843616
136	0x3cb34e03	0.021887785
137	0x3e58f19b	0.21185915
138	0x3e222d9b	0.1583771
139	0xbe675f99	-0.22595061
140	0xbdfe8b2b	-0.12428888
141	0xbee38beb	-0.44442686
142	0xba9394c3	-0.0011259544
143	0x3e17263b	0.14760678
144	0x3e969965	0.29413906
145	0x3e946d29	0.28989533
146	0x3e7699ca	0.24082103
147	0xbed39e30	-0.41331625
148	0x3e7990f7	0.24371706
149	0x3c75aa87	0.01499427
150	0x3e851eed	0.26000157
151	0x3da3728d	0.07980833
152	0xbdd2cb99	-0.102927394
153	0x3e67dd91	0.22643115
154	0x3e951193	0.2911497
155	0xbe3cb903	-0.18429951
156	0xbcb2f894	-0.021847047
157	0xbe06874c	-0.13137549
158	0x3b2f940f	0.002679113
159	0xbe684fdc	-0.22686714
160	0xbe3ec662	-0.18630365
161	0xbda50109	-0.08056838
162	0x3d5e6969	0.054299746
163	0xbd0b887a	-0.0340657
164	0x3ef94178	0.4868276
165	0x3ec1bdcf	0.37840125
166	0x3c932c4d	0.01796546
167	0x3d4df8d0	0.050286114
168	0xbd86ebee	-0.06587969
169	0xbc08416e	-0.008316381
170	0xbef39792	-0.47576576
171	0x3d40c98f	0.04706722
172	0xbe99d974	-0.30048716
173	0x3e0cb284	0.13739973
174	0xbe35f3f4	-0.17768842
175	0x3e2c5c51	0.16832091
176	0xbda736ee	-0.08164774
177	0x3e2ee57f	0.17079733
178	0x3e435d4f	0.19078563
179	0x3d5558fa	0.052086808
180	0xbd69d5a6	-0.057088517
181	0x3dcebfaa	0.10095151
182	0xbd5a109e	-0.053238504
183	0x3de3f4d6	0.11130683
184	0xbe044581	-0.12917139
185	0x3da89b6b	0.082327686
186	0xbd979a1e	-0.074024424
187	0xbed2817a	-0.41114408
188	0x3c85fa25	0.01635463
189	0xbc734ab7	-0.014849356
190	0x3e0343a7	0.12818776
191	0xbd84fdc5	-0.06493715
192	0xbd98ed31	-0.07467116
193	0xbe8699a9	-0.26289108
194	0x3f067dc6	0.52535665
195	0xbef62385	-0.48073974
196	0x3db70939	0.08937306
197	0x3e7e6b48	0.24845612
198	0xbe1d209f	-0.15344475
199	0x3e850a9c	0.25984657
200	0xbe593476	-0.21211419
201	0xbb4b7cbb	-0.0031049687
202	0xbe8de4e6	-0.27713698
203	0x3d01e7c6	0.031715177
204	0xbd1bb52e	-0.038014583
205	0x3cdc76bf	0.026912091
206	0xbeb6e268	-0.3571961
207	0x3f244ea9	0.64182526
208	0xbea7d10e	-0.32776684
209	0x3ed7f119	0.4217613
210	0x3e24e6b7	0.16103636
211	0x3d82788b	0.06370648
212	0x3e75ba8d	0.23996945
213	0x3e305a9c	0.17222065
214	0x3ef1ee29	0.47252014
215	0x3cb23bdd	0.02175706
216	0x3de8cb12	0.113668576
217	0x3e17a1c6	0.14807805
218	0x3e5c32fb	0.21503823
219	0xbefeba4a	-0.49751502
220	0xbebcf370	-0.36904478
221	0xbd63c7dc	-0.055610523
222	0x3e4bdb13	0.19907789
223	0x3eb89124	0.36048234
224	0x3e23daa5	0.16001375
225	0xbc7def1c	-0.015498903
226	0xbd7e1657	-0.062033024
227	0xbd729da1	-0.059232358
228	0x3e569911	0.20956828
229	0x3c62cb3b	0.013842399
230	0xbcc71fb5	-0.024307111
231	0x3cce32f5	0.025170783
232	0xbe1c555b	-0.15266936
233	0x3e812b81	0.25228503
234	0xbdada6ab	-0.08479055
235	0xbd0c338b	-0.034228843
236	0xbe8fa200	-0.28053284
237	0x3ddc357e	0.1075239
238	0x3e3fd310	0.18732858
239	0xbcef283e	-0.029193994
240	0x3cc29e53	0.023757135
241	0xbd4e2e04	-0.050336853
242	0xbdb1fe7b	-0.086911164
243	0xbd634efb	-0.055495244
244	0x3e456f6d	0.19280787
245	0x3e772bea	0.24137846
246	0x3df4a88e	0.11946212
247	0x3e92fe72	0.2870975
248	0x3d9644df	0.07337355
249	0xbec44a0e	-0.3833775
250	0x3d2baf4b	0.04191522
251	0xbdcfd80d	-0.1014863
252	0xbe591a59	-0.21201457
253	0xbdf49065	-0.119416036
254	0xbc9ae360	-0.018907249
255	0xbe516569	-0.20448841

network_body._body_endoder.seq_layers.2.bias f4 [128]
0	0x3c03e93c	0.008051213
1	0xbe11c756	-0.14236197
2	0xbde39a2c	-0.1111339
3	0xbe06cb0a	-0.13163391
4	0x3d26d2a9	0.040728245
5	0xbd91eb0c	-0.0712491
6	0xbda93484	-0.0826197
7	0xbe40dcf9	-0.18834294
8	0xbdb43e97	-0.088010006
9	0x3db3c74c	0.08778247
10	0xbdad8a30	-0.08473623
11	0xbd9c04ff	-0.076181404
12	0xbd5e0950	-0.0542081
13	0xbdbcf19a	-0.09225769
14	0xbde9447c	-0.113900155
15	0x3d19c9a3	0.03754581
16	0xbe482325	-0.19544657
17	0xbd77bdbc	-0.06048368
18	0xbdd3fa89	-0.1035052
19	0xbe0803d4	-0.1328271
20	0xbdb8d2f5	-0.09024612
21	0xbe0caee9	-0.13738598
22	0x3cff109e	0.031135853
23	0xbd6e9b44	-0.05825354
24	0xbe05728a	-0.13031974
25	0xbd706e6e	-0.058699064
26	0xbda1323c	-0.078709096
27	0xbd9b83e2	-0.07593514
28	0xbe16476c	-0.14675683
29	0xbe300b09	-0.1719171
30	0x3c1fd2d2	0.009754853
31	0xbe1a4380	-0.15064812
32	0xbe227b10	-0.15867257
33	0xbc98f22f	-0.01867017
34	0xbb38f364	-0.0028221244
35	0x3c3a875a	0.011384809
36	0xbd3368a7	-0.043800976
37	0xbe1bc433	-0.15211563
38	0xbdbf786e	-0.09349142
39	0xbdab95ca	-0.08378179
40	0xbd4dfe0f	-0.050291117
41	0xbdc4f6b3	-0.09617367
42	0xbdf11abc	-0.11772677
43	0xbce97877	-0.028499825
44	0x3ad4235d	0.0016184855
45	0xbdca3c48	-0.09874779
46	0x3d66120e	0.056169562
47	0xbd3ff998	-0.04686889
48	0xbba1894c	-0.004929697
49	0xbe11cff5	-0.14239486
50	0xbdf0d430	-0.117592216
51	0x3dd8fb22	0.10594775
52	0xbd0ea60c	-0.034826323
53	0xbde780e9	-0.113038845
54	0x3ddde20b	0.1083413
55	0xbdee4632	-0.116344824
56	0xbd8cebe0	-0.06880927
57	0x3d1a0117	0.037598696
58	0xbd29c48a	-0.0414472
59	0xbcb7e35b	-0.022447279
60	0xbdea466e	-0.11439215
61	0xbe092ae6	-0.1339527
62	0xbdb0831b	-0.086187564
63	0xbd681e8c	-0.056669757
64	0xbd38ea92	-0.04514558
65	0xbdafa0c4	-0.085755855
66	0xbdfc2352	-0.12311424
67	0xbcab3882	-0.020900968
68	0x3ce8dbe0	0.028425157
69	0xbe066c18	-0.13127172
70	0xbe011ef9	-0.12609471
71	0xbbc04557	-0.005867641
72	0xbe1ac98f	-0.15115951
73	0xbdc2844e	-0.09497891
74	0xbdf26d43	-0.11837246
75	0xbce1369c	-0.02749186
76	0xbe13c9cd	-0.1443245
77	0xbd21defb	-0.03951929
78	0xbe358962	-0.17728189
79	0xbdce4134	-0.1007103
80	0xbb2e8217	-0.0026627833
81	0xbdcf99d6	-0.10136764
82	0xbd3d1386	-0.046161197
83	0xbe146211	-0.14490534
84	0xbd2199bd	-0.039453257
85	0xbda330c5	-0.079682864
86	0xbe0ad66b	-0.13558356
87	0xbd9ec1b5	-0.077517904
88	0xbdeb4b2f	-0.114889495
89	0xbe014371	-0.12623383
90	0xbbaa8aad	-0.0052045197
91	0xbdd15910	-0.102220654
92	0xbd9087d9	-0.07057161
93	0x3e297e0b	0.16551988
94	0xbbec5884	-0.0072127003
95	0xbe2b1a22	-0.16709188
96	0xbdd09ed4	-0.10186544
97	0xbd83c9c3	-0.06434967
98	0xbdc5af03	-0.096525215
99	0x3c46047a	0.012086028
100	0xbd9f9a8d	-0.0779315
101	0xbdf84eb5	-0.12124387
102	0xbe2b24f8	-0.16713321
103	0xbdfdcb4d	-0.12392292
104	0xbe1fa56e	-0.1559045
105	0xbde31a99	-0.110890575
106	0xbd94999c	-0.07255861
107	0xbd474045	-0.048645277
108	0x3d95b089	0.07309062
109	0xbd896507	-0.067087226
110	0x3d7d1eaa	0.06179682
111	0xbe2e3a82	-0.17014506
112	0xbd86ee43	-0.065884136
113	0xbd95b583	-0.07310011
114	0xbceea212	-0.029130016
115	0xbd815980	-0.06315899
116	0xbd3f18e4	-0.046654597
117	0xbd89ddc7	-0.06731754
118	0xbd0ae318	-0.03390798
119	0xbd868a0f	-0.06569301
120	0xbbd83344	-0.006597908
121	0xbdceebe6	-0.10103588
122	0xbe07a96d	-0.13248225
123	0x3da7ff60	0.08203006
124	0xbd9b28a3	-0.0757611
125	0xbdf381f7	-0.11890023
126	0xbdc60d5b	-0.09670516
127	0xbdd77592	-0.10520472

network_body._body_endoder.seq_layers.2.weight f4 [128, 128]
0	0x3d5f72c9	0.054552827
1	0xbdf7902b	-0.12088045
2	0xbd1cc9b4	-0.038278297
3	0x3da59cd0	0.0808655
4	0x3dabe857	0.08393925
5	0x3db2e5da	0.08735247
6	0x3b8fe6d4	0.0043915305
7	0xbd0094f1	-0.03139204
8	0x3e06edd9	0.13176669
9	0x3db41527	0.08793097
10	0xbe564396	-0.2092422
11	0x3b975296	0.0046179993
12	0x3a0ccd37	0.00053711556
13	0x3d39fc12	0.04540641
14	0xbd6f8892	-0.058479853
15	0xbdc7bc17	-0.09752672
16	0x3d948984	0.072527915
17	0x3d3591d7	0.044328537
18	0x3e318e01	0.17339326
19	0xbe036798	-0.12832487
20	0x3ddb85c5	0.10718874
21	0xbde00ca9	-0.10939915
22	0xbdc23728	-0.094831765
23	0xbd18e122	-0.03732408
24	0xbe509d48	-0.20372498
25	0x3cd1220a	0.025528926
26	0xbdf81f72	-0.12115373
27	0xbd77c90b	-0.060494464
28	0xbd759126	-0.059952877
29	0x3dac1191	0.08401788
30	0xbe202def	-0.15642522
31	0x3e26996c	0.16269463
32	0xbd385956	-0.045007072
33	0x3e151004	0.1455689
34	0xbe23f983	-0.1601315
35	0x3d4522a3	0.048128735
36	0x3e181c01	0.14854433
37	0x3d8b7382	0.06809141
38	0xbdde886a	-0.10865863
39	0xbd39d609	-0.045370135
40	0xbd854ef2	-0.06509198
41	0xbd4451d8	-0.047929615
42	0xbe16bcb1	-0.14720418
43	0x3d928125	0.071535386
44	0x3cda64f7	0.026659472
45	0x3de9177c	0.113814324
46	0xbd260a9a	-0.040537454
47	0x3c17034a	0.009217093
48	0x3d2031ab	0.039109867
49	0xbdebac24	-0.115074426
50	0x3c534142	0.012893977
51	0x3e7f6d92	0.24944142
52	0x3cf982cf	0.030457882
53	0x3e142552	0.14467362
54	0x3dac6ceb	0.08419212
55	0xbe37438a	-0.17896858
56	0xbd337f81	-0.04382277
57	0xbdcd8918	-0.10035914
58	0xbd2c8001	-0.04211426
59	0xbe6167a5	-0.22012194
60	0x3d521f59	0.051299427
61	0xbd0d73c1	-0.03453422
62	0x3e026681	0.12734415
63	0xbd4c1811	-0.04982764
64	0xbe349c12	-0.17637661
65	0x3e253917	0.1613506
66	0x3c3ed5c7	0.011647648
67	0x3b942e18	0.0045220964
68	0xbdf944e2	-0.121713415
69	0x3e260525	0.162129
70	0xbd1adf38	-0.037810534
71	0x3cfb8afa	0.030705918
72	0x3bcb8822	0.0062112967
73	0xbc0ca7ca	-0.008584926
74	0xbd7a4117	-0.06109723
75	0xbd5f15d9	-0.054464195
76	0x3ce2b050	0.027671963
77	0xbd231b66	-0.03982105
78	0xbd8b9f51	-0.068174966
79	0x3ce5af28	0.028037623
80	0xbe4ede5e	-0.20202014
81	0xbd165ff6	-0.03671261
82	0x3cbe5044	0.023231633
83	0xbc2938a4	-0.010328446
84	0x3d2ea586	0.042638324
85	0xbe1b4a5d	-0.15165086
86	0x3e0662ad	0.1312358
87	0xbd84693b	-0.064653836
88	0xbcf1d357	-0.02951972
89	0x3dd45b43	0.10368969
90	0xbde073df	-0.10959601
91	0xbcba603c	-0.022750966
92	0x3d323655	0.043508846
93	0x3d79abc5	0.060954828
94	0x3cab1082	0.020881895
95	0x3c8779e9	0.016537623
96	0xbc754b91	-0.01497163
97	0x3d0726ca	0.032995977
98	0xbdb12e93	-0.086514615
99	0x3cd5f796	0.026119035
100	0x3dd3fef8	0.10351366
101	0x3a6541bf	0.00087454537
102	0x3dd13549	0.102152415
103	0xb9b14ee7	-0.00033818858
104	0xbc88c957	-0.016697569
105	0xbd970240	-0.07373476
106	0x3e052a88	0.13004506
107	0xbe2fa2de	-0.17151973
108	0x3e2205dc	0.15822548
109	0xbe037978	-0.12839305
110	0x3ce093bc	0.027414195
111	0x3d60aa08	0.054849654
112	0xbc9204fa	-0.017824639
113	0x3dd64fa5	0.1046441
114	0x3e0522d0	0.13001561
115	0xbcab082c	-0.02087792
116	0xbd7de2da	-0.06198392
117	0x3caec69d	0.02133494
118	0x3d2ab427	0.041675713
119	0xbe639ffb	-0.22228996
120	0xbcc97060	-0.024589717
121	0xb87176fa	-5.7569683e-05
122	0x3df64766	0.12025337
123	0x3bec6746	0.0072144596
124	0xbd391342	-0.04518438
125	0xbe19c7b9	-0.15017594
126	0x3d9af4b1	0.075662024
127	0xbd9fcfca	-0.078033045
128	0xbdded7ef	-0.1088103
129	0x3dacf4fc	0.084451646
130	0xbd78545f	-0.060627338
131	0x3da8ae07	0.08236318
132	0xbe8d4b35	-0.2759644
133	0x3bc80546	0.0061041443
134	0x3e0bbd33	0.13646393
135	0xbe1dcd24	-0.15410286
136	0x3c7b1e1e	0.015327005
137	0xbe5265d7	-0.20546661
138	0xbe12b549	-0.14326967
139	0x3e1e9e2b	0.15490024
140	0x3d84e34b	0.06488665
141	0xbe8456ac	-0.25847375
142	0xbd0df4fb	-0.03465746
143	0xbe920146	-0.28516597
144	0x3e5a5a93	0.21323614
145	0x3de0dab4	0.10979214
146	0x3a944b20	0.0011313893
147	0x3e93a6d2	0.2883821
148	0xbdb97fa5	-0.090575494
149	0x3e64654a	0.22304264
150	0xbd884142	-0.06653072
151	0xbe6208fa	-0.22073737
152	0x3e110aa8	0.14164221
153	0x3da3157a	0.07963081
154	0xbe5e2868	-0.21695101
155	0x3decad52	0.11556496
156	0x3de7d91a	0.11320706
157	0xbd86a0a3	-0.06573608
158	0x3d02bd89	0.031919036
159	0xbb38e083	-0.0028209991
160	0xbd9fc73f	-0.07801675
161	0x3d9c4298	0.07629889
162	0xbbd74ff9	-0.006570813
163	0xbdb9e065	-0.09076003
164	0xbd94d706	-0.07267575
165	0xbdfd9c34	-0.12383309
166	0xbdab25b5	-0.083568014
167	0xbe6c786e	-0.23092815
168	0x3de5980c	0.11210641
169	0x3e99aca1	0.30014518
170	0xbe01531f	-0.12629364
171	0xbda57e59	-0.080807395
172	0xbe87f101	-0.2655106
173	0x3d1bfd62	0.03808344
174	0xbd3dd805	-0.04634859
175	0x3e32b915	0.17453416
176	0x3d8e1843	0.06938221
177	0x3e81a1c8	0.25318742
178	0x3d7d7a46	0.061884187
179	0x3e0dbb87	0.13841067
180	0x3dfc38ca	0.12315519
181	0xbe8dad6a	-0.27671367
182	0xbe17203c	-0.1475839
183	0xbdccbc1c	-0.099968165
184	0x3db52e5f	0.08846735
185	0x3dbf42e0	0.09338927
186	0xbe819928	-0.2531216
187	0xbdd6bc5c	-0.104851454
188	0xbe4abf5d	-0.19799562
189	0xbd0736bb	-0.03301118
190	0xbe3eb583	-0.18623929
191	0xbdc0540c	-0.09391031
192	0x3da66add	0.08125851
193	0xbeafd736	-0.3434388
194	0xbe8cb4d6	-0.27481717
195	0xbe1ec6ec	-0.1550557
196	0x3d6dfbd1	0.05810148
197	0xbb532931	-0.0032220597
198	0x3e41390c	0.18869418
199	0xbd5f0c3e	-0.054455034
200	0x3e2d953d	0.16951461
201	0xbd82aa94	-0.063801914
202	0x3e08a877	0.13345514
203	0xbdb4e09f	-0.088319056
204	0xbb711491	-0.003678594
205	0xbe3c94b6	-0.18416104
206	0xb94528af	-0.0001880254
207	0xbe31b183	-0.17352872
208	0x3e246fb0	0.1605823
209	0x3d704e43	0.058668386
210	0x3de68c9f	0.1125729
211	0x3ce9be79	0.028533207
212	0xbdaa76db	-0.08323451
213	0xbd274149	-0.040833745
214	0xbdcd9397	-0.10037916
215	0x3de1b744	0.11021283
216	0xbe9cac3a	-0.30600148
217	0xbdbdbf73	-0.09265032
218	0xbddf1991	-0.10893548
219	0xbd55b98d	-0.05217891
220	0x3d7dfccf	0.062008675
221	0xbe877a99	-0.26460722
222	0xbd56b21d	-0.052415956
223	0xbd33e589	-0.043920074
224	0xbe4f21c3	-0.20227723
225	0xbebfc6e4	-0.3745643
226	0x3cc2e125	0.023788998
227	0xbd9e9ce5	-0.07744769
228	0x3da52e6e	0.080654964
229	0x3e2694d2	0.16267708
230	0xbd2e9841	-0.04262567
231	0xbe695c13	-0.2278903
232	0x3e2c1c7e	0.16807744
233	0xbe0b4564	-0.13600689
234	0x3de06dd4	0.10958448
235	0x3d948b44	0.07253125
236	0xbcbf490c	-0.023350261
237	0x3db6f5a2	0.089335695
238	0x3df93a45	0.12169317
239	0xbc830a68	-0.015996173
240	0xbe4f6961	-0.20255043
241	0xbedf92f8	-0.43666816
242	0xbe98f45d	-0.29873934
243	0x3d315828	0.043296963
244	0x3d676515	0.056492884
245	0xbd89d19d	-0.06729434
246	0x3e1f7adb	0.1557421
247	0x3db0be6d	0.08630071
248	0x3e0dac8d	0.13835354
249	0xbe83e71b	-0.25762257
250	0xbd86cde5	-0.0658224
251	0xbe87727b	-0.2645453
252	0xbe7602e3	-0.24024539
253	0xbe49b5bb	-0.19698231
254	0xbe5e14da	-0.21687642
255	0xbdd63deb	-0.10461029
