AIRocketLanding/results/AIRocket1/AIRocket/AIRocket-202513.pt (torch, 499727 bytes, 42 tensors)

network_body._body_endoder.seq_layers.0.weight f4 [128, 24]
00000000: 4062 dd3d a123 833e 6d2b 93bc caf4 833d
00000010: d463 37be c7fa f7bd a3ec cc3d a448 24be
00000020: f591 16bd 3447 0b3e 8b15 b0be fe2b f5bc
00000030: 19b2 9c3d 9c32 8cbe 2774 a63e 0387 01be
00000040: 94f8 403e 653e 8cb7 ce6f c73e cd08 8f3e
00000050: f65b 983d ecee cfbd b546 d53e 2a27 453e
00000060: 0ec2 8ebe 272e 3d3e dbfd d33c 4e58 a73e
00000070: 550a 6a3e b8b1 aebe 9c11 51be 76b6 40be
00000080: c172 033e dfe6 9dbe 05c4 1d3d d53a 8f3e
00000090: c1c4 d5be 2d44 153d 1a14 423b dba7 0b3e
000000a0: 152f c33d c4df 08be 13c5 60be 98a9 c63d
000000b0: b748 463e 1c14 983e c6d3 ba3d 2c0a d63d
000000c0: c7f9 3bbe e52a 37be 0882 84bc ade9 703e
000000d0: fa6d 00be 34cb 1a3e 2cb9 cbbd 262a 8b3d
000000e0: 28b2 c7bd e567 5dbe c6d7 6dbd 974d 42bd
000000f0: f140 753e 4d53 6a3e e93c fbbc be29 b1be
00000100: 11d1 0a3d 47cf b13e e896 8abd 1bf9 7c3c
00000110: 9494 0b3e 2507 d9bd fd1d 00bd 859d 033e
00000120: e6d1 d83c dcff afbb 2c75 07be 3dcf a43e
00000130: 599a c73d c5a6 453e 4680 923d d388 ac3d
00000140: 9f43 97bd 17aa 42bd fbca 76be 4325 e1bd
00000150: e00d 833e 410a a4be c225 c0bd 6bcd 913e
00000160: 9682 a23d e082 283e 5772 a53d 4074 0b3b
00000170: f959 eabd eba8 b13b e7cf 29bd 69b9 1dbe
00000180: b825 383e eb86 513e 8b5d 7b3e 055e e8bd
00000190: 1fbb 00be 1412 fbbd 82aa ba3e 6d96 9d3d
000001a0: e1fe 4c3d 3524 d9be d560 14bb 0960 bebd
000001b0: e5e1 2f3e 4180 843e 188d 9d3d 3854 b93d
000001c0: cd7c ab3d 83e9 1cbc 089b 0abd 2acb a43e
000001d0: c671 ac3d aa18 193e 7058 6f3e 1566 22bd
000001e0: 807e 7bbd 7002 e33e 1e99 13be 95e9 e1bc
000001f0: cbb7 e73e 979d 40be d613 1dbe c4c6 9a3e
00000200: b349 00bd a52e ffbe a56e 933d f258 263e
00000210: 279c cf3e a7cf 5b3d 1cc9 26be 3c51 563c
00000220: 36f1 b9be 7a20 6ebd a94c 5bbe e9ae 64be
00000230: 6a66 12bd 75f6 54be 071b 95bd a5e7 40bd
00000240: 7940 3ebe 069e b9ba a200 3abe b5c6 19be
00000250: 40f9 f63c 24d8 bdbd a955 2a3e f934 353b
00000260: 5d22 7b3b e58f c33d 9617 d4bb a72f a3bd
00000270: 1439 07be 9d07 023e f3b4 e6bd 2702 533e
00000280: 9396 85be 1aa5 aa3d ccf2 183e b52e ea3c
00000290: bc12 8b3e 3cd4 7cbe f128 b53d 04a0 003c
000002a0: e926 103d 1cab 293d e63f 353e 64eb bf3d
000002b0: 4057 493e 8b3e 8fbe c62c 4dbe 777b ef3d
000002c0: c94a a0be 4185 d5bd 5a7f c13d ca41 e43e
000002d0: 13d9 f73d 4e82 313e cdd9 b73e 108a f73e
000002e0: 8d2f a43e 4a35 483e e2bf 56be b62b af3d
000002f0: b30a dfbe b615 78be 9a14 ed3d 5d28 c7bd
00000300: 8f2e e23d 3276 3b3e 3528 3d3e c709 3fbe
00000310: 83a2 013e 57a6 31be ad29 4bbe ef80 f33d
00000320: b573 b33e 0493 243e 9701 7f3e aa58 98be
00000330: f2d1 f6bd e784 033f db0b bd3e 0f18 2e3e
00000340: 98c2 15bd 7c64 443e 144b b9be d7ba 7bbe
00000350: 0287 c23d 5899 993e a2df 803e e8bf bf3d
00000360: ab24 b6be d1f4 f1bd 42a2 623e 19e4 5cbd
00000370: b3d1 4d3e 7088 99bd 5d1d 9dbe 3ca0 aebe
00000380: ff0c 84be e25b 723e 90bc 033f 079b 533d
00000390: 32a8 c63e ea75 b7bd e710 dd3e 80a1 5abd
000003a0: ece2 f2bc 7a6a 043c 17b5 143b 3faf 463d
000003b0: d93c 843e 93ef 1bbd 03fa 8f3e 1a47 be3d
000003c0: 278b 713e 7f5f a6be e087 abbe 5c68 cabe
000003d0: e4b8 e53c aaeb debd 0772 8f3e f5c7 c23d
000003e0: 7e8d 423e c4b7 8dbc 8e3c 463b 92a3 4b3e
000003f0: 4784 6a3e 78d5 e2be afcb 293e c674 b0be
0.10809755 0.2561312 -0.017965043 0.06443174 -0.17909175 -0.12108379 0.10006072 -0.16043335
-0.03676029 0.1360138 -0.34391436 -0.029928204 0.07651157 -0.27382362 0.32510492 -0.12649159
0.18844825 -1.6718355e-05 0.38952488 0.27936402 0.07439415 -0.101529926 0.41655508 0.19253221
-0.27882427 0.18474637 0.025877884 0.3268456 0.22855504 -0.34119964 -0.20416874 -0.18819603
0.12836744 -0.30840203 0.038517017 0.27974573 -0.41751674 0.03644197 0.0029614032 0.1363825
0.095304646 -0.1336661 -0.21950178 0.09700316 0.19363676 0.29702842 0.09122424 0.10451159
-0.18357001 -0.17887457 -0.016175285 0.2352664 -0.12541953 0.15116578 -0.09947428 0.067951486
-0.097507775 -0.21621664 -0.058067106 -0.047437277 0.23950554 0.22883339 -0.030668693 -0.3460216
0.033890788 0.34728453 -0.06767064 0.015440251 0.13630897 -0.10597066 -0.0312786 0.12853058
0.026467275 -0.005371077 -0.13228291 0.3218936 0.09746236 0.19301899 0.071533725 0.08424535
-0.073859446 -0.04752549 -0.24100868 -0.10993435 0.25596523 -0.32039073 -0.09382202 0.28477034
0.079350635 0.16456175 0.08078449 0.0021279007 -0.11442942 0.005421748 -0.041458037 -0.1540276
0.17983139 0.20461623 0.24547403 -0.11346058 -0.12571381 -0.122593075 0.36458212 0.07694707
0.05004776 -0.42410436 -0.0022640724 -0.09295661 0.17176016 0.258791 0.07692927 0.090492666
0.08373413 -0.009577158 -0.033839256 0.32186252 0.08420138 0.14950815 0.2337358 -0.039648134
-0.061399937 0.44337797 -0.14413878 -0.0275772 0.4525741 -0.18810116 -0.15339598 0.3022977
-0.031320285 -0.49840274 0.07198838 0.16244867 0.40548822 0.05366483 -0.16287655 0.013080891
-0.36316842 -0.05813644 -0.21415962 -0.22332348 -0.0357422 -0.20797141 -0.07280546 -0.047095913
-0.18579282 -0.0014161475 -0.18164304 -0.15017207 0.030148149 -0.09269741 0.1663424 0.0027649982
0.0038320043 0.0954893 -0.006472538 -0.07968073 -0.13205367 0.12698217 -0.11264982 0.2060629
-0.26091442 0.08332272 0.1493637 0.028586725 0.2716273 -0.24690336 0.088456996 0.007850651
0.035193358 0.04142295 0.17700157 0.09371069 0.1966219 -0.27977404 -0.20036611 0.11693471
-0.31307057 -0.10425807 0.094481185 0.44581443 0.121019505 0.17334864 0.35908356 0.4834752
0.32067528 0.19551578 -0.20971635 0.08553259 -0.4356285 -0.24227032 0.11576195 -0.097244956
0.110440366 0.18306807 0.18472369 -0.18656074 0.1265965 -0.1734861 -0.19840117 0.118898265
0.35049215 0.16071707 0.2490295 -0.29755145 -0.12051763 0.5137467 0.36923108 0.17001365
-0.036562532 0.19178957 -0.36190093 -0.24582992 0.09498407 0.29999804 0.25170618 0.09362775
-0.3557485 -0.11814273 0.22132209 -0.05392847 0.20099525 -0.074967265 -0.30686465 -0.34106624
-0.25791165 0.23667863 0.514596 0.051661517 0.38800198 -0.08958037 0.43176958 -0.053376675
-0.02964922 0.008082027 0.0022690946 0.04850697 0.25827673 -0.038070273 0.2812043 0.09290905
0.23588239 -0.32494733 -0.33502102 -0.39532745 0.028042264 -0.10884793 0.28016683 0.09510795
0.18999287 -0.01729954 0.0030248496 0.19886616 0.22902022 -0.4430349 0.16581605 -0.3446409

network_body._body_endoder.seq_layers.0.bias f4 [128]
00000000: 7548 5abc bf28 0b3b ac6a 82bb 65ef 003c
00000010: feea 8c3b 804a 593c 3473 f73a 652f 0c3c
00000020: a8a6 773c 865e 0fbb 9097 92bc b13f 7abc
00000030: 9800 0b3c a04c 38bc 9059 873b 3514 4a3c
00000040: 1105 dab9 3724 30bb 3552 6ebc 033f 3e3c
00000050: b5ff 8f3a 553d d5ba b29e e8bb 77f5 d43b
00000060: 34b9 98bb fca9 ddb9 27f3 a914 d441 043b
00000070: e1a8 ae39 8d11 6c3c d646 45bb b44b b0b4
00000080: ab7f ba3b 67af 72bb fc5c 84bc 11b8 893a
00000090: e183 de3b 5a98 40bc e981 4bbc 6521 b6bb
000000a0: 4673 bd3b 4092 a33a c379 aabb 659a 6c3c
000000b0: d849 633b 4817 043c 8dff 0b3c 98f2 ad3c
000000c0: dbfe 2639 cb7e ddbb b8a9 37bc b0ac bcbc
000000d0: ecb5 d7bb d867 b43c a49e 67bc db77 8fbc
000000e0: f1c8 e53c e360 2dbb c268 e53b e294 aabc
000000f0: 4da5 b3bb 1c35 10ba cd9e 4a3c 92f2 d73b
00000100: b3b8 00bc f12e ebbb b6a6 0c3b 8ac7 303b
00000110: 1ddf c73b 9d63 72ba 6d83 0c3a 7246 903b
00000120: f4fe 6fa6 0ca4 2bbc d513 02bb 9820 cebc
00000130: 6a98 20bc 0401 34ba ce7c 1c3a a826 c833
00000140: 3ca4 243c 83e1 803c 468d cebb 0e4e e03b
00000150: d973 94bc b3bb 31bc 22d4 b9bb a43d e73a
00000160: 41ca 50bc d240 f93b d252 82bc 0c99 813c
00000170: 82be 53bc ead4 f2bb 8f3a 69bc ef0a f13b
00000180: 13f6 02bc cc7f f13b 3a78 db1c ae6b 503c
00000190: 94f6 113c 0541 0ab4 23e5 d4bb 8c8d e43b
000001a0: 9b17 403a 8e1f 46bc 68d0 603b 6a62 803b
000001b0: 6369 b1bb d7cb e73b e286 96bc 4532 7cbb
000001c0: 896b 1b3c e69f 07bc e454 bfbc d24d b93a
000001d0: 1774 50bc ae7f 44ba 838c a5bb ed00 27bb
000001e0: f9af bbbb 7eec 283c 87b1 bebb f7d1 403c
000001f0: 8c46 33bc 0bfb c0bc efd1 b9ba 6639 3ebc
-0.013322939 0.0021234003 -0.0039800014 0.007869576 0.004300474 0.013262391 0.0018878938 0.008556222
0.015115418 -0.0021876409 -0.017894536 -0.015273974 0.008484028 -0.011248738 0.0041305497 0.012333919
-0.00041583975 -0.0026877054 -0.014545967 0.011611703 0.0010986241 -0.0016268889 -0.007098996 0.0064989883
-0.00466075 -0.00042279053 1.7160546e-26 0.0020180838 0.0003331369 0.014408481 -0.0030102036 -3.2837636e-07
0.0056914887 -0.0037030817 -0.01615762 0.0010507127 0.0067906235 -0.011755073 -0.01242111 -0.00555818
0.005781564 0.0012479499 -0.0052025034 0.014441107 0.0034681465 0.008062191 0.008544815 0.021233842
0.00015925935 -0.0067594997 -0.011209898 -0.023031563 -0.006582966 0.022022173 -0.014136944 -0.017513206
0.028049918 -0.0026455454 0.0070010135 -0.020822946 -0.005482352 -0.0005501078 0.012366963 0.006590196
-0.007856536 -0.0071772267 0.0021461672 0.0026974403 0.006099595 -0.0009246411 0.000536016 0.004402929
-8.326531e-16 -0.010476124 -0.0019848247 -0.025162026 -0.009801963 -0.00068666064 0.0005969525 9.320257e-08
0.010048922 0.015732532 -0.006303462 0.0068452423 -0.018121647 -0.010847974 -0.00567104 0.0017642272
-0.012743534 0.007606604 -0.015908632 0.015820049 -0.012923839 -0.0074106352 -0.014235153 0.0073560397
-0.007993239 0.007369971 1.4523282e-21 0.012720985 0.008908886 -1.2875905e-07 -0.006497042 0.0069748815
0.0007327736 -0.012092484 0.0034303907 0.003917982 -0.0054141744 0.00707386 -0.018374864 -0.0038482111
0.009486088 -0.008277869 -0.023355909 0.0014137572 -0.0127229905 -0.00074958324 -0.0050521507 -0.002548273
-0.0057277647 0.01031029 -0.0058195028 0.0117688095 -0.010942113 -0.023557207 -0.0014176945 -0.011610365

network_body._body_endoder.seq_layers.2.weight f4 [128, 128]
00000000: 3f47 a3bd 0b76 a03d 2498 643d 7233 a7bd
00000010: 45fe b4bd 2aad 313d 8dde ac3d e9ed c13d
00000020: 6846 93bb 97b9 c73d 6984 c8bd ab99 12bd
00000030: 9736 0abd 0090 9a3d 4f24 0a3d 00ba cebc
00000040: 5e85 403b ccc4 e0bd dc0d 2a3e f4f1 cebc
00000050: ac19 483d e089 403c 8197 803d 9d0b 603c
00000060: 3abb 35bd 1fa4 8cbc a02f 513d 428c 01be
00000070: 7141 8dbd 1d91 333e cb92 8abe 977a 49be
00000080: c3db 1f3d f5d9 1d3e a6df a9bd d123 4b3d
00000090: fefa cdbc 2389 3abe 4bc5 163e ab01 eb3d
000000a0: e2f3 babd 90b6 15be e096 183d a789 3fbd
000000b0: 41d8 f63d db09 6cbd 7e8c 443d 9065 9bbd
000000c0: ab39 c93d 004e 69be 0a59 0cbd a437 48bd
000000d0: 6e47 4a3d a888 f23d c7bb 94bd 7650 0ebe
000000e0: eb37 ae3d 6f47 e63c 77a4 a7bd 50ef 0a3d
000000f0: 766c f53c 708e ed3d 4658 e4bd bcfc 193e
00000100: c2bf 4dbc 72be 0ebd c8e3 4ebd 43b1 cf3b
00000110: 3fcc 19bd e361 81bd d351 8dbd 66c8 b4bd
00000120: 10d8 aebc 6b60 adbd 1a30 fe3b d44d b0bc
00000130: 0fa2 0cbe 8998 babc f6e7 4b3b 5308 e33c
00000140: 6998 823b bcf3 22bd 5f5e 813d d76e 8fbd
00000150: ba13 b73d 5919 a83d 7e2f 9bbd 6e04 013e
00000160: 4bdc 0d3d e8a2 71bd 7b09 41be f3db 00be
00000170: ae1d 283e bd0c b0bd 2608 12bd 92b6 55bc
00000180: d522 e93d 0043 30bc 6f7b ecbd 321f 6fbd
00000190: 9396 2ebd 2eae 183d b4ea 86bd ccd7 5abc
000001a0: 9413 3b3e 6b34 81bc 4b5c a7bd 3420 e6bd
000001b0: 08d1 6a3d 906b 6c3c 73b3 02be a61c 8cbd
000001c0: fda1 12be 2cd6 ee3d 755d 0abd 0c7f 843c
000001d0: eda6 c73c c7ff 2fbd 91da 6fbd 6b35 6a3c
000001e0: d210 073e 79c5 88bc d3bd ee3d 7d37 aabd
000001f0: 47a8 b0bd 7ad5 0f3d 618e cf3c 79b2 82bd
00000200: 1d8c 26bc 6a41 d9bc 5ea3 87bd b355 0fbe
00000210: 6211 8ebd 3411 e43c af1d de3d 7d63 04bd
00000220: 3e7e e5bd 7c94 85bc f12b e03d 221e 8a3c
00000230: 7892 85bd 222e b6bc dc98 e8bd 1bf3 1ebe
00000240: edb2 09bd 7544 a7bd c30c 1e3c 4f91 03bd
00000250: bfcd 303d eb13 a4bd 2ec8 50bd f23b 65bd
00000260: f381 9039 ca91 dbbd da21 8c3c 151d 893d
00000270: f2e5 e5bd 20f8 b3bb 685a c5bc b2cc a8bc
00000280: c4d7 d33c f16b f73d 083a 98bd 27aa fe3b
00000290: 5a42 3b3d 9915 c73d 3603 abbc 2d4f 4dbd
000002a0: af3d 133e 2977 17be b908 1e3e 8f76 b73c
000002b0: 0aa1 b83d c09c 1abd fbf9 133d ccf6 1abd
000002c0: f737 2f3c 7c0a e43c 08f3 243e 125c d4bd
000002d0: a071 87bd 292c 693d dcf3 07be 02f7 0b3d
000002e0: b5b3 d03c 7a31 14bd f8d5 aebd 4cb3 f93c
000002f0: 8ff6 b1bc f16f 79be f08a 543d 9275 b7bd
00000300: 2a5e 1f3e 43ee b53d c8b0 8a3d 751a b13d
00000310: ada9 f7bd c2e6 11bd 05c4 c63c 1b6d b53d
00000320: 6d72 3c3d f2b9 74bc 1efc 883c be70 263d
00000330: a00f dbbd 8a24 d1bd 8bc6 1f3d f7e6 bc3c
00000340: 0396 ac3d 0301 1cbe 140f bf3c bd8d 8bbd
00000350: 55f0 32bd adfc ec3c 49d5 bebd 0987 28bc
00000360: 2c96 c2bc 339a 283d 1f48 c1bd 308b dbbd
00000370: ebaf 7e3d 6968 fe3d 36d6 833d 7b08 163e
00000380: 301b 37be d396 1e3d 7396 ea3c 79d1 983d
00000390: d489 f73d cdda 94bd 6c5a acbd 2223 f13c
000003a0: f3e1 c23b ac04 6c3e 82b9 e7bd d4fc 0a3e
000003b0: c4ff 5bbe 7fc8 4b3d baee b13c 7e30 813b
000003c0: f773 c83d 8166 abbc e1e0 c1bb c7cf 983d
000003d0: ecdd 32bd 3c17 343d 2769 ba3d 2dcd 5dbc
000003e0: d2ce a23d 0590 033e 313e 763d 6a38 af3c
000003f0: dd17 d5bd cbce 6f3c a114 413d 778c bfbd
-0.079725735 0.07835015 0.055809155 -0.08164109 -0.088375606 0.043378033 0.08440886 0.09469206
-0.004494477 0.09752195 -0.0979088 -0.03579108 -0.033743467 0.07546997 0.033726033 -0.025235176
0.0029376368 -0.10975036 0.1660685 -0.025261857 0.048852608 0.011751622 0.06278897 0.013674644
-0.044368006 -0.017168103 0.05107081 -0.1265116 -0.068972476 0.17535825 -0.2706512 -0.1967567
0.03902794 0.15415175 -0.08294611 0.049594704 -0.025144096 -0.18216376 0.14723699 0.114749275
-0.09128548 -0.14620423 0.03725326 -0.046762135 0.12052966 -0.057626586 0.047985546 -0.07587731
0.098254524 -0.22783661 -0.0342646 -0.048881188 0.049384527 0.11842471 -0.07262378 -0.13897881
0.08506759 0.028110234 -0.08185666 0.033919632 0.029958945 0.115994334 -0.11149649 0.15037817
-0.012557926 -0.03484959 -0.050510198 0.00633827 -0.0375483 -0.063174985 -0.06900372 -0.088272855
-0.021343261 -0.08465656 0.007757199 -0.021521486 -0.13733695 -0.022777813 0.0031113601 0.02771393
0.003985454 -0.039783224 0.06316828 -0.07003563 0.089393094 0.0820796 -0.07577418 0.12599346
0.034633916 -0.05899325 -0.18851273 -0.12583904 0.16417572 -0.0859618 -0.035652302 -0.013044016
0.11383597 -0.010758162 -0.115469806 -0.05837936 -0.042624068 0.037275486 -0.06587735 -0.013357114
0.18269187 -0.015772065 -0.081719 -0.11236611 0.057328254 0.014429942 -0.12763767 -0.06841402
-0.14319606 0.11661944 -0.033780534 0.016173862 0.024371589 -0.042968538 -0.05855805 0.014294962
0.1319001 -0.016695725 0.116573 -0.08311365 -0.08625846 0.035115696 0.025336446 -0.06381697
-0.010165242 -0.02652045 -0.06622957 -0.13997535 -0.06936909 0.027840234 0.108455054 -0.032321442
-0.112057194 -0.016306154 0.10945881 0.016860072 -0.06522077 -0.022238795 -0.113572806 -0.15522425
-0.033617903 -0.08167354 0.009646597 -0.032121 0.043164965 -0.080116116 -0.050972156 -0.05596537
0.0002756264 -0.107211664 0.017105985 0.06695 -0.11225499 -0.0054922253 -0.02409096 -0.020605419
0.025859721 0.12081135 -0.074329436 0.0077717486 0.045717575 0.09720916 -0.020875555 -0.050124336
0.14378999 -0.1479155 0.15433015 0.0223954 0.09015091 -0.037747145 0.03612707 -0.03783302
0.010694495 0.02783703 0.16108334 -0.103691235 -0.06613469 0.05692688 -0.13276619 0.034171112
0.025476316 -0.036179997 -0.08536905 0.030481003 -0.021724014 -0.24359109 0.051890314 -0.08957972
0.15563264 0.088833354 0.067719996 0.086476244 -0.1209291 -0.03562046 0.024263391 0.08858701
0.046007562 -0.014936911 0.016721781 0.040634863 -0.106963396 -0.102120474 0.039007705 0.023059351
0.0842705 -0.15234761 0.02332262 -0.06814144 -0.04368623 0.028929079 -0.09318025 -0.010286101
-0.023753248 0.04116268 -0.09437584 -0.10719907 0.062179487 0.124222584 0.06437342 0.14651673
-0.17881465 0.038718056 0.028636193 0.07461829 0.120868355 -0.072682954 -0.08415684 0.029435698
0.0059473454 0.23048657 -0.1131468 0.13573009 -0.21484286 0.049751755 0.021720279 0.0039425483
0.097877435 -0.020922901 -0.0059167 0.074615054 -0.043668672 0.04396747 0.091020875 -0.013537687
0.07949604 0.12847908 0.060117904 0.021389205 -0.10404942 0.014636706 0.047138814 -0.093529634

network_body._body_endoder.seq_layers.2.bias f4 [128]
00000000: dc76 8fbb 60f1 40ba 0bcc 333c 14d6 ddbb
00000010: b523 1ebc f0e8 1a3c 53d8 8abb 214a b5ba
00000020: 2b3f 3326 51a5 c4bb 6776 b9bb c6f8 703b
00000030: 5071 44bc 1e54 4ebb 9d2b 033c a98e a6bb
00000040: 9729 c6bb bd2f d7ba 1321 343c 4ec3 dcbb
00000050: a3d5 4abc e65f 1e3b 668e ccbb 6bcf 5bba
00000060: 658c d4bb ca16 0aba 36ab f3bb e570 d53b
00000070: 0ea0 b9bb c221 7ebc 55e3 9dbc 1d58 db3b
00000080: 55e7 813b a7c6 083c 9064 bdbb b56a 763a
00000090: 4448 543b f149 44ba 1eae 873b cdc8 10bc
000000a0: 274f 87bb a546 0fbc 0049 5bbc a834 0cbc
000000b0: 7601 1abc e7d9 053c f06c 25bc 95cc f4bb
000000c0: 5a45 16bb db96 c5ba d3fd a93b 0717 00bc
000000d0: 396a f0ba a15e 75bc a2db 0ebc 5e9e 31ba
000000e0: b3ad a53b 4dd0 853c 4aef d3bb bafa b122
000000f0: 97fc 8cbb dd32 a33b 5071 67bb a885 d63b
00000100: 9a97 1c3c 49ab ecbb 1d2d d2bb bc03 24bc
00000110: 85a7 21bc 9015 0f3a fd9d 103b d0b1 ae2a
00000120: 5c31 6f3b d27c 1abc 2f58 3d9d 94f4 86ad
00000130: 757c fc3b 24e9 6f3b e275 4abb 26bf 3a39
00000140: 395c 5bbc 29dc 2da9 13a0 3b3c e183 4c3c
00000150: f029 28b8 8108 fcbb c4a6 25bb e83b 27bc
00000160: 65a6 bc3b 7aab 313c 77e1 7cbc d548 0aa0
00000170: 880a 0bbb a341 3cbc 76de 8caa 3c6e cfbb
00000180: b463 18ac 5c40 7bbc 7695 2cbb 49fb 60bc
00000190: 1a8e 07bb 213b 1db9 a793 c43a d0b9 703c
000001a0: 6af9 9abc e800 24b9 78f7 533c 1598 543b
000001b0: 666f beba 0ee1 343b 9591 e7bc cff5 80bb
000001c0: 724b 37bc a5eb 3f3c 25ca 7ebb 70be 0e3c
000001d0: 2fb6 7b3c d062 6bba de65 2b3c f02b 5cbc
000001e0: 2c56 4dba 7f84 26bb 9797 6cbb e466 8bbc
000001f0: 2ef9 1cbb 78a1 753b ebb2 c03a f05a 243c
-0.004378183 -0.00073601864 0.010973941 -0.006769905 -0.009652068 0.009454951 -0.0042372136 -0.0013831296
6.218871e-16 -0.0060011526 -0.0056598666 0.0036769374 -0.011989906 -0.0031483243 0.008006004 -0.0050829244
-0.0060474384 -0.0016417425 0.010994214 -0.0067371493 -0.0123800365 0.0024166047 -0.006242561 -0.00083850947
-0.006486463 -0.0005267678 -0.0074361814 0.006513702 -0.005664832 -0.015510978 -0.01927344 0.0066938535
0.0039643445 0.008348144 -0.0057798102 0.0009400056 0.0032391706 -0.0007487825 0.0041406294 -0.008836937
-0.0041293087 -0.00874487 -0.013384104 -0.008557476 -0.009399762 0.008169628 -0.0100967735 -0.007470677
-0.002292952 -0.0015074866 0.005187729 -0.00781799 -0.0018342204 -0.014976175 -0.008719357 -0.0006775613
0.005056107 0.016334677 -0.0064677345 4.8241413e-18 -0.004302572 0.0049804286 -0.0035315342 0.006546695
0.009557629 -0.007222567 -0.0064140693 -0.010010656 -0.0098666 0.000545823 0.0022066825 3.103199e-13
0.0036497926 -0.009429174 -2.5059532e-21 -1.534265e-11 0.007705266 0.0036607469 -0.0030893018 0.0001780955
-0.013388687 -3.8604675e-14 0.011451739 0.012482614 -4.009338e-05 -0.0076914434 -0.0025276402 -0.010207154
0.0057571405 0.010844106 -0.015434614 -1.1713153e-19 -0.0021215994 -0.011490258 -2.502336e-13 -0.0063302796
-2.1655846e-12 -0.015335169 -0.0026334203 -0.013731786 -0.0020684064 -0.00014994714 0.0014997617 0.014692739
-0.018917758 -0.00015640596 0.012937419 0.003243928 -0.0014529049 0.0027599963 -0.028267661 -0.0039355527
-0.011187421 0.011713897 -0.0038877812 0.008712396 0.01536326 -0.0008979263 0.010461299 -0.01343821
-0.000783297 -0.0025408564 -0.0036101097 -0.017016836 -0.0023952234 0.0037480276 0.0014701759 0.010031447

action_model._continuous_distribution.log_sigma f4 [1, 2]
00000000: fb11 a93d 3a04 9b3d
0.082553826 0.075691655

action_model._continuous_distribution.mu.weight f4 [2, 128]
00000000: 8f92 b0bb 1a14 7e3c a49b 413b 94fa f03c
00000010: 45e7 05bd 1821 01bd cbe2 dcbc 35c7 d03c
00000020: 0306 ee3b bf2a 493b ed35 e0bc 1406 5d3c
00000030: e499 65bb 408b dd3c 408f 5cbc 1359 c2bc
00000040: 9e1b cebc f62e 4f3c bd83 2a3a b4c9 75bc
00000050: 3d8f 243b f466 3dbc f548 553c 38d0 09bc
00000060: f651 48bb 695b c9bb b264 55bb f696 f3bb
00000070: 690c f7bc ae5c e83c f9a5 c53b 819f a5bc
00000080: f6d6 5abd 05cd 4aba 79c3 d1bc 2b2c 13bc
00000090: 6614 603c cb59 a5bc 8410 6dba 6fb6 55bc
000000a0: 2785 7d3c 4d47 60bc cf29 d8bb 9a51 83bb
000000b0: 1595 17bc 306c 43bc cf0a a73c 0da2 073d
000000c0: 4f4e 03bd 607c a2bc 0014 aebc 9abe 99bc
000000d0: e682 0f3c e025 523d 917d 8cbc 1123 04bd
000000e0: 1f75 acbc 2ae5 c8bc 7097 9abc b5db 863c
000000f0: e917 943c 7474 26bc 2cae fb3c 7ebe f0bc
00000100: 6192 9dbc aa1b 083d c3ec dbbc 1afd 973c
00000110: 2801 ff3c 6922 003c e712 13bd 252f 9e3c
00000120: 0b43 c8bc 9fc0 57bc 5481 03bd f838 4d3a
00000130: 2ee6 4cbc 97cb d9bc 55e1 fdbb 04d2 a0bb
00000140: 3346 0739 f312 9abb 8e00 86bc 68ef a1bc
00000150: 823f 003c be4d 83bc c2e7 a8bc 60df 69bc
00000160: 4e73 86bb 862a 06bd 19ea a53c b0b0 bcba
00000170: bc7c 3f3d 79e7 1e3d efeb 94bb bf88 5a3b
00000180: bbd7 ebbb e266 413b bffe 453c 9d1b c9bb
00000190: eb8d e3bc 84d4 9dbc 485f 003c 7319 05bd
000001a0: 67a8 8a3c a9d9 36bc b900 50bd 5fae a6bb
000001b0: 8186 d0ba 5657 99ba d37b c8ba c18c da3c
000001c0: 457b adbc 02b8 d6bc 6ba9 afbc cc1a 0dbd
000001d0: 07e4 bcbc 9065 013c bd42 9bbc d7e9 c13b
000001e0: 7a06 f93c 1c46 18bd d9ab 1dbc 6523 51bb
000001f0: e3df 42bc 46f4 9dbc 4a39 3abd 2440 54bc
00000200: ec20 d03b 8f49 723c 07c2 fd3c 9203 2bbc
00000210: 6876 12bc 49fa 953c bc5f d7bc c918 eb3b
00000220: 0c69 a13b d095 82bc d36e 19bc 2785 343d
00000230: 4347 9f3a d881 75ba a6b6 ce3b e0d3 3cb9
00000240: 0328 283b 53e9 2d3c e8ac b53c 75e9 2bbc
00000250: a892 21bd a318 5b3b 35a8 16bc 7f0b 723a
00000260: 647b 2b3c a86e 893c 126e 263d 693c eb3c
00000270: ffed 5b3c c10d ecbc 73d4 8fbc 3bb1 e038
00000280: 2e9e c0bb b909 733c 3d49 12bd 6212 adbc
00000290: 523c 0b3d 8c24 fc3c 1aad 2f3c 96b1 bdbc
000002a0: b022 c238 8480 a5bc 1f21 8cbc de7a 84ba
000002b0: 4b6f e6bc fc39 bfbc 987a 54bc 46e8 d73b
000002c0: 9d4c ddbc b6ba 0cbc 977d bab8 ac30 23bd
000002d0: 35fc 103d 42b5 84bb 0cdd 91bb e2ee a8bc
000002e0: 64bd cebb 9d48 783c 16e4 4ebb 533c 1a3a
000002f0: d96f 063b 4958 123d 56b2 b83c d971 633c
00000300: 2402 073c 9063 b53c 7a35 c8bb fd19 683c
00000310: 8d47 c3bb 3972 58bc c2d2 1ebc 0832 b13b
00000320: 8b01 89ba dae7 6f3b 49d9 1bbc f7ca 103c
00000330: b2cd e93c 527b 19bc 4ce7 73bc ec99 653c
00000340: a29b d5bc 7391 dc3c 7058 3a3d dd6c 6d3b
00000350: 0049 c2bc c11f fcbc 0172 86bc ccdd 41bd
00000360: 0149 c73c c561 003c 7ca2 0abd 9bc7 67ba
00000370: 199b ab3c 6c8c 82bc 8dc5 ffbb 75be b1bb
00000380: df44 333b 4801 16bc 67b5 9d3c 7ed0 a1bc
00000390: 78d7 9b3b bd4a b93c 5465 6c3c 0f38 b93c
000003a0: 7cb4 e5bc eea4 9dbc e1cd b63c d85f 61bc
000003b0: 132d 1b3d 53fb cd3b 2faf a2bb dfa6 e5bb
000003c0: 17b5 4a3c fe73 ad3c 63d9 00bd b207 d2bc
000003d0: a1ed 3c3c d27d 573c bf34 28bd 4dd3 1cbc
000003e0: 753b 8f3c 45bb 333c e11d a13b cf48 c1bc
000003f0: 73b2 b0bc 774a 4ebb 629d 11bc 80e5 de3c
-0.005388565 0.015507722 0.0029542232 0.02941636 -0.03269126 -0.0315257 -0.026963612 0.025485614
0.0072639002 0.0030695645 -0.027369464 0.013490219 -0.0035034353 0.027043939 -0.013461888 -0.023724115
-0.025159653 0.012645474 0.0006504616 -0.015001703 0.002510979 -0.0115601905 0.013017883 -0.00841146
-0.003056643 -0.00614493 -0.003256124 -0.0074337674 -0.030157285 0.028364506 0.0060317484 -0.020217659
-0.05342766 -0.0007736239 -0.025605904 -0.008982698 0.013676738 -0.020184418 -0.00090432935 -0.013043984
0.0154736405 -0.013688874 -0.006596781 -0.0040075304 -0.0092518525 -0.011927649 0.020390896 0.033113528
-0.032057103 -0.019834697 -0.021249771 -0.018767644 0.008759236 0.05130565 -0.017149718 -0.032260004
-0.021051941 -0.024523336 -0.01887104 0.016462186 0.018077808 -0.0101596005 0.0307227 -0.029387709
-0.019234838 0.033229508 -0.026846295 0.018553305 0.031128481 0.007820704 -0.0359067 0.01930959
-0.024446031 -0.013168483 -0.03210576 0.00078286184 -0.012506051 -0.026586337 -0.007747809 -0.0049078483
0.00012900755 -0.004701966 -0.016357686 -0.019767478 0.007827641 -0.016028281 -0.020618323 -0.014274448
-0.004103101 -0.032755397 0.020253228 -0.0014395919 0.046749815 0.03879497 -0.004544727 0.0033345667
-0.007197348 0.0029510786 0.012084662 -0.006137325 -0.027777633 -0.019266374 0.007835217 -0.032494973
0.016926004 -0.011160293 -0.05078194 -0.0050867046 -0.0015909226 -0.0011699002 -0.0015295692 0.026678445
-0.021176944 -0.026210789 -0.02144309 -0.034449384 -0.02305795 0.00789775 -0.018952722 0.0059177685
0.030398596 -0.037176237 -0.009623491 -0.0031911966 -0.011894199 -0.019281518 -0.04546479 -0.012954745
0.006351581 0.014788046 0.030976309 -0.010437863 -0.008939363 0.018307822 -0.026290767 0.0071745855
0.0049258526 -0.015940577 -0.009364801 0.044072296 0.0012151975 -0.00093653565 0.0063083945 -0.00018008007
0.0025658614 0.010614711 0.022177175 -0.010492672 -0.039446503 0.0033431433 -0.009195377 0.00092332804
0.01046643 0.016776398 0.040632315 0.02871533 0.013423442 -0.028815152 -0.017557358 0.00010714164
-0.0058782315 0.014833861 -0.035714377 -0.02112693 0.033993073 0.030779146 0.010722423 -0.023155969
9.257102e-05 -0.020202883 -0.017105637 -0.0010107418 -0.02812924 -0.023343079 -0.012968682 0.0065889684
-0.027014071 -0.008589437 -8.892564e-05 -0.03984134 0.035396773 -0.004049928 -0.0044513997 -0.02062172
-0.006309198 0.015154031 -0.0031569055 0.0005883623 0.0020513444 0.035728727 0.022545975 0.013882124
0.008240256 0.022142202 -0.0061098905 0.014166352 -0.0059594573 -0.013210827 -0.009693803 0.0054075755
-0.001045273 0.00366067 -0.009512254 0.008837453 0.028540466 -0.009367781 -0.014886688 0.014013749
-0.026075188 0.026924824 0.045494497 0.0036228218 -0.02371645 -0.03077686 -0.016411783 -0.047330663
0.024326803 0.00783581 -0.033846363 -0.0008841694 0.02094798 -0.015936099 -0.0078055323 -0.0054243156
0.0027354283 -0.009155579 0.019251538 -0.019752737 0.0047559105 0.022618646 0.014428455 0.022609739
-0.028040163 -0.019243684 0.022314968 -0.013755761 0.037884783 0.0062860637 -0.004964731 -0.007008418
0.012372277 0.021173473 -0.031457316 -0.025638435 0.0115312645 0.0131525565 -0.041065928 -0.009571862
0.017484406 0.0109699415 0.004916892 -0.023594288 -0.021569466 -0.003147749 -0.008887621 0.027209044

action_model._continuous_distribution.mu.bias f4 [2]
00000000: a7ec a9bb d193 223c
-0.005185682 0.0099229375

action_model._discrete_distribution.branches.0.weight f4 [2, 128]
00000000: efe8 19ba d542 c8bb 4560 4e3c 7ba5 a93a
00000010: 8ad4 8ebb e676 3d3a 709b 803a 4c35 413a
00000020: 3e25 b63b ca99 c7ba fafe 0abc 9b14 96bb
00000030: 9c80 0bbb ac10 9dbb 9fe6 1abc b986 9dba
00000040: 95eb 15bc 3443 9cbb 0562 893a 0943 9cba
00000050: e5fb 81bc 2334 8d3a e37d 36ba 8161 4f3c
00000060: 622b 86bc 139b 463c d88c d8bb 5ae0 313b
00000070: 2a88 8d3b abc7 f6ba 9573 f43b 9b32 ad3b
00000080: 806e 793b 296d d139 fc18 fcba 0008 e7bb
00000090: 5c5c 59bc 39bc d3bb dd7a 863b 5ce9 c43b
000000a0: 67be 57bc 3121 99bb 0b04 c63a 61e1 8d3c
000000b0: f65e 9f3a 030d 23bc c415 01bc 5052 a5ba
000000c0: f85e b5bb 0683 c7bb 9d01 3bbc fb2f 31bc
000000d0: 8bbc 3e3b cbb9 15bb 9c6d dbba 226b 203c
000000e0: f2f2 d9bb 56c7 4c39 7b4b c7bb bac8 533a
000000f0: 35b1 34bc 5609 a1bc cb9c 28bb 72ce f8bc
00000100: 2e3f e1ba 5ae8 b23b ec44 63bb f2f1 49bc
00000110: d01e caba 569b d23b d267 0fbb 3824 56bb
00000120: a2cf 49bc ae47 a6bb 8d0f 473a 883e a7bb
00000130: 2b42 163c c94f a13a f943 ba3a bad6 e1bb
00000140: 1202 d23b c733 3bbb ea90 383c 835f 403c
00000150: 490f 313b 10b4 12bc 803b 893b d338 d33c
00000160: 21ba bdbb 1da2 6ebc c526 a63b 0386 06bb
00000170: d695 04bc d85d 6b3c f378 cf3b 1922 693c
00000180: 152a 733c 7c2d 9bbc dd92 7d3c 8e0a 99bc
00000190: 28cd 663b 4acf 4d3b 542c a53b a1f0 873b
000001a0: 7502 13bc 42c7 e9bb 87a3 c93b 4feb 8d3c
000001b0: 9e1d 86bc 0f09 a6ba 6721 053b 98c3 943c
000001c0: 4dc9 443b f734 17bb f3db 803c 0df0 49bc
000001d0: 6a8b a73c bc3b 353c b981 d53b b952 603c
000001e0: 597c 023b caaf 4c3b 9598 743c 748d 4abc
000001f0: f534 96bb 70a7 8a38 6368 c4bb 5a7a d5bc
00000200: 5c55 a8bb fc8b 02bb e570 a4bb 2e7c f93b
00000210: fb09 15bc 12d7 413c 6729 323c 791b 6cbc
00000220: e7c1 0abc e62b a33c 96da 98ba b1fc e63b
00000230: 9cb1 1a3c 908c c13b 28ad 953c 873d caba
00000240: c5a5 f1b9 5861 f43c d168 cd3a 6b18 a33c
00000250: a62e 963b 7c58 603c d84d 143d 4ae2 0cbc
00000260: dd60 ac3c 485c 803c ab2f 2bbb ca0d da3b
00000270: ecca 593b b06b fc39 6f68 213c 5b24 a7bc
00000280: e2e7 2a3c c7d9 93bc 1e13 9fbc 96a8 a4bc
00000290: 29ca 693c 7eda 833c c248 f3bb 63b1 43bc
000002a0: 1fd3 3a3c 499d a83c f0fc 343b 5945 1bbc
000002b0: 34e5 72bb a1cc b43c 7077 f9bb 73b4 7abb
000002c0: ea19 c13a 03e8 8f3b 2bb9 80b7 6a9b 7bbb
000002d0: a331 ffba 57d6 26ba 1549 a53a 8788 6cbc
000002e0: 2aa8 753b a99a 67bc df7d c7b8 83d6 6c3c
000002f0: 5d23 5abc d5e4 a83b ae59 843b 81e5 9e3c
00000300: 5c73 093b cfd2 51ba a863 38bb cf17 8fbb
00000310: ce8e 833b adda ab3b 2735 5f3c 0738 3b3c
00000320: be44 963b 032c 583c 7709 e63b e5aa 14bc
00000330: 0ac4 6ebb adac 983b 4826 053c ce51 b23b
00000340: da65 803a 5373 8fbc 8997 4fbc 04e7 80bc
00000350: af32 d8bb 5719 483a 0526 433c 5828 32bb
00000360: bc7e 373c 60a5 ab3c 81ab c9bb 3b06 babc
00000370: e9a7 feba 48e1 77bc 109f 72bc 8e6e f2bb
00000380: 8641 153a 7558 b8bb f3a4 9cbb 6a65 4c3c
00000390: c22c 223b ff89 8ebb 19b1 2bbc 30ec ddba
000003a0: a40f b23b 6922 00bc 44a5 28bc f360 9ebc
000003b0: e825 d33b a145 383b 7593 9eba 888b 4ebc
000003c0: ced3 373c 5cfb 283c 99aa 71bc d1a4 0fbb
000003d0: 27e7 99bc dad6 7c3c b934 d13b 0395 4fbb
000003e0: a92b 80bb 0d96 88bb 60cd 0dbc 31c7 383b
000003f0: 3750 f53b c719 abbb fd63 c23b 046f 15bb
-0.00058711966 -0.0061114826 0.012596195 0.0012942994 -0.0043588327 0.0007227495 0.0009811949 0.00073703076
0.005558639 -0.0015228328 -0.008483643 -0.004580093 -0.0021286374 -0.004793247 -0.009454398 -0.00120183
-0.009150405 -0.0047687534 0.0010481483 -0.0011921834 -0.015867183 0.0010772984 -0.00069615076 0.012657524
-0.016378108 0.0121219335 -0.0066085868 0.002714178 0.0043192105 -0.0018827816 0.0074600675 0.0052855737
0.0038060248 0.00039944917 -0.001923352 -0.007050514 -0.013266649 -0.006461647 0.004104002 0.006009264
-0.013167954 -0.004673146 0.0015107406 0.017319383 0.0012159038 -0.009951833 -0.0078787245 -0.0012613032
-0.005535003 -0.0060886173 -0.011413959 -0.010814662 0.002910408 -0.0022846337 -0.001674104 0.009791167
-0.006651276 0.00019529214 -0.006081996 0.0008078922 -0.011028578 -0.019657772 -0.0025728222 -0.030371878
-0.0017184967 0.0054598274 -0.0034678532 -0.012325751 -0.001542056 0.006427209 -0.002188195 -0.0032675397
-0.01231757 -0.005074463 0.0007593565 -0.00510389 0.009171049 0.0012307103 0.0014210931 -0.0068920525
0.006408938 -0.0028564797 0.011265019 0.011741522 0.0027017167 -0.008954063 0.004188001 0.025783932
-0.0057900106 -0.014565018 0.0050705397 -0.0020526655 -0.008092364 0.014365636 0.006331557 0.014229321
0.014841576 -0.018942587 0.0154769095 -0.01868179 0.0035217497 0.0031404071 0.0050406847 0.0041485582
-0.008972754 -0.007134349 0.006153527 0.017324118 -0.016371544 -0.0012667495 0.0020314099 0.018159673
0.0030027211 -0.002307234 0.01572988 -0.012325299 0.02045222 0.011061605 0.0065157083 0.013691598
0.0019910543 0.0031232708 0.0149289565 -0.012362827 -0.0045839497 6.6115404e-05 -0.005993889 -0.026059318
-0.0051371288 -0.0019919863 -0.005018341 0.0076136803 -0.009096618 0.011831062 0.010874129 -0.014410847
-0.0084690815 0.019918393 -0.0011661823 0.007049166 0.009441759 0.005906649 0.018271044 -0.0015429714
-0.0004609061 0.029831573 0.0015671497 0.019909104 0.0045831976 0.013692971 0.03620705 -0.008598873
0.021042282 0.015669003 -0.0026120942 0.006654476 0.0033232523 0.0004814542 0.009851559 -0.020403078
0.010431262 -0.01804818 -0.019418295 -0.02009992 0.01426939 0.016095396 -0.007424445 -0.011944148
0.011402874 0.020582812 0.0027616583 -0.009476983 -0.0037062885 0.02207023 -0.007613115 -0.0038254529
0.0014732454 0.0043916716 -1.5345015e-05 -0.0038392195 -0.0019469749 -0.00063643366 0.0012610281 -0.0144368475
0.0037484267 -0.014135995 -9.512505e-05 0.01445544 -0.013314095 0.005154232 0.004039011 0.019396545
0.00209733 -0.000800413 -0.0028135572 -0.004366852 0.0040148264 0.005244574 0.013623512 0.011426932
0.0045858314 0.013194087 0.0070201713 -0.009073948 -0.0036432766 0.0046592564 0.008126803 0.005441881
0.0009795979 -0.017511046 -0.012670406 -0.015735157 -0.006597839 0.00076331705 0.01191092 -0.0027184691
0.011199649 0.02095288 -0.006154478 -0.022708049 -0.0019428703 -0.015129395 -0.014808431 -0.007398433
0.00056936627 -0.0056257793 -0.0047804057 0.012475351 0.0024745916 -0.0043499465 -0.010479235 -0.0016931351
0.0054339934 -0.007820704 -0.010293309 -0.019333338 0.0064437278 0.0028117674 -0.0012098389 -0.012606509
0.011219932 0.010313835 -0.014750146 -0.0021918307 -0.01878698 0.015432084 0.006384459 -0.0031674511
-0.0039114547 -0.004168278 -0.008654922 0.00281949 0.007486369 -0.0052215788 0.0059323297 -0.0022801766

action_model._discrete_distribution.branches.0.bias f4 [2]
00000000: 8d51 26bb 4551 263b
-0.0025378198 0.002537803

exp_avg f4 [128, 24]
00000000: 59f9 7031 1ab7 1834 88dd 0ab3 a6aa 092f
00000010: 1ab1 0531 ed4d 1eb0 4e0f ab33 bc8c 8733
00000020: 8c3c 2133 0400 0000 373c 40b1 a5c3 43b1
00000030: 59f9 7031 af29 1734 88dd 0ab3 a6aa 092f
00000040: 1ab1 0531 ed4d 1eb0 f608 ab33 7274 8733
00000050: 8466 2133 0400 0000 ff42 40b1 87b0 42b1
00000060: 379b ca30 4a95 0e34 b642 9531 83fe 3cae
00000070: a789 37b0 a553 592f f323 ebb2 f0c3 b8b2
00000080: 9634 5db2 0400 0000 2476 8830 d27f 8830
00000090: 9c7c 0d31 d227 0734 4ffe 9b31 abe1 3fae
000000a0: 7057 3ab0 90a5 5c2f e484 eeb2 1098 b9b2
000000b0: 1e42 5eb2 0400 0000 841f 8830 3829 8830
000000c0: 1c7a 3530 f698 9e32 2e8d 19b0 79e7 66ae
000000d0: c63c 60b0 78c2 842f f37d 0fb3 3834 e2b2
000000e0: 1e79 87b2 0400 0000 7b54 a330 605b a330
000000f0: 4721 7b30 7056 2132 4006 17b0 0db1 6aae
00000100: 5fea 63b0 f1ef 862f a8b8 11b3 6dbc e2b2
00000110: 89cf 87b2 0400 0000 4c30 a330 3237 a330
00000120: 0d5f 0034 41fe 66b4 a1b6 8234 50f1 20b1
00000130: bd4b 1cb3 da11 3932 bbf3 c7b5 6d26 9eb5
00000140: 6d1b 3db5 0400 0000 7c2d 6133 92a6 6233
00000150: 0d5f 0034 d99c 4ab4 a1b6 8234 50f1 20b1
00000160: bd4b 1cb3 da11 3932 12fb c7b5 cc46 9eb5
00000170: bed8 3cb5 0400 0000 7c2d 6133 7aff 6333
00000180: ef4f 8eb1 294c 0c35 2bb4 47b4 8b7c c830
00000190: b2b2 c232 b38a e6b1 a50d 7935 c4f1 4435
000001a0: 92c4 eb34 0400 0000 0b39 0cb3 e69b 0cb3
000001b0: cab7 86b1 26f4 0535 ddad 47b4 5466 c830
000001c0: 249d c232 2471 e6b1 fbf3 7835 b6ef 4435
000001d0: 51b8 eb34 0400 0000 c639 0cb3 bca9 0cb3
000001e0: 9ea0 1c32 02e0 0f34 9cf0 cab3 6567 1830
000001f0: f400 1432 4140 2fb1 f64f bd34 3fab 9534
00000200: d560 3334 0400 0080 d936 55b2 c935 55b2
00000210: a434 1e32 17b2 0234 0f02 cbb3 ba41 1830
00000220: 64dc 1332 ef14 2fb1 8a23 bd34 30a2 9534
00000230: 6f55 3334 0400 0080 4e37 55b2 3a36 55b2
00000240: db83 0db0 08c5 9235 db5f 9fb4 2b69 4c31
00000250: 5582 4633 ee0d 6bb2 fdeb fd35 eeca c835
00000260: 7c66 7035 0400 0080 72e6 8eb3 a045 8fb3
00000270: 57fc 2830 f134 8f35 cf06 9fb4 8374 4c31
00000280: 5b8d 4633 f01a 6bb2 78f9 fd35 45c6 c835
00000290: 7b5e 7035 0400 0080 73e8 8eb3 b847 8fb3
000002a0: bc85 5e2f 579b a434 e4ca 1db2 5585 992d
000002b0: a716 952f 2189 b0ae b478 3d32 02b4 1932
000002c0: 60ff b831 0400 0000 42fa baaf f7b4 baaf
000002d0: 1224 a630 00c8 a134 1940 16b2 de9d 952d
000002e0: 044c 912f c90b acae 1bf6 3832 1f9d 1632
000002f0: 2915 b531 0400 0000 e839 bdaf 92f4 bcaf
00000300: c30a 1833 8b99 0335 f8d3 9ab1 0edc 3f30
00000310: f751 3a32 189f 5cb1 8d4b ee34 b77e bc34
00000320: adee 6134 0400 0000 9fe3 85b2 01e2 85b2
00000330: 8555 1d33 11e4 fe34 ee33 89b1 1cad 3f30
00000340: 5e24 3a32 1569 5cb1 bb14 ee34 625e bc34
00000350: c6c5 6134 0400 0000 c5ea 85b2 22e9 85b2
00000360: 0400 0080 0400 0080 0400 0080 0400 0080
00000370: 0400 0080 0400 0000 0400 0080 0400 0080
00000380: 0400 0080 0400 0080 0400 0000 0400 0000
00000390: 1611 a991 8e50 b793 f5be d091 eed4 ae8e
000003a0: b5c8 a990 8a0a c90f 2a2c 5993 0aa8 2b93
000003b0: 1ab8 cd92 0400 0080 319c f410 319c f410
000003c0: a78a a232 6434 54b3 5ada 3133 6772 02b0
000003d0: 7b5c fdb1 9600 1631 5611 a2b4 af2b 80b4
000003e0: db4c 19b4 0400 0080 b582 3632 68be 3732
000003f0: a78a a232 4132 3db3 5ada 3133 6772 02b0
3.5066334e-09 1.4222715e-07 -3.233211e-08 1.2520704e-10 1.9454718e-09 -5.7590804e-10 7.965592e-08 6.312027e-08
3.75408e-08 6e-45 -2.7973905e-09 -2.8487446e-09 3.5066334e-09 1.4078135e-07 -3.233211e-08 1.2520704e-10
1.9454718e-09 -5.7590804e-10 7.964438e-08 6.307609e-08 3.757897e-08 6e-45 -2.797776e-09 -2.833106e-09
1.4741549e-09 1.3279092e-07 4.344055e-09 -4.2972303e-11 -6.677063e-10 1.9765752e-10 -2.7373948e-08 -2.1509521e-08
-1.287585e-08 6e-45 9.92888e-10 9.931631e-10 2.0589033e-09 1.2587341e-07 4.5400053e-09 -4.3628805e-11
-6.779066e-10 2.0067703e-10 -2.7767278e-08 -2.1605985e-08 -1.2937134e-08 6e-45 9.90426e-10 9.907017e-10
6.6020944e-10 1.846318e-08 -5.5861704e-10 -5.2501534e-11 -8.157709e-10 2.4148838e-10 -3.3409332e-08 -2.6333609e-08
-1.5771146e-08 6e-45 1.1883822e-09 1.1885781e-09 9.136056e-10 9.391087e-09 -5.494236e-10 -5.3362693e-11
-8.291518e-10 2.4544947e-10 -3.3928387e-08 -2.6395549e-08 -1.5810445e-08 6e-45 1.1873538e-09 1.1875498e-09
1.1955508e-07 -2.1512916e-07 2.4347267e-07 -2.3420235e-09 -3.6390464e-08 1.0772476e-08 -1.489759e-06 -1.1783101e-06
-7.0447896e-07 6e-45 5.2428263e-08 5.277122e-08 1.1955508e-07 -1.8869777e-07 2.4347267e-07 -2.3420235e-09
-3.6390464e-08 1.0772476e-08 -1.4899726e-06 -1.1792522e-06 -7.035086e-07 6e-45 5.2428263e-08 5.308491e-08
-4.1418313e-09 5.226489e-07 -1.8598864e-07 1.4587312e-09 2.2665834e-08 -6.7096493e-09 9.2779584e-07 7.3367505e-07
4.3915185e-07 6e-45 -3.264817e-08 -3.273808e-08 -3.9208077e-09 4.9901644e-07 -1.859657e-07 1.4580999e-09
2.2656032e-08 -6.7067436e-09 9.274224e-07 7.3364515e-07 4.390627e-07 6e-45 -3.2648835e-08 -3.2750663e-08
9.116915e-09 1.3399406e-07 -9.4501246e-08 5.544421e-10 8.6149505e-09 -2.5502376e-09 3.5262173e-07 2.787801e-07
1.6705901e-07 -6e-45 -1.2410703e-08 -1.2410461e-08 9.2087795e-09 1.2171982e-07 -9.4532986e-08 5.539068e-10
8.606637e-09 -2.547775e-09 3.522985e-07 2.787142e-07 1.6701755e-07 -6e-45 -1.2410807e-08 -1.24105615e-08
-5.148288e-10 1.0935191e-06 -2.9685802e-07 2.9745688e-09 4.6219004e-08 -1.3681968e-08 1.891865e-06 1.4960222e-06
8.95561e-07 -6e-45 -6.654308e-08 -6.671621e-08 6.147664e-10 1.0669738e-06 -2.9621012e-07 2.9752136e-09
4.622903e-08 -1.3684925e-08 1.8922574e-06 1.4958865e-06 8.9544454e-07 -6e-45 -6.6546725e-08 -6.672002e-08
2.0238294e-10 3.0660405e-07 -9.184735e-09 1.7453297e-11 2.7119038e-10 -8.0279124e-11 1.1028693e-08 8.946701e-09
5.3841376e-09 6e-45 -3.4011022e-10 -3.3961786e-10 1.2088341e-09 3.0134106e-07 -8.745723e-09 1.7009446e-11
2.642936e-10 -7.823748e-11 1.07661675e-08 8.766874e-09 5.270199e-09 6e-45 -3.4420045e-10 -3.4370778e-10
3.5400046e-08 4.902474e-07 -4.506088e-09 6.979811e-10 1.0845262e-08 -3.2104648e-09 4.4385925e-07 3.5109926e-07
2.1041588e-07 6e-45 -1.5586748e-08 -1.5586012e-08 3.663219e-08 4.7477127e-07 -3.9931285e-09 6.97314e-10
1.0834894e-08 -3.2073946e-09 4.4346038e-07 3.50864e-07 2.1026707e-07 6e-45 -1.5589999e-08 -1.5589254e-08
-6e-45 -6e-45 -6e-45 -6e-45 -6e-45 6e-45 -6e-45 -6e-45
-6e-45 -6e-45 6e-45 6e-45 -2.6674029e-28 -4.6275128e-27 -3.29343e-28 -4.3099356e-30
-6.6967985e-29 1.982419e-29 -2.7411025e-27 -2.1666084e-27 -1.2982703e-27 -6e-45 9.648168e-29 9.648168e-29
1.8922334e-08 -4.9407745e-08 4.1409614e-08 -4.74563e-10 -7.373783e-09 2.1828206e-09 -3.0187465e-07 -2.3873642e-07
-1.4277195e-07 -6e-45 1.0623514e-08 1.0695295e-08 1.8922334e-08 -4.4050697e-08 4.1409614e-08 -4.74563e-10

exp_avg_sq f4 [128, 24]
00000000: f3c9 8037 ea40 233b a6f8 6d37 f67c 9830
00000010: 66cf 8f34 72a2 c932 80d7 e539 4e7e 9c39
00000020: e3eb f738 57ea f62c 27b9 1035 c86b 1235
00000030: 57f0 8037 8942 213b 6915 6e37 038d 9830
00000040: 7dde 8f34 b4b7 c932 afbe e539 478c 9c39
00000050: c4c6 f838 7002 082d 17eb 1035 8316 1235
00000060: 9d05 8c37 0ed3 153c 9c69 9d37 2b7d 9230
00000070: fa26 8a34 aab3 c132 adb4 df39 1e90 7139
00000080: ba96 2939 56fd 4129 00b3 0d35 84fd 0f35
00000090: 7a2c 8c37 0009 163c 367a 9d37 82e8 9230
000000a0: 2f8c 8a34 8b41 c232 4905 e039 49e6 7239
000000b0: 68f6 2939 a570 ac29 b231 0e35 7357 1035
000000c0: 0711 b337 eb60 fc3b d1e2 e637 e4a9 8b30
000000d0: 1cb7 8334 2fad b832 36b3 d439 b0e5 8539
000000e0: 66dd c138 86bc 092d 363a 0735 a0a9 0835
000000f0: c53b b337 e1ae fb3b 7fe6 e637 23de 8b30
00000100: 5fe8 8334 4af2 b832 2c01 d539 3425 8639
00000110: 7d4c c238 0f8c 1e2d 4074 0735 9ad4 0835
00000120: fa31 1037 8060 2039 3124 3039 8def ea31
00000130: c290 dd35 bf53 1b34 e405 353b 9752 e33a
00000140: 2338 223a 60f2 f028 b2e5 5d36 070c 6236
00000150: 3a31 1137 8be2 0d39 1026 3039 a720 eb31
00000160: ffbe dd35 2e74 1b34 4328 353b a722 e33a
00000170: 42c5 223a 83a9 1f29 3192 5e36 fc0d 6136
00000180: d659 1338 c5eb e93b 5ddb a138 6cfb b431
00000190: b0ae aa35 e14f ef33 487d 0a3b 4475 a73a
000001a0: c416 0d3a 2c12 172c 4405 2f36 57f2 2936
000001b0: b9ba 1338 d624 e83b 38f8 a138 d874 b531
000001c0: 2c21 ab35 64f0 ef33 5dd4 0a3b d2b2 a73a
000001d0: e9d3 0d3a 2c8c 432c f78b 2f36 88db 2836
000001e0: 6b7a 5438 c45c 9c3c 1caf 4438 a560 ac31
000001f0: 4491 a235 22ef e333 525c 043b 4802 f53a
00000200: b2f5 8839 1c63 b62c f07d 2936 72a6 2836
00000210: 7b88 5438 1b51 9b3c 5bba 4438 0962 ac31
00000220: 8692 a235 def0 e333 fe58 043b 5d0a f53a
00000230: 84e8 8839 3258 dd2c 7e6a 2936 5a98 2836
00000240: 1b90 7c38 c38c 983c 120d 4339 ac5f 6532
00000250: f251 5836 6da6 9734 6a88 af3b f2f6 5e3b
00000260: 23e0 a93a 90e3 232f 0cbd da36 ca82 dc36
00000270: 032c 7e38 ad31 953c 7c0e 4339 593f 6532
00000280: 6633 5836 fe90 9734 d861 af3b 89ad 5e3b
00000290: 7c68 aa3a 5ae9 2e2f a6ee da36 928b db36
000002a0: d230 6638 6db3 e53c 2205 1938 71d5 5231
000002b0: c4d5 4635 6164 8b33 c642 9b3a 07cf 8f3a
000002c0: 9c96 3639 6842 722f 41d8 c835 183b cd35
000002d0: 5c43 6738 f4ed e43c 6de3 1838 5452 5231
000002e0: 295a 4635 bb0d 8b33 d5dd 9a3a 005e 8f3a
000002f0: 4d53 3839 1622 802f 535f c835 62ae cc35
00000300: ca26 4f39 348b 4d3d 6677 5039 a133 8032
00000310: abcf 7136 5585 a934 3ffd c33b aadb 9d3b
00000320: 324e 8f3a 03a7 0a2f 6a9f f836 d9b6 fa36
00000330: 0878 4f39 b39b 4c3d f478 5039 3046 8032
00000340: bcf2 7136 df9d a934 0519 c43b 78d5 9d3b
00000350: ee77 8f3a cb68 142f b2ae f836 a1b3 fa36
00000360: 2db9 9034 397e b436 42b2 0636 0cc0 222e
00000370: de7c 1932 1634 5730 cfe3 9d34 bdec d134
00000380: f588 9937 e7da c626 4a3f 5832 494b 9f32
00000390: 05cf 9234 99f5 ad36 de44 0736 8dca 222e
000003a0: da86 1932 1f42 5730 02f6 b734 ea50 d534
000003b0: 85c0 9937 40b6 f126 93d2 4b32 a355 9f32
000003c0: 91d5 6337 b0f6 ce37 99e5 2437 6add 7830
000003d0: a4b3 6a34 5689 a432 c23e aa39 104c 5e39
000003e0: 8fb7 d138 12c7 152d 0386 d234 95c0 df34
000003f0: b9b9 6437 5338 b837 282e 2537 6add 7830
1.5352829e-05 0.0024910518 1.4184194e-05 1.1094972e-09 2.6786728e-07 2.3473351e-08 0.00043838844 0.00029848743
0.00011821815 7.0177575e-12 5.391361e-07 5.454608e-07 1.5370706e-05 0.0024606308 1.419089e-05 1.1099534e-09
2.6797707e-07 2.3483018e-08 0.00043820354 0.00029859153 0.000118625845 7.731246e-12 5.398628e-07 5.4422e-07
1.6691914e-05 0.009144558 1.8765037e-05 1.0658473e-09 2.5732862e-07 2.2549859e-08 0.00042668488 0.00023037239
0.00016173246 4.3074343e-14 5.278707e-07 5.3640565e-07 1.6710012e-05 0.009157419 1.8772767e-05 1.0688981e-09
2.58065e-07 2.2614378e-08 0.00042728547 0.00023164706 0.0001620889 7.657875e-14 5.297144e-07 5.3771436e-07
2.1346392e-05 0.007701983 2.7523756e-05 1.0161867e-09 2.453388e-07 2.1499174e-08 0.00040569314 0.00025538867
9.244196e-05 7.829409e-12 5.0376127e-07 5.0910785e-07 2.1366295e-05 0.0076807593 2.752547e-05 1.0176716e-09
2.4569724e-07 2.15306e-08 0.000406274 0.0002558619 9.264888e-05 9.0123594e-12 5.0460585e-07 5.0973324e-07
8.594705e-06 0.00015294738 0.0001679815 6.83753e-09 1.6507913e-06 1.4465967e-07 0.002762192 0.0017343339
0.00061881746 2.6750466e-14 3.3065267e-06 3.3683625e-06 8.654135e-06 0.00013531202 0.00016798847 6.8431123e-09
1.652137e-06 1.4477766e-07 0.0027642406 0.0017329053 0.0006209203 3.545212e-14 3.3165672e-06 3.3535753e-06
3.5131197e-05 0.0071387016 7.717938e-05 5.267273e-09 1.2716828e-06 1.1143835e-07 0.0021131802 0.0012776037
0.00053821155 2.1468478e-12 2.6080097e-06 2.5324023e-06 3.522143e-05 0.0070844693 7.7233126e-05 5.281077e-09
1.2750147e-06 1.11730316e-07 0.0021183707 0.0012794381 0.00054103 2.7788978e-12 2.6158502e-06 2.5161735e-06
5.065875e-05 0.019087203 4.6893125e-05 5.016846e-09 1.2112218e-06 1.0614009e-07 0.0020196629 0.0018692696
0.00026123 5.1837545e-12 2.5256268e-06 2.5130835e-06 5.0671846e-05 0.018959573 4.69036e-05 5.017004e-09
1.2112584e-06 1.0614325e-07 0.0020194645 0.0018695105 0.0002611318 6.2909894e-12 2.524495e-06 2.512263e-06
6.021569e-05 0.018621808 0.00018601518 1.3351308e-08 3.2234207e-06 2.8247032e-07 0.005356838 0.0034021703
0.0012960475 1.490561e-10 6.5189142e-06 6.571737e-06 6.059931e-05 0.018212164 0.00018602045 1.3343958e-08
3.2216426e-06 2.8231437e-07 0.00535224 0.0033977947 0.001300111 1.5908111e-10 6.5246886e-06 6.5429567e-06
5.488174e-05 0.028039658 3.6482823e-05 3.068035e-09 7.407182e-07 6.490951e-08 0.0011845462 0.0010971733
0.00017412979 2.2033364e-10 1.4964099e-06 1.5290889e-06 5.5137425e-05 0.027945496 3.645143e-05 3.060582e-09
7.389195e-07 6.4751895e-08 0.0011815379 0.0010938048 0.0001757864 2.3307284e-10 1.4928904e-06 1.5249936e-06
0.00019755508 0.050181583 0.00019880905 1.492464e-08 3.6032677e-06 3.1575715e-07 0.005981117 0.0048174458
0.0010933338 1.2610361e-10 7.409534e-06 7.471867e-06 0.00019785773 0.049953174 0.00019881484 1.4933079e-08
3.6053088e-06 3.159357e-07 0.005984428 0.004816707 0.0010945776 1.3497752e-10 7.411313e-06 7.471492e-06
2.6956823e-07 5.3791123e-06 2.0071316e-06 3.7005107e-11 8.934164e-09 7.8290563e-10 2.940928e-07 3.9101533e-07
1.8302797e-05 1.3798344e-15 1.2587245e-08 1.8544272e-08 2.7345246e-07 5.184393e-06 2.0156654e-06 3.7014437e-11
8.936434e-09 7.831051e-10 3.42654e-07 3.9733214e-07 1.832867e-05 1.6772133e-15 1.1864034e-08 1.854898e-08
1.3579979e-05 2.4671986e-05 9.828619e-06 9.053652e-10 2.1858301e-07 1.9154566e-08 0.00032471685 0.00021199905
0.00010000087 8.513872e-12 3.9213054e-07 4.167711e-07 1.3633101e-05 2.1960737e-05 9.845513e-06 9.053652e-10

exp_avg f4 [128]
00000000: e516 9a2f a5c5 d6ae 2b58 03af 6224 b4b1
00000010: 694e 6031 946b aa30 73d8 e431 1077 272e
00000020: bd8a d630 29b0 438f 2802 92b0 d226 1c31
00000030: 062e 3385 31f9 caaa 1c5f e231 8945 652f
00000040: 82ce 5c31 948e 1b2e ffc6 952f 44b4 8dae
00000050: c8c9 1b31 4dfc fc31 7586 902e 395b e930
00000060: 2a5b d231 3206 05b2 0400 0000 5dfd a5b1
00000070: 2df2 63b0 5f26 cab1 0b1f 6d2f b14b cf22
00000080: 8b71 13b2 94ec 4724 4353 af31 da11 0c2e
00000090: dbf1 8431 2a06 1fb1 d972 a02e ba56 222e
000000a0: cf0b f7b0 a516 512e f1ef 3ab1 a879 c82f
000000b0: ff08 4731 f9fb 9531 5101 0080 a175 1cae
000000c0: 8dc2 8a15 cf76 029d 216c c130 17a1 d931
000000d0: a392 0732 87e6 27b2 b4eb 1532 a6b8 9f31
000000e0: c33b 85af af4a e7b1 ca39 2c96 c676 9131
000000f0: 97df 68ae 0400 0080 962f 5a32 b4a9 d9ae
00000100: cfc6 b82f 55e1 0db1 3b09 1f2a 0400 0000
00000110: 25fe 26af b950 e831 d647 be31 181b 3a2f
00000120: 0400 0080 0400 0000 0986 00b0 c3bc 1831
00000130: ea27 f12c 422f 0cab 7cee 0d2e f964 9788
00000140: be86 8eb1 1ac6 43af 09b3 6531 d063 fcae
00000150: cf5e 5b30 9e56 ab31 cca3 e2af 292b 16a0
00000160: afcf 84b1 5584 5031 8fdf 442e 78c7 8fb1
00000170: 808b aa0a 7635 12b0 87c0 db30 d958 ec0b
00000180: d110 94b1 0c0b 93b1 b1ff e58a 2bf9 702d
00000190: 6a29 8630 c9d9 8b21 bcbb adb1 0400 0080
000001a0: 0a1b 36b1 6a05 c821 09f8 93ab 00ae 1332
000001b0: 8acb 6531 8d83 dbb1 061e a431 0f70 0932
000001c0: 722c 31ac 9b57 3bb1 e117 0132 b7c3 32ad
000001d0: 11f1 0632 0400 0080 89cf 0732 0a34 d4b0
000001e0: a478 13b1 dabf 1c2e 5e4b ea2b 6d52 2b31
000001f0: 032d 3527 59db de2c 2d39 038f bf06 1b31
2.8028704e-10 -9.766702e-11 -1.1945704e-10 -5.2428257e-09 3.2640861e-09 1.2399703e-09 6.6602808e-09 3.8077153e-11
1.5609981e-09 -9.6481695e-30 -1.0623511e-09 2.2723055e-09 -8.424993e-36 -3.605532e-13 6.5882784e-09 2.0852133e-10
3.21316e-09 3.5369555e-11 2.7244337e-10 -6.443959e-11 2.2670168e-09 7.3628486e-09 6.572246e-11 1.6978908e-09
6.1221685e-09 -7.7430276e-09 6e-45 -4.830936e-09 -8.292627e-10 -5.883336e-09 2.1566053e-10 5.6187604e-18
-8.582343e-09 4.3351636e-17 5.102636e-09 3.184817e-11 3.8692014e-09 -2.314105e-09 7.296359e-11 3.6911564e-11
-1.7974972e-09 4.754121e-11 -2.7202953e-09 3.646623e-10 2.8963425e-09 4.3651167e-09 -4.72e-43 -3.557477e-11
5.6044703e-26 -1.726678e-21 1.407333e-09 6.333845e-09 7.8913756e-09 -9.773095e-09 8.726534e-09 4.648501e-09
-2.4235022e-10 -6.7314754e-09 -1.3912284e-25 4.2335584e-09 -5.294928e-11 -6e-45 1.270009e-08 -9.898163e-11
3.3610667e-10 -2.0646287e-09 1.412524e-13 6e-45 -1.5187902e-10 6.7612658e-09 5.5378946e-09 1.6926227e-10
-6e-45 6e-45 -4.6756604e-10 2.222621e-09 6.8540633e-12 -4.9803575e-13 3.2271505e-11 -9.1117205e-34
-4.1480623e-09 -1.7805526e-10 3.3425656e-09 -1.14773635e-10 7.9806467e-10 4.9866022e-09 -4.1225545e-10 -1.2719775e-19
-3.8653165e-09 3.0343206e-09 4.47638e-11 -4.1845247e-09 1.6422879e-32 -5.3190463e-10 1.5989067e-09 9.1037576e-32
-4.3092787e-09 -4.279519e-09 -2.2148078e-32 1.3697747e-11 9.761554e-10 9.476654e-19 -5.0563056e-09 -6e-45
-2.6499856e-09 1.355396e-18 -1.0513822e-12 8.596089e-09 3.3439584e-09 -6.3886945e-09 4.7764415e-09 7.999929e-09
-2.5177885e-12 -2.726188e-09 7.514218e-09 -1.0161586e-11 7.854639e-09 -6e-45 7.905222e-09 -1.543982e-09
-2.1459892e-09 3.5640692e-11 1.6647619e-12 2.4930629e-09 2.5143197e-15 6.333972e-12 -6.46981e-30 2.2559303e-09
