AIRocketLanding/results/AIRocket1/AIRocket/AIRocket-906815.pt (torch, 499727 bytes, 42 tensors)

network_body._body_endoder.seq_layers.0.weight f4 [128, 24]
0	0xbd1ae804	-0.037818924
1	0x3e7c9a76	0.24668297
2	0x3e26a65a	0.16274396
3	0xbdfb469f	-0.12269329
4	0x3c1d3492	0.009595053
5	0xbe0f0843	-0.13967995
6	0x3d8bc678	0.06824964
7	0xbce291c5	-0.027657399
8	0x3d386a30	0.045023143
9	0x3ee5dcea	0.44895107
10	0x3c0dbf1f	0.008651524
11	0xbe3790c5	-0.17926319
12	0xbe737feb	-0.23779266
13	0xbe341df6	-0.17589554
14	0x3dadf7d2	0.084945336
15	0x3ef39921	0.47577766
16	0x3e245449	0.16047777
17	0xbe4626ba	-0.1935071
18	0xbe829785	-0.25506225
19	0xbe33469a	-0.17507401
20	0xba8e2ab2	-0.0010846464
21	0xbd0125fc	-0.031530365
22	0x3d03196d	0.03200667
23	0x3e85bbff	0.26119992
24	0x3d0ee6cb	0.03488807
25	0x3d410e44	0.047132745
26	0xbeadda59	-0.3395565
27	0xbe7f3616	-0.24922976
28	0xbe89bd9a	-0.26902467
29	0xbe471a68	-0.19443667
30	0xbeb721f5	-0.35768095
31	0x3ba14525	0.0049215727
32	0x3e4c521d	0.19953199
33	0xbf13f3f5	-0.57794124
34	0x3ded3a57	0.11583393
35	0xbee36fa0	-0.444211
36	0x3c00cebf	0.007861792
37	0x3e34fec8	0.17675316
38	0x3e576238	0.21033561
39	0xbe860314	-0.26174223
40	0xbe85f5cb	-0.26164088
41	0xbe035e19	-0.12828864
42	0xbd777a3a	-0.0604193
43	0x3e95c4ea	0.29251796
44	0xbebbb3cf	-0.3666062
45	0xbe5be22e	-0.21473
46	0xbeb9a0ab	-0.36255392
47	0xbe32fd76	-0.174795
48	0xbdbe189e	-0.09282039
49	0x3da491dd	0.08035634
50	0xbe469a5e	-0.19394824
51	0xbd99f237	-0.07516902
52	0x3d7f80b9	0.06237862
53	0x3f13e06a	0.57764304
54	0x3d9899b2	0.0745119
55	0x3e298b31	0.16557004
56	0x3e5c445e	0.21510455
57	0xbe7c7da7	-0.24657308
58	0xbe3ca6d6	-0.18423018
59	0x3e0e114b	0.13873784
60	0x3bcb7fb1	0.0062102904
61	0x3e406ec1	0.1879225
62	0x3ecfa9ff	0.40559384
63	0xbe0e2b3e	-0.13883683
64	0xbe4a3e49	-0.19750322
65	0x3d8f2995	0.06990353
66	0x3e7919e4	0.24326283
67	0x3bc72af3	0.006078118
68	0x3def252b	0.11677011
69	0xbc4f0ffd	-0.012638089
70	0xbcbc1890	-0.022960931
71	0xbda7a2e3	-0.08185365
72	0x3e5ae4e7	0.21376382
73	0x3e020256	0.12696204
74	0xbe465ccd	-0.19371338
75	0x3d1fdd53	0.03902943
76	0xbdb45c42	-0.08806659
77	0xbe57645a	-0.21034375
78	0x3f01998b	0.5062491
79	0x38f23234	0.0001154881
80	0x3e6e38d7	0.2326387
81	0x3e84a71a	0.25908738
82	0x3e1b3219	0.1515583
83	0xbc4aea1a	-0.012384916
84	0x3d9d9f07	0.07696348
85	0x3e95b89a	0.29242402
86	0x3ea8c4d0	0.32962656
87	0xbd72e155	-0.059296925
88	0x3c37ddd9	0.011222326
89	0xbe1c7045	-0.15277202
90	0xbe774fd4	-0.24151546
91	0xbda1b463	-0.07895734
92	0xbdf9753f	-0.12180566
93	0x3dac9cd2	0.084283486
94	0xbf2aa0f6	-0.66651857
95	0xbea6f0f9	-0.32605723
96	0x3e17d5b6	0.14827618
97	0x3eb84999	0.3599365
98	0x3e892c1e	0.2679147
99	0x3df5e641	0.12006808
100	0xbe9d0573	-0.3066822
101	0x3dfd487e	0.123673424
102	0x3df9f71e	0.12205337
103	0x3ce00c6f	0.027349679
104	0xbe9ba2fe	-0.3039779
105	0xbb9cd7e8	-0.00478648
106	0xbefaadf2	-0.48960835
107	0x3b7015c9	0.0036634079
108	0x3e641d5b	0.22276823
109	0xbd186315	-0.037203867
110	0x3ec0e089	0.37671307
111	0xbb55189b	-0.0032515887
112	0xbddaf100	-0.10690498
113	0xbd71c81c	-0.05902873
114	0x3b4d46ef	0.0031322797
115	0xbe764d51	-0.24052931
116	0xbe0f9975	-0.14023383
117	0xbdc8f703	-0.09812739
118	0x3e9c4d43	0.30527696
119	0x3e12943f	0.14314364
120	0xbe53f6ec	-0.20699662
121	0x3c75915b	0.014988269
122	0xbdbc6241	-0.09198428
123	0xbd621f6a	-0.05520574
124	0xbe12ae35	-0.14324267
125	0x3de3f8a1	0.111314066
126	0xbdf7a554	-0.12092081
127	0xbe23d58a	-0.15999427
128	0xbe145859	-0.14486827
129	0x3da96598	0.082713306
130	0x3dc4ff52	0.09619011
131	0xbe31cc6a	-0.17363134
132	0xbdffbc3d	-0.124870755
133	0xbda8f0ef	-0.082490794
134	0x3ebf5b6c	0.37374437
135	0x3dd2da18	0.10295504
136	0x3b7194b8	0.0036862325
137	0xbd1d53e4	-0.038410082
138	0x3eb20c26	0.34774894
139	0x3bc19b34	0.005908394
140	0x3e9cd019	0.30627516
141	0x3df30c79	0.11867613
142	0xbded30b5	-0.11581556
143	0x3ddde473	0.10834589
144	0x3e141138	0.14459693
145	0xbd102199	-0.03518829
146	0xbe7e43d7	-0.24830566
147	0x3d7859af	0.060632404
148	0xbeb9a585	-0.36259094
149	0xbbe3aecc	-0.0069483276
150	0xbe11771c	-0.14205593
151	0x3e421c20	0.18956041
152	0xbeb9df6e	-0.36303276
153	0x3e6bf2da	0.2304186
154	0x3ec409bd	0.3828868
155	0x3e2da015	0.16955598
156	0x3d4b785e	0.049675338
157	0xbd860e9d	-0.06545756
158	0xbdae7e06	-0.08520131
159	0x3e5be531	0.21474148
160	0x3e85a92e	0.26105636
161	0x3db11620	0.08646798
162	0xbe212219	-0.15735663
163	0xbe8f33fe	-0.27969354
164	0xbe526f02	-0.20550159
165	0xbb8e2425	-0.004337805
166	0x3e2d92d2	0.16950539
167	0xbcac899b	-0.02106171
168	0x3cf2bdf4	0.029631592
169	0xbc9a4690	-0.018832475
170	0x3d5d2a73	0.05399556
171	0x3da61373	0.081091784
172	0x3e963519	0.29337385
173	0x3ebae50c	0.36502874
174	0xbe6a2139	-0.22864236
175	0x3e2fbaef	0.17161153
176	0xbdf30810	-0.11866772
177	0x3cbc93b8	0.023019657
178	0xbde56e65	-0.11202697
179	0xbe3959ee	-0.18100712
180	0xbe675c96	-0.22593912
181	0xbde4efc5	-0.11178545
182	0x3dab2bb4	0.08357945
183	0x3ec90123	0.3925868
184	0xbc962e88	-0.018332735
185	0xbdf8e677	-0.12153333
186	0x3dd88e7f	0.10574054
187	0xbe113e9a	-0.14184037
188	0xbe3fd667	-0.18734132
189	0xbe2efe0b	-0.17089097
190	0x3d40c77f	0.047065254
191	0xbe820ed5	-0.2540194
192	0x3e573a0a	0.21018234
193	0xbaf088f1	-0.0018351359
194	0xbbdfa95c	-0.006825609
195	0xbebda41d	-0.3703927
196	0xbd5a7c26	-0.053341053
197	0x3e86ecde	0.2635259
198	0xbe225f43	-0.15856652
199	0x3e66f68d	0.22554989
200	0xbafd1407	-0.0019308337
201	0xbe86fa08	-0.26362634
202	0x3ec47153	0.3836771
203	0xbd4c5f15	-0.049895365
204	0x3e9c4567	0.305217
205	0x3e2969a9	0.16544212
206	0x3cae6c8e	0.021291997
207	0xbe97bb96	-0.29635304
208	0xbd906bb1	-0.070517905
209	0x3e148478	0.14503658
210	0xbc9de001	-0.019271852
211	0x3d50c530	0.050969303
212	0xbe3984b8	-0.18117034
213	0x3eed320c	0.46327245
214	0x3d881677	0.0664491
215	0xbbddfa57	-0.0067742276
216	0xbdc0f5b4	-0.09421864
217	0xbcefb12c	-0.029259287
218	0xbed0054a	-0.40629035
219	0xbe8a97a4	-0.27068818
220	0xbc8d1c9e	-0.01722556
221	0x3ed50633	0.41606292
222	0x3de5288b	0.111893736
223	0x3dc6a68d	0.09699736
224	0xbe10fd97	-0.14159237
225	0xbeb71722	-0.35759836
226	0xbdef235d	-0.11676667
227	0x3d4c3614	0.04985626
228	0xbb19b028	-0.0023450945
229	0x3d54a7dc	0.051917896
230	0x3ccfb459	0.025354551
231	0x3ec0bae2	0.3764258
232	0xbe47f267	-0.19526063
233	0xbdd7537a	-0.10513969
234	0xbec16b31	-0.37777093
235	0x3e49e63e	0.19716737
236	0xbe8272a2	-0.25478083
237	0xbe0a069e	-0.13479087
238	0xbc096e5b	-0.008388127
239	0x3dca2fbc	0.09872386
240	0xbee9abe2	-0.4563895
241	0xbc96bf83	-0.018401867
242	0x3e46b6ab	0.1940562
243	0xbe6a94cc	-0.22908324
244	0x3d96a312	0.07355322
245	0x3c7da266	0.015480613
246	0xbebf3e97	-0.3735244
247	0x3d9ced62	0.07662465
248	0x3e257469	0.16157688
249	0xbf103b85	-0.5634082
250	0xbececabe	-0.40389055
251	0xbb92e674	-0.0044830386
252	0xbe81a09b	-0.25317845
253	0xbd19fa74	-0.037592366
254	0x3e71c4ce	0.23610231
255	0xbd2ffb9c	-0.042964563

network_body._body_endoder.seq_layers.0.bias f4 [128]
0	0x3c829cd6	0.015943926
1	0xbbdcffcd	-0.006744361
2	0x3ccb344f	0.024805216
3	0x3cc522b2	0.024064396
4	0xb9a09de5	-0.0003063522
5	0x3c8cfa66	0.017209243
6	0x3c242cab	0.010020415
7	0xbc9ac09a	-0.018890668
8	0xbc7a90e7	-0.0152933365
9	0x39da8ad2	0.0004168363
10	0x3d3649e2	0.044504054
11	0x3d05f902	0.032708175
12	0x3c5c84fe	0.013459442
13	0x3cca9040	0.024726987
14	0x3d4e0fc8	0.05030802
15	0x3b5158fb	0.0031943906
16	0x3c445e87	0.011985428
17	0x3b3f8c51	0.0029227922
18	0x3cab2586	0.020891916
19	0x3c12b020	0.008953124
20	0xbcfc49d5	-0.030796925
21	0xbd25ed29	-0.040509377
22	0xbc926b0f	-0.017873315
23	0xbba52a7b	-0.0050404645
24	0x3c73e5f0	0.014886364
25	0x3cb181c4	0.021668322
26	0xbbdeb4ef	-0.0067964713
27	0x3c474c63	0.012164208
28	0xbc78ba76	-0.0151811745
29	0xbbaa1811	-0.005190857
30	0x38b695fa	8.7063716e-05
31	0xbbeb3d9e	-0.007178976
32	0x3c81c975	0.015843133
33	0xbcd078fe	-0.025448319
34	0x3c766582	0.01503885
35	0xbc3b2f80	-0.011424899
36	0xbc2f76b5	-0.010709454
37	0x3c58c0e5	0.013229583
38	0x3b0a5442	0.002110735
39	0xbb0e9e9d	-0.0021762021
40	0xb93ed425	-0.00018198842
41	0x3bcad069	0.006189395
42	0x3d033722	0.032035
43	0x3bbe7c83	0.005813183
44	0x3a02aa53	0.0004984487
45	0xbcf2f886	-0.02965952
46	0xbc2d31dc	-0.010570969
47	0xbd2e6898	-0.042580217
48	0x3cdccbba	0.026952613
49	0xbc8816c8	-0.016612425
50	0x3bba0970	0.0056773946
51	0x3a7f45bf	0.0009737871
52	0x3c80c277	0.015717728
53	0xbc955221	-0.018227639
54	0x3bb7ec8d	0.005612916
55	0x3d234ba1	0.039867047
56	0xbc76b6c3	-0.015058222
57	0xbc482a3a	-0.012217099
58	0xbc94de6c	-0.018172465
59	0x3cca15a0	0.024668515
60	0x3bfccadb	0.007714612
61	0xbd13c756	-0.036078773
62	0x3cbec6b6	0.023288112
63	0xbc05965b	-0.008153523
64	0xbc1387a6	-0.009004509
65	0x3b4c02a0	0.0031129494
66	0x3c35d36a	0.011097768
67	0x3c70a7fe	0.01468849
68	0xbc1fcf57	-0.0097540235
69	0xbd11879d	-0.03552972
70	0x3a568370	0.0008183038
71	0xbcc2d69e	-0.023783978
72	0xbc8dd1ca	-0.01731195
73	0x3c7f8645	0.015595977
74	0xbc0a31f0	-0.008434758
75	0xbc7f4fbb	-0.015582974
76	0x3c8b22e5	0.016984412
77	0xbc88a892	-0.016681943
78	0xbcb54a88	-0.022130266
79	0x3c965b9d	0.018354231
80	0xbb3478ea	-0.002753789
81	0x3c14e250	0.00908716
82	0x3c6299e4	0.013830636
83	0x3c159aeb	0.009131174
84	0xbcc3dd2c	-0.023909174
85	0x3b8a782b	0.004225751
86	0x3c6e4517	0.0145428395
87	0x3c83f831	0.016109558
88	0xbcb4284b	-0.02199187
89	0xbcc73dd3	-0.024321472
90	0xbc956f0b	-0.018241426
91	0xbd1a8d7d	-0.03773259
92	0x3b23586d	0.0024924532
93	0xbc52c4b5	-0.012864281
94	0xbd0167a9	-0.031593
95	0xbb81db65	-0.0039629214
96	0x3c1fbe49	0.009749957
97	0x3c219c84	0.009863976
98	0x3bd909c5	0.006623479
99	0x3b0d1488	0.002152713
100	0x3ccad323	0.024758881
101	0xbcdd124c	-0.026986264
102	0x3c8f9c72	0.017530654
103	0xbd1cd183	-0.038285743
104	0x3c8c0fdb	0.017097404
105	0x3cf8ac0a	0.030355472
106	0x3c54a177	0.012977949
107	0xbc4ab059	-0.012371146
108	0xbc118136	-0.008880904
109	0xbcb4b66a	-0.022059638
110	0xbaabe88a	-0.0013115567
111	0xbaa81765	-0.0012824355
112	0xbc106548	-0.00881321
113	0xbd45ab36	-0.048258983
114	0x3bb3cc48	0.0054869987
115	0x3cf83252	0.030297432
116	0xbc9bbaa4	-0.019009896
117	0xba31d476	-0.00067836733
118	0xbcb0a4ee	-0.02156302
119	0xbcffb385	-0.031213531
120	0xbcaec90f	-0.021336107
121	0xbc9c2407	-0.019060148
122	0x3cdfa2f3	0.02729938
123	0xbbf4c413	-0.007469663
124	0xbd0ef26a	-0.034899153
125	0xbcaaa5a9	-0.020830946
126	0x3cf0e914	0.029408015
127	0x3ca06873	0.019581055

network_body._body_endoder.seq_layers.2.weight f4 [128, 128]
0	0xbdd367a3	-0.103225015
1	0xbcc9d1d3	-0.024636185
2	0xbd38035a	-0.04492507
3	0xbd9c538c	-0.07633123
4	0x3d569300	0.052386284
5	0xbdd48227	-0.10376387
6	0x3d4b80e9	0.049683485
7	0x3d5714a4	0.05250992
8	0x3c307e78	0.01077234
9	0x3e2d0dc0	0.16899776
10	0xbd64c9db	-0.055856567
11	0x3ccba285	0.024857769
12	0xbd18726b	-0.037218492
13	0x3af54820	0.0018713512
14	0x3cdd4c40	0.027013898
15	0xbda46301	-0.08026696
16	0x3d829229	0.06375534
17	0x3dbf5723	0.09342792
18	0xbd8eac3d	-0.069664456
19	0x3ca67965	0.020321557
20	0x3bbe76f9	0.0058125225
21	0x3d2fa0d1	0.042877976
22	0x3d1230e2	0.03569115
23	0x3e13881c	0.1440739
24	0x3be87559	0.007094067
25	0xbd3d2b13	-0.046183657
26	0x3d049678	0.03237006
27	0x3c673471	0.014111624
28	0xbcffba41	-0.031216742
29	0xbdcacde5	-0.099025525
30	0x3b094fc2	0.002095208
31	0x3ca2210e	0.019791152
32	0x3d029dfa	0.03188894
33	0xbd5ae95d	-0.05344521
34	0xb9dae7e1	-0.00041752963
35	0xbcd30bf4	-0.025762536
36	0x3e074299	0.13208999
37	0x3df5032c	0.119634956
38	0x3cb5a2bb	0.022172322
39	0x3dd81887	0.10551553
40	0x3d41cdfc	0.047315583
41	0x3dc9583b	0.09831282
42	0x3dc79373	0.097449206
43	0xbda32dfc	-0.07967755
44	0xbe1ae65f	-0.15126942
45	0xbd97ab73	-0.07405748
46	0x3d246ca3	0.040142667
47	0x3db02962	0.08601643
48	0xbe08d652	-0.13363007
49	0xbdf6d934	-0.12053147
50	0xbe4ef8f4	-0.20212156
51	0xbe00cf81	-0.12579156
52	0x3dc771ad	0.09738479
53	0x3db5edd1	0.088832505
54	0xbcf834d2	-0.030298624
55	0x3e32f664	0.17476803
56	0x3c4d9ed6	0.0125500765
57	0x3d47108e	0.048599772
58	0x3de4d7a7	0.11173945
59	0x3d1495b3	0.036275577
60	0xbdd27fe6	-0.10278301
61	0x3c2a9254	0.010410864
62	0xbd756d18	-0.059918493
63	0xbd8a9de9	-0.067684
64	0x3c6276e4	0.013822291
65	0x3cf7af19	0.03023486
66	0xbd819c86	-0.063286826
67	0xbd26b9a0	-0.04070437
68	0xbd5f54be	-0.054524176
69	0x3c06d1f3	0.008228767
70	0xbd9bef52	-0.07614006
71	0x3e4367d2	0.19082573
72	0xb9849c2d	-0.00025293362
73	0xbe003074	-0.12518483
74	0xbccf07d5	-0.02527229
75	0x3d181f01	0.037138943
76	0xbd8c58ad	-0.06852851
77	0xbc4e350b	-0.012585889
78	0xbc79a17b	-0.015236254
79	0xbe091298	-0.13385999
80	0xbdf21f6d	-0.118224
81	0xbcc3c665	-0.023898313
82	0x3cee994f	0.029125838
83	0xbb0de768	-0.0021652821
84	0x3d810be9	0.063011
85	0xbdbae667	-0.09125977
86	0x3c9db1a1	0.01924974
87	0x3c61e99b	0.013788606
88	0xbd2ab8b4	-0.041680053
89	0xbc4a67e7	-0.012353874
90	0x3d0766a7	0.03305688
91	0x3e72681b	0.23672526
92	0xbd6c4314	-0.05768116
93	0xbd964331	-0.073370345
94	0xbd8883cd	-0.06665764
95	0x3d317ec7	0.043333795
96	0x3b43944f	0.0029843037
97	0xbd6d57e3	-0.057945143
98	0x3caf2277	0.021378739
99	0x3dec997b	0.115527116
100	0x3d849a47	0.064747386
101	0x3d670aaf	0.056406673
102	0xbd9f5266	-0.07779388
103	0x3dcffece	0.10156022
104	0x3dc588c9	0.0964523
105	0x3e362bdd	0.1779017
106	0xbbbb5e76	-0.0057180477
107	0xbc524d59	-0.012835824
108	0xbd4640e8	-0.048401743
109	0xbdd7cacf	-0.105367295
110	0xbdaf3a29	-0.08556015
111	0x3c51d063	0.012806031
112	0x3e2af0c5	0.16693409
113	0xbd98c893	-0.074601315
114	0x3cda7c60	0.026670635
115	0xbd02da7c	-0.031946644
116	0x3c12e336	0.008965304
117	0xbc664281	-0.014053942
118	0xbd4327b5	-0.04764529
119	0x3d256665	0.040380854
120	0xbdd373c5	-0.10324816
121	0xbcfa7e6c	-0.03057786
122	0xbda25bbb	-0.079276524
123	0xbccb898b	-0.024845859
124	0xbd491c50	-0.049099267
125	0x3ccfa258	0.025345966
126	0xbe00aa90	-0.12565064
127	0x3e10d3b7	0.14143263
128	0xbdbadc56	-0.09124057
129	0x3e20f528	0.1571852
130	0xbd7cb5dd	-0.061696876
131	0x3c506690	0.012719765
132	0xbd9e8e82	-0.07742025
133	0xbce65f9c	-0.028121762
134	0x3b99604e	0.00468067
135	0x3de3c32b	0.1112121
136	0xbb6d945a	-0.0036251754
137	0x3e2ce799	0.16885222
138	0x3bb916a2	0.00564845
139	0xbdb73056	-0.08944766
140	0xbdb4e3bb	-0.08832499
141	0x3c2fd31d	0.010731486
142	0x3c42a2f7	0.011879674
143	0x3dce1826	0.100632
144	0x3d8907d8	0.06690949
145	0xbd970397	-0.073737316
146	0x3d675029	0.05647293
147	0xbd2b4d7e	-0.04182195
148	0x3d4d0054	0.05004914
149	0x3e08fb88	0.13377202
150	0x3d915714	0.07096687
151	0xbda7f5a3	-0.08201148
152	0xbc60b6ab	-0.013715426
153	0x3da590e7	0.080842786
154	0x3c829cba	0.015943874
155	0xbce4d540	-0.027933717
156	0x3d07ff7f	0.033202644
157	0x3d70a454	0.058750466
158	0x3d4fdb49	0.050746236
159	0xbd585ee7	-0.05282488
160	0xbce5c171	-0.028046342
161	0xbd27bca5	-0.04095139
162	0xbe2a8a3c	-0.16654295
163	0xbd579728	-0.05263439
164	0x3df74966	0.120745465
165	0xbd01c3cf	-0.03168088
166	0xbd1badbd	-0.038007487
167	0xbe378dde	-0.17925212
168	0x3de537ab	0.111922584
169	0x3cdc2dbd	0.026877278
170	0xbd5b5d66	-0.05355587
171	0x3d23e4b8	0.040013045
172	0xbe7c0b04	-0.24613577
173	0xbd89ded7	-0.067319565
174	0xbd91736e	-0.071020946
175	0xbd32d595	-0.04366072
176	0xbbb071e9	-0.005384673
177	0x3cc23acd	0.023709679
178	0x3d141372	0.036151357
179	0xbe475e1e	-0.19469497
180	0xbde0d3a2	-0.10977866
181	0xb96a61e4	-0.00022352446
182	0xbd6ee28c	-0.05832152
183	0x3dca92d0	0.098912835
184	0x3d8e4bf0	0.06948078
185	0x3cd1b5d2	0.025599394
186	0xbd8472c8	-0.06467205
187	0xbc1eae1f	-0.009685068
188	0xbd20807b	-0.03918503
189	0x3db1c538	0.086801946
190	0x3de4cf6c	0.11172375
191	0xbc40ecf6	-0.011775246
192	0x3b693d2a	0.0035589435
193	0xbdc56c50	-0.096397996
194	0xbe2ef273	-0.17084675
195	0xbbdf2192	-0.006809422
196	0xbd665b53	-0.056239437
197	0xbd8ea8e0	-0.06965804
198	0xbd20917c	-0.039201245
199	0xbd80c923	-0.06288364
200	0x3daa185e	0.08305429
201	0xbe4571e8	-0.19281733
202	0x3d5c6691	0.053808752
203	0x3daf74f7	0.08567231
204	0x3e08d91c	0.1336407
205	0x3d1c3dfb	0.038145047
206	0xbe0a830e	-0.13526556
207	0xbdbfbb9a	-0.09361954
208	0x3d5165ca	0.051122464
209	0x3d1c5403	0.038166057
210	0xbd9637d6	-0.073348686
211	0x3c46dd7b	0.012137766
212	0xbc33b871	-0.010969267
213	0x3c9e6cb6	0.019338947
214	0x3d8c7120	0.068575144
215	0xbc9c1eea	-0.01905771
216	0xbe13f80f	-0.14450096
217	0xbc4c19a5	-0.012457286
218	0x3cd7ea86	0.026356947
219	0x3d3152f0	0.043291986
220	0x3d4088ba	0.047005393
221	0x3d5c7110	0.053818762
222	0xbcad2ee7	-0.021140529
223	0x3d2b530a	0.04182724
224	0x3d30521b	0.043047052
225	0xbdfd946b	-0.12381824
226	0xbe097a26	-0.13425502
227	0x3cc79ec4	0.024367698
228	0xbd7d068a	-0.061773814
229	0xbd9c4ebd	-0.07632206
230	0x3b3e4652	0.0029033613
231	0xbd6d3921	-0.05791581
232	0xbdd9601d	-0.10614035
233	0x3b34b943	0.0027576245
234	0xbc51f374	-0.012814391
235	0x3ccd1255	0.025033155
236	0x3dcbea73	0.09956827
237	0x3def9f7d	0.11700342
238	0xbe358b54	-0.1772893
239	0x3d138e59	0.036024425
240	0xbdee0d4f	-0.11623632
241	0x3e0a3bc7	0.13499366
242	0xbd940d83	-0.0722914
243	0xbd7e581c	-0.062095746
244	0x3d22ec2b	0.03977601
245	0xbd0b0c72	-0.033947416
246	0x3d01911e	0.031632535
247	0xbdbf2657	-0.093334846
248	0xbdc0e3a9	-0.09418423
249	0xbe130d57	-0.14360557
250	0xbc3fcd5d	-0.011706677
251	0xbc0dffd5	-0.008666952
252	0x3dd174e3	0.102273725
253	0x3df1e84b	0.118118845
254	0xbddfa9bd	-0.10921047
255	0xbd83a996	-0.0642883

network_body._body_endoder.seq_layers.2.bias f4 [128]
0	0xbc73f412	-0.014889734
1	0xbc257a10	-0.010099903
2	0x3c606697	0.013696334
3	0xbb972d6f	-0.0046135704
4	0x3399f92c	7.169942e-08
5	0xbc798b3c	-0.01523095
6	0x3c8968e1	0.016773643
7	0xbbad6b00	-0.0052922964
8	0x3c9fed6f	0.019522397
9	0xbcb46853	-0.022022402
10	0xbcbeb3a3	-0.023279017
11	0xbc4da93a	-0.012552554
12	0x3ca9298d	0.020649696
13	0xbbca7d59	-0.0061794934
14	0x3c996f77	0.018729908
15	0xbc07552c	-0.008260053
16	0x3c296e0c	0.010341179
17	0x3ca2b0f7	0.019859774
18	0xbca7c07b	-0.020477524
19	0x3c81333f	0.015771506
20	0x3c86883f	0.01642239
21	0xbb6fdf22	-0.0036601503
22	0x3cfc88c7	0.03082694
23	0xbcc2d67f	-0.02378392
24	0x3ce8fe1a	0.028441478
25	0xbc2c621f	-0.010521441
26	0x3a5be3d4	0.0008388136
27	0xbc6195c1	-0.013768614
28	0x3c487cdf	0.012236803
29	0xbc209c01	-0.009802819
30	0xbc4b3be3	-0.012404415
31	0x3cc8c80a	0.024509449
32	0xbc2d326f	-0.010571106
33	0x3ba9da93	0.005183527
34	0xbb7f52df	-0.0038959307
35	0xbd1a5f47	-0.03768852
36	0x3cb91c6a	0.022596557
37	0xbc58594c	-0.013204884
38	0xbcdf4c3e	-0.027258035
39	0xbb484063	-0.0030555956
40	0x3ccee6d4	0.025256552
41	0xbd110304	-0.035403267
42	0x3d230780	0.039802074
43	0xbb58e292	-0.003309403
44	0xbc2ead25	-0.010661398
45	0xbcde1c67	-0.027113153
46	0xbbcc9ae6	-0.0062440513
47	0xbc33bdc9	-0.010970541
48	0x3c8e1425	0.01734359
49	0x3cdfff68	0.027343467
50	0x3c134b2c	0.00899009
51	0x3bca1b89	0.006167833
52	0x3cf70563	0.030153936
53	0xbc826b45	-0.01592029
54	0x3c783139	0.015148454
55	0x3c41db4b	0.011832069
56	0xbc51041e	-0.012757329
57	0x3cadc436	0.021211725
58	0x3c0d9fa6	0.00864402
59	0x3c22b985	0.009931927
60	0xbc7acd38	-0.015307717
61	0x3c8c2305	0.017106542
62	0xbca8dcff	-0.020613192
63	0x3bf3d671	0.007441335
64	0xbc981af9	-0.018567549
65	0x3c58a6e2	0.013223382
66	0xbd04ce57	-0.032423344
67	0xbbc563f5	-0.0060238787
68	0x3b914ff0	0.004434578
69	0xbcb71e80	-0.02235341
70	0xbb07bcec	-0.0020711971
71	0x3b9d0953	0.0047923713
72	0xbd01aba3	-0.031657826
73	0x3a23ede6	0.0006253406
74	0x3b92f456	0.0044846935
75	0xbca5f390	-0.020257741
76	0xbb6614a7	-0.0035107525
77	0x3aff5f84	0.0019483422
78	0x3a6b1425	0.00089675403
79	0x3c66d26f	0.014088257
80	0x2d667db3	1.3101897e-11
81	0xbbe71027	-0.007051486
82	0xbcadd95b	-0.021221807
83	0xbc881c1b	-0.016614964
84	0x3c31f3ba	0.010861332
85	0xbc506975	-0.012720455
86	0x3c704a29	0.014666119
87	0xbc7cb4c8	-0.015423961
88	0xbcad1607	-0.021128668
89	0xae8c13f9	-6.370011e-11
90	0x3b0e3683	0.0021699972
91	0x3c8810ee	0.016609635
92	0xbc5e403d	-0.01356512
93	0x3c730d1e	0.01483467
94	0xbc27e716	-0.010247966
95	0x3d0dcc7d	0.034618843
96	0x3c006600	0.007836819
97	0xbc4e091f	-0.012575417
98	0xbbedc743	-0.00725642
99	0x3cf4061d	0.029788071
100	0xbc295a4f	-0.010336473
101	0x3cf942b2	0.03042731
102	0xbc7e1ace	-0.01550932
103	0x3c702e7b	0.014659519
104	0xbc6004ab	-0.013672988
105	0x3cedd195	0.0290306
106	0xbc74741d	-0.014920262
107	0xbcae36b4	-0.021266319
108	0xbc9d4bb3	-0.019201135
109	0xbcccdd56	-0.025007885
110	0xbbd233b1	-0.0064148535
111	0xbb6f32b8	-0.0036498737
112	0xbc1487d4	-0.009065587
113	0x3b999ba1	0.004687742
114	0x3cc7d80b	0.02439501
115	0x3c8d81ee	0.01727387
116	0x3cd2a1f0	0.025711983
117	0x3c5c78b4	0.013456512
118	0xbce7eaf6	-0.02831028
119	0x3b653c8a	0.003497871
120	0x3cb038cb	0.021511456
121	0x3cf5c899	0.030002879
122	0xbc8bd028	-0.01706703
123	0x3d15c6d7	0.03656658
124	0xbc88cf48	-0.016700402
125	0x3c50fa2f	0.012754961
126	0x3cd213e4	0.02564425
127	0xbc5dda60	-0.013540834

action_model._continuous_distribution.log_sigma f4 [1, 2]
0	0x3e8a8d00	0.270607
1	0x3e393928	0.1808821

action_model._continuous_distribution.mu.weight f4 [2, 128]
0	0xbc66908f	-0.014072551
1	0x3b091e12	0.0020922464
2	0x3d4e44c4	0.05035855
3	0x3ca0c52f	0.019625274
4	0xbc276de9	-0.010219076
5	0xbc88191e	-0.01661354
6	0x3d853bde	0.065055594
7	0xbca6ea5c	-0.020375423
8	0x3d47fdbc	0.048825964
9	0x3c018c48	0.007906981
10	0x3c036c73	0.008021462
11	0x3c17cc60	0.009265035
12	0x3d82182b	0.06352266
13	0x3ccf060a	0.025271434
14	0x3d3867e5	0.045020957
15	0xbc8b71af	-0.017021982
16	0x3d0ec53f	0.034856077
17	0x3d163c14	0.03667839
18	0xbcc89733	-0.02448616
19	0x3d190d5d	0.03736626
20	0x3d4f594d	0.050622273
21	0x3d463f04	0.04839994
22	0x3d06e544	0.03293349
23	0xba8b2650	-0.0010616276
24	0x3d7fc9a2	0.06244815
25	0x39c93a86	0.0003838131
26	0x3cd84665	0.026400754
27	0xbd0ed3db	-0.03487001
28	0xbc1b42da	-0.009476388
29	0x3b36aca5	0.00278739
30	0xbc4f2654	-0.0126434155
31	0x3de1bd31	0.110224135
32	0xbad7f0d4	-0.0016474971
33	0x3cfaa542	0.03059638
34	0xbc22b742	-0.009931387
35	0x3a82b03e	0.0009970737
36	0x3d17e490	0.03708321
37	0xbbd1c93b	-0.0064021624
38	0x3b6f0748	0.0036472846
39	0xbcd9812e	-0.026550855
40	0x3d2635e3	0.040578734
41	0xbbcfae41	-0.0063379114
42	0x3cb9eafb	0.022695055
43	0x3c861212	0.016366038
44	0x3c44f2df	0.012020796
45	0xbc69d076	-0.014270892
46	0x3bf36638	0.007427957
47	0x3c149bb1	0.009070323
48	0x3d2fa230	0.042879283
49	0x3d48fdb9	0.049070094
50	0x3d90f433	0.07077827
51	0x3cdda0ca	0.02705421
52	0x3d3e0df2	0.046400018
53	0x3bad50e0	0.005289182
54	0x3d6bc9be	0.057565443
55	0x3cf089a0	0.0293625
56	0x3cfa02c8	0.030518904
57	0x3d3181d3	0.0433367
58	0xbd411139	-0.047135565
59	0x3d251d9f	0.040311452
60	0x3c8f0620	0.017458975
61	0xbd7ab0c0	-0.06120372
62	0x3c18e0c4	0.009330932
63	0x3c99214f	0.01869264
64	0xbd073197	-0.033006277
65	0x3d793732	0.060843654
66	0xba681164	-0.0008852689
67	0xbcd63d8e	-0.026152398
68	0x3b1ea99e	0.0024209986
69	0xbbf4369c	-0.007452799
70	0xbc765c69	-0.015036681
71	0x3c20b124	0.009807859
72	0x3c0987b4	0.008394171
73	0x3cbcaa51	0.023030432
74	0x3c68be18	0.014205478
75	0xbb41e98c	-0.0029588668
76	0x3c56712a	0.013088504
77	0x3d348e0a	0.04408077
78	0xbc80c2a0	-0.015717804
79	0x3d73149b	0.059345823
80	0x3c6b54bb	0.014363463
81	0xbcf6ee82	-0.030143026
82	0xbb58bb7b	-0.0033070731
83	0xbc3199e7	-0.010839916
84	0xbbfc5202	-0.007700206
85	0x3c06a3fb	0.008217807
86	0xbcb0229a	-0.021500874
87	0xbc09f3b1	-0.008419917
88	0xbce30a5b	-0.027714899
89	0xbb42daff	-0.0029732583
90	0xbcc69364	-0.024240203
91	0x3d491f35	0.049102027
92	0x3c182c86	0.009287959
93	0xbc7bcbb4	-0.015368391
94	0xbcb766af	-0.02238783
95	0x3d6f52bb	0.058428507
96	0xba4ef807	-0.00078952353
97	0xbabda7bf	-0.0014469548
98	0x3ccd9555	0.025095621
99	0x3d1725fd	0.036901463
100	0xbcd23f1b	-0.025664857
101	0x3d539e9e	0.05166494
102	0xbc009d6d	-0.007850033
103	0x3bdf57ab	0.0068158708
104	0x3c22375b	0.009900893
105	0x3d574d9c	0.05256425
106	0x3c51855f	0.012788146
107	0xbaffc8a6	-0.0019514754
108	0xbc8fcf84	-0.017555006
109	0xbc2d6a07	-0.010584361
110	0xbd0525cf	-0.03250676
111	0xbbd3159a	-0.006441784
112	0xbc7c0f1a	-0.01538446
113	0xbcf3ee2b	-0.029776653
114	0x3d434a03	0.047678005
115	0x3cb0e82d	0.021595085
116	0x3d502e76	0.05082556
117	0x3d45ea88	0.04831937
118	0xb6a84873	-5.0152244e-06
119	0xbcbfa7f8	-0.023395523
120	0x3d2a8425	0.04162993
121	0x3d5ba762	0.053626426
122	0xbc30da39	-0.010794216
123	0x3d63a3dc	0.05557619
124	0x3c32bb5c	0.010908928
125	0x3caa5db2	0.02079663
126	0x3da223bb	0.07916971
127	0xbcaa6338	-0.020799264
128	0x3b8777a5	0.004134136
129	0xbac804a3	-0.0015260171
130	0xbcb5373a	-0.02212106
131	0xbbad5e12	-0.005290755
132	0xbb6d0587	-0.0036166625
133	0xbcbc1e38	-0.022963628
134	0xbd4c5589	-0.04988626
135	0xbc9751d8	-0.018471643
136	0xbd0f186f	-0.03493541
137	0x3b3fa269	0.002924109
138	0x3bda225d	0.0066569285
139	0x3b16d95c	0.002301774
140	0xbd36acf8	-0.04459855
141	0xbcaebb06	-0.021329414
142	0xbd026c8a	-0.031841792
143	0xbcecccb0	-0.028906196
144	0xbd40046e	-0.046879224
145	0xbce4705e	-0.027885612
146	0x3ca0ffb8	0.019653186
147	0xbd061b60	-0.03274095
148	0xbcbeca02	-0.023289684
149	0x3a889408	0.0010420093
150	0xbd74b7b3	-0.0597455
151	0xbc6aceb0	-0.014331505
152	0xbd48dcc5	-0.049038667
153	0x3d03f8b8	0.03221962
154	0xbcd666b7	-0.026172025
155	0xbb86621d	-0.0041010515
156	0xbd602ff8	-0.054733247
157	0xbc5fc036	-0.0136566665
158	0xbcb8f7b9	-0.02257906
159	0xbd15a7c8	-0.03653696
160	0xbc4295bf	-0.011876523
161	0xbceda655	-0.029009977
162	0x39969fe8	0.0002872937
163	0xbb8b5c5e	-0.0042529544
164	0xbd06b063	-0.03288306
165	0xbc838422	-0.016054217
166	0x3b347164	0.0027533406
167	0xbbc0001f	-0.0058593894
168	0xbd0b547b	-0.034016114
169	0xba1b3c5d	-0.00059217756
170	0xbd370568	-0.04468289
171	0xbb69baa0	-0.0035664216
172	0xbbf86b87	-0.0075811776
173	0xbad99952	-0.0016601479
174	0xbcaa34dd	-0.02077716
175	0xbbc27282	-0.0059340606
176	0xbd148df5	-0.036268193
177	0x3cb5f085	0.022209415
178	0xbcdcb254	-0.026940502
179	0xbcc03e9a	-0.02346735
180	0xbd369917	-0.04457959
181	0x3aabc78b	0.0013105733
182	0xbcd62bcd	-0.026143933
183	0xbd291051	-0.041275326
184	0xba6dcbe9	-0.00090712175
185	0xbd4ab559	-0.049489353
186	0x3ccd57c8	0.025066271
187	0xbcbe497a	-0.023228396
188	0xbd0479fd	-0.0323429
189	0x3d30ea4f	0.043192204
190	0xbc2e20eb	-0.010627965
191	0xbcf3ce27	-0.029761387
192	0xbb4d502c	-0.0031328304
193	0xbc5691af	-0.013096257
194	0xbbac47ec	-0.005257597
195	0xbb5400b8	-0.0032349061
196	0xbd05cb17	-0.032664385
197	0x3c912dca	0.01772203
198	0x3c9221fc	0.01783847
199	0xbd453d27	-0.048154023
200	0x3c1b1f1f	0.009467869
201	0x3d234b1a	0.039866544
202	0xbc50ad91	-0.012736694
203	0xbc5eda31	-0.013601826
204	0xbd3c5d31	-0.04598731
205	0xbd0ad271	-0.0338921
206	0xbc597854	-0.013273317
207	0xbca854de	-0.02054828
208	0xbc47e9af	-0.012201711
209	0x3ccf0dfd	0.025275225
210	0xbb189127	-0.0023279877
211	0xbc94d9ea	-0.018170316
212	0xbd33800f	-0.043823298
213	0xbcc4551c	-0.023966365
214	0xbd32efb7	-0.04368564
215	0xba9d2428	-0.0011988925
216	0x3bac2861	0.005253837
217	0x3c9da16b	0.01924201
218	0x3cadbcdf	0.021208225
219	0xbd2d635f	-0.042331096
220	0x3bae241c	0.005314363
221	0x3ccb9e9b	0.024855902
222	0xbca39fe5	-0.019973705
223	0xbd199ae7	-0.037501242
224	0xbccd9caf	-0.025099127
225	0x3b50c41a	0.0031855167
226	0x3bfab1e7	0.007650602
227	0xbd496530	-0.049168766
228	0x3b107836	0.0022044308
229	0xbcf3da61	-0.029767217
230	0xbc33d30e	-0.010975612
231	0xbd2bddb1	-0.04195947
232	0xbceec6da	-0.029147554
233	0xbce7ee74	-0.028311945
234	0xbac21784	-0.0014808034
235	0xbb65d184	-0.0035067508
236	0x3c8598fc	0.0163083
237	0xbc1b552a	-0.009480754
238	0xbc1cf250	-0.009579256
239	0x3c979d17	0.018507523
240	0xbbbb2f7a	-0.0057124468
241	0x3ce0c177	0.027436001
242	0xbca816ca	-0.02051868
243	0xbc9126b9	-0.01771866
244	0xbd10a22e	-0.035310917
245	0xbd38b913	-0.045098376
246	0xbbaf6618	-0.0053527467
247	0x3d26529d	0.04060613
248	0xbd4d228c	-0.050081775
249	0xbd50bdfc	-0.050962433
250	0xbb96d3a3	-0.004602866
251	0xbd1f7f20	-0.038939595
252	0x3cb8a0d5	0.022537628
253	0xbd0a51fc	-0.033769593
254	0xbd847f5b	-0.06469604
255	0xbd305c5e	-0.04305684

action_model._continuous_distribution.mu.bias f4 [2]
0	0x3cd90998	0.026493832
1	0xbcb899a9	-0.022534208

action_model._discrete_distribution.branches.0.weight f4 [2, 128]
0	0xbc904988	-0.017613187
1	0xbc96c3dc	-0.01840394
2	0x3b57a5ad	0.0032905147
3	0xbcb8c3fa	-0.022554386
4	0x3bcad38a	0.006189768
5	0xbc1ee0a6	-0.009697115
6	0x3c512f75	0.012767662
7	0xbba4713d	-0.005018382
8	0x3c4df2d2	0.0125701
9	0x3cce1747	0.025157584
10	0xbcbc69dc	-0.022999696
11	0xbc135332	-0.008992003
12	0x3c7bc327	0.015366352
13	0x3c146406	0.009057051
14	0x3c570adb	0.013125147
15	0x3c5fb84e	0.0136547815
16	0xbbc72a99	-0.006078076
17	0x3cb8d350	0.0225617
18	0x3bfc287a	0.007695255
19	0x3c8e1c95	0.017347613
20	0x3c4f9927	0.012670792
21	0xbcb1ee84	-0.021720178
22	0xbabbb4b7	-0.0014320825
23	0xba928c0f	-0.0011180657
24	0x3c8c488d	0.017124439
25	0xbbcad7ad	-0.0061902613
26	0x3c365c20	0.011130363
27	0xbc6f0043	-0.014587465
28	0x3bce1377	0.0062889415
29	0xbb16b771	-0.0022997523
30	0xbadea418	-0.001698616
31	0x3ca37b90	0.01995638
32	0xbbb76b6d	-0.005597523
33	0x3c6a72c3	0.014309588
34	0x3aa38288	0.0012474814
35	0xbb4c8aa8	-0.0031210575
36	0xbc100ff4	-0.008792866
37	0x3c630d88	0.013858207
38	0x3cc96f20	0.024589121
39	0xb9555ad4	-0.00020347099
40	0x3cdf726d	0.027276242
41	0x3c1a797d	0.009428379
42	0x3bd2acd1	0.0064292927
43	0x3b9dc176	0.004814322
44	0xbaa6bd05	-0.0012721127
45	0x3b5e3312	0.0033904952
46	0xbc3ff6b1	-0.011716531
47	0xbc8c0b55	-0.017095247
48	0x3c5299c2	0.0128540415
49	0x3c95574c	0.018230103
50	0x3c2f4eb7	0.010699919
51	0xbc058332	-0.008148955
52	0x3cf58045	0.02996839
53	0xbb5b4498	-0.0033457633
54	0x3d15be52	0.036558457
55	0x3aa45f5d	0.0012540628
56	0x3ca01640	0.01954186
57	0x3c6391cb	0.01388974
58	0xbce540f5	-0.027985075
59	0xbb57feae	-0.0032958197
60	0x3b009d8b	0.0019625153
61	0xbcb739f3	-0.0223665
62	0xbc89ed4a	-0.016836781
63	0x3996a4c2	0.00028732984
64	0xbc92b4cd	-0.017908478
65	0x3ca42dcf	0.020041374
66	0x3bf63a6a	0.0075142877
67	0xbcfe72e3	-0.031060642
68	0xbca72fd6	-0.020408552
69	0xbd00da23	-0.03145803
70	0xbca8c20c	-0.020600341
71	0x3c11f5a4	0.008908663
72	0xbc91353a	-0.017725576
73	0xbc291b2c	-0.01032142
74	0x3c820ee5	0.015876243
75	0xbd026551	-0.031834904
76	0x3cd3845e	0.025819954
77	0xbc791757	-0.015203319
78	0xbd1f075d	-0.03882538
79	0xbb93335c	-0.0044922065
80	0xbc2e1be6	-0.010626769
81	0x39ee67fc	0.00045472372
82	0x3d49ee7b	0.0492997
83	0xba37bca4	-0.00070090056
84	0x3c41bf30	0.011825368
85	0x3c8b1e29	0.016982155
86	0x3bd9d0d1	0.0066472073
87	0x3bbf47d3	0.0058374195
88	0xbcc55f02	-0.024093155
89	0xbb9fafcf	-0.004873253
90	0xbb425e62	-0.0029658307
91	0xbba1982e	-0.0049314713
92	0x3ce3a3b6	0.027788024
93	0xbbf39bd2	-0.0074343467
94	0x3bce9b1e	0.0063051125
95	0x3cb06ee7	0.021537257
96	0xbbc747cd	-0.0060815574
97	0xbbaece4b	-0.0053346506
98	0x3c0e58b1	0.008688138
99	0x3c3d8354	0.011566956
100	0x3c64864b	0.013948034
101	0xbc2e1174	-0.010624278
102	0x3bac9074	0.0052662436
103	0xbc626f96	-0.0138205495
104	0x3d1da0e2	0.038483508
105	0x3b2c6a8d	0.0026308626
106	0x3b52f601	0.0032190087
107	0x3b998111	0.0046845754
108	0xbc176593	-0.009240526
109	0xbac779ad	-0.0015218757
110	0xbd2a152b	-0.041524094
111	0xbab0f49d	-0.0013500635
112	0x3ca69df4	0.02033899
113	0x3b5b94f7	0.0033505538
114	0x3c14283a	0.009042794
115	0xbbcff41f	-0.00634624
116	0x3c8e1d26	0.017347883
117	0x3c1f6bd7	0.009730301
118	0x3c710174	0.014709819
119	0xbd41f290	-0.047350466
120	0x3bf39762	0.0074338177
121	0x3bf0c9b0	0.007348262
122	0x3cbce85a	0.023060013
123	0x39c65ff0	0.00037836982
124	0xbc9a2025	-0.018814156
125	0x3b356bd2	0.0027682674
126	0x3ce593d8	0.028024599
127	0xbc4651ee	-0.0121044945
128	0x3c8d485c	0.017246418
129	0x3d17201d	0.03689586
130	0xbb143de0	-0.0022619888
131	0x3c8d63be	0.017259475
132	0x3ca63d8b	0.020293018
133	0x3bd35e82	0.006450475
134	0xbc23c599	-0.009995841
135	0xbc8d156e	-0.017222133
136	0xbb64fab4	-0.003493947
137	0xbcddb47a	-0.027063597
138	0x3cba1808	0.022716537
139	0xba964d27	-0.0011467085
140	0xbc950506	-0.018190872
141	0xbb8ce38e	-0.0042995876
142	0xbd09e33d	-0.033663977
143	0xbc7dd654	-0.015492994
144	0x3c136d7f	0.008998274
145	0xbca06779	-0.01958059
146	0xbc5777b6	-0.0131511
147	0xbc8bf427	-0.017084194
148	0x3b34b965	0.0027576324
149	0x3c1c6966	0.009546613
150	0xbc99c664	-0.018771358
151	0x3940aa8c	0.0001837408
152	0x3a6aeee4	0.0008961989
153	0xbc2931f0	-0.010326847
154	0xbc78af7f	-0.01517856
155	0x3bbc5516	0.0057474477
156	0xbbdcf9c4	-0.0067436416
157	0x3c3d6be1	0.011561365
158	0x3bc28865	0.0059366697
159	0xbd0068b4	-0.031349853
160	0x3c9bb3db	0.01900666
161	0xbd0ba876	-0.034096204
162	0xbc28a419	-0.01029303
163	0xbc490e44	-0.012271468
164	0x3b997536	0.004683162
165	0xbc391abf	-0.011297881
166	0xbbd89431	-0.0066094627
167	0x3c0dec80	0.008662343
168	0xbc847f66	-0.01617403
169	0xbb8c6c24	-0.0042853523
170	0xbce1b22b	-0.027550777
171	0x3b8d632d	0.004314801
172	0x3bab14b8	0.0052209757
173	0xbc2f9e0f	-0.010718836
174	0xbb8cdfd8	-0.004299145
175	0x3c27356a	0.010205606
176	0xbb8fbf4c	-0.004386818
177	0xbceceee9	-0.028922515
178	0xbb2511b8	-0.0025187563
179	0xbc828749	-0.01593365
180	0xbcf4e25e	-0.029893097
181	0xbc9032e7	-0.017602397
182	0xbc814afd	-0.015782828
183	0x3bfa88d4	0.0076457057
184	0xbd05febd	-0.03271364
185	0xbcc3833a	-0.023866285
186	0x3d014111	0.031556193
187	0x3b9737c8	0.004614804
188	0x3bb8d7d7	0.0056409645
189	0x3c336696	0.010949751
190	0x3bcea378	0.006306108
191	0xbbe17ec5	-0.006881567
192	0x3bf48bf9	0.007462975
193	0xbcde1baa	-0.0271128
194	0x3b48ddb8	0.0030649733
195	0x3c970599	0.018435286
196	0x3c86509c	0.01639586
197	0x3d0821c8	0.03323534
198	0x3d32a449	0.043613706
199	0xbd196793	-0.03745229
200	0x3d031ce8	0.03200999
201	0x3c92a141	0.017899157
202	0xbc5e563f	-0.013570367
203	0x3d0eea4d	0.034891415
204	0xbd0a2586	-0.03372719
205	0x3b7b2a0a	0.0038324618
206	0x3d0d8797	0.034553137
207	0x3a083fdd	0.00051975047
208	0x3a67cad3	0.0008842174
209	0x3c448b58	0.011996113
210	0xbcf89d0c	-0.030348323
211	0xba14a5c1	-0.0005670451
212	0xbb866d12	-0.0041023577
213	0xbc476a89	-0.012171396
214	0xbb787a10	-0.0037914552
215	0x3baf6aa1	0.0053532873
216	0x3b8aa0f4	0.004230613
217	0x3c014f3b	0.007892425
218	0x3ba6a34a	0.0050853835
219	0x3cadf2a5	0.021233866
220	0xbc0d21fc	-0.00861406
221	0x3cea7b5a	0.028623272
222	0xbc95f00d	-0.018302942
223	0xbbfc9581	-0.007708252
224	0x3c2f205a	0.010688866
225	0x3c7d7252	0.015469151
226	0xbcad008a	-0.021118421
227	0xbc01f151	-0.0079310695
228	0xbccbfe0a	-0.024901409
229	0xbca84397	-0.020540042
230	0xbc4bf022	-0.012447389
231	0x3b2d3706	0.0026430502
232	0xbcb87a49	-0.022519248
233	0x3b8c5a25	0.004283207
234	0xbbe466ab	-0.006970247
235	0xbaec079a	-0.0018007637
236	0xbbb2c04f	-0.005455054
237	0xbc7f9f32	-0.01560192
238	0x3d454523	0.048161637
239	0x3c9b4f07	0.018958582
240	0x3c27d737	0.010244182
241	0x3bb053b1	0.0053810705
242	0xbcbaadc1	-0.02278793
243	0x3badeba2	0.0053076306
244	0xbbddd383	-0.006769599
245	0xbc8d6f44	-0.01726497
246	0xbc0d0bfb	-0.008608813
247	0x3cef2c72	0.029195998
248	0x3b25e03d	0.0025310658
249	0x3b29f67b	0.0025934267
250	0xbbcf3245	-0.0063231313
251	0x3c10e774	0.008844245
252	0x3c3d638a	0.0115593765
253	0x3ba76113	0.0051080077
254	0xbcd76f56	-0.026298206
255	0x3d0c7618	0.03429231

action_model._discrete_distribution.branches.0.bias f4 [2]
0	0xbc1c4beb	-0.009539585
1	0x3c1c498b	0.009539018

exp_avg f4 [128, 24]
0	0xb398dbdc	-7.118044e-08
1	0xb4b42691	-3.3555673e-07
2	0xb3c5bd17	-9.2079226e-08
3	0x2d1c5f8b	8.888788e-12
4	0x2f17dbcb	1.3811456e-10
5	0xae33d0c5	-4.0885312e-11
6	0xb350f668	-4.865288e-08
7	0xaf984352	-2.7696473e-10
8	0xb325b3bb	-3.858052e-08
9	0x2de0d8ed	2.5562186e-11
10	0x2f8c829d	2.5558658e-10
11	0xaf8c8293	-2.555863e-10
12	0xb3987ad1	-7.100392e-08
13	0xb4b432cd	-3.3564575e-07
14	0xb3c770ad	-9.287155e-08
15	0x2d1c5f8b	8.888788e-12
16	0x2f17dbcb	1.3811456e-10
17	0xae33d0c5	-4.0885312e-11
18	0xb22cfd21	-1.00692725e-08
19	0xb2d0fb2f	-2.4328612e-08
20	0xb33edf6d	-4.4441027e-08
21	0x2de0e342	2.5566774e-11
22	0x2f8c891e	2.556328e-10
23	0xaf8c8901	-2.55632e-10
24	0xba7fb3fa	-0.00097542966
25	0x39e1ffea	0.00043106015
26	0xbade5343	-0.001696207
27	0x36082460	2.0286752e-06
28	0x3804361d	3.152165e-05
29	0xb71c8d24	-9.331186e-06
30	0x39505781	0.00019869024
31	0x39c5d417	0.00037732787
32	0x39f9cfcb	0.000476478
33	0x36986218	4.5413726e-06
34	0x383e7a9e	4.5413726e-05
35	0xb83e7a9e	-4.5413726e-05
36	0xba7f9e5a	-0.0009751074
37	0x39d519dd	0.00040645796
38	0xbadf813f	-0.0017052068
39	0x36082460	2.0286752e-06
40	0x3804361d	3.152165e-05
41	0xb71c8d24	-9.331186e-06
42	0x394571f3	0.00018829833
43	0x39b5b538	0.0003465803
44	0x39f273f3	0.00046244226
45	0x36986218	4.5413726e-06
46	0x383e7a9e	4.5413726e-05
47	0xb83e7a9e	-4.5413726e-05
48	0xbb0c6934	-0.002142501
49	0x3ac9fc60	0.0015410297
50	0xbbc7c14e	-0.0060960418
51	0x3713117a	8.765952e-06
52	0x390ed275	0.00013620577
53	0xb8291d8e	-4.0320265e-05
54	0x3ae553ea	0.0017496322
55	0x3b1166eb	0.0022186588
56	0x3adcc16c	0.0016842312
57	0x37a49cda	1.9623363e-05
58	0x394dc410	0.00019623362
59	0xb94dc410	-0.00019623362
60	0xbb0ca5e9	-0.0021461195
61	0x3abb7bc2	0.001430385
62	0xbbc8aeb6	-0.006124343
63	0x3713117a	8.765952e-06
64	0x390ed275	0.00013620577
65	0xb8291d8e	-4.0320265e-05
66	0x3adacb07	0.0016692587
67	0x3b0d0828	0.0021519754
68	0x3ad2ba42	0.0016077238
69	0x37a49cda	1.9623363e-05
70	0x394dc410	0.00019623362
71	0xb94dc410	-0.00019623362
72	0x3b40b577	0.0029405036
73	0x398b1202	0.00026525563
74	0x39c7e916	0.000381299
75	0x3622a1a5	2.423397e-06
76	0x381def98	3.7654856e-05
77	0xb73b02ff	-1.1146766e-05
78	0x3aaf1048	0.0013356293
79	0x3acc8b10	0.0015605409
80	0x3940f795	0.00018402778
81	0x36b6085e	5.4249967e-06
82	0x38638a77	5.4249973e-05
83	0xb8638a77	-5.4249973e-05
84	0x3b406df4	0.0029362412
85	0x3977aeba	0.00023620846
86	0x39c8b5bf	0.00038282384
87	0x3622a1a5	2.423397e-06
88	0x381def98	3.7654856e-05
89	0xb73b02ff	-1.1146766e-05
90	0x3aac24f9	0.0013133577
91	0x3ad24c4e	0.0016044469
92	0x392d7db3	0.00016545392
93	0x36b6085e	5.4249967e-06
94	0x38638a77	5.4249973e-05
95	0xb8638a77	-5.4249973e-05
96	0x3aeffc3c	0.0018309425
97	0x3929461e	0.00016143217
98	0x399a85eb	0.00029472946
99	0x35c37dc0	1.456523e-06
100	0x37bdd8d1	2.2631519e-05
101	0xb6e0cc2c	-6.699489e-06
102	0x3a61e2a4	0.0008616841
103	0x3a8047d8	0.0009787036
104	0x38859285	6.3692256e-05
105	0x365acff9	3.2605587e-06
106	0x3808c1fc	3.260559e-05
107	0xb808c1fc	-3.260559e-05
108	0x3aef975f	0.0018279365
109	0x39163f29	0.00014328644
110	0x399b1b57	0.00029584274
111	0x35c37dc0	1.456523e-06
112	0x37bdd8d1	2.2631519e-05
113	0xb6e0cc2c	-6.699489e-06
114	0x3a5d90bd	0.00084520486
115	0x3a83f00d	0.0010066048
116	0x3850f2bf	4.981714e-05
117	0x365acff9	3.2605587e-06
118	0x3808c1fc	3.260559e-05
119	0xb808c1fc	-3.260559e-05
120	0x35fbeccf	1.8769878e-06
121	0xb564df66	-8.5261706e-07
122	0x361438b2	2.208672e-06
123	0xb111c4c5	-2.1212128e-09
124	0xb30d8f5a	-3.29595e-08
125	0x32279ef4	9.756821e-09
126	0x347975f4	2.3232843e-07
127	0xb4972e6d	-2.815972e-07
128	0xb4b233b8	-3.3192714e-07
129	0xb1a3286b	-4.7485194e-09
130	0xb34bf288	-4.74852e-08
131	0x334bf288	4.74852e-08
132	0x35fc2fb0	1.8789342e-06
133	0xb55ca23f	-8.2192486e-07
134	0x3615a790	2.2300264e-06
135	0xb111c4c5	-2.1212128e-09
136	0xb30d8f5a	-3.29595e-08
137	0x32279ef4	9.756821e-09
138	0x3605d7f8	1.9944255e-06
139	0xb450a68c	-1.9432099e-07
140	0xb4928f1d	-2.7298748e-07
141	0xb1a3286b	-4.7485194e-09
142	0xb34bf288	-4.74852e-08
143	0x334bf288	4.74852e-08
144	0xbadef2b1	-0.0017009584
145	0x3a01ea97	0.0004955916
146	0xbb185202	-0.002324224
147	0x3621b708	2.4097408e-06
148	0x381d0bbf	3.7442656e-05
149	0xb739f537	-1.1083953e-05
150	0x39873129	0.00025785834
151	0x399c0a82	0.00029762468
152	0x3a0b4889	0.0005313238
153	0x36b501b1	5.3944173e-06
154	0x3862421d	5.394417e-05
155	0xb862421d	-5.394417e-05
156	0xbadeebdc	-0.0017007547
157	0x39f38201	0.00046445432
158	0xbb192343	-0.0023366965
159	0x3621b708	2.4097408e-06
160	0x381d0bbf	3.7442656e-05
161	0xb739f537	-1.1083953e-05
162	0x3972d7af	0.00023159267
163	0x3984b662	0.00025312888
164	0x3a0362bf	0.0005011968
165	0x36b501b1	5.3944173e-06
166	0x3862421d	5.394417e-05
167	0xb862421d	-5.394417e-05
168	0xb5cd2cc8	-1.5286723e-06
169	0x34728687	2.2586947e-07
170	0xb60f1b95	-2.1324715e-06
171	0x31127528	2.1312392e-09
172	0x330e3aa5	3.311529e-08
173	0xb22869ce	-9.802944e-09
174	0x32c21ae6	2.2596804e-08
175	0x337df3b7	5.912781e-08
176	0x34ce8a24	3.8471e-07
177	0x31a3edda	4.770965e-09
178	0x334ce957	4.7709673e-08
179	0xb34ce957	-4.7709673e-08
180	0xb5cc9e6e	-1.5245294e-06
181	0x3450ef40	1.9458548e-07
182	0xb60f4c7d	-2.1353183e-06
183	0x31127528	2.1312392e-09
184	0x330e3aa5	3.311529e-08
185	0xb22869ce	-9.802944e-09
186	0x35e57bac	1.7097823e-06
187	0x3319cf61	3.58117e-08
188	0x34ce4fcd	3.8428553e-07
189	0x31a3edda	4.770965e-09
190	0x334ce957	4.7709673e-08
191	0xb34ce957	-4.7709673e-08
192	0x3abb1cfc	0.0014275606
193	0x38f9cbb0	0.00011911185
194	0x394e37bd	0.00019666455
195	0x359b9f26	1.1594718e-06
196	0x379720e9	1.8015928e-05
197	0xb6b2f37e	-5.3331596e-06
198	0x3a22ecde	0.00062151055
199	0x3a3dcf12	0.0007240634
200	0x38e4de37	0.00010913278
201	0x362e2fce	2.5955846e-06
202	0x37d9bbc1	2.5955846e-05
203	0xb7d9bbc1	-2.5955846e-05
204	0x3abadf08	0.0014257142
205	0x38dd781d	0.00010560474
206	0x394ef408	0.000197366
207	0x359b9f26	1.1594718e-06
208	0x379720e9	1.8015928e-05
209	0xb6b2f37e	-5.3331596e-06
210	0x3a212d7e	0.00061484415
211	0x3a43247e	0.00074440974
212	0x38d2e0cc	0.00010055452
213	0x362e2fce	2.5955846e-06
214	0x37d9bbc1	2.5955846e-05
215	0xb7d9bbc1	-2.5955846e-05
216	0xbaeb56ff	-0.0017955004
217	0x3a0946e2	0.00052366976
218	0xbb1d588c	-0.0024009077
219	0x3625f5ee	2.4730066e-06
220	0x38212b46	3.8425693e-05
221	0xb73ed70d	-1.1374953e-05
222	0x398074aa	0.00024500984
223	0x39b600e9	0.00034714423
224	0x3a18e25c	0.000583207
225	0x36b9c244	5.536045e-06
226	0x386832d5	5.536045e-05
227	0xb86832d5	-5.536045e-05
228	0xbaeb7037	-0.001796252
229	0x3a0123ca	0.00049262925
230	0xbb1e2629	-0.0024131632
231	0x3625f5ee	2.4730066e-06
232	0x38212b46	3.8425693e-05
233	0xb73ed70d	-1.1374953e-05
234	0x396a30ed	0.00022334205
235	0x399c6325	0.00029828507
236	0x3a11fed6	0.00055692845
237	0x36b9c244	5.536045e-06
238	0x386832d5	5.536045e-05
239	0xb86832d5	-5.536045e-05
240	0xbb448314	-0.0029985355
241	0x3a6814bf	0.0008853189
242	0xbb8348b8	-0.0040064715
243	0x368a3282	4.1186004e-06
244	0x3886350e	6.3995e-05
245	0xb79eea26	-1.8944102e-05
246	0x39d322a4	0.00040270865
247	0x3a238bc3	0.00062387827
248	0x3a7efa1f	0.0009726602
249	0x371aaef5	9.219851e-06
250	0x38c15ab3	9.219851e-05
251	0xb8c15ab3	-9.219851e-05
252	0xbb449d1b	-0.0030000869
253	0x3a5a8120	0.0008335281
254	0xbb83f46b	-0.0040269396
255	0x368a3282	4.1186004e-06

exp_avg_sq f4 [128, 24]
0	0x3ac48bef	0.0014995317
1	0x3e0c8ca6	0.13725528
2	0x3ad36b61	0.0016130024
3	0x31aad471	4.971803e-09
4	0x35a11ba0	1.2003475e-06
5	0x33e1e32f	1.05187034e-07
6	0x3a98e99b	0.00116663
7	0x3aa87c36	0.00128544
8	0x3ad82ec7	0.0016493433
9	0x32d3525b	2.4601084e-08
10	0x36251807	2.4600902e-06
11	0x362515a9	2.4599524e-06
12	0x3ac4ef19	0.001502487
13	0x3e0c08dd	0.13675256
14	0x3ad46cb7	0.0016206716
15	0x31aad471	4.971803e-09
16	0x35a11ba0	1.2003475e-06
17	0x33e1e32f	1.05187034e-07
18	0x3a8a060f	0.001053037
19	0x39da6e5e	0.0004166243
20	0x3ad04c4f	0.0015891882
21	0x32d36b92	2.461255e-08
22	0x36252bc1	2.4612384e-06
23	0x36252955	2.4610974e-06
24	0x3cd04b72	0.0254266
25	0x3e434cb5	0.1907223
26	0x3d09d6ef	0.033652242
27	0x33e5d9de	1.0703273e-07
28	0x37d8c508	2.5840956e-05
29	0x3617f713	2.264457e-06
30	0x3d0571aa	0.0325791
31	0x3c8d7c59	0.017271208
32	0x3c9d1e63	0.019179529
33	0x350fda94	5.3589724e-07
34	0x3860c54c	5.358951e-05
35	0x3860c4b6	5.3588963e-05
36	0x3cd052c7	0.025430096
37	0x3e413ed0	0.18871617
38	0x3d0a8b2c	0.03382413
39	0x33e5d673	1.07026516e-07
40	0x37d8c1ea	2.5839505e-05
41	0x3617f4e3	2.2643296e-06
42	0x3be187f3	0.0068826615
43	0x3c81af05	0.015830526
44	0x3c9e166a	0.019297797
45	0x350fdbdd	5.3591594e-07
46	0x3860c772	5.359151e-05
47	0x3860c6d8	5.359095e-05
48	0x3df6079f	0.12013172
49	0x3f16be41	0.58884054
50	0x3e97501a	0.295533
51	0x3512b518	5.4652764e-07
52	0x390a5bbc	0.0001319488
53	0x3741fd91	1.15627345e-05
54	0x3e3ba0f6	0.1832312
55	0x3db68f07	0.08913999
56	0x3d8c4cb3	0.06850567
57	0x3637aae1	2.736859e-06
58	0x398f7d94	0.00027368648
59	0x398f7d92	0.00027368643
60	0x3df56b50	0.11983359
61	0x3f14e918	0.5816817
62	0x3e970940	0.29499245
63	0x3512b3ae	5.4650707e-07
64	0x390a5a61	0.00013194374
65	0x3741fb9b	1.1562278e-05
66	0x3dde6b7e	0.10860346
67	0x3dbc24c5	0.09186701
68	0x3dcc4755	0.09974543
69	0x3637ac47	2.7369404e-06
70	0x398f7eaa	0.00027369458
71	0x398f7ea7	0.0002736945
72	0x3e0d2198	0.13782346
73	0x3f678ac7	0.9044613
74	0x3eda25e9	0.42607048
75	0x354f825d	7.730321e-07
76	0x3943b308	0.00018663344
77	0x378931c0	1.635484e-05
78	0x3e609541	0.21931936
79	0x3e053d31	0.13011624
80	0x3db8d2aa	0.09024556
81	0x3681e862	3.8715525e-06
82	0x39cafb05	0.00038715467
83	0x39cafb05	0.00038715467
84	0x3e0cb402	0.13740543
85	0x3f64aa94	0.8932278
86	0x3ed9db5a	0.42550164
87	0x354f7e64	7.729743e-07
88	0x3943af56	0.00018661967
89	0x37892f2a	1.6353635e-05
90	0x3e1fc415	0.15602143
91	0x3e099428	0.13435423
92	0x3e0b47bb	0.13601582
93	0x3681e930	3.871646e-06
94	0x39cafc52	0.00038716436
95	0x39cafc52	0.00038716436
96	0x3cdff316	0.027337592
97	0x3e0c16de	0.13680598
98	0x3c35d5c9	0.011098334
99	0x33797797	5.8083597e-08
100	0x376b4526	1.4023191e-05
101	0x35a4ef4f	1.22886e-06
102	0x3d00c1b7	0.03143474
103	0x3c004afd	0.007830379
104	0x3c5163ea	0.012780169
105	0x349bee05	2.9044182e-07
106	0x37f3a3e2	2.9044171e-05
107	0x37f3a3e0	2.9044168e-05
108	0x3cdfbec9	0.027312653
109	0x3e0b0389	0.13575567
110	0x3c366e83	0.0111347465
111	0x33797797	5.8083597e-08
112	0x376b4526	1.4023191e-05
113	0x35a4ef4f	1.22886e-06
114	0x3b3de70c	0.0028976826
115	0x3bddb75e	0.006766244
116	0x3c547d4c	0.012969326
117	0x349bf1e2	2.9046993e-07
118	0x37f3a9da	2.904695e-05
119	0x37f3a9da	2.904695e-05
120	0x3b0e552a	0.0021718242
121	0x3b02c8ed	0.0019956187
122	0x3af4672c	0.001864647
123	0x312899f7	2.4534736e-09
124	0x351f018b	5.923436e-07
125	0x335ef0bc	5.190735e-08
126	0x3a4a6d46	0.00077219715
127	0x3a0eedf6	0.0005452329
128	0x3a43849d	0.00074584206
129	0x32533819	1.2294572e-08
130	0x35a50445	1.2294701e-06
131	0x35a4d77a	1.2281664e-06
132	0x3b0eac0a	0.0021770024
133	0x3b011a97	0.0019699687
134	0x3af4dbca	0.0018681225
135	0x312899f7	2.4534736e-09
136	0x351f018b	5.923436e-07
137	0x335ef0bc	5.190735e-08
138	0x3a5e54a5	0.0008481241
139	0x3a13d030	0.00056386273
140	0x3a47c011	0.00076198677
141	0x32533825	1.2294582e-08
142	0x35a50453	1.2294716e-06
143	0x35a4d657	1.2281333e-06
144	0x3cbabe03	0.022795683
145	0x3ba1b5bd	0.004934995
146	0x3d778540	0.06042981
147	0x33baea5b	8.703929e-08
148	0x37b04737	2.1013997e-05
149	0x35f72868	1.8414694e-06
150	0x3cdc0ade	0.02686065
151	0x3c646699	0.013940477
152	0x3a1e9ee0	0.0006050896
153	0x34ea2bf2	4.361787e-07
154	0x3836f256	4.3617874e-05
155	0x3836f25a	4.361789e-05
156	0x3cb9512d	0.022621715
157	0x3b9504b2	0.004547679
158	0x3d762ad0	0.060099423
159	0x33baea5b	8.703929e-08
160	0x37b04737	2.1013997e-05
161	0x35f72868	1.8414694e-06
162	0x3ce25b0a	0.027631301
163	0x3c9ee693	0.019397056
164	0x3c64ddd9	0.013968908
165	0x34ea2bf2	4.361787e-07
166	0x3836f256	4.3617874e-05
167	0x3836f25a	4.361789e-05
168	0x378ef077	1.7039694e-05
169	0x36c908bf	5.991285e-06
170	0x3770a4b2	1.4343461e-05
171	0x2d8daa15	1.6105376e-11
172	0x31859a22	3.8883323e-09
173	0x2fbb5275	3.407369e-10
174	0x337c65d8	5.876595e-08
175	0x3698cea1	4.554008e-06
176	0x34d3d0b8	3.9453676e-07
177	0x2eb178cd	8.0704866e-11
178	0x320aa7ff	8.070855e-09
179	0x3209a506	8.0119715e-09
180	0x378ef6e7	1.7042692e-05
181	0x36c1818a	5.7669286e-06
182	0x3771687d	1.43890475e-05
183	0x2d8daa15	1.6105376e-11
184	0x31859a22	3.8883323e-09
185	0x2fbb5275	3.407369e-10
186	0x36a4bfa1	4.9098894e-06
187	0x3696c11a	4.4928283e-06
188	0x34c765f5	3.7140822e-07
189	0x2eb178c9	8.070484e-11
190	0x320aa7ff	8.070855e-09
191	0x32099cc3	8.010093e-09
192	0x3d4716f2	0.048605867
193	0x3e89568d	0.26823846
194	0x3da3c56c	0.079966396
195	0x34524dbf	1.9586058e-07
196	0x384655db	4.7286838e-05
197	0x368b0abd	4.143773e-06
198	0x3d8715a9	0.06595928
199	0x3cf21315	0.029550115
200	0x3cf5eccd	0.030020142
201	0x3583a12d	9.807169e-07
202	0x38cdabef	9.807187e-05
203	0x38cdabe7	9.807181e-05
204	0x3d46c40f	0.04852682
205	0x3e87d633	0.2653061
206	0x3da3cc9d	0.07998011
207	0x34524986	1.9584522e-07
208	0x384651ca	4.728305e-05
209	0x368b07f1	4.1434473e-06
210	0x3cc83e88	0.02444388
211	0x3cf6b35e	0.030114826
212	0x3d1ca8cc	0.038246915
213	0x3583a255	9.807505e-07
214	0x38cdadac	9.807511e-05
215	0x38cdada7	9.807507e-05
216	0x3c36bdb3	0.011153626
217	0x3d3a29a4	0.045449868
218	0x3d5c0c98	0.053722948
219	0x33a30445	7.5910556e-08
220	0x3799bd41	1.832715e-05
221	0x35d78e59	1.6060177e-06
222	0x3ca2d7b1	0.01987824
223	0x3c3f4d42	0.011676135
224	0x3ba12f79	0.0049189893
225	0x34cc342f	3.803593e-07
226	0x381f88b3	3.8035865e-05
227	0x381f86e7	3.803419e-05
228	0x3c357b44	0.011076752
229	0x3d371f91	0.04470784
230	0x3d5b667e	0.05356454
231	0x33a30447	7.591057e-08
232	0x3799bd45	1.8327157e-05
233	0x35d78e64	1.6060189e-06
234	0x3c9b0db4	0.018927433
235	0x3c6e615a	0.014549578
236	0x3c594ec6	0.01326341
237	0x34cc3488	3.8036183e-07
238	0x381f88fd	3.8036134e-05
239	0x381f8719	3.8034374e-05
240	0x3b36b4aa	0.002787868
241	0x3b6a818b	0.003578278
242	0x3bb8999b	0.0056335456
243	0x31cf5532	6.0341785e-09
244	0x35c38896	1.4568384e-06
245	0x340913d8	1.2766338e-07
246	0x39c7aeac	0.00038086378
247	0x3b0999f5	0.0020996307
248	0x3a5ce664	0.0008426665
249	0x3301e009	3.0238912e-08
250	0x364aee24	3.0238962e-06
251	0x364aec54	3.0237907e-06
252	0x3b36b809	0.002788069
253	0x3b66ca51	0.0035215805
254	0x3bb98e0a	0.0056626843
255	0x31cf5532	6.0341785e-09
