AIRocketLanding/results/AIRocket1/AIRocket/AIRocket-499997.onnx (onnx, 83752 bytes, 9 tensors)

action_model._continuous_distribution.log_sigma f4 [1, 2]
0.14427102 0.09792826
00000000: c8bb 133e 9d8e c83d

action_model._continuous_distribution.mu.bias f4 [2]
0.014073821 -0.036025748
00000000: e295 663c bc8f 13bd

action_model._continuous_distribution.mu.weight f4 [2, 128]
-0.015037125 -0.00044488665 0.043452013 0.003737037 -0.010219076 -0.01661354 0.052985843 0.012156497
0.03835038 0.0069191484 0.01304002 -0.0028507893 0.053393044 0.025271434 0.033291776 -0.028508665
0.02494383 0.027008742 -0.020703485 0.037021436 0.04805325 0.038555034 0.024222026 0.0036866441
0.054449398 0.00038381453 0.015380217 -0.034475785 -0.014233509 0.00278739 -0.012809001 0.096355215
-0.0016646733 0.018882757 -0.0021297068 -0.0005750009 0.032054327 -0.012949392 -0.0034168372 -0.026467558
0.028613783 -0.0037350499 0.014547044 0.013589151 0.0037159198 -0.0012512512 0.034513563 0.009070323
0.031358488 0.038451683 0.058584616 0.01134337 0.03364908 0.03606578 0.045513313 0.0368169
0.029917687 0.031442918 -0.035250194 0.027387593 0.006440572 -0.020828815 0.00813651 0.011121102
-0.031363137 0.04953437 0.0022087626 -0.02711914 -0.0041238233 -0.0079218475 -0.021657206 -0.00043621953
0.0074097738 0.04820464 0.0022575615 -0.001716366 0.013464429 0.02895254 -0.015742078 0.045308895
0.014363463 0.004022779 -0.004168518 -0.010479084 0.004994539 0.0075447382 -0.0066534076 -0.012674764
-0.027714899 -0.0029732583 0.0008015057 0.036277305 0.010356574 -0.015255102 -0.009073455 0.048513748
0.012526154 -0.0014469548 0.025095621 0.026385525 -0.025662802 0.03973573 -0.007850033 0.021716481
0.0061132354 0.04429667 0.007911856 -0.0013881073 -0.02267247 -0.012912685 -0.036393143 0.025011476
0.0032181153 0.005237202 0.034427553 0.009626047 0.038642682 0.03380763 0.002976466 -0.0223871
0.032473724 0.046518877 -0.008997949 0.04838323 0.010754255 0.010359397 0.068788856 -0.022036599
-0.008775523 -0.0009211617 -0.012207064 -0.0096535375 -0.0036166625 -0.022962967 -0.050964925 -0.024416175
-0.039946325 -0.005665533 0.0067698266 -0.003843368 -0.04576798 -0.021329414 -0.032469746 -0.043590356
-0.043088403 -0.02618296 0.007902848 -0.023737887 -0.02381435 -0.0045753256 -0.06362802 -0.011854812
-0.05281959 0.03221962 -0.027808096 -0.018083848 -0.06324522 -0.0136566665 -0.022558246 -0.035519045
-0.012216233 -0.014249579 0.0050691594 -0.0050275438 -0.033771377 -0.020033227 -0.0057237823 -0.022784142
-0.033558287 -0.011521648 -0.04639652 -0.007254068 0.0007208886 -0.0010040471 -0.044336226 -0.0059340606
-0.0375898 0.024775963 -0.01615613 -0.02120011 -0.04877663 -0.018990956 -0.02842289 -0.02867205
0.012665755 -0.051425382 0.019053753 -0.02474478 -0.012000034 0.011655909 -0.012110401 -0.03421639
-0.015832681 -0.011666578 -0.009617098 -0.019113114 -0.034656763 0.022319848 0.023678364 -0.052124698
0.007110462 0.015440237 -0.014526303 -0.025947548 -0.020642487 -0.018571917 -0.027108043 -0.020843204
-0.012201711 0.01490486 -0.005980285 -0.028949492 -0.045535073 -0.03124753 -0.059232134 -0.003867718
0.005253837 0.01924201 0.00053859275 -0.03730312 0.0054950337 0.015182086 -0.02896918 -0.03470807
-0.04460162 0.0031855167 0.007650604 -0.050866496 0.002205662 -0.030187618 -0.010975612 -0.032663595
-0.01691752 -0.027596582 -0.002861977 -0.002106522 0.01238068 -0.017197333 -0.0122292405 -0.0077253133
-0.022724831 0.0019187147 -0.019105082 -0.017501993 -0.04113005 -0.046217464 -0.0069969315 0.020404069
-0.052905157 -0.051987275 -0.012457783 -0.04223411 -0.0009743193 -0.042236652 -0.06191155 -0.050520644
00000000: 465e 76bc ad3f e9b9 bdfa 313d 14e9 743b
00000010: e96d 27bc 1e19 88bc af07 593d 0b2c 473c
00000020: 4a15 1d3d 06ba e23b cfa5 553c 4fd4 3abb
00000030: aab2 5a3d 0a06 cf3c f55c 083d 018b e9bc
00000040: 0157 cc3c 7041 dd3c 5b9a a9bc caa3 173d
00000050: 7cd3 443d e2eb 1d3d 456d c63c a09b 713b
00000060: 5506 5f3d b73a c939 4efd 7b3c 7b36 0dbd
00000070: aa33 69bc a5ac 363b d8dc 51bc e255 c53d
00000080: 2b31 daba 03b0 9a3c 8d92 0bbb a8bb 16ba
00000090: 664b 033d b029 54bc 04ed 5fbb 7ed2 d8bc
000000a0: 7467 ea3c bdc7 74bb ba56 6e3c 08a5 5e3c
000000b0: ca86 733b 0601 a4ba 185e 0d3d b19b 143c
000000c0: c271 003d 837f 1d3d 6cf6 6f3d 8bd9 393c
000000d0: 9ed3 093d b6b9 133d 2b6c 3a3d 51cd 163d
000000e0: f015 f53c 4aca 003d 8262 10bd f25b e03c
000000f0: 6f0b d33b 31a1 aabc ff4e 053c 4835 363c
00000100: a276 00bd 8de4 4a3d e3c0 103b f528 debc
00000110: 2321 87bb a3ca 01bc 746a b1bc 65b4 e4b9
00000120: b0cd f23b 3b72 453d 99f3 133b b0f7 e0ba
00000130: e999 5c3c e12d ed3c 88f5 80bc d295 393d
00000140: bb54 6b3c 84d1 833b 1098 88bb 77b0 2bbc
00000150: 3ba9 a33b da39 f73b d404 dabb d0a9 4fbc
00000160: 5b0a e3bc ffda 42bb 231c 523a 8397 143d
00000170: 9fae 293c 89f0 79bc d4a8 14bc 5ab6 463d
00000180: 7f3a 4d3c bfa7 bdba 5595 cd3c 7526 d83c
00000190: cc3a d2bc efc1 223d 6d9d 00bc c3e6 b13c
000001a0: 8951 c83b 6d70 353d bba0 013c 27f1 b5ba
000001b0: 9ebb b9bc ba8f 53bc fa10 15bd dee4 cc3c
000001c0: 04e7 523b d69c ab3b e803 0d3d 91b6 1d3c
000001d0: ca47 1e3d df79 0a3d d010 433b 2765 b7bc
000001e0: 2b03 053d 948a 3e3d 226c 13bc 7e2d 463d
000001f0: 9d32 303c 76ba 293c 2ce1 8c3d 1986 b4bc
00000200: 36c7 0fbc 1e7a 71ba 2300 48bc df29 1ebc
00000210: 8705 6dbb d51c bcbc 99c0 50bd 6e04 c8bc
00000220: c29e 23bd efa5 b9bb 6cd5 dd3b 04e1 7bbb
00000230: 3577 3bbd 06bb aebc fffe 04bd cd8b 32bd
00000240: 777d 30bd a67d d6bc f27a 013c f575 c2bc
00000250: 5016 c3bc 9dec 95bb 684f 82bd af3a 42bc
00000260: 5b59 58bd b8f8 033d cecd e3bc 9424 94bc
00000270: b686 81bd 36c0 5fbc 12cc b8bc 6b7c 11bd
00000280: 9826 48bc 1177 69bc 311b a63b 18be a4bb
00000290: db53 0abd b91c a4bc 918e bbbb cfa5 babc
000002a0: 6a74 09bd 4bc5 3cbc 470a 3ebd 88b3 edbb
000002b0: 04fa 3c3a 3b9a 83ba e799 35bd 8272 c2bb
000002c0: c3f7 19bd f6f6 ca3c dc59 84bc daab adbc
000002d0: 01ca 47bd ec92 9bbc 1fd7 e8bc a6e1 eabc
000002e0: 0784 4f3c 6ca3 52bd 9e16 9c3c 91b5 cabc
000002f0: ca9b 44bc 6df8 3e3c b46a 46bc 7c26 0cbd
00000300: 8ab3 81bc 2d25 3fbc 0891 1dbc 1b93 9cbc
00000310: 40f4 0dbd 1dd8 b63c 21f9 c13c b580 55bd
00000320: e1fe e83b 0cf9 7c3c bbff 6dbc f48f d4bc
00000330: 6f1a a9bc 2224 98bc b011 debc 5ebf aabc
00000340: afe9 47bc 8433 743c 44f6 c3bb 7c27 edbc
00000350: fc82 3abd d2fa ffbc 659d 72bd 8a79 7dbb
00000360: 6128 ac3b 6ba1 9d3c 5930 0d3a 28cb 18bd
00000370: af0f b43b 49be 783c c650 edbc 0d2a 0ebd
00000380: 30b0 36bd 1ac4 503b ebb1 fa3b 6359 50bd
00000390: de8c 103b 064c f7bc 0ed3 33bc 43ca 05bd
000003a0: 9c96 8abc 3a12 e2bc 0290 3bbb 930d 0abb
000003b0: 56d8 4a3c 6ce1 8cbc 275d 48bc a024 fdbb
000003c0: 6d29 babc 627d fb3a 4382 9cbc 5760 8fbc
000003d0: fc77 28bd 864e 3dbd 8446 e5bb 6f26 a73c
000003e0: 14b3 58bd 9cf0 54bd bb1b 4cbc adfd 2cbd
000003f0: 7669 7fba 5700 2dbd f796 7dbd bcee 4ebd

action_model._discrete_distribution.branches.0.bias f4 [2]
-0.009719882 0.009719294
00000000: 2440 1fbc ac3d 1f3c

action_model._discrete_distribution.branches.0.weight f4 [2, 128]
-0.01770173 -0.01840394 0.0032905147 -0.022627143 0.006189768 -0.009697115 0.012688673 -0.005018382
0.012306674 0.025157584 -0.022998583 -0.008992003 0.015254939 0.009057051 0.013075967 0.013081801
-0.006583829 0.0225617 0.007502368 0.017347613 0.012669356 -0.021720178 -0.0016914705 -0.0011360211
0.016703382 -0.0061902613 0.011055077 -0.014917176 0.005517271 -0.0022997523 -0.001698616 0.019927548
-0.005597523 0.014309588 0.0012474814 -0.0031210575 -0.008802411 0.013858207 0.024581458 -0.0013633578
0.027174745 0.009129967 0.0061262227 0.0046084044 -0.0012721127 0.0033904826 -0.011716531 -0.017095247
0.012787303 0.018215612 0.010699691 -0.008367749 0.029880118 -0.0033457633 0.036531672 0.0012540628
0.01954186 0.013735287 -0.029783567 -0.0033572188 0.0019625153 -0.022361616 -0.017765569 -0.00015712
-0.018997796 0.019942887 0.007431 -0.031060642 -0.020539202 -0.03145764 -0.021828623 0.008808034
-0.017725576 -0.01032142 0.015867159 -0.03296154 0.025819954 -0.015203527 -0.03953971 -0.0045248712
-0.010626769 0.00045472372 0.0492997 -0.0016568258 0.011815714 0.016982155 0.005400575 0.0058374195
-0.024093155 -0.004873253 -0.0029687819 -0.004962682 0.027788024 -0.0076912735 0.0053665885 0.021371827
-0.006908271 -0.0053346506 0.008688138 0.011251801 0.013948034 -0.011175256 0.0052662436 -0.0138205495
0.038483508 0.0026308626 0.0026873183 0.0046845754 -0.009445635 -0.0015218757 -0.041589417 -0.0013500635
0.02033899 0.0033505538 0.0089496365 -0.006443588 0.016794851 0.009174675 0.014557204 -0.047551356
0.0073163845 0.0073445546 0.023060013 0.0003282843 -0.018956069 0.0025395204 0.027631717 -0.013524857
0.017334959 0.03689586 -0.0022619888 0.017332226 0.020293018 0.006450475 -0.009916854 -0.017222133
-0.0032305296 -0.027063597 0.022715412 -0.0011467085 -0.018079508 -0.0042995876 -0.033614825 -0.014920042
0.0095039485 -0.01958059 -0.012958247 -0.017084194 0.002759076 0.009546613 -0.018512059 0.00020169557
0.001317299 -0.010326847 -0.015103272 0.006077153 -0.0059720245 0.011561365 0.0059366697 -0.031321064
0.01900666 -0.034096204 -0.01029303 -0.012271468 0.004692716 -0.011297881 -0.006601788 0.009822103
-0.016072536 -0.0039869314 -0.027247777 0.0045207017 0.0052209757 -0.010718828 -0.004299143 0.010205606
-0.0043200697 -0.02890803 -0.0025185295 -0.01571488 -0.029804837 -0.017602397 -0.01575602 0.0076457057
-0.03271364 -0.023711864 0.033354487 0.004676188 0.0056409645 0.010944776 0.0072349138 -0.006437158
0.008552279 -0.027014323 0.003148259 0.018435286 0.016526505 0.03323495 0.04484186 -0.037351675
0.03200999 0.017899157 -0.013561263 0.03601798 -0.03372719 0.0038326757 0.03526744 0.00055242644
0.0008842174 0.011996113 -0.030348323 0.0003888385 -0.0040926994 -0.012171396 -0.0025448725 0.0053532873
0.004230613 0.007892425 0.0050883167 0.02126506 -0.00861406 0.028880121 -0.017364524 -0.0075428123
0.0115155 0.015469151 -0.021118421 -0.0076159355 -0.024901409 -0.019989133 -0.012447389 0.0026430502
-0.022519248 0.004283207 -0.0064385883 -0.0018007637 -0.005249944 -0.01560192 0.04822696 0.018958582
0.010244182 0.0053810705 -0.022694802 0.005404969 -0.006216545 -0.016709438 -0.008456214 0.029396873
0.002648494 0.002597125 -0.0063231313 0.008894317 0.011701252 0.00533674 -0.02590536 0.03571243
00000000: 3803 91bc dcc3 96bc ada5 573b 8f5c b9bc
00000010: 8ad3 ca3b a6e0 1ebc 27e4 4f3c 3d71 a4bb
00000020: efa1 493c 4717 ce3c 8667 bcbc 3253 13bc
00000030: daef 793c 0664 143c 953c 563c 0d55 563c
00000040: 29bd d7bb 50d3 b83c 6dd6 f53b 951c 8e3c
00000050: 2193 4f3c 84ee b1bc 55b4 ddba 8be6 94ba
00000060: 88d5 883c add7 cabb 5b20 353c 2c67 74bc
00000070: 39ca b43b 71b7 16bb 18a4 deba 193f a33c
00000080: 6d6b b7bb c372 6a3c 8882 a33a a88a 4cbb
00000090: fd37 10bc 880d 633c 0e5f c93c b2b2 b2ba
000000a0: 929d de3c db95 153c 7bbe c83b 1902 973b
000000b0: 05bd a6ba dc32 5e3b b1f6 3fbc 550b 8cbc
000000c0: d681 513c e838 953c c24d 2f3c e218 09bc
000000d0: 26c7 f43c 9844 5bbb 3ca2 153d 5d5f a43a
000000e0: 4016 a03c f809 613c abfc f3bc c904 5cbb
000000f0: 8b9d 003b b52f b7bc 1989 91bc 94c0 24b9
00000100: 44a1 9bbc 445f a33c bf7f f33b e372 febc
00000110: d441 a8bc bad9 00bd f1d1 b2bc 924f 103c
00000120: 3a35 91bc 2c1b 29bc d8fb 813c ae02 07bd
00000130: 5e84 d33c 3718 79bc 64f4 21bd 5f45 94bb
00000140: e61b 2ebc fc67 ee39 7bee 493d d929 d9ba
00000150: b296 413c 291e 8b3c 4ff7 b03b d347 bf3b
00000160: 025f c5bc cfaf 9fbb e58f 42bb fe9d a2bb
00000170: b6a3 e33c 1407 fcbb 35da af3b f813 af3c
00000180: c75e e2bb 4bce aebb b158 0e3c 7959 383c
00000190: 4b86 643c 6c18 37bc 7490 ac3b 966f 62bc
000001a0: e2a0 1d3d 8d6a 2c3b b81d 303b 1181 993b
000001b0: ddc1 1abc ad79 c7ba aa59 2abd 9df4 b0ba
000001c0: f49d a63c f794 5b3b 7fa1 123c bc24 d3bb
000001d0: 5b95 893c 6051 163c 5781 6e3c 36c5 42bd
000001e0: 48be ef3b 97aa f03b 5ae8 bc3c 931d ac39
000001f0: c249 9bbc 156e 263b e95b e23c 5d97 5dbc
00000200: 0b02 8e3c 1d20 173d e03d 14bb 50fc 8d3c
00000210: 8b3d a63c 825e d33b 4d7a 22bc 6e15 8dbc
00000220: 4bb7 53bb 7ab4 ddbc ac15 ba3c 274d 96ba
00000230: 7a1b 94bc 8ee3 8cbb b3af 09bd 3173 74bc
00000240: 73b6 1b3c 7967 a0bc d44e 54bc 27f4 8bbc
00000250: 9dd1 343b 6669 1c3c 9aa6 97bc 3e7e 5339
00000260: 38a9 ac3a f031 29bc b773 77bc db22 c73b
00000270: f9b0 c3bb e16b 3d3c 6588 c23b 844a 00bd
00000280: dbb3 9b3c 76a8 0bbd 19a4 28bc 440e 49bc
00000290: 5bc5 993b bf1a 39bc d053 d8bb e3ec 203c
000002a0: 8daa 83bc cea4 82bb bb36 dfbc 6522 943b
000002b0: b814 ab3b 069e 2fbc d3df 8cbb 6a35 273c
000002c0: 5f8f 8dbb 88d0 ecbc ea0d 25bb 7ebc 80bc
000002d0: 4629 f4bc e732 90bc c512 81bc d488 fa3b
000002e0: bdfe 05bd 623f c2bc b79e 083d b53a 993b
000002f0: d7d7 b83b b851 333c db12 ed3b ccee d2bb
00000300: dc1e 0c3c 244d ddbc 0553 4e3b 9905 973c
00000310: 9862 873c 5f21 083d 19ac 373d 12fe 18bd
00000320: e81c 033d 41a1 923c 0f30 5ebc 9787 133d
00000330: 8625 0abd a12d 7b3b 9774 103d b6d0 103a
00000340: d3ca 673a 588b 443c 0c9d f8bc 05dd cb39
00000350: 0d1c 86bb 896a 47bc e0c7 26bb a16a af3b
00000360: f4a0 8a3b 3b4f 013c e5bb a63b 1034 ae3c
00000370: fc21 0dbc 0196 ec3c 0c40 8ebc b229 f7bb
00000380: 82ab 3c3c 5272 7d3c 8a00 adbc 198f f9bb
00000390: 0afe cbbc 40c0 a3bc 22f0 4bbc 0637 2d3b
000003a0: 497a b8bc 255a 8c3b cbfa d2bb 9a07 ecba
000003b0: b907 acbb 329f 7fbc a289 453d 074f 9b3c
000003c0: 37d7 273c b153 b03b 73ea b9bc 2b1c b13b
000003d0: 29b4 cbbb 3be2 88bc ef8b 0abc b6d1 f03c
000003e0: 5b92 2d3b 8734 2a3b 4532 cfbb 78b9 113c
000003f0: 9cb6 3f3c d2df ae3b 7a37 d4bc 3247 123d

network_body._body_endoder.seq_layers.0.bias f4 [128]
0.039849013 -0.020718182 0.023508666 0.024621898 0.010027597 0.041799415 -0.00027225688 -0.012184876
-0.0050155614 -0.0057189562 0.034118317 0.0126620205 0.002218282 0.007747271 0.04193305 -0.005109009
-0.00026375346 -0.012705748 0.0062663597 0.011047256 -0.020361597 -0.03066522 0.0023489993 0.01764153
0.014515446 0.011905349 0.007027907 0.0046778102 0.0052562603 0.017448388 8.58789e-05 -0.0035588047
0.011162832 -0.018866954 0.006131818 -0.0041467967 -0.010877692 0.019956788 0.00054001814 0.01667935
-0.0008615116 0.020755336 0.014234504 0.0033003462 0.013525958 -0.012661104 -0.0074755168 -0.029698012
0.020942654 0.009728289 0.012667801 -0.0018433883 0.012039237 -0.012986579 0.0042894217 0.029439276
-0.019457132 -0.0028706968 -0.0070187645 0.01780873 0.0070870174 -0.005436084 0.019957379 -0.010476808
-0.010545626 0.027106207 0.033155873 0.016753009 0.01207996 -0.025709515 0.0013123672 -0.0070784176
-0.03770665 0.029554809 -0.007069846 -0.0141354175 0.018759156 -0.0066213743 -0.0036597499 0.013577846
-0.008803783 -0.0066834204 0.022490134 0.018121637 -0.018984176 -0.0047315434 0.031551022 0.016198847
-0.039111905 -0.010737177 -0.03257476 -0.019605897 -0.01057465 -0.010291171 -0.027188577 -0.0077872374
0.014952289 0.0020020506 -0.0125976 0.027181685 0.0074261995 -0.018781722 0.015469041 -0.02329738
0.037899088 0.01620644 0.021363541 -0.009897229 -0.017819779 -0.018469077 0.010264547 0.006117436
-0.0038823502 -0.025827114 0.0041825953 0.024284393 -0.00757589 0.015921798 -0.014552769 -0.0028507938
0.0035209933 -0.0155556705 0.012362521 -0.010623203 -0.02298173 -0.009156229 0.01426035 0.009576017
00000000: b838 233d 2db9 a9bc 3f95 c03c ddb3 c93c
00000010: ca4a 243c dd35 2b3d b3bd 8eb9 13a3 47bc
00000020: 9459 a4bb 1566 bbbb a6bf 0b3d 5d74 4f3c
00000030: 9960 113b d2dc fd3b fdc1 2b3d 7969 a7bb
00000040: 6448 8ab9 c52b 50bc 0956 cd3b 8dff 343c
00000050: 5dcd a6bc a135 fbbc abf1 193b f884 903c
00000060: 31d2 6d3c a70e 433c 5b4a e63b 5148 993b
00000070: b53c ac3b ecef 8e3c e219 b438 d63a 69bb
00000080: 50e4 363c df8e 9abc 6bed c83b dae1 87bb
00000090: 5938 32bc 6b7c a33c 0190 0d3a 22a3 883c
000000a0: 11d7 61ba 1807 aa3c d637 693c 9f4a 583b
000000b0: fb9b 5d3c 8570 4fbc 2ef5 f4bb 3f49 f3bc
000000c0: ee8f ab3c 6763 1f3c 9c8c 4f3c d99d f1ba
000000d0: 3840 453c a9c5 54bc 478e 8c3b a32a f13c
000000e0: 9064 9fbc 4d22 3cbb aafd e5bb 9de3 913c
000000f0: 363a e83b 2d21 b2bb a87d a33c eba6 2bbc
00000100: 90c7 2cbc d60d de3c 74ce 073d 9b3d 893c
00000110: 06eb 453c c39c d2bc bc03 ac3a 12f2 e7bb
00000120: 4a72 1abd ed1c f23c 2baa e7bb 3d98 67bc
00000130: cdac 993c 1df8 d8bb 6ad8 6fbb 9d75 5e3c
00000140: be3d 10bc 9800 dbbb 3b3d b83c d473 943c
00000150: b484 9bbc 100b 9bbb a53b 013d 72b3 843c
00000160: ce33 20bd fcea 2fbc 1d6d 05bd 8c9c a0bc
00000170: 4c41 2dbc 4d9c 28bc 94ba debc 152c ffbb
00000180: 72fa 743c d634 033b 2a66 4ebc 20ac de3c
00000190: 7a57 f33b 20dc 99bc dc71 7d3c 26da bebc
000001a0: 133c 1b3d 5ec3 843c 9802 af3c fd27 22bc
000001b0: c9fa 91bc 764c 97bc a12c 283c c674 c83b
000001c0: 076f 7ebb 6293 d3bc 270e 893b 10f0 c63c
000001d0: 2c3f f8bb 6e6e 823c bd6e 6ebc 62d4 3abb
000001e0: 77c0 663b 36dd 7ebc 2c8c 4a3c f10c 2ebc
000001f0: 2e44 bcbc 0204 16bc 3ea4 693c bae4 1c3c

network_body._body_endoder.seq_layers.0.weight f4 [128, 24]
-0.014711367 0.25140625 0.18651055 -0.09878947 0.033500787 -0.16358499 0.08884526 0.0036506087
0.07170969 0.47397456 0.033674467 -0.20429803 -0.21475856 -0.17123468 0.10869857 0.4996822
0.18438323 -0.21741214 -0.23428063 -0.1499131 0.022696575 -0.0065828525 0.056954116 0.23624189
0.020721054 0.024213417 -0.33116895 -0.26312125 -0.28291693 -0.18054402 -0.38174498 -0.008752598
0.18327785 -0.59171253 0.10206082 -0.43043277 -0.006252909 0.1531759 0.21866643 -0.27571583
-0.2756154 -0.11431478 -0.084159516 0.2737446 -0.3845761 -0.22851276 -0.37633836 -0.16100635
-0.080029555 0.06615029 -0.18498258 -0.07643379 0.061114002 0.57890975 0.07362017 0.15844782
0.21310936 -0.2477478 -0.18540403 0.13991176 0.018960835 0.17317559 0.4146171 -0.1401332
-0.1987995 0.07120015 0.24838477 0.0021687138 0.124367215 -0.013818224 -0.024141205 -0.08067351
0.22527884 0.11414062 -0.18490167 0.039624322 -0.087471545 -0.21093889 0.50551534 -0.0026797343
0.2301849 0.25979283 0.15226342 -0.013090093 0.08843732 0.27901003 0.33846766 -0.058739375
0.011779782 -0.15332966 -0.2353395 -0.07868713 -0.114976615 0.08498147 -0.66582173 -0.3267548
0.16181485 0.35437927 0.3013629 0.1304016 -0.2963475 0.11333973 0.13061759 0.034634404
-0.28382385 0.005816829 -0.47900435 -0.0069408375 0.23628944 -0.04284053 0.41017985 0.007082254
-0.09657087 -0.06936264 0.02079495 -0.24023405 -0.115997136 -0.08754385 0.31586137 0.13255996
-0.17863862 0.039359305 -0.061218467 -0.030616047 -0.1186521 0.08672358 -0.09512302 -0.13856904
-0.11459961 0.107276745 0.12075358 -0.1982471 -0.09656476 -0.058190215 0.4044983 0.12754479
0.028276717 -0.06300051 0.37347838 0.026017005 0.33583862 0.1432415 -0.09125038 0.08372638
0.15265211 -0.06497514 -0.238258 0.050341114 -0.37288362 0.0033449042 -0.14448817 0.17087859
-0.35603043 0.22012353 0.37259224 0.17984992 0.0577905 -0.095464766 -0.07521156 0.20445038
0.25076368 0.09676134 -0.15692869 -0.294284 -0.1948721 -0.0146332225 0.15921006 -0.010767753
0.027591418 0.00045139465 0.057059836 0.08779992 0.30007696 0.35832447 -0.21795051 0.17237118
-0.115815796 0.029730111 -0.105323106 -0.18861994 -0.22795986 -0.092288524 0.08663874 0.39929408
-0.011628722 -0.12823789 0.10190912 -0.14525454 -0.18491104 -0.1641808 0.053769175 -0.26166782
0.219107 -0.010891161 -0.004044589 -0.36007142 -0.04301925 0.25320473 -0.15191346 0.22841485
0.0030639796 -0.25313026 0.39417404 -0.06039212 0.31413385 0.15567815 0.024080925 -0.2860748
-0.060240358 0.1347589 -0.006281322 0.054831117 -0.16648565 0.47375625 0.076933295 -0.017258368
-0.08938286 -0.03868329 -0.4028551 -0.27679372 -0.023331044 0.4221687 0.10552252 0.088772304
-0.15325677 -0.3636931 -0.12286055 0.055953443 0.0024761315 0.04188169 0.028807964 0.37029007
-0.20139673 -0.09900408 -0.38024285 0.19410126 -0.25798693 -0.14088577 -0.014483125 0.10482134
-0.42326754 -0.0006196041 0.22874604 -0.23946798 0.06316683 0.025866589 -0.37768573 0.07144427
0.16632898 -0.5737872 -0.4142693 0.0059019355 -0.22003804 -0.019420467 0.27080518 -0.05334966
00000000: f207 71bc 52b8 803e 9ffc 3e3e 2252 cabd
00000010: 1f38 093d d382 27be 81f4 b53d 0d3f 6f3b
00000020: 88dc 923d cbac f23e 3dee 093d 8133 51be
00000030: abe9 5bbe 2558 2fbe 5b9d de3d 58d6 ff3e
00000040: f5ce 3c3e 4aa1 5ebe 43e7 6fbe d282 19be
00000050: 2bee b93c f8b4 d7bb b848 693d 65e9 713e
00000060: 33bf a93c 375b c63c fa8e a9be d4b7 86be
00000070: 7dda 90be 88e0 38be 1474 c3be 0f67 0fbc
00000080: 30ad 3b3e 797a 17bf 4305 d13d af61 dcbe
00000090: 34e5 ccbb 25da 1c3e 18ea 5f3e a02a 8dbe
000000a0: 761d 8dbe de1d eabd d35b acbd 4128 8c3e
000000b0: 29e7 c4be 40ff 69be 6caf c0be d9de 24be
000000c0: 89e6 a3bd ce79 873d 136c 3dbe 5289 9cbd
000000d0: ad52 7a3d 6e33 143f 2cc6 963d 2540 223e
000000e0: 5739 5a3e 99b1 7dbe 8eda 3dbe 0745 0f3e
000000f0: c153 9b3c f154 313e b148 d43e 147f 0fbe
00000100: 1992 4bbe 62d1 913d 9458 7e3e fb20 0e3b
00000110: 3db4 fe3d d565 62bc c7c3 c5bc 2738 a5bd
00000120: 7faf 663e 8fc2 e93d dd56 3dbe 1d4d 223d
00000130: 4824 b3bd 5d00 58be 7469 013f 7b9e 2fbb
00000140: 97b5 6b3e 9103 853e f1ea 1b3e d477 56bc
00000150: a01e b53d 67da 8e3e a24b ad3e b398 70bd
00000160: fdff 403c 7302 1dbe d6fc 70be b826 a1bd
00000170: dc78 ebbd c40a ae3d 4b73 2abf 684c a7be
00000180: cbb2 253e 3371 b53e 3d4c 9a3e ff87 053e
00000190: dcba 97be a91e e83d 9ec0 053e cedc 0d3d
000001a0: 5c51 91be 199b be3b 0f40 f5be f76f e3bb
000001b0: dcf5 713e 8d79 2fbd 1803 d23e 4112 e83b
000001c0: f3c6 c5bd 000e 8ebd 2c5a aa3c eaff 75be
000001d0: e88f edbd 314a b3bd 95b8 a13e ccbd 073e
000001e0: 0bed 36be 3937 213d 37c0 7abd 81ce fabc
000001f0: dfff f2bd 229c b13d dccf c2bd 0be5 0dbe
00000200: 33b3 eabd e9b3 db3d a74d f73d 4a01 4bbe
00000210: bfc3 c5bd dd58 6ebd 671a cf3e 1a9b 023e
00000220: 93a4 e73c 6906 81bd 8f38 bf3e 9d21 d53c
00000230: 0af3 ab3e e6ad 123e 7be1 babd bc78 ab3d
00000240: d650 1c3e b011 85bd e8f9 73be 7c32 4e3d
00000250: 9aea bebe 2e36 5b3b b5f4 13be ccfa 2e3e
00000260: 9f49 b6be 1068 613e 69c4 be3e 942a 383e
00000270: bbb5 6c3d 0883 c3bd 8508 9abd 715b 513e
00000280: 1964 803e cf2a c63d eab1 20be 64ac 96be
00000290: 8d8c 47be 2fc0 6fbc f607 233e 3b6b 30bc
000002a0: 6607 e23c 2aa9 ec39 93b7 693d 72d0 b33d
000002b0: b0a3 993e 4e76 b73e 6b2e 5fbe 1282 303e
000002c0: d530 edbd 908c f33c a4b3 d7bd 9625 41be
000002d0: 4f6e 69be c401 bdbd a76f b13d 4670 cc3e
000002e0: 6586 3ebc cb50 03be bbb5 d03d 9bbd 14be
000002f0: 5259 3dbe 031f 28be 113d 5c3d 53f9 85be
00000300: 965d 603e d770 32bc 7988 84bb 485b b8be
00000310: f434 30bd 0da4 813e 348f 1bbe 95e5 693e
00000320: 0ccd 483b 4a9a 81be 2ed1 c93e ba5d 77bd
00000330: 27d6 a03e 186a 1f3e 5c45 c53c 6578 92be
00000340: 98be 76bd 3dfe 093e 8cd3 cdbb 9896 603d
00000350: 377b 2abe 2e90 f23e 348f 9d3d 6c61 8dbc
00000360: 5c0e b7bd 5f72 1ebd 0643 cebe e8b7 8dbe
00000370: bf20 bfbc 7f26 d83e 311c d83d 41ce b53d
00000380: 58ef 1cbe fb35 babe 509e fbbd 702f 653d
00000390: 9846 223b 238c 2b3d aefe eb3c a996 bd3e
000003a0: f23a 4ebe a7c2 cabd 31af c2be 7bc2 463e
000003b0: dd16 84be 5c44 10be a14a 6dbc 92ac d63d
000003c0: 86b6 d8be ed6c 22ba 673c 6a3e 1837 75be
000003d0: 9c5d 813d 2be6 d33c 0660 c1be 6051 923d
000003e0: 2552 2a3e b8e3 12bf 1b1b d4be 0665 c13b
000003f0: a751 61be ac17 9fbc faa6 8a3e 2c85 5abd

network_body._body_endoder.seq_layers.2.bias f4 [128]
-0.013992629 -0.008187315 0.0038674367 -0.010464953 7.169942e-08 -0.015236563 0.01231115 0.0073442184
0.015796663 -0.007949656 -0.020194031 -0.016734064 0.01565846 -0.0061794934 0.013023193 0.02244843
0.009537251 0.014043935 -0.024373943 0.011002802 0.010291339 -0.004075484 0.03433434 -0.02156969
0.024323827 -0.010521441 -0.00021731328 -0.0015159165 0.034107354 -0.009802819 -0.012170071 0.01511957
-0.010478571 -0.007793755 -0.00072068966 -0.027935836 0.021243865 -0.0059964606 -0.019277146 0.013432881
0.021877535 -0.022353161 0.040405277 -0.012703395 -0.0057462007 -0.025378415 0.018279884 -0.010970541
0.014325124 0.008257196 8.088834e-05 0.0025132203 0.028805597 0.0105535835 0.0076062297 0.011697851
-0.0067345193 0.020802883 -0.0018749642 0.0046258676 -0.020147076 -0.009384206 -0.015113898 0.012372309
-0.013144262 0.0020291097 -0.025184184 -0.0052776295 0.026984835 -0.015006253 -0.0033810558 0.018132275
-0.022129785 -0.0072830603 0.0023147983 -0.009955554 -0.0071193725 -0.0043657986 0.008641644 0.004815998
1.3101897e-11 -0.01943216 -0.0134222265 -0.007988917 0.02305577 -0.004901558 0.031211304 -0.0063921385
-0.021128668 -1.1857775e-12 -0.015992828 0.008413127 -0.009037602 0.0054600057 0.0020788717 0.02809499
0.020572422 -0.012575417 -0.007256421 0.03092534 -0.010344665 0.024001338 -0.01550932 0.011405315
-0.01616018 0.020365145 -0.0118024945 -0.01885631 -0.017571127 -0.013627746 -0.00049614813 -0.0029077055
-0.0052419696 -0.011011052 0.015998831 0.014677119 0.02202584 0.011544779 -0.026829079 -0.0051340926
0.021612762 0.027214194 -0.009857708 0.03140665 -0.022633407 0.018927736 0.021030266 0.0036610144
00000000: 5741 65bc 1724 06bc d274 7d3b 3275 2bbc
00000010: 2cf9 9933 c7a2 79bc b5b4 493c c5a7 f03b
00000020: 0168 813c 463f 02bc f46d a5bc e015 89bc
00000030: 2c46 803c 597d cabb 3b5f 553c c5e5 b73c
00000040: 2142 1c3c 8818 663c ddab c7bc 1945 343c
00000050: 019d 283c a38b 85bb 2aa2 0c3d ebb2 b0bc
00000060: c342 c73c 1f62 2cbc 97de 63b9 b8b1 c6ba
00000070: 27b4 0b3d 019c 20bc fa64 47bc 13b8 773c
00000080: 50ae 2bbc c162 ffbb aaec 3cba b2d9 e4bc
00000090: 9d07 ae3c f57d c4bb 1beb 9dbc 9615 5c3c
000000a0: 8438 b33c fa1d b7bc 0180 253d e721 50bc
000000b0: a04a bcbb 65e6 cfbc b2bf 953c c9bd 33bc
000000c0: edb3 6a3c 3149 073c 99a2 a938 d7b4 243b
000000d0: b7f9 eb3c f0e8 2c3c ae3d f93b 58a8 3f3c
000000e0: 3ead dcbb cf6a aa3c 5cc1 f5ba 9794 973b
000000f0: 7b0b a5bc 36c0 19bc 48a0 77bc 3ab5 4a3c
00000100: 085b 57bc d0fa 043b 104f cebc f7ef acbb
00000110: 4d0f dd3c c9dc 75bc b494 5dbb 238a 943c
00000120: 8649 b5bc bda6 eebb dfb3 173b 9f1c 23bc
00000130: a049 e9bb f90e 8fbb af95 0d3c 85cf 9d3b
00000140: b37d 662d 3130 9fbc e6e8 5bbc f2e3 02bc
00000150: 74df bc3c 409d a0bb d9ae ff3c 2575 d1bb
00000160: 0716 adbc 23e2 a6ab 6403 83bc 36d7 093c
00000170: 7312 14bc d9e9 b23b ae3d 083b 7727 e63c
00000180: 7f87 a83c 1f09 4ebc 45c7 edbb 2357 fd3c
00000190: ab7c 29bc 749e c43c ce1a 7ebc 5cdd 3a3c
000001a0: 5b62 84bc ced4 a63c 405f 41bc 8c78 9abc
000001b0: 53f1 8fbc e946 5fbc f00f 02ba 348f 3ebb
000001c0: d4c4 abbb b367 34bc fb0f 833c 4d78 703c
000001d0: 896f b43c 5026 3d3c a8c8 dbbc e43b a8bb
000001e0: 3f0d b13c 4df0 de3c 3982 21bc 42a4 003d
000001f0: b269 b9bc 570e 9b3c aa47 ac3c a1ed 6f3b

network_body._body_endoder.seq_layers.2.weight f4 [128, 128]
-0.10303457 -0.022612745 -0.044513468 -0.06340313 0.054983277 -0.10071405 0.060202822 0.048720058
0.014659654 0.1707167 -0.061131544 0.023927672 -0.036555383 0.0024512955 0.02871453 -0.075053215
0.07169601 0.0970056 -0.04105666 0.02181145 0.007506545 0.04272947 0.030162482 0.14663666
0.0074095614 -0.044588044 0.03044206 0.01709877 -0.031090926 -0.09902548 0.0020948662 0.024349457
0.037949782 -0.052163135 0.0018286882 -0.022093968 0.13590236 0.115543514 0.02631153 0.09763419
0.05935466 0.08703625 0.100433744 -0.071129516 -0.14990589 -0.07405748 0.039242655 0.084179156
-0.12457286 -0.12053147 -0.20036519 -0.12223439 0.106984496 0.08941352 -0.030198583 0.17956217
0.011189362 0.051640786 0.120658524 0.036405206 -0.09092666 0.027792417 -0.05552958 -0.060553756
0.01167176 0.022331934 -0.083379515 -0.037238568 -0.05661053 0.010588679 -0.08267941 0.19082573
0.0012237347 -0.1241826 -0.025695873 0.028341556 -0.068213575 -0.016877355 -0.011804385 -0.14415494
-0.11179857 -0.023900393 0.025837068 0.0040243906 0.06307551 -0.08720691 0.018008765 0.016738117
-0.042259403 -0.009102522 0.032304022 0.23787276 -0.060242668 -0.07054836 -0.065230995 0.043633625
-0.002294634 -0.048783753 0.028530104 0.11604757 0.07500049 0.05805966 -0.077430256 0.10423908
0.09645234 0.18090744 -0.0055134534 -0.008977563 -0.046416406 -0.10466323 -0.08853504 0.018322108
0.16694032 -0.074337274 0.03135788 -0.033723366 0.015592669 -0.014055032 -0.048583034 0.04045211
-0.09293533 -0.027976224 -0.077843904 -0.024552468 -0.04562092 0.031913858 -0.117673874 0.13555358
-0.09124057 0.1674466 -0.057787985 0.015539069 -0.07703192 -0.0281217 0.0031993145 0.1112121
0.00060259755 0.17121102 0.00564845 -0.078336015 -0.08588987 0.01139877 0.01201922 0.10436027
0.070451245 -0.06382096 0.05647293 -0.040732834 0.049187228 0.13566875 0.07601922 -0.08304055
-0.0069104843 0.08170418 0.018364795 -0.026586989 0.035925288 0.060894523 0.050746236 -0.057061717
-0.029451964 -0.03679945 -0.16265197 -0.03787359 0.121575214 -0.029593928 -0.04018247 -0.1760726
0.09996842 0.030095113 -0.051891595 0.039558798 -0.2447906 -0.06692435 -0.06766052 -0.04366072
-0.009091746 0.023709679 0.029088175 -0.189901 -0.10977866 0.0007230209 -0.057988558 0.09888017
0.06948078 0.025622668 -0.06467205 -0.009685068 -0.03644568 0.07862216 0.11560018 -0.013136413
0.0035589435 -0.09409688 -0.17088601 -0.0057635205 -0.056239437 -0.06965804 -0.034689937 -0.06288364
0.09498248 -0.19266514 0.055180162 0.08567231 0.13650073 0.040504217 -0.13858235 -0.09361954
0.051122464 0.03219742 -0.07334878 0.012148255 -0.007244334 0.020111118 0.06990701 -0.018582655
-0.14787826 -0.016948285 0.0334956 0.045465846 0.056701344 0.054626655 -0.016272556 0.04185914
0.041990846 -0.12286143 -0.13425502 0.027721455 -0.0617679 -0.07201748 0.0060612257 -0.062184554
-0.10618158 0.0027576662 -0.007086716 0.027415996 0.100788236 0.11639999 -0.17582814 0.03830783
-0.11623632 0.13616563 -0.0722909 -0.053826813 0.0398276 -0.033947393 0.03619317 -0.093334846
-0.09547417 -0.1451576 -0.008182244 -0.0077624447 0.09883446 0.111377865 -0.10921047 -0.057173688
00000000: ca03 d3bd 5d3e b9bc c153 36bd 80d9 81bd
00000010: 2536 613d 2b43 cebd 3c97 763d af8e 473d
00000020: 0c2f 703c 5cd0 2e3e 1265 7abd f703 c43c
00000030: 19bb 15bd eaa5 203b bc3a eb3c 80b5 99bd
00000040: 5cd5 923d dfaa c63d 072b 28bd edad b23c
00000050: 77f9 f53b 1905 2f3d 4f17 f73c ec27 163e
00000060: e8cb f23b f4a1 36bd a161 f93c b812 8c3c
00000070: 66b2 febc dfcd cabd 064a 093b 8378 c73c
00000080: 3b71 1b3d 03a9 55bd 98b0 ef3a 69fe b4bc
00000090: fd29 0b3e 14a2 ec3d 478b d73c 6ff4 c73d
000000a0: df1d 733d 1040 b23d 35b0 cd3d 5aac 91bd
000000b0: ee80 19be 73ab 97bd e8bc 203d 1f66 ac3d
000000c0: 0e20 ffbd 34d9 f6bd 882c 4dbe 0656 fabd
000000d0: b01a db3d 701e b73d 0563 f7bc 25df 373e
000000e0: 9653 373c 4a85 533d d11b f73d a01d 153d
000000f0: c237 babd ecac e33c fc72 63bd 3707 78bd
00000100: e93a 3f3c 76f1 b63c e1c2 aabd 7887 18bd
00000110: 71e0 67bd 247c 2d3c d353 a9bd d267 433e
00000120: b965 a03a 7253 febd 2780 d2bc 8d2c e83c
00000130: 8fb3 8bbd 6142 8abc 2e67 41bc 5a9d 13be
00000140: a6f6 e4bd c2ca c3bc 42a8 d33c 09df 833b
00000150: bc2d 813d 8999 b2bd 1e87 933c 601e 893c
00000160: 3218 2dbd bf22 15bc 3951 043d eb94 733e
00000170: 04c1 76bd a97b 90bd d497 85bd 2cb9 323d
00000180: 9261 16bb 79d1 47bd f7b7 e93c 59aa ed3d
00000190: db99 993d f7cf 6d3d c193 9ebd 4c7b d53d
000001a0: ce88 c53d cd3f 393e 33aa b4bb a116 13bc
000001b0: 211f 3ebd ad59 d6bd dc51 b5bd 3f18 963c
000001c0: 67f2 2a3e 243e 98bd 1f71 003d 8321 0abd
000001d0: 6578 7f3c 1447 66bc 01ff 46bd 1db1 253d
000001e0: e154 bebd 652e e5bc a06c 9fbd 4222 c9bc
000001f0: 00dd 3abd 1bb8 023d 00ff f0bd 8fce 0a3e
00000200: 56dc babd 1f77 2b3e 18b3 6cbd 9497 7e3c
00000210: e9c2 9dbd 7b5f e6bc 97ab 513b 2bc3 e33d
00000220: a3f7 1d3a f151 2f3e a216 b93b a26e a0bd
00000230: 07e7 afbd e8c1 3a3c 43ec 443c d6ba d53d
00000240: be48 903d 90b4 82bd 2950 673d 79d7 26bd
00000250: 8c78 493d c0ec 0a3e f7af 9b3d 2a11 aabd
00000260: 5871 e2bb 8554 a73d c471 963c f5cc d9bc
00000270: 6526 133d 896c 793d 49db 4f3d 8cb9 69bd
00000280: 3f45 f1bc 05bb 16bd 3d8e 26be 5621 1bbd
00000290: 6dfc f83d f76e f2bc 6096 24bd 604c 34be
000002a0: 3ebc cc3d 078a f63c 488c 54bd 6808 223d
000002b0: 63aa 7abe a20f 89bd 9991 8abd 95d5 32bd
000002c0: 8cf5 14bc cd3a c23c 534a ee3c 6875 42be
000002d0: a2d3 e0bd 1c89 3d3a 6985 6dbd b081 ca3d
000002e0: f04b 8e3d a1e6 d13c c872 84bd 1fae 1ebc
000002f0: 1148 15bd a804 a13d cabf ec3d 1c3a 57bc
00000300: 2a3d 693b ddb5 c0bd befc 2ebe eadb bcbb
00000310: 535b 66bd e0a8 8ebd 0917 0ebd 23c9 80bd
00000320: 2d86 c23d 034a 45be 9804 623d f774 af3d
00000330: d9c6 0b3e c0e7 253d 88e8 0dbe 9abb bfbd
00000340: ca65 513d 71e1 033d e337 96bd 7909 473c
00000350: e161 edbb 12c0 a43c 682b 8f3d a73a 98bc
00000360: 666d 17be 21d7 8abc af32 093d 653a 3a3d
00000370: ab3f 683d 33c0 5f3d 064e 85bc 7d74 2b3d
00000380: 98fe 2b3d c69e fbbd 267a 09be 1b18 e33c
00000390: 5600 7dbd e77d 93bd 3f9d c63b 3bb5 7ebd
000003a0: ba75 d9bd f6b9 343b af37 e8bb 8397 e03c
000003b0: 106a ce3d 1e63 ee3d 4b0c 34be ace8 1c3d
000003c0: 4f0d eebd 016f 0b3e 400d 94bd 8179 5cbd
000003d0: 4422 233d 6c0c 0bbd 4a3f 143d 5726 bfbd
000003e0: f687 c3bd 32a4 14be d20e 06bc 1b5c febb
000003f0: b969 ca3d 141a e43d bda9 dfbd f52e 6abd
