AIRocketLanding/Assets/Models/1/AIRocket.onnx (onnx, 84776 bytes, 9 tensors)

action_model._continuous_distribution.log_sigma f4 [1, 2]
000000 88 64 52 be dc 7b 33 be
       -0.20546162 -0.17527717

action_model._continuous_distribution.mu.bias f4 [2]
000000 a3 90 28 bc 95 54 82 3b
       -0.01028839 0.003977368

action_model._continuous_distribution.mu.weight f4 [2, 128]
000000 0c a1 33 3d 76 45 84 3d 6e eb 35 bc c1 71 a0 bc
       0.04385476 0.06458561 -0.011103494 -0.019585492
000010 b5 cb 99 3d 31 8c 84 3d 60 1d c0 bc 07 18 93 3c
       0.07509557 0.06472052 -0.023451507 0.017955793
000020 0f 64 18 3d 62 9b 97 bc 53 54 0a bd 21 bc e1 3c
       0.0372048 -0.01850671 -0.033771824 0.027555527
000030 5b 97 1e bd ad 63 35 bd ef 5c 4f 3c c2 77 af bc
       -0.038718563 -0.04428451 0.012656434 -0.02141941
000040 be 2d 0e bc d6 aa 8f 3c 4c 9a 97 bb 1e ef c8 3d
       -0.008677898 0.017537516 -0.004626548 0.09811233
000050 89 df fe 3c 10 31 0a 3b 82 c2 1e 3d a0 67 b7 bb
       0.03111245 0.0021086372 0.038759716 -0.00559707
000060 29 0b d5 bb 40 ca 33 bd 9f d6 14 3d 58 a6 06 3c
       -0.0065015745 -0.043894053 0.03633749 0.00821837
000070 45 5d 7f bc d2 7b 3a bd f3 00 75 bd 49 28 e6 3c
       -0.015586202 -0.04552824 -0.05981536 0.028095381
000080 07 0d 5a bb e3 b1 b8 bb 1f d7 1b bc 02 d9 12 3d
       -0.0033271925 -0.00563644 -0.009511738 0.035851486
000090 02 b4 67 bd ab 58 a8 bb cb 7e 36 3d 44 fc 21 3c
       -0.056568153 -0.005137523 0.044554513 0.009886805
0000a0 29 53 b0 bd 09 ed d1 3c 9c e2 53 3c 1e 74 d4 bc
       -0.086096115 0.025625722 0.012932446 -0.025934275
0000b0 80 6a 80 3d dd 50 17 3c 8d e0 16 3c f6 76 28 3d
       0.06270313 0.009235588 0.0092088105 0.041129075
0000c0 95 a8 93 3d 31 50 dd 3b 03 31 8a 3d 77 ae 0a bc
       0.07209889 0.0067539443 0.067476295 -0.008464447
0000d0 51 5e ad 3b 00 cf 0a bc 51 7b 1f bc 3a 7c c8 bb
       0.0052907844 -0.008472204 -0.009733991 -0.0061183246
0000e0 7a b6 5d bd 5d 35 7c bd c8 88 ba bb fc 02 23 3c
       -0.0541291 -0.06157433 -0.005692575 0.009949442
0000f0 0d 56 00 3c 9d 68 b0 ba 5b 9e 3a 3d 3b b1 6d bd
       0.007833016 -0.0013458912 0.045561176 -0.05803035
000100 eb 33 a5 3c 78 15 70 3d 00 6c 00 bd c9 a4 48 3c
       0.020166358 0.058614224 -0.031352997 0.012246319
000110 f7 78 98 3d f5 85 87 3d 8e 94 ec 3c ef 59 cc bc
       0.07444947 0.06617347 0.02887943 -0.024945227
000120 0e 97 96 bc 39 bb 25 3d 53 46 80 bc cc f2 2a bc
       -0.018382575 0.040461753 -0.015658533 -0.010433864
000130 dd 10 e7 bc 6e cc 5b 3d 6c b9 05 bd ef 91 9f 3d
       -0.028206283 0.053661756 -0.032647535 0.077915065
000140 ea 8c 1b bc c8 78 29 3d 2c 6f 36 3d 59 9e 16 bd
       -0.009494046 0.04137495 0.044539616 -0.036772106
000150 b7 62 80 bc 6a a6 09 bd 38 73 ec bc 12 6d 98 3c
       -0.01567207 -0.03360597 -0.028863534 0.018606696
000160 bc e0 84 3d e9 10 75 3d 7d 7a 37 3d 3a b0 83 3c
       0.06488177 0.05983058 0.04479455 0.016075242
000170 d5 0a 5d 3c b5 ab b7 3c 41 eb cf 3d 8a 3b 1e 3c
       0.013491352 0.022420743 0.10152293 0.00965775
000180 36 9e 59 3d e9 1a a9 3c 6b 84 16 3d c6 49 7a 3c
       0.053129397 0.020642715 0.036747377 0.015276378
000190 f2 54 3f bd c4 6d 25 3d 1b 84 ee bc d0 6d 4b 3c
       -0.04671187 0.040387884 -0.029115727 0.012416318
0001a0 27 c8 17 3b d7 70 61 bc bb 53 ac bc 5c 26 9d 3d
       0.0023160072 -0.013759813 -0.02103602 0.07673332
0001b0 22 51 2f 3d 22 81 fb 3c 4f 68 6e 3c 2e 9c 99 3c
       0.042801984 0.030701224 0.014551236 0.01875123
0001c0 df b1 81 3d eb e9 86 3d 32 6f 85 3d b6 b7 4c 3d
       0.06332754 0.06587585 0.065153494 0.049979888
0001d0 89 5c 0c 3d bc c8 fd 3c bb 9d 0d bd 9c c9 49 bd
       0.034267936 0.030979507 -0.03457425 -0.049264535
0001e0 ed 35 71 3d ab a6 ff bc 18 9a 4e bd 23 02 1b 3d
       0.05888932 -0.031207403 -0.050439924 0.037843835
0001f0 bc e2 80 3d 30 c3 13 bc 0d b9 47 bd 05 e1 f3 3c
       0.06293246 -0.009018704 -0.048760463 0.029770384
000200 c0 70 0f bd 10 25 96 bc 3f 7a c7 bc 1d 7d ab ba
       -0.035019636 -0.01832822 -0.024350284 -0.0013083551
000210 6f 8c b9 3d 42 8a 0b bd 94 89 c0 bb 0e 00 fd bc
       0.09059989 -0.0340674 -0.0058757756 -0.030883815
000220 2c 18 61 bc 34 b7 e7 3c bc 93 5e bd b2 65 a1 3b
       -0.013738673 0.0282856 -0.05434011 0.004925453
000230 e3 c0 20 bd 0f 0f ad bc 16 0e e3 bb c6 f9 71 3b
       -0.03924645 -0.021125345 -0.0069291694 0.0036922558
000240 97 7c b5 bc fe 98 81 3c 63 6a d0 bc 18 91 28 bd
       -0.022154136 0.015820023 -0.025441354 -0.041153997
000250 2d fb 59 3b dc 58 7f bc c3 67 a0 3d 3a 14 a2 bd
       0.0033261285 -0.015585151 0.07832291 -0.07914014
000260 f8 c3 e3 3c 64 f1 37 bd d1 3c 5d 3c f7 52 91 bd
       0.027803406 -0.044907942 0.013503269 -0.070959024
000270 c0 04 b4 bc 21 bc d8 bc 8e bd 25 be 3a 0c 79 bc
       -0.021974921 -0.026456894 -0.1618559 -0.015200669
000280 fa ab 8b bc ef 9e d4 bc 80 4e ce bc 12 0b e8 3c
       -0.017049778 -0.025954692 -0.025183916 0.028325591
000290 50 d7 c2 bc 66 c0 81 bc c4 52 9e 38 03 24 ec bc
       -0.02378431 -0.015838813 7.5494434e-05 -0.028825765
0002a0 c3 77 4d 3c 43 94 d9 bc 8c ea 6d 3c b4 4c 98 bd
       0.01254076 -0.026559955 0.014521252 -0.07436505
0002b0 14 69 10 bd d3 a4 8e bc 32 62 23 bb 42 8e d3 bb
       -0.03525646 -0.017412579 -0.0024930355 -0.0064561674
0002c0 93 71 58 bd d6 36 9e 3c 7f 6d 99 bc 7a 1d 3b 3d
       -0.052842688 0.019313257 -0.01872897 0.045682408
0002d0 77 9e 26 bd a4 ad 50 3c 84 7b ce bc bb 55 3b bd
       -0.040678468 0.012736712 -0.025205381 -0.045736056
0002e0 8f 93 5d bd 74 4d b6 bd 7d 4a 6d bd bf 97 a7 bd
       -0.0540958 -0.08901492 -0.057932366 -0.0818324
0002f0 75 fd c1 3b de ca 12 bd 26 f3 c8 bc e7 c3 93 bd
       0.005920107 -0.035838 -0.024530005 -0.072151
000300 6e 43 93 bd 93 bc db 3b f9 89 02 bc 52 6f 9a bd
       -0.071905956 0.0067058294 -0.007967466 -0.07540764
000310 b3 68 ed bc 91 e4 4f bd ce 7a be bc 2d a7 2b bd
       -0.028980589 -0.050755087 -0.023251917 -0.041907478
000320 1c 3b 46 bc 31 e4 ff bc 92 22 60 3b aa 38 0d bd
       -0.012099054 -0.03123674 0.0034200293 -0.034477867
000330 e4 e3 06 bd 3c ba aa bd d7 e7 c2 bc c8 f6 79 bd
       -0.032932177 -0.08336303 -0.02379219 -0.061026365
000340 8c 57 19 bd c3 f4 bd 3c 4f 16 0a 3c bb fa fb bc
       -0.037437007 0.023188 0.00842817 -0.030759206
000350 9d dd f2 bc 27 f0 d8 3c b1 29 55 bc f5 06 fd 3a
       -0.02964669 0.026481701 -0.013010428 0.0019304442
000360 ab b4 d5 bc 0e f3 38 ba 59 6b 1c 3d 04 49 62 bc
       -0.026087126 -0.0007055261 0.038188312 -0.013811354
000370 30 7c 69 bd ee 3f 97 3c e9 59 b6 bd 57 31 28 bd
       -0.0570032 0.018463101 -0.08903868 -0.04106268
000380 ab 24 00 bc 8c dc d8 3c 88 57 88 bd 4f 86 2a bd
       -0.007821242 0.026472352 -0.0665732 -0.041631993
000390 e3 1b 4f bc 17 2e ab bc 28 69 3c bc 92 be 02 3d
       -0.012640926 -0.020896 -0.011499681 0.031920023
0003a0 3c b3 80 bd a8 c0 14 bd 41 27 76 bd d7 f2 b7 bc
       -0.06284186 -0.036316544 -0.06009603 -0.022454662
0003b0 a4 8a 23 3d a0 44 c2 bc 90 06 6a bc fc e6 8a bc
       0.03992714 -0.023714364 -0.014283791 -0.016955845
0003c0 9f 62 9b bd 12 b2 08 bc 25 7b 86 bd 3d ab 6b 3c
       -0.0758717 -0.0083432365 -0.06566457 0.014384088
0003d0 0a 10 e8 bb f8 39 9e 3c 48 17 bc bc 71 dd f7 3b
       -0.00708199 0.019314751 -0.02296032 0.0075642397
0003e0 18 95 a2 bd af c6 8d 3c e8 99 25 bc 0c c3 4d 3c
       -0.079385936 0.017306654 -0.010107495 0.01255871
0003f0 df ec b9 3c 9b a4 f5 bc fc 0a 26 bd 3c 88 89 3c
       0.022695957 -0.029985717 -0.04053782 0.016788594

action_model._discrete_distribution.branches.0.bias f4 [2]
000000 27 c7 9c bd 1d c7 9c 3d
       -0.07655173 0.07655165

action_model._discrete_distribution.branches.0.weight f4 [2, 128]
000000 69 d4 13 bd 8e 67 b9 3b bb 2b 91 3d fe 31 d2 3c
       -0.036091242 0.0056580966 0.07088419 0.025658604
000010 15 bd 15 bb 19 98 85 3d 4a f2 5b 3d bd 15 e3 3a
       -0.0022848297 0.06523151 0.05369786 0.0017325204
000020 1c 80 8f bc 9d a4 36 bd 0b 9a d4 3a 9b 04 1a 3d
       -0.017517142 -0.04459058 0.0016220225 0.03760205
000030 0c 84 a4 3d 0c 27 e7 3c 05 c4 5b 3b e3 ab 70 bd
       0.080329984 0.028216861 0.0033533585 -0.058757674
000040 5f 66 6a 3d aa 49 b4 3d 84 87 2d ba 2b ce b6 3c
       0.057226535 0.08803113 -0.00066196197 0.022315105
000050 bc d2 92 3d d1 6d 25 3d 9c a1 6a bd 10 27 e4 3c
       0.07169101 0.040387932 -0.05728303 0.027850658
000060 fa 4a 4d 3d 6b 9e 39 3c ef 0c 80 3c 46 ca f3 3a
       0.05012033 0.011329274 0.015631167 0.0018599711
000070 36 7e ec bc 87 00 71 3d 9a d5 eb 3c d6 e3 95 bb
       -0.028868776 0.058838394 0.028788377 -0.0045742793
000080 37 d7 85 3c 3b d3 8c bc f6 33 22 bd 77 1e 79 bd
       0.016337974 -0.017190566 -0.039600335 -0.06082007
000090 5d 67 c4 3c 09 1d 27 3d 2f 26 6a 3c 10 07 1b 3d
       0.023975069 0.040799174 0.01429133 0.037848532
0000a0 e4 d5 5d 3d c2 97 78 3b b5 2a 02 3d 9e 7d 03 3c
       0.05415906 0.0037932252 0.03177901 0.008025555
0000b0 ec 59 9a bc a1 80 58 3d e5 6b d0 bc e1 06 82 3d
       -0.018841706 0.052857045 -0.025442073 0.06348968
0000c0 fc db aa ba 98 09 55 3c f0 3a 99 3c 31 91 86 bd
       -0.0013035531 0.013002776 0.018704861 -0.06570662
0000d0 cb bb 13 3d 41 a9 3f 3c 4e df 2f bd 41 e5 a1 3c
       0.036067765 0.011698068 -0.04293757 0.019762637
0000e0 1c b6 f7 3c 50 c9 97 3c d7 68 49 bd e1 9b d1 3b
       0.030238204 0.01852861 -0.04917225 0.006396756
0000f0 8c 4c 88 3d 83 a9 11 3c 07 2e c8 3c bb 17 0e 3d
       0.06655225 0.008890512 0.02443601 0.0346906
000100 03 c9 b8 bb 41 4b 5e 3c 4a ac 32 3d dc 12 e1 bc
       -0.005639197 0.013567747 0.04362134 -0.027474813
000110 9e d5 4e bd d9 8c 1f 3d 3c e8 80 3d d2 42 0f bc
       -0.05049669 0.038952682 0.06294295 -0.008743959
000120 e5 29 71 3d f0 38 f8 3c a5 ac 3c 3d 62 7a 4c bc
       0.058877844 0.030300587 0.046063084 -0.01248035
000130 cb a8 fc 3c d0 4e 78 3b 3a 89 49 3d 6b d4 83 3c
       0.030842206 0.0037888773 0.049203135 0.0160925
000140 6a fa 3f 3d 10 fe 7d 3c 1d 13 85 3d 00 79 8e bc
       0.046869673 0.015502468 0.06497786 -0.017391682
000150 1c 16 dd bc dc 66 87 3d 3c 67 af 3c f7 fc b9 3d
       -0.026988082 0.06611416 0.02141153 0.09081452
000160 45 59 52 3c 82 54 01 bc 33 62 05 ba 37 de 08 bd
       0.012838666 -0.007893683 -0.000508818 -0.033415046
000170 27 d6 f4 ba d0 34 4c bd 90 9a 00 3d f5 36 82 3d
       -0.0018679545 -0.049855053 0.031397402 0.063581385
000180 02 55 81 3d 75 23 7a 3b de 2a d6 3c 0c a8 c8 bc
       0.06315042 0.0038168107 0.026143488 -0.024494193
000190 a0 61 de bb 79 87 35 3b c8 ca 8d bb d8 78 29 3d
       -0.00678654 0.0027699156 -0.004327152 0.04137501
0001a0 93 d4 17 bb 3b f6 b9 bc 3e 7c 59 3c 26 63 0a 3d
       -0.0023167476 -0.02270042 0.013274251 0.03378596
0001b0 34 9c 74 bd 94 9f 97 3d 6d 8d 35 bd 49 2e 58 3c
       -0.05971928 0.07403484 -0.044324327 0.013194629
0001c0 ef 42 35 3d da 36 17 3c 93 ec 66 3d 83 bb 7b 3d
       0.044253286 0.009229386 0.05637796 0.061458122
0001d0 31 e0 c0 3d 52 68 ba 3d 02 ce 2a 3d 54 a4 14 3d
       0.09417761 0.09101929 0.04170037 0.036289528
0001e0 97 51 9d 3d 43 f4 2e 3d 0e 37 39 3d d2 4a a6 bd
       0.07681578 0.042713415 0.04521852 -0.081197396
0001f0 fe c5 38 3d 08 ea 13 3d 66 48 16 3d 9e 54 5a 3d
       0.045110695 0.03611186 0.03669014 0.053303353
000200 5e 57 33 3d 7b bc 81 bc f5 92 57 bd c9 65 ae bc
       0.04378449 -0.015836945 -0.052630384 -0.02128877
000210 f4 4d 05 3b e8 f3 7e bd d6 82 7d bd 59 43 55 bc
       0.0020340653 -0.062244326 -0.061892353 -0.013016545
000220 f2 8e 85 3c 98 5a 49 3d 79 25 50 bc 52 81 2f bd
       0.016303513 0.049158663 -0.012704247 -0.04284794
000230 e5 05 96 bd e3 40 87 bc 84 c8 4f bb be a7 1f 3d
       -0.07325343 -0.016510433 -0.003170521 0.03897833
000240 8e 0f 4a bd 6c c7 a3 bd 08 8d 84 bb 11 4d 17 bd
       -0.04933124 -0.07997021 -0.0040451325 -0.03693873
000250 1e 85 ab bd 90 dd 45 bd 4d 8c 40 3d 47 68 a5 bc
       -0.083749995 -0.048307 0.0470088 -0.020191325
000260 59 78 1d bd 0d 3c 5b 3b bc 37 da 3b f8 f9 24 ba
       -0.03844485 0.003345254 0.006659476 -0.0006293352
000270 06 1d 94 3c 0e fc 48 bd 8f 78 74 bd 22 44 9f ba
       0.018080246 -0.049068503 -0.059685286 -0.0012151042
000280 1e 08 e1 bb c6 65 e6 3c d6 aa 0e 3d a4 a3 76 3d
       -0.0068674227 0.028124701 0.03483089 0.060214654
000290 f4 4e 07 bd 07 79 43 bd b5 e4 9f bc 4d 05 41 bd
       -0.03303428 -0.047722843 -0.019518236 -0.047124196
0002a0 d9 c4 87 bd 06 21 21 bb d7 0e 94 bc 87 d8 df bc
       -0.066293426 -0.0024586334 -0.018073482 -0.027324928
0002b0 8d e5 c1 3c 89 76 01 bd 2d 58 1f 3d ad b2 86 bd
       0.023669029 -0.031607185 0.03890245 -0.065770485
0002c0 f0 b0 4f bc 49 29 c6 bc 48 25 e0 b9 2e c3 84 3d
       -0.0126764625 -0.024189608 -0.00042752386 0.0648254
0002d0 d5 a8 cb bc d0 09 3f bc f8 7c 21 3d f2 0e e6 bc
       -0.024860779 -0.011660054 0.03942582 -0.028083298
0002e0 d4 76 d5 bc ea 30 01 bd f2 3b 41 3d 9d 28 4b bc
       -0.026057638 -0.03154079 0.04717631 -0.01239982
0002f0 d5 b6 6c bd 32 af b4 bb 06 11 e2 bc a6 db 10 bd
       -0.05779155 -0.005514049 -0.027596008 -0.035365723
000300 58 a0 99 bb 77 27 27 3c ba 1b 31 bd 79 14 20 3d
       -0.004688304 0.01020228 -0.043239333 0.039082024
000310 ee 55 35 3d e3 84 5b bd 41 66 94 bd 6d a1 50 3c
       0.044271402 -0.053593528 -0.07246066 0.012733799
000320 e6 09 64 bd 26 0f ff bc 00 1c 07 bd 17 3f a4 3c
       -0.055673502 -0.031135153 -0.032985687 0.020049615
000330 aa 77 9a bc 5a ef 69 3b cc 8e 61 bd 6b d9 91 bc
       -0.018855888 0.0035695643 -0.055067822 -0.017803868
000340 4a a5 52 bd 69 38 e1 bc 90 38 4f bd 24 ab 4f 3c
       -0.051427163 -0.027492719 -0.05059105 0.01267508
000350 6a 3a fd 3c c6 66 f0 bc 3d ff 23 bd 17 31 b0 bd
       0.030911643 -0.029345881 -0.040038336 -0.08603113
000360 0a f0 30 bc 29 1a e4 3c f4 91 2a 3c 91 2f c5 3c
       -0.010799417 0.027844505 0.0104107745 0.024070533
000370 e5 4d 97 3c bd cf 27 3d ac d2 2e bd 0b 6c 61 bd
       0.01846976 0.0409696 -0.04268138 -0.05503468
000380 e6 4a 81 bd 5e 1f 32 3b 96 32 8a bc ce 0d 3a 3d
       -0.06313114 0.002717934 -0.016869824 0.04542332
000390 0d 10 84 bc 35 16 4d bc 01 42 07 3b 6f 3b 15 bd
       -0.016120935 -0.012517502 0.0020638707 -0.036433633
0003a0 07 1b 20 3c 86 50 b7 3c 4e a8 ca bc 8e 53 01 bd
       0.009772069 0.022377264 -0.024738457 -0.031573825
0003b0 24 df 2c 3d a5 64 a6 bd 8b 84 ed 3c 49 60 b3 bc
       0.04220499 -0.08124665 0.028993865 -0.021896498
0003c0 59 07 0b bd a1 35 9c bc aa 1f 85 bd ec 71 8f bd
       -0.033942554 -0.019068541 -0.0650018 -0.07004151
0003d0 db da 7f bd fd ef b4 bd a3 3b 19 bd 07 1e 0f bd
       -0.062464576 -0.08834837 -0.03741039 -0.034940746
0003e0 95 3b 64 bd 60 60 43 bd 4d 36 62 bd f8 ed 6b 3d
       -0.055720884 -0.047699332 -0.055227567 0.05759999
0003f0 29 82 82 bd 54 cf 29 bd 84 05 ea bc 47 ce 3b bd
       -0.06372482 -0.04145749 -0.028567083 -0.04585102

network_body._body_endoder.seq_layers.0.bias f4 [128]
000000 31 dc da 3c 10 d3 79 3c b1 60 84 bb a1 24 b7 bc
       0.026716324 0.015248075 -0.004039847 -0.022356333
000010 67 16 18 bd 61 56 37 bd 3e 84 7f bc 02 7c 86 3d
       -0.03713074 -0.04476011 -0.015595494 0.06566621
000020 b4 4b 2a 3d dd 36 0e 3b 41 03 bc 3d 89 08 f2 bc
       0.041576102 0.0021700182 0.09180308 -0.029545086
000030 fe 69 55 bd 01 20 9d ba 8b 1d 03 3d 73 9d 1e 3d
       -0.052103035 -0.0011987687 0.032010596 0.038724374
000040 fd 03 21 3d 97 4e 01 bd 9a a3 ae 3c e8 69 57 bc
       0.039310444 -0.03156909 0.021318246 -0.013147809
000050 e2 ac b5 3c 06 4a 95 bd 21 09 31 3d 26 b2 82 bd
       0.022177164 -0.072895095 0.043221597 -0.06381635
000060 f5 ab b9 3b 9b 30 a9 3c 74 4c 87 3d b2 e4 86 3c
       0.005666251 0.02065306 0.06606379 0.016466472
000070 3c 0a d6 bc a7 4d d8 3c c7 38 97 bb 6a 2d da 3b
       -0.026127927 0.026404215 -0.0046149227 0.006658246
000080 90 e6 c3 bb 5b 34 a2 bc 43 5b 39 3d 02 c1 fd bc
       -0.005978413 -0.019800356 0.04525305 -0.030975822
000090 0a b1 31 3d 66 f5 26 bc 7d 86 8f 3d 31 c3 4f bb
       0.04338173 -0.0101903435 0.070080735 -0.0031702037
0000a0 13 9c f4 bd 39 64 86 bd ce 4f 1b 3d 17 66 06 bd
       -0.11943831 -0.06562085 0.037917905 -0.032812204
0000b0 b3 04 7e bc 01 c6 cb bc 16 21 89 3c 9a f7 93 3b
       -0.01550405 -0.024874689 0.01673941 0.0045156004
0000c0 b2 47 d4 3c dc b5 b6 3c 61 03 fc bc 3e 4e 91 bc
       0.025913093 0.022303514 -0.03076333 -0.017737504
0000d0 91 67 b6 3b 4f b6 2f bd ba fd 9d bd 12 78 6f 3c
       0.0055665453 -0.042898472 -0.0771441 0.014616029
0000e0 41 4a d4 bc 32 5e aa ba 82 75 90 3c 9f 39 2f 3d
       -0.025914313 -0.0012998043 0.017634157 0.04277956
0000f0 40 f9 53 3c d4 9c 09 bd 59 17 32 bd 55 be a0 3d
       0.012937844 -0.03359683 -0.043479297 0.07848803
000100 67 42 2b bd 41 b4 2a 3c 20 5e 93 3d 24 e7 0c 3d
       -0.041811373 0.010418952 0.07195687 0.03440012
000110 dc 5d 3f 3d 93 47 83 bc 42 8b 8a 3c 40 91 c7 bc
       0.04672037 -0.01602534 0.016912106 -0.024361253
000120 2e 96 86 bd c9 56 90 bd 7b 8d 01 3d 22 6a ff 3c
       -0.06571613 -0.07047803 0.031629067 0.031178538
000130 45 36 2e bd 05 1a 83 3d 94 6f 32 3d 43 b9 16 3b
       -0.042532224 0.06401447 0.04356344 0.0022998608
000140 75 ea fd 3c 43 98 30 3c a3 0d 2b bc ed b8 91 3c
       0.030995587 0.0107784895 -0.010440263 0.017788375
000150 22 46 02 3d 74 c5 65 3d ca 6a ee 3c 56 fe 8a bd
       0.031805165 0.05609651 0.029103655 -0.06786792
000160 ab ba 4a 3d 74 c1 e5 bc 09 dd 5e 3b b7 73 b4 bb
       0.049494427 -0.028046347 0.003400626 -0.0055069583
000170 64 19 61 3c f7 ec 80 3c ab 43 98 3b 40 c9 c2 bd
       0.013738964 0.015737994 0.0046467385 -0.09511042
000180 b5 fa b9 3c 56 c3 a7 3c 6a 15 17 3d 56 62 2e 3c
       0.022702554 0.020478886 0.036885656 0.010643562
000190 d5 98 78 bd fd 48 45 3d 70 cd f7 bc 5b 77 bc bb
       -0.060692627 0.04816531 -0.030249327 -0.005751533
0001a0 6f ef 0a bc c4 57 68 bd 2c 01 44 3d 00 57 92 bd
       -0.008479937 -0.056724325 0.04785268 -0.071455
0001b0 27 2d a7 bc ea df f2 ba 5a d0 e0 bb 14 0b e4 bc
       -0.020407273 -0.0018529866 -0.006860775 -0.027837314
0001c0 12 b1 1b 3d f3 72 84 3d 89 6a 2c bd 2e 6d f7 3b
       0.038010664 0.06467237 -0.042093787 0.007550857
0001d0 d4 b8 b3 3b 0b 86 b6 3c 6f 86 f1 bc 3c c3 69 bc
       0.0054846797 0.022280714 -0.029483048 -0.014267739
0001e0 2f 46 60 3b 68 d3 5f bd 7f 53 14 bc ad 28 0d 3c
       0.003422152 -0.054644972 -0.00905311 0.008615655
0001f0 6c c4 cc 3c 1d ce 24 3c 0e 32 ee 3c 39 92 02 bc
       0.024996005 0.010058907 0.029076602 -0.0079694325

network_body._body_endoder.seq_layers.0.weight f4 [128, 26]
000000 e6 e2 59 3d 50 ea 19 3e 1b 35 30 be a9 02 24 3e
       0.053194903 0.1503079 -0.17207758 0.1601664
000010 ec d0 99 bd b0 23 85 bd c9 e2 10 3e d5 86 bd bd
       -0.07510552 -0.065009475 0.14149012 -0.09254233
000020 70 74 a3 be 36 56 9d 3c b5 25 cc 3d 6d d2 e8 bd
       -0.31924772 0.019206148 0.099681295 -0.113682605
000030 53 4a ed 3d 2b 5b 37 3d 2a 23 fc 3e 38 f0 b0 3d
       0.11586442 0.04476468 0.49245578 0.08639568
000040 e2 47 37 3e c8 ca e0 3d db ef bc bd b1 92 b2 be
       0.17898515 0.109761775 -0.09225436 -0.34877542
000050 59 4a 11 3e 0b d2 3c be 26 af 91 be d0 df 81 3e
       0.14188518 -0.184395 -0.2845394 0.25366068
000060 f6 fc 8f be 19 76 11 bd 3d 24 4a 3e 04 cf 80 3b
       -0.2812268 -0.035513017 0.19740386 0.003930928
000070 3e de 75 be 26 2e c5 be 33 c1 62 3c dd 72 44 3c
       -0.2401056 -0.3851177 0.013840008 0.011990276
000080 ac 39 b1 bc 3a cc 27 be 2a 80 97 3e 7b 2f 86 bd
       -0.021633945 -0.163865 0.2958997 -0.06552025
000090 4c b8 f6 3d db b7 0b 3e ee 16 0b 3e 46 2a ab 3b
       0.120468706 0.13644354 0.13582966 0.0052235452
0000a0 a5 1c 91 3b 9a 04 cc bd 24 ce 81 3d 31 e8 0c 3c
       0.0044284635 -0.09961815 0.06338146 0.008600281
0000b0 77 3d a6 bd 0d fd 1c 3e ef d8 0c be 24 ef c6 3e
       -0.08117192 0.15330906 -0.13754629 0.38854325
0000c0 3c 82 c5 3d 54 a7 91 be d8 5e 34 bd 86 91 8f 3d
       0.09643981 -0.28447974 -0.044035763 0.07010178
0000d0 d9 34 b6 3c 76 53 71 3d 50 eb 19 3e f9 d2 c6 3d
       0.022241997 0.058917485 0.15031171 0.097082086
0000e0 85 60 65 bd 6e 07 4a 3e cc 1b e9 3c 89 db d1 3e
       -0.05600025 0.19729397 0.028455637 0.40987805
0000f0 0f 38 a5 bd 20 c9 e9 3c 43 fb 08 be 64 c4 65 3e
       -0.08067333 0.028538287 -0.13377099 0.22438198
000100 8f f7 28 3d ee f1 a8 bd a4 af 94 bd 74 64 13 be
       0.041251715 -0.082492694 -0.07260063 -0.14393789
000110 1d 52 45 bd e4 6a d0 be e8 bf 07 3d fa c0 e8 3d
       -0.048174012 -0.4070655 0.033142 0.11364932
000120 fb 9a 86 3c 05 27 2e 3e d0 f5 41 3e 23 b4 5f 3e
       0.016431322 0.17007072 0.18941426 0.2184606
000130 79 65 d6 be 0d 78 f0 3e e2 04 aa 3e 7e f0 77 be
       -0.41874292 0.4696659 0.3320685 -0.24212834
000140 cf 90 90 3d 8c 3c bd be 0e 31 75 3c a4 83 af 3c
       0.0705887 -0.36960256 0.014965309 0.021425076
000150 2a 4c cb be dd 40 5f bd 4d 78 82 be f4 d9 3a 3e
       -0.39706546 -0.054505218 -0.25482407 0.18247205
000160 a8 2f 01 3f 92 d0 06 be 48 43 24 3e b0 a2 a1 be
       0.5046334 -0.13165501 0.16041291 -0.31569433
000170 5d 76 13 bf db 72 2b bc 75 a6 51 bd bb c2 51 3e
       -0.57602483 -0.010464395 -0.051184136 0.2048444
000180 b7 6d 3a 3c 8c 51 60 be 52 bb 24 3d 64 d9 da be
       0.011378697 -0.21906108 0.040217705 -0.4274398
000190 c2 ee 30 3e 4f 15 6b 3d a4 ee 04 3e d3 12 23 3d
       0.17278579 0.05739337 0.12981659 0.039812874
0001a0 cc cd 39 3c 45 0f a2 3e 4e 70 8d 3e 40 68 bd 3e
       0.01134057 0.31652275 0.27624744 0.369936
0001b0 e6 97 47 3e ae 27 c8 bd 02 77 1a 3e 1f 1f 27 be
       0.19491538 -0.09773193 0.1508446 -0.16320466
0001c0 97 a0 81 3e 23 d0 b7 3e 43 91 4e 3e ef 6f 3b 3e
       0.25317833 0.35900983 0.201726 0.18304418
0001d0 64 90 3e bd 5d 66 da bd 39 85 cf 3d 34 22 ff 3d
       -0.04652442 -0.106640555 0.10132832 0.124576956
0001e0 2e b9 eb bd 76 00 0e be c6 8d 89 bd c2 cd 87 be
       -0.115099296 -0.13867363 -0.06716494 -0.26524168
0001f0 ca 6f b0 be e0 13 2a be 4b 79 df be c3 6c 8b 3e
       -0.34460288 -0.16609144 -0.43647227 0.27231416
000200 ba e5 4f 3c 20 38 1e bc cc 5b b3 be 4f d2 83 be
       0.012689048 -0.009656936 -0.35030973 -0.2574639
000210 19 ef 9c bd d6 da a1 be 78 64 a0 be 33 7e 2c 3d
       -0.07662792 -0.3161227 -0.31326652 0.04211254
000220 57 09 63 3a 80 21 1b 3e b9 e1 33 3e b6 fd 5b be
       0.00086607545 0.15149498 0.17566575 -0.21483502
000230 5b c3 fd bd b2 a7 c2 be 78 c8 68 bd c0 a0 3b 3e
       -0.12390777 -0.38018566 -0.056831807 0.1832304
000240 df 7d 5b 3e 58 59 83 3e a9 19 67 3e bd 9c dc be
       0.21434735 0.256541 0.22568382 -0.43088332
000250 65 75 85 3e fe dc 84 3c 04 d7 53 3e 1b f1 b9 3d
       0.26066127 0.016218659 0.2068749 0.0907919
000260 ec cc e9 bd f4 4b 00 3e 2e c1 b5 3e 91 19 77 be
       -0.11416039 0.12528974 0.35498947 -0.24130847
000270 12 3e ea 3c 78 8e 74 bd 2c 60 17 3d f0 bb 60 be
       0.02859405 -0.05970618 0.03695695 -0.21946692
000280 8a 6c 2e be ca f0 bf bd 6d 1b 16 3d 8a a2 ab bd
       -0.17033592 -0.09372099 0.03664725 -0.08380611
000290 7a af 01 3f 91 0c c4 3e 38 11 e7 bc d7 cc 98 3d
       0.5065838 0.38290837 -0.028206453 0.07460945
0002a0 e5 cf ce bd a6 f1 09 3d 31 f6 d6 be a2 32 89 3d
       -0.100982465 0.03367772 -0.41984704 0.066991106
0002b0 47 0b 98 be 08 6f 11 3e e5 a1 3a be f5 c4 27 3e
       -0.29696104 0.14202511 -0.1822582 0.16383727
0002c0 15 3a 06 be 4d d9 42 3e 80 c3 3a 3e 39 4a 85 3d
       -0.13108094 0.19028206 0.1823864 0.065082975
0002d0 f2 6f f0 bc a9 3f 8c 3d 10 40 87 3b ac 1d 21 3e
       -0.029350255 0.0684808 0.00412751 0.15733975
0002e0 dc 44 14 be 00 30 cd 3d 70 5d 52 bd 2f a0 dc be
       -0.14479393 0.10018921 -0.05135864 -0.4309096
0002f0 d3 8f 9c 3a 9b ef d9 3c 84 5e 00 3e 0f 64 25 bd
       0.0011944718 0.02660351 0.12536055 -0.040378626
000300 2c 34 fc 3d 30 af e9 bd d5 68 dc 3e b2 bb c3 be
       0.123146385 -0.114103675 0.4304873 -0.38229138
000310 5d a5 36 3e 90 c1 8e 3e de fe ed bd 83 43 a6 3e
       0.17836519 0.2788205 -0.11620878 0.32473382
000320 47 b8 88 be d0 47 84 bd df 77 77 be 22 98 0c 3d
       -0.26703092 -0.0645901 -0.24166821 0.034324773
000330 f8 2f 05 3d 64 14 1b 3e 42 73 5b be 3a 5d 0c 3f
       0.03251645 0.15144497 -0.21430686 0.5482975
000340 1b 39 9f be 66 45 f1 3e d6 8c 11 3e 95 52 b3 3d
       -0.31098256 0.4712326 0.14213881 0.08755986
000350 ce f7 8c 3e d3 b9 0f 3e f2 94 e4 3e 2c 85 a8 3d
       0.2753281 0.1403573 0.44644886 0.082285255
000360 bc 7b 7e 3c 95 05 2a 3e 34 68 66 3e 83 54 e8 be
       0.01553243 0.16603692 0.22500688 -0.45376977
000370 6c 10 d8 be 41 e5 a0 bd 52 2f 6d 3e 8e c4 a8 3e
       -0.4220003 -0.07856227 0.23162583 0.3296246
000380 16 dc 38 3e 88 38 38 3c a5 54 b3 bd 3d 8d 97 bd
       0.18052706 0.011243947 -0.08756379 -0.07399986
000390 3e 9d 8a 3e 1b 96 ab bd 91 d7 86 bc 4c 67 8c bc
       0.2707309 -0.0837824 -0.016460212 -0.0171391
0003a0 22 be de bd 00 6a 4a 3e b3 ba a0 bd d0 87 c5 3c
       -0.10876109 0.19766998 -0.0784811 0.024112612
0003b0 60 f5 2c be ff 4f 99 3d af 65 15 3e 18 b3 28 3c
       -0.16890478 0.07485961 0.1458957 0.0102966055
0003c0 4f cd 51 3d fc 3e bd bd 16 89 30 bd 30 d9 a5 bd
       0.05122119 -0.09240529 -0.043099485 -0.08098066
0003d0 f5 e5 8d 3e 58 b0 88 3e a9 01 98 3d 95 54 94 3e
       0.27714506 0.2669704 0.07422192 0.2897078
0003e0 6a 5a f0 3d 0f 6e 8e be 36 0b 83 3b ea f5 18 be
       0.11735995 -0.27818343 0.003999139 -0.14937559
0003f0 77 42 2a be d2 45 b0 bd 15 5d 6d bd 06 85 27 be
       -0.16626917 -0.08607067 -0.057950098 -0.16359338

network_body._body_endoder.seq_layers.2.bias f4 [128]
000000 8d c6 f7 bc 56 f5 30 bd 95 d4 48 bd 7d a1 a4 bd
       -0.030246044 -0.04320272 -0.04903086 -0.08038614
000010 7b 27 79 3d 38 4e a8 bc d4 8a a5 bc 9b 46 84 bd
       0.060828667 -0.02054511 -0.0202078 -0.064587794
000020 44 11 06 bd 1c 67 02 3d 13 fe 90 bc 90 e2 54 bd
       -0.03273131 0.031836614 -0.017699277 -0.05197388
000030 ab 45 17 bb 55 18 e6 bc fd 1c 2c bd 93 f4 36 bc
       -0.0023082297 -0.028087774 -0.042019833 -0.0111667095
000040 bc fc a2 bd 84 ee 82 bd 5a 6d 5a bd 61 ff bb bc
       -0.079583615 -0.063931495 -0.053326942 -0.022948923
000050 ed 75 de bc f0 90 82 bd 18 58 1a 3d fe 53 9c 3c
       -0.02715584 -0.06375301 0.03768167 0.01908302
000060 ae e5 b0 bd f0 76 95 bc 45 47 fb 3b 29 2e 3c 3c
       -0.08637558 -0.01824519 0.007668408 0.011485615
000070 b3 a7 98 bd 7a d0 9f bd fd 24 8e 3d dc ca 1c bd
       -0.07453861 -0.078034356 0.06940649 -0.0382794
000080 7e d3 07 bd 2c ca 11 bd 7b e3 0a bd 12 27 5c bc
       -0.03316068 -0.035593197 -0.03390835 -0.013437049
000090 10 73 2f bc 35 24 96 bd ac c5 57 bc e9 4d 9e bb
       -0.010708585 -0.07331125 -0.013169687 -0.004831065
0000a0 b2 e2 9f bb 6a 1e 21 bb f4 c6 8b bd e3 77 c2 3a
       -0.004879319 -0.0024584779 -0.06825057 0.0014836754
0000b0 25 8a 28 3d 94 43 5b 3a ed 54 a1 3b 50 07 c9 ba
       0.04114737 0.0008364257 0.004923454 -0.0015337262
0000c0 3c 4f 15 3d 09 b6 7e bd 77 74 c8 bb fc 67 6f 3d
       0.036452517 -0.06218532 -0.0061173993 0.058448777
0000d0 f4 1a a1 bb 4a 1b 9a bd 01 af 14 bd 95 f5 20 bd
       -0.004916543 -0.07524736 -0.03629971 -0.039296705
0000e0 e8 90 56 bb 96 6f 95 3d cf 47 f8 bb f1 0a 2e 3c
       -0.003274018 0.07296674 -0.0075769196 0.010622726
0000f0 a6 16 a7 bd 56 eb 25 bd da e7 d5 bb 1c 07 9f 3c
       -0.08158617 -0.040507637 -0.006527883 0.01941257
000100 3c 4d 61 bc b8 ab ea bb 3e 1a 5f bd b5 62 99 3a
       -0.013751324 -0.0071615838 -0.054468386 0.0011702391
000110 f5 77 74 3d 29 16 b3 bc ec c5 cc bc 8e 99 17 3b
       0.059684712 -0.021861153 -0.02499672 0.0023132297
000120 76 59 56 bd 52 ce 78 bd 78 9c 2a bd 88 c7 8c bc
       -0.05233141 -0.060743637 -0.041653126 -0.017184988
000130 f8 6f 9b bd 36 d4 50 bc de 73 9a bd 54 09 07 3c
       -0.07589716 -0.0127459075 -0.07541631 0.00824197
000140 d3 e4 e1 3c d0 f5 f9 bc 1a 6e 6b bc ca 8d 9a bd
       0.027574932 -0.03051272 -0.014369512 -0.07546575
000150 19 51 19 bd 1e dd 13 bd 02 75 25 bd 69 3a 1f bd
       -0.037430856 -0.036099546 -0.04039479 -0.038874064
000160 01 4b d0 bc 3f 88 6a bc 7a c7 dd bb c8 82 33 bd
       -0.02542639 -0.01431471 -0.006768164 -0.043825895
000170 a3 52 1b 3c 58 d8 2e 3d 9a 88 a7 3c 1b 4f 8c bd
       0.009480151 0.04268679 0.020450879 -0.06851026
000180 74 f1 4f bd df 8e cf bc f8 3f 99 ba ea a4 95 3c
       -0.050767377 -0.025336681 -0.0011692038 0.018267114
000190 6a 10 8e bd 67 34 56 bd 78 b0 b3 bd c2 35 7d bd
       -0.069367245 -0.05229607 -0.08773893 -0.061818846
0001a0 29 0c 66 bd d0 68 bd bc 70 c0 1b 3c 7b ea 93 bd
       -0.05616394 -0.023121268 0.00950633 -0.07222458
0001b0 83 f7 70 3d 40 cd 11 bd 26 59 02 3d 89 8b 52 bd
       0.058829796 -0.035596132 0.0318233 -0.051402602
0001c0 2e af 04 3b 69 65 5f bc 30 eb 3c 3c 3b e1 87 bc
       0.0020246017 -0.013635018 0.011530682 -0.01658689
0001d0 9a fe e7 bc 22 ee 4e 39 8b 0a a4 bb 1d c4 39 bc
       -0.028319646 0.00019734402 -0.0050061396 -0.011338261
0001e0 48 b4 9c 3c d9 45 7e bd 9d 7f 7b bd 90 25 2f 3d
       0.019128934 -0.06207833 -0.061401 0.04276043
0001f0 38 92 ef bc c6 2a bb bc e8 7e 36 bd 25 ee a8 bd
       -0.029244527 -0.022847544 -0.04455462 -0.082485475

network_body._body_endoder.seq_layers.2.weight f4 [128, 128]
000000 fc 4d e4 3d e1 9e ad bd 72 48 59 3d d5 72 c2 3d
       0.11147687 -0.08477569 0.053047605 0.09494559
000010 40 93 7f 3d 9a 0b ca 3d 39 b6 27 3d 0f 70 67 3c
       0.062396288 0.09865494 0.040945265 0.014125838
000020 08 64 2a 3e a9 76 89 3d 22 ee ed bd 04 ae 4c 3d
       0.16639721 0.06712086 -0.11617686 0.04997064
000030 66 1e 65 3d 5b 64 5a 3b c9 fa 9c 3c 76 b5 8c bd
       0.055937193 0.0033323977 0.019162552 -0.068705484
000040 c7 d6 0d 3e 1d 73 2d 3d 40 2a 0e 3e 69 3e 17 bd
       0.13851462 0.04234611 0.13883305 -0.036924753
000050 fd df 9d 3d 00 5e 28 bd 71 82 0d bc cd d9 31 bc
       0.07708738 -0.04110527 -0.008637057 -0.01085515
000060 b2 73 2b be 6a e7 d1 3d 2c 12 7b bd bc 80 33 3d
       -0.16743353 0.10249217 -0.061296627 0.043823943
000070 27 14 eb bd aa 96 09 3e 4b 2b 1e be 91 51 4e 3e
       -0.11478453 0.1343638 -0.15446202 0.20148303
000080 8f 37 a4 bd 99 08 ab 3d 88 df a0 bd de a2 bd 3d
       -0.080184095 0.08351249 -0.07855135 0.0925958
000090 8d 84 55 3e 3c e2 00 3d 6c b6 84 bd 68 5f 14 3d
       0.20851345 0.031465754 -0.06480107 0.0362238
0000a0 3b 7d 8c bc 5f eb 0e bc 0b a0 46 be a0 84 0b 3d
       -0.017149558 -0.008723109 -0.19396989 0.034062028
0000b0 60 e3 d9 bc 33 35 a4 3d 23 62 ab bd 1e 3e a8 3d
       -0.026597679 0.080179594 -0.083683275 0.08214973
0000c0 c0 23 a3 3d 50 ed bb bd 0b ce 8f 3d 84 cf b3 3e
       0.07965803 -0.09176123 0.070217215 0.3511926
0000d0 c9 4f 6a 3d d2 6c 55 3d 7c 0e 90 3d ac f3 fc bd
       0.057204995 0.052105732 0.07034013 -0.12351164
0000e0 06 21 01 3d fe fa b6 3b 49 e3 93 bc 44 58 23 be
       0.031525634 0.00558412 -0.018052714 -0.1595164
0000f0 d8 b7 96 3c b7 ad 1e bd 41 1d ca 3d 32 f5 fd 3b
       0.01839821 -0.038739886 0.09868861 0.007750177
000100 e2 99 08 be 63 b6 e3 3d 6f 78 3c bd e8 13 7f bc
       -0.13339952 0.11118772 -0.046013292 -0.015568711
000110 cf 94 9d bd 05 8f 07 3e 8c 35 53 3d d0 b9 85 3b
       -0.076943986 0.13238151 0.05156474 0.0040809885
000120 f6 3f 04 3d 40 a5 29 bd f7 bb dd 3c 0e 3d aa bd
       0.03228756 -0.04141736 0.027067168 -0.083124265
000130 8b 51 7a 3d 3c d5 ee bd be 0e b9 bd 70 a6 45 3c
       0.06111292 -0.11661765 -0.09036015 0.012063608
000140 3b 55 2b be ea 7b 91 3d ff fe 0f 3e 05 4d 46 3d
       -0.16731732 0.07103713 0.14062117 0.048413295
000150 eb d1 81 bd ab ed 3a bd 1c 62 d6 3d f1 9c ec bc
       -0.06338867 -0.045636814 0.10467932 -0.02888343
000160 59 5d 5f bd ba 32 ca 3d a1 c5 9a bd ae 21 37 3d
       -0.054532383 0.098729566 -0.07557226 0.044709854
000170 b5 78 1f 3e a5 9f 73 3d f1 0b 28 3d 9b 37 8d bc
       0.1557339 0.05947842 0.041027013 -0.017238429
000180 b6 54 ab bb a0 44 47 3c 3a 30 0d be 20 25 7b bc
       -0.005228604 0.012162358 -0.13787928 -0.0153286755
000190 d8 1b 9b 3d c8 f8 8c 3d 4b fb 84 3d 4a 1b 83 bb
       0.0757367 0.06883389 0.06493243 -0.004001056
0001a0 37 1a cd 3c 40 b6 98 bd d8 53 53 3e 8e 56 03 be
       0.025036914 -0.074566364 0.20637453 -0.12825987
0001b0 66 c8 05 3e 10 99 c6 bc fe 0c 19 3e 89 de 8d 3b
       0.13064727 -0.024242908 0.14946362 0.004329507
0001c0 6a 5c 58 3d 31 0d ea 3d d6 a0 c3 3d 54 d9 68 bd
       0.052822508 0.11428297 0.095521614 -0.056847885
0001d0 b7 53 41 bc 57 d1 cd bd d0 7d ba 3d 21 f9 fd bd
       -0.011799744 -0.10049694 0.09106028 -0.12401033
0001e0 52 e0 69 bd c2 db 61 3d c5 44 bf 3d c5 b7 35 bc
       -0.057098694 0.055141218 0.093392886 -0.011091177
0001f0 7f 1c 89 bd f8 0e aa bd 7d 1e 17 3d ce 1f c8 bd
       -0.06694888 -0.08303636 0.03689431 -0.09771691
000200 8a 46 cf bd 46 7b 6c 3c df 68 01 be ae 6d ec 3d
       -0.10120876 0.014433688 -0.12637661 0.11544357
000210 c7 1d 3f be 31 35 03 bd f5 7b da 3d e0 1e 0f be
       -0.18663703 -0.03203315 0.10668174 -0.13976622
000220 6b d9 16 bd c2 6d ad bd fb 7f 85 bd a8 a9 8a 3d
       -0.03682844 -0.084682 -0.06518551 0.067706406
000230 ad e5 27 bc 81 29 27 be 48 3b f2 bd b9 90 17 be
       -0.01024763 -0.16324426 -0.11827713 -0.14801301
000240 48 c9 2a 3e d4 af b2 3d 9f bc 40 3d 6f 8e 7a 3e
       0.16678345 0.08724943 0.047054883 0.24468397
000250 50 53 2c 3d 53 91 00 3e 2a 5f 40 bd 91 74 54 be
       0.04207164 0.12555437 -0.046965756 -0.20747592
000260 c1 73 31 3d 4f 2c 49 3d 80 16 4e be 95 20 a6 3d
       0.043323282 0.04911452 -0.2012577 0.08111683
000270 98 6f f9 3d f6 cd 6e bd 1a 44 e8 bc 99 8c a0 bd
       0.12179488 -0.05830189 -0.028352786 -0.07839317
000280 51 d2 8c bc a7 2d 67 3d 06 05 99 3d 97 b7 0d be
       -0.01719013 0.05644002 0.07471661 -0.13839565
000290 3d 06 fa bd e0 9a ca bb 20 d1 13 bd ef c7 19 be
       -0.12208221 -0.0061830133 -0.03608811 -0.15017675
0002a0 d5 5c c0 3c 8f 6a 63 3e a3 5e 35 bd c3 9b 90 3c
       0.023481766 0.22208618 -0.044279706 0.017652398
0002b0 63 62 10 be 2d 11 fc 3c dc 20 67 bd b0 cc 8e 3d
       -0.14100032 0.030769909 -0.05642782 0.06972635
0002c0 ad ba 19 3d e7 af 36 3e 08 65 18 3a db d4 d6 3d
       0.037531544 0.17840539 0.00058133947 0.10489818
0002d0 39 82 1f 3e 5a 6b f8 bd 65 0e 7f bd 36 ac 0f bc
       0.1557702 -0.12129851 -0.062269587 -0.008769086
0002e0 ae 3d 3e bc ac 04 ce 3d 55 d6 27 be 38 9e 03 bd
       -0.011611385 0.10059485 -0.16390355 -0.03213331
0002f0 47 47 e5 bd 7f 0b 17 3d da 7a b2 bd 59 8b fe 3a
       -0.11195236 0.036876198 -0.08714838 0.0019420191
000300 0c 30 6d 3b d6 b0 81 be 89 24 17 be a9 1c 85 bc
       0.0036191968 -0.25330228 -0.14760031 -0.016249018
000310 40 6b ac 3b 56 cb 25 3d 56 2d f0 3d 02 fa f7 3c
       0.0052618086 0.04047712 0.11727397 0.03027058
000320 a7 31 df 3d 5f 61 53 bc 70 bf 42 3d a5 41 89 b9
       0.10898142 -0.012901633 0.04754585 -0.00026179585
000330 01 a3 c0 bd 2b 65 ac bd 86 49 b4 bd bd 63 e7 bd
       -0.094060905 -0.08417734 -0.08803086 -0.112983204
000340 98 5e 63 3d 3a 71 cd 3c a4 df 27 3c 87 c9 27 3d
       0.055510134 0.025078405 0.010246191 0.040963676
000350 ff 7e 68 3d d3 50 9e bc 1e ed 47 3d 2c ee 06 3d
       0.056761738 -0.01932565 0.048810117 0.032941982
000360 77 c8 64 be 05 c0 f7 bb 56 c9 17 3b dc c9 15 be
       -0.22342096 -0.0075607323 0.0023160777 -0.14627784
000370 70 75 b9 3c ab a2 0f be c7 45 b7 3c 83 80 97 3c
       0.022639006 -0.14026897 0.02237214 0.018493896
000380 f4 20 01 be e3 88 98 be 7d 0f 07 3e b2 8a ad 3c
       -0.12610227 -0.29791936 0.13189502 0.0211843
000390 d2 0c 94 3d ea 8b fe 3d bf cb 8c bc 39 92 20 be
       0.07229008 0.1242903 -0.017186997 -0.1568078
0003a0 f4 74 80 3d 14 49 32 be 2c 85 33 3d 2a 75 65 bd
       0.06272307 -0.1741069 0.043828174 -0.05601994
0003b0 c4 ff 86 bd cb f9 ab 3d 34 d4 f4 3c 2d 91 a8 3d
       -0.06591752 0.083972536 0.029886343 0.08230815
0003c0 48 53 11 be 70 6a 9c be 4f 88 3b be b5 d3 08 3c
       -0.14191926 -0.30549955 -0.18313716 0.008351256
0003d0 05 2a 01 bd fd 42 4a 3d c3 d0 4a bb 74 b5 21 3e
       -0.031534214 0.04938029 -0.0030947186 0.15791875
0003e0 40 c2 09 3e 7b 97 39 be 88 bc 1c 3d 3a 69 85 be
       0.13453007 -0.18124191 0.038265735 -0.26056844
0003f0 cb 42 27 be ef 20 27 be ce 6c de bd 2b 1e 3e bd
       -0.16334073 -0.16321157 -0.108605966 -0.04641549
