AIRocketLanding/results/AIRocket4/AIRocket/AIRocket-1499970.pt (torch, 505871 bytes, 42 tensors)

network_body._body_endoder.seq_layers.0.weight f4 [128, 26]
0	0x3e991734	0.29900515
1	0xbe39af27	-0.18133222
2	0xbea8d57a	-0.3297537
3	0xbe873634	-0.2640854
4	0xbeba81ba	-0.364271
5	0xbd700764	-0.0586008
6	0x3e84786e	0.2587313
7	0x3dea5f01	0.11443902
8	0xbdf2663b	-0.11835905
9	0xbca9684d	-0.020679617
10	0xbe7ea705	-0.248684
11	0xbeaf3a8f	-0.34224364
12	0x3e4a1cec	0.19737595
13	0x3dacc88b	0.08436688
14	0xbdafe5d7	-0.0858876
15	0xbe5bd611	-0.21468379
16	0xbc538a6d	-0.012911421
17	0xbe2051ed	-0.15656252
18	0xbb9c2606	-0.004765275
19	0x3ded1ce5	0.11577777
20	0x3dd8c7b3	0.105849646
21	0x3eaf4bad	0.34237424
22	0x3e0b5afd	0.13608928
23	0x3e277d31	0.1635635
24	0xbead382d	-0.3383192
25	0xbd46dd77	-0.04855105
26	0x3cf864f4	0.030321576
27	0xbc7a31f6	-0.015270701
28	0xbe4c2588	-0.19936192
29	0x3e01cd46	0.12675962
30	0x3d9eaf80	0.07748318
31	0x3dcfc628	0.10145217
32	0xbea95ddd	-0.33079425
33	0x3d1517d9	0.036399696
34	0xbe62d6cd	-0.22152252
35	0xbd5e8f95	-0.05433615
36	0x3e373b17	0.17893635
37	0x3e543074	0.20721608
38	0xbe90d09e	-0.28284162
39	0xbea865ca	-0.3289016
40	0xbe4329b4	-0.19058877
41	0xbe88d5a5	-0.26725498
42	0xbeb388b8	-0.35065246
43	0x3d878875	0.06617824
44	0xbe63772b	-0.22213428
45	0x3eb78cfa	0.35849744
46	0x3dad07d4	0.08448759
47	0x3d968f28	0.07351524
48	0xbe967742	-0.29387861
49	0xbf029dbe	-0.51021945
50	0x3db11e31	0.08648337
51	0x3dd3e98e	0.103472814
52	0x3ed0c3c9	0.40774372
53	0xbe20aaf0	-0.15690207
54	0xbf0bc740	-0.54600906
55	0xbed654f5	-0.41861692
56	0xbccc7c10	-0.024961501
57	0xbe9e6abc	-0.30940807
58	0x3ded736b	0.1159428
59	0x3da1db78	0.079031885
60	0x3d19ef11	0.037581507
61	0xbc1717bb	-0.009221966
62	0x3da5eacd	0.08101425
63	0xbe1896b4	-0.14901239
64	0xbe307b73	-0.17234592
65	0xbe6a22c0	-0.22864819
66	0xbe95332a	-0.29140598
67	0xbded9359	-0.1160037
68	0x3e917cd5	0.28415552
69	0xbdd1c1fa	-0.10242076
70	0x3e148e0e	0.14507315
71	0x3e62a1f4	0.22132093
72	0xbe8dc9cf	-0.2769303
73	0xbe8ebbd6	-0.27877682
74	0x3e538c5f	0.20659016
75	0x3b7511e4	0.0037394697
76	0xbcd4255d	-0.025896722
77	0x3c2a9a74	0.010412801
78	0xbe6fd988	-0.23422825
79	0xbdf222a1	-0.11823011
80	0x3e182461	0.14857627
81	0x3d8e1edb	0.06939479
82	0x3e56bdf5	0.209709
83	0x3e88b905	0.2670366
84	0x3e07fa9b	0.13279192
85	0x3e58bce1	0.21165802
86	0xbd099b0a	-0.033595122
87	0x3d168b08	0.036753684
88	0x3da39aca	0.07988508
89	0xbe759f36	-0.23986515
90	0xbd1f4992	-0.03888852
91	0xbd3adf97	-0.04562339
92	0xbe8d7e25	-0.27635303
93	0x3ddc2b90	0.107504964
94	0xbbca120a	-0.006166701
95	0xbed99424	-0.42495835
96	0xbea8d746	-0.3297674
97	0xbe9c3b07	-0.30513784
98	0xbca1dcc9	-0.019758599
99	0xbd54a546	-0.05191543
100	0xbdf92864	-0.12165907
101	0x3e065333	0.13117675
102	0x3eb55cef	0.35422465
103	0x3e2e23bf	0.17005824
104	0x3e653723	0.22384314
105	0x3d47f1e9	0.048814688
106	0x3db1d97c	0.0868406
107	0x3dc8d488	0.09806162
108	0x3dfaa58e	0.12238608
109	0xbe616c1d	-0.22013898
110	0xbe0e3970	-0.13889098
111	0xbbfb779a	-0.0076741697
112	0x3ed095a3	0.40739164
113	0x3e0a4b73	0.13505344
114	0x3d547878	0.0518727
115	0xbdd962bc	-0.10614535
116	0x3e20215b	0.15637724
117	0xbebefed7	-0.37303802
118	0xbca0f847	-0.019649638
119	0xbd86a3ad	-0.065741874
120	0xbe8f1503	-0.27945718
121	0x3e73f456	0.23823676
122	0xbca1fbc2	-0.019773368
123	0xbd085914	-0.033288077
124	0xbdd87c83	-0.10570624
125	0x3e22e780	0.15908623
126	0xbda1d689	-0.079022475
127	0xbe1b5b16	-0.15171465
128	0x3ea28e9b	0.31749424
129	0xbe04a41f	-0.12953232
130	0x3eae3949	0.3402808
131	0xbebedd5d	-0.37278262
132	0xbdf178ee	-0.11790644
133	0x3ddbc8fa	0.107316926
134	0xbc7db7bb	-0.015485699
135	0xbccf63e3	-0.025316184
136	0x3dd160fc	0.102235764
137	0x3e11de1d	0.14244886
138	0xbe7c3a1a	-0.24631539
139	0xbc172501	-0.009225131
140	0xbd92faf4	-0.07176772
141	0x3c0d51d0	0.008625463
142	0x3cbd8bf4	0.023138024
143	0x3e70da67	0.23520814
144	0xbecf827f	-0.40529248
145	0xbe8f897d	-0.28034583
146	0x3d372c91	0.044720236
147	0x3e4d647f	0.20057867
148	0xbdff6b53	-0.12471642
149	0xbdbcfcce	-0.09227906
150	0x3d9e4881	0.07728673
151	0xbb8d5ed7	-0.0043142843
152	0xbdb73dd4	-0.0894734
153	0xbe300516	-0.1718944
154	0xbe494b56	-0.19657645
155	0xbdc401dc	-0.09570667
156	0xbd3ea175	-0.046540696
157	0xbd87885d	-0.06617806
158	0x3eee38cb	0.46527705
159	0x3dcfb0ce	0.10141145
160	0x3dae4667	0.08509522
161	0xbdbd3fe5	-0.092407025
162	0x3ec5763e	0.38566774
163	0x3c676014	0.014122028
164	0xbebe4d6f	-0.37168452
165	0x3cbac29c	0.022797875
166	0xbc929c95	-0.01789693
167	0xbda91463	-0.082558416
168	0xbdaf7fbe	-0.08569287
169	0xbec0acd8	-0.3763187
170	0x3d9eff63	0.07763555
171	0xbcc1c144	-0.023651727
172	0x3d801fa0	0.06256032
173	0xbe5d92c4	-0.21638018
174	0x3dcb7da4	0.099360734
175	0xbd677f7d	-0.056518067
176	0xbe45101f	-0.19244431
177	0xbd120758	-0.035651535
178	0x3d95022a	0.072758034
179	0xbd61f8da	-0.055168964
180	0x3e038324	0.12842995
181	0xbe5996ef	-0.21248983
182	0x3ebb400e	0.36572307
183	0xbecb02af	-0.39650485
184	0xbe78099b	-0.24222414
185	0xbda92234	-0.08258477
186	0x3d8b2f59	0.0679614
187	0xbef4a24f	-0.47780082
188	0xbe3f5277	-0.18683802
189	0x3c346899	0.011011266
190	0xbcd760f5	-0.02629135
191	0xbe45dc4e	-0.19322321
192	0x3e876925	0.26447406
193	0xbe25d858	-0.1619581
194	0xbdb10d1c	-0.086450785
195	0xbdae6d48	-0.085169375
196	0xbe4d8b4c	-0.20072669
197	0x3ec9f8b6	0.39447564
198	0xbda26aa1	-0.07930494
199	0x3e2303b5	0.15919383
200	0xbe505b99	-0.20347442
201	0x3e3f716b	0.1869561
202	0x3f16e91e	0.5894946
203	0xbdf58901	-0.11989022
204	0x3e98c58b	0.29838213
205	0xbe585ebd	-0.2112989
206	0xbe8e9e0f	-0.27854964
207	0x3d8e40e5	0.069459714
208	0xbddb33a9	-0.10703213
209	0x3f2a4326	0.6650871
210	0x3f0b3374	0.54375386
211	0xbcb52819	-0.022113847
212	0xbe42339f	-0.18965004
213	0xbe52e892	-0.20596531
214	0xbe9a6d35	-0.30161443
215	0x3e7a647e	0.24452397
216	0x3e6925f0	0.22768378
217	0x3e3d5b89	0.18491949
218	0x3e873249	0.26405552
219	0x3e3d8939	0.18509378
220	0x39fd59f1	0.00048322932
221	0x3e07d0f3	0.13263302
222	0x3f0faea2	0.56125844
223	0x3ebda68f	0.37041137
224	0x3d408c12	0.04700858
225	0x3d2b0ae0	0.041758418
226	0xbdd141cd	-0.10217629
227	0xbe82fe77	-0.25584766
228	0x3e8d54ba	0.27603704
229	0xbeb846f9	-0.35991648
230	0x3ef73595	0.48283067
231	0x3b26af69	0.0025434142
232	0xbe8012ee	-0.25014442
233	0xbd6a455b	-0.05719505
234	0x3e0bade8	0.13640559
235	0x3eaec0c3	0.3413144
236	0x3ed7102b	0.42004523
237	0xbdebbdec	-0.11510834
238	0xbe4aea01	-0.19815828
239	0x3bb5d9ff	0.005549669
240	0xbeb2d4a5	-0.3492786
241	0x3f21326c	0.6296756
242	0x3e3d7073	0.18499927
243	0x3c8f1134	0.017464258
244	0xbb587767	-0.0033030154
245	0xbe2f7ece	-0.17138216
246	0x3a2da75b	0.0006624364
247	0x3e9c533c	0.30532253
248	0x3bde5ed2	0.006786206
249	0x3de38b56	0.111105606
250	0x3df8310d	0.12118731
251	0x3d3203a1	0.043460492
252	0x3ecceb0a	0.4002307
253	0x3c730644	0.014833037
254	0x3e87a39b	0.2649201
255	0x3dc13bbe	0.09435223

network_body._body_endoder.seq_layers.0.bias f4 [128]
0	0x3b80a88d	0.003926343
1	0x3ba10ab5	0.0049146065
2	0xbbbb866a	-0.0057228105
3	0xbc485deb	-0.012229423
4	0xbd281125	-0.041031975
5	0x3ba9d633	0.0051830052
6	0xbd066d5a	-0.03281913
7	0xbcd8706a	-0.02642079
8	0x3df02902	0.117265716
9	0xbc9053b5	-0.01761804
10	0xbd2dc3ad	-0.04242294
11	0xbddcbd06	-0.10778241
12	0x3d03cb51	0.03217632
13	0xbb3d6d5c	-0.0028904295
14	0xbcb0bf0d	-0.021575475
15	0xbcd95305	-0.026528845
16	0xbbe93c95	-0.0071178176
17	0xbd096f24	-0.033553258
18	0x3b0e19d8	0.0021682885
19	0xbce04900	-0.02737856
20	0xbc0aacbf	-0.008464037
21	0x3c98c013	0.018646276
22	0x3d43ecb0	0.047833145
23	0x3a434354	0.00074486923
24	0xbd420546	-0.04736831
25	0xbd14f806	-0.036369346
26	0xbd8c1a19	-0.06840915
27	0x3c44839b	0.011994268
28	0x3bc616b9	0.006045189
29	0x3c3ad0c7	0.011402315
30	0x3d426273	0.04745717
31	0xbd848f47	-0.064726405
32	0xbd952f70	-0.072844386
33	0xbd4524e9	-0.048130903
34	0xbcd0da20	-0.025494635
35	0x3d9a4442	0.075325504
36	0xbca4f5eb	-0.020136794
37	0xbc9650dc	-0.018349104
38	0xbce0fe49	-0.027465003
39	0xbd2cc31c	-0.04217826
40	0xbd7f8445	-0.062382
41	0xbd05ee17	-0.032697763
42	0xbd416cc1	-0.047222856
43	0xbd0e6869	-0.034767542
44	0x3c8ee168	0.017441466
45	0xbd0e4c3c	-0.03474067
46	0xbc7ad309	-0.015309104
47	0xbc93b5ae	-0.018030968
48	0x3c06f772	0.0082377065
49	0x3cdf0113	0.027222192
50	0x3d1b2352	0.03787548
51	0xbcbf8745	-0.023379931
52	0xbb1fc8d2	-0.0024381173
53	0xbb827252	-0.003980913
54	0xbc8d2b74	-0.017232634
55	0xbbe46651	-0.006970205
56	0x3ce3f4d2	0.0278267
57	0xbcc7fdf7	-0.024413092
58	0xbd50f877	-0.051018205
59	0xbcb70b8f	-0.022344379
60	0xbbdc3bb5	-0.006720985
61	0xbc0b982b	-0.008520166
62	0x3cc1c3a7	0.023652865
63	0xbcdf6905	-0.027271757
64	0xbd5dc99b	-0.054147344
65	0xbc50f000	-0.012752533
66	0xbd606d95	-0.054792006
67	0xbd444b50	-0.047923386
68	0xbc81f02a	-0.01586159
69	0xbcfe156b	-0.031016072
70	0xbdb844df	-0.08997511
71	0xbde0bac2	-0.10973121
72	0x3d49357a	0.049123265
73	0xbc890ca7	-0.016729666
74	0x3bf7ce75	0.0075624534
75	0xbc8fbbbe	-0.017545577
76	0xbc522398	-0.012825869
77	0x3c37f621	0.011228115
78	0x3cca5190	0.024697095
79	0xbd8659d1	-0.065601
80	0xbd1de05a	-0.038544036
81	0xbc321351	-0.010868863
82	0xbc33ef2a	-0.010982314
83	0x3d3386ac	0.043829605
84	0xbd4880a2	-0.0489508
85	0x3d59aeaf	0.053145107
86	0xbd0572f3	-0.032580327
87	0x3d07281a	0.03299723
88	0x3c1c059b	0.009522821
89	0xbd6ea7c3	-0.05826546
90	0xbcbbc4e0	-0.022921026
91	0xbd4316f7	-0.047629323
92	0xbcbfb27f	-0.023400543
93	0xbd813c47	-0.06310325
94	0x3ce2f7ee	0.027706113
95	0xbb32ca88	-0.0027281363
96	0x3b80ec81	0.0039344435
97	0xbc111786	-0.008855706
98	0xbbee1fa1	-0.007266954
99	0xbcda9f64	-0.026687331
100	0xbcfe8ef7	-0.03107403
101	0x3be10d76	0.0068680597
102	0x3c2e20b8	0.010627918
103	0x3c506771	0.012719975
104	0x3d4eac98	0.050457567
105	0x3df13378	0.11777395
106	0x3cbe0076	0.02319358
107	0xbd422c19	-0.047405336
108	0xbb93c43e	-0.004509478
109	0xbb58155f	-0.0032971723
110	0x3c844a45	0.016148696
111	0x3d007ab2	0.03136701
112	0xbbf2b52a	-0.0074068503
113	0xbb88aeb7	-0.0041712183
114	0x3bdc047a	0.006714401
115	0x3bd2c79b	0.006432486
116	0xbda46170	-0.08026397
117	0xbb340505	-0.0027468812
118	0xbc9fb510	-0.019495517
119	0x3d115227	0.035478737
120	0x3cab5be1	0.020917835
121	0x3b3af70b	0.0028528597
122	0xbd48776d	-0.04894202
123	0xbd7bdf76	-0.061492406
124	0xbd5db148	-0.054124147
125	0x3bfe822e	0.0077669835
126	0xbc003a16	-0.007826349
127	0xbd518705	-0.051154155

network_body._body_endoder.seq_layers.2.weight f4 [128, 128]
0	0x3d8c15bc	0.06840083
1	0x3944621f	0.0001872857
2	0x36e9c524	6.9668913e-06
3	0x3bf22ad6	0.0073903603
4	0xbd19ee35	-0.037580688
5	0xbdc1fbe8	-0.094718754
6	0xbe0675f6	-0.13130936
7	0xbc60efd5	-0.013729055
8	0x3de3a082	0.11114599
9	0x3bf926de	0.0076035103
10	0xbca4d7cb	-0.02012243
11	0x3d29e630	0.04147929
12	0xbb95953f	-0.0045649107
13	0xbe0bc672	-0.1364992
14	0xbd45fbcb	-0.04833583
15	0x3c725ca2	0.014792593
16	0x3cd81c82	0.026380781
17	0xbbbb5eb9	-0.005718079
18	0x3c99c639	0.018771278
19	0x3dfe8080	0.12426853
20	0xbd0dbf48	-0.03460625
21	0xbe1958ae	-0.14975235
22	0xbe035974	-0.12827092
23	0xbc4994b1	-0.012303517
24	0x3e4a1e20	0.19738054
25	0xbe3fd0ba	-0.18731967
26	0xbc2e11c8	-0.010624357
27	0xbe179dd8	-0.14806306
28	0xbd088700	-0.03333187
29	0xbb524c84	-0.0032089064
30	0x3d7ecca7	0.06220689
31	0x3d2001db	0.03906427
32	0x3dcea8f2	0.100908175
33	0x3d07ceb8	0.033156127
34	0xbd085ad0	-0.03328973
35	0xbe220f6f	-0.158262
36	0xbc9fcde7	-0.019507362
37	0xbe6739c2	-0.22580627
38	0xbbee328c	-0.0072692093
39	0x3da4ec3b	0.0805287
40	0x3c9d6651	0.019213827
41	0x3e11c562	0.14235452
42	0xbcb97a2a	-0.02264126
43	0x3b321d2a	0.0027178028
44	0xbdab0cb1	-0.0835203
45	0x3dc4acc4	0.09603265
46	0x3d0750a9	0.033035908
47	0xbdcc48b8	-0.099748075
48	0xbd911dc8	-0.070857584
49	0xbd890e05	-0.06692127
50	0xbd9e7a51	-0.07738174
51	0xbd0a7e61	-0.03381193
52	0xbcee55bf	-0.029093621
53	0xbde1cea2	-0.1102574
54	0xbbaaa30f	-0.0052074264
55	0xbe03747b	-0.12837403
56	0xbd8f4c14	-0.069969326
57	0xbdc463fa	-0.095893815
58	0x3de064fa	0.1095676
59	0x3d7810a0	0.06056273
60	0x3c66ff56	0.014098963
61	0xbcb34570	-0.021883696
62	0x3d8281a3	0.063723825
63	0xbe2d431d	-0.16920133
64	0x3d1a2702	0.037634857
65	0x3d778c77	0.060436692
66	0xbd9e40b7	-0.07727187
67	0x3e23553c	0.15950483
68	0x3d85cffe	0.06533812
69	0x3dc4e20d	0.09613428
70	0x3dba461b	0.09095403
71	0xbc86ecac	-0.016470276
72	0xbc88b2cd	-0.016686821
73	0x3d93882e	0.072037086
74	0xbe627066	-0.22113189
75	0xbdc12594	-0.094309956
76	0xbcca8693	-0.024722373
77	0xbd43fe28	-0.047849804
78	0x3ceac2f3	0.028657412
79	0x3ba4e0cf	0.005031682
80	0xbe503c86	-0.20335588
81	0x3c837e2b	0.016051373
82	0x3e0b0c28	0.13578856
83	0xbcb02e34	-0.021506406
84	0xbd28d654	-0.041220024
85	0xbc9bfc58	-0.019041225
86	0x3d2cb771	0.04216713
87	0x3dd632e7	0.104589276
88	0xbd9ad24d	-0.07559643
89	0xbdbf14cc	-0.093301386
90	0x3c126cb2	0.008937048
91	0x3c56f934	0.013120938
92	0xbc50816a	-0.012726167
93	0xbdb9ddcc	-0.090755075
94	0x3ce06c63	0.027395433
95	0x3d097d7b	0.033566933
96	0xbd58b277	-0.052904572
97	0xbd302d7a	-0.04301212
98	0xbe21585f	-0.15756367
99	0x3dba0438	0.09082836
100	0xbccc2bee	-0.024923291
101	0xbe23800a	-0.15966812
102	0xbc928304	-0.017884739
103	0x3d0b059d	0.0339409
104	0x3d5abfb6	0.053405486
105	0xbc0392b4	-0.008030582
106	0xbe094f93	-0.13409261
107	0xbdc8fa64	-0.09813383
108	0x3dc2ce07	0.09511953
109	0xbe6b1d6d	-0.22960444
110	0x3d9597e5	0.07304362
111	0x3b5197fb	0.0031981457
112	0x3cb1f88b	0.02172496
113	0x3b0c71be	0.00214301
114	0x3c3e6407	0.011620528
115	0xbdcdef2e	-0.100553855
116	0xbde446e6	-0.11146335
117	0x3decab6f	0.11556136
118	0xbe039968	-0.12851489
119	0xbdb384c3	-0.08765557
120	0xbe002736	-0.12514958
121	0x3cee9e43	0.0291282
122	0xbd9e69b4	-0.07735005
123	0xbdeddd20	-0.11614442
124	0xbdbd32c7	-0.09238201
125	0xbda54ffb	-0.08071896
126	0xbd54755d	-0.05186974
127	0x3d7bf424	0.061512128
128	0xbe0e912a	-0.13922563
129	0xbaffdef0	-0.0019521397
130	0xbe114422	-0.14186147
131	0xbc4a7559	-0.012357079
132	0x3a803d5e	0.0009783914
133	0x3d88232b	0.06647333
134	0xba9fe4e1	-0.0012198949
135	0x3de197ff	0.11015319
136	0xbdf42344	-0.11920789
137	0x3d69accc	0.057049558
138	0x3e1b7100	0.15179825
139	0x3d87793d	0.06614921
140	0xbc939396	-0.01801471
141	0xbe3d7092	-0.18499973
142	0xbdef3d97	-0.11681669
143	0x3d840cb6	0.06447737
144	0x3d35304e	0.04423552
145	0xba8fae86	-0.0010962046
146	0x3d4b7be0	0.049678683
147	0x3d891c16	0.0669481
148	0xbd93aefc	-0.0721111
149	0x3d4716c8	0.04860571
150	0x3d5606e0	0.05225265
151	0x3cc80313	0.024415528
152	0x3d723436	0.059131823
153	0xbdee0b80	-0.11623287
154	0xbd1efc96	-0.038815103
155	0xbdadd5d7	-0.08488052
156	0xbc1a4920	-0.009416848
157	0xbc822eb1	-0.015891405
158	0xbd9d802e	-0.07690464
159	0xbd1e119a	-0.038591005
160	0xbe25a1f6	-0.16175064
161	0x3c9ac14d	0.018891001
162	0xbc3443ac	-0.011002462
163	0xbd71472e	-0.058905773
164	0x3d42c620	0.047552228
165	0xbd67d43b	-0.056598883
166	0xbd81b311	-0.06332982
167	0x3ddf7692	0.10911287
168	0x3d794e02	0.06086541
169	0xbdd8ab61	-0.10579563
170	0x3c6c45a5	0.014420901
171	0x3ca5ba8e	0.020230558
172	0x3b8cfece	0.004302836
173	0xbce585b5	-0.028017858
174	0x3d0655c9	0.032796655
175	0xbdb6b28c	-0.08920774
176	0xbd86c529	-0.06580574
177	0xbdb2b9ac	-0.0872682
178	0xbd60b128	-0.05485645
179	0xbd13e2dc	-0.03610502
180	0x3e4b905a	0.19879285
181	0x3dba5212	0.09097685
182	0xbc940ea7	-0.018073393
183	0x3d5817df	0.05275714
184	0x3c381979	0.011236542
185	0x3d68f235	0.05687161
186	0xbde6c603	-0.112682365
187	0xbd9927f0	-0.074783206
188	0x3d4eba38	0.05047056
189	0xbc9159ee	-0.017743077
190	0x3e0e7309	0.1391107
191	0xbcba5c94	-0.022749223
192	0x3c2e4ac7	0.0106379455
193	0x3cebe934	0.028797723
194	0x3d6760c6	0.056488775
195	0xbd9e4999	-0.077288814
196	0xbd71f7c4	-0.05907418
197	0xbdcdd17b	-0.10049721
198	0x3c01ab25	0.007914339
199	0x3c1c7537	0.009549431
200	0x3d08e37a	0.033420064
201	0xbe3359da	-0.17514744
202	0xbd27ed77	-0.04099795
203	0x3d5e0fc0	0.05421424
204	0x3d3139e2	0.043268092
205	0xbc65ed75	-0.014033665
206	0x3d49ef3c	0.049300417
207	0x3c70b0c2	0.01469058
208	0x3dde804d	0.10864315
209	0xbd74a561	-0.05972803
210	0x3dadb6a3	0.08482101
211	0x3d369030	0.0445711
212	0x3de13c63	0.10997846
213	0x3e335508	0.17512906
214	0x3b8c2e07	0.004277948
215	0xbdb4e9f6	-0.08833687
216	0xbd53f899	-0.051750753
217	0x3e05c454	0.13063174
218	0xbda95411	-0.082679875
219	0x3c0d2a09	0.008615979
220	0x3d18816e	0.03723281
221	0x3dd9450a	0.10608871
222	0xbe19b1e3	-0.15009265
223	0x3cefeca4	0.029287644
224	0xbd6eb1c9	-0.058275018
225	0xbd38512e	-0.044999294
226	0x3d96e839	0.07368512
227	0xbd190515	-0.037358362
228	0x3d24fd67	0.040280726
229	0x3a7e296b	0.0009695503
230	0xbdb835f8	-0.08994669
231	0x3d0ed27e	0.03486871
232	0xbd73d5a4	-0.059529915
233	0xbbd0ee68	-0.0063760765
234	0xbc782c9b	-0.0151473535
235	0x3d8062ce	0.062688455
236	0xbe2e6fcd	-0.17034836
237	0x3d2b5b30	0.04183501
238	0xbca1757b	-0.01970934
239	0xbbabddd8	-0.0052449517
240	0xbd474ce2	-0.048657306
241	0xbcef362d	-0.029200638
242	0xbcc6f0d4	-0.024284758
243	0xbcb372f9	-0.02190541
244	0xbd056a43	-0.032572042
245	0xbd9d5669	-0.07682497
246	0xbc8ffa0f	-0.017575292
247	0xbcadbfa8	-0.021209553
248	0xbd1ce399	-0.03830299
249	0xbc227e3f	-0.009917795
250	0xbcd6b682	-0.026210073
251	0xbdaa3f5d	-0.08312867
252	0x3dd54f6b	0.104155384
253	0xbd9d0680	-0.076672554
254	0xbb937edb	-0.0045012063
255	0x3e4cb05c	0.19989151

network_body._body_endoder.seq_layers.2.bias f4 [128]
0	0x3cda0942	0.026615743
1	0xbd77313f	-0.0603497
2	0xbbb01249	-0.0053732735
3	0xbd725996	-0.059167467
4	0xbd57e5e2	-0.052709468
5	0xbd1848bc	-0.03717874
6	0xbcc4f1ad	-0.024041021
7	0xbca9b088	-0.02071406
8	0x3bf2af8c	0.0074061807
9	0xbce52781	-0.027972938
10	0xbd608633	-0.054815482
11	0x3d2c1fd2	0.042022534
12	0xbc722a45	-0.014780586
13	0x3c2c6016	0.010520956
14	0xbd304112	-0.043030806
15	0xbcc8e0d3	-0.024521267
16	0xbd1e780d	-0.038688708
17	0xbd25190f	-0.0403071
18	0xbcfe71ab	-0.03106006
19	0xbd2b4b54	-0.041819885
20	0xbd2e1777	-0.042502847
21	0xbbdd686f	-0.006756834
22	0xbce56450	-0.028001934
23	0xbd3c1006	-0.04591372
24	0xbd99f0d1	-0.07516635
25	0xbccb4b72	-0.024816249
26	0xbc8a8d52	-0.01691309
27	0xbc2c9b43	-0.010535064
28	0xbcaf7c13	-0.021421468
29	0xbcaa4e6e	-0.020789351
30	0xbd80f323	-0.06296375
31	0xbc8c2152	-0.017105732
32	0xbcacfffa	-0.021118153
33	0xbcfa663a	-0.030566324
34	0xbcbfd913	-0.023418939
35	0xbcc13826	-0.023586344
36	0x3b5adb5e	0.0033394913
37	0xbbf4c847	-0.007470164
38	0x3c7d9534	0.015477467
39	0xbd6a964e	-0.057272248
40	0xbcec206a	-0.02882405
41	0xbcc075cc	-0.02349367
42	0xbd64cf63	-0.055861842
43	0xbcd52925	-0.026020596
44	0xbd4d4a9b	-0.050119977
45	0x3c16a03f	0.009193479
46	0xbd8eb365	-0.069678105
47	0xbba49347	-0.0050224396
48	0xbd60c735	-0.05487748
49	0xbcd3d96e	-0.025860514
50	0x3b6196b5	0.0034422104
51	0x3c31d132	0.010853099
52	0xbd3d0e0f	-0.046155985
53	0xbd1daceb	-0.038494986
54	0xbd83f833	-0.064438246
55	0xbc7469f5	-0.01491784
56	0xbd893053	-0.0669867
57	0xbd305827	-0.04305282
58	0x3a14832e	0.0005665299
59	0xbd13f804	-0.036125198
60	0x3cb29f34	0.02180443
61	0xbbdf14e6	-0.006807911
62	0x3bb0a049	0.005390201
63	0xbcd7cd76	-0.026343089
64	0x3aad6f27	0.0013231979
65	0x3b9c9a32	0.0047791237
66	0xbcecf4f5	-0.028925398
67	0xbc17791f	-0.009245186
68	0xbd163051	-0.036667172
69	0x3c0ccaaa	0.008593241
70	0x3c260dda	0.010135138
71	0xbc85442b	-0.016267857
72	0xbd894d3b	-0.06704184
73	0xbd39b399	-0.045337293
74	0x3b9b4abd	0.004739134
75	0xbce051ef	-0.027382819
76	0x3d8a28ec	0.067460865
77	0xbc5b92ee	-0.01340173
78	0x3cc8dbc4	0.024518855
79	0xbda52b5d	-0.080649115
80	0xbd1d1165	-0.038346667
81	0x3b22539f	0.002476908
82	0x3ca01226	0.019539904
83	0xbd4143dc	-0.047183856
84	0xbd54b2e4	-0.051928416
85	0xbd1aee06	-0.037824653
86	0x3c44c1b2	0.012009071
87	0x3d5ed3f6	0.05440136
88	0x3d57f40b	0.052722972
89	0xbd698464	-0.057011023
90	0x3b9a494b	0.0047084442
91	0xbd16d841	-0.03682733
92	0xbd0b2450	-0.033970177
93	0xbd5d1dfd	-0.053983677
94	0xbcd80f7e	-0.026374575
95	0x3cb18b14	0.021672763
96	0x3b6bc5c6	0.0035976036
97	0x3c7deaca	0.015497873
98	0x3cfb6a14	0.03069023
99	0x3af90cc3	0.0019000996
100	0x3c3ceaeb	0.011530618
101	0xbccd7d60	-0.025084198
102	0xbca0fcc5	-0.01965178
103	0xbc5a32ea	-0.013317803
104	0xbc4deacd	-0.012568188
105	0x3c5d1338	0.013493352
106	0x3c275829	0.01021389
107	0xbd517bea	-0.051143564
108	0xbb59293d	-0.0033136152
109	0xbd3891f9	-0.045061085
110	0xbd04f3a3	-0.032458913
111	0xbd3ba0b5	-0.04580756
112	0x3a3dacec	0.0007235545
113	0x3d7eabc8	0.062175542
114	0x3d3f4e35	0.046705443
115	0x3d1bee0d	0.03806882
116	0xbd44163a	-0.04787276
117	0xbcf77176	-0.03020547
118	0xbd0ab9ea	-0.033868708
119	0xbbf516bb	-0.0074795163
120	0xbd2714cc	-0.040791318
121	0x3bf4c514	0.0074697826
122	0xbd054d5e	-0.032544486
123	0xbd08bdba	-0.033384062
124	0xbda2267f	-0.07917499
125	0xbd1c6dea	-0.03819076
126	0xbd5b7162	-0.053574927
127	0xbca5a66a	-0.020220954

action_model._continuous_distribution.log_sigma f4 [1, 2]
0	0xbe6449ec	-0.22293824
1	0xbd9f0a82	-0.07765676

action_model._continuous_distribution.mu.weight f4 [2, 128]
0	0xbc4b8892	-0.012422698
1	0xbc1b5e5f	-0.009482949
2	0xbc329517	-0.010899804
3	0xbc8b161d	-0.016978318
4	0xbd319538	-0.043355197
5	0xbcd7cbd5	-0.026342312
6	0xbbd1104f	-0.006380118
7	0xbce473c8	-0.02788724
8	0xbc325352	-0.010884123
9	0xbcff9e95	-0.031203547
10	0xbc39e350	-0.011345699
11	0xbc973434	-0.01845751
12	0x3c320a83	0.010866764
13	0x3bb3fafd	0.0054925666
14	0xbb8bcd0e	-0.004266388
15	0xbd11bba3	-0.035579335
16	0xbccc4b28	-0.024938181
17	0x3c4fbdca	0.012679527
18	0xbc2574bc	-0.010098632
19	0xbb35ea44	-0.0027758041
20	0xbb754d9d	-0.0037430294
21	0x3c088861	0.0083332965
22	0xbb819956	-0.0039550466
23	0xbbbe9308	-0.0058158673
24	0xbc3851a1	-0.011249931
25	0x3c9efd88	0.019408002
26	0x3da67e85	0.081296004
27	0x3b7713f0	0.0037701093
28	0x3c05224a	0.008125851
29	0x3b8369e6	0.004010427
30	0xbcf1306d	-0.029442037
31	0x3d1a8c11	0.037731234
32	0xbc333ffb	-0.010940547
33	0xbb007662	-0.0019601812
34	0xbad231de	-0.001603659
35	0xbc887054	-0.016655125
36	0x3cf52337	0.029924018
37	0x3d2cc7c4	0.0421827
38	0xbb97418e	-0.004615969
39	0xbc3c7404	-0.01150227
40	0xbd2fe287	-0.042940643
41	0x3bfc3b28	0.0076974817
42	0xbb6fae0d	-0.0036572248
43	0x3cd5d849	0.02610411
44	0x3c81ef9d	0.015861327
45	0xbb9690d1	-0.0045949
46	0xbc0eea28	-0.008722819
47	0xb9f73d86	-0.0004715735
48	0xbc680149	-0.014160463
49	0xbc08ccd5	-0.008349617
50	0xbc0f01a7	-0.008728421
51	0xbc0691f4	-0.008213509
52	0xba829659	-0.000996302
53	0xb92ef4a2	-0.00016685066
54	0xbcaec107	-0.021332277
55	0xbbbfcca2	-0.0058532516
56	0xbbc596db	-0.0060299463
57	0x3bba3782	0.0056828866
58	0x3b5e4033	0.0033912777
59	0xbb65fc1a	-0.0035092891
60	0x3a305fe1	0.0006728154
61	0xbd4c073b	-0.049811583
62	0xbd05802e	-0.032592945
63	0xbcae0c42	-0.02124608
64	0x3ce21f67	0.027602864
65	0x3d5e1a5d	0.05422436
66	0x3c6e7c84	0.014556054
67	0xbd07f108	-0.03318885
68	0xbc7e84f9	-0.015534633
69	0x3c7c1155	0.015384992
70	0xbc8bac46	-0.01704992
71	0xbbb97a78	-0.0056603514
72	0xbba33ddb	-0.004981739
73	0xbd116b04	-0.03550245
74	0xbae38943	-0.0017359633
75	0xba6eb557	-0.0009106001
76	0xbbdbbe86	-0.006706062
77	0x3bc46109	0.005993013
78	0xbc66e6c6	-0.014093107
79	0xbaf1bf27	-0.0018443809
80	0x3c64b106	0.013958221
81	0xbc1187e8	-0.0088825
82	0x3c8e58c3	0.01737631
83	0xbc1736f6	-0.009229412
84	0xbc2cf9be	-0.01055759
85	0xbc240d07	-0.010012872
86	0xbc6ef6d5	-0.0145852165
87	0x3d284767	0.04108372
88	0xbd88cfa8	-0.06680232
89	0xbca2b22b	-0.019860348
90	0xbb70d792	-0.0036749584
91	0xbb9f8f6e	-0.004869393
92	0x3cca5d8c	0.02470281
93	0xbc0c171c	-0.008550432
94	0xbba56ba9	-0.0050482345
95	0xbcab5b3d	-0.02091753
96	0xbcf2d272	-0.029641364
97	0x3beb86ae	0.007187686
98	0x3bbb171e	0.005709543
99	0xbae6fddb	-0.0017623262
100	0x3c3433fc	0.010998722
101	0x3cbaf261	0.022820653
102	0xbc89f81d	-0.016841942
103	0x3c557215	0.013027688
104	0x3c756e4e	0.014979912
105	0xbc8a0382	-0.016847376
106	0x3cd605f4	0.026125886
107	0xbc76a835	-0.015054752
108	0x3c01b352	0.007916288
109	0x3bcba1eb	0.0062143705
110	0xbbb4c6ab	-0.005516847
111	0xbb5bda75	-0.0033546959
112	0xbb21ecc8	-0.0024707783
113	0xba04776b	-0.0005053195
114	0x3a5b7708	0.0008371924
115	0xbbf84957	-0.007577102
116	0xbcaae709	-0.02086212
117	0x3c0b1602	0.008489134
118	0xbc01565f	-0.007894128
119	0x3d1ea8ee	0.038735323
120	0xbc13e9af	-0.0090278825
121	0xbd11df76	-0.0356135
122	0x3c8b82ce	0.017030146
123	0x3c506085	0.012718325
124	0xbb732d84	-0.0037105987
125	0x3c1aafe8	0.009441353
126	0xbc0b4c0f	-0.0085020205
127	0x38a30cde	7.7748424e-05
128	0xbc9055b4	-0.017618991
129	0xbc92018c	-0.017823003
130	0x3c1ae2a0	0.009453446
131	0xbc33eb65	-0.010981415
132	0xbd1778be	-0.036980383
133	0xbca9d2d7	-0.02073042
134	0xbba37a67	-0.0049889567
135	0x39247d4f	0.0001568694
136	0x3bc306e8	0.005951751
137	0xbc96e3bd	-0.018419141
138	0xb9ed387f	-0.00045246255
139	0x3d774b9b	0.060374837
140	0x3a385276	0.00070313306
141	0xbb9f9464	-0.0048699845
142	0xbc74f687	-0.014951355
143	0xbcb31b63	-0.021863645
144	0xbc6f2f7e	-0.014598725
145	0xbc9dc442	-0.019258622
146	0xba92525e	-0.0011163463
147	0xbbb88b50	-0.0056318417
148	0xbbca05ea	-0.006165256
149	0x3c830ee1	0.015998306
150	0xba802c28	-0.0009778785
151	0xbc455f74	-0.012046684
152	0xbb30a8cf	-0.0026956087
153	0xbd25bde4	-0.040464297
154	0xbd46758c	-0.048451945
155	0xbb14b9f6	-0.002269385
156	0xbcfe68a2	-0.031055752
157	0x3ca882f5	0.020570258
158	0xbd050c92	-0.03248269
159	0xbc087daa	-0.008330742
160	0x3cfed79f	0.031108676
161	0x3be4c649	0.0069816452
162	0x3b880f9d	0.004152252
163	0xbc4c64d8	-0.012475215
164	0xbc09e89b	-0.008417274
165	0xbd902591	-0.07038415
166	0xba22e639	-0.00062141154
167	0xb911c160	-0.00013900315
168	0x3c87b692	0.016566548
169	0xbcb604a1	-0.022219004
170	0x3a783bc3	0.00094693544
171	0xbd046842	-0.03232599
172	0x3c585106	0.013202911
173	0x3ca9f2fd	0.020745749
174	0xbc5d8c20	-0.013522178
175	0xbbb0ae08	-0.00539184
176	0xbb654897	-0.0034985894
177	0xbb08da04	-0.00208819
178	0x3c8e114c	0.017342232
179	0x3d0a8b50	0.033824265
180	0xbbe732e7	-0.0070556286
181	0xbc95db07	-0.018292917
182	0xbc016726	-0.007898128
183	0x3c1fbf1f	0.009750157
184	0xbbcf33ee	-0.006323329
185	0x3ce08d13	0.02741102
186	0x3cd2e412	0.025743518
187	0xbc154c5e	-0.009112446
188	0xbd541d58	-0.051785797
189	0x3bff3cfe	0.0077892533
190	0xbd0497d6	-0.032371365
191	0xbbcb41a8	-0.006202895
192	0x3c8c02d5	0.017091194
193	0xbbf7455d	-0.0075461105
194	0xbc17d8a1	-0.009267957
195	0x3ccffe22	0.025389735
196	0xbc1fdd35	-0.00975733
197	0x3cb732fc	0.022363178
198	0x3c599737	0.013280681
199	0x3ac92f93	0.0015349261
200	0xbbed526a	-0.0072424905
201	0xbca37270	-0.019952029
202	0x3c121082	0.008915069
203	0x3b8518da	0.0040618004
204	0x3d4e523e	0.0503714
205	0x3b95c9b3	0.0045711636
206	0x3cdfb137	0.027306182
207	0xbc0b941e	-0.008519201
208	0x3cc9d85f	0.024639307
209	0x3bf33839	0.0074224737
210	0xbc5fcff1	-0.013660417
211	0xbaa03c33	-0.0012224972
212	0xbc02348f	-0.007947101
213	0xbb0b535f	-0.002125941
214	0xbbd96018	-0.0066337697
215	0x3d348af0	0.044077814
216	0xba27a528	-0.00063951546
217	0xbd1669f7	-0.03672215
218	0xbc45b2b7	-0.012066535
219	0x3bc6f188	0.0060712732
220	0xbd4f503d	-0.05061363
221	0xbc908bd4	-0.0176448
222	0xbc88291a	-0.016621161
223	0x3d07ea39	0.033182357
224	0xbcda3d52	-0.026640568
225	0x3c508065	0.012725924
226	0x3d23aba2	0.039958604
227	0x3b9163cc	0.0044369455
228	0x3c8a0bce	0.016851332
229	0x3a98f0f4	0.0011668489
230	0x3c4c9d97	0.012488744
231	0xbc946cf0	-0.018118352
232	0xba402539	-0.00073297654
233	0xbc2579c9	-0.010099837
234	0x3ce2b6a7	0.027674986
235	0xbd2070f5	-0.039170224
236	0x3bca60f6	0.0061761094
237	0xb92937a5	-0.00016137825
238	0xba4485a6	-0.0007496722
239	0xbc708ae4	-0.014681552
240	0x3d803501	0.0626011
241	0x3d467419	0.048450563
242	0x3d4a30db	0.049363
243	0x3d9d65bd	0.07685421
244	0x3b4386df	0.0029835028
245	0xbc60c0ee	-0.013717873
246	0xbc2c5eee	-0.01052068
247	0x3c570c61	0.01312551
248	0x3c471c79	0.0121527845
249	0x3c63dd14	0.01390769
250	0x3ab3c3d0	0.0013714973
251	0xbbb04d46	-0.0053803055
252	0xbc0da7e1	-0.0086459825
253	0xbd4eba8a	-0.050470866
254	0xbd581d12	-0.0527621
255	0xbbc09386	-0.005876961

action_model._continuous_distribution.mu.bias f4 [2]
0	0xbc6eb5b2	-0.014569687
1	0x3ceee6ed	0.029162848

action_model._discrete_distribution.branches.0.weight f4 [2, 128]
0	0x3d53f8cd	0.051750947
1	0x3b61f84f	0.003448028
2	0x3d65935d	0.05604874
3	0x3c2a5383	0.010395887
4	0x3b1a7495	0.0023568023
5	0x3cf1dec5	0.02952517
6	0xbc30f9a6	-0.010801708
7	0x3d3d9714	0.046286657
8	0x3cdf35e4	0.027247377
9	0x3d80624e	0.0626875
10	0x3d629ccf	0.055325326
11	0xbc01c749	-0.007921048
12	0xbd014210	-0.031557143
13	0x3d477b07	0.048701312
14	0x3c878af5	0.016545752
15	0x3d6196bc	0.055075392
16	0x3b7a9d1e	0.0038240622
17	0x3d13b5b8	0.036061972
18	0x3d1c2f97	0.038131323
19	0x3bff55ae	0.0077921962
20	0x3ca59b21	0.020215573
21	0xbc8c3d38	-0.017119035
22	0x3b1c1e8e	0.0023821923
23	0x3d0aee18	0.03391847
24	0x3d024f00	0.03181362
25	0x3caa181d	0.020763451
26	0x3ca34c61	0.019933881
27	0x3c8d4a62	0.017247383
28	0x3c9f8c31	0.019476028
29	0x3d02df7a	0.031951405
30	0x3c297e40	0.010345042
31	0x3d31d0de	0.043412082
32	0x3c7016ca	0.014653871
33	0x3c853e8f	0.016265182
34	0xbb6cdea8	-0.0036143456
35	0x3d4e8cdf	0.050427314
36	0xbcd45e4e	-0.025923874
37	0x3ccdbd88	0.02511479
38	0xb73c1add	-1.1211928e-05
39	0x3cb54f2a	0.022132475
40	0x3c91b77a	0.017787684
41	0x3ce1cc81	0.027563335
42	0x3d44ecd1	0.04807741
43	0x3ca3ab9c	0.01997929
44	0x3c15ff58	0.009155117
45	0x3d3e019d	0.046388257
46	0x3c40fd80	0.011779189
47	0xbcce9ce0	-0.025221288
48	0x3d1c4b8b	0.03815798
49	0x3d298024	0.04138197
50	0x3cf1b8ab	0.029507002
51	0x3d02256f	0.03177398
52	0x3c84b3fe	0.016199108
53	0x3bd7f6ff	0.0065907235
54	0x3d47556e	0.048665456
55	0xbc892418	-0.016740844
56	0x3c2d92a7	0.010594047
57	0xbae080c6	-0.0017128221
58	0xba987ab4	-0.0011633248
59	0x3b2a1180	0.0025950372
60	0x3b530b7f	0.0032202897
61	0x3d283f3d	0.041075934
62	0x3a15921b	0.00057056703
63	0x3d127ac5	0.035761613
64	0xbd4b5561	-0.04964197
65	0xbd37622d	-0.044771362
66	0x3d42910a	0.0475016
67	0x3d8e3966	0.06944542
68	0x3d3b117b	0.045670968
69	0x3cfbeac4	0.030751593
70	0x3d0bf07b	0.034164887
71	0xba511cc5	-0.0007977004
72	0x3c8f3aef	0.017484156
73	0x3d358ca6	0.044323586
74	0x3c0dfa5f	0.00866565
75	0xbc2656fd	-0.010152576
76	0x3cfbb02d	0.030723656
77	0x3d036485	0.032078285
78	0x3d34ac1f	0.04410946
79	0x3cbcd7a6	0.023052048
80	0x3cdb0fcd	0.026740933
81	0x3d4a5e7b	0.04940651
82	0x3c91bb7a	0.017789591
83	0x3d0974ee	0.03355878
84	0x3d067042	0.0328219
85	0x3ca76249	0.020432608
86	0x3c8157dd	0.015788967
87	0x3cbf7f73	0.023376202
88	0x3d1144c4	0.03546597
89	0x3cd31fc8	0.02577199
90	0x3be4b713	0.006979832
91	0x3d40f571	0.04710907
92	0x3c87fd9d	0.016600424
93	0x3d2a95f5	0.041646916
94	0x3d1a0391	0.037601057
95	0x3daa6645	0.083202876
96	0x3d159c37	0.03652593
97	0x3d1d6814	0.038429335
98	0x3d00fa2a	0.031488575
99	0xbc07e7d4	-0.008295018
100	0xbd410693	-0.04712541
101	0xbd190d9a	-0.037366487
102	0x3c89f610	0.016840965
103	0x3c648403	0.01394749
104	0x3d6832d5	0.056689102
105	0x3d5ad19b	0.05342255
106	0x3d35559d	0.0442711
107	0x3c88ee13	0.016715085
108	0x3c98f79b	0.018672755
109	0x3d195429	0.037433777
110	0x3ceb9236	0.028756242
111	0x3c9aeff2	0.018913243
112	0xbc904241	-0.017609717
113	0x3d521870	0.051292837
114	0xbb76b9e6	-0.0037647425
115	0x3daef911	0.085435994
116	0xb938c6d5	-0.00017621678
117	0x3d138ba7	0.036021855
118	0x3d85f6ed	0.06541238
119	0x3d415d05	0.04720785
120	0x3cce812f	0.025208084
121	0xbbfa5351	-0.0076393266
122	0x3d01e522	0.03171266
123	0x3bb5832d	0.005539319
124	0x3c2daff3	0.010601032
125	0x3d03bda9	0.032163296
126	0x3c65e233	0.014030981
127	0xbbc8f053	-0.0061321645
128	0xbd3ca0ae	-0.046051674
129	0xbcc91fd0	-0.024551302
130	0xbd4f2bc7	-0.05057886
131	0xbc2f730a	-0.01070858
132	0x3c0aa407	0.008461959
133	0xbd4af8a5	-0.049553532
134	0x3c14c74e	0.009080721
135	0xbd1312a3	-0.035906445
136	0xbd49612e	-0.049164943
137	0xbd68b83a	-0.056816317
138	0xbced96c8	-0.029002562
139	0xbabd5212	-0.0014444015
140	0x3cbce317	0.023057504
141	0xbd341c40	-0.043972254
142	0xbc973457	-0.018457575
143	0xbd3f12de	-0.046648853
144	0xbb45ee59	-0.003020188
145	0xbcdde241	-0.027085425
146	0xbd036f3e	-0.03208851
147	0xbc1d8afa	-0.009615654
148	0xbc03bbb4	-0.008040357
149	0x3cecd882	0.028911833
150	0xbcaabc87	-0.02084185
151	0xbcaa7eb8	-0.020812377
152	0xbc01d06f	-0.00792323
153	0xbc2e111e	-0.010624198
154	0x3c4480b2	0.011993574
155	0xbc838403	-0.016054159
156	0xbc58859d	-0.01321545
157	0xbc070751	-0.00824149
158	0xbcdb9087	-0.026802314
159	0xbd07e5d6	-0.033178173
160	0xbcdc15a4	-0.026865788
161	0x3bef243a	0.0072980197
162	0xbbb4b1b8	-0.00551435
163	0xbd576829	-0.05258957
164	0x3ca6fb38	0.020383462
165	0xbd2582ab	-0.040407818
166	0x3c1ec131	0.009689615
167	0xbd038f9d	-0.032119382
168	0x3b24bd08	0.0025137085
169	0xbc61d0e8	-0.013782717
170	0xbcffba33	-0.031216716
171	0xbca23a35	-0.019803146
172	0xbca0a675	-0.019610623
173	0xbcf88f3e	-0.03034174
174	0xbc9689be	-0.018376227
175	0x3c899aa6	0.016797375
176	0xbd515ff1	-0.051116887
177	0xbd3418bd	-0.043968905
178	0xbc061341	-0.008183301
179	0xbcd4bc6e	-0.025968757
180	0xbd11aac5	-0.03556325
181	0xbb9d3cf2	-0.004798525
182	0xbd34e757	-0.044165935
183	0x3cb90db1	0.022589536
184	0xbce183af	-0.027528612
185	0xbcf1290d	-0.02943852
186	0x3c970a18	0.01843743
187	0x3c5811b4	0.0131878145
188	0x3b7847cf	0.0037884598
189	0xbca08057	-0.019592447
190	0x3a89c24f	0.0010510179
191	0xbd090d0f	-0.03345972
192	0x3d583f0a	0.052794494
193	0x3cd151da	0.025551725
194	0xbd257e84	-0.040403858
195	0xbd49a234	-0.049226955
196	0xbca8b37e	-0.020593401
197	0xbce3c5db	-0.027804306
198	0xbd2f39d7	-0.04277977
199	0x3bbe8f7b	0.005815444
200	0x39b749fc	0.00034959603
201	0xbd1101df	-0.035402175
202	0x3c2ebef0	0.01066564
203	0x3b9749cb	0.004616951
204	0xbd22d127	-0.039750244
205	0xbcf40254	-0.029786266
206	0xbd29aff3	-0.041427564
207	0xbc8a6772	-0.01689503
208	0xbc6a0ae8	-0.014284827
209	0xbd59cc04	-0.05317308
210	0xbcc8ae4f	-0.02449718
211	0xbb6a3a28	-0.003574023
212	0xbd14469e	-0.03620016
213	0xbcda6dc1	-0.026663663
214	0xbc6d6823	-0.01449016
215	0xbc7eb17c	-0.015545245
216	0xbd61cc2d	-0.055126358
217	0xbd12abc9	-0.03580836
218	0xbc1e7455	-0.00967129
219	0xbcc75eb0	-0.024337143
220	0xbcc43017	-0.023948712
221	0xbd23c8af	-0.03998631
222	0xbd12923d	-0.035783995
223	0xbd9b573f	-0.07585
224	0xbd15580c	-0.03646092
225	0xbd3fa086	-0.046783946
226	0xbd291af8	-0.041285485
227	0xbbdf1a9d	-0.0068085925
228	0x3d3636c3	0.04448582
229	0x3d271915	0.040795404
230	0xbbb80c1d	-0.0056166784
231	0xbd0260c0	-0.03183055
232	0xbd503ad1	-0.05083734
233	0xbcf41192	-0.029793534
234	0xbcb8fd4b	-0.022581717
235	0xbd141835	-0.036155898
236	0xbbed2625	-0.007237213
237	0xbc74a6a0	-0.014932305
238	0xbc1b5195	-0.0094799
239	0xbc42806a	-0.011871437
240	0x3c2a6fbf	0.010402619
241	0xbd5c81aa	-0.053834595
242	0xbc63baf4	-0.013899554
243	0xbd8fccfc	-0.070215195
244	0xbbe674da	-0.0070329728
245	0xbc826dc6	-0.015921485
246	0xbd7b921d	-0.06141864
247	0xbd02dc18	-0.03194818
248	0xbcc250c3	-0.02372015
249	0xbb9f330c	-0.00485838
250	0xbd28958e	-0.04115825
251	0x3cc8c552	0.024508152
252	0xbc8afb1c	-0.016965441
253	0xbc94f1c4	-0.01818169
254	0xbb95e8f8	-0.004574891
255	0xbb9ade16	-0.0047261817

action_model._discrete_distribution.branches.0.bias f4 [2]
0	0xbd884180	-0.06653118
1	0x3d88417f	0.066531174

exp_avg f4 [128, 26]
0	0xb30cb9c0	-3.276523e-08
1	0xb56cd25f	-8.822298e-07
2	0x343af6bf	1.7412366e-07
3	0x2e17fc9f	3.4557798e-11
4	0x3013993b	5.369604e-10
5	0xaf2ec56f	-1.589535e-10
6	0x35a618fe	1.2375237e-06
7	0xb4bf6459	-3.5649535e-07
8	0x357aeb7c	9.347493e-07
9	0x365741b9	3.2075752e-06
10	0x35b9e2a1	1.3849532e-06
11	0xb703d926	-7.858767e-06
12	0x375357e3	1.2597043e-05
13	0xb30d4242	-3.2889382e-08
14	0xb52d765b	-6.461975e-07
15	0x3454a299	1.9803191e-07
16	0x2e57f79d	4.9105265e-11
17	0x3051bb52	7.6299955e-10
18	0xaf7857d2	-2.2586669e-10
19	0x358ef152	1.0650058e-06
20	0xb4c6ebe9	-3.705202e-07
21	0x3579802f	9.294626e-07
22	0x36686c82	3.4633854e-06
23	0x35a3b281	1.2196398e-06
24	0xb6edbf88	-7.0854476e-06
25	0x3755b19d	1.2737143e-05
26	0x355401e8	7.897893e-07
27	0xb74b1064	-1.2103559e-05
28	0x350be619	5.211637e-07
29	0xafd3beb9	-3.8516193e-10
30	0xb1cda19b	-5.9846577e-09
31	0x30f37ceb	1.7716081e-09
32	0xb7be25d8	-2.2667387e-05
33	0xb78a96b8	-1.6521066e-05
34	0x36c5db0f	5.8965593e-06
35	0x36e777b8	6.8982736e-06
36	0x367c1b18	3.7566697e-06
37	0xb89caa5a	-7.47039e-05
38	0xb8be4818	-9.0733345e-05
39	0x3554b056	7.9232757e-07
40	0xb74d6e34	-1.2244611e-05
41	0x3507fd2f	5.065985e-07
42	0xafd893b1	-3.9395112e-10
43	0xb1d252dd	-6.121225e-09
44	0x30f90b65	1.8120373e-09
45	0xb7bd432d	-2.2561837e-05
46	0xb78abb77	-1.6538177e-05
47	0x36c61ed6	5.9044496e-06
48	0x36dfca86	6.6694947e-06
49	0x35e09ccd	1.6734936e-06
50	0xb88c13a1	-6.6793764e-05
51	0xb8bb6153	-8.934983e-05
52	0x343ba148	1.7474406e-07
53	0xb6e4e5a3	-6.8216627e-06
54	0xb5152a68	-5.5568535e-07
55	0xae72b622	-5.5186196e-11
56	0xb06bb40b	-8.574836e-10
57	0x2f8b8c50	2.538365e-10
58	0xb62d939a	-2.5864924e-06
59	0xb67150b4	-3.5958774e-06
60	0xb5ac0fbf	-1.2819581e-06
61	0xb6ebcf39	-7.0276697e-06
62	0xb5c5274c	-1.4689081e-06
63	0x3806d005	3.2141823e-05
64	0x376b4afa	1.4024548e-05
65	0x343bbdd6	1.7484794e-07
66	0xb6ee565e	-7.103007e-06
67	0xb51c48c0	-5.8220394e-07
68	0xae9f2816	-7.2376036e-11
69	0xb09a8fbc	-1.1245826e-09
70	0x2fb7041f	3.3290434e-10
71	0xb61f1282	-2.370362e-06
72	0xb670e2cc	-3.58948e-06
73	0xb5ad6495	-1.2918778e-06
74	0xb6f6881d	-7.347217e-06
75	0xb607f2ab	-2.025782e-06
76	0x380917d9	3.2685555e-05
77	0x376763f2	1.3791943e-05
78	0xb58ede5b	-1.0644538e-06
79	0xb7376859	-1.0931945e-05
80	0x3646ce59	2.962441e-06
81	0xb115166d	-2.1695101e-09
82	0xb310c878	-3.3709938e-08
83	0x322b7003	9.9789785e-09
84	0x378f828f	1.7107724e-05
85	0x38165fcc	3.5852005e-05
86	0x377f5009	1.5217819e-05
87	0x38214b3c	3.845546e-05
88	0xb6e1a397	-6.724567e-06
89	0xb9c728f3	-0.00037986747
90	0xb9ef0d5b	-0.00045595583
91	0xb58f3589	-1.0669911e-06
92	0xb73bdb25	-1.1197092e-05
93	0x36457471	2.9423065e-06
94	0xb1166292	-2.1883904e-09
95	0xb3120b07	-3.4003303e-08
96	0x322cedf2	1.006582e-08
97	0x3791afc9	1.7367203e-05
98	0x38161bb0	3.5788573e-05
99	0x377fae85	1.5239818e-05
100	0x382070a7	3.825189e-05
101	0xb5dfa1b4	-1.6661857e-06
102	0xb9c6f9be	-0.00037951575
103	0xb9ef736d	-0.0004567163
104	0xb5987182	-1.1357918e-06
105	0x36bcd0d7	5.6271488e-06
106	0xb67bb5c1	-3.750771e-06
107	0x31577647	3.135385e-09
108	0x33513dbb	4.8717748e-08
109	0xb277c324	-1.4421662e-08
110	0x380c96a7	3.3518907e-05
111	0x36f93139	7.4265085e-06
112	0xb7a5adf2	-1.9750532e-05
113	0xb88ae625	-6.6232205e-05
114	0xb6c13af2	-5.7587104e-06
115	0x3a2e2a2b	0.0006643857
116	0x3a3afa9a	0.00071326795
117	0xb598a3db	-1.1372571e-06
118	0x36b6288b	5.4287425e-06
119	0xb67cecf5	-3.7688853e-06
120	0x3156d87a	3.1264151e-09
121	0x3350a47a	4.8578364e-08
122	0xb2770db1	-1.4380405e-08
123	0x380d2f21	3.3660912e-05
124	0x36fdff77	7.5697276e-06
125	0xb7a5e0a3	-1.9774137e-05
126	0xb88b0c4c	-6.630327e-05
127	0xb6a69ab5	-4.965196e-06
128	0x3a2caf41	0.0006587394
129	0x3a3a9bdb	0.0007118561
130	0x34bff8bb	3.5757498e-07
131	0x35a25dc4	1.209723e-06
132	0xb4bbc8dd	-3.4977612e-07
133	0xae9d5a5d	-7.155585e-11
134	0xb098cf4e	-1.1118375e-09
135	0x2fb4f128	3.291316e-10
136	0xb5c40d8f	-1.4607084e-06
137	0xb6aa6c69	-5.0790154e-06
138	0xb61e04ab	-2.3546552e-06
139	0xb7020fa3	-7.7522445e-06
140	0xb5a82456	-1.252755e-06
141	0x37749b47	1.4579687e-05
142	0x3629317a	2.5211762e-06
143	0x34bfba88	3.5712242e-07
144	0x358f4edc	1.0677281e-06
145	0xb4c33484	-3.635979e-07
146	0xaeb08d91	-8.0287006e-11
147	0xb0ab7496	-1.2475023e-09
148	0x2fcb052c	3.692916e-10
149	0xb5b51ced	-1.3493969e-06
150	0xb6aa5170	-5.0758754e-06
151	0xb61e76e9	-2.361305e-06
152	0xb704e71b	-7.921622e-06
153	0xb5d183a7	-1.5610029e-06
154	0x375f963b	1.3326814e-05
155	0x3609d0fe	2.053624e-06
156	0x34b32596	3.3368696e-07
157	0x369ac018	4.6119203e-06
158	0x34900539	2.682589e-07
159	0xaf4f1881	-1.8835246e-10
160	0xb1491dcd	-2.926629e-09
161	0x306e2446	8.6635443e-10
162	0x354f378a	7.719433e-07
163	0xb61bc2e1	-2.3210234e-06
164	0xb50a3054	-5.147933e-07
165	0xb6822354	-3.8784146e-06
166	0xb46a1069	-2.1798918e-07
167	0xb7cfec9a	-2.47865e-05
168	0xb8084cb2	-3.2496355e-05
169	0x34b31ae4	3.3360914e-07
170	0x368fd097	4.286015e-06
171	0x347ee1e5	2.3737773e-07
172	0xaf654a7e	-2.0853894e-10
173	0xb15eabbc	-3.2402871e-09
174	0x3083d504	9.592047e-10
175	0x358b4263	1.0375628e-06
176	0xb61b5805	-2.3148034e-06
177	0xb50b3951	-5.186494e-07
178	0xb68e219e	-4.2358433e-06
179	0xb1ca6cf7	-5.8913616e-09
180	0xb7d4b870	-2.5358255e-05
181	0xb80892c0	-3.25616e-05
182	0xb44ff9ba	-1.9369227e-07
183	0xb6b0bda6	-5.2672867e-06
184	0xb52d2a0b	-6.45087e-07
185	0x2e00344c	2.915028e-11
186	0x2ff90151	4.5293772e-10
187	0xaf136c61	-1.3408076e-10
188	0x36449a8d	2.9296236e-06
189	0x35845a82	9.861108e-07
190	0xb5988e43	-1.1366286e-06
191	0xb68e1d7c	-4.235362e-06
192	0xb655ed2e	-3.187753e-06
193	0x38401f61	4.580559e-05
194	0x380499ba	3.161442e-05
195	0xb450bdc2	-1.9440543e-07
196	0xb6b28eba	-5.321429e-06
197	0xb52e85f9	-6.5015007e-07
198	0x2de39582	2.5873307e-11
199	0x2fdd0342	4.020198e-10
200	0xaf02d9be	-1.1900789e-10
201	0x3647410c	2.9691173e-06
202	0x3584f3f9	9.905772e-07
203	0xb59a3351	-1.1488829e-06
204	0xb6905df3	-4.3024716e-06
205	0xb661e4a7	-3.3660706e-06
206	0x383fb52f	4.570669e-05
207	0x38029bc6	3.113949e-05
208	0x333985ae	4.319525e-08
209	0x388960a4	6.55067e-05
210	0x36c6fcdc	5.9302965e-06
211	0x31863498	3.9058925e-09
212	0x338254a5	6.0689935e-08
213	0xb29a5308	-1.7965718e-08
214	0xb83f6877	-4.563524e-05
215	0x37586321	1.28976835e-05
216	0xb662e263	-3.3808399e-06
217	0x388e552a	6.786951e-05
218	0x389f87d7	7.607013e-05
219	0xb92e65f2	-0.0001663191
220	0x39bf50fd	0.000364907
221	0x3357589a	5.013917e-08
222	0x3890c53d	6.9031936e-05
223	0x36d2008a	6.2585505e-06
224	0x318dc85d	4.1264188e-09
225	0x3389b069	6.4116485e-08
226	0xb2a30999	-1.8980062e-08
227	0xb84b931c	-4.8535978e-05
228	0x375a0666	1.2995302e-05
229	0xb65b2f3d	-3.266104e-06
230	0x3896d1f6	7.191666e-05
231	0x38a27263	7.746068e-05
232	0xb92fd692	-0.00016769234
233	0x39c36210	0.0003726636
234	0x35b56f7d	1.3517998e-06
235	0xb54003fa	-7.153136e-07
236	0xb5409605	-7.174388e-07
237	0x2e9785a0	6.8904216e-11
238	0x3093259d	1.0706348e-09
239	0xafae3c70	-3.169336e-10
240	0xb7e3a59a	-2.7137623e-05
241	0xb7fc1e91	-3.0054975e-05
242	0xb5f5de47	-1.8318614e-06
243	0xb6d49b29	-6.3361554e-06
244	0x36aa50ad	5.0757867e-06
245	0xb6f426ad	-7.276269e-06
246	0xb69cb3bd	-4.6700866e-06
247	0x35b5d5ec	1.354781e-06
248	0xb55d5ee0	-8.2466977e-07
249	0xb54493ef	-7.323096e-07
250	0x2e89da34	6.2687994e-11
251	0x3085dfaa	9.740593e-10
252	0xaf9e84b0	-2.8834313e-10
253	0xb7e34860	-2.7094211e-05
254	0xb7fc1074	-3.0048403e-05
255	0xb5f978a7	-1.858706e-06

exp_avg_sq f4 [128, 26]
0	0x2dd564b8	2.4260025e-11
1	0x328f3783	1.6672635e-08
2	0x303c68fc	6.8543193e-10
3	0x23e05174	2.4320625e-17
4	0x27d38d45	5.871743e-15
5	0x26144ebf	5.1454536e-16
6	0x316c90e5	3.4424883e-09
7	0x31d3aa86	6.1602945e-09
8	0x30595425	7.9063717e-10
9	0x30c6d888	1.4467938e-09
10	0x2fed1131	4.3122264e-10
11	0x354f23f1	7.716581e-07
12	0x355b9528	8.180091e-07
13	0x2dd58559	2.4274515e-11
14	0x328fa32b	1.6721591e-08
15	0x303ca09b	6.8622236e-10
16	0x23e14c86	2.4426958e-17
17	0x27d47a0c	5.8974144e-15
18	0x2614f491	5.1679264e-16
19	0x316db811	3.4592669e-09
20	0x31d3a99f	6.160192e-09
21	0x30596471	7.9086876e-10
22	0x30cbcaf8	1.4827881e-09
23	0x2fecee1a	4.309733e-10
24	0x354f39c4	7.719757e-07
25	0x355ba95d	8.1830314e-07
26	0x2fd35a93	3.8445033e-10
27	0x338b28d6	6.48012e-08
28	0x309ff3af	1.1638032e-09
29	0x259b14cd	2.690231e-16
30	0x29924155	6.495036e-14
31	0x27cd101d	5.69164e-15
32	0x3269cfd9	1.3609644e-08
33	0x33829c07	6.081978e-08
34	0x329e647d	1.8439318e-08
35	0x332075ed	3.7360156e-08
36	0x3174c5e7	3.5619168e-09
37	0x370c65fd	8.368396e-06
38	0x375d8b48	1.3205055e-05
39	0x2fd3afa8	3.8505488e-10
40	0x338b61ca	6.4904796e-08
41	0x30a03f91	1.1659599e-09
42	0x259b11df	2.6900324e-16
43	0x29923e99	6.4945614e-14
44	0x27cd0c4d	5.6912267e-15
45	0x3269e18b	1.36136675e-08
46	0x3382af68	6.085503e-08
47	0x329e4c60	1.8428352e-08
48	0x33204f31	3.7324927e-08
49	0x3178c858	3.6202632e-09
50	0x370c7999	8.372962e-06
51	0x375d3021	1.3183832e-05
52	0x2da49558	1.8710963e-11
53	0x313341d7	2.6085354e-09
54	0x2f4dfc32	1.8734239e-10
55	0x24085e04	2.9569933e-17
56	0x28009b46	7.139097e-15
57	0x26345153	6.256026e-16
58	0x31209ee6	2.3373388e-09
59	0x31c835d6	5.8268865e-09
60	0x31025158	1.8963728e-09
61	0x319fe2dc	4.6533e-09
62	0x318f04dd	4.1624006e-09
63	0x34bc744c	3.5102346e-07
64	0x35145940	5.526417e-07
65	0x2da4ebdf	1.874939e-11
66	0x31395e05	2.6974487e-09
67	0x2f4f47d7	1.8852063e-10
68	0x240a1e49	2.9949632e-17
69	0x2802420a	7.23077e-15
70	0x2636a220	6.3363655e-16
71	0x3124cb26	2.3980617e-09
72	0x31c84961	5.8291083e-09
73	0x31023483	1.894734e-09
74	0x31a3b64e	4.76465e-09
75	0x318fa8e4	4.1810484e-09
76	0x34bca1b6	3.513539e-07
77	0x35146379	5.527905e-07
78	0x309b194f	1.1284927e-09
79	0x34046d2f	1.2333179e-07
80	0x3149a568	2.9343372e-09
81	0x261a99aa	5.3637737e-16
82	0x2a11cd51	1.294982e-13
83	0x284c6d60	1.1347992e-14
84	0x32df399b	2.5986813e-08
85	0x340333bf	1.2219151e-07
86	0x331a2166	3.5886295e-08
87	0x33b0998e	8.22357e-08
88	0x3244b787	1.1450431e-08
89	0x37863103	1.5996868e-05
90	0x37db3964	2.6133559e-05
91	0x309b4f44	1.1300263e-09
92	0x3404a8e3	1.2354899e-07
93	0x314a01f2	2.9395975e-09
94	0x261a92c2	5.3628377e-16
95	0x2a11c6c8	1.2947553e-13
96	0x284c643e	1.1346011e-14
97	0x32df6804	2.6007918e-08
98	0x34034679	1.2225964e-07
99	0x331a0642	3.586161e-08
100	0x33b0787a	8.217553e-08
101	0x3245e8f6	1.1519878e-08
102	0x378617a0	1.5985046e-05
103	0x37db0b4c	2.6112095e-05
104	0x30122846	5.317172e-10
105	0x3394d48c	6.930449e-08
106	0x30eabe2d	1.7079792e-09
107	0x25ad9cf1	3.0117064e-16
108	0x29a3bb74	7.271172e-14
109	0x27e59131	6.3717685e-15
110	0x32a19be4	1.8813758e-08
111	0x337e4fb6	5.921148e-08
112	0x32ccb20d	2.3829694e-08
113	0x3332626c	4.153337e-08
114	0x321154fd	8.459435e-09
115	0x37294bf8	1.0090873e-05
116	0x377228ed	1.4433853e-05
117	0x301260a7	5.325184e-10
118	0x33950a7f	6.9402624e-08
119	0x30eb21d5	1.7108116e-09
120	0x25ada154	3.0120036e-16
121	0x29a3bfa6	7.2719e-14
122	0x27e59715	6.372407e-15
123	0x32a180a5	1.8801368e-08
124	0x337e7ba7	5.9251445e-08
125	0x32cc9c86	2.3819904e-08
126	0x33323d7e	4.149978e-08
127	0x3211d063	8.4874925e-09
128	0x3729604c	1.0095606e-05
129	0x377201ae	1.4424715e-05
130	0x2da5b772	1.8839794e-11
131	0x3209edc8	8.028515e-09
132	0x2fcd4928	3.7341263e-10
133	0x23bcf7af	2.0487899e-17
134	0x27b2368a	4.9464056e-15
135	0x25f9dec8	4.3345577e-16
136	0x314d2a02	2.9855305e-09
137	0x31919c67	4.2378363e-09
138	0x30886498	9.923893e-10
139	0x310a090b	2.0086783e-09
140	0x306d1e70	8.626335e-10
141	0x3518ed73	5.6969947e-07
142	0x3532e6f3	6.664624e-07
143	0x2da5eb42	1.8862804e-11
144	0x320b2389	8.098945e-09
145	0x2fcdc9b0	3.743259e-10
146	0x23bf589a	2.0745786e-17
147	0x27b474c9	5.0086655e-15
148	0x25fd03c7	4.3891064e-16
149	0x314ffc42	3.0265856e-09
150	0x3191a378	4.2386397e-09
151	0x308859c8	9.92082e-10
152	0x310e87f9	2.0741011e-09
153	0x306d9bfd	8.644177e-10
154	0x3519281a	5.7055297e-07
155	0x3532fdd9	6.6679564e-07
156	0x2d1561ec	8.4914124e-12
157	0x31267489	2.4222422e-09
158	0x2f06b1b0	1.2250356e-10
159	0x234e6075	1.1187708e-17
160	0x2742a1d4	2.7010636e-15
161	0x25887209	2.3669513e-16
162	0x30ae66ee	1.2689421e-09
163	0x31226c6c	2.3635733e-09
164	0x302869c2	6.1268335e-10
165	0x30b4fb62	1.3168171e-09
166	0x30a3c5eb	1.1916063e-09
167	0x342d907f	1.6164448e-07
168	0x346cca9a	2.2052919e-07
169	0x2d15931e	8.502336e-12
170	0x312a9078	2.4820377e-09
171	0x2f077c48	1.2322332e-10
172	0x235228e3	1.1392781e-17
173	0x27463331	2.750577e-15
174	0x258af26f	2.4103463e-16
175	0x30b333ce	1.3038688e-09
176	0x31226f71	2.363745e-09
177	0x30285515	6.1238953e-10
178	0x30be8a34	1.3863599e-09
179	0x30a46a9a	1.1962868e-09
180	0x342df044	1.6199289e-07
181	0x346d2633	2.2086242e-07
182	0x2d4897c0	1.1402379e-11
183	0x319625f5	4.36989e-09
184	0x2f34abf9	1.6432002e-10
185	0x230f7fc1	7.7790985e-18
186	0x2707551a	1.8781147e-15
187	0x253dbf71	1.6458e-16
188	0x30870763	9.824642e-10
189	0x30df4e9e	1.624773e-09
190	0x2fb8ffbd	3.3651118e-10
191	0x30851bc0	9.684911e-10
192	0x2f7a507b	2.276596e-10
193	0x347a5d22	2.3316946e-07
194	0x34a10f3d	2.9999674e-07
195	0x2d48c2b0	1.1411913e-11
196	0x3196af86	4.3855293e-09
197	0x2f34ec66	1.645489e-10
198	0x23102674	7.814398e-18
199	0x2707f251	1.8866374e-15
200	0x253e9bbf	1.6532642e-16
201	0x3087ab99	9.871314e-10
202	0x30df5ab0	1.625116e-09
203	0x2fb9088f	3.3657385e-10
204	0x30862957	9.761533e-10
205	0x2f7b5401	2.2858161e-10
206	0x347a2b8c	2.3298907e-07
207	0x34a12654	3.0016474e-07
208	0x2f73c680	2.2171243e-10
209	0x32fa769b	2.9157766e-08
210	0x30781591	9.025252e-10
211	0x25a51d89	2.864295e-16
212	0x299bb7ec	6.915288e-14
213	0x27da54ea	6.059922e-15
214	0x32ab6353	1.9952187e-08
215	0x332b8f4b	3.9944364e-08
216	0x32435b9c	1.1371323e-08
217	0x33990d44	7.127031e-08
218	0x337a47ba	5.8272896e-08
219	0x364ff8a3	3.099013e-06
220	0x3719b40a	9.161429e-06
221	0x2f746ec7	2.2231027e-10
222	0x33078a1c	3.1557747e-08
223	0x307e7ed8	9.258492e-10
224	0x25aaaf18	2.9608947e-16
225	0x29a0f86d	7.1485224e-14
226	0x27e1b1f1	6.264297e-15
227	0x32b9e349	2.1640192e-08
228	0x332baef5	3.9973163e-08
229	0x32434126	1.1365307e-08
230	0x339fd34d	7.44245e-08
231	0x337cf227	5.889356e-08
232	0x364f2aff	3.087043e-06
233	0x371a8979	9.211123e-06
234	0x300b7e0d	5.0747034e-10
235	0x33267fc6	3.8766096e-08
236	0x30b687b8	1.3280816e-09
237	0x25cc5df3	3.5452021e-16
238	0x29c0bc86	8.5592164e-14
239	0x28071ded	7.5004945e-15
240	0x32867f3b	1.565751e-08
241	0x33b4f7f3	8.427005e-08
242	0x32d00809	2.4218041e-08
243	0x334d9fb9	4.787555e-08
244	0x32286d45	9.803732e-09
245	0x371c8943	9.330283e-06
246	0x3791dae9	1.7387285e-05
247	0x300bc7ed	5.0852017e-10
248	0x3326c76b	3.8831256e-08
249	0x30b6ed84	1.3309749e-09
250	0x25cc5df9	3.5452037e-16
251	0x29c0bc86	8.5592164e-14
252	0x28071dea	7.500492e-15
253	0x32868a7a	1.5662625e-08
254	0x33b51c88	8.433659e-08
255	0x32cfb953	2.4182247e-08
