AIRocketLanding/results/AIRocket4/AIRocket/AIRocket-14400.onnx (onnx, 84776 bytes, 9 tensors)

action_model._continuous_distribution.log_sigma f4 [1, 2]
000000 0f df f5 bb 67 dd bf 3a
       -0.0075033973 0.0014638127

action_model._continuous_distribution.mu.bias f4 [2]
000000 22 2b 1d bc bb fd 07 bc
       -0.009592803 -0.00830024

action_model._continuous_distribution.mu.weight f4 [2, 128]
000000 20 f1 0a 3c cf 5e 25 bc 91 4d 8f 3c d4 6e f0 3b
       0.00848034 -0.010093405 0.017493041 0.0073374305
000010 1a d0 1e bb 76 3c 8b 3b d6 0d 4a 3b 3c 11 32 3c
       -0.0024232925 0.004249151 0.0030831 0.010868367
000020 9a 0b 8f 3b 6c 84 f3 3c a5 b6 a8 3a 59 80 0a 3c
       0.0043653967 0.02972623 0.0012871815 0.008453452
000030 56 94 2b 3b 84 1c 5c bc 3c ca 0a 3d fa 3d eb 3b
       0.0026180944 -0.013434533 0.033884272 0.007179019
000040 06 dd f5 3c 5c d1 91 3c 0a aa 32 bc 4e 53 87 bc
       0.030012619 0.017800026 -0.010904798 -0.016519215
000050 40 9f a2 3c cb 24 77 bc b0 20 0d 3a 55 98 c8 3c
       0.019851327 -0.015084456 0.0005383594 0.0244867
000060 ff 22 77 bc 26 80 86 3c ad b1 a7 3b 99 cc 14 3d
       -0.015084027 0.016418528 0.005117616 0.036327932
000070 9e 47 33 3c 86 93 03 bb 82 15 4a bc 33 5d bb bb
       0.010942368 -0.0020076944 -0.012334229 -0.0057178973
000080 d1 35 de 3c 6a 16 18 bd 2d d6 9f 3a 63 2c b9 3c
       0.027125271 -0.03713075 0.0012194567 0.022604173
000090 f4 10 86 bc 9e 8a 93 3b 69 1c 16 bb 30 c6 0b 3c
       -0.016365506 0.0045026084 -0.0022905117 0.008531138
0000a0 61 64 0e 3c 29 49 81 3c 23 82 9b bc ea 20 92 bb
       0.008690924 0.015781956 -0.018982952 -0.00445949
0000b0 24 90 d5 3c be 78 e9 bb b6 d0 9b bc 35 e9 1e bc
       0.026069708 -0.0071249893 -0.01902042 -0.009699156
0000c0 6b 35 80 3c 87 02 ea bc 95 ba 89 bc fb 0b 82 3c
       0.015650472 -0.028565658 -0.016812602 0.015874853
0000d0 01 98 07 bc 8a 2d ba 3c 66 01 0c bc 0f 03 83 bc
       -0.008275987 0.022726793 -0.008545255 -0.01599267
0000e0 e5 3a 87 3c 02 f4 e3 3c c4 6e f2 bc cb c5 f0 b9
       0.016507575 0.027826313 -0.029593833 -0.00045923734
0000f0 41 cf 98 bc 43 83 12 bd 35 53 07 bc ca 9f b3 bc
       -0.018653514 -0.035769712 -0.008259584 -0.02192678
000100 02 c8 81 3c ba 02 4d 3c f7 18 82 bc 91 92 b0 bc
       0.015842441 0.012512857 -0.015881045 -0.021554263
000110 f7 66 eb 38 08 3e 18 3d 3e c2 1b 3c a6 2a 13 bb
       0.00011224852 0.037168533 0.00950676 -0.002245584
000120 ab ff 8a 3c db 10 2a 3c a4 51 c1 bb 01 f0 75 bb
       0.016967615 0.010379995 -0.005899625 -0.0037527087
000130 f3 3f 2f 3c e1 7b 11 3c 52 b7 b5 bc fe 7d be bc
       0.010696399 0.008879633 -0.02218214 -0.023253437
000140 26 2d 0e 3c 12 d0 ac bc 1b c5 22 bc 26 98 b7 bb
       0.008677756 -0.02109531 -0.009934689 -0.0056028543
000150 e1 77 b9 bb b4 d3 61 bc d7 55 81 3a d9 dd 87 bb
       -0.0056600426 -0.013783384 0.0009867501 -0.0041463193
000160 5c 08 2a 3b f0 08 b5 bc da 36 fd bc 5b 98 38 3c
       0.0025944924 -0.022098988 -0.030909944 0.011266793
000170 6a b9 21 bd a6 74 a5 bc 7f 2c 93 bc fd c6 21 3c
       -0.039483465 -0.020197224 -0.017965553 0.009874103
000180 72 3e b2 bc 56 d9 f5 bc d6 b2 29 bc ce 04 fb 3b
       -0.021758292 -0.03001086 -0.010357579 0.007660485
000190 8e 52 90 bb a5 d7 82 3c 7c 9c 88 bc 4c ba 37 3b
       -0.0044043725 0.015971968 -0.01667618 0.0028034626
0001a0 21 6a 01 bb 09 82 3d bc 49 9a 7c 3c d7 e0 90 3c
       -0.0019747096 -0.011566647 0.015417644 0.017685337
0001b0 53 41 4b 3b aa f2 8b 3c 8f d2 4c bd 41 1a 24 bc
       0.0031014278 0.017083485 -0.05000549 -0.010016025
0001c0 d2 c0 eb bc 6f 1a 2f bc c4 b4 3c 3a 84 71 d6 3c
       -0.028778467 -0.010687455 0.0007198567 0.026177175
0001d0 12 04 ca 39 27 52 cf 3b 0d 1b f5 bc c5 3b 2c 3c
       0.00038531475 0.006326932 -0.029920125 0.010512297
0001e0 2a 7e 17 bc cd 6d 56 3a 3c 05 19 3c 53 c8 f1 bc
       -0.009246388 0.0008179814 0.009339627 -0.029514467
0001f0 84 36 13 3c 12 1f 1f 3c 40 79 01 3b 23 aa ce 3c
       0.0089851655 0.009711998 0.0019756109 0.025227612
000200 4d 0a cf bb 73 ba a9 bb dc 5e 8f 3b 88 38 0c 3c
       -0.0063183666 -0.005179697 0.004375322 0.0085584
000210 68 57 c4 3c b6 ae b9 3a a9 64 ac 3c cd 91 cf bc
       0.02396746 0.0014166448 0.021044092 -0.025338078
000220 d5 fd a2 bc 76 b2 8c 3c 75 cc 4b 3c 53 7f e6 3c
       -0.019896427 0.01717494 0.012438883 0.028136885
000230 84 15 c5 bc 41 2f dc bc 85 98 36 3c 43 88 1c 3c
       -0.024058111 -0.026878001 0.011144762 0.009553972
000240 8d bf c4 bb 66 e0 69 bc ef ba d8 bb 2c 00 ee 3c
       -0.00600428 -0.014274692 -0.006614081 0.029052816
000250 e0 0d 17 bd c1 fe ea bc 96 a5 bd 3b 7e 19 16 3c
       -0.036878467 -0.02868593 0.0057875616 0.009161351
000260 77 7c 1e 3c be 31 b2 3c 33 ec 46 ba e3 d9 98 bb
       0.009673229 0.021752235 -0.0007588297 -0.004664646
000270 c0 aa dd 3c da a2 26 bc 08 03 7d 3b e6 61 30 bd
       0.027058959 -0.010170663 0.0038606543 -0.043062113
000280 4b 63 19 bb 8e c0 db 3c 0a 22 c7 3c ce e2 c6 3c
       -0.002340513 0.026825216 0.024308223 0.02427807
000290 c2 3f 30 3a cd bd ac 3b 21 36 b4 bc 90 95 00 3c
       0.0006723368 0.0052716495 -0.021998467 0.0078481585
0002a0 35 88 45 bd 9f ee 5f bc b1 e0 a6 3c 8e 99 ec 3c
       -0.0482256 -0.013667732 0.020370813 0.028881814
0002b0 c0 55 d6 3c 3c c0 5e bc 10 ba 09 3c c1 a7 e4 bc
       0.026163936 -0.013595637 0.008406177 -0.027912023
0002c0 f2 10 01 3d cb 86 a8 bb e7 16 82 3b 87 4a fc bb
       0.0315103 -0.0051430217 0.0039700153 -0.007699314
0002d0 5a 5e 35 3b c4 b7 23 bc 99 8c 70 bc 66 92 8a bc
       0.0027674646 -0.009992544 -0.014681959 -0.016915511
0002e0 9f ab 62 bc e2 c8 d1 bc aa d1 f2 3c 34 d5 55 b9
       -0.013834863 -0.025608484 0.029640991 -0.00020392687
0002f0 93 be e1 39 5e d5 5d 3b 87 fe 7a 3c 08 09 9e bc
       0.00043057333 0.00338491 0.015319473 -0.019291416
000300 fc 6a 94 3a 6d 9b 52 3b 88 4d c5 38 90 7c b3 ba
       0.0011323388 0.0032136098 9.408133e-05 -0.0013693739
000310 e8 a1 9d 3b 64 82 a9 ba dd bf 51 bc fe df a8 3b
       0.0048105605 -0.0012932536 -0.012802091 0.005153655
000320 53 e4 b6 3b 68 fe 5a 3b 91 da b1 bc 47 4b e3 bc
       0.0055814176 0.0033415798 -0.021710666 -0.027745856
000330 13 18 f2 bb 63 09 9c b9 57 65 31 bc a3 a7 fa bb
       -0.007388124 -0.00029761632 -0.010827384 -0.0076493784
000340 8f 69 d4 3b 01 8f 0b bd 7a 38 89 bc a5 a8 32 bc
       0.00648231 -0.034071926 -0.016750563 -0.010904466
000350 a8 f7 a9 bc d5 7f 09 3d f2 c8 a3 bc 9d 68 c9 3a
       -0.020747975 0.033569176 -0.01999328 0.001536626
000360 38 43 6b 3c 67 f8 50 3b 1a ca 19 bd fc 42 56 bc
       0.014359288 0.003188634 -0.037546255 -0.013077494
000370 48 b8 79 bc 7c 10 d5 bc fd 4d 03 3c 0b e6 d8 3c
       -0.01524169 -0.026008837 0.008014199 0.02647688
000380 55 28 d3 3c e0 b8 87 3a c5 88 ba 3c 7a da 3f 3c
       0.025776068 0.001035478 0.022770295 0.011709804
000390 cd b2 9d bc 06 75 9a 3c 2a c1 bd bb ae 0b b7 bc
       -0.019250298 0.01885463 -0.005790849 -0.022344436
0003a0 76 39 6f bb 15 b4 ad 3c 07 f3 ce 3c 2b 42 8e bb
       -0.0036502755 0.021204034 0.025262369 -0.004341384
0003b0 72 e3 a9 bc 95 9f 97 bc 55 a4 34 3c 37 a8 a6 3c
       -0.020738337 -0.018508712 0.011025508 0.020343883
0003c0 ea 12 6b bc 9e 29 74 bc de c7 7b bc 85 df 5b 3d
       -0.014347771 -0.0149025 -0.015367476 0.05367996
0003d0 55 2a ae bc 8b 8b 7c 3c e7 a6 5a 3c c4 1e 79 3c
       -0.02126042 0.015414129 0.013345457 0.015205089
0003e0 cf c1 49 3b 25 04 4a bc f7 0f 75 bb 12 eb 86 3c
       0.0030785685 -0.01233009 -0.003739355 0.016469512
0003f0 70 53 18 3d c5 d7 e8 3a b6 6c f6 3c 84 69 15 3c
       0.037188947 0.00177645 0.030081134 0.009119395

action_model._discrete_distribution.branches.0.bias f4 [2]
000000 3b 80 2f 3a 3d 80 2f ba
       0.0006694828 -0.0006694829

action_model._discrete_distribution.branches.0.weight f4 [2, 128]
000000 ff 78 5d 3c 50 23 e2 ba f3 63 2f 3c ef fb f1 3a
       0.013517617 -0.0017252956 0.010704982 0.0018461923
000010 55 75 2e bb 9e 81 0d 3c 49 92 99 bc a5 2c 9d bb
       -0.0026620228 0.00863686 -0.018746512 -0.004796582
000020 ba 32 2b bc 2b 8d c6 bb 81 99 fb 3b 0f a9 1e 3a
       -0.010449106 -0.006059309 0.007678211 0.00060524134
000030 84 9e e1 3b e4 26 77 3c 06 e7 9d b9 13 d2 cd bb
       0.0068853516 0.015084956 -0.000301175 -0.0062811463
000040 b0 ea 06 3b 3e 11 ee 3a 31 4c 7b 3c a9 f1 08 bc
       0.0020586662 0.0018163098 0.01533799 -0.0083583975
000050 ca 83 ed bb 2a 47 24 ba 22 21 07 bc 02 9c e6 3a
       -0.0072483765 -0.0006266708 -0.008247646 0.0017594101
000060 a1 49 38 3c 71 8a 94 bc 7d 42 ec 3a 71 a5 fb bb
       0.011248023 -0.01813242 0.0018025186 -0.0076796343
000070 08 fb d5 ba 78 1d da 3a 3f cb 43 bc 19 09 dc 3b
       -0.0016325423 0.0016640862 -0.011950313 0.0067149517
000080 97 fe a1 bc 13 37 48 3c ad 7a 4b bc c9 5f 18 bc
       -0.019774718 0.012220162 -0.012419385 -0.009300181
000090 13 be 1c 3c b1 4f 56 bc 1b 0d 59 3b 77 33 26 3c
       0.009566802 -0.013080523 0.0033119384 0.010144106
0000a0 43 f6 d0 bb 74 b9 a4 3b 94 4e b9 3a 5c 03 4b 3c
       -0.006377013 0.0050269905 0.0014137798 0.012390938
0000b0 15 21 12 3b a3 17 b9 bc b5 37 01 bb ac 8a 29 3c
       0.002229755 -0.022594279 -0.0019717042 0.010348003
0000c0 4c d7 d7 bc e0 83 37 bb a5 72 57 bb 7c 97 21 3c
       -0.026347779 -0.0028002188 -0.003287473 0.009862777
0000d0 3f 89 bf 3b a9 24 c7 3b 00 b7 ce 3a 92 f6 80 3c
       0.0058452184 0.0060773683 0.0015771091 0.015742574
0000e0 e3 d0 67 bc 82 77 95 bc 88 16 08 3c be 9d d9 3c
       -0.014148924 -0.018245462 0.008306153 0.026564475
0000f0 d4 8e 00 3b f2 a9 a2 bc f7 99 07 bc ab f0 d5 3b
       0.0019616382 -0.019856427 -0.008276454 0.006528934
000100 25 b4 a3 bb a1 ac be bb 5f 92 83 bc 07 62 85 3c
       -0.00499584 -0.005818919 -0.016061006 0.016282095
000110 5a 27 be ba d9 fe ee b8 89 41 f4 3b 73 df bd 3a
       -0.0014507577 -0.000113961934 0.0074541015 0.0014486149
000120 e7 31 4e bc f6 96 19 3b 88 cf a4 bb f7 a2 59 3b
       -0.01258514 0.0023435927 -0.0050296225 0.0033208707
000130 ee 1e 1c bc f9 bc 1d bc 61 89 20 bc 05 23 a8 3c
       -0.009528859 -0.009627574 -0.009798379 0.020524511
000140 04 bc 73 bc 5c 3a 11 bc 71 37 1a bb f7 c1 22 bc
       -0.014876369 -0.008864012 -0.002353158 -0.00993394
000150 e2 a5 e1 bb b9 84 1f bc da 05 bc bb bd d3 cc 3b
       -0.00688623 -0.009736233 -0.0057380022 0.006250827
000160 2c d7 8a bb d2 b9 21 3b 02 53 ae bb df f4 1b bc
       -0.0042370763 0.0024677408 -0.005319954 -0.009518831
000170 67 15 a8 bb 62 33 8b 3b b3 46 5a 3c f7 39 6c 3b
       -0.0051295045 0.0042480687 0.01332252 0.0036045292
000180 dc 85 88 3c 04 a9 08 ba 85 13 6a bc e3 5d 96 bb
       0.016665392 -0.00052131736 -0.01428688 -0.004588829
000190 64 1c eb ba 3a 40 20 bb 34 85 7e 3a 2d 96 71 ba
       -0.0017937538 -0.0024452345 0.000970918 -0.00092157983
0001a0 ca 6b 2c 39 03 dc df 3b 61 d8 38 3c 2b 5e 59 3c
       0.00016443353 0.0068316474 0.0112820575 0.01326708
0001b0 5a 32 27 ba 75 87 ca bb 4f c1 0b 3b 55 50 32 3c
       -0.00063780474 -0.0061806985 0.0021324938 0.01088341
0001c0 a1 91 26 bc e8 68 92 3c ff c6 8c b9 b6 5c 0f bb
       -0.010166557 0.017872289 -0.00026851145 -0.0021875328
0001d0 e1 c0 ea bb dc 29 bc bb a3 1f 85 bc 20 62 3d 3c
       -0.0071641062 -0.0057422947 -0.016250437 0.011559039
0001e0 bb 18 e7 ba 88 88 87 bb ca 32 8e 3c 12 6d 22 ba
       -0.0017631272 -0.004136149 0.017358202 -0.00061960623
0001f0 20 ee 2c 3b b9 2c 08 bc 2c 05 5f bc a6 b2 4c bb
       0.002638705 -0.008311444 -0.013612073 -0.0031234412
000200 4d a4 cf ba 8a 20 3b bb 88 67 19 3c b2 6e 25 3c
       -0.0015841812 -0.002855333 0.009363063 0.010097193
000210 7a 78 58 3b f4 52 85 bc 9f 2e 8f 3c be d6 c2 3b
       0.0033030794 -0.016274907 0.017478285 0.0059460094
000220 e6 54 18 39 ef 40 0a 3b 12 8a 89 bc c0 c2 56 3c
       0.00014527477 0.0021095832 -0.01678947 0.013107955
000230 8d 41 19 bc 4a cd 6c 3c 76 71 a7 bc b3 b6 3b bb
       -0.009354007 0.014453242 -0.020439845 -0.0028642833
000240 6b 0e 07 bc b1 9e 2b bc 9d 7e 74 3b 0d 69 00 bb
       -0.008243184 -0.010474847 0.0037306913 -0.0019593865
000250 59 b6 97 3b d5 d1 dc 3b 76 e0 d8 3b a5 cc 78 3a
       0.004629892 0.006738881 0.0066185547 0.00094909436
000260 a5 33 87 bc cc 77 e3 3b d9 d0 18 3c d3 d8 10 bb
       -0.016504118 0.006941771 0.009327137 -0.0022101894
000270 23 e0 29 bb 59 f0 5d 3b 75 e0 1c 3c 52 62 10 3c
       -0.002592095 0.0033865182 0.009574999 0.008812504
000280 0a 7d c7 3b 3b df 50 bc 9d ae 22 3c 13 23 6b bb
       0.006087904 -0.012748535 0.009929326 -0.003587906
000290 26 f1 80 bb 40 20 b3 3a 5d ef 15 3b cd 1c 19 3a
       -0.003934997 0.0013666227 0.0022878267 0.00058407785
0002a0 b6 3c 30 bb f7 28 ea bb ec 76 51 3b 30 63 93 bc
       -0.0026891655 -0.0071459967 0.0031961752 -0.017991632
0002b0 36 cb 34 3c a9 ad 27 bc be ca 42 bc 2d 98 d4 bb
       0.011034777 -0.010234275 -0.011889158 -0.0064878673
0002c0 55 d6 37 3b c6 46 6d 3b e9 75 f5 3b 01 d5 f6 3b
       0.0028051336 0.0036205514 0.0074908626 0.0075327163
0002d0 61 20 a9 3b a9 16 f1 bb 10 82 33 bb 11 a3 1d bc
       0.0051613306 -0.0073574376 -0.0027390756 -0.009621398
0002e0 2c a0 f1 3b 90 78 1e 3a 5f 08 9f 3b a7 72 94 ba
       0.0073738303 0.0006045187 0.004853293 -0.0011325673
0002f0 b6 29 b0 3c e2 4c 3b ba c4 35 35 3c 35 b1 58 bb
       0.021504264 -0.00071449403 0.011060182 -0.0033064608
000300 0f 8e 3e 39 41 96 84 3c b6 43 08 3c c6 26 5e bb
       0.00018172733 0.016184928 0.008316925 -0.0033897622
000310 8d bb 43 3c 8e e6 55 bc 7f 05 3a 3c e5 a0 24 3c
       0.011946571 -0.013055457 0.011353849 0.010048126
000320 a2 0b 67 bc 61 0b 6a 3b 7d f7 66 3c 95 88 3c 3b
       -0.014101895 0.0035712349 0.014097092 0.0028767933
000330 58 ca 4c bc 3d 99 2f 3c eb 99 a8 b9 86 a2 02 bc
       -0.012499414 0.010717687 -0.00032158135 -0.007973319
000340 22 1e c6 3c db 07 ab b9 a6 bc 69 bb 53 bb 25 bc
       0.02418429 -0.00032621514 -0.0035665422 -0.010115462
000350 34 8f f4 bb 9d 6e c3 3b 63 bd 85 bc b0 93 b6 bb
       -0.00746336 0.005964114 -0.016325658 -0.005571805
000360 d5 4b 6f 3c 12 f4 53 bc 1c f3 03 3c 87 43 aa 3b
       0.014605482 -0.012936609 0.008053567 0.005196038
000370 82 e9 21 3a 84 f3 1d bc 6c 93 43 bc 50 85 82 3c
       0.0006176458 -0.009640578 -0.011937004 0.015932709
000380 7f 20 b2 bc 4d 01 e5 39 9c ca c0 bb c7 ed 04 3b
       -0.021744011 0.00043679253 -0.005883528 0.0020283328
000390 51 82 85 3b 8d 99 12 3c aa 3e 81 3c da 2c f2 3b
       0.004074373 0.008947742 0.01577695 0.0073906006
0003a0 7e a5 f1 b9 7e f7 05 b9 2a c0 ea bb 0f 45 5b bb
       -0.00046090403 -0.00012776066 -0.007164021 -0.003345791
0003b0 3f 93 76 bb bf 98 a7 3b 1d ee 00 bc 05 40 e6 3b
       -0.0037624387 0.0051146443 -0.007869271 0.0070266747
0003c0 fe fe 9d 3b ec 21 08 ba 8e 48 da 3b 14 6f 41 3b
       0.004821657 -0.0005193043 0.006661481 0.002951567
0003d0 96 47 91 bb cc c8 a9 bb 83 c9 28 bb 9f 87 2b 3c
       -0.0044335825 -0.0051814076 -0.0025754876 0.010469346
0003e0 28 8a 0e 3c 48 55 e8 3b eb 1b 83 ba ba 83 2a 3c
       0.008699931 0.0070902444 -0.0010002827 0.010407383
0003f0 59 6e 00 3b 70 84 58 3c 73 33 c0 b9 b6 b4 97 3a
       0.0019597022 0.013215169 -0.00036659426 0.0011574242

network_body._body_endoder.seq_layers.0.bias f4 [128]
000000 7a 4e e8 bb e8 4c 40 39 6d 8a 12 3c e7 bb 39 3a
       -0.0070894333 0.00018339197 0.008944136 0.00070851896
000010 78 db a4 3b 78 5a 89 3b ac 73 a1 ba 97 cd ca b9
       0.0050310455 0.004191693 -0.0012317798 -0.0003868162
000020 61 ed dd bb 1f ab 1e bc b1 8e 08 3c 6e b2 19 3c
       -0.0067726825 -0.009684353 0.0083348015 0.00938092
000030 b2 db e0 39 86 5c 17 bb 5b 97 d0 3b ec 4e 03 bc
       0.00042888295 -0.002309592 0.006365699 -0.008014422
000040 1e ce 47 bb 96 1f 89 bb 8d 59 f1 bb f1 93 8a ba
       -0.0030487846 -0.0041846735 -0.0073654116 -0.0010572654
000050 4f 9e 18 3c 57 cb 03 3c 50 a1 07 3c 66 aa 78 bb
       0.009315087 0.008044085 0.008278206 -0.0037943362
000060 04 56 46 bb 4f d9 0d b8 97 4c a5 39 ec 94 27 bb
       -0.0030263672 -3.3819404e-05 0.00031528316 -0.0025570942
000070 2b 33 95 3b b7 04 9f 3a d5 f3 90 3b 40 1c 1d 3c
       0.004553219 0.0012132142 0.0044235983 0.009589255
000080 21 df 19 bc 86 3d 8c bb 18 97 1b 3a e5 15 1f ba
       -0.009391577 -0.004279795 0.00059352955 -0.0006068631
000090 1d b7 1e bc 36 c1 89 bb 48 47 cf 3b a1 50 fa 3b
       -0.009687212 -0.0042039407 0.006325636 0.0076390062
0000a0 02 f5 a2 bb 5c 59 c2 3b 33 0e 10 3c 7a 8d 24 bc
       -0.004973055 0.0059310626 0.008792448 -0.010043496
0000b0 8e 9d 64 bc cd 43 32 ba 6d f6 63 ba 0f d9 e7 bb
       -0.01395358 -0.0006800264 -0.0008696083 -0.007075436
0000c0 fa b2 5a 3b 0d e9 99 bb 1c b2 f9 bb 68 e7 28 bc
       0.0033370839 -0.0046969713 -0.0076201092 -0.010309078
0000d0 14 18 74 bb 32 08 33 3c 0e 91 a8 3b f3 28 1b 3b
       -0.0037245797 0.010927247 0.005144245 0.002367553
0000e0 74 00 95 3a ed 41 06 b9 83 3c cc 3a 80 2f 14 bc
       0.0011367933 -0.00012803795 0.0015581999 -0.009044528
0000f0 3e 39 b7 3b ce ff 33 bb 82 f0 9f 3b 51 a7 5b bb
       0.0055915406 -0.0027465704 0.0048809657 -0.0033516476
000100 5a 3c 7c bb 5b 9b 04 3c ff c8 da bb 2c a4 d6 bb
       -0.003848812 0.00809368 -0.0066767926 -0.0065503325
000110 5b 4d e1 3b 12 5d c3 3b 0b 45 e9 3a 50 31 42 3b
       0.0068756766 0.0059620226 0.0017797066 0.0029631443
000120 ff 9b a4 3b 72 82 d2 bb 2b ba 40 bb 42 23 e9 b8
       0.005023479 -0.0064242417 -0.002940784 -0.00011116873
000130 a0 26 6b bb 79 cb 15 3c 90 78 88 3b bf bc ab 3b
       -0.0035881177 0.00914275 0.004164763 0.005241006
000140 68 9a 02 3c 04 38 ed 3b e0 3c 12 3c 0d f1 d8 bb
       0.007971384 0.0072393436 0.008925647 -0.0066205324
000150 a1 9e a6 3b 31 8e b3 3b 63 6c 81 bb 72 48 36 3c
       0.005084828 0.005479597 -0.0039496883 0.011125671
000160 b6 ed fe 3b d5 a3 eb 3b 24 3d ad 3b a5 2d f8 bb
       0.007779802 0.007191161 0.0052868295 -0.0075738006
000170 50 27 df bb fb cb fd 3b d8 92 43 bc 08 84 ab 3b
       -0.0068101063 0.0077452636 -0.011936866 0.005234245
000180 5b f4 c9 3b 9b 7b 0c 3b d2 7f 08 3c a8 c8 19 3c
       0.0061631626 0.002143598 0.008331256 0.009386219
000190 51 17 77 bb fa f9 27 3c f3 a4 0e 3c 34 d2 c8 ba
       -0.0037703107 0.01025247 0.008706319 -0.0015321434
0001a0 51 c3 ec 3a 4c 6f 8c bb fb 96 a1 bb c3 ae 20 3b
       0.001806358 -0.0042857286 -0.0049313284 0.0024518229
0001b0 9e 86 f7 bb 87 81 7d bb e4 54 ff bb dc 32 bf 39
       -0.0075538894 -0.003868194 -0.007792102 0.00036468252
0001c0 01 c8 c4 3b 28 dc d8 3b fd 75 13 3c ad de 1e bc
       0.0060052876 0.0066180415 0.009000299 -0.009696645
0001d0 47 0f 22 bc 9f 20 05 bc 20 fe b6 bb 5b cd 15 3c
       -0.009891338 -0.008125453 -0.0055844933 0.009143199
0001e0 f3 1f 56 bb f9 e1 25 bc ae 9b 0f 3c 21 e7 1f bc
       -0.0032672852 -0.010124677 0.008765144 -0.009759695
0001f0 30 29 15 bc dc 12 6a 3b 25 15 d8 3b 18 a9 07 bc
       -0.009104058 0.0035716807 0.0065943175 -0.008280061

network_body._body_endoder.seq_layers.0.weight f4 [128, 26]
000000 8c 4d 91 3d 3d b9 54 3e ac 1f c3 be 9c 2f 0c 3e
       0.07094869 0.20773788 -0.381101 0.13690037
000010 90 96 39 be 96 b6 04 3e 6e de 3b be 36 a1 49 3e
       -0.18123841 0.12960276 -0.18346569 0.19690403
000020 5c 99 40 3e e6 2a 20 3d b6 65 ab be b4 43 ce 3d
       0.18808502 0.03910341 -0.33476037 0.10071507
000030 df b1 2a 3e b0 5b a3 3d c4 a4 57 be fb f4 f3 bd
       0.16669415 0.079764724 -0.21058947 -0.11911961
000040 9e b5 14 be 8d 7b 56 bd f0 10 69 bc 5f 8e 00 3e
       -0.14522406 -0.05236392 -0.01422523 0.1255431
000050 21 3b 2e 3d 2d 16 9b bd 1d fa fd 3d 2b c1 2d 3e
       0.04253686 -0.07572589 0.12401221 0.16968219
000060 12 c0 d1 bd 14 34 9c 3d e7 ae a3 3e c3 da b2 bc
       -0.10241713 0.076271206 0.31969377 -0.02183283
000070 0b fe d2 be 22 f2 5e be 40 41 16 bd be 3b 82 bd
       -0.41209444 -0.21772054 -0.03668332 -0.06359051
000080 55 77 04 be 38 00 14 be e6 1d 2f be 14 5d ba be
       -0.12936147 -0.14453208 -0.17101249 -0.36399138
000090 c8 75 2d be 46 cb 67 bc e0 51 da bb 4c 3d a7 3d
       -0.16939461 -0.014147585 -0.0066625923 0.08165988
0000a0 54 32 fe 3d 37 ab a4 3d 8d e0 22 bb d9 8b b1 bd
       0.12411943 0.08040469 -0.002485308 -0.08669252
0000b0 0a f4 e4 3e 0b 5a 2a 3e ff b7 62 be 71 c8 98 bd
       0.44717437 0.16635911 -0.22140501 -0.07460106
0000c0 d4 5d ef 3a bb bd 02 3e ff 58 e1 be e8 5f 96 be
       0.0018262216 0.12767689 -0.4401321 -0.29370046
0000d0 17 aa 95 be 5a 96 dc 3d 6f 4f 88 3e e8 00 1f be
       -0.2923133 0.10770865 0.26623103 -0.1552769
0000e0 80 45 34 bd 00 38 dc 3d 6f 23 8c be 52 86 c3 be
       -0.044011593 0.10752869 -0.27370784 -0.38188416
0000f0 4e fe a0 3e d7 35 03 bd 0b df 56 bd b7 3f a5 3d
       0.3144402 -0.032033768 -0.052458804 0.08068793
000100 c9 8d 53 bd 07 d2 17 bd 0c b3 4e be cc 28 ad 3e
       -0.05164889 -0.037065532 -0.20185488 0.33820188
000110 02 bc 4f be 5f a2 39 3e b7 7f f8 3e 15 a5 0d be
       -0.20286563 0.18128346 0.4853494 -0.13832505
000120 1c f4 59 be 7d 4f 35 3e 40 10 28 3e f5 46 f1 3d
       -0.21284527 0.17706104 0.16412449 0.11781112
000130 51 2e a8 be f5 fd 1f be 06 46 d8 3e 14 46 8e 3d
       -0.32847837 -0.1562422 0.42240924 0.0694696
000140 28 55 13 bd bd 34 d4 3d c8 ba b7 3d 86 65 14 be
       -0.035969883 0.103616215 0.089711726 -0.14491853
000150 77 4a 23 be 91 b9 00 3c 60 00 a1 be c5 33 71 be
       -0.15946375 0.0078567425 -0.314456 -0.23554905
000160 e6 ab 11 be aa 4e 80 3c 53 51 a2 be ba 74 92 3e
       -0.1422573 0.01566251 -0.3170267 0.2860468
000170 fa db 55 be fe c7 af 3d 5d f9 74 3e 52 05 70 3e
       -0.20884696 0.08583067 0.2392325 0.2343953
000180 4a 16 9b bd eb ff bc 3d aa 97 00 3e 07 be 46 bd
       -0.07572611 0.092285 0.12557855 -0.048521068
000190 a7 7e 11 3e 14 1d a8 3d 96 8e a2 3d 16 cd 10 be
       0.1420847 0.08208671 0.07937352 -0.14140734
0001a0 0b cb 72 bd cf 27 c1 3c 2d 43 a5 ba e4 a2 0e be
       -0.059275668 0.023578553 -0.0012608521 -0.13929325
0001b0 96 d2 01 3e 24 da 90 3e 77 c8 99 3d c1 2d 34 be
       0.12677988 0.28291428 0.07508939 -0.17595579
0001c0 55 9e 27 3b 11 8f 5e 3d d9 fc 27 3d 5d 90 60 be
       0.002557655 0.054335658 0.04101262 -0.2193007
0001d0 a3 31 be 3e c6 28 9e 3d af 48 2e be 15 cd ad 3d
       0.37147245 0.07722621 -0.17019914 0.08486382
0001e0 08 48 99 3e 23 b1 56 be 87 39 83 bc 56 45 45 3e
       0.29937768 -0.2096601 -0.016018642 0.19264731
0001f0 12 23 7b be 60 78 a3 3d 09 ad 8f 3d d9 11 92 3e
       -0.24525097 0.07981944 0.07015426 0.28529242
000200 74 c0 15 be 8b 0e 73 be dc 88 ed 3e eb db 7d be
       -0.14624196 -0.23736016 0.46393478 -0.24790923
000210 25 31 1b 3e 46 cc 01 be 80 0e 9b bc 3c 83 35 3d
       0.15155466 -0.1267558 -0.018927813 0.044314608
000220 0a 1f 35 3e ae a9 82 be f4 e0 a9 bd b8 09 d7 3e
       0.17687622 -0.2552008 -0.082948595 0.41999602
000230 d3 e8 3b 3d 89 2f d6 be e4 ec 6b bd 00 24 4e be
       0.045876335 -0.4183314 -0.057598963 -0.2013092
000240 c1 f2 cc bd d6 a1 93 be 4c 50 6d bd 13 88 8c bd
       -0.10007239 -0.2883441 -0.057937905 -0.068618916
000250 63 1a 53 bd a9 52 a2 bd f0 19 df bd 21 4c 91 bc
       -0.051538836 -0.079259224 -0.10893619 -0.017736496
000260 2a f3 99 be 77 2c ce 3e df c0 9d be f5 76 89 be
       -0.30068332 0.402683 -0.3081121 -0.2684857
000270 ee b5 16 3d f6 cb a2 bd 42 86 3b 3e 6c 1c 59 be
       0.036794595 -0.07949059 0.18312934 -0.21202248
000280 7d c8 09 be 98 5f 70 3e 3d dc 89 be 62 68 2c be
       -0.13455386 0.23473966 -0.2692584 -0.16836694
000290 64 c2 e9 bd 4e ad 82 be 8e 48 5d 3d 93 df 2d be
       -0.1141403 -0.25522846 0.05402427 -0.16979818
0002a0 6f ee 46 be 94 e5 48 be df f3 62 be 76 08 4a 3e
       -0.19426893 -0.19618827 -0.22163342 0.1972979
0002b0 47 e9 91 3e dd 0b 08 be 0f 6d cf 3d 85 0e 93 3e
       0.2849829 -0.13285775 0.10128223 0.28722015
0002c0 cd 69 ef 3d 54 ca 81 bc f8 23 11 3e ef 7b 9e 3c
       0.11690102 -0.015843548 0.14173877 0.019346206
0002d0 e3 b0 d8 bd 99 c7 b9 3d c3 ad a2 bc e2 1b 51 bd
       -0.105806135 0.09071273 -0.019858247 -0.05105198
0002e0 5d 63 93 bd 3e 09 b4 3e e5 f1 16 bd 0e 16 b1 bd
       -0.071966864 0.351633 -0.036851782 -0.08646785
0002f0 a8 18 60 bc 47 c2 b1 bd f8 dd 41 be 02 81 9c be
       -0.0136777535 -0.086796336 -0.1893233 -0.30567175
000300 11 8e 2e be 6f f4 82 be fd 23 43 be dc e2 12 3e
       -0.17046382 -0.25577113 -0.19056697 0.14344352
000310 11 f4 27 3e e9 84 f5 3c ef 2c 1d 3e e7 ad ab 3e
       0.16401698 0.029970603 0.15349172 0.33531114
000320 41 8b e3 3e 82 db 27 be 7c b6 ef 3b 92 ff ba 3d
       0.4444218 -0.1639233 0.007315455 0.091307774
000330 c4 3c d4 be 8d bc 16 3d 50 5d 72 3e 95 43 96 3e
       -0.4145261 0.03680091 0.23668408 0.29348436
000340 25 6a 8d be 93 48 54 3d 28 4f ce 3c 38 12 1b be
       -0.27620044 0.051827025 0.025184229 -0.15143669
000350 6d 8f 26 be 8b 84 4a 3c 47 7d b6 be 04 43 ab bd
       -0.1626565 0.012360702 -0.35642454 -0.083623916
000360 b9 13 ef bc de 75 a2 be 31 ce 71 3e 31 2b 4e 3d
       -0.02918421 -0.3173055 0.23613812 0.05033416
000370 8d b0 44 3c 8d 8c 03 be 27 09 92 3c de 25 64 3e
       0.012004984 -0.12846585 0.01782663 0.2228007
000380 85 b0 17 3d d8 2f ba 3d 1b bc 9a 3b 84 62 a4 3c
       0.037033577 0.09091157 0.004722131 0.020066507
000390 cd 49 84 bd c6 eb 4d 3e 24 0f f2 3d af 22 63 3e
       -0.06459389 0.20109472 0.11819294 0.221812
0003a0 06 93 0c 3d 13 9f 9e be 58 d3 66 3e 1f 9f 31 3e
       0.0343199 -0.3098074 0.22541559 0.17345856
0003b0 ee f1 50 3d 33 c9 f1 be 6d 3b 0f bc 02 b8 20 3e
       0.051011972 -0.47223815 -0.008742196 0.15695193
0003c0 5e 62 78 be 44 d5 86 bc ac 76 ab 3c bf 3f a4 be
       -0.24256274 -0.016459115 0.02093061 -0.32079884
0003d0 83 7f c9 3e 3b 49 66 be 26 c1 a4 be d0 dd 91 be
       0.39355096 -0.22488873 -0.3217861 -0.28489542
0003e0 48 04 93 be 7d 8a 87 3d f2 4d 4e 3e 91 32 8f bd
       -0.28714204 0.066182114 0.20146921 -0.06992067
0003f0 34 79 7b 3c e0 c0 d2 be 2b 2e 1c be d9 b7 ac bd
       0.015348721 -0.41162777 -0.15251987 -0.08433504

network_body._body_endoder.seq_layers.2.bias f4 [128]
000000 6c 4c 35 b9 1c d7 1f 3c 1e 4b 2b bc a9 dd 0a bc
       -0.00017289974 0.009755876 -0.010454921 -0.008475699
000010 3d 18 16 bc 27 22 f8 bb a5 0f ed bb 00 e5 7b 3b
       -0.009161052 -0.0075724307 -0.007234531 0.0038436055
000020 50 db d3 3b 7c d3 35 bc 17 a2 8b bb fa 9f 17 bc
       0.006465353 -0.011097785 -0.004261266 -0.00925445
000030 97 78 06 3c 46 0b 13 3c a2 eb 1f bc df e2 0d bc
       0.008207462 0.008974856 -0.009760769 -0.008660047
000040 c6 9d ed bb 81 83 02 bb de 48 0c 3c 02 9b a1 bb
       -0.007251474 -0.0019914808 0.008562295 -0.0049318084
000050 0f 60 8f 3b e5 75 03 3c ad 79 be 3b d6 f6 24 bc
       0.0043754647 0.008023714 0.0058128447 -0.010068616
000060 81 86 77 3b fc d8 29 bc 78 f9 29 bc c8 3e 0d bc
       0.003776938 -0.0103666745 -0.010374419 -0.008620925
000070 c3 b3 20 bc 8e e9 91 bb ee 9d 08 3c 65 a2 0c 3c
       -0.0098084835 -0.0044528907 0.008338435 0.00858364
000080 7d ef 20 bc 2c e4 d6 3a ce 46 fa bb 8f 6c 32 bc
       -0.009822723 0.0016394905 -0.007637835 -0.01089014
000090 2d d6 0a 3c 7d bc 00 bc aa ea 09 3c 6e 8c 08 bc
       0.008473915 -0.007857439 0.008417765 -0.008334262
0000a0 9d 81 06 3c 60 e7 ed ba d4 e6 5f 3b e2 90 76 bb
       0.008209613 -0.001815062 0.0034164684 -0.0037622978
0000b0 3c 66 2e bc 3a 7f 0c 3c 2e 9a a4 3b b1 56 1a 3c
       -0.010644492 0.008575255 0.0050232625 0.009420083
0000c0 f1 e0 35 bc 96 ac 2c 3c 58 65 98 3b 2c 26 8f bb
       -0.0111009935 0.010539195 0.004650753 -0.004368564
0000d0 29 36 84 3b 43 e2 45 ba be 58 38 3c 84 0d 2f 3c
       0.0040347767 -0.0007548669 0.011251627 0.010684375
0000e0 fd f5 45 ba 0b 37 20 3b 0a e0 1e bb 9b 98 04 3c
       -0.0007551609 0.002444687 -0.0024242424 0.008093025
0000f0 b0 49 e9 3b b0 37 19 3c 1c 16 b1 bb 41 90 17 3c
       0.00711938 0.009351656 -0.005404247 0.009250701
000100 91 2a 20 bc 6b fb d3 bb 38 cf c5 3a 26 81 11 3c
       -0.009775774 -0.0064691803 0.0015091663 0.008880889
000110 26 dc f2 bb ac 88 03 bc d5 80 9c ba a8 fa a0 bb
       -0.0074114976 -0.008028191 -0.001194025 -0.004912693
000120 19 a8 15 bc b2 96 07 bc 86 e2 08 3c 64 4d 02 3c
       -0.009134316 -0.008275675 0.008354789 0.007953022
000130 f2 e1 66 bb 88 6a ce bb f8 9f 57 3c f6 d0 1e 3c
       -0.0035229889 -0.0062993206 0.013160698 0.009693375
000140 7a ad 67 bb c0 d1 21 3c 54 38 18 3c 60 a5 0e 3c
       -0.0035351203 0.009876668 0.009290773 0.008706421
000150 64 4f ec 3b e1 66 cd bb eb c5 da 3b 0a 17 9f 3b
       0.0072116125 -0.0062683676 0.0066764257 0.0048550414
000160 0a 00 28 bc 44 7b 86 39 3f 2c 0c 3c 9b b2 ac 3b
       -0.010253916 0.00025650312 0.008555471 0.005270315
000170 a5 a1 39 3c 0f 80 ff 3b 8c a6 29 b9 57 70 1b bc
       0.011330043 0.007797248 -0.0001617914 -0.009487233
000180 46 e1 f5 ba df 80 f3 3b c9 0f b8 bb af a5 13 bc
       -0.0018759153 0.007431134 -0.005617116 -0.00901167
000190 74 11 de 3b e5 77 1d bc 63 91 0c 3c 25 99 f2 3b
       0.006776983 -0.009611105 0.008579585 0.00740351
0001a0 a6 87 23 3c 17 ec 79 bb 53 20 19 bc 41 2b 24 bc
       0.009981072 -0.0038135105 -0.009346086 -0.010020078
0001b0 36 a0 26 3c 5c d4 a3 3b 3b 9d e8 3b 6b 36 b3 bb
       0.010170033 0.0049996804 0.0070988215 -0.0054691336
0001c0 f5 d3 2a 3c 22 8d 29 3c 15 3a b2 3b 26 6c 13 bc
       0.010426511 0.01034859 0.005439053 -0.008997953
0001d0 a4 d4 14 3c 5a 75 12 bc 1f c1 1f 3b 7e a2 1b bc
       0.009083901 -0.008939112 0.0024376584 -0.00949919
0001e0 63 f8 f6 3b f8 1c dc 3b 1f 07 e4 bb 8b 32 fd 38
       0.007536934 0.0067173205 -0.0069588567 0.000120733945
0001f0 b0 a9 09 bc 93 9c 14 bc 87 50 03 bc 71 6d 0d bc
       -0.008402273 -0.009070533 -0.008014805 -0.00863205

network_body._body_endoder.seq_layers.2.weight f4 [128, 128]
000000 39 6b 8c 3b cf 77 a5 bd 3b 74 d1 3c 80 5c 36 bd
       0.004285243 -0.08079492 0.025568118 -0.04452181
000010 85 12 40 3d a3 a1 3a be 1f a7 90 bc 39 63 d2 bc
       0.04689266 -0.18225722 -0.017657815 -0.025682079
000020 36 5f a3 3d 1a 09 10 3d 1c 2b 21 3d b9 fa cd 3d
       0.079771444 0.03516493 0.039347753 0.10057587
000030 f5 c9 69 bc 12 78 96 3c 4f 8c 30 bd 01 65 fe 3d
       -0.014269342 0.0183678 -0.04310256 0.12421609
000040 26 75 b9 3d 30 c1 dc bd 22 7d 6a 3d d5 8f 62 3c
       0.090555474 -0.10779035 0.057248242 0.013828238
000050 49 ac 25 3d 10 ec d2 3d 20 28 b1 3c ca c7 34 bc
       0.040447507 0.102989316 0.021625578 -0.011033962
000060 99 1f 5d 3d 95 86 60 3d c5 3f e9 bc 4e 10 32 3d
       0.053985212 0.054815847 -0.02847279 0.04347258
000070 7f 65 a9 3d 20 51 ad 3e c9 f3 a0 3d 32 c1 16 bd
       0.08271312 0.33850956 0.07858998 -0.03680534
000080 e8 56 4b 3d 0d c7 c4 3c 81 96 7f 3d 38 c0 a9 bd
       0.049643427 0.024020696 0.06239939 -0.08288616
000090 59 42 40 3d 49 22 0d bd 94 20 b7 bd fa af 2b 3d
       0.046938274 -0.034456525 -0.08941761 0.04191587
0000a0 10 e9 88 bc 4d 7e 93 bc 7d 96 7d 3c 3e 57 35 3e
       -0.016712695 -0.01800456 0.015477774 0.17709062
0000b0 e1 01 41 bd 2a 48 2a bd b7 37 06 3b 31 a8 84 3d
       -0.047120932 -0.041572727 0.0020479986 0.064773925
0000c0 19 06 a8 bd d6 a6 2c 3d 01 44 d8 3d be cb 49 bd
       -0.08204288 0.042151295 0.10559846 -0.04926657
0000d0 2b 9b f7 bd 56 b7 db 3d 49 1c 57 be 2e 04 b8 bc
       -0.12090143 0.10728328 -0.21006884 -0.02246293
0000e0 1c 94 c2 3d 3d ad c2 bc 33 4a 52 3d 30 b8 c0 bc
       0.09500906 -0.023764247 0.051340293 -0.023525327
0000f0 f4 c0 d0 3b ae 3e 7f 3d 66 79 47 3d 50 c6 1c bc
       0.006370658 0.062315635 0.04869976 -0.009568766
000100 b5 f6 b9 bd 26 35 82 bd 77 06 9d bd c0 6a 17 be
       -0.09080259 -0.063577935 -0.07667249 -0.14786816
000110 1b 46 b3 3d c0 5b 1a 3e e8 71 c7 3d f6 e5 1f be
       0.08753606 0.15074062 0.09738523 -0.15615067
000120 1d d7 c9 bd e8 49 ef 3d b6 a9 b6 bd 14 10 c2 bc
       -0.09855483 0.116840184 -0.089190885 -0.023689307
000130 42 41 d4 bc d2 d7 d8 bd 6c d7 38 3e 43 64 95 3d
       -0.025910024 -0.105880395 0.18050927 0.07294514
000140 4d 8b e8 3d 1d 55 3f 3d f7 26 9e bc 76 7b 44 bd
       0.113546945 0.04671203 -0.01930569 -0.047969304
000150 6f 36 c0 3d 84 d2 19 bd 74 f2 76 bb 0d 77 6c bc
       0.093853824 -0.03755428 -0.0037681134 -0.014432681
000160 dc 26 c5 3d 6f e5 e9 3c a7 31 60 3d 2b 80 ac bc
       0.096265525 0.028551785 0.054734852 -0.021057209
000170 3c 6f c8 3d fb 92 9b bd 49 2c a0 bd fa 00 87 3d
       0.09786841 -0.07596394 -0.07820947 0.06591983
000180 d6 0f b4 bc 20 87 34 be 74 e0 c2 3d 3b 03 4f 3d
       -0.021980207 -0.17629671 0.09515467 0.05054019
000190 91 1b 9e bd 1c 06 18 bd 4f 22 72 bb 90 69 88 3d
       -0.077201016 -0.0371152 -0.003694672 0.066607594
0001a0 8a dc 16 3e 34 dc 01 bd c1 7f 08 3d 56 85 d0 3c
       0.14732566 -0.031704143 0.03332496 0.025454205
0001b0 ee f3 02 bd 48 25 fb bc 37 b5 7f 3d e8 da e6 3d
       -0.03197091 -0.030657426 0.06242868 0.11272222
0001c0 ab c4 55 bd 71 35 e6 3c 42 84 15 bc 10 4d a2 3c
       -0.05218951 0.028101655 -0.009125771 0.019812137
0001d0 4f 07 6e 3d e3 f5 80 bd b9 26 ca bd cc 91 b2 bb
       0.05811244 -0.06296899 -0.09870667 -0.0054495092
0001e0 1e d6 d3 3c cc fe 7f 3d ae b7 1f be 23 74 48 3e
       0.025858935 0.062498853 -0.15597412 0.19575553
0001f0 0e 5a c8 3d 6f a8 99 3a 7e 4b 01 be c9 30 f5 bc
       0.097828016 0.0011723171 -0.12626454 -0.02993049
000200 ae 72 47 bd 99 2c d0 3d 05 f6 1e 3e 5a 72 05 3c
       -0.04869335 0.10164756 0.15523537 0.008144939
000210 17 f7 6d 3d e5 51 ba 3a 3d bc 0a be 8a 32 b2 3d
       0.05809697 0.001421508 -0.1354837 0.08701046
000220 72 76 53 3d 5a e3 f1 3c 8a a6 17 3d 25 7a 12 be
       0.05162663 0.029527355 0.03702406 -0.14304407
000230 af 20 be bc 11 43 95 bc b8 c4 fd bb 20 34 48 be
       -0.023208944 -0.018220456 -0.007744398 -0.19551134
000240 69 81 4a 3c 58 c3 af 3c 1f eb c1 bb a8 2e 25 3d
       0.012359955 0.021455452 -0.005917921 0.040327698
000250 a6 3c 76 3c e9 61 0f 3e e1 60 63 3d 8e c2 04 bc
       0.015029108 0.14002194 0.055512313 -0.008103026
000260 e7 3d b6 bd 6d ad 45 bd 4d 57 dd bb 4c 7c f1 3d
       -0.08898526 -0.048261095 -0.006754792 0.11791286
000270 5e 56 e8 bc 99 3f 2c 3c 54 b9 2f be 0d ed 66 3d
       -0.028361496 0.01051321 -0.17160541 0.056378413
000280 ae f9 37 3d 65 5b b9 bd 0e c2 03 3e 68 82 5c bd
       0.044915847 -0.09050635 0.12866995 -0.053835303
000290 c8 5c 0d 3e 30 a3 11 3e 67 d6 80 bd fd 90 60 bd
       0.13804924 0.14222407 -0.06290894 -0.05482577
0002a0 7d ab 17 bd c2 c5 23 be 49 48 4c 3d b9 f2 40 3e
       -0.03702878 -0.15993407 0.049873624 0.18842591
0002b0 5e c7 9f bd 55 5d de 3d 39 5b 60 3e 9a 19 cf bc
       -0.07801698 0.108576454 0.21909799 -0.025280762
0002c0 83 0a 29 bc 09 65 a3 3c 07 73 8c bd ee 06 1e 3e
       -0.010317448 0.019945638 -0.06857877 0.15432331
0002d0 6f 98 89 3d b2 38 c3 3d 67 dc cf 3d ac 7c 05 3c
       0.067185275 0.09532298 0.1014946 0.0081474
0002e0 f7 e7 36 bd 0f f9 bc bd 34 0c 88 3d e1 d3 8b bb
       -0.044654813 -0.09227192 0.066429526 -0.0042672013
0002f0 13 46 5b 3d ae 38 6a 3e c5 85 67 bd d8 b9 a4 3b
       0.053533625 0.22873184 -0.056524057 0.005027037
000300 f2 b7 d4 3d 1c a8 2f be 98 62 5b bd cc 6d 0a 3e
       0.10386647 -0.17153972 -0.053560823 0.13518447
000310 7a 6f 8f bd 19 81 14 be db 66 b1 3d 08 55 70 bc
       -0.07003684 -0.14502372 0.08662196 -0.0146687105
000320 97 c8 df bd 88 4c db 3c 38 09 c6 3d b6 29 cd 3b
       -0.10926931 0.026769891 0.09669727 0.006261076
000330 34 8a 09 3e 31 1e 44 bc 80 68 aa 3d 74 ea c2 bd
       0.13431627 -0.011970089 0.08320713 -0.09517375
000340 58 18 2a 3e 5e 95 6e 3d fc 34 bc 3c 72 68 a5 bd
       0.16610849 0.058247916 0.022974484 -0.08076562
000350 0b 40 77 3d 1e 93 2b bc 97 35 6b be dd 2e 9b 3d
       0.06036381 -0.010472087 -0.22969662 0.07577298
000360 e4 f5 e0 bd 65 af a6 3d e7 ac 15 be bb 50 ac bd
       -0.109844 0.081389226 -0.14616738 -0.084138356
000370 b0 19 1a bd 91 3f a0 3d 2a ab d6 bd 3d 98 a4 bc
       -0.037622154 0.07824624 -0.10481866 -0.020092124
000380 ad 7a 2b 3d 67 7c fb bd 69 f1 cd bd 12 25 e7 bb
       0.04186504 -0.12279587 -0.10055811 -0.0070539797
000390 87 ac 53 be 5c f1 54 3e 82 02 8b 3d 13 0d 4d 3d
       -0.20671283 0.20795196 0.06787588 0.050061297
0003a0 4a 36 98 3b 3a 78 95 bc 15 27 ff bc 33 67 28 be
       0.0046451436 -0.018245805 -0.031146565 -0.16445617
0003b0 ea a9 c4 3d da 6a 18 bd be b4 5d bd 34 4e 2f bd
       0.09602721 -0.037211277 -0.054127447 -0.04279919
0003c0 6f 90 1b be 23 dd 3c bd d1 9a 2a bc 3f 0b 1d bd
       -0.15191816 -0.04610933 -0.010412888 -0.038340803
0003d0 61 64 df bd b8 d1 1a bd 6a 95 cf bd bb 22 a8 3c
       -0.10907818 -0.03779766 -0.1013592 0.020524373
0003e0 de 6a 67 3d 24 7b e8 3d 76 3f 95 3d b9 3f 36 bd
       0.0564984 0.11351612 0.07287495 -0.044494364
0003f0 7a e1 c7 bd ab 55 b9 3d 86 04 a7 bd ad 70 a2 3b
       -0.09759803 0.09049543 -0.0815516 0.0049572797
