AIRocketLanding/results/AIRocket3/AIRocket/AIRocket-47398.pt (torch, 505935 bytes, 42 tensors)

network_body._body_endoder.seq_layers.0.weight f4 [128, 26]
00000000: 6200 533d 401b ca3d bdb3 1fbe 1d53 123e
00000010: e707 cbbd 8c6f 31bd 66d0 2a3e da2a c8bd
00000020: 148b 94be 47f4 e33b 824e d33d 9868 f5bd
00000030: 0b9c 033e 5998 d53c 7a14 e13e 7db5 c33d
00000040: 9589 233e a295 a43d c57e 87bd ee80 a2be
00000050: 40fd 0b3e 9605 1fbe f3ed 9abe 2507 773e
00000060: 3bf5 94be e94f 51bc c49f 2c3e feab 3dbd
00000070: 1c12 51be df1d d9be d471 21bd 564e 7c3d
00000080: 41e4 d63c 376c 2abe 27af a43e cb5e e0bd
00000090: 26b9 af3d bfab df3d b91f 293e 3116 d2bc
000000a0: 6c67 2ebd 9249 84bd 3867 c03c df9b 39bd
000000b0: da41 fbbc 12af 4e3e 256d 0fbe 6f1c d43e
000000c0: 1e6e 533d dcc9 9abe 8a05 98bd fec7 d33d
000000d0: ecc3 40bc 6771 853b 8a64 2f3e 73ce 973d
000000e0: 45f3 9cbd 6080 603e 00cc 313d a800 db3e
000000f0: 791f 9bbd a727 2b3c 1f6c 00be 2f8f 753e
00000100: 4811 613c 5a80 f0bd bf3b 05be 1235 01be
00000110: fe95 97bd 1254 debe da64 773d 4945 0b3e
00000120: f293 0c3d ab36 333e 07d6 253e 7bdf 4d3e
00000130: f7b8 d1be 07e2 e53e 6e5c a23e 617d 82be
00000140: 79e4 0b3d 9c88 b3be ec6d 1c3d f709 61ba
00000150: bc8a d4be 8804 4fbd 3698 9bbe 8ac5 583e
00000160: 399f fd3e 1924 ddbd 476c ec3d 9c89 a6be
00000170: 6ae0 14bf c3a9 3abd 0383 fabc d432 6d3e
00000180: 5818 64bc 6d0f 76be ce05 353d 5ffe f3be
00000190: b2a8 543e 340e 483d ef3c 1f3e 8b94 d4bb
000001a0: 3b48 233d 28e6 de3e 7ac3 993e e581 cc3e
000001b0: f351 6c3e 8f8c 07be 6921 e63d c643 2abe
000001c0: 0d37 673e 928d c03e 5a7a 4e3e 799d 3d3e
000001d0: 078b 46bd 36a3 9fbd 2102 623e 2c25 183e
000001e0: ebbd aebd 6cc8 d1bd e138 d1bd 95bb 9bbe
000001f0: ce14 b2be f413 46be 475a d6be 7e1e 873e
00000200: 4450 903c 92d6 60bc 2a64 a7be 2a0b 21be
00000210: 040c 8abd 315e 96be 2dcc 91be 85f3 723c
00000220: 35b9 59bc 77f0 083e c64a 2c3e 7847 46be
00000230: e406 9fbd 22e9 cabe eb50 29bd 1e90 553e
00000240: f48a 9d3e 8335 883e 62b2 7e3e baa7 cdbe
00000250: 3d45 6e3e baa4 a23a 3e93 413e 43c0 aa3d
00000260: ba94 bbbd 50ae 2e3e 451f af3e a231 6cbe
00000270: 4cdb 993c f94a fcbd 14b3 01bb 39fb 63be
00000280: d271 32be 5543 b8bd 708e f03c ccf2 63bd
00000290: 8e27 fe3e f9d7 c23e f721 8cbc f766 7c3d
000002a0: 47dc c2bd 8363 d83c d985 f6be 1264 e63c
000002b0: 71de 99be 9df2 0c3e c356 36be b0b2 203e
000002c0: c6cb d2bd 546e 383e a893 373e 4857 983d
000002d0: 515c 34bd 68a6 8e3d ac1a dabc 99c4 f33d
000002e0: d6ae fabd 5215 a53d 1eed 8ebd 8dc9 d2be
000002f0: 99a9 ef3b 2cd5 2d3d c9ae f63d 2201 69bd
00000300: 6334 e93d 4323 e8bd 3a23 d23e b886 d5be
00000310: 4332 0d3e f2ff 973e a6d2 0dbe 6f7e 9a3e
00000320: 65a9 79be d4f8 59bd a039 67be 9a2f f13c
00000330: bfbd 2a3c cf8c d33d 37f8 5ebe cfb5 083f
00000340: eaaf 8cbe 2f23 da3e 4e56 143e f3f4 8d3d
00000350: 8aad 823e 312b 243e 26e8 e93e 6edc bb3d
00000360: 04b0 3b3d 00f0 293e 73b2 5c3e 4213 ecbe
00000370: 1d8f d4be ca41 69bd 71a6 403e 1316 a93e
00000380: f821 243e 86d0 6dbc 3240 81bd 5c27 6dbd
00000390: 5473 8f3e a22c 5bbd 8774 bebc 14fd 15bd
000003a0: 88ec f5bd 27d9 4e3e e3d1 87bd c4b8 4e3d
000003b0: 5785 60be 830f e63d c620 463e 6316 10bd
000003c0: c844 383c b31e bdbd ead1 a8bd 3245 28bd
000003d0: 98e9 8d3e 45da 7b3e 7ea3 a33d 4323 9c3e
000003e0: 52c9 133e d191 a7be 70db 2d3d b579 cdbd
000003f0: 3734 5abe a45b 02be de51 6dbd d1cf 4fbe
0.051514037 0.09868479 -0.15595908 0.14289518 -0.099136166 -0.04331927 0.1668106 -0.09773798
-0.29012358 0.0069566104 0.103177086 -0.1198284 0.12852494 0.026073622 0.43960935 0.095561005
0.15970452 0.08036353 -0.06615976 -0.3173899 0.13670826 -0.15529475 -0.30259666 0.24123819
-0.29093346 -0.0127754 0.16857821 -0.046306603 -0.20417064 -0.42405602 -0.039415196 0.061598144
0.026231887 -0.16642843 0.3216488 -0.1095558 0.08580236 0.1092143 0.16516007 -0.025645347
-0.0425791 -0.06459345 0.023486719 -0.045314666 -0.030671049 0.20183972 -0.14006479 0.41427943
0.051618688 -0.3023213 -0.074229315 0.1034088 -0.011765461 0.0040723565 0.17128196 0.07412424
-0.076635875 0.21923971 0.04340744 0.42773938 -0.07574362 0.010446466 -0.12541245 0.23980401
0.01373703 -0.11743231 -0.13011073 -0.12617901 -0.074016556 -0.43423516 0.060398914 0.13600649
0.03432078 0.17501323 0.16194926 0.20104782 -0.4096143 0.44899008 0.31711143 -0.25486282
0.034153435 -0.35065162 0.038190767 -0.0008584554 -0.41512096 -0.05054143 -0.30389565 0.21169105
0.4953554 -0.10797901 0.1154409 -0.32526863 -0.5815493 -0.045572054 -0.03058005 0.2316392
-0.01392182 -0.24029322 0.04419499 -0.47655007 0.20767477 0.04884167 0.15550588 -0.0064874343
0.039863806 0.4353497 0.3003195 0.39942852 0.23078136 -0.13237213 0.11236841 -0.16627416
0.22579594 0.3760801 0.20163861 0.18517102 -0.04847243 -0.07794802 0.22071125 0.1485793
-0.08532318 -0.102433056 -0.10215927 -0.3041655 -0.34781498 -0.19343549 -0.4186575 0.2639045
0.017616399 -0.013723033 -0.32693607 -0.15726915 -0.06740573 -0.29368737 -0.28476086 0.014828567
-0.013288786 0.1337298 0.16825399 -0.193632 -0.07764986 -0.3963099 -0.041336935 0.20855758
0.30770075 0.26603326 0.24872735 -0.40167028 0.232686 0.0012408711 0.18903825 0.08337452
-0.09159227 0.17058682 0.34203544 -0.23065808 0.018781327 -0.123189874 -0.0019790577 -0.22263803
-0.17426232 -0.089972176 0.029364794 -0.05565147 0.49639553 0.380554 -0.01710604 0.061621632
-0.09514671 0.026414638 -0.48148993 0.02812389 -0.30052522 0.13764425 -0.17806534 0.15693164
-0.10292773 0.18010837 0.1792742 0.074385226 -0.044033352 0.06965333 -0.026624046 0.119027324
-0.122403786 0.08060707 -0.0697882 -0.41169396 0.007313919 0.042439625 0.120450564 -0.056885846
0.11386945 -0.11334851 0.410425 -0.41704345 0.13788705 0.29687458 -0.13849887 0.30174586
-0.24381025 -0.053215817 -0.22580576 0.029441644 0.010421216 0.103295915 -0.21774374 0.5340242
-0.27477962 0.42604968 0.14486048 0.06931486 0.25523025 0.16032101 0.45684928 0.09172903
0.04582216 0.16595459 0.21552448 -0.46108443 -0.41515437 -0.056947507 0.18813492 0.33024654
0.16028583 -0.014515048 -0.063110724 -0.057898864 0.28017676 -0.053509362 -0.023248924 -0.036618307
-0.120080054 0.20200025 -0.066318296 0.050469175 -0.21925865 0.112334274 0.1934844 -0.0351776
0.0112468675 -0.09234371 -0.08243163 -0.041081615 0.2771728 0.24594982 0.07990168 0.30495653
0.14432266 -0.32728437 0.0424456 -0.100329794 -0.21308981 -0.1273027 -0.057939403 -0.2029412

network_body._body_endoder.seq_layers.0.bias f4 [128]
00000000: 9cf2 9fbb f067 25bd 980f febc a9c2 a93b
00000010: a144 b2b9 5e87 75bc 9564 a4bc 7dd0 2f3d
00000020: 6456 783c c7f4 553d 8029 b93d 99b1 45bd
00000030: 2f96 82bd 081e 1b3d 6d4c 9c3c 77e7 b13c
00000040: 3671 a2bb 58d8 dbbb 63c1 353d 78ca 1dbd
00000050: e046 593d 2e11 c4bd a46b 473d f43a 28bd
00000060: f1db 10bd a318 23bc a238 9a3d 1ba3 53bc
00000070: 89fd fbbc 8f1a 3f3a 36eb b9bc 84c5 923b
00000080: e17b a93c 0e53 24bd 907d b33c 7f1b 51bd
00000090: b602 bc3c 341d 523c 32cc 563d f199 5dbb
000000a0: b16b 0cbe 5089 abbd 1575 903d 8098 eb3a
000000b0: 98f2 083d 2aa9 c2bc 80a8 243d 7675 d4bc
000000c0: e118 38bb c4bc 88bc 193b 59bd 5850 39bd
000000d0: 97b4 9e3c f262 943b 96a0 42bd 7f7b 983b
000000e0: cd9d 86bc c5f2 debc ac28 363d fac3 5c3d
000000f0: 9a37 253d 452e 9dbc b0a1 0abb 885d a23d
00000100: 4d70 81bd e567 493d 09f3 b13d ad1f 883d
00000110: d1fa 493d bc58 253c 4206 b8bc 7edb e93a
00000120: ed6a 81bd af6f 2dbd 63e8 833b 71fc 813d
00000130: 912d 35bd 750e c73d 3786 da3c f103 9f3c
00000140: 5fce 903c c36b 50bc b5d6 5ebd f8f7 5a3b
00000150: 3423 393d 150e 713d 9403 9a3d 179e 89bd
00000160: c4d4 963d 6f54 e83a cca6 fa3c ebcc c6bc
00000170: 4767 24bc f401 3e3d f524 0a3d c185 c9bd
00000180: c4ab 0a3d cb1b 843d 3d59 8a3d 3077 143d
00000190: 2564 b9bc 9ab3 b43c 448d f7ba 2292 383d
000001a0: 854c 07bd 999e 98bd 2d61 cd3c d32e efbd
000001b0: 035f 23bd 5680 f4bc c23e 3abd 248c 93bc
000001c0: 2390 f43c b179 ba3d d262 133c 7760 cf3b
000001d0: b775 b73c 8088 333d 2b3e 60bd 0136 17bd
000001e0: 5a9f 1c3d 79b2 08bd a7eb dc3c d09c 9a3c
000001f0: 01ab 813d d827 1abc be60 883d b4f0 bb3c
-0.004881216 -0.040382326 -0.031013295 0.005180676 -0.00034001938 -0.014985887 -0.020067492 0.04292344
0.015157316 0.05223539 0.090411186 -0.048265073 -0.063763015 0.037870437 0.019079411 0.021716816
-0.0049573435 -0.00670914 0.04437388 -0.038523167 0.053046107 -0.09573589 0.04868664 -0.041071847
-0.035366002 -0.009954604 0.07530333 -0.012917305 -0.030760543 0.00072900293 -0.022695165 0.004479112
0.020688953 -0.04011827 0.021910459 -0.051051613 0.022950511 0.012824345 0.05244083 -0.003381368
-0.13712956 -0.083758 0.070535816 0.0017974526 0.03343448 -0.023762304 0.040199757 -0.025934916
-0.0028091 -0.016691573 -0.053034876 -0.045242637 0.019373221 0.0045283968 -0.047516428 0.0046533938
-0.016432667 -0.02721537 0.04447238 0.053897835 0.04033623 -0.019187102 -0.0021153502 0.07927996
-0.06320248 0.049171347 0.086889334 0.06646667 0.049311463 0.010091957 -0.022463921 0.0017841903
-0.063192226 -0.042342838 0.0040255054 0.063469775 -0.04423291 0.09719554 0.026675327 0.01941106
0.01767653 -0.012721005 -0.05440398 0.003341196 0.045199588 0.05885132 0.07520214 -0.06719606
0.073648006 0.0017725358 0.030597113 -0.024267634 -0.010034389 0.04638858 0.03372665 -0.09839965
0.033855215 0.064506136 0.06755302 0.03624648 -0.02263076 0.022058297 -0.0018886705 0.045061238
-0.03303196 -0.07452125 0.025070751 -0.11678853 -0.039885532 -0.029846352 -0.045470007 -0.01801116
0.029853886 0.09105242 0.008995729 0.006328638 0.022394998 0.04383135 -0.054746788 -0.036916737
0.038237907 -0.03337333 0.026967837 0.018873602 0.063314445 -0.009408914 0.06659077 0.022941925

network_body._body_endoder.seq_layers.2.weight f4 [128, 128]
00000000: 1ff7 c83d a7df d6bd 747a bf3c 99a9 ac3d
00000010: 7642 bf3d f9d6 db3d 3f97 9c3c e4ad 9cbc
00000020: 0581 323e 5851 a43d 6869 b8bd 41b3 c33c
00000030: 27ca ee3c 9544 193d 2717 34bc 130f 9abd
00000040: 3079 ec3d 5aaa 0f3d a36c 1b3e d391 7cbd
00000050: 3e87 e43d 98d1 88bd 02ef 39bc 3c41 1d3d
00000060: 691c 36be 7af2 b93d 40fd 88bd 7773 e13c
00000070: 33ab d6bd 9b52 e43d b0d1 1abe 9b04 433e
00000080: b23d 8cbd 928c e73d 132b bdbd 3db3 ac3d
00000090: 011f 443e f0bd 503d 982c 96bd 9366 af3d
000000a0: aa9f 0dbd ead4 67bd c2f8 4abe 0846 573d
000000b0: e749 a9bc 0ca9 bb3d 5319 99bd 4722 963d
000000c0: 749e 903d 831a d0bd ea92 0a3d b0d6 a73e
000000d0: 8d2b 083d 59e6 bf3d da1e 9c3d 2cad 06be
000000e0: d3bf ff3b be7e dcbc e7a6 f13c fc27 09be
000000f0: 8dee 653d ca52 c1bc ce66 de3d 572c 7a3d
00000100: 1519 1bbe 1935 143e c169 b9bc ca7f c33c
00000110: d3ad b5bd fe1a db3d 5231 ae3c b29e c43c
00000120: 4d9b e13c a437 e4bc c8d6 713c e353 86bd
00000130: 8639 633d 33d7 eabd 0b33 b3bd ed04 093d
00000140: 6312 5fbe 537f 163d 3111 f33d 41e1 ac3c
00000150: 7d86 34bd 8c44 0abd 7b96 033e e07a 02bd
00000160: 7bd5 dfbc 70bf 0e3e 1c5e 1bbc e129 aa3c
00000170: 1ce0 fb3d 6c01 083e ad25 9b3d c7f7 2abb
00000180: 01ad 953c 3c08 793c 5dba 05be 9425 b33c
00000190: 5236 a43d dd7c 2f3d a6e8 ad3d 18cb 7b3b
000001a0: b81d 0d3c 952d 47bd d779 393e 32a5 0cbe
000001b0: 29b6 0c3e 710e 58bd bcbe 033e 3742 3c3d
000001c0: bb1d db3c aded 283e c62b ed3d dcb7 2bbd
000001d0: a6b8 e1bc 419e 8fbd 178e 703d 2688 28be
000001e0: 18b2 42bd 83a2 ea3d e705 d43d 0ea2 943b
000001f0: 768b 85bd 5d1e bebd 13fa 833d ef10 b1bd
00000200: 794b 01be 3132 f73c 82ea d5bd 15f1 ca3d
00000210: ffb3 67be 48b8 22bc c3cf f53d a340 2fbe
00000220: 723f adbc e418 04be e4f5 bebd 00ea d63d
00000230: 3f15 cb3c 2970 55be 4f1f a9bd e3ae 65be
00000240: 25f2 273e 67c2 113e 03f0 533d 76b2 813e
00000250: 07c3 fbbc 884f 353e 2984 7dbd 4dc8 48be
00000260: 5707 b63d 8807 1e3d 7aca 49be 4328 823d
00000270: f65c 003e fb44 acbd 317a c4bc c79b a7bd
00000280: c627 16bc 8504 683d 7d47 863c b76e eebd
00000290: 33e1 0fbe 5451 66bd 894f 92bd 2d5f 40be
000002a0: c3a6 7e3d 9414 813e f6ac 85bd d3e6 49bc
000002b0: d73a 39be bf00 0b3d 8917 20bd 2711 fc3d
000002c0: 739e 5f3d a9c3 463e abb9 393c 33e1 b63d
000002d0: 5dd1 023e 4d28 4dbe b209 63bd ba36 60bd
000002e0: 4db5 173d 7de9 763d fea2 45be acfa 80bd
000002f0: b7f9 0bbe d4b3 173d 70c0 d7bd d1b0 52bd
00000300: 3aa5 e83c 33d1 91be b6da 4abe bf12 dabd
00000310: f665 733d 1144 a03c 8a40 163e c138 8a3c
00000320: 453d 103e 48f4 93bc 8613 7d3d 13dc 5dbc
00000330: 2e9e 1dbd 6555 fcbd 3248 4ebd 1fee e4bd
00000340: efc1 f63d 1c39 8c3c 6a7a 6f3d c77b f73c
00000350: b927 033d 2960 17bd b712 ffbc 07a6 983d
00000360: 6b27 80be 7bac 39bd 2d11 8cbd 6a33 cdbd
00000370: 0c34 303c 3c6d 5fbe b71d 26bc e504 01ba
00000380: 66b2 2bbe 577d a7be aca8 ab3d b21f 6cbc
00000390: 9e29 aa3d 19ba ed3d 04c0 58bc 9cea 34be
000003a0: 49ba ef3d d75e 1fbe ff64 7c3d 9eb7 c83c
000003b0: cc93 33bd 1012 893d 5c14 913d 6342 143d
000003c0: 1e6a 35be 0d32 c8be e3be 6dbe 5a71 223d
000003d0: 67f8 5d3c 8615 53bc f3fd c53d 1630 e33d
000003e0: 9625 1c3e 6c7e 48be a1ba 763b 3e44 7dbe
000003f0: b3d7 49be 54a1 3fbe e5c1 22be b775 41bd
0.098127596 -0.10491877 0.02337382 0.08430786 0.09338848 0.10734362 0.019115089 -0.019125886
0.1743203 0.080233276 -0.0900448 0.023889186 0.029149128 0.03741892 -0.010991848 -0.075224064
0.11546552 0.03507457 0.1517816 -0.061662506 0.11158608 -0.06680602 -0.011348488 0.03839229
-0.17784275 0.09079452 -0.066889286 0.027520878 -0.104818724 0.11148568 -0.15119052 0.19044726
-0.06847705 0.113061085 -0.092367314 0.084326245 0.19152452 0.05096239 -0.07332724 0.08564486
-0.034576096 -0.056599535 -0.19821456 0.05255702 -0.020665122 0.091631025 -0.07475533 0.07330757
0.070614725 -0.10161307 0.033831514 0.3278098 0.03324466 0.09370107 0.07623072 -0.13151997
0.0078048497 -0.026915904 0.02949853 -0.13394159 0.056135703 -0.023599047 0.10859452 0.061077442
-0.15146287 0.1447338 -0.022633435 0.023864646 -0.08871045 0.10698508 0.021263752 0.024001453
0.027539873 -0.027858563 0.0147606805 -0.06558969 0.05547478 -0.11466827 -0.0874997 0.033451963
-0.21784358 0.03674252 0.118685134 0.021103503 -0.04407357 -0.033756778 0.12850372 -0.031855464
-0.027323475 0.13940215 -0.009482887 0.020771923 0.12298605 0.13281792 0.075755455 -0.0026087628
0.018270971 0.015199717 -0.13059373 0.021868505 0.08018173 0.04284369 0.0849164 0.0038420614
0.0086130425 -0.048627455 0.18112884 -0.13734892 0.13741364 -0.052748147 0.12865728 0.045961585
0.026747575 0.16496916 0.11580615 -0.04192339 -0.027553868 -0.070126064 0.058729257 -0.16458187
-0.047533125 0.11456778 0.10352688 0.00453592 -0.06520741 -0.09283135 0.06444182 -0.08645808
-0.12626447 0.0301753 -0.104451194 0.09909264 -0.22627257 -0.009931631 0.12002518 -0.171145
-0.021148417 -0.1290012 -0.09324244 0.10493851 0.024790404 -0.20843567 -0.08257925 -0.22429995
0.16400965 0.14234315 0.051742565 0.25331467 -0.030732645 0.1770612 -0.061893616 -0.19607659
0.08888119 0.0385814 -0.19706145 0.063553356 0.12535462 -0.084115945 -0.023984047 -0.08184009
-0.009164756 0.056644935 0.01639151 -0.11642211 -0.1405075 -0.056229904 -0.071440764 -0.18786307
0.062170755 0.25211012 -0.0652713 -0.012323099 -0.18088852 0.03393626 -0.039084945 0.12307959
0.05459447 0.19410576 0.011335771 0.08929672 0.12775178 -0.20034905 -0.055429168 -0.05473969
0.037038136 0.060281266 -0.19300458 -0.06297812 -0.13669477 0.03703673 -0.105347514 -0.051438157
0.028399099 -0.2847992 -0.19809994 -0.10648107 0.05942341 0.019563707 0.14673057 0.016872765
0.14085872 -0.018060818 0.061786197 -0.013541239 -0.03848093 -0.12320975 -0.05036182 -0.111782305
0.12048709 0.017117076 0.058466353 0.030210389 0.032020304 -0.03695694 -0.031136854 0.07453542
-0.25030074 -0.045330506 -0.068392135 -0.10019572 0.010754596 -0.21819013 -0.0101389205 -0.0004921689
-0.16767272 -0.32712814 0.08381781 -0.014411854 0.08308719 0.11607761 -0.013229374 -0.17667621
0.11705453 -0.15563522 0.061619755 0.024501618 -0.043842122 0.06692898 0.07083961 0.036196124
-0.17716262 -0.39100686 -0.23217349 0.03965888 0.013547993 -0.01288355 0.096675776 0.11093156
0.15248713 -0.19579476 0.003764786 -0.24733064 -0.19711189 -0.18713886 -0.15894277 -0.047231402

network_body._body_endoder.seq_layers.2.bias f4 [128]
00000000: 88cf b3bc cbf8 b6bd c28c a2bd f27f bcbd
00000010: db7a 513d 74f0 96bd 7e6e 1bbd 0f6f cdbd
00000020: f5b3 39bd ae45 a63d 4642 03bd 6ee9 a8bd
00000030: f743 56bd 541e 27bd 231d a2bd 5ef1 283d
00000040: c7f3 c9bd 7e7e 7cbd d4af abbd 8d35 a0bd
00000050: 5a45 3dbd f056 a9bd b93c 883d 7b0e 7abc
00000060: e30d a9bd daee 0cbd 8c13 b3bc 9933 89bc
00000070: a79c babd 8add cfbd 92c8 a23c 2eea 97bd
00000080: 8dc1 84bd 0ce0 ccbc cd9c a7bc c282 51bc
00000090: 7073 84bc 960d c2bd b3f6 81bd 74e2 30bd
000000a0: e639 47bc 5cee 44bd bf13 a1bd cd0a c8bb
000000b0: 7dd6 a13c 5638 02bd 90d6 053d 6e6f 9ebc
000000c0: 4e85 4e3c 23ee 8fbd f69a 53bd 3974 dc3d
000000d0: c473 fabc 243f b5bd 0a6c 04bd 416e 63bd
000000e0: cf3c b0bc bbe8 3a3d 1eb1 cabc 48e2 c4bb
000000f0: 9390 d4bd e340 6abd b363 4ebd e583 f7ba
00000100: 35d2 f8bc 2cc8 3bbd 6747 8bbd 2d3b 113c
00000110: d22a 373d bbe7 a0bd 4667 76bd c59e 4ebc
00000120: 2876 98bd c96d 8fbd e049 5abd d36a cebc
00000130: 198b aebd 816f 4ebd 2378 c3bd c4d7 19bd
00000140: 278e 7e3a 1c03 99bd f756 4cbd d150 b7bd
00000150: 7dca 1bbd 411a 9fbc fff9 6abd a588 79bd
00000160: 1f85 66bd 44a7 21bd d6ff 44bc 881a 76bd
00000170: ec80 83bc d45c 9a3d 83b5 0c3c 2ce5 abbd
00000180: ca9c c7bd 25f8 3bbd 608b 1abd 5343 043d
00000190: 9ca5 67bd ac81 99bd bbcb b8bd 7571 84bd
000001a0: 0af5 88bd 6713 3abd 4ac2 aebc da69 a8bd
000001b0: 1962 983d 4aac 86bd 87d4 2c3d aeb8 9dbd
000001c0: 4446 0ebd be99 05bd 9f1c ef3b b528 6cbd
000001d0: 6232 95bd 5620 a6bc dde1 bcbc 585d c839
000001e0: 7ea2 723b 0fae 64bd 1811 89bd ac68 803d
000001f0: f992 83bd e2dd 6dbd 2242 5bbd 72be debd
-0.021949545 -0.08934172 -0.07937004 -0.09204091 0.051142555 -0.073700815 -0.03794717 -0.10030948
-0.045337636 0.08118759 -0.032045625 -0.08247648 -0.05231091 -0.040800408 -0.07915714 0.04124581
-0.0986095 -0.06164407 -0.08383146 -0.07822714 -0.046208717 -0.08268535 0.06652207 -0.0152622415
-0.08254602 -0.034407474 -0.021859907 -0.016748236 -0.0911191 -0.10149677 0.01987103 -0.07417713
-0.064822294 -0.025009178 -0.02046051 -0.012787523 -0.016168326 -0.094752476 -0.06345882 -0.043184713
-0.0121598 -0.04807888 -0.078650944 -0.006104803 0.019755596 -0.031792007 0.032675326 -0.019340243
0.0126050245 -0.07027843 -0.051661454 0.10764355 -0.03057278 -0.08849934 -0.032329597 -0.05552507
-0.02151337 0.045632105 -0.02474266 -0.00600842 -0.10379138 -0.057190787 -0.05038805 -0.0018883912
-0.030373672 -0.045845196 -0.06800728 0.008864206 0.04471857 -0.07856699 -0.060157083 -0.012611096
-0.074444115 -0.07003362 -0.05329311 -0.025197422 -0.085226245 -0.050399307 -0.09544399 -0.037559286
0.00097105134 -0.07471296 -0.049887624 -0.089509614 -0.038034905 -0.019421699 -0.05736732 -0.06092133
-0.056279298 -0.039466158 -0.012023887 -0.060083896 -0.016052686 0.07537237 0.008588198 -0.083933204
-0.09746702 -0.045890946 -0.037730575 0.032290768 -0.05655442 -0.07495436 -0.090232335 -0.06466953
-0.066873625 -0.04542866 -0.021332879 -0.082233146 0.07440586 -0.0657583 0.04219487 -0.077012405
-0.03473498 -0.032617323 0.007297113 -0.05765601 -0.072850004 -0.02027909 -0.023056919 0.0003821652
0.0037023122 -0.055830058 -0.066927135 0.062699646 -0.06424517 -0.058072932 -0.053529866 -0.10876168

action_model._continuous_distribution.log_sigma f4 [1, 2]
00000000: 6b52 ddbe d9d5 c6be
-0.43226942 -0.38835028

action_model._continuous_distribution.mu.weight f4 [2, 128]
00000000: 0288 6e3d 0f00 c43d 2d04 e63a 3f35 683b
00000010: 4386 983d dcee ad3d b9d3 4abc 7f5b b73c
00000020: c79b 853d b1bc f3bc 3a58 f5bc ac8d 473d
00000030: 62c8 9ebd ff55 0fbd edae 163d ea05 94bc
00000040: 008b ecba 72ab 0f3d 7fbf 2cbb 80f3 d83d
00000050: 2897 013d ab63 573c 3b9f f03c 2693 183c
00000060: 9157 3c3c 8a38 2bbd d55e 173d 278d d73b
00000070: 51ec 43bc 18f3 82bc 0849 67bd 77c8 cc3c
00000080: bc31 8f3c bbec 22bd 5fdd d4bc c91a c73c
00000090: 6980 59bd dabf 783c 4f29 913d 7df9 b5bb
000000a0: 063d 73bd 1341 283d 9876 ef3c be0a 8fbd
000000b0: d259 5a3d 0aee a23c 948c 76bc 4e7f 803d
000000c0: 02d3 833d 7c7a c13c 2806 a03d 3524 dfbc
000000d0: 659f 2fbd b3f0 d33c c08a 8fbc 8e43 71bb
000000e0: 825a 3dbd b7e7 b0bd 35e7 07bd 4cec d2bc
000000f0: 188a d03c 3a69 293c dbb9 893d 15ad 2dbd
00000100: 3f1c cdbc 7f87 4b3d 6425 afbc 4035 90bd
00000110: aefe 763d 8ee3 783d 6ce4 8b3c 2107 b3bc
00000120: 0299 10bc d0a5 c33d d894 9dbb 30ce 9ebc
00000130: 20ec 5abc f2a1 543d 93c9 e9bb 2020 a13d
00000140: 9672 15bd 322e 8a3d cc12 753d b8d6 c8bc
00000150: a91c 42bc 4fa9 b2bc b706 4fbc 5b3c eb3c
00000160: ff2a a53d 0a0a 7d3d ff58 1c3d 1745 043d
00000170: 74d3 693c 363c 35bc 6873 033e 9334 2a3c
00000180: 907d ac3d 7d3e c43c c194 443d 9fb8 4fbd
00000190: e097 3dbd 57ee 973d a1c6 9bbc f85b f33c
000001a0: 4fce 073d 5fc5 29bc e468 a43b fd4d bc3d
000001b0: 7881 7f3c 8dbe 9b3d eebf 80bc dec3 f63c
000001c0: 721e 5f3c af17 5b3d cfe2 f23d 451e 953d
000001d0: 2602 6d3d e6cf df3c b378 93bd 8008 32bd
000001e0: 8833 e33d f82c 69bc 93ac 2ebd 1e03 313c
000001f0: ff48 943d 50ba f3bc 1286 4ebd 4bf9 453d
00000200: 4986 dbbc 6b85 38bd c945 c9bc b6be 23bc
00000210: c6ff c83d 2fff 49bd 5d35 35ba 572f 5ebd
00000220: 38b1 58bd 8eb6 2fbb ce79 53bd 8f1d 1bbb
00000230: 1c81 81bd 599c 50ba 3db9 c0bc d042 e1bc
00000240: f945 febc 785f 0d3c 5809 e8bc 5710 66bd
00000250: eadc 17bc f76c c0bc 816a cf3d fc5e 8cbd
00000260: 6c33 d73c 1ee6 01bd 294d 3a3c 65c9 7dbd
00000270: 56a3 08bd b882 bfbc af52 3ebe 032d 2fbc
00000280: ca81 37bc 248b 2ebd 3ec5 d7bc 41a4 a33c
00000290: feef 94bb 7531 a0bc 0117 afbc d715 93bd
000002a0: 346b acbc 97bf 63bd 2f7c 2a3c e999 10be
000002b0: 7ed1 f3bc 867f 29bc 5ae6 313b 7c9f fb3b
000002c0: 2898 96bd f05d b13c 057d 21bd 9fd5 873c
000002d0: dad8 d0bd f579 093b 870b 90bc c263 9cbd
000002e0: fd5a a7bc 371f 2bbe 64c2 c4bd 2ae5 03be
000002f0: 3d2c 8a3b 19b8 84bd c7ec 26bd 31f0 35bd
00000300: 5067 2abe 9043 8ebc 6c0e 893b 95d4 2fbe
00000310: 325a 04bd ad34 90bd c196 74bd a213 fabc
00000320: 1418 96ba 552c 28bb fabf 0b3c afca 34bd
00000330: 2700 51bd 52f7 e8bd 7bb5 a1bc c739 b4bd
00000340: 0d2d 00be 9a30 d13b 78c5 3bbb b823 1dbd
00000350: 9995 20bd c645 2b3d 693e 513b 879b 36bc
00000360: 86dd 32bd fa72 62bc 882b 233d caa0 f8bc
00000370: 65a5 65bd e827 653c 3927 31bd 664b 50bd
00000380: f8b3 debc 3342 f53c 6d92 82bd 2656 a9bd
00000390: 71c3 043c 5ab9 2cbd 8c49 6939 9ae9 073d
000003a0: 36e5 b9bd 4b65 19bd 71c5 3ebd dba0 2cbd
000003b0: 2d7e 113d 4b45 26bd 7712 adbc 9383 afbc
000003c0: 21d5 04be 7d2f 92bb e8c9 0ebd 9f27 c2b9
000003d0: c9b9 91bc 68ba 3e3c 51eb 99bd b964 f23c
000003e0: ab52 36bd 0be2 873c 03d3 3b3c 081d 3e3c
000003f0: 2ba0 adba 513c 74bd b6cf 9cbd ac68 723c
0.058235176 0.09570324 0.0017548852 0.0035432128 0.074474834 0.084928244 -0.01237958 0.022382496
0.06523853 -0.029753061 -0.029949296 0.048719093 -0.07753064 -0.03499412 0.036787916 -0.018069226
-0.0018046796 0.035075612 -0.0026359258 0.10593319 0.031638294 0.013146321 0.029372802 0.009312427
0.011495487 -0.041801967 0.036955673 0.006578106 -0.011958198 -0.015985057 -0.056466132 0.024997933
0.01747977 -0.039776545 -0.025984464 0.024304764 -0.053100977 0.01518246 0.07087957 -0.005553423
-0.05938437 0.041077685 0.029231355 -0.06984471 0.053308316 0.019888896 -0.015048165 0.062742814
0.06436731 0.023617975 0.07813674 -0.027238945 -0.04287662 0.02587161 -0.017522216 -0.0036813947
-0.046228893 -0.08637946 -0.03317948 -0.02574744 0.025456473 0.010340029 0.06724902 -0.042401392
-0.025037883 0.049689766 -0.021380134 -0.07041407 0.060301475 0.060763888 0.017076693 -0.021853985
-0.008825542 0.095531106 -0.0048090033 -0.019385427 -0.013361961 0.051912256 -0.007134625 0.078674555
-0.03648623 0.06747092 0.05983238 -0.024516448 -0.011847653 -0.021809248 -0.012635878 0.028715303
0.080648415 0.061777152 0.03817081 0.03229245 0.014271606 -0.011061719 0.12836993 0.010388511
0.08422387 0.023955578 0.047993425 -0.050713178 -0.046287417 0.074185066 -0.019015612 0.02970694
0.033155736 -0.010361998 0.0050173867 0.091945626 0.015594833 0.07604704 -0.01571652 0.030122694
0.013618099 0.053489383 0.118596666 0.07281164 0.057863377 0.027320813 -0.07200756 -0.043465137
0.11093813 -0.014231913 -0.04264505 0.010803966 0.072404854 -0.029751927 -0.05042083 0.048333447
-0.02679743 -0.045049112 -0.024569409 -0.0099941995 0.0981441 -0.049315628 -0.0006912554 -0.054244366
-0.052903384 -0.0026811692 -0.051629834 -0.0023668741 -0.06323454 -0.0007957868 -0.023525828 -0.027497679
-0.031039225 0.008628719 -0.028324768 -0.056167927 -0.009268979 -0.023489458 0.10127736 -0.06854054
0.026269637 -0.031713597 0.0113709355 -0.061959643 -0.033358894 -0.023377761 -0.18586229 -0.010691884
-0.011200378 -0.042613164 -0.02633917 0.019975783 -0.004545211 -0.019554833 -0.021373274 -0.071819
-0.021047212 -0.055602636 0.010405584 -0.14121212 -0.02976298 -0.010345345 0.0027145357 0.007678924
-0.0735324 0.021651238 -0.03942587 0.016581355 -0.10197611 0.0020977233 -0.017583622 -0.07636215
-0.020429129 -0.16711126 -0.096073896 -0.12880388 0.0042166994 -0.06480426 -0.040753152 -0.044418518
-0.16640973 -0.0173662 0.0041826274 -0.17170937 -0.03231258 -0.07041297 -0.059714083 -0.03052694
-0.0011451268 -0.002566119 0.0085296575 -0.044138607 -0.051025536 -0.113752976 -0.019739857 -0.08800083
-0.12517186 0.0063839676 -0.0028651636 -0.038364142 -0.039205167 0.041814588 0.0031928068 -0.011145479
-0.043668292 -0.013821358 0.039836437 -0.030350108 -0.056065936 0.013986565 -0.043250296 -0.050853156
-0.027185425 0.029938793 -0.06375585 -0.08268385 0.0081032375 -0.042168953 0.0002224801 0.033181764
-0.09076922 -0.037450116 -0.046575014 -0.04214559 0.03552072 -0.040593427 -0.021126969 -0.021425044
-0.12971927 -0.0044612275 -0.03486052 -0.00037032083 -0.017788785 0.011641122 -0.07515586 0.029589044
-0.044512432 0.016587278 0.011463883 0.011603601 -0.0013246586 -0.059627835 -0.07656805 0.0147954635

action_model._continuous_distribution.mu.bias f4 [2]
00000000: 24d3 c3bc 1bf9 523a
-0.02390439 0.0008047984

action_model._discrete_distribution.branches.0.weight f4 [2, 128]
00000000: 9c96 09bd d895 403d a1b4 143e 2be1 b53d
00000010: 1adc 9fbc 31c8 073e f114 d93d c6d2 883d
00000020: d851 a33c 9561 c4bd 6877 213d 5a02 e03d
00000030: 3c0d f13d d2a7 2b3d 59c0 733d 8a90 d5bd
00000040: ba81 d93d d56f 283e 1e7d ea3c 343a 7a3d
00000050: 4daa 0c3e 8156 d23d 6628 b2bd fe4e 4c3d
00000060: 455e f53d 5058 ad3c af3c 873d 5ac7 af3c
00000070: e790 453b 745f f13d 4306 393d 2df7 823d
00000080: 1fd2 403d 89c9 69bc e21d afbc 1e4a bfbc
00000090: 7e08 833d b779 d53d d512 883d b23e c63d
000000a0: 2473 283d a3f5 3f3d 0200 d23d c764 b4ba
000000b0: fa2d e3bc fcf8 e03d fdba acbc fbd4 de3d
000000c0: 2d7f 8b3a 9a61 8f3d ed5a 8e3d c122 edbd
000000d0: b3fc a53d 89b3 993d f59b 23bd c3db a93d
000000e0: 7611 323d b118 4a3d a6f9 28bd 18d6 8fbc
000000f0: 944b 053e 3d4e 9a3d 97b6 bc3d 227f 4a3d
00000100: 4e45 263d 1c5c 363d 1463 a53d d6db b2bd
00000110: cf0f 5dbd bea7 c63d 6ece ed3d aadc 883c
00000120: 3632 dd3d d46a bb3c dbf0 b93d 9cf2 283c
00000130: 776a d53d bb62 cb3b bc56 e63d c9fc 803d
00000140: 509f 973d 3ab0 a13d 1c2e 053e 6eee 243c
00000150: d0cd 033c 898b e43d 712e 7d3d e20c 2c3e
00000160: f610 533d 2ee2 ba3c 9c8c 8c3c 9d2b a03b
00000170: 8eb7 773c 4b55 8dbd 6c82 eb3b ac1e f53d
00000180: 58be fa3d 1f2a 323d 123c 2c3d 07bb 89bd
00000190: 0165 053d 9912 4b3d 692a 123b a296 dc3d
000001a0: fce0 853d cd1d 70bc 0e24 003d 0a7d b53c
000001b0: 6fbb 99bd 8cac 933d fc0b 4ebd 5bdd 8a3d
000001c0: 79e8 b93d 5e2a e7b9 878b b53c 9a00 f53d
000001d0: ed18 2c3e 78a3 ff3d b80b 593d 358a a33d
000001e0: 9c5a 523d e813 d73d 4096 953d 8c6c b3bd
000001f0: e5ee ba3d b496 b53d e626 be3d 1fbb 0b3e
00000200: 6519 293d f046 6abd 6d03 02be 19ee acbd
00000210: 39ce 9d3c 06b9 04be 38dd e9bd d0ee 9fbd
00000220: e642 adbc a7bc cd3d 9ddb 4ebd 84c0 eabd
00000230: 0f8f e2bd 9568 f7bc a300 73bd 2f0e ad3d
00000240: 6a56 c9bd 992e 20be 2586 08bd 0210 9bbd
00000250: 8503 19be 608e e2bd da1d 9d3d 95ef 2cbd
00000260: e374 ddbd d585 d4bb 262c 33bd 60b2 a5bc
00000270: 5526 62bc 6b5d ddbd c9c9 9bbd 5ed2 8ebd
00000280: 8707 1abd ae77 ce3c 6a0b 883c 3f54 ba3c
00000290: 3f96 95bd aaa7 e3bd 2fc7 92bd f13d d9bd
000002a0: 2c27 5abd 2c7e 3abd 58ee b5bd ddd2 92bc
000002b0: 535c 053d ff73 b5bd fa7f 0d3d c680 e3bd
000002c0: 967c 76bc e74a a6bd 95d8 51bd b554 eb3d
000002d0: 9d08 8fbd 9d9f 99bd 7339 153d 43e6 babd
000002e0: abf1 20bd 6665 7fbd c8cc 203d 5f51 3d3c
000002f0: 34a5 f8bd 0564 93bd 5d2f c3bd f842 4dbd
00000300: 6792 50bd fffe a9bc c89a a4bd 52a1 ca3d
00000310: 5a90 433d b9a3 e4bd 36a6 00be 9a5a 50bc
00000320: 30a2 d6bd dd40 c2bc 4028 9fbd 65bb 33bb
00000330: 3bde bcbd 9df3 963a 7c59 f2bd 0b7e 84bd
00000340: ebf4 a0bd 6b3e babd 62e5 ecbd c334 72bc
00000350: 9809 87bb 473e 99bd d5bc a4bd 0827 27be
00000360: a9b6 4abd ce8f 3bbb 64ba edbb 8730 69bc
00000370: 1d4c c23a a945 763d 8250 97bc ad9d e3bd
00000380: 3bb4 fabd 0566 17bd c33f 06bd c597 b43d
00000390: 4739 63bd e2ff 72bd 283f 93bb e377 d2bd
000003a0: f537 6dbd 56d2 6a3c 0f19 2fbd 9f5d a3bc
000003b0: e8b9 6b3d 9f71 a2bd 4541 0f3d 82af 9cbd
000003c0: c6ca a4bd 5bfb 19bc 1131 fcbc 684a 03be
000003d0: 6f9f 0bbe 222b fabd 3379 47bd 0ec7 a0bd
000003e0: c9e4 f7bc fa49 e1bd 2216 aabd b418 833d
000003f0: 3f0e e1bd 5689 c0bd 0c84 adbd 8119 04be
-0.033590898 0.047017902 0.1452203 0.08880838 -0.019514132 0.1325996 0.105996974 0.06680827
0.019936487 -0.09588925 0.039420515 0.109379485 0.117701024 0.041908093 0.05950961 -0.10427959
0.106204465 0.1644891 0.028624114 0.061090663 0.1373684 0.102704056 -0.08699112 0.04988002
0.11980871 0.021160275 0.06603371 0.021457363 0.0030146183 0.11785784 0.045171987 0.06394801
0.047075387 -0.014269241 -0.021376554 -0.023350772 0.06398104 0.10423606 0.06644217 0.09679927
0.04112543 0.046865117 0.10253908 -0.0013762944 -0.027731884 0.1098499 -0.021085257 0.108804666
0.001064276 0.07001038 0.069509365 -0.115788944 0.08104839 0.07504947 -0.039943654 0.08293869
0.043473683 0.049339954 -0.04125371 -0.017558143 0.13017112 0.07534454 0.09214514 0.04943765
0.040593438 0.044521436 0.08075538 -0.08733337 -0.053970154 0.09699963 0.11611639 0.016706783
0.108005926 0.022878088 0.09079143 0.010311749 0.10420697 0.006206838 0.11247012 0.06298215
0.07403433 0.07894941 0.1300587 0.010066612 0.008044675 0.11159427 0.061811868 0.1680179
0.051529847 0.022812929 0.017156892 0.0048880116 0.015119446 -0.06901034 0.0071871784 0.11968741
0.122433364 0.0434972 0.042049475 -0.06725126 0.032567028 0.049578283 0.002230311 0.107709184
0.06537053 -0.014655543 0.031284384 0.02215435 -0.07506453 0.07210645 -0.050304398 0.067805015
0.09077544 -0.0004409132 0.022161258 0.11963005 0.16806383 0.12482351 0.05298969 0.07985345
0.051355943 0.10501844 0.073040485 -0.08760938 0.09127597 0.08866635 0.09284763 0.136456
0.041283984 -0.057196558 -0.1269662 -0.08443851 0.019263374 -0.12961206 -0.11419147 -0.07809222
-0.021150064 0.10045748 -0.05050241 -0.11462501 -0.110624425 -0.030201236 -0.05932678 0.08449971
-0.09830935 -0.15642776 -0.033331055 -0.075714126 -0.14942749 -0.11062312 0.07671709 -0.04222067
-0.1081331 -0.0064856806 -0.043743275 -0.020226657 -0.013803084 -0.10808834 -0.07606847 -0.06973718
-0.037604835 0.025203552 0.016607005 0.02274525 -0.07304048 -0.11115964 -0.071668975 -0.106075175
-0.053260013 -0.045530483 -0.08883351 -0.017922813 0.03255875 -0.08860015 0.034545876 -0.11108546
-0.015044352 -0.08119755 -0.05123194 0.11490766 -0.06984065 -0.07501147 0.03643174 -0.0912595
-0.039292973 -0.06235256 0.039257795 0.011555045 -0.12140885 -0.071968116 -0.09530518 -0.050112695
-0.05092087 -0.020751474 -0.08037335 0.09894051 0.047745086 -0.1116404 -0.12563404 -0.012716914
-0.104801536 -0.02371257 -0.07771349 -0.0027424928 -0.092220746 0.0011516694 -0.11833474 -0.06469353
-0.078592144 -0.090939365 -0.11567189 -0.014783087 -0.0041210167 -0.074825816 -0.08043829 -0.16323483
-0.049490605 -0.002861965 -0.0072548855 -0.014232761 0.0014823709 0.060125027 -0.018471006 -0.11114059
-0.122414075 -0.036962528 -0.03277565 0.0881801 -0.055474546 -0.05932606 -0.004493613 -0.10276773
-0.057914693 0.014332375 -0.042748507 -0.019942103 0.05755034 -0.07931828 0.034974355 -0.07650663
-0.080464885 -0.009398307 -0.030785115 -0.12821352 -0.13635038 -0.12215258 -0.04869957 -0.07850467
-0.03026046 -0.11000438 -0.08305003 0.06401196 -0.10989045 -0.09401195 -0.084724516 -0.12900354

action_model._discrete_distribution.branches.0.bias f4 [2]
00000000: 667a 1fbe 647a 1f3e
-0.15574035 0.15574032

exp_avg f4 [128, 26]
00000000: 7f38 37b1 0b8b 4fb3 0332 3634 7547 99ae
00000010: 8ada 94b0 dc41 b02f 50b5 8735 5c6e 2fb2
00000020: fd7a 0332 d19f 9fb5 e502 d533 edd3 7eb7
00000030: 4fed 0bb2 6836 37b1 1c04 4ab3 0d7d 3634
00000040: a548 99ae acdb 94b0 3c43 b02f b8ba 8735
00000050: 2ab6 2fb2 bdb0 0332 719d 9fb5 f274 05b2
00000060: a7e0 7db7 d57a 8bb4 441a ecb2 4f6d aab5
00000070: 238c 1636 e2f6 85b0 b918 82b2 120c 9a31
00000080: 8b3c 6837 3c63 1db4 57cb db33 2165 8db7
00000090: 5958 ca34 c1ee 62b9 7261 9938 1616 ecb2
000000a0: 2bf5 a7b5 88cf 1636 e6f6 85b0 bc18 82b2
000000b0: 170c 9a31 3c41 6837 8491 1db4 340d dc33
000000c0: 2a63 8db7 5a4d 74b3 1690 62b9 79c1 9238
000000d0: 5ccb 0131 7ce9 ab34 c344 dfb3 52c3 922e
000000e0: 8f86 8e30 aac3 a8af 6651 80b5 945b 1532
000000f0: 60fe ecb1 3f40 9a35 59f9 d532 872b 7937
00000100: 88de cf35 1fc7 0131 d33e ab34 f0e5 dfb3
00000110: 13c3 922e 5186 8e30 62c3 a8af e956 80b5
00000120: 7db7 1532 0e87 edb1 6c3b 9a35 fd27 c531
00000130: 342f 7d37 cfba 5735 bcb7 4d32 ff3b 7a36
00000140: 958a ddb4 0818 0030 7aca f831 e84b 13b1
00000150: bd4b e7b6 38c3 c133 2440 9ab3 05d1 0337
00000160: efed 93b4 b7cf d638 d7d5 0738 fcae 4d32
00000170: 8bad 7936 21b8 deb4 5318 0030 0acb f831
00000180: 3e4c 13b1 d459 e7b6 933e c233 f19a 9ab3
00000190: d6cb 0337 200a 0f33 e20f d838 573f f137
000001a0: 1d06 33b4 004a 4cb8 d4b0 1235 14a1 b4b1
000001b0: 0b6a afb3 35b5 cf32 5385 8c38 68c6 e5b3
000001c0: 8c57 fcb3 8217 cbb8 6934 d7b5 7582 99ba
000001d0: cf5d d43a 1f06 33b4 3be1 4bb8 00f0 1835
000001e0: 1ca1 b4b1 0b6a afb3 43b5 cf32 5882 8c38
000001f0: f529 e5b3 e827 fdb3 f119 cbb8 71e0 ae35
00000200: 1f0d 9cba 44bb d53a 2794 b6b3 f6a1 b6b7
00000210: b2e5 1836 45de 4eb1 3ee5 48b3 58e1 6d32
00000220: 9ee8 2538 1cc6 53b4 ae38 7e33 a4ba 64b8
00000230: 25ff 91b4 29df 2fba 744c 433a 1793 b6b3
00000240: 4c29 b6b7 42ca 1936 45de 4eb1 3ee5 48b3
00000250: 58e1 6d32 09e7 2538 3acc 53b4 99f8 7d33
00000260: e1bb 64b8 e64a 0435 61a5 31ba 9155 433a
00000270: 0b27 6533 44a1 ab37 9db6 24b6 68b2 3831
00000280: 3d5d 3333 8f62 54b2 5f2c 1bb8 c8ad d434
00000290: 5b6d 85b4 9bcc 4638 0333 2335 73ea 1d3a
000002a0: c9e5 f5b9 6a20 6533 6137 ab37 778f 25b6
000002b0: 76b2 3831 4b5d 3333 9f62 54b2 3d2e 1bb8
000002c0: 83ee d434 6796 85b4 21cb 4638 7db5 0db4
000002d0: 4c48 1e3a b2ff f4b9 9957 862e df6b f133
000002e0: f9da b132 4bce f52b 1eb6 ee2d a654 0dad
000002f0: 0b08 88b2 22c9 81b0 0509 3d30 9c71 2133
00000300: 5c1c 2833 9e8b e534 8937 0535 3921 862e
00000310: 8e51 f133 9bb0 b132 8b9d f52b de86 ee2d
00000320: 8638 0dad 6bf0 87b2 fec1 81b0 3f07 3d30
00000330: 6651 2133 00b4 2631 5d33 2035 c7d9 aa33
00000340: 4eb8 2931 2221 cb35 50de 63b3 4dd6 2c2f
00000350: d3d8 2731 59bf 46b0 8fa6 0bb6 14e4 8a32
00000360: 040b 08b2 2c5a 3e36 70ef 0c33 0c81 1338
00000370: 2b67 28b8 36b3 2931 f2bb ca35 f21f 67b3
00000380: 15d5 2c2f a1d7 2731 efbd 46b0 48a5 0bb6
00000390: 5a07 8b32 512d 08b2 0959 3e36 8161 bbb2
000003a0: b6aa 1438 3617 29b8 a282 8a32 86b2 d5b6
000003b0: e689 33b5 f43c 0aaf 4e3f 06b1 01f6 1e30
000003c0: 6776 5cb5 f122 0f34 c8d2 28b4 c815 8cb6
000003d0: be99 7a35 23db d3b7 40c9 bd39 aa79 8a32
000003e0: 0f98 d5b6 4417 33b5 543c 0aaf ae3e 06b1
000003f0: 31f5 1e30 2daa 5db5 72be 0f34 a951 29b4
-2.666212e-09 -4.8322402e-08 1.6968265e-07 -6.970328e-11 -1.083053e-09 3.206101e-10 1.0111053e-06 -1.02114335e-08
7.653168e-09 -1.1892936e-06 9.919112e-08 -1.5188923e-05 -8.144823e-09 -2.6660931e-09 -4.7035527e-08 1.6995564e-07
-6.970539e-11 -1.0830852e-09 3.2061986e-10 1.0112626e-06 -1.022776e-08 7.665389e-09 -1.1892245e-06 -7.768209e-09
-1.5132281e-05 -2.598014e-07 -2.748596e-08 -1.26978e-06 2.2433312e-06 -9.747192e-10 -1.5145234e-08 4.483362e-09
1.3842374e-05 -1.4657866e-07 1.02349695e-07 -1.6855602e-05 3.7689713e-07 -0.00021641982 7.313759e-05 -2.748406e-08
-1.2513823e-06 2.247254e-06 -9.747196e-10 -1.514524e-08 4.4833643e-09 1.3843466e-05 -1.4674703e-07 1.024695e-07
-1.6854687e-05 -5.6881028e-08 -0.00021606716 6.9978596e-05 1.8887567e-09 3.2021114e-07 -1.03967544e-07 6.674007e-11
1.0370104e-09 -3.069805e-10 -9.560433e-07 8.693764e-09 -6.897423e-09 1.1492592e-06 2.4909854e-08 1.4851691e-05
1.5487467e-06 1.8885158e-09 3.1896943e-07 -1.0426072e-07 6.6739635e-11 1.0370035e-09 -3.069785e-10 -9.562037e-07
8.714662e-09 -6.9129618e-09 1.1491188e-06 5.7380007e-09 1.50909655e-05 8.0365584e-07 1.1974347e-08 3.7287825e-06
-4.126529e-07 4.660028e-10 7.240769e-09 -2.1434463e-09 -6.8931536e-06 9.022773e-08 -7.182851e-08 7.856875e-06
-2.7554003e-07 0.00010243005 3.2385662e-05 1.1972357e-08 3.7204907e-06 -4.1484694e-07 4.6600696e-10 7.240833e-09
-2.1434654e-09 -6.894794e-06 9.045211e-08 -7.1993675e-08 7.855668e-06 3.330399e-08 0.00010302641 2.8758934e-05
-1.6672898e-07 -4.8706308e-05 5.4646557e-07 -5.257002e-09 -8.1683616e-08 2.4180375e-08 6.700554e-05 -1.06997334e-07
-1.1750589e-07 -9.684173e-05 -1.6034002e-06 -0.0011711853 0.0016202274 -1.6672901e-07 -4.8608734e-05 5.697366e-07
-5.2570055e-09 -8.1683616e-08 2.41804e-08 6.6999986e-05 -1.06712754e-07 -1.17884895e-07 -9.684626e-05 1.3029331e-06
-0.0011905766 0.001630642 -8.501984e-08 -2.177151e-05 2.2783465e-06 -3.010329e-09 -4.6774623e-08 1.3846453e-08
3.9555707e-05 -1.9722978e-07 5.9190533e-08 -5.453326e-05 -2.7193997e-07 -0.00067089737 0.0007450052 -8.501791e-08
-2.1715321e-05 2.2916506e-06 -3.010329e-09 -4.6774623e-08 1.3846453e-08 3.9554234e-05 -1.9725204e-07 5.913225e-08
-5.4534412e-05 4.9282824e-07 -0.00067766575 0.000745141 5.3353727e-08 2.0459884e-05 -2.45442e-06 2.6876936e-09
4.1761485e-08 -1.2362434e-08 -3.6996204e-05 3.961452e-07 -2.4852747e-07 4.7397432e-05 6.0796464e-07 0.00060240104
-0.00046901245 5.3347698e-08 2.0410576e-05 -2.4670423e-06 2.6876967e-09 4.1761535e-08 -1.2362448e-08 -3.6997943e-05
3.9661617e-07 -2.4882613e-07 4.7396057e-05 -1.3197673e-07 0.0006037995 -0.00046729814 6.109175e-11 1.1242059e-07
2.070509e-08 1.7465555e-12 2.7138344e-11 -8.033718e-12 -1.5836141e-08 -9.443151e-10 6.8770617e-10 3.758906e-08
3.914134e-08 4.275616e-07 4.9627175e-07 6.099516e-11 1.1237272e-07 2.0685823e-08 1.7452024e-12 2.711736e-11
-8.027473e-12 -1.5825398e-08 -9.441121e-10 6.8768097e-10 3.7559765e-08 2.4258497e-09 5.967939e-07 7.955855e-08
2.4697502e-09 1.5134322e-06 -5.3054748e-08 1.5719444e-10 2.4424949e-09 -7.23039e-10 -2.0809564e-06 1.6169032e-08
-7.9187465e-09 2.8364693e-06 3.2814057e-08 3.5167715e-05 -4.0150404e-05 2.4694606e-09 1.5104872e-06 -5.3812933e-08
1.5719011e-10 2.442427e-09 -7.230189e-10 -2.080882e-06 1.6185073e-08 -7.926546e-09 2.8364032e-06 -2.1814005e-08
3.5444937e-05 -4.0314357e-05 1.612472e-08 -6.3686775e-06 -6.6883365e-07 -1.2572682e-10 -1.953555e-09 5.782966e-10
-8.2128685e-07 1.3330624e-07 -1.5722901e-07 -4.174861e-06 9.335598e-07 -2.5255204e-05 0.00036198832 1.612064e-08
-6.3655966e-06 -6.671655e-07 -1.257246e-10 -1.9535196e-09 5.7828503e-10 -8.2576554e-07 1.3387196e-07 -1.576906e-07

exp_avg_sq f4 [128, 26]
00000000: 9dcc 8426 2a70 c62f da75 6a2d c56e 5d22
00000010: b8d4 5026 6966 9224 8409 2130 5dd5 2c2a
00000020: acc9 9129 ef2a 7c30 3202 3d2a 703f b433
00000030: 9d78 4932 bb9a 1a27 ffb2 b530 5bf0 c62d
00000040: 3539 f422 2253 e626 d077 2125 4ab0 a630
00000050: 941e 2d2a c80c 9229 798c 1031 9c19 b52a
00000060: ae84 b433 d8af 4a32 1116 2729 0e76 0231
00000070: f60a 2330 96b6 f024 7e03 e328 a825 1f27
00000080: bc9d bd32 fe90 172d 4e0e 6d2c 27dd 0133
00000090: 9a67 2e2d 252a a336 42fb f034 0d60 3e29
000000a0: c1d1 ae31 4ac3 2a30 d283 0725 129b ff28
000000b0: e430 3327 cb67 d132 dcd1 172d 7a7f 6d2c
000000c0: 213b 1433 9ce0 162d 6e1b a336 af2b f134
000000d0: a248 c027 eb23 6531 3d3f 372e f387 8423
000000e0: 38fa 7927 c93e af25 0c10 3031 4af5 312a
000000f0: b501 8929 cb58 9f31 6921 912a 854c bb33
00000100: a691 4331 330a 8128 8c1c 1932 95f4 d22e
00000110: 0ff9 2224 b3b2 1928 917f 5726 9103 d531
00000120: 7745 322a 8245 8929 5db8 4532 5690 842b
00000130: accc bb33 aee8 4631 dbe9 1329 fac9 a831
00000140: fd69 0430 5b0d d524 56ed c828 dcdb 0c27
00000150: 7772 9e32 c849 b22c 44eb 172c cf43 ef32
00000160: 1362 dd2c 1982 7d36 6bf4 9a35 7589 3329
00000170: fe67 2d32 d593 0f30 24c8 0325 7490 f828
00000180: 3141 2e27 df50 bf32 cc95 b22c f930 182c
00000190: b349 1633 3c72 012d b9b7 7d36 6a39 9b35
000001a0: 9781 132c 9410 a834 7e4e ed32 a74c ee27
000001b0: d4bc e02b 318d 1d2a 42aa 9c35 fe09 3e2f
000001c0: 9dec c02e 8caa 0f36 3e2d ec2e 7111 ab39
000001d0: 8d3d 9939 c26d 142c 46f8 aa34 bc3d ee32
000001e0: 207f ef27 d3dd e12b c357 1e2a 4292 9d35
000001f0: c851 3e2f 2338 c12e 1858 1036 511e cb2e
00000200: 3f1f ab39 d0a4 9939 2256 ad2a a23e 5733
00000210: db72 8231 b96a 8e26 d74f 862a 3951 bc28
00000220: 012d 3834 aad4 b92d 34eb 462d a12a ad34
00000230: ad7f e62c a111 4d38 1502 4238 06ff b02a
00000240: 42e8 6933 304e 8431 39e1 9026 7ba2 882a
00000250: f392 bf28 7903 3c34 f11d ba2d bb3b 472d
00000260: 90f0 af34 c71a ce2c 6920 4d38 1f90 4238
00000270: f6d9 0e2a 11ba c432 a8a2 cd30 2454 e825
00000280: 4a1b db29 8a9a 1928 6cac 9d33 3142 612d
00000290: b34f d42c 03aa 0934 c744 782d ef42 a337
000002a0: 7c68 6637 ca54 122a fa34 d932 6ef3 d030
000002b0: 8226 ee25 d598 e029 e273 1d28 db34 a133
000002c0: b1ad 612d d7b9 d42c fd4c 0d34 fbc8 662d
000002d0: e643 a337 ed30 6737 5869 8928 d4e0 1f32
000002e0: 347c ce2e 7574 2524 e309 1c28 d1c7 5a26
000002f0: ac7b d631 2178 9629 2356 d228 b5a2 4932
00000300: 0eff c92a 3b9d 1333 7443 2330 6fdf 3029
00000310: 60fd d532 98fd 852f 49e6 da24 1d71 ce28
00000320: a5b9 1027 adb3 8d32 e8b9 9629 32c0 d228
00000330: 9979 0533 833f 1a2c 7a0a 1633 e31a 5830
00000340: cfdc e527 b8c1 a231 eed6 842e 489c c623
00000350: a94e bb27 934f 0326 6e41 8031 8244 f929
00000360: b2cd 7f29 da4a f231 5f70 e32a a31d 7934
00000370: fd60 6c34 e7e5 7428 d8b8 2732 f004 f32e
00000380: 6182 3924 aff3 2e28 454c 7526 435b ef31
00000390: 66a1 f929 2e1d 8029 bb71 6232 0de1 b32b
000003a0: 6b39 7934 d450 6d34 80dc 1d2a c24e 8b32
000003b0: 14b4 1231 8a0a 0626 52d3 fc29 013e 3128
000003c0: 0df0 c433 7e66 e22d f9e1 4a2d 469e 1734
000003d0: 0e2e c82d 2846 be37 f5af 1b37 b8fb 262a
000003e0: 681f ba32 e4fb 1631 efdb 0b26 47e6 032a
000003f0: 66ef 3828 16f8 cc33 5dd0 e22d 8e47 4b2d
9.2148e-16 3.6095688e-10 1.3327528e-11 3.0009726e-18 7.2452784e-16 6.3490896e-17 5.858498e-10 1.5350694e-13
6.474278e-14 9.173808e-10 1.6787334e-13 8.3934424e-08 1.1727164e-08 2.1455673e-15 1.3220357e-09 2.2616733e-11
6.6196903e-18 1.5981989e-15 1.4005118e-16 1.2128194e-09 1.5376096e-13 6.4859197e-14 2.1034607e-09 3.216983e-13
8.4060375e-08 1.179793e-08 3.710059e-14 1.8984596e-09 5.931463e-10 1.0439272e-16 2.5203577e-14 2.2086096e-15
2.2074225e-08 8.615551e-12 3.3687666e-12 3.023629e-08 9.913759e-12 4.862685e-06 4.4886298e-07 4.2271786e-14
5.0879128e-09 6.212316e-10 1.1754046e-16 2.8377938e-14 2.4867744e-15 2.4378002e-08 8.629954e-12 3.375049e-12
3.4512713e-08 8.576386e-12 4.860972e-06 4.4921532e-07 5.3369454e-15 3.3344303e-09 4.166555e-11 1.4369045e-17
3.4691335e-15 3.0400206e-16 2.5620492e-09 1.580586e-13 6.084318e-14 4.6376036e-09 2.5780357e-13 8.721785e-08
2.8459026e-09 1.43263e-14 8.912263e-09 9.593141e-11 3.533911e-17 8.531955e-15 7.4765994e-16 6.1995213e-09
1.5833676e-13 6.09608e-14 1.1508829e-08 9.419225e-13 8.745096e-08 2.8945055e-09 3.2843394e-14 4.9124056e-09
4.817194e-10 9.239665e-17 2.2307389e-14 1.9548089e-15 1.8445673e-08 5.0672556e-12 2.158899e-12 2.7854098e-08
6.292086e-12 3.7775665e-06 1.1545029e-06 3.986521e-14 1.009357e-08 5.223318e-10 1.1430249e-16 2.7596178e-14
2.4182691e-15 2.2272102e-08 5.075695e-12 2.1627684e-12 3.4991626e-08 7.358166e-12 3.7806878e-06 1.156511e-06
2.0961893e-12 3.13045e-07 2.7626125e-08 6.6141377e-15 1.5968568e-12 1.3993387e-13 1.1672457e-06 1.7283949e-10
8.77318e-11 2.1407932e-06 1.0740074e-10 0.00032628656 0.00029228293 2.1092993e-12 3.184561e-07 2.773492e-08
6.6473655e-15 1.604878e-12 1.4063667e-13 1.1739978e-06 1.7309454e-10 8.786596e-11 2.150895e-06 9.2367565e-11
0.00032638942 0.0002930523 3.079074e-13 5.0115553e-08 3.7965555e-09 9.882157e-16 2.3858582e-13 2.0907418e-14
1.7152708e-07 2.1126507e-11 1.13072225e-11 3.2254778e-07 6.551168e-12 4.8892227e-05 4.6255143e-05 3.1440838e-13
5.4460777e-08 3.8505945e-09 1.0053054e-15 2.4271196e-13 2.1268989e-14 1.7510128e-07 2.1159048e-11 1.1325103e-11
3.2771322e-07 5.857845e-12 4.8905993e-05 4.6387428e-05 1.2687754e-13 2.2902016e-08 1.4961943e-09 4.03026e-16
9.7302876e-14 8.5267165e-15 7.3422456e-08 1.2804467e-11 6.034251e-12 1.2820969e-07 1.41124395e-11 1.9462283e-05
1.37333955e-05 1.2996822e-13 2.5286216e-08 1.5203179e-09 4.1312513e-16 9.9741104e-14 8.740379e-15 7.506761e-08
1.28283365e-11 6.0460348e-12 1.3159656e-07 1.3118613e-11 1.9462732e-05 1.3780064e-05 1.5255741e-14 9.306138e-09
9.389858e-11 3.5877315e-17 8.6618834e-15 7.5904745e-16 6.2422796e-09 6.682177e-14 2.335204e-14 1.1736735e-08
3.5881752e-13 3.4369105e-08 5.939491e-10 3.9273648e-14 2.4911685e-08 2.4372748e-10 9.493255e-17 2.291965e-14
2.0084653e-15 1.6496267e-08 6.693588e-14 2.3398035e-14 3.1077068e-08 2.1919972e-12 3.4934125e-08 7.861855e-10
6.379967e-15 4.736844e-09 6.040844e-11 2.153339e-17 5.198821e-15 4.55576e-16 3.732729e-09 1.10697055e-13
5.6799786e-14 7.0516366e-09 4.0401273e-13 2.3200714e-07 2.2014497e-07 1.3594573e-14 9.762708e-09 1.1051238e-10
4.0225916e-17 9.711781e-15 8.5104815e-16 6.9661907e-09 1.10858195e-13 5.689404e-14 1.3180791e-08 1.2781179e-12
2.321082e-07 2.210175e-07 1.4020902e-13 1.6217545e-08 2.1348159e-09 4.650487e-16 1.1227706e-13 9.838919e-15
9.170626e-08 2.5738741e-11 1.1532547e-11 1.412055e-07 2.275782e-11 2.2682434e-05 9.279688e-06 1.4831094e-13
2.1667532e-08 2.1971056e-09 4.852338e-16 1.1715031e-13 1.0265963e-14 9.544617e-08 2.5785757e-11 1.1555102e-11

exp_avg f4 [128]
00000000: 876f d1b5 fe09 b7b7 5886 c835 fa04 2f37
00000010: 75cc f6b8 2353 8db8 365b 7c38 bdcb 2733
00000020: 3625 6c36 10e0 3cb6 fbbc 13b9 acf0 e6b4
00000030: cd6d 8eb3 5d41 1fb9 97b8 d135 942f 40b8
00000040: 2c02 02b8 9c14 b938 dc87 fe37 7566 dcb6
00000050: c493 08b9 473d 1736 ba2d 11b9 32d4 e0b8
00000060: 619b cf35 ff37 93b5 b13d beb8 b68d c834
00000070: 188a f138 6c06 fcb7 d087 05b6 9046 fe35
00000080: e71f 5538 a5a4 30b5 4fac e3b5 8e97 5335
00000090: 5a05 25b6 b430 eeb7 41e0 6b34 12c7 eab9
000000a0: 2f78 9734 41f5 8437 7445 1039 3fd0 8337
000000b0: 0f36 1438 c15e d337 b0d9 3538 41be 0eb5
000000c0: 0d58 5736 c20e ceb7 27e7 63b5 1b55 0637
000000d0: 9662 f338 402b 0a38 9a31 5037 be43 4037
000000e0: 66f8 6735 cac8 0d35 2c46 f4b8 70c8 21b9
000000f0: bb03 5eb9 453b 27b9 1865 0d38 ed02 b2b9
00000100: cf33 88b5 eeb2 35b8 7c33 0439 96e7 0eb9
00000110: e0bf 27b9 93cf 6738 811b 0fb6 4d87 60b8
00000120: eb11 12b9 f217 0139 2acd 17b5 a3da 5f37
00000130: 05f4 85b7 8cba f938 44c0 d7b7 f2d7 46b8
00000140: 45f6 1c37 7509 52b4 6008 7c36 d399 00b7
00000150: 8d9c 5438 43b3 2ab9 283a 00b8 bfd1 4b36
00000160: c161 80b9 e554 40b8 2b54 5db9 02d2 19b7
00000170: 57bc a234 3b05 69b9 ad34 89b8 ba3b eab7
00000180: 9996 98b8 d72a 8637 4be3 2939 8b18 09b4
00000190: 012d ac38 bf04 46b5 129c 0339 0562 d8b6
000001a0: 1ab0 4eb4 8464 0eb8 5043 0fb5 2e54 3db4
000001b0: fc22 6b37 06f8 8835 232d 5b36 5b15 82b8
000001c0: 3b98 8ab6 88a8 c4b9 0d64 10b8 8250 70b6
000001d0: a90f 5e38 8389 c3b6 896b 3836 d953 83b6
000001e0: afbb 4038 1f00 74b9 75dc a838 5529 8d37
000001f0: dae5 1539 a2f7 7f36 4446 6638 97d4 d1b7
-1.5604172e-06 -2.1819953e-05 1.494026e-06 1.04319715e-05 -0.00011768277 -6.738889e-05 6.016643e-05 3.9068016e-08
3.51884e-06 -2.8144605e-06 -0.00014089413 -4.301595e-07 -6.632363e-08 -0.00015187771 1.5625436e-06 -4.5820678e-05
-3.0996438e-05 8.825326e-05 3.0342424e-05 -6.5684385e-06 -0.00013025018 2.2536422e-06 -0.00013845312 -0.00010720677
1.5467923e-06 -1.096865e-06 -9.071397e-05 3.735601e-07 0.000115174975 -3.0043731e-05 -1.9897598e-06 1.8945011e-06
5.081287e-05 -6.58047e-07 -1.6962966e-06 7.8824166e-07 -2.459003e-06 -2.839449e-05 2.1967664e-07 -0.00044780277
2.8213387e-07 1.5849831e-05 0.00013758783 1.5713389e-05 3.5336296e-05 2.5197283e-05 4.33565e-05 -5.317598e-07
3.208875e-06 -2.4563986e-05 -8.490046e-07 8.006838e-06 0.00011605506 3.2942044e-05 1.2409315e-05 1.1459864e-05
8.6415673e-07 5.281878e-07 -0.00011647897 -0.00015428825 -0.0002117296 -0.0001594844 3.371117e-05 -0.00033952986
-1.0147868e-06 -4.3320404e-05 0.0001260768 -0.00013628448 -0.0001599784 5.526801e-05 -2.132467e-06 -5.353177e-05
-0.0001393032 0.00012311319 -5.6550437e-07 1.3342741e-05 -1.5968466e-05 0.00011907992 -2.5719528e-05 -4.7407993e-05
9.355664e-06 -1.9561215e-07 3.75558e-06 -7.6652095e-06 5.0690538e-05 -0.00016279244 -3.057174e-05 3.0371446e-06
-0.00024486895 -4.585543e-05 -0.00021107557 -9.168407e-06 3.0311887e-07 -0.0002222256 -6.542481e-05 -2.7922786e-05
-7.275976e-05 1.5993994e-05 0.00016201769 -1.2768048e-07 8.209982e-05 -7.3767654e-07 0.00012551274 -6.4487126e-06
-1.924931e-07 -3.394905e-05 -5.3369604e-07 -1.7632621e-07 1.4015237e-05 1.0204974e-06 3.2659816e-06 -6.202861e-05
-4.1304424e-06 -0.000375096 -3.4425455e-05 -3.5809649e-06 5.294351e-05 -5.8274613e-06 2.748073e-06 -3.9138654e-06
4.595116e-05 -0.00023269698 8.0519276e-05 1.6827757e-05 0.00014295374 3.8142102e-06 5.4901713e-05 -2.5013736e-05
