AIRocketLanding/results/2AIRocket2/AIRocket/AIRocket-153499956.onnx (onnx, 84776 bytes, 9 tensors)

action_model._continuous_distribution.log_sigma f4 [1, 2]
0	0x4011abf8	2.2761211
1	0x40215e28	2.5213718

action_model._continuous_distribution.mu.bias f4 [2]
0	0xbe2f136a	-0.1709725
1	0xbd612ecc	-0.05497627

action_model._continuous_distribution.mu.weight f4 [2, 128]
0	0xbe38236a	-0.1798226
1	0xbf8bd71c	-1.0925021
2	0xbce83900	-0.028347492
3	0xbe89325f	-0.26796243
4	0xbf14d345	-0.5813487
5	0xbfbf8439	-1.4962226
6	0xbe687479	-0.22700681
7	0xbe431ef8	-0.19054782
8	0xbdb26d7c	-0.08712289
9	0xbded7a2e	-0.115955696
10	0xbe0034ff	-0.12520216
11	0xbe33e3e9	-0.1756741
12	0xbf215f67	-0.630362
13	0xbe3735f9	-0.17891683
14	0xbe813462	-0.25235277
15	0x3f553103	0.8327791
16	0xbe66035a	-0.22462216
17	0xbd904531	-0.07044447
18	0xbe6fa17f	-0.2340145
19	0xbe1aa2c8	-0.15101159
20	0xbe7872e7	-0.24262582
21	0xbecb7207	-0.39735433
22	0x3b2f9313	0.0026790544
23	0xbe66a6ab	-0.22524516
24	0xbe89233d	-0.26784697
25	0xbe483319	-0.19550742
26	0xbe99faf4	-0.30074275
27	0xbd486cec	-0.048932
28	0xbea9029d	-0.33009806
29	0xbe143b18	-0.14475667
30	0xbe6d2b58	-0.23161066
31	0xbeef48ee	-0.46735328
32	0xbdd19842	-0.10234119
33	0xbe002513	-0.12514143
34	0x3d26c98a	0.040719546
35	0xbc6dfe88	-0.014526017
36	0xbe0ed35c	-0.13947815
37	0xbe100cf4	-0.14067441
38	0xbe8b82eb	-0.2724832
39	0xbd4efd30	-0.050534427
40	0xbe822013	-0.25415096
41	0xbf0b2f00	-0.5436859
42	0x3e5a0e46	0.21294507
43	0xbf49fffd	-0.7890623
44	0xbe50d208	-0.2039262
45	0xbdc1c392	-0.0946113
46	0xbd91c0c4	-0.07116845
47	0xbe82e5a0	-0.25565815
48	0xbe0760c9	-0.13220514
49	0xbe96cdf6	-0.2945401
50	0xbe422741	-0.18960287
51	0x3fb4ae98	1.4115782
52	0xbe91a258	-0.2844417
53	0xbf1e6dfd	-0.6188658
54	0xbea5a065	-0.32348934
55	0xbe5e6484	-0.21718031
56	0xbf293c99	-0.6610809
57	0xbe689a50	-0.22715116
58	0xbe9d6d73	-0.30747566
59	0x3de89d08	0.11358076
60	0xbdbdc198	-0.09265441
61	0xbe980a25	-0.2969524
62	0xbe39811d	-0.18115659
63	0x3faa4795	1.3303095
64	0xbde4ce6d	-0.11172185
65	0xbefba68a	-0.49150497
66	0xbe3c898a	-0.18411842
67	0xbedf74c1	-0.43643764
68	0xbeaa100d	-0.3321537
69	0xbe923909	-0.2855914
70	0xbd8f0e73	-0.06985178
71	0xbe691d08	-0.22764981
72	0xbfa0eeeb	-1.2572912
73	0xbe0f1e03	-0.13976292
74	0xbe0cb966	-0.13742599
75	0xbe96ade5	-0.29429546
76	0xbe3cba66	-0.1843048
77	0xbd99c760	-0.07508731
78	0xbd4311f9	-0.047624562
79	0xbe4841d1	-0.19556357
80	0xbeb734d3	-0.3578249
81	0xbe822ceb	-0.25424895
82	0xbdf305e3	-0.11866357
83	0x3e22a5b7	0.15883528
84	0xbd88f283	-0.066868804
85	0x3e85c470	0.26126432
86	0xbdc66ca1	-0.09688688
87	0xbe43eb4b	-0.19132726
88	0xbe824991	-0.25446752
89	0xbe32a095	-0.1744407
90	0xbe01c2a0	-0.126719
91	0xbe7bb947	-0.24582396
92	0xbe367296	-0.17817149
93	0xbd8f7c0d	-0.07006083
94	0xbe76e3fc	-0.24110407
95	0xbe08ad18	-0.1334728
96	0xbd168154	-0.03674443
97	0xbde4e601	-0.11176682
98	0xbe6fa0f4	-0.23401242
99	0xbd88c24c	-0.06677684
100	0xbe5e90ac	-0.21734875
101	0xbe5a95a8	-0.21346152
102	0xbd834b17	-0.064108066
103	0xbec3eb78	-0.38265586
104	0xbdcf3b42	-0.101187244
105	0xbe34c703	-0.17654042
106	0xbe5c563a	-0.21517268
107	0xbe0d1009	-0.13775648
108	0xbf129cd6	-0.5727056
109	0xbe6fb014	-0.23407012
110	0xbe628ad0	-0.22123265
111	0xbd797af6	-0.06090828
112	0xbe6719a2	-0.22568372
113	0xbf2ff202	-0.6872865
114	0xbf74ce1d	-0.95627004
115	0xbe47f5ce	-0.19527361
116	0xbe399158	-0.1812185
117	0xbe87f982	-0.26557547
118	0xbece7647	-0.40324613
119	0xbcdb1740	-0.026744485
120	0xbe4995fa	-0.19686118
121	0xbe6f3db8	-0.23363388
122	0xbe85aecb	-0.2610992
123	0xbd544179	-0.051820252
124	0xbe4adcd6	-0.19810805
125	0xbdc1a24c	-0.09454784
126	0xbf8b7924	-1.0896344
127	0xbe2c6250	-0.16834378
128	0xbdce776a	-0.1008137
129	0xbe58054b	-0.21095769
130	0xbe02ff6e	-0.12792751
131	0xbea36b63	-0.31917867
132	0xbf8234ea	-1.0172398
133	0xbf1f14e8	-0.62141275
134	0xbeab5367	-0.33462068
135	0xbec9daa9	-0.39424637
136	0xbe2713dd	-0.16316171
137	0xbe083254	-0.13300449
138	0x3d5574db	0.052113395
139	0xbea8150b	-0.32828555
140	0x3f93f490	1.155901
141	0xbe949db6	-0.29026574
142	0xbe9fb136	-0.3118989
143	0xbf39cd53	-0.72578925
144	0x3eb707d5	0.35748163
145	0xbeed31cf	-0.46327063
146	0xbe979358	-0.29604602
147	0xbdeca979	-0.11555762
148	0xbe9ae195	-0.3025023
149	0xbee53008	-0.44763207
150	0xbcd21dba	-0.02564894
151	0xbe96d379	-0.29458216
152	0xbeaad78a	-0.33367568
153	0xbe96aec1	-0.29430202
154	0xbe9987d6	-0.29986447
155	0xbd50aafc	-0.050944313
156	0xbea363ff	-0.31912228
157	0xbe752b5a	-0.23942319
158	0xbe5b4baa	-0.21415582
159	0x3ea4b49e	0.3216905
160	0xbe9e0799	-0.30865172
161	0xbe9723dc	-0.29519546
162	0xbf364154	-0.7119343
163	0xbe4cc3fc	-0.19996637
164	0xbe74f0f5	-0.23920043
165	0xbea72f60	-0.32653332
166	0xbe9c2cec	-0.30503023
167	0xbe450b33	-0.19242553
168	0xbe8afd61	-0.27146438
169	0xbf831e29	-1.0243579
170	0x3d63c7f7	0.055610623
171	0xbf7ca536	-0.9868959
172	0xbe84c423	-0.2593089
173	0xbe4d000a	-0.20019546
174	0xbe276a49	-0.16349138
175	0xbe9af6cb	-0.30266413
176	0xbebe28c9	-0.37140492
177	0xbe883536	-0.26603097
178	0xbe8d97e9	-0.2765496
179	0xbf6bd4ae	-0.921214
180	0xbe9f9e09	-0.3117526
181	0xbf1ae8e4	-0.6051161
182	0xbec384c3	-0.38187227
183	0xbe732f07	-0.23748408
184	0x3e382947	0.17984496
185	0xbe740ff8	-0.23834217
186	0xbea9d0fe	-0.3316726
187	0xbef16bf8	-0.47152686
188	0xbe7f0b9a	-0.2490677
189	0xbebebc69	-0.3725312
190	0x3ce038f7	0.027370913
191	0xbe39e0d9	-0.18152179
192	0xbe5e8b6a	-0.2173287
193	0x3e9c5724	0.30535233
194	0xbe601504	-0.21883017
195	0x3e1744d0	0.14772344
196	0xbf61d784	-0.88219476
197	0xbeafb2e9	-0.34316185
198	0xbe620ed5	-0.2207597
199	0xbe48a580	-0.19594383
200	0xbf204b38	-0.62614775
201	0xbefd5732	-0.49480587
202	0xbee68dc8	-0.45030046
203	0xbeaf1d83	-0.34202203
204	0xbeefc86e	-0.46832603
205	0xbe5d476e	-0.2160928
206	0xbdbce55e	-0.09223436
207	0xbe198e1f	-0.14995621
208	0xbec596f9	-0.38591745
209	0xbe9bfbbb	-0.30465493
210	0xbe68f29f	-0.22748803
211	0x3b53c672	0.0032314328
212	0xbe44f9a5	-0.19235857
213	0xbece76ff	-0.40325162
214	0xbe74a925	-0.23892649
215	0xbeae8cda	-0.34091836
216	0xbf97e39a	-1.1866333
217	0xbe9a204c	-0.30102766
218	0xbe8d6293	-0.2761427
219	0xbebc61a8	-0.36793256
220	0xbe8f5eba	-0.28001958
221	0xbdf5d33e	-0.12003182
222	0xbe92ae3e	-0.2864856
223	0xbe8b9dd0	-0.2726884
224	0xbdd5d3bf	-0.10440778
225	0x3e0d0d4a	0.137746
226	0xbe95781b	-0.29193196
227	0xbd24c36f	-0.040225442
228	0xbeab86ed	-0.33501378
229	0xbe5175e9	-0.20455135
230	0xbe4996f2	-0.19686487
231	0xbe7b8e26	-0.24565944
232	0xbe757fb5	-0.23974498
233	0xbe3c8b99	-0.18412627
234	0xbe4791a0	-0.19489145
235	0x3e51a605	0.20473488
236	0x3c494ac7	0.012285895
237	0xbe920311	-0.28517964
238	0xbe5ee015	-0.21765168
239	0x3dfd2747	0.12361007
240	0xbe856f5f	-0.26061532
241	0x3e77d16e	0.24200985
242	0xbf82e02c	-1.0224662
243	0xbe72df06	-0.23717889
244	0xbe8c2aff	-0.27376553
245	0xbe821ac7	-0.25411054
246	0xbed971ca	-0.42469627
247	0x3c2fde3c	0.010734137
248	0xbe787dfd	-0.2426681
249	0xbed46319	-0.41481856
250	0xbe97e62d	-0.29667798
251	0xbe85a39e	-0.26101393
252	0xbeca70e9	-0.3953927
253	0xbea0cf7f	-0.31408307
254	0xbf569e4b	-0.83835286
255	0xbe5bc178	-0.21460521

action_model._discrete_distribution.branches.0.bias f4 [2]
0	0xbed0b0d3	-0.40759906
1	0x3ed1356e	0.40861076

action_model._discrete_distribution.branches.0.weight f4 [2, 128]
0	0xbc872b3d	-0.01650011
1	0xbe9e5e6f	-0.30931422
2	0xbd5dbded	-0.054136205
3	0x3f0d2d19	0.5514694
4	0xbe148b5d	-0.14506288
5	0xbea0a3af	-0.3137488
6	0x3ec272d0	0.3797822
7	0xbe81236b	-0.25222334
8	0x3d2ac537	0.041691985
9	0xbe1a25ac	-0.15053433
10	0x3e78c9ac	0.24295682
11	0xc0175ab1	-2.3649104
12	0x3e8aec5a	0.27133447
13	0xbeb441ee	-0.3520655
14	0x3f04a768	0.5181794
15	0xbe953274	-0.29140055
16	0xbfbf0d73	-1.4925979
17	0xbe55771c	-0.20846218
18	0x3edfa278	0.4367864
19	0x3ed2abf5	0.41146818
20	0x3eba0553	0.36332187
21	0x3f59085b	0.84778374
22	0x3f67ef17	0.905992
23	0x3f564f15	0.8371442
24	0x3f00d833	0.50329894
25	0x3f05bff5	0.5224603
26	0xbdf8cefe	-0.121488556
27	0xbd7f9ae5	-0.06240358
28	0x3f1f65b4	0.6226456
29	0xbf89e20b	-1.0772108
30	0x3ec12929	0.37726715
31	0x3f16994b	0.58827657
32	0x3ed91713	0.42400417
33	0x3d265076	0.040604077
34	0x3e02d1e2	0.12775376
35	0xbe66c06b	-0.22534339
36	0xbce3281b	-0.027729085
37	0xbec65b1b	-0.38741383
38	0x3da0d277	0.07852643
39	0xbb84737a	-0.004042086
40	0x3e37c0ee	0.1794469
41	0xbe91751b	-0.28409657
42	0x3ec2638b	0.3796657
43	0xbe35925b	-0.17731611
44	0x3f0033be	0.5007895
45	0xbdfc6450	-0.123238206
46	0xbe2ca66f	-0.16860364
47	0x3f533fd3	0.82519263
48	0xbc3699cc	-0.0111450665
49	0x3c55559a	0.013020897
50	0x3e9e4409	0.30911282
51	0x3efbdbe9	0.49191216
52	0x3ec61b3e	0.3869266
53	0xbed8dbcf	-0.423552
54	0x3eed7804	0.46380627
55	0x3eb2669b	0.34843907
56	0x3e0a0d0b	0.13481538
57	0x3e42effc	0.1903686
58	0x3f53aa17	0.8268141
59	0x3ea49fd8	0.321532
60	0x3e3f2b5c	0.18668884
61	0x3f41b827	0.7567162
62	0x3ddc98cd	0.10771332
63	0x3e77d8fe	0.2420387
64	0x3e8e35c2	0.2777539
65	0xbeef5e96	-0.4675185
66	0x3ed4d7f2	0.41571003
67	0xbf345a58	-0.70450354
68	0xbeba65f6	-0.36405915
69	0xbe85ed46	-0.26157588
70	0xbe1928a7	-0.14956914
71	0x3f2f51ff	0.6848449
72	0x3f199425	0.59991676
73	0xbe42c4ec	-0.19020432
74	0xbe76d9c6	-0.24106511
75	0x4036d108	2.8565083
76	0x3ec0918b	0.3761104
77	0x3e175515	0.1477855
78	0xbd943c93	-0.07238116
79	0xbdc549f5	-0.09633247
80	0x3f13a4da	0.5767342
81	0x3f2a5396	0.6653379
82	0x3d6ce1cb	0.05783252
83	0x3e0f5808	0.13998425
84	0x3dcaaed3	0.09896626
85	0xbd2ac59d	-0.041692365
86	0x3a761f5b	0.00093888276
87	0x3dc37619	0.0954401
88	0xbea50248	-0.32228303
89	0xbc970958	-0.018437073
90	0x3e5f3db7	0.21800886
91	0x3f1fd88b	0.62439793
92	0xbff63418	-1.9234648
93	0xbe920a2a	-0.2852338
94	0x3efb1cef	0.49045512
95	0xbdd9b999	-0.10631103
96	0x3d9a03f5	0.07520286
97	0xbd62d9c5	-0.055383462
98	0x3c7599b8	0.014990263
99	0x3e2ea188	0.17053807
100	0xbd4c510d	-0.049881984
101	0x3ec5e5c1	0.3865185
102	0x3d613fe6	0.05499258
103	0x3f8ab2ab	1.0835775
104	0xbe5f79f0	-0.21823859
105	0x3ecb700b	0.3973392
106	0xbe967d4f	-0.29392478
107	0x3e9803f0	0.29690504
108	0x3f44b84e	0.76843727
109	0x3e9aa08f	0.3020062
110	0x3f331145	0.69948226
111	0xbe161752	-0.14657333
112	0x3d120f47	0.0356591
113	0x3ce1bd3c	0.027556054
114	0xbd39df9a	-0.04537926
115	0x3eecfdca	0.46287376
116	0x3f876745	1.057839
117	0xbfb615ca	-1.42254
118	0x3f031fe6	0.5122055
119	0x3f54d318	0.83134604
120	0x3e16e133	0.14734344
121	0xbfbee410	-1.4913349
122	0x3f2d8ad3	0.67789954
123	0x3da17624	0.07883862
124	0x3f37330c	0.71562266
125	0x3cca6fc4	0.024711497
126	0xbec4274d	-0.38311234
127	0x3e27a423	0.16371207
128	0x3ce50313	0.027955567
129	0x3e9c1066	0.3048126
130	0x3d427a4a	0.047479905
131	0xbf0e42a8	-0.5557046
132	0x3e11c439	0.14235009
133	0x3ea16642	0.3152333
134	0xbec3058a	-0.38090163
135	0x3e6a17f4	0.228607
136	0xbd63cab6	-0.055613242
137	0x3deec457	0.116585426
138	0xbe707e74	-0.23485738
139	0x4016c95f	2.3560407
140	0xbe832aba	-0.25618535
141	0x3eb58f77	0.35461017
142	0xbf0ce656	-0.55038965
143	0x3e9b7f0b	0.30370364
144	0x3fbfc669	1.4982425
145	0x3e468e49	0.19390215
146	0xbedbef91	-0.42956212
147	0xbed16a27	-0.409013
148	0xbebe0eb2	-0.37120587
149	0xbf542b2d	-0.8287838
150	0xbf6957b6	-0.9114946
151	0xbf5809b6	-0.8438982
152	0xbeff98e1	-0.49921325
153	0xbf02c414	-0.5108044
154	0x3dd5c3ec	0.1043776
155	0x3d76bdc0	0.060239553
156	0xbf22cebe	-0.63596714
157	0x3f8abcd2	1.0838873
158	0xbecaf6f7	-0.39641544
159	0xbf17ac33	-0.5924713
160	0xbedef8e2	-0.43549258
161	0xbd37bed5	-0.044859726
162	0xbe010d83	-0.1260281
163	0x3e6d10ab	0.2315089
164	0x3ce2d797	0.027690692
165	0x3ecf7b79	0.4052389
166	0xbd92ff03	-0.07177546
167	0x3b48e053	0.0030651286
168	0xbe387e7c	-0.18017
169	0x3e92d69e	0.28679365
170	0xbed2aacc	-0.41145933
171	0x3e37af1a	0.1793789
172	0xbefcb902	-0.493599
173	0x3e0ad189	0.13556494
174	0x3e3c419d	0.18384404
175	0xbf523f4e	-0.82127845
176	0x3c2d1b55	0.0105655985
177	0xbcb9f0d7	-0.02269785
178	0xbe9bfd84	-0.30466855
179	0xbefe3421	-0.49649146
180	0xbed2cb89	-0.4117091
181	0x3ed70ffc	0.42004383
182	0xbef1ff77	-0.47265217
183	0xbeb78a49	-0.3584769
184	0xbdff52be	-0.12466954
185	0xbe41766e	-0.18892834
186	0xbf510655	-0.81650287
187	0xbea35e99	-0.3190811
188	0xbe3b610a	-0.18298736
189	0xbf3e98c6	-0.74451864
190	0xbddd84c4	-0.10816339
191	0xbe7558c5	-0.23959644
192	0xbe8af0a3	-0.27136716
193	0x3eeccc3e	0.46249574
194	0xbed22658	-0.4104488
195	0x3f2ed230	0.6828947
196	0x3eb4b5bd	0.35294905
197	0x3e817d24	0.25290787
198	0x3e10b97e	0.1413326
199	0xbf304ac2	-0.6886407
200	0xbf1e53e0	-0.61846733
201	0x3e4cfaf4	0.20017606
202	0x3e7bb401	0.24580385
203	0xc036a82d	-2.8540146
204	0xbec6be80	-0.38817215
205	0xbe24dcf3	-0.1609991
206	0x3db07b4f	0.08617269
207	0x3dc09263	0.09402921
208	0xbf154737	-0.5831179
209	0xbf2972f1	-0.6619101
210	0xbd5d4ab3	-0.054026317
211	0xbe0b78ed	-0.13620348
212	0xbdea2371	-0.11432541
213	0x3cd57fd8	0.026061937
214	0x3c044957	0.008074126
215	0xbde057da	-0.10954256
216	0x3e9f550b	0.3111957
217	0x3cf974ec	0.03045126
218	0xbe636b77	-0.22208963
219	0xbf1dcc88	-0.61640215
220	0x3ff4215e	1.9072683
221	0x3e856af5	0.26058164
222	0xbf04d0f3	-0.5188133
223	0x3dcc1fb9	0.09966988
224	0xbd58ea90	-0.05295807
225	0x3d00bd52	0.03143055
226	0xbcbd9e95	-0.023146907
227	0xbe25660d	-0.1615221
228	0x3d18be31	0.037290756
229	0xbed13369	-0.40859535
230	0xbd96d7c0	-0.0736537
231	0xbf8b370f	-1.0876178
232	0x3e629624	0.22127587
233	0xbec40092	-0.38281685
234	0x3e998414	0.2998358
235	0xbe9471e9	-0.28993157
236	0xbf49c100	-0.7881012
237	0xbe9b2daf	-0.3030829
238	0xbf3349b6	-0.7003435
239	0x3df3788b	0.11888226
240	0xbd68dbf2	-0.05685038
241	0xbcbd03c1	-0.023073079
242	0x3d70aa51	0.058756176
243	0xbeea27b5	-0.4573342
244	0xbf86eea7	-1.0541581
245	0x3fb9ca90	1.4514942
246	0xbf027921	-0.5096608
247	0xbf58046f	-0.84381765
248	0xbe15752d	-0.1459548
249	0x3fbf5f05	1.4950873
250	0xbf2fd982	-0.68691266
251	0xbd94352b	-0.072367035
252	0xbf3a58fb	-0.72792023
253	0xbd100713	-0.035162997
254	0x3ed2d1c7	0.41175672
255	0xbe251c56	-0.1612409

network_body._body_endoder.seq_layers.0.bias f4 [128]
0	0xbf4a40fa	-0.79005396
1	0xbea0401b	-0.3129891
2	0xbf0abdfc	-0.54196143
3	0xbf5ed7aa	-0.8704783
4	0xbf156752	-0.5836078
5	0xbece7ced	-0.40329686
6	0x3e408e1b	0.18804209
7	0x3e5a31a7	0.21308003
8	0x3d28b7a0	0.041190743
9	0xbeccc142	-0.39991194
10	0xbe125109	-0.14288725
11	0xbf0fb7ba	-0.5613972
12	0xbec90770	-0.39263487
13	0xbf447423	-0.7673971
14	0x3d96d09e	0.07364009
15	0xbf23a025	-0.63916236
16	0x3e0583f4	0.13038617
17	0xbee5e8c3	-0.44904146
18	0x3e042c82	0.12907603
19	0xbea298fe	-0.3175735
20	0xbf49b0e8	-0.7878556
21	0x3e276416	0.16346774
22	0xbf370038	-0.7148471
23	0xbf09be6d	-0.5380619
24	0x3e852ed6	0.26012295
25	0xbd85dcd5	-0.06536261
26	0xbe6c1e15	-0.2305835
27	0xbe9d8b8b	-0.30770525
28	0x3edf8a04	0.43659985
29	0x3c573720	0.013135701
30	0x3ed64ecd	0.41856995
31	0x3ea3db91	0.32003453
32	0x3e9fb16e	0.31190056
33	0x3c41ce17	0.011828921
34	0xbbf6349e	-0.0075135967
35	0xbe4c3353	-0.19941454
36	0x3e055a77	0.13022791
37	0x3e49837f	0.19679068
38	0x3e6370f5	0.22211058
39	0xbf0bfb8e	-0.54680717
40	0xbe9ddd01	-0.30832675
41	0xbeccdedb	-0.40013775
42	0xbb3d0a31	-0.0028845186
43	0xbed83ffb	-0.42236313
44	0x3e6f5deb	0.2337567
45	0x3e8e6e3d	0.2781848
46	0xbe980035	-0.29687658
47	0xbe8c34de	-0.27384084
48	0x3e265af2	0.1624563
49	0xbf030a4d	-0.5118759
50	0x3df15f56	0.11785762
51	0x3dfaba5c	0.122425765
52	0x3d029823	0.03188337
53	0x3e35f2e7	0.17768441
54	0xbf0ee46d	-0.558173
55	0xbe8c9022	-0.27453715
56	0x3ee4263e	0.44560426
57	0xbf5d0b4e	-0.86345375
58	0x3d7ca904	0.061684623
59	0x3d9cefbb	0.076629125
60	0x3c83b0c3	0.016075497
61	0x3dddf9cf	0.10838663
62	0x3c39a036	0.011329701
63	0x3ec75ab4	0.38936388
64	0xbf063723	-0.5242788
65	0x3e72aa0c	0.2369768
66	0xbf03c61a	-0.51474154
67	0x3e83026a	0.2558778
68	0xbe6bced2	-0.23028114
69	0xbce8ef1b	-0.028434327
70	0x3d0caa9f	0.034342404
71	0x3f0a74a6	0.5408424
72	0xbd8704b8	-0.06592697
73	0xbd14d5d3	-0.03633673
74	0xbed60dad	-0.4180731
75	0x3e58fe7c	0.21190828
76	0x3c8bb8c9	0.017055886
77	0xbe8fe87e	-0.28107065
78	0xbec1e680	-0.3787117
79	0x3e0c3edf	0.13695858
80	0x3e19d8f1	0.15024163
81	0xbec13e89	-0.37743023
82	0xbf3a7c43	-0.7284586
83	0x3e954233	0.29152068
84	0x3e862b72	0.2620502
85	0x3e9564b0	0.2917838
86	0x3c4c3a15	0.01246502
87	0xbec82e4a	-0.39097816
88	0xbeafcdf4	-0.34336817
89	0xbe07f5a2	-0.13277295
90	0x3e202516	0.15639147
91	0x3e297bbd	0.16551109
92	0x3e825c7f	0.25461194
93	0xbedf4806	-0.43609637
94	0x3e8b66a8	0.27226758
95	0xbeb81887	-0.35956213
96	0xbf27aea3	-0.6550085
97	0xbed56af0	-0.4168315
98	0x3e870855	0.26373544
99	0xbf22cf01	-0.6359711
100	0x3e8dc01e	0.27685636
101	0xbf8b2e70	-1.0873547
102	0x3e42d0b1	0.19024922
103	0x3dd0a5c3	0.101878665
104	0xbf9c7fb4	-1.2226472
105	0xbf0fd674	-0.56186604
106	0x3e9d6418	0.30740428
107	0x3ea51184	0.32239926
108	0xbe710d53	-0.23540239
109	0x3e84fa3b	0.2597216
110	0x3e768c5c	0.2407698
111	0xbf1c9159	-0.6115928
112	0x3e819480	0.2530861
113	0x3ea2615f	0.31714913
114	0x3e5402c6	0.20704183
115	0x3d9529d8	0.07283372
116	0xbf0df860	-0.55457115
117	0x3e1cf9c1	0.15329649
118	0x3e0dce3b	0.13848202
119	0x3e1defb2	0.15423468
120	0x3de28c8c	0.110619634
121	0x3df54b2f	0.11977231
122	0xbe292e91	-0.1652167
123	0xbee9d924	-0.45673478
124	0xbee63ce8	-0.44968343
125	0xbed6df91	-0.41967443
126	0x3e1416e8	0.14461863
127	0xbe0a2225	-0.13489588

network_body._body_endoder.seq_layers.0.weight f4 [128, 26]
0	0xbfa832c9	-1.3140498
1	0xbe3feca7	-0.1874262
2	0x3f044089	0.5166097
3	0xbe26401b	-0.16235392
4	0xbf19f457	-0.6013846
5	0x3f37efd7	0.7185034
6	0x3e8390df	0.25696465
7	0xbe2b94e9	-0.16756023
8	0x3e0b7d0b	0.13621919
9	0x3eb1ddae	0.3473944
10	0xbf0d8511	-0.5528117
11	0xbe2d46c4	-0.16921526
12	0xbea48313	-0.32131252
13	0xbfa94e9b	-1.3227113
14	0xbdf5ac8a	-0.119958
15	0x3ed5a4a4	0.41727173
16	0xbed68ba3	-0.4190341
17	0xbf8930dc	-1.0718036
18	0x3f5a5624	0.8528769
19	0x3e85f7b9	0.2616556
20	0xbefc5f52	-0.49291474
21	0x3e0590db	0.13043539
22	0x3d10f75a	0.035392143
23	0xbeeb3486	-0.4593851
24	0x3e38ae0b	0.18035142
25	0x3e785893	0.24252538
26	0xbf121807	-0.5706791
27	0x3e679753	0.2261632
28	0x3f361812	0.7113048
29	0xbeef8c8c	-0.46786916
30	0xbf4627fb	-0.77404755
31	0x3e1d2036	0.15344319
32	0x3e688974	0.22708684
33	0x3c2c7e45	0.010528152
34	0xbdfb0cab	-0.122582756
35	0x3ed12206	0.4084627
36	0xbf722e69	-0.94602066
37	0x3ec62662	0.3870116
38	0x3c43406a	0.011917213
39	0xbef75817	-0.48309395
40	0x3e143de7	0.14476739
41	0x3f622ad1	0.8834658
42	0xbe9cc92d	-0.30622235
43	0xbeb4b6fe	-0.35295862
44	0x3e5d9112	0.21637371
45	0xbe206365	-0.15662916
46	0x3eb4fd79	0.35349634
47	0xbe9c894b	-0.30573496
48	0x3f24b754	0.64342237
49	0xbf61afca	-0.8815886
50	0x3e82f105	0.25574508
51	0x3d685635	0.05672284
52	0xbf42ab56	-0.7604269
53	0xbe1d7413	-0.1537631
54	0x3d971dfe	0.073787674
55	0xbecea20c	-0.40358007
56	0xbeb886ad	-0.3604025
57	0x3e45df6e	0.19323513
58	0xbd8a4c46	-0.06752829
59	0xbf61f08a	-0.8825766
60	0x3f76f79c	0.9647157
61	0xbf22c261	-0.6357785
62	0x3e3e0c4c	0.18559378
63	0x3eb3a93f	0.35090062
64	0x3d9b7428	0.075905144
65	0xbf3d2d4a	-0.7389723
66	0xbe81a18d	-0.25318566
67	0xbee3c3b7	-0.44485256
68	0xbf04068c	-0.5157249
69	0xbef62cc7	-0.48081037
70	0x3e9b9c69	0.3039277
71	0x3e2aa580	0.16664696
72	0xbf7d2284	-0.9888079
73	0x3f6e39c4	0.93056893
74	0xbe9a24d8	-0.30106235
75	0x3dc117b7	0.09428351
76	0x3ed51640	0.41618538
77	0x3ec27201	0.37977603
78	0xbf97cc55	-1.1859232
79	0xbe7c8c28	-0.2466284
80	0x3f194186	0.59865606
81	0xbee3fcc3	-0.4452878
82	0xbf7518c3	-0.9574091
83	0x3f516361	0.81792265
84	0x3e59802a	0.21240297
85	0x3d969050	0.07351744
86	0x3e1f5d2b	0.15562885
87	0xbd1bf830	-0.038078487
88	0x3eb94bd8	0.36190677
89	0x3ef08fa1	0.4698458
90	0xbddc35d7	-0.10752457
91	0xbf8c26e6	-1.0949371
92	0xbde5681d	-0.11201499
93	0x3f476d62	0.7790128
94	0xbf049f4a	-0.51805556
95	0xbf39f48a	-0.7263876
96	0x3f84a984	1.0364232
97	0xbd12abad	-0.035808254
98	0xbe31bea5	-0.17357881
99	0x3df1a3ea	0.11798842
100	0x3e38538e	0.18000624
101	0x3ef8cb18	0.48592448
102	0x3cd9be6a	0.026580054
103	0xbe908deb	-0.28233275
104	0xbef074fb	-0.4696425
105	0xbdb17d4d	-0.08666477
106	0x3ca0d28d	0.019631648
107	0xbf222903	-0.6334383
108	0xbe7c778a	-0.24654976
109	0x3f49b60c	0.78793406
110	0x3e3e30fc	0.18573374
111	0xbd6b421b	-0.05743609
112	0x3d0115d4	0.031514958
113	0xbe314c3f	-0.17314242
114	0xbda0c228	-0.07849532
115	0x3e92173c	0.2853335
116	0x3e115453	0.14192323
117	0xbe98566a	-0.2975343
118	0xbcf165e1	-0.029467525
119	0x3eb284b6	0.34866875
120	0xbf04fcbd	-0.5194815
121	0xbee52be2	-0.44760042
122	0x3f599c62	0.85004246
123	0x3e367ea1	0.17821743
124	0xbd4330fb	-0.047654133
125	0xbe1225af	-0.14272188
126	0xbdcce395	-0.10004345
127	0x3df05f0a	0.11736877
128	0x3e13f26a	0.14447942
129	0x3e84bc44	0.25924885
130	0xbf1c6166	-0.6108612
131	0xbeae7750	-0.34075403
132	0x3f50d595	0.815759
133	0xbf28b1e3	-0.65896434
134	0xbf15b3a4	-0.58477235
135	0x3eae8911	0.34088948
136	0xbdffd45c	-0.12491676
137	0x3e8cd195	0.27503648
138	0xbc48be28	-0.012252368
139	0x3cea8035	0.028625587
140	0x3e8f26f2	0.279594
141	0xbe4c4100	-0.1994667
142	0x3ededd79	0.43528345
143	0xbefc25eb	-0.4924768
144	0x3cd8b1eb	0.026452025
145	0x3f4637fe	0.7742919
146	0xbe9c85ef	-0.30570933
147	0xbd918fe8	-0.07107526
148	0x3e23bd00	0.15990067
149	0xbda02ba3	-0.07820823
150	0x3b0e3156	0.0021696887
151	0xbcff8f91	-0.031196387
152	0xbe28d974	-0.16489202
153	0xbe845423	-0.2584544
154	0xbe045a02	-0.1292496
155	0xbe2600a0	-0.16211176
156	0x3f80903a	1.0044014
157	0x3ea38c59	0.31943014
158	0xbeadc235	-0.3393723
159	0xbee39f8e	-0.44457668
160	0xbdef11f9	-0.1167335
161	0xbe04cb7c	-0.12968248
162	0xbe6da537	-0.23207556
163	0x3f32d2c7	0.6985287
164	0xbf04f667	-0.5193848
165	0x3d31662e	0.043310337
166	0x3d85bc3b	0.06530043
167	0x3daa2f02	0.08309747
168	0xbe3a361a	-0.181847
169	0x3e814532	0.25248104
170	0xbe87d59d	-0.26530161
171	0xbea4f4bd	-0.3221797
172	0x3e26d6a5	0.16292818
173	0x3c204b55	0.009783586
174	0xbed19deb	-0.40940794
175	0xbe055906	-0.13022241
176	0x3eddadb6	0.43296593
177	0xbf6404f7	-0.89070076
178	0xbdfa9b77	-0.12236684
179	0x3f076f6f	0.5290441
180	0xbea663a6	-0.324979
181	0xbebca2db	-0.36843
182	0x3e8c5f99	0.27416685
183	0x3e93c845	0.2886373
184	0x3f3a0dd7	0.7267737
185	0x3dc817ea	0.09770186
186	0x3ed66945	0.4187719
187	0xbf018026	-0.50586164
188	0x3eff1963	0.49824056
189	0x3f033058	0.5124564
190	0xbf224eae	-0.63401306
191	0xbc575d54	-0.01314481
192	0x3e77b371	0.24189545
193	0x3e663415	0.22480805
194	0xbf138d80	-0.57637787
195	0x3ecdccc1	0.40195277
196	0x3f1e891c	0.6192796
197	0x3e82a35a	0.25515252
198	0x3ecc63c9	0.3991988
199	0x3d894bdc	0.06703922
200	0xbe9d8945	-0.3076879
201	0x3e661c32	0.22471693
202	0x3f09be8d	0.5380638
203	0xbee3dfbd	-0.44506636
204	0xbced177b	-0.02894186
205	0x3e175155	0.1477712
206	0xbda7251c	-0.08161375
207	0xbf800077	-1.0000142
208	0x3f36e8a4	0.7144873
209	0x3edbcda6	0.42930335
210	0xbecb5eee	-0.39720863
211	0x3eb07555	0.34464517
212	0x3e204aec	0.1565358
213	0xbe5c9871	-0.21542527
214	0xbdb75903	-0.089525245
215	0x3dc02dba	0.09383722
216	0xbe32ae80	-0.17449379
217	0x3ef2373a	0.4730776
218	0xbefef2f4	-0.49794734
219	0xbf346567	-0.7046723
220	0xbead89d3	-0.33894214
221	0x3f0a0712	0.5391704
222	0xbe9390d5	-0.28821436
223	0xbe47d5e7	-0.19515191
224	0x3e871d2e	0.2638945
225	0xbe214f4a	-0.15752903
226	0xbd55560f	-0.052084025
227	0x3e4d01dc	0.2002024
228	0x3f0a8d3b	0.5412175
229	0xbec6b7b1	-0.3881202
230	0xbe02b1fd	-0.1276321
231	0xbe420809	-0.18948378
232	0xbedd75af	-0.43253848
233	0xbe4f079a	-0.20217744
234	0xbf0792e5	-0.5295852
235	0xbfa499fb	-1.2859491
236	0x3e0ae820	0.13565111
237	0xbea7b5fd	-0.32756034
238	0xbf04cf40	-0.5187874
239	0x3f43e6f5	0.7652429
240	0x3e448359	0.1919073
241	0x3e8d48eb	0.27594694
242	0xbe5ccf7c	-0.21563524
243	0xbf5f7580	-0.87288666
244	0xbfa05071	-1.2524549
245	0x3e35a18a	0.17737404
246	0x3e7d055b	0.24709074
247	0xbf1fb48c	-0.6238487
248	0xbf99054f	-1.1954745
249	0x3ed703a6	0.4199497
250	0xbf254bf1	-0.64569
251	0xbf4b07b2	-0.7930862
252	0x3f48db78	0.7845988
253	0x3e59794b	0.21237676
254	0xbe5c5eeb	-0.21520583
255	0xbe17d5fd	-0.14827724

network_body._body_endoder.seq_layers.2.bias f4 [128]
0	0xbeefcea4	-0.46837342
1	0x3e5ef1a0	0.2177186
2	0xbebfd1cb	-0.37464747
3	0x3e1b8043	0.15185647
4	0x3e344338	0.17603767
5	0x3f0c6c01	0.548523
6	0x3c8cce3b	0.017188182
7	0xbef03781	-0.46917346
8	0xbf1971f8	-0.5993953
9	0xbf0aa650	-0.5416002
10	0xbf253cd9	-0.6454597
11	0x3daee747	0.085402064
12	0x3e8719cb	0.26386866
13	0xbf1c251c	-0.60994124
14	0xbde32106	-0.11090283
15	0xbdb80223	-0.089847825
16	0xbd972875	-0.073807634
17	0xbea79a70	-0.32735014
18	0xbde5f5df	-0.11228537
19	0xbebfc3c9	-0.3745406
20	0xbe84a060	-0.25903606
21	0x3e123e1d	0.14281507
22	0xbd779c80	-0.060451984
23	0xbe2c73b4	-0.16841012
24	0xbd89f9be	-0.06737088
25	0xbd572d07	-0.052533176
26	0xbe2026cf	-0.15639804
27	0xbee1a545	-0.44071403
28	0x3df6ff32	0.120603934
29	0xbe36f3b2	-0.178664
30	0xbe3bfeef	-0.18358968
31	0xbf145c96	-0.57953775
32	0xbd8d4506	-0.06897931
33	0xbe65983d	-0.22421356
34	0xbe57ec6c	-0.21086282
35	0xbea5c3e8	-0.32376027
36	0xbefb74e0	-0.49112606
37	0xbe070c80	-0.13188362
38	0xbe6e9d39	-0.23302163
39	0xbf095625	-0.5364707
40	0xbcd087b0	-0.025455326
41	0x3e105186	0.14093599
42	0xbeb61af3	-0.35567436
43	0x3e710992	0.23538807
44	0x3e9f5ab3	0.31123886
45	0xbf1a025c	-0.6015985
46	0xbec03419	-0.37539747
47	0x3d14ffec	0.03637688
48	0xbeea103c	-0.4571551
49	0xbd894788	-0.06703097
50	0xbec78a9a	-0.38972932
51	0xbcf9f144	-0.030510552
52	0xbc86ec6e	-0.01647016
53	0x3deb138d	0.114783384
54	0xbacd5272	-0.0015664829
55	0xbee370d4	-0.4442202
56	0xbdd06d34	-0.10177079
57	0xbe9c8754	-0.30571997
58	0xbe04c95e	-0.1296744
59	0xbde3509a	-0.11099358
60	0xbec84216	-0.3911292
61	0x3d99e307	0.07514005
62	0xbf1400a5	-0.57813483
63	0xbe80b164	-0.25135338
64	0xbd5918e5	-0.053002257
65	0xbe982f0b	-0.2972339
66	0xbe6f6309	-0.23377623
67	0x3cc434ae	0.0239509
68	0xbe901f5b	-0.28148922
69	0x3e52b3fb	0.2057647
70	0xbf1fb446	-0.6238445
71	0xbe2907ea	-0.16506925
72	0x3e4775dd	0.19478555
73	0xbecc3d38	-0.39890456
74	0xbea8e0fd	-0.32984152
75	0xbcb4b008	-0.022056594
76	0xbf339126	-0.70143354
77	0xbe9f26ed	-0.31084386
78	0xbf03996d	-0.51405984
79	0xbe932671	-0.28740266
80	0x3dd2a80e	0.1028596
81	0xbe1cb6f8	-0.15304172
82	0x3e0d8ffd	0.13824458
83	0xbf510e83	-0.8166277
84	0xbec0aa4a	-0.3762992
85	0xbea31f65	-0.3185989
86	0xbf171c59	-0.5902763
87	0xbec29373	-0.3800312
88	0xbe5d27eb	-0.21597259
89	0x3e693f78	0.22778118
90	0xbeb55a7a	-0.3542059
91	0x3d6e40b4	0.058167174
92	0xbe9a37f5	-0.30120817
93	0xbf0cde82	-0.5502702
94	0xbe6156a6	-0.2200571
95	0xbebec245	-0.3725759
96	0xbf1f8f50	-0.6232805
97	0xbf5d1530	-0.86360455
98	0xbe6d0d31	-0.23149563
99	0xbeb70c5a	-0.3575161
100	0xbeb0c5a0	-0.34525776
101	0x3e0e6594	0.13905936
102	0xbec691a9	-0.38783005
103	0x3e07618e	0.13220808
104	0xbf049bf5	-0.5180047
105	0xbf0b7e26	-0.5448936
106	0xbee6e3c5	-0.4509565
107	0xbf7bfcf5	-0.98432857
108	0x3eaf6506	0.34256762
109	0xbe983528	-0.29728055
110	0xbf1344d7	-0.57526916
111	0xbf042552	-0.51619446
112	0xbec0f90b	-0.37690005
113	0xbeb4756a	-0.3524583
114	0x3e33ebcb	0.17570417
115	0xbeafa4c4	-0.34305394
116	0xbe06ada1	-0.13152172
117	0x3e748231	0.23877789
118	0x3d99399a	0.0748169
119	0xbe82386f	-0.2543368
120	0xbe961062	-0.29309374
121	0xbe22b7c4	-0.15890414
122	0xbdce1eb3	-0.10064449
123	0xbed2dcc5	-0.4118406
124	0x3d9199ec	0.071094364
125	0xbe9797ad	-0.29607907
126	0x3f233f4d	0.63768464
127	0xbedcfc6e	-0.4316134

network_body._body_endoder.seq_layers.2.weight f4 [128, 128]
0	0x3c0f1a1a	0.00873425
1	0xbd79c5c0	-0.060979605
2	0xbf223131	-0.6335631
3	0xbf263174	-0.6491921
4	0xbf8a0ed9	-1.0785781
5	0xbdb27774	-0.0871419
6	0x3d93b89c	0.07212946
7	0xbf155fe8	-0.58349466
8	0x3e48a8ee	0.19595692
9	0xbebf4e15	-0.3736426
10	0xbcb12afa	-0.021626938
11	0xbf4d154d	-0.8011063
12	0xbece8056	-0.40332288
13	0xbf1a226f	-0.6020879
14	0xbdf95459	-0.12174291
15	0xbf245fab	-0.6420848
16	0x3e96abb2	0.29427868
17	0xbf0d1b0b	-0.5511939
18	0x3f1a2a0c	0.6022041
19	0xbf00ee71	-0.5036383
20	0xbf0fa10d	-0.5610512
21	0x3e5c1968	0.21494067
22	0xbf128678	-0.57236433
23	0xbf0c68bf	-0.5484733
24	0xbec9adab	-0.3939031
25	0x3d3f058d	0.046636153
26	0xbeb80170	-0.35938597
27	0xbebb44f3	-0.36576042
28	0x3ec6bc3a	0.3881548
29	0xbeaefc9d	-0.34177104
30	0xbd9f0dc2	-0.07766296
31	0xbe511eb8	-0.20421875
32	0xbda3e768	-0.080031216
33	0x3e43636c	0.19080895
34	0x3d2310f1	0.03981108
35	0x3d8ba97b	0.06819435
36	0x3e351703	0.1768456
37	0xbe489580	-0.1958828
38	0x3eac74a9	0.33682755
39	0xbf1ae3b4	-0.605037
40	0xbf578f64	-0.8420317
41	0x3c774fa7	0.015094674
42	0x3edd303c	0.43200862
43	0xbed67499	-0.41885832
44	0x3f2191c2	0.63113034
45	0xbf61d1e0	-0.8821087
46	0x3e84d3b9	0.25942782
47	0x3e81dd4c	0.2536415
48	0x3e376cbb	0.17912571
49	0xbea9c330	-0.3315673
50	0x3e198046	0.14990339
51	0x3e69b9a8	0.22824728
52	0x3efd3b25	0.49459186
53	0xbcabd229	-0.020974236
54	0xbf5c129a	-0.85965884
55	0xbf239555	-0.6389974
56	0x3f90bc92	1.1307547
57	0xbf1bd22f	-0.6086759
58	0x3e8263da	0.25466806
59	0x3ed44e24	0.41465867
60	0x3eec5356	0.4615733
61	0x3f2f43b0	0.6846266
62	0x3dc50161	0.09619404
63	0xbe742b06	-0.23844537
64	0xbf3d432f	-0.7393064
65	0xbe20eddf	-0.1571574
66	0xbf8aee22	-1.0853922
67	0xbe3313b8	-0.17487991
68	0xbc9f8fa2	-0.01947767
69	0x3d838273	0.064213656
70	0xbf1ffa22	-0.6249105
71	0x3dbfdc6a	0.093682125
72	0x3e18bc6f	0.14915632
73	0x3e9020f6	0.28150147
74	0xbf1cd459	-0.61261517
75	0x3e163058	0.14666879
76	0x3da5532b	0.08072504
77	0x3e4731d2	0.19452599
78	0xbf127c3e	-0.5722083
79	0xbba8ed3b	-0.005155233
80	0x3dbffc8f	0.093743436
81	0x3e9bdd0e	0.3044209
82	0xbecaf8bc	-0.39642894
83	0x3ea77b7b	0.32711396
84	0xbe2aba21	-0.16672565
85	0x3e0aee8a	0.13567558
86	0x3e21828a	0.15772453
87	0xbec0b2ee	-0.37636513
88	0xbf2cb9d1	-0.67471033
89	0x3ed779a2	0.42084986
90	0xbe9e1fb3	-0.3088356
91	0xbcdccfba	-0.02695452
92	0x3ea85d60	0.3288374
93	0xbe4f5453	-0.20247011
94	0x3e68ccd3	0.22734384
95	0xbf60cca8	-0.8781228
96	0x3e1bebe1	0.152267
97	0xbda1cba2	-0.07900168
98	0x3eb72663	0.35771474
99	0xbe804ea6	-0.25060004
100	0xbeed2c5d	-0.4632291
101	0xbe5522c3	-0.20814042
102	0x3d934bee	0.07192217
103	0xbe580ddd	-0.21099038
104	0xbe099c0b	-0.13438432
105	0x3e0065bc	0.12538809
106	0xbf050611	-0.5196238
107	0x3da03aa5	0.078236856
108	0xbeabe7ce	-0.3357529
109	0x3d8599f2	0.06523503
110	0xbeb5016f	-0.35352656
111	0xbf58e1d7	-0.84719604
112	0x3edcbf5a	0.4311474
113	0xbec00178	-0.3750112
114	0x3e2c36d8	0.16817796
115	0x3e923e21	0.28563026
116	0xbe8b3f0e	-0.27196544
117	0x3f42bddc	0.7607095
118	0x3ed867a7	0.4226658
119	0x3f137810	0.57605076
120	0x3ea86877	0.328922
121	0x3e25387a	0.16134825
122	0x3f1c10d2	0.60963166
123	0xbdfd2a10	-0.123615384
124	0x3d88c091	0.06677354
125	0xbec8d1bc	-0.39222515
126	0x3bf4b15f	0.0074674333
127	0x3edc1a75	0.42988935
128	0xbf28366a	-0.6570803
129	0x3f058875	0.5216134
130	0xbf3c9602	-0.73666394
131	0x3e932888	0.2874186
132	0xbee443fe	-0.44583124
133	0xbed4c55d	-0.41556826
134	0x3d916c35	0.07100717
135	0x3eb23dc5	0.3481275
136	0xbef729d2	-0.48274094
137	0xbe90e0b9	-0.2829645
138	0xbfc46b32	-1.5345213
139	0xbf990dc2	-1.1957324
140	0x3d8668af	0.065629356
141	0xbcbb7dfe	-0.022887226
142	0x3dbc3a05	0.09190754
143	0x3e3f112f	0.18658899
144	0xbfd6b1e4	-1.6773038
145	0xbeaf9a29	-0.34297302
146	0xbe1a6388	-0.1507703
147	0x3e811e85	0.25218597
148	0xbe1ac193	-0.15112905
149	0x3f93dc16	1.155154
150	0x3e2eee2f	0.17083047
151	0xbfaa1bac	-1.3289695
152	0xbf883d76	-1.0643756
153	0x3d9dbcc8	0.07702023
154	0x3dac5902	0.084154144
155	0x3d39976b	0.04531042
156	0x3ea37838	0.31927657
157	0x3ec6d00d	0.38830605
158	0x3ebdb7cd	0.3705429
159	0x3e5120ec	0.20422715
160	0xbebddc20	-0.37082005
161	0xbfb3c67c	-1.4044948
162	0xbfae833e	-1.3633802
163	0xbe8bb86d	-0.27289143
164	0xbf8c52e7	-1.09628
165	0x3d6af90f	0.057366427
166	0xbcba6a89	-0.022755878
167	0x3d555952	0.052087136
168	0x3ec013e6	0.3751518
169	0xbf11fdab	-0.5702769
170	0xbe5547cc	-0.2082817
171	0x3e98712a	0.29773837
172	0x3e6831b5	0.22675212
173	0x3f4b9287	0.7952046
174	0xbf2d37d4	-0.6766331
175	0x3d1a8510	0.037724555
176	0x3e18fb8e	0.1493971
177	0xbdec92bf	-0.11551427
178	0xbf9b889b	-1.2151064
179	0xbeeebd52	-0.46628815
180	0xbecd312c	-0.40076578
181	0x3f2777c3	0.65417117
182	0xbf47687f	-0.77893823
183	0xbf253d0b	-0.6454627
184	0x3f1b40d5	0.606458
185	0xbf6881e4	-0.908232
186	0xbfcfdbc8	-1.6238947
187	0xbf60ea02	-0.8785707
188	0xbf95db1d	-1.1707493
189	0xbde410a8	-0.111359894
190	0x3e0876f0	0.13326621
191	0x3d8947b9	0.06703133
192	0x3e15bff1	0.14624001
193	0x3e13033e	0.14356706
194	0xbf1d298c	-0.6139152
195	0xbda2b417	-0.07944506
196	0xc007e2a7	-2.1232088
197	0x3b22bf3a	0.0024833218
198	0xbf425bd9	-0.759214
199	0x3f68ccc1	0.9093743
200	0xbf9e9ee0	-1.2392235
201	0x3ea6398f	0.3246579
202	0x3d0f4263	0.03497542
203	0x3ecb4140	0.3969822
204	0xbd896f63	-0.067106985
205	0xbf81a918	-1.0129728
206	0xbedb8130	-0.42872
207	0x3e3c34f5	0.18379577
208	0x3f98b51d	1.1930271
209	0xbf5b1502	-0.8557893
210	0x3eae2330	0.3401122
211	0xbd77ee1f	-0.060529824
212	0x3ed6c07a	0.41943723
213	0x3ed50381	0.41604236
214	0xbecdfeeb	-0.4023355
215	0x3d2898f0	0.041161478
216	0x3ea8fc1a	0.33004838
217	0x3ebd844d	0.37015
218	0xbe530c49	-0.20610155
219	0x3e23949e	0.15974662
220	0x3e50f915	0.20407517
221	0xbe5be13c	-0.21472639
222	0x3e4c814c	0.19971198
223	0xbf5d4227	-0.86429065
224	0xbf799da4	-0.97506166
225	0x3e1e7204	0.15473181
226	0x3da9f708	0.082990706
227	0xbf4107c2	-0.7540246
228	0x3dec8175	0.115481295
229	0xbf7fdf1d	-0.9994982
230	0x3eb987e6	0.36236495
231	0xbee6000e	-0.44921917
232	0xbf633bf8	-0.8876338
233	0xbf395b3c	-0.7240484
234	0x3edd964a	0.43278724
235	0x3e10d578	0.14143932
236	0xbef980d5	-0.48731104
237	0x3ec21491	0.37906316
238	0x3d8aaf0d	0.067716695
239	0xbf2e455e	-0.68074596
240	0x3ee8a3b9	0.4543741
241	0xbe45a05e	-0.19299456
242	0x3e58b967	0.21164475
243	0x3e8b755e	0.27237982
244	0xbed3c885	-0.41363922
245	0x3e0589cb	0.13040845
246	0xbf073ab4	-0.5282395
247	0x3d98e44b	0.074654184
248	0xbd4d8da6	-0.050183915
249	0xbfa7820c	-1.3086562
250	0xbf9a9616	-1.2077053
251	0x3e031bc6	0.12803563
252	0xbf5c00c2	-0.85938656
253	0xbf132c84	-0.574898
254	0x3e80d2cb	0.25160822
255	0xbfba24ad	-1.4542443
