AIRocketLanding/results/2AIRocket2/AIRocket/AIRocket-61999979.onnx (onnx, 84776 bytes, 9 tensors)

action_model._continuous_distribution.log_sigma f4 [1, 2]
000000 f4 c1 15 40 15 d0 2a 40
       2.339963 2.6689503

action_model._continuous_distribution.mu.bias f4 [2]
000000 fd 09 ca bd b0 9d ce 3c
       -0.09865186 0.025221676

action_model._continuous_distribution.mu.weight f4 [2, 128]
000000 dd 82 3c be 6e eb 56 bf 6b a7 a5 bc e1 80 78 be
       -0.18409295 -0.8395299 -0.020221433 -0.24267913
000010 0e 14 a6 be b9 9f 84 bf 2c 9a 50 be 42 8c 28 be
       -0.32437176 -1.0361243 -0.20371312 -0.16459754
000020 ec cd 9d bd af ff eb bd 06 65 13 bd 90 36 43 3d
       -0.07705292 -0.11523377 -0.035985015 0.047659457
000030 c9 8f 84 be 45 78 1d be 41 c1 66 be 37 c8 09 3f
       -0.2589095 -0.1537791 -0.22534658 0.5382113
000040 81 f7 ab 3d 0b f7 0d bd 8f 00 57 be ed 63 21 be
       0.08396817 -0.034659427 -0.20996307 -0.15760775
000050 09 f0 5f be 1d 99 c1 be 2b 3b 5d be 07 16 4d be
       -0.2186891 -0.3781213 -0.21604602 -0.20027934
000060 8d f4 76 be c6 d6 2c be c6 b6 8c be 43 94 c1 bd
       -0.24116726 -0.16878805 -0.27483195 -0.09452107
000070 a8 09 9c be e3 bd 0d be 87 c0 5a be bc 2f 4d bc
       -0.30476117 -0.13841967 -0.21362506 -0.012523588
000080 cd ab a6 bd 3c 9d ce bd 2b 54 c0 3e fe d8 0e be
       -0.08138237 -0.10088584 0.37564215 -0.13949963
000090 38 e2 f7 bd 12 e4 ff bd fd 56 81 be 1c 27 f6 bc
       -0.12103695 -0.12494673 -0.2526168 -0.030047946
0000a0 d4 71 6c be c3 05 62 be 79 3e 84 bc fe a8 f8 be
       -0.23090297 -0.2207251 -0.01614307 -0.4856643
0000b0 1d 82 49 be 9f b0 b2 bd bd de 77 bd 53 f6 6b be
       -0.1967854 -0.08725094 -0.060515154 -0.23043184
0000c0 b8 ce d3 bd 5f f1 8d be 81 58 2a be 97 8c 51 3f
       -0.10342163 -0.27723214 -0.16635324 0.8185515
0000d0 c6 3c 86 be a2 e2 bc be 59 a7 9a be 0a f0 48 be
       -0.2621824 -0.36891657 -0.302058 -0.19622818
0000e0 68 9e 4b be 47 89 56 be 03 93 8f be 8d f4 c3 3d
       -0.19884646 -0.20950805 -0.2804185 0.09568129
0000f0 8b 0f 88 bd 3f 04 8a be 00 2b 01 bb a7 0c 4f 3f
       -0.066435896 -0.26956365 -0.0019709468 0.8087868
000100 46 7a e7 bd e5 4c b5 be 59 c5 28 be 21 b1 29 bd
       -0.11302619 -0.35410228 -0.16481532 -0.04142869
000110 97 b8 bc 3d b2 c0 83 be bf 9e 65 bd 5c e6 59 be
       0.09214895 -0.25732952 -0.056059595 -0.21279281
000120 77 cb 50 bf 7f c4 dc bd 33 62 dc bd c9 f1 87 be
       -0.8156046 -0.10779666 -0.107609175 -0.26551655
000130 b9 a4 d0 bd ee 11 72 bd 19 ff 94 bd 00 3a 51 bc
       -0.10187668 -0.05909913 -0.072752185 -0.012770176
000140 45 9d ad be 6d 22 69 be f2 bc 2b be 65 62 14 3e
       -0.3390905 -0.22767039 -0.16771296 0.1449066
000150 85 45 5d bd 25 7e b0 3e 22 57 9b bd 6d e7 28 be
       -0.054021377 0.3447124 -0.07584979 -0.16494532
000160 f7 cd 4d 3e 34 92 22 be be 90 da bd e5 0c 60 be
       0.200981 -0.15876085 -0.10672139 -0.21879919
000170 c7 d9 18 be ba 7e 9c bd 9d 7b 60 be c5 46 e5 bd
       -0.14926825 -0.07641359 -0.21922155 -0.11195139
000180 aa 6c 58 bd 87 4c 3c 3c 95 3f 61 be c1 7a 18 be
       -0.052838005 0.011492855 -0.21996911 -0.14890577
000190 ca bc 47 be 79 e2 5c be 79 f0 38 bd 76 99 11 be
       -0.19505611 -0.21570767 -0.045151208 -0.14218697
0001a0 38 38 b0 bd 20 7c 26 be 0f 02 4b be 14 3a 17 3c
       -0.08604473 -0.16258287 -0.19825004 0.0092301555
0001b0 16 24 83 be 54 5e 56 be 96 3a 52 be d2 85 71 bd
       -0.2561347 -0.20934421 -0.20530161 -0.05896551
0001c0 54 3a 4e be cc b4 94 bc cb 1a 2a bf 1a 7a 36 be
       -0.20139438 -0.018152617 -0.6644713 -0.17820016
0001d0 14 2d 22 be 35 07 8a be 07 75 c4 be 19 ce 0a be
       -0.15837508 -0.26958624 -0.38370535 -0.13555183
0001e0 ab 99 37 be 52 ce 4b be 39 2d 71 be 67 8a d4 bc
       -0.17929713 -0.19902924 -0.23552407 -0.025944902
0001f0 b2 d7 30 be 2a 76 8e bd d6 d1 65 bf c2 ed 16 be
       -0.17269781 -0.06956132 -0.8977331 -0.14739135
000200 9d 96 92 bd 56 3d f1 bd 2a d6 8f be 55 d0 95 be
       -0.071576335 -0.11779277 -0.28093082 -0.29260507
000210 73 2b 90 bf 26 c4 0e bf 83 3b 9f be 2e f9 be be
       -1.126326 -0.5576805 -0.3110009 -0.37299484
000220 56 59 37 be 45 fd 0a be cd d5 6b be f8 18 c4 be
       -0.17905173 -0.13573177 -0.23030777 -0.383003
000230 09 f2 e6 3e 0e d9 8b be 3b 93 91 be f1 b7 9d be
       0.45106533 -0.27314037 -0.2843264 -0.308044
000240 ed a5 f7 bc 34 56 ee be 46 66 8a be c3 be d5 bd
       -0.030230487 -0.46550143 -0.27031153 -0.104367755
000250 8a e4 8d be 78 4c d8 be 7c cb 95 bd cd 9e 88 be
       -0.27713424 -0.4224584 -0.07314202 -0.26683655
000260 a8 f8 9a be ec 3e 8b be a1 90 88 be 64 5f bc bd
       -0.30267835 -0.27196443 -0.26672843 -0.09197882
000270 48 fb 93 be 12 c8 74 be d9 39 44 be 3a 52 e0 bd
       -0.2890265 -0.23904446 -0.19162692 -0.109531835
000280 35 4d aa be 93 00 96 be fa bd 50 bf 13 d7 17 be
       -0.3326203 -0.29297313 -0.8153988 -0.14828138
000290 e8 2b 70 be dc 32 aa be 6a 58 91 be 92 fb 81 be
       -0.23454249 -0.33241928 -0.28387767 -0.25387245
0002a0 6d d7 7b be 2b 75 95 bf e1 80 32 be f1 97 8a bf
       -0.24593897 -1.1676382 -0.17431976 -1.0827619
0002b0 14 fd 7e be fe c2 67 be 4d 15 4d be 39 a6 8c be
       -0.24901229 -0.22632977 -0.20027657 -0.27470568
0002c0 60 c8 ba be be 86 74 be 7b ea 80 be 4f f9 27 bf
       -0.36481 -0.23879525 -0.25178894 -0.6561479
0002d0 05 41 90 be 18 54 35 bf 80 61 b6 be 2c 62 5b be
       -0.28174606 -0.7083144 -0.35621262 -0.21424168
0002e0 27 cb 86 3b a4 d7 5d be a6 ad 99 be e1 44 13 be
       0.004113573 -0.21664292 -0.30015296 -0.14381744
0002f0 f5 84 82 be 31 1d b0 be 1c 1e 98 bd b2 d0 8d 3d
       -0.25492063 -0.3439727 -0.07427618 0.06924571
000300 40 4b 7a be 0f d2 3f 3e 0e e9 4d be 75 e0 f7 bd
       -0.24442768 0.18732475 -0.20108435 -0.12103359
000310 da b0 87 bf 66 c6 9e be 7c aa 84 be c0 4d 2f be
       -1.0600846 -0.3101074 -0.2591132 -0.17119503
000320 81 db db be b3 a1 f7 be 2a 88 e3 be 6b 06 9d be
       -0.42940906 -0.48365554 -0.44439822 -0.3066896
000330 81 a0 00 bf 05 15 86 be 69 8e 44 be 25 cb 85 be
       -0.5024491 -0.26187912 -0.1919495 -0.2613155
000340 23 98 b8 be 96 db 8d be 73 68 96 be 7d 76 92 bd
       -0.3605357 -0.27706593 -0.29376563 -0.07151506
000350 f6 3b 7a be 91 f6 7b be 8e 57 73 be d1 15 a5 be
       -0.24436936 -0.24605776 -0.23763868 -0.32243207
000360 29 c5 a7 bf 72 6c 94 be 7f c7 8a be d7 81 ae be
       -1.3107044 -0.28988987 -0.27105328 -0.34083435
000370 e9 9e 81 be 4e e9 22 be 0e 27 87 be 91 33 8b be
       -0.2531655 -0.15909311 -0.26396984 -0.2718778
000380 cb 4a 4e be 43 10 36 bd 40 9c 8a be b4 d1 32 bd
       -0.20145719 -0.044449102 -0.27072334 -0.04365702
000390 05 4e a3 be 20 e9 44 be cc 19 6f be 38 c5 cb be
       -0.31895462 -0.19229555 -0.23349684 -0.39798903
0003a0 05 d8 84 be 6c cf 2d be 13 af 2c be 6e 64 e8 bc
       -0.2594606 -0.16973656 -0.1686366 -0.028368201
0003b0 8d 4a e5 bc f0 19 84 be f9 e2 45 be c4 f9 0f be
       -0.02798965 -0.2580104 -0.19324864 -0.14060122
0003c0 ff c9 6d be 02 25 f8 bd 52 ed 8a bf 73 bf 5f be
       -0.23221587 -0.12116434 -1.0853674 -0.21850376
0003d0 b4 c7 80 be 5f a3 77 be b3 14 cc be 64 22 3a be
       -0.2515236 -0.24183415 -0.39859542 -0.18177181
0003e0 d2 4a 69 be d7 6a c2 be eb a7 89 be d4 fe 95 be
       -0.22782448 -0.37972137 -0.26885924 -0.2929598
0003f0 de 19 c3 be d4 e7 9f be 30 63 f8 be 0e 0c 48 be
       -0.38105673 -0.31231558 -0.48513174 -0.19535848

action_model._discrete_distribution.branches.0.bias f4 [2]
000000 98 93 c3 be ae 0e c4 3e
       -0.38198543 0.3829245

action_model._discrete_distribution.branches.0.weight f4 [2, 128]
000000 c1 f6 c9 bc 84 27 80 be a7 7d 89 bd 1c 48 15 3f
       -0.024653794 -0.25030148 -0.067134194 0.58313155
000010 0a ee ae bd 01 3b 7b be 31 1b d6 3e 36 51 59 be
       -0.08541496 -0.24534227 0.4181762 -0.21222386
000020 2e f8 5b 3d ca bc 0d be b7 68 70 3e 3e 90 16 c0
       0.05370348 -0.13841549 0.23477446 -2.3525538
000030 58 df 8d 3e 06 45 af be c5 f1 09 3f b7 0b 82 be
       0.2770946 -0.34232348 0.53884536 -0.25399563
000040 d9 6a bd bf 68 e5 30 be 85 6e d7 3e 55 9d c4 3e
       -1.4798232 -0.17275012 0.42076507 0.38401285
000050 6d ea c3 3e bb 30 62 3f 3b 80 75 3f db 7b 5f 3f
       0.3826479 0.88355607 0.9589879 0.87298363
000060 ca e8 08 3f cc bb 0c 3f 75 e9 d1 bd 1d 36 50 bd
       0.5348021 0.54974055 -0.102496065 -0.050832856
000070 d0 74 25 3f ac 4d 87 bf 26 75 b6 3e 52 3b 18 3f
       0.64631367 -1.0570579 0.35636252 0.59465516
000080 c5 80 e9 3e 6b d2 78 3d 4a c2 3e 3e 3b 93 86 be
       0.45606056 0.060747545 0.18628803 -0.26284203
000090 8f 63 4d bd 4b 2a b3 be d1 04 2d 3d 75 31 28 3b
       -0.050143775 -0.34993204 0.04224092 0.0025664244
0000a0 85 6a 48 3e 62 e7 61 be 0b e0 c0 3e c1 d7 f4 bd
       0.19571884 -0.22060922 0.3767093 -0.11955214
0000b0 f9 59 0b 3f 8e 91 e3 bd f7 bd 2a be f4 f6 5a 3f
       0.5443416 -0.11111747 -0.16674028 0.8553307
0000c0 0f 0b d4 3b f2 cd 23 3d 19 8a a3 3e 93 b7 0a 3f
       0.006471045 0.039991327 0.31941298 0.5418636
0000d0 62 34 d7 3e 9f 5e bd be 96 70 fc 3e 33 9e a8 3e
       0.42032152 -0.36986253 0.49304646 0.32933196
0000e0 41 d7 ea 3d d2 64 32 3e 5a 8b 5b 3f 3c 95 be 3e
       0.11466838 0.17421272 0.8575951 0.37223232
0000f0 de 2c 45 3e 6e 9b 48 3f a6 1b 00 3e c1 2b 96 3e
       0.19255397 0.78362167 0.12510547 0.29330257
000100 d5 d2 9b 3e e6 44 dc be 6a a6 c7 3e ff f5 37 bf
       0.3043429 -0.43021315 0.3899415 -0.71859735
000110 1d 75 9b be f3 61 62 be 0e 6b 16 be 25 22 21 3f
       -0.30362788 -0.22107677 -0.14689276 0.62942725
000120 81 6f 27 3f 68 30 23 be d3 86 53 be 60 47 3a 40
       0.65404516 -0.15936434 -0.206569 2.9106064
000130 0e d4 c8 3e 75 14 16 3e 70 9e 8c bd 32 e0 69 bd
       0.39224285 0.14656241 -0.06866157 -0.057098575
000140 4c c9 1c 3f 79 1e 30 3f 1f ed e3 3d 0c b2 21 3e
       0.61244655 0.687965 0.11129212 0.15790576
000150 a7 44 c8 3d 08 86 f2 ba 0d 24 12 bc c8 1b 99 3d
       0.097787194 -0.0018503079 -0.008919728 0.07476002
000160 d2 e4 86 be b0 8b d3 3c 8a f5 79 3e 5e 64 29 3f
       -0.2634645 0.025823444 0.24410072 0.66168773
000170 3b ff f4 bf 2e 41 8f be b3 ea fc 3e 08 ba b9 bd
       -1.914039 -0.27979416 0.4939781 -0.09068686
000180 b5 c4 96 3d 8c 14 3b bd 9d 35 23 3d 17 23 33 3e
       0.07361738 -0.045673892 0.03984605 0.17493854
000190 a4 60 0a bd 55 2c d9 3e 5e bd 51 3d 4b 43 91 3f
       -0.03378357 0.42416635 0.051205985 1.1348661
0001a0 75 19 51 be 50 02 c6 3e 28 5d 9d be b3 ed 9f 3e
       -0.20419867 0.3867364 -0.30735135 0.31236038
0001b0 f8 68 51 3f a5 e5 a6 3e 31 9c 2e 3f 53 69 15 be
       0.81800795 0.3259708 0.6820708 -0.14590959
0001c0 e3 b9 c2 3c a6 91 ff 3c 6f e7 86 3c 5a c0 dd 3e
       0.023770278 0.03119738 0.016467778 0.43310815
0001d0 fa 02 8b 3f 11 6d b0 bf 44 87 0b 3f 27 f7 5a 3f
       1.0860283 -1.3783284 0.54503274 0.85533375
0001e0 15 68 22 3e 7e 07 b8 bf 5e 0e 33 3f 82 7e 82 3d
       0.15860017 -1.4377286 0.699438 0.06371786
0001f0 a1 18 40 3f 87 b5 35 3d 6f 16 a2 be 70 34 1c 3e
       0.7503758 0.04436257 -0.3165774 0.15254378
000200 f3 35 14 3d 2b 95 7c 3e b8 cf 77 3d 24 65 16 bf
       0.036184262 0.24666278 0.06050083 -0.5874808
000210 44 17 ac 3d c1 8c 7e 3e 6f a7 d6 be 02 4c 41 3e
       0.08402875 0.24858381 -0.41924617 0.18876651
000220 fa 7c 8a bd 3f f0 d5 3d 1d 13 68 be c3 fe 15 40
       -0.06762119 0.10446214 -0.22663541 2.3436744
000230 7b 1b 86 be e3 87 b0 3e ab 39 12 bf 7b 31 88 3e
       -0.2619284 0.34478673 -0.57119244 0.2660025
000240 dd 1b be 3f b9 2c 22 3e 3b b2 d3 be 51 5d c3 be
       1.4852253 0.15837373 -0.41346917 -0.38157132
000250 e7 ff c7 be ef 58 5d bf 15 cb 76 bf db 38 61 bf
       -0.39062425 -0.86463827 -0.9640363 -0.8797738
000260 ae e2 07 bf e9 c6 09 bf 1d b5 ae 3d d9 5a 47 3d
       -0.5308026 -0.5381914 0.08530638 0.048670623
000270 fb e8 28 bf 27 25 88 3f f5 3b c0 be 36 4e 19 bf
       -0.659805 1.0636338 -0.37545744 -0.59884965
000280 34 62 ef be bd 2c 85 bd bd 2b 3c be 36 bc 89 3e
       -0.4675461 -0.06502674 -0.1837606 0.26901406
000290 c1 26 4d 3d 14 60 bc 3e 20 3e 11 bd d6 ee 67 bb
       0.050085787 0.36792052 -0.035459638 -0.003539016
0002a0 b7 45 49 be 12 1c 66 3e 20 26 d1 be f3 e3 fa 3d
       -0.196555 0.22471645 -0.408494 0.12250509
0002b0 11 79 09 bf 32 d5 fc 3d 5f 5d 3a 3e e5 fd 59 bf
       -0.5370036 0.12345351 0.18199681 -0.8515304
0002c0 13 1e e8 bb cb d9 4b bd c5 4d a1 be e8 e0 0b bf
       -0.0070836633 -0.04976825 -0.31504646 -0.54640055
0002d0 23 ef e3 be 33 ec bb 3e 64 84 00 bf d7 b8 ad be
       -0.44518384 0.36703643 -0.5020201 -0.33930084
0002e0 93 04 d7 bd 9a f8 30 be 90 ef 58 bf e0 5d bd be
       -0.10498919 -0.17282334 -0.84740543 -0.36985683
0002f0 1e 44 41 be 2c 85 45 bf 3d 91 00 be 83 b4 94 be
       -0.18873641 -0.7715633 -0.12555404 -0.2904397
000300 a5 95 98 be cf 75 d9 3e 54 ee c4 be 4a 7b 32 3f
       -0.2980167 0.42472693 -0.3846308 0.69719374
000310 13 49 96 3e 75 a2 59 3e 83 ff 0d 3e eb 21 22 bf
       0.29352626 0.21253379 0.13867001 -0.63333005
000320 4b 0a 2c bf f7 79 2d 3e 55 81 58 3e 3f 19 3a c0
       -0.67203206 0.16941057 0.21143086 -2.907791
000330 d8 ff ce be 4b 97 23 be 6c e3 a8 3d 96 aa 61 3d
       -0.40429568 -0.15975682 0.08246502 0.055094324
000340 77 70 1e bf 7a 47 2f bf fc c9 da bd cd d0 1d be
       -0.6189036 -0.6846844 -0.10683057 -0.15411682
000350 cf b2 e7 bd 1b e8 66 bc 5b 6b 93 3c 3f 0f b6 bd
       -0.11313402 -0.014093424 0.017995527 -0.08889627
000360 46 af 81 3e ae f6 5d bc 8d 2c 7e be fe 59 27 bf
       0.25329036 -0.013547583 -0.24821682 -0.6537169
000370 ae e8 f2 3f a7 a3 82 3e e5 bd 05 bf 34 0f ac 3d
       1.8977258 0.25515482 -0.5224288 0.08401337
000380 b7 5c 52 bd 8a 11 b2 3c c6 b5 44 bd e4 e5 29 be
       -0.05135795 0.021736879 -0.048024915 -0.16591603
000390 3d 2d ad 3c 44 79 e4 be ec 04 8f bd f6 b8 91 bf
       0.021139735 -0.44623768 -0.06983361 -1.1384571
0003a0 2c 2f 54 3e 83 87 be be e8 6e a0 3e a5 5b 9c be
       0.2072112 -0.37212762 0.31334615 -0.3053867
0003b0 94 83 56 bf 0d 80 a7 be 4d d1 2e bf 7c 29 f2 3d
       -0.8379452 -0.32714882 -0.6828812 0.11824319
0003c0 f7 ea 37 bd 25 d8 da bc 1b 5b f0 ba 58 f3 da be
       -0.044901814 -0.026714394 -0.0018337698 -0.42763782
0003d0 5f 8e 8a bf 6d 28 b4 3f 84 e7 0a bf ec 31 5e bf
       -1.0824698 1.4074837 -0.54259515 -0.86794925
0003e0 23 10 21 be 71 96 b8 3f 77 66 35 bf 1f fa 69 bd
       -0.15728812 1.4420911 -0.70859474 -0.0571233
0003f0 84 3e 43 bf 5b 98 60 bd 10 9c b1 3e f8 9a 19 be
       -0.76267266 -0.054832797 0.3468938 -0.15000522

network_body._body_endoder.seq_layers.0.bias f4 [128]
000000 7c 3c 0f bf 2a c4 69 be f5 ff b9 be a0 66 d4 be
       -0.55951667 -0.22828737 -0.36328092 -0.41484547
000010 bf 39 03 bf 6b cc 91 be 84 96 3c 3e b5 be 5e 3e
       -0.5125999 -0.2847627 0.18416792 0.21752436
000020 4b b8 2b 3d 09 ab d2 be c8 46 10 be e8 79 0a bf
       0.041923802 -0.41146114 -0.14089501 -0.54092264
000030 5f da 37 be a7 60 9f be 46 b4 94 3d e4 32 53 be
       -0.17954396 -0.31128427 0.07260947 -0.20624882
000040 f5 44 f5 3d c9 fb 2d be 16 00 ea 3d 7b 41 8c bd
       0.11976043 -0.1699058 0.11425798 -0.06848427
000050 ce 69 d4 be 6d 1b 7b bd ff 20 9a be ed 2b e0 be
       -0.41486973 -0.061305452 -0.301033 -0.43783513
000060 ad 83 86 3e 53 9d 28 be a7 58 39 bd b0 65 81 bd
       0.26272336 -0.16466264 -0.04525056 -0.063182235
000070 ce b1 d9 3e c6 23 65 3c c6 56 d6 3e 4c e8 ba 3e
       0.42518467 0.01398558 0.41863078 0.36505353
000080 9b 5c 9a 3e ce 2c ec 3a a7 fc c2 bb ee ec 40 be
       0.30148777 0.0018018724 -0.0059505287 -0.18840382
000090 54 ea 09 3e 72 ed 3e 3e 3a f5 57 3e 90 36 aa be
       0.13468295 0.18645266 0.2108964 -0.33244753
0000a0 13 13 89 3d 35 64 91 be 0d 7e 01 bb 50 db de bc
       0.06693091 -0.28396764 -0.001975897 -0.027204186
0000b0 c3 e4 61 3e f5 1e dc 3e e3 be 8d be 54 c0 9d be
       0.22059922 0.42992368 -0.27684698 -0.30810797
0000c0 13 ce 1d 3e fc b3 ea bd f5 7f f5 3d 43 df 12 3e
       0.15410642 -0.114601105 0.119872965 0.1434298
0000d0 00 42 ed 3c 60 35 2f 3e 0d df ed be 8b 93 2e be
       0.028962135 0.17110205 -0.46459237 -0.1704847
0000e0 43 fb c1 3d 78 95 3c bf ed fe 5a 3d d1 3e 84 3d
       0.094717525 -0.7366557 0.053465772 0.06457294
0000f0 17 4d 8f 3b cd 01 c6 3d 49 75 d0 3d 18 1c c3 3e
       0.0043732035 0.09668312 0.1017862 0.3810737
000100 f3 96 b2 be 57 2a 69 3e 64 95 d5 be bf 93 89 3e
       -0.3488079 0.22770058 -0.41715539 0.26870534
000110 d9 01 6b be 99 b0 d1 bc d6 23 00 3d 70 99 ce 3e
       -0.22949924 -0.025596904 0.031284176 0.4035144
000120 00 59 87 bd f5 d4 96 bd 3a 7a 54 be 91 0d 5e 3e
       -0.06608772 -0.07364837 -0.2074975 0.21684863
000130 62 aa b0 3d f2 5a 92 be 17 55 82 be a7 6b 1b 3e
       0.08626248 -0.2858501 -0.25455543 0.15177785
000140 0f 24 bb 3d 32 ba b7 be 8b 73 a7 be 28 47 8f 3e
       0.09137737 -0.35884243 -0.3270534 0.27983975
000150 0e d3 80 3e 66 84 94 3e f9 02 40 3c 8f 60 09 be
       0.25161022 0.29007262 0.011719459 -0.1341574
000160 ff 7e 87 3c 98 3d 1b be d4 94 55 3e a3 6d 4b 3e
       0.016540049 -0.15160215 0.20857555 0.19866042
000170 69 dc 7d 3e 4e 57 8e be a2 8e 8a 3e 59 d4 91 be
       0.24791111 -0.27800983 0.27061945 -0.2848232
000180 4f 72 24 bf 79 de 41 be 2d 73 80 3e f3 5f fd be
       -0.6423692 -0.18932523 0.25087872 -0.49487266
000190 0b 4d 99 3e b7 05 2c bf 31 a7 42 3e ce 86 b9 3d
       0.29941592 -0.6719622 0.19009091 0.09058915
0001a0 94 07 5f bf b8 7d b2 be 49 25 ba 3e fc 9e a7 3e
       -0.8712094 -0.3486154 0.3635657 0.32738483
0001b0 8e 82 29 be 52 be 82 3e ad 9a 75 3e 39 58 08 bf
       -0.16553709 0.25535828 0.23984785 -0.5325962
0001c0 1d 4c 74 3e ae ee a7 3e 84 bf cd 3d b7 5c 8b 3d
       0.2385716 0.32799286 0.10046294 0.06804793
0001d0 77 f4 84 be 01 c5 0d 3e 6e 79 00 3e 79 03 16 3e
       -0.25967762 0.13844682 0.12546322 0.14649762
0001e0 75 0c f2 3d 24 f2 fd 3d 1b 37 2f be f9 c2 b1 be
       0.11818782 0.123997 -0.17110865 -0.34719065
0001f0 7f 5b 7d be 06 5b aa be 83 c4 02 3e ba 64 13 be
       -0.24741934 -0.3327257 0.12770276 -0.14393893

network_body._body_endoder.seq_layers.0.weight f4 [128, 26]
000000 6f 9a 7a bf 6f 73 5c be 33 c0 b2 3e a3 91 cb bd
       -0.97891897 -0.2152841 0.3491226 -0.099398874
000010 61 2d de be 86 4f 16 3f 09 88 50 3e 6d 10 84 bd
       -0.43393996 0.58715093 0.20364393 -0.064484455
000020 28 91 16 3d 17 74 89 3e e0 ef 09 bf 07 5b 0c be
       0.036759526 0.26846382 -0.53881645 -0.13706599
000030 5c 0e 94 be 96 e6 7a bf 14 eb a9 bd 9b c8 9a 3e
       -0.28917205 -0.98008096 -0.08296791 0.30231175
000040 8f 72 ab be b4 57 5d bf 16 93 2f 3f 7f 29 2f 3e
       -0.3348584 -0.8646195 0.6858381 0.17105673
000050 0a 8a dc be 7f e9 93 3d 0e c9 07 bd de ad d2 be
       -0.43074065 0.0722227 -0.033150725 -0.41148275
000060 f3 fd 25 3e 7b a8 65 3e 72 a5 81 be 9f 96 ac 3e
       0.16210155 0.22427551 -0.25321537 0.33708665
000070 6d f0 27 3f ad 82 ba be fc e0 22 bf e6 3f b3 3c
       0.65601236 -0.36427823 -0.6362455 0.021881055
000080 2e 97 3b 3e 93 a0 99 3e 27 82 d1 be ff f1 09 3f
       0.18319389 0.3000532 -0.4091961 0.5388488
000090 cd db 43 bf 0d 65 97 3e b0 9e a2 bd 23 06 72 be
       -0.76507264 0.29569283 -0.079404235 -0.23635153
0000a0 7c b4 69 3e 83 f6 4a 3f 87 61 72 be fe 8c 89 be
       0.22822756 0.792824 -0.23670016 -0.2686538
0000b0 74 39 09 3e 42 90 3c be 7b ee 23 3f 46 fc 16 bf
       0.13400823 -0.18414405 0.6403577 -0.5897869
0000c0 a7 e5 38 3f 82 30 2a bf 3a cb 98 3d 27 cb fe bd
       0.7222542 -0.6648027 0.074606374 -0.12441092
0000d0 15 99 6d be 23 4f 42 bd b6 e8 3e 3d c3 d2 bd be
       -0.23202927 -0.047438752 0.04660865 -0.3707486
0000e0 48 86 73 be d5 73 dd 3d d7 ee 35 be 8c de a1 bf
       -0.23781693 0.10813109 -0.17766891 -1.2646041
0000f0 85 31 ad 3f 77 ae 35 bf e1 7e c4 3e 56 a3 3b 3e
       1.3530737 -0.7096934 0.3837805 0.18324026
000100 e4 e9 bb bd e9 b1 09 be 8e 65 ee bd f5 4c d7 be
       -0.091754705 -0.13446774 -0.11640464 -0.420509
000110 68 4a f1 be 8a 9b a7 be 94 cf 45 3e b6 a7 ad 3c
       -0.4712708 -0.32735854 0.19317466 0.021198135
000120 06 74 af bf e7 d0 a8 3f 7b dd a1 be fd 40 95 3e
       -1.3707283 1.3188752 -0.3161429 0.29151145
000130 be c3 60 3e 5f 7b 3b 3e 92 7c e1 be db f2 27 be
       0.2194967 0.18308781 -0.44040352 -0.16401236
000140 71 3b 8c 3d b0 18 86 be f2 c8 0d bf 52 3b f6 3e
       0.06847275 -0.2619071 -0.55384743 0.48092133
000150 53 2c 61 3e 79 ba b3 3d b7 66 10 3e d2 91 9a bd
       0.21989565 0.08775801 0.14101683 -0.07547344
000160 cb c0 b3 3e 09 b5 f8 3e 17 a3 bb bd 25 78 ae be
       0.35108027 0.4857562 -0.09161966 -0.34076038
000170 05 45 ad 3b d7 37 9a 3e 9a ce a5 be b9 86 9d be
       0.005287769 0.30120727 -0.32384187 -0.30766848
000180 07 54 2f 3f b4 da 7f bd 58 e4 20 be 1b e1 d0 3d
       0.6848759 -0.06246443 -0.15712106 0.101991855
000190 d0 b6 31 3e 70 ca fc 3e 6f 8f 1b 3d d0 b7 8a be
       0.17354894 0.49373198 0.037978586 -0.27093363
0001a0 3c 9a 93 be 02 be f7 bc e3 f5 85 bb f3 7e 17 bf
       -0.2882861 -0.03024197 -0.00408815 -0.59178084
0001b0 4a 52 25 be 69 ec 36 3f d0 75 24 3e 95 64 09 3e
       -0.16144672 0.71454483 0.16060567 0.13417275
0001c0 b1 8e 1b be 36 43 09 be c8 6e ba bd 51 0c 99 3e
       -0.15191151 -0.13404545 -0.09103161 0.2989221
0001d0 5b 3c 1f 3e c7 e1 3f bd 3d d9 95 bb df 24 9e 3e
       0.15550368 -0.046846177 -0.004573016 0.30887505
0001e0 d6 98 f5 be bd 60 c1 be e5 3e 49 3f db a1 39 3e
       -0.47968167 -0.37769118 0.78611594 0.18128149
0001f0 e9 de 0d 3e 5c 47 a4 be e6 e5 ba bd e9 9d d8 3d
       0.13854565 -0.32085693 -0.09125881 0.10576994
000200 8d ea 1f 3e f8 b7 8a 3e 02 78 cf be f0 eb b9 be
       0.15616818 0.27093482 -0.40521246 -0.3631282
000210 06 7c 10 3f 42 1d 27 bf 1a 32 0f bf 9c db a5 3e
       0.56439245 -0.6527902 -0.55935824 0.3239411
000220 d8 e9 96 bd cb ff 8d 3e aa 4e 28 bb 8b e9 91 bc
       -0.07368821 0.27734217 -0.0025681653 -0.017811557
000230 5d 13 8f 3e a6 65 47 be 06 4b e1 3e b0 32 8d be
       0.2794446 -0.1947237 0.4400255 -0.27577734
000240 06 ce be 3d b2 4c 1e 3f 06 fd 92 be f5 6f 8c 3c
       0.093166396 0.6183578 -0.28708667 0.017143229
000250 2c 38 d7 3d 0c 03 ef bd f1 88 92 3b 60 75 a4 bc
       0.10508761 -0.11670503 0.004471891 -0.0200755
000260 27 37 f6 bd 60 a2 84 be 72 de 00 be 29 85 22 be
       -0.12022238 -0.25905132 -0.12584856 -0.15871109
000270 51 8b 80 3f 64 2c a6 3e d2 b4 a4 be a1 8f e5 be
       1.0042516 0.32455742 -0.32169205 -0.44836143
000280 7e db f6 bd 80 e7 00 be b9 19 77 be b8 d7 33 3f
       -0.120535836 -0.1258831 -0.24130906 0.70251036
000290 ed 49 04 bf 80 34 53 3d 50 ed 8f 3d 26 73 a5 3d
       -0.516753 0.05156374 0.07027686 0.080786034
0002a0 73 92 3c be 24 4f 81 3e 43 3c 85 be 2f f1 9b be
       -0.18415241 0.25255692 -0.2602254 -0.30457446
0002b0 a6 ef 22 3e d6 e8 c2 3b ae a6 cf be b7 6d 11 be
       0.15911731 0.0059481664 -0.40556854 -0.14202009
0002c0 1a 6f dd 3e c4 47 62 bf 95 e3 ec bd 93 14 09 3f
       0.43248826 -0.88390756 -0.11566845 0.5354702
0002d0 97 15 a9 be cc 54 bf be c0 d9 8f 3e f2 97 9b 3e
       -0.33024284 -0.37369382 0.28095818 0.30389363
0002e0 63 3b 3d 3f a2 ed d0 3d f6 a5 d8 3e f9 9e 02 bf
       0.7391874 0.10201575 0.42314118 -0.51023823
0002f0 37 62 f7 3e a3 7d 04 3f 4b ec 21 bf b9 ab 50 3a
       0.4831712 0.51754206 -0.6325118 0.0007960159
000300 3f 3a 82 3e 77 36 5c 3e 26 0d 16 bf 9f 58 d1 3e
       0.25435063 0.21505152 -0.5861381 0.40887925
000310 ee 80 22 3f 64 05 89 3e 16 a1 ce 3e 84 62 92 3d
       0.6347798 0.26761925 0.40357274 0.071476966
000320 65 cd 9f be 30 d9 53 3e f0 f1 09 3f fc 05 e1 be
       -0.3121139 0.20688319 0.5388479 -0.43949878
000330 57 cf 85 bc 2f 9b 25 3e f2 3c c1 bd 8d a0 81 bf
       -0.016334219 0.16172479 -0.094354525 -1.0127121
000340 e7 3d 38 3f a2 16 df 3e c7 42 c5 be c0 d3 b0 3e
       0.71969455 0.43571955 -0.3852751 0.34536552
000350 4a 08 21 3e 4a 58 5d be ba 2a db bd 88 4f cf 3d
       0.15725818 -0.21615711 -0.10701509 0.10122591
000360 4c 9c 33 be 10 24 fb 3e 9d 3f fa be bb 0f 36 bf
       -0.17540091 0.4905095 -0.48876658 -0.7111775
000370 00 e1 b0 be 73 66 0b 3f 94 45 90 be 0e ab 3b be
       -0.3454666 0.544532 -0.28178084 -0.18326971
000380 57 7c 87 3e 6a 93 20 be 50 4b 58 bd 31 8d 38 3e
       0.2646205 -0.15681234 -0.0528062 0.1802261
000390 1d 64 0b 3f f6 37 c5 be 48 b2 e4 bd dd 21 37 be
       0.54449636 -0.38519257 -0.11166817 -0.17884012
0003a0 e0 4f e2 be 99 b9 58 be 9d 03 53 be d0 36 a3 bf
       -0.44201565 -0.2116455 -0.20606847 -1.2751102
0003b0 9d cf 10 3e df 03 a4 be 57 9e fd be 1b 1b 3f 3f
       0.14141698 -0.32034203 -0.49534866 0.74650735
0003c0 41 f3 38 3e 11 d3 a3 3e 3e 05 82 be 05 70 5d bf
       0.18061544 0.31996968 -0.25394624 -0.86499053
0003d0 9c 69 8e bf 2e 89 b3 3d f0 25 21 3e 70 61 bf be
       -1.112598 0.08766399 0.15737128 -0.37379026
0003e0 2c 42 9b bf eb 5a cb 3e 26 ea 24 bf 26 cd 4b bf
       -1.2129569 0.39717802 -0.6441978 -0.79609907
0003f0 88 80 48 3f 62 63 69 3e e4 4a 32 be 5e 62 3c be
       0.78321123 0.22791818 -0.17411381 -0.18396899

network_body._body_endoder.seq_layers.2.bias f4 [128]
000000 d3 c3 ec be 50 79 af bd ed 5b b1 be 8d 25 dc 3d
       -0.46243152 -0.085680604 -0.34640446 0.1074935
000010 ea 54 59 3e 18 db 45 3e f8 e5 c8 bc 96 1c 03 bf
       0.21223798 0.19321859 -0.02452372 -0.51215494
000020 e7 35 14 bf 8e 4e 05 bf 9d b9 08 bf 2f b6 62 bb
       -0.5789475 -0.5207299 -0.53408223 -0.0034593453
000030 3f df dc 3d 33 f3 23 bf a2 e1 1b be 5c 97 b9 bd
       0.10784768 -0.6404297 -0.15222791 -0.09062073
000040 7d 9a 87 be 38 b3 b8 be 2c 91 19 be 0c 45 bb be
       -0.26485053 -0.36074233 -0.14996785 -0.36576116
000050 a7 17 99 be 82 60 aa 3d fd 04 40 3d 7b 12 53 be
       -0.29900858 0.08319189 0.046879757 -0.20612518
000060 47 37 e5 bd 3b 28 b0 bd db d0 4d be 96 ef b6 be
       -0.11192184 -0.08601423 -0.20099203 -0.35729665
000070 cb a1 92 3d a7 b1 4a be 32 eb 58 be 75 1e 44 bf
       0.07159766 -0.19794331 -0.2118347 -0.76608974
000080 2b f8 bc bd b6 71 7d be 8b 3c 65 bd 1d b4 3e be
       -0.09227022 -0.24750409 -0.05596594 -0.18623395
000090 ed 00 02 bf 40 d9 26 be e3 05 8d be 71 04 05 bf
       -0.5078266 -0.16293812 -0.27543554 -0.519599
0000a0 c6 41 81 bd b6 ad aa 3d 75 43 9a be 8f cb 85 3e
       -0.063113734 0.08333914 -0.3012959 0.26131865
0000b0 f5 53 8e 3e 62 72 19 bf b4 c3 b4 be 83 60 9d bb
       0.2779843 -0.5994016 -0.3530556 -0.004802765
0000c0 fc 71 fb be 32 7d de bd 8d dd d6 be 6a 6a 1c be
       -0.491104 -0.10863723 -0.41965905 -0.15274969
0000d0 ff 69 7b bd 71 67 d5 3d d6 b2 5d bd 4a 76 f2 be
       -0.061380383 0.104201205 -0.05412563 -0.47355872
0000e0 5f 98 e4 be d9 7b ac be 34 ed 35 be 91 1c 81 be
       -0.446475 -0.33688238 -0.17766267 -0.25217107
0000f0 c1 ae cb be fe 14 cc 3c 39 d1 04 bf 6b 9f 8c be
       -0.39781764 0.024912354 -0.5188175 -0.27465376
000100 73 57 85 bd 61 b0 9a be a9 7d 82 be ef f1 99 bd
       -0.0651082 -0.3021269 -0.25486496 -0.07516848
000110 16 a3 23 be 3b c1 22 3e 19 ce 1e bf e0 8b 42 be
       -0.15980181 0.15894024 -0.6203323 -0.1899867
000120 06 1b ee bd 47 0f e3 be 8c 2d be be 4e d1 91 bd
       -0.11626248 -0.44347593 -0.37144125 -0.0712
000130 64 39 1d bf a3 d9 9d be ce fc f1 be 56 32 ba be
       -0.61415696 -0.30830106 -0.47263187 -0.36366528
000140 8e 16 44 3d ca f0 46 be 2e 1d e9 3d 46 ca 2d bf
       0.047873072 -0.19427791 0.11382519 -0.6788677
000150 7f 09 bb be bc b6 87 be 94 61 18 bf 47 b9 d5 be
       -0.36530682 -0.26506603 -0.5952389 -0.41742918
000160 32 99 c7 bd f0 a7 47 3e b5 15 c0 be 70 d4 40 3c
       -0.097460166 0.19497657 -0.3751656 0.011769399
000170 21 fc a7 be f7 fe 02 bf b6 38 84 be 3a e1 c9 be
       -0.32809547 -0.51170295 -0.25824517 -0.39429647
000180 a8 3a 14 bf 70 79 47 bf 23 46 8a be e7 1c 93 be
       -0.57902 -0.77919674 -0.27006635 -0.28732988
000190 bd 86 c5 be 69 3c e5 3d 18 a8 bf be 71 13 1d 3e
       -0.3857936 0.11193163 -0.37432933 0.15339448
0001a0 87 49 07 bf 6c 1e 0f bf 74 88 f2 be 61 90 6f bf
       -0.5284657 -0.55905795 -0.4736973 -0.9357968
0001b0 07 09 4e 3d 8e 2d ab be 75 39 1a bf 09 ff bf be
       0.050301578 -0.33433193 -0.6024392 -0.37499264
0001c0 fc 9f d1 be 03 bd 16 bf fa 52 75 3e b6 26 bd be
       -0.4094237 -0.5888216 0.23957434 -0.36943597
0001d0 7d c2 24 be 9f 19 4d 3e 3f 08 85 3c e1 d8 1a ba
       -0.16089816 0.20029305 0.016239284 -0.0005906951
0001e0 64 35 a4 be f8 4d 52 be 06 fc 10 be ac 05 d3 be
       -0.32071984 -0.20537555 -0.1415864 -0.41215265
0001f0 d0 a6 d9 3c 44 d0 a1 be dc a5 a9 3e 83 7d e5 be
       0.0265688 -0.31604207 0.33134353 -0.4482232

network_body._body_endoder.seq_layers.2.weight f4 [128, 128]
000000 2d 39 6b bb df 02 76 be a4 ca cf be f9 72 2a bf
       -0.0035892234 -0.24024533 -0.4058429 -0.66581684
000010 fc eb 56 bf 81 42 f2 bd fb e6 05 3e d2 44 0a bf
       -0.83953834 -0.11829091 0.13076393 -0.5401126
000020 6b 80 6e 3e fe 9e e7 bc 53 ae 66 3d c6 ee 09 bf
       0.23291175 -0.028274056 0.056318592 -0.53879964
000030 56 f2 c3 be 0c 8f 1e bf c1 9a b0 bd c2 66 29 bf
       -0.38270825 -0.6193702 -0.08623267 -0.6617242
000040 54 bf a9 3e 5d 4b fe be 80 e3 22 3f e9 f4 eb be
       0.33153784 -0.49666873 0.6362839 -0.4608529
000050 93 c0 08 bf e4 77 9b be fa 70 17 bf 68 3e 65 be
       -0.53418845 -0.30364907 -0.59156764 -0.22387087
000060 65 b6 0f be ae af ad be 03 1e 3d be e2 57 58 be
       -0.14034422 -0.33923095 -0.1846848 -0.21127275
000070 23 e2 d6 3e 4b 9e ea bd aa 1a 41 bd 33 96 b4 bd
       0.41969404 -0.11455973 -0.04714457 -0.08817711
000080 44 de 42 bd 31 6f 69 3e 85 b9 c6 3d 5e fe 96 3e
       -0.04757525 0.22796322 0.09703354 0.29490942
000090 bd be 79 3e ba 4a 19 be 7b d2 bc 3e a6 1a de be
       0.24389167 -0.14969912 0.36879334 -0.43379706
0000a0 b4 be 5d bf ec 17 8d be cf 73 fd 3e ce 7a e3 be
       -0.86619115 -0.27557313 0.49502417 -0.4442963
0000b0 7b d8 29 3f c2 22 9f bf 15 2e 0a 3f 8e b9 e9 bc
       0.6634595 -1.2432482 0.53976566 -0.028530862
0000c0 72 28 61 3e d3 ad b4 be d2 90 5b 3e 8b 8f a5 3e
       0.21988085 -0.35288867 0.21441963 0.32336077
0000d0 d1 ce 0a 3f 6e 05 8d be f2 d7 1e bf 10 e9 d1 be
       0.54221827 -0.27543205 -0.62048256 -0.40998125
0000e0 f4 78 04 3f 8a c7 7d be 84 24 97 3e 9d c2 e3 3e
       0.5174706 -0.2478315 0.29520047 0.44484416
0000f0 2e 20 01 3f bf bf 38 3f 9b e4 4d 3e e2 0d 4a be
       0.5043973 0.7216758 0.20106737 -0.19731858
000100 6b 88 12 bf 59 ee e3 bd 51 d4 33 bf d5 79 01 be
       -0.5723941 -0.111294456 -0.70245844 -0.12644131
000110 82 f5 41 3d b0 b4 d1 3d 7e 9d a9 be 93 30 79 be
       0.047353275 0.102395415 -0.3312797 -0.24334936
000120 08 9e 55 3e 11 7a 26 bd 29 9e 1f bf 57 73 3d 3e
       0.20861065 -0.040643755 -0.6235071 0.1850103
000130 21 8b 05 3e 90 83 8b bc 35 09 1e be 33 f5 89 3d
       0.13041355 -0.017030507 -0.154332 0.06736221
000140 36 2e 57 bd e6 18 1c 3e be 27 d5 be 30 bb b6 3e
       -0.052534305 0.15243873 -0.41631883 0.35689688
000150 f2 a4 fb bd 1e 8f 52 3e e8 80 43 3e 68 33 c2 be
       -0.1228732 0.20562407 0.19092143 -0.37929845
000160 29 5f 35 bf 1b 30 93 3e cb 42 89 be f7 fc 79 3d
       -0.7084833 0.2874764 -0.26808771 0.06103226
000170 05 64 c6 3e 97 56 8b be 46 ec 85 3e 91 7c 15 bf
       0.38748184 -0.272145 0.26156825 -0.583932
000180 96 8e f7 3e b2 ab cf 3d 6c 77 ca 3e 68 0f 80 3d
       0.48350972 0.1014017 0.39544237 0.062529385
000190 e1 e0 cc be 07 a8 63 be 97 cc e6 3d 75 fc 20 be
       -0.4001532 -0.22232066 0.11269491 -0.15721305
0001a0 57 a7 19 be 6e 21 c8 3d 1d e1 ed be 56 75 ef 3d
       -0.15005241 0.09772001 -0.4646081 0.11692302
0001b0 c8 33 87 be ee fb ee 3d 42 cb 9e be b3 35 1f bf
       -0.26406693 0.116691455 -0.31014448 -0.62191314
0001c0 4c e6 f4 3e f0 e1 aa be df e7 0b be 71 d8 a6 3e
       0.47831953 -0.33375502 -0.1366267 0.32587007
0001d0 2f 14 2d be 92 86 4b 3f 8c 88 eb 3e 6a 4c 1c 3f
       -0.1690223 0.79502213 0.46002614 0.610541
0001e0 91 dc c5 3e 97 1f 67 3e 78 d2 26 3f 02 f8 95 be
       0.3864484 0.22570644 0.651649 -0.29290777
0001f0 d7 7e 2a 3e 26 5c 35 be c6 d0 5c 3d 46 74 f2 3e
       0.16649948 -0.17710933 0.05391004 0.47354335
000200 50 f3 b8 be 02 92 e6 3e 60 ae d3 be 70 fc ff 3e
       -0.36123133 0.4503327 -0.41343975 0.49997282
000210 7c bc b0 bd d8 ea 0e bf fc 6d 7d 3d 27 ba a6 3e
       -0.086297005 -0.55827093 0.061872467 0.32563898
000220 1b de e8 be 7f 0f 28 be f5 ee cf be a7 2e 60 bf
       -0.45481953 -0.16412161 -0.40611997 -0.87571186
000230 99 b1 94 3e 3f a6 43 3e 10 27 b7 3d bb 50 ac 3e
       0.29041746 0.19106387 0.089429975 0.33655342
000240 69 b9 7f bf 7c 57 49 3d ba 95 d7 bd 5a c7 b2 3d
       -0.9989229 0.049155697 -0.10526605 0.087294295
000250 af 8d e2 bc 47 7b 42 3f f1 3b a9 3e 61 63 77 bf
       -0.02765545 0.75969356 0.33053544 -0.96636015
000260 d5 29 35 bf 2d b4 67 be 9a 26 d2 3e c3 e4 f7 3d
       -0.70766956 -0.22627325 0.41045076 0.1210418
000270 d7 07 91 3e f6 6b 5f 3e fe 9d a9 3e 98 aa 29 3e
       0.28326294 0.21818528 0.3312835 0.16568983
000280 12 ac b0 be f5 70 8f bf 45 54 8e bf 17 3c 5d be
       -0.3450628 -1.1206347 -1.1119467 -0.21604954
000290 fa 5c a8 be 9f 60 ae 3c be 68 0d bd 1c 92 d3 3e
       -0.32883435 0.021286307 -0.034523718 0.4132241
0002a0 cd e7 ac 3e 35 8e b0 be 12 52 05 be 3c 52 0a 3e
       0.337706 -0.34483495 -0.13019589 0.13507932
0002b0 87 6e 4c 3e 2e 9c 8b 3e 55 98 ee be 62 92 82 be
       0.19964038 0.27267593 -0.46600595 -0.25502306
0002c0 b7 c6 e3 3d dc 70 4e bd df 8c 75 be 5c 6f 84 be
       0.11121886 -0.0504006 -0.2397952 -0.2586621
0002d0 13 5a a4 be d9 67 e6 3e 42 f1 cd be 90 21 96 be
       -0.3209997 0.45001104 -0.40223128 -0.2932248
0002e0 be de 1c 3e 53 2c 1e bf 19 99 86 bf a4 ad 4c bf
       0.15319344 -0.61786383 -1.0515472 -0.79952455
0002f0 94 22 6d bf 64 aa a8 bd e1 ed 6d 3e 44 67 4c 3d
       -0.9263089 -0.082356244 0.23235275 0.04990317
000300 a0 40 04 3f e0 9d db 3d df 98 85 be 04 3e 90 bd
       0.5166111 0.10723472 -0.26093194 -0.070430785
000310 db 52 54 bf 68 ed 4c 3d 3a 7d f1 be 00 d1 0a 3f
       -0.8293893 0.050031096 -0.47165853 0.5422516
000320 13 d6 31 bf c5 ff 94 3d 7e 1f f1 3e 7c 3f bf 3e
       -0.69467276 0.07275347 0.4709434 0.37353122
000330 72 c5 a5 bc f3 df 2a bf 6d a5 8d be ec c2 21 3e
       -0.02023575 -0.6674797 -0.27665272 0.15797013
000340 1b 3a 70 3f c2 82 08 bf 8d 7f 08 3f 20 e8 93 bd
       0.9383866 -0.5332452 0.5331963 -0.07222009
000350 99 0a af 3e 8d e3 ca 3e e0 fe bd be 53 64 bb 3e
       0.34187773 0.39626732 -0.37108517 0.3659998
000360 9e 8a 64 3e d1 61 28 3d 72 2f 29 be c0 e9 00 3e
       0.22318503 0.04110891 -0.16522005 0.12589169
000370 14 40 18 3e 98 c7 f3 3d 9a 20 24 3e 7c 6e 10 bf
       0.14868194 0.11903304 0.16028062 -0.56418586
000380 60 f6 2b bf c2 0e 26 3e f2 73 bb 3d 95 ee cd be
       -0.67172813 0.16216567 0.09152974 -0.40221086
000390 79 88 9d 3d 43 71 35 bf d3 4e a1 3e 35 94 a2 be
       0.07692046 -0.7087595 0.3150545 -0.31753698
0003a0 7c 29 1b bf f1 26 32 bf 56 f0 bf 3e e2 71 11 3e
       -0.60610175 -0.6959067 0.3748805 0.14203599
0003b0 35 a0 b0 be d7 3c 96 3e 39 df 3b 3d 8e 62 95 be
       -0.34497228 0.29343292 0.04586718 -0.29176754
0003c0 fd a8 f0 3e 98 b8 6f be 71 ea 0c be 52 04 84 3e
       0.47003928 -0.2341026 -0.13761307 0.25784546
0003d0 78 d6 0b 3d c6 33 15 3e 06 75 ec be db a7 bb 3d
       0.03414008 0.14570531 -0.46183032 0.09162875
0003e0 ec 9b a3 bc 68 9b 3a bf 7f f6 85 bf b3 44 8d 3e
       -0.01997181 -0.7289338 -1.046585 0.27591476
0003f0 c7 73 ea be c7 28 2f be 89 60 73 3e d8 9f 8b bf
       -0.45791456 -0.17105399 0.23767294 -1.0908155
