AIRocketLanding/results/2AIRocket2/AIRocket/AIRocket-60999984.pt (torch, 505935 bytes, 42 tensors)

network_body._body_endoder.seq_layers.0.weight f4 [128, 26]
00000000: e990 7abf 6f19 5cbe 0c31 b23e 1da5 cbbd
00000010: b73d debe b454 163f c9a7 543e 4996 75bd
00000020: d15b 043d 35cf 863e e306 0abf 1463 0bbe
00000030: 5b92 93be 1c90 7abf c186 7abd b931 a33e
00000040: 5470 a8be 2e9a 59bf 4d92 2c3f a84e 1f3e
00000050: b659 dabe 7160 8b3d daf0 a3bc 88a1 d2be
00000060: f856 263e 8001 663e 6d85 81be 1c31 af3e
00000070: 7724 283f 8c76 babe 15d8 22bf da36 b23c
00000080: cdf0 323e 1af7 903e bc45 c9be 1a96 083f
00000090: f031 43bf 3508 963e 7812 a8bd 5de4 71be
000000a0: 02ab 693e ddba 4a3f b98e 73be aa37 8abe
000000b0: 8f87 0a3e fd82 42be 30c2 1f3f e703 13bf
000000c0: 8110 373f 138b 29bf b67c 933d 0c0d 02be
000000d0: 68dd 68be 905f 3cbd dd7a 2d3d dd1b bdbe
000000e0: ff16 6fbe 4dda d63d 3226 45be 8f84 a2bf
000000f0: bcdd ad3f 2243 31bf 9f1c c53e d99e 3a3e
00000100: a5f2 bdbd fd3c 04be 1b4e b3bd 733a d0be
00000110: 95b1 eebe 045d 9fbe 8da7 393e 7833 17bc
00000120: 030e b0bf 9e70 a93f 65b3 8ebe a1f5 953e
00000130: 9088 5f3e 3140 3a3e c5c0 e1be 6272 28be
00000140: 32ee 883d ea86 86be 2a07 0ebf 4ebe f63e
00000150: e0c8 633e d79c bb3d 039f 0c3e 5496 9dbd
00000160: f0c6 b33e 2d85 f83e ea62 bcbd 564d aebe
00000170: 2671 833c d6cb 9e3e 01e6 a3be b265 99be
00000180: ee97 2d3f 3240 91bd 8eaf 1cbe c4d1 c83d
00000190: 85e0 3a3e e5ae fc3e 9475 1b3d 01bb 8abe
000001a0: 1d39 94be 8c89 72b9 95c1 d43c 5de4 14bf
000001b0: fb7c 0bbe f2b9 313f 5c2b 093e b92f 0f3e
000001c0: def9 21be e9cd d8bd 948a a6bd 064f 953e
000001d0: edc0 173e 49ef 36bd e624 2c3d caf2 b53e
000001e0: 2823 edbe da03 adbe 1efd 403f 9e3e 0c3e
000001f0: 5e56 133e 8950 a7be 29e2 3ebd 9acf f03d
00000200: 15f6 153e b2bd 853e 3528 d4be d68c b3be
00000210: 1ff1 133f bae6 26bf 3dde 0dbf 446a a43e
00000220: 743f 99bd d7ac 8d3e e071 f6ba 66b3 89bc
00000230: 7683 8e3e 2173 45be 3544 e23e f15a 91be
00000240: f4db ef3d 5380 243f 93cc 91be ba79 f23c
00000250: 1e64 c83d 5301 05be 814b 433b 319c 97bc
00000260: a051 ddbd 25db 84be 997b ffbd 8c64 21be
00000270: 3597 803f b113 a73e 622c a4be e066 e5be
00000280: f036 f6bd fa39 01be f447 7abe bcc2 333f
00000290: a06b 04bf 0ae3 5e3d b142 903d 7136 a53d
000002a0: e4b0 3cbe 8979 813e 106d 84be 9e75 9bbe
000002b0: b031 233e 6939 cb3b 0fc8 cfbe ad8f 14be
000002c0: a74d dd3e 916b 62bf 7120 e7bd 5622 093f
000002d0: 1c2b a9be 516a bfbe 492d 903e 9239 9c3e
000002e0: 235a 3d3f 239c d13d 2cd2 d83e bdb4 02bf
000002f0: 0fa1 f53e f359 043f 54ff 21bf 4cf2 753b
00000300: 665e 823e bef9 5b3e 541c 16bf 6ea7 d13e
00000310: 37c5 223f 8b36 893e aec4 ce3e 9df2 923d
00000320: b6f1 9fbe c76a 503e c6d3 093f a433 e1be
00000330: 8cdb 5bbc 46ee 253e 97cd c1bd b2a9 81bf
00000340: 1804 383f 8189 e13e e66e c3be 3c08 b13e
00000350: cc71 213e 8fc1 5dbe 7a74 dabd 4006 d23d
00000360: 36d2 35be 6cc2 fb3e 7624 fabe f919 36bf
00000370: b6f5 b0be 6a2a 0b3f f0dd 8dbe 9114 38be
00000380: 7bac 873e 5332 20be ebce 59bd 30db 383e
00000390: e0b4 0b3f f142 c6be 7b42 e2bd 50df 36be
000003a0: 2b6b e2be 1ef0 58be 8aa6 40be 97d4 a3bf
000003b0: 44fd 0a3e c229 a4be 1bcc febe b262 3f3f
000003c0: fc57 3d3e 0da7 9a3e 7768 72be 7fe3 5ebf
000003d0: 86c2 8cbf 7384 913d 9523 103e 4f64 b8be
000003e0: 3949 9dbf 93f7 c23e 823d 25bf 9e0d 4ebf
000003f0: 27a4 493f 6e66 793e 6c02 45be e45d 2abe
-0.97877365 -0.21494077 0.34803045 -0.09943602 -0.4340646 0.58722997 0.2076713 -0.059957776
0.032314125 0.2632996 -0.5391676 -0.13612014 -0.28822598 -0.97876143 -0.061163668 0.31873873
-0.328982 -0.85000885 0.6741074 0.15557349 -0.4264657 0.06805504 -0.020012308 -0.41138864
0.16244113 0.2246151 -0.25297108 0.34217155 0.6568064 -0.3641857 -0.63610965 0.02175467
0.1747467 0.28313524 -0.39311016 0.53354037 -0.76248074 0.29303136 -0.08206648 -0.2362227
0.2281914 0.7919138 -0.23784913 -0.26995593 0.13528274 -0.1899528 0.6240568 -0.5742783
0.7150956 -0.66227835 0.07201521 -0.1270029 -0.2274071 -0.045989573 0.0423535 -0.3693532
-0.23348616 0.10490856 -0.19252852 -1.2696704 1.3583293 -0.6924306 0.384984 0.18224658
-0.092747964 -0.1291389 -0.08755132 -0.40669593 -0.4661986 -0.31125653 0.18130322 -0.00922858
-1.3754276 1.3237493 -0.27871242 0.29288962 0.21829438 0.1818855 -0.44092384 -0.16449884
0.06686057 -0.26274806 -0.5547968 0.48192066 0.22244596 0.09160774 0.13732533 -0.076946884
0.35112715 0.48539105 -0.09198554 -0.34043378 0.016045164 0.3101489 -0.32011417 -0.299604
0.6780995 -0.070923224 -0.15301344 0.098056346 0.1824971 0.49352184 0.037953928 -0.27095798
-0.28949824 -0.00023130159 0.025971213 -0.58160955 -0.13621895 0.69424355 0.13395447 0.13983048
-0.15817973 -0.10586149 -0.081319004 0.29161853 0.14819689 -0.044661794 0.042027377 0.35536796
-0.46315885 -0.33792 0.75386226 0.13695762 0.14388415 -0.3267863 -0.046602402 0.11758347
0.14644654 0.2612129 -0.41436926 -0.35068387 0.57789797 -0.6519581 -0.55417234 0.32112324
-0.07482806 0.2767093 -0.0018802248 -0.016809177 0.27834672 -0.192822 0.44192663 -0.28389695
0.117118746 0.6425831 -0.2847639 0.02959906 0.09784721 -0.12988786 0.0029799643 -0.018507095
-0.10806584 -0.25948444 -0.12474746 -0.15761012 1.0046145 0.3263221 -0.3206511 -0.4480505
-0.12022197 -0.12619773 -0.2444151 0.70219016 -0.5172672 0.05441574 0.070439704 0.080670245
-0.18426853 0.25288036 -0.25864458 -0.30363172 0.15936923 0.006201912 -0.4058232 -0.14507933
0.43223307 -0.88445383 -0.112854846 0.5356802 -0.33040702 -0.373858 0.2815955 0.30512673
0.7396566 0.10234859 0.42347848 -0.51057035 0.4797444 0.5169975 -0.63280225 0.0037528453
0.25462645 0.21481988 -0.58636975 0.4094805 0.63582176 0.26799425 0.4038443 0.07175181
-0.31239098 0.20353232 0.53838766 -0.4398471 -0.013419043 0.16204175 -0.09463041 -1.0129912
0.71881247 0.4405022 -0.38170546 0.34576595 0.15766066 -0.21655868 -0.106667474 0.10255098
-0.1775597 0.4917177 -0.48855942 -0.7113338 -0.34562463 0.54361594 -0.27708387 -0.17976595
0.2649878 -0.15644197 -0.053175848 0.18052363 0.5457287 -0.38722947 -0.110478364 -0.17858624
-0.44222388 -0.21185347 -0.1881353 -1.2799252 0.13573176 -0.3206311 -0.49765095 0.7475997
0.18490595 0.30205575 -0.23672663 -0.8706588 -1.0996864 0.07105341 0.14076073 -0.3601403
-1.2287971 0.3807951 -0.6454698 -0.8048953 0.787661 0.2435548 -0.19239205 -0.16637379

network_body._body_endoder.seq_layers.0.bias f4 [128]
00000000: 0110 0bbf d61c 6bbe 544d b0be bcea cfbe
00000010: 26da efbe 3e93 88be 75da 3c3e 8c06 5f3e
00000020: 4f3f 2d3d 0062 dabe 07e5 0fbe e7bf febe
00000030: 72b7 30be 0e33 9abe f020 953d 60e4 4cbe
00000040: 2f31 f53d 05e6 29be 6638 ea3d f95d 85bd
00000050: 7e04 cabe f620 a4bd fd5e 98be b5ee c6be
00000060: 8614 963e 8e14 36be 72af 2bbd 61f9 79bd
00000070: 43b1 d93e 3d43 813c 0669 d63e 813d bb3e
00000080: 7975 9a3e bb31 063b 1da4 b8bb d432 51be
00000090: bc08 0a3e dbf9 3e3e 9b06 583e f0c0 a9be
000000a0: 830e 903d 19b5 90be e284 deba 18fb d7bc
000000b0: dbe3 613e 1b5d d83e 776c 8abe 797e 9ebe
000000c0: 55ec 1d3e a640 e2bd 61b1 f53d d06e 133e
000000d0: bedc ef3c a754 193e 4ed0 d6be 0bbe 19be
000000e0: 7807 9c3d 20b9 2cbf 507b 5b3d c4a4 843d
000000f0: c4ee 953b 6540 c63d 5148 d23d b030 c33e
00000100: 5fc7 a4be 6253 693e 4799 b8be cbcc 893e
00000110: e59c 6abe 9d42 cfbc 9d25 643d 566b c33e
00000120: 836a 87bd 4c74 a5bd b1cb 53be 0b56 5e3e
00000130: 5436 b33d fe29 8fbe 0350 91be 9aa3 1b3e
00000140: 4639 7a3d eed8 aebe e37f a6be bb53 8f3e
00000150: 4adb 803e eda1 943e a361 453c f05d 15be
00000160: 391e 933c b545 18be aca8 563e 7f1f 4c3e
00000170: 10fa 7d3e 829e 8abe c59c 8a3e 0e75 82be
00000180: 4e02 22bf fb77 3ebe 697c 803e 46b7 debe
00000190: c480 993e 87c6 27bf 66df 423e 04f3 b93d
000001a0: 113a 5dbf f1eb a5be 2aa4 ba3e ffc2 a73e
000001b0: 7d49 28be 01c2 823e 54df 753e 272b f4be
000001c0: 5162 743e 1f32 a83e 1827 bb3d ebc5 8b3d
000001d0: 14ad 81be 00d6 0d3e 50a8 003e be23 163e
000001e0: cbe6 f23d 8c16 fe3d a7e6 2ebe db35 b2be
000001f0: 65cd 79be 126e 91be d1d9 023e 842a 13be
-0.54321295 -0.22960219 -0.34433997 -0.40608776 -0.46846122 -0.26674837 0.1844271 0.21779841
0.042296704 -0.42652893 -0.14052211 -0.49755785 -0.17257479 -0.30117077 0.07281673 -0.20008993
0.11972272 -0.16591652 0.114365384 -0.065120645 -0.39456552 -0.08014099 -0.2975997 -0.38853994
0.29312533 -0.17781278 -0.041915365 -0.061028842 0.42518052 0.015779132 0.41877002 0.3657036
0.3016775 0.002047642 -0.005634798 -0.20429546 0.13479894 0.1865 0.2109627 -0.33155012
0.07034018 -0.28263167 -0.0016976858 -0.026364848 0.22059576 0.42258534 -0.27035877 -0.30955866
0.15422185 -0.11047487 0.11996723 0.1439774 0.029280063 0.14973699 -0.419558 -0.15013902
0.07618612 -0.6746998 0.053584397 0.06476739 0.004575582 0.09680251 0.102676995 0.38123083
-0.32183358 0.22785714 -0.3605444 0.26914057 -0.22911413 -0.025300318 0.055699933 0.38167828
-0.066121124 -0.080788225 -0.20683171 0.2171251 0.08750597 -0.27961725 -0.28381357 0.15199128
0.061089776 -0.3414988 -0.32519445 0.2799357 0.25167304 0.2902979 0.012047204 -0.14586616
0.017958747 -0.14870341 0.2096278 0.1993389 0.24802423 -0.27074057 0.2707273 -0.2547993
-0.63284767 -0.18600456 0.25094917 -0.43499202 0.29981053 -0.65537304 0.19030532 0.09079555
-0.8641673 -0.32406572 0.36453372 0.32765958 -0.16434284 0.25538638 0.24010974 -0.47689173
0.2386563 0.3285074 0.09138316 0.06824859 -0.2532736 0.13851166 0.12564206 0.14662072
0.118604265 0.12406644 -0.17080174 -0.34806713 -0.24394758 -0.2840429 0.12778403 -0.14371687

network_body._body_endoder.seq_layers.2.weight f4 [128, 128]
00000000: 7d4f 8abb c662 7abe e214 cdbe 84a3 2abf
00000010: a258 53bf 9fc9 efbd 3c03 073e 2a40 0abf
00000020: 1a77 6f3e 372e 2cbb 16cf 613d fdab 04bf
00000030: f6a4 cebe 89c0 1ebf d719 aebd 9c9b 29bf
00000040: b46c aa3e 5d6f ffbe fe2a 233f 99e0 ebbe
00000050: 7815 09bf 161a b3be cda4 17bf 3e71 4abe
00000060: 89d4 f0bd fb53 c3be 1f81 46be 8fb2 58be
00000070: f42b d73e 23f2 e6bd 99d5 3cbd 31cd b6bd
00000080: 0439 3ebd 16ae 6a3e 6d33 cc3d ec1c 993e
00000090: 67aa 7c3e f019 16be e522 bd3e 2250 dcbe
000000a0: 1ffa 5dbf 7057 8ebe ec64 fe3e 9df4 e3be
000000b0: 6806 2a3f a7bb a2bf 578b 063f 6692 09bd
000000c0: a0cb 633e b31b b5be c8a9 5d3e 9db1 a53e
000000d0: 9f4c 0b3f 5c98 9cbe 1829 1bbf 762d d1be
000000e0: 676e e93e b17e 5cbe 90ce 973e b246 e43e
000000f0: 3974 013f 06d9 383f 8832 4e3e 497a 48be
00000100: b885 11bf a261 e1bd 0587 2bbf 19f9 00be
00000110: 7b3c 443d 5503 d33d a1fe 9abe 55fe 8bbe
00000120: f389 593e 30c4 40bd ec87 21bf 4aff 3d3e
00000130: 0060 063e 2771 bcbc 5659 f9bd 3374 883d
00000140: 26a8 b1bd f581 f93d 08c8 d5be 574d b73e
00000150: 1f90 f7bd 1541 523e 1656 443e cb8b c5be
00000160: 5d1e 36bf 098c 8f3e c5c0 88be 5232 753d
00000170: 6831 c63e 2b41 8dbe 6b42 863e 5de8 10bf
00000180: bbf6 fa3e cc90 d23d d8be ca3e 1de6 8e3d
00000190: 1438 ccbe 6357 64be 7835 ea3d ec16 21be
000001a0: 2bc0 19be ce36 ca3d 3e1f edbe c793 f13d
000001b0: 8d86 86be 1c87 f53d 7c42 9ebe 09cd 19bf
000001c0: b814 f53e 2763 aabe 77b5 11be 8e1d a73e
000001d0: 08cf 32be f6c2 4b3f 06d8 eb3e cb71 1c3f
000001e0: 6ffb c53e 8fbd 693e 53e9 263f fd51 98be
000001f0: fd54 203e 717b 27be 7482 633d d6f0 f23e
00000200: 61ae a4be 9062 d33e 0e2d c0be 813c 093f
00000210: 7246 3abd 4ae3 07bf 0799 193c deba 8c3e
00000220: 5818 01bf d6bb 1fbe b950 c0be fa57 57bf
00000230: 3fa3 983e c013 6f3e 352b 243d fd82 bf3e
00000240: 7acd 74bf abc0 cf3d 5437 1cbe 041a 143d
00000250: 16f7 d03b f814 3c3f b685 ba3e f802 6ebf
00000260: 08e7 2cbf d6a1 81be ff80 ef3e 7ea3 8e3d
00000270: 5569 6f3e 5319 2b3e c89e 903e 6a3f eb3d
00000280: 01e2 c9be 513a 91bf 7e08 92bf 5fc5 53be
00000290: f38a 9cbe f291 d0bc 4796 aebd 9dfd f23e
000002a0: cc7e ad3e 2a24 93be b3ad 35be ad56 d73d
000002b0: 5664 173e bc73 723e 8122 e3be 924c 95be
000002c0: e08c 7c3d 7657 41bc deaa 5fbe 2329 99be
000002d0: 539c bbbe 00cc da3e 7d37 b8be d47f 80be
000002e0: 1e7e 0a3e 133d 16bf 2a9f 81bf 228f 57bf
000002f0: 5daf 72bf 6878 03be 6299 3c3e bfd9 b8ba
00000300: 2594 123f dfc4 6b3d 034d 66be cdb7 f8bd
00000310: 85e0 4dbf 6cee 543b df21 e6be c004 023f
00000320: a1b1 27bf 6370 183d 7171 023f b351 a53e
00000330: c917 8fbd 53a9 1fbf 0950 85be e96d dd3d
00000340: 890e 6a3f 5d2c fdbe 4601 f93e ce73 febd
00000350: 8369 953e 2ff2 b13e 0fcf d6be 09b8 b23e
00000360: db8f 433e a162 3c3b 2d5f 59be 2d35 9a3d
00000370: 9e4b cb3d 8da8 c03d 42bd e33d dd3c 08bf
00000380: 1ca9 24bf 6415 e83d 0c72 2a3d e6b5 b9be
00000390: eebd d53c a3fb 2bbf 2aa1 873e 07fe b7be
000003a0: 0508 12bf 9366 28bf dfed a53e f049 c23d
000003b0: 4663 c8be 2b3d 7a3e 9631 05bc ea02 80be
000003c0: e3df d73e 4f88 92be 7eb3 33be afab 533e
000003d0: 6977 a43d 0757 c63d 312f 02bf 3172 2a3d
000003e0: 43ed 8dbd ffad 30bf e39f 8abf 1480 7a3e
000003f0: b3fe d7be ea1e 01be 2bb6 3f3e 6cce 8bbf
-0.0042209015 -0.24451742 -0.40054995 -0.66655755 -0.8255712 -0.11708378 0.13184828 -0.54004157
0.23385277 -0.0026272663 0.055129133 -0.51824933 -0.4036023 -0.62012535 -0.08501022 -0.66253066
0.3328606 -0.4988965 0.63737476 -0.46069792 -0.53548384 -0.3498084 -0.5923584 -0.19769761
-0.11759288 -0.3815001 -0.19385193 -0.21161865 0.4202572 -0.11276653 -0.04610214 -0.08925856
-0.046441093 0.22917971 0.09970746 0.29904878 0.24674378 -0.14658332 0.36940685 -0.43029886
-0.8670978 -0.27801085 0.49686372 -0.44522563 0.66416025 -1.2713517 0.52556366 -0.033586882
0.22245646 -0.35372695 0.21646798 0.3236207 0.5441379 -0.3058499 -0.6060958 -0.40854996
0.45592043 -0.21532704 0.29649782 0.44585186 0.50567967 0.7220615 0.20136464 -0.19577898
-0.56844664 -0.1100495 -0.670029 -0.12595023 0.04790924 0.1030337 -0.3027239 -0.27342477
0.2124403 -0.0470621 -0.63098025 0.18554416 0.13122559 -0.023003174 -0.121752426 0.06662788
-0.0867465 0.121829905 -0.41754174 0.35801193 -0.12088036 0.2053264 0.19173464 -0.38583216
-0.7114008 0.28036526 -0.2670957 0.059862442 0.3870957 -0.27588782 0.26222548 -0.5660456
0.49016365 0.10281524 0.39598727 0.069774844 -0.39886534 -0.2229896 0.114359796 -0.157314
-0.15014713 0.098737344 -0.46312898 0.117957644 -0.2627453 0.11988661 -0.309101 -0.60078484
0.4786737 -0.33278772 -0.1422938 0.32639736 -0.17461789 0.7959436 0.4606325 0.61111134
0.3866839 0.22826217 0.65199775 -0.29750052 0.1565742 -0.16355683 0.05554433 0.47449368
-0.3216429 0.41286135 -0.37534374 0.53607947 -0.045477338 -0.5308119 0.0093748635 0.27486318
-0.5042777 -0.15598997 -0.37561586 -0.84118617 0.29812047 0.23347378 0.040080268 0.37404624
-0.9562603 0.101441704 -0.15255481 0.036157623 0.006377111 0.73469496 0.36430138 -0.9297328
-0.67540026 -0.25318784 0.46778104 0.069647774 0.23380025 0.16708879 0.2824614 0.11486705
-0.3943024 -1.1345922 -1.1408842 -0.2068076 -0.3057476 -0.025460217 -0.08524757 0.47459117
0.338858 -0.28738528 -0.17742042 0.10514579 0.14784369 0.23676962 -0.44362262 -0.2915998
0.061657786 -0.0118006375 -0.21842524 -0.29914197 -0.36642703 0.42733765 -0.35979834 -0.25097525
0.13524672 -0.5868694 -1.0126698 -0.8420278 -0.94798833 -0.128389 0.18417886 -0.0014102979
0.572573 0.057560798 -0.22490315 -0.12144432 -0.80420715 0.0032490743 -0.44947717 0.507885
-0.65505415 0.037216555 0.5095435 0.32288894 -0.069869585 -0.62367743 -0.26037624 0.10811979
0.9142843 -0.4944791 0.48633784 -0.12424432 0.29182062 0.34755084 -0.41954848 0.34906033
0.19097845 0.002874531 -0.21227713 0.07529674 0.09926532 0.094071485 0.111200824 -0.5321787
-0.6432054 0.11332205 0.04161267 -0.3627159 0.026091542 -0.6718084 0.26490146 -0.35935995
-0.57043487 -0.65781516 0.32408044 0.09486759 -0.3913824 0.24437396 -0.008129498 -0.25002223
0.42163 -0.2861962 -0.1754894 0.20670961 0.08030588 0.09684568 -0.5085326 0.041612808
-0.0693002 -0.69015497 -1.0830044 0.2446292 -0.42186508 -0.12609449 0.18721835 -1.092237

network_body._body_endoder.seq_layers.2.bias f4 [128]
00000000: bf7b ecbe 4a49 fabd 5a3e b1be 4069 db3d
00000010: 5e97 4b3e 4a41 3a3e d1fd ccbc 7844 03bf
00000020: a009 14bf 4d14 05bf 2fbb 08bf 0b6d a1bd
00000030: 75de 353e d009 24bf d535 1cbe be52 02be
00000040: 8c71 91be 902b b9be 7dc5 19be 1408 bbbe
00000050: ed41 99be bc69 a93d b3fb 413d fd81 53be
00000060: 1628 e6bd b4e1 b0bd 3b11 4ebe 3346 b6be
00000070: 6304 923d b3f6 4abe 11ec 58be c7f6 43bf
00000080: 5b30 bebd d7ea 7dbe 2673 9bbd 825a 3ebe
00000090: c709 02bf 9d80 27be e430 8dbe 26fc 04bf
000000a0: 32b6 81bd 5020 923d ee14 9abe 88dd 7c3e
000000b0: 1432 8e3e 5d58 19bf c284 b4be 87bb a8bb
000000c0: 24be fbbe f7c7 debd 1400 d7be d930 4fbe
000000d0: f899 7cbd 6de7 c53d 2513 60bd 3f7d f2be
000000e0: 0e83 e8be e98a acbe 673a 36be fb76 9dbe
000000f0: a5a7 cbbe 7f71 c83c e15a 04bf 8586 93be
00000100: c1f3 85bd 2a16 a4be 3e7e 82be ec89 98bd
00000110: ca78 26be 3e42 223e aebc 1ebf 1684 42be
00000120: 2039 01be 6782 e3be 869d bebe 3375 92bd
00000130: 7fd8 10bf 9dc0 9dbe 43d6 f1be 856b babe
00000140: 37f9 413d 1e43 47be 543f e83d 59b7 24bf
00000150: 3edf babe b8ba 9abe 7b53 18bf eeeb d5be
00000160: a3bb cabd 8143 473e 774b c0be 2a08 383c
00000170: c82c a8be a8c7 02bf 585c 84be 7b13 cabe
00000180: 5e18 14bf 8611 43bf 7571 8abe 7264 92be
00000190: cbbb c5be 0b13 e53d 8880 bfbe da05 193e
000001a0: 3b5c 07bf e412 0fbf 8083 f2be 5a4c 6ebf
000001b0: 9371 8c3d bc50 abbe f037 1abf e199 bfbe
000001c0: 92ac d1be 2693 16bf 012c 6b3e cd32 bdbe
000001d0: 6fe7 24be 84e0 4c3e 4f93 813c 6d96 13ba
000001e0: 8649 a4be 96eb 52be 6b4a 11be 3bf3 d2be
000001f0: 2464 d43c c912 a2be f26c a43e d977 e5be
-0.4618816 -0.1222101 -0.34617883 0.10713434 0.19881961 0.18188968 -0.025023373 -0.5127635
-0.57827187 -0.519841 -0.5341062 -0.078821264 0.17760642 -0.6407747 -0.1525491 -0.12726876
-0.28406942 -0.36166048 -0.15016742 -0.365296 -0.2993311 0.0827212 0.04735918 -0.20655055
-0.112381145 -0.086367995 -0.2012376 -0.35600433 0.07129743 -0.19820671 -0.21183802 -0.7654843
-0.09286567 -0.24796616 -0.07590322 -0.18589213 -0.5079617 -0.16357656 -0.27576363 -0.5194725
-0.06333579 0.07135069 -0.30094093 0.24693882 0.27772582 -0.59900457 -0.35257536 -0.005149308
-0.49168503 -0.10877984 -0.41992247 -0.20233478 -0.061670274 0.096632816 -0.054705758 -0.4736118
-0.45412487 -0.3369973 -0.17795716 -0.30754837 -0.3977634 0.024468182 -0.5170117 -0.28813568
-0.06540633 -0.3204816 -0.2548694 -0.074481815 -0.16257015 0.15845582 -0.6200665 -0.189957
-0.12619448 -0.44435427 -0.37229556 -0.0715126 -0.56580347 -0.30811015 -0.4723378 -0.36410156
0.04735681 -0.19459197 0.11340204 -0.64342266 -0.36498445 -0.3022058 -0.5950238 -0.41781563
-0.0989907 0.19459344 -0.37557575 0.011232415 -0.32846665 -0.510859 -0.25851703 -0.39467987
-0.5784968 -0.76198614 -0.27039686 -0.2859226 -0.38619837 0.11185273 -0.3740275 0.14943638
-0.5287511 -0.558882 -0.47365952 -0.93085253 0.068576 -0.33460033 -0.60241604 -0.37422088
-0.40951973 -0.5881828 0.22966005 -0.3695282 -0.1610391 0.20007521 0.015817313 -0.000563002
-0.32087344 -0.20597681 -0.14188544 -0.41201195 0.025926657 -0.31654957 0.3211437 -0.44818

action_model._continuous_distribution.log_sigma f4 [1, 2]
00000000: 37ca 1540 ff8d 2b40
2.3404672 2.6805418

action_model._continuous_distribution.mu.weight f4 [2, 128]
00000000: 2931 3dbe 0463 4fbf 52ac adbc e130 79be
00000010: 7428 9dbe c165 82bf 57fe 50be 8281 28be
00000020: c8fb 9fbd ff1d eebd c1ab 1abd def8 bf3d
00000030: 44ea 8ebe 9f3a 1ebe b360 67be e285 023f
00000040: 94ae 3e3d eebd 0fbd 52bb 57be 9a5c 22be
00000050: 708e 60be 10cc c1be f53e 5ebe 6071 4dbe
00000060: af41 77be fc82 2dbe c2db 8cbe e979 c5bd
00000070: bd5b 9cbe 1a55 0ebe f19d 5bbe 8d6d 74bc
00000080: 4c24 a9bd e987 d0bd 3877 c03e b7cf 12be
00000090: ce7b f9bd da6f 00be 70b1 81be e95b febc
000000a0: 1539 6dbe ded9 4ebe 1101 91bc d3ff efbe
000000b0: 731e 4abe 4b42 b4bd 441f 7ebd 6d85 6cbe
000000c0: 6aeb d4bd 0229 8ebe bbb1 2abe 4b12 4f3f
000000d0: b76a 86be ad40 b6be e8df 9abe c6a1 49be
000000e0: 543e 3bbe 292f 57be 54ce 8fbe 46bb 893d
000000f0: 4c19 8abd 9655 8abe 03e0 ebbb 9c7b 483f
00000100: c13f e9bd 292d b3be bda5 29be 3077 34bd
00000110: dc6e d93d e3fb 83be 76b5 67bd fe99 5abe
00000120: 4488 4dbf 1d83 ddbd a844 ddbd 9108 88be
00000130: 499c b5bd a4d8 75bd baef 97bd 00c9 70bc
00000140: d8db adbe 12b6 69be 5adc 2abe 75c6 253e
00000150: 0c5b 63bd 3dc6 a23e 35ce 9bbd e164 29be
00000160: 5844 5f3e a2f5 22be ca70 dbbd 8998 60be
00000170: eb54 19be bcc0 9ebd 401a 61be 6375 e7bd
00000180: c648 5bbd c6eb eb3b b960 61be 5aee 19be
00000190: 4a84 48be c6a9 5dbe 76af 3dbd 6509 05be
000001a0: 94ad b1bd f477 27be 3c5d 4bbe b4e0 a23c
000001b0: a382 93be 8ade 56be 6398 52be a5ce 76bd
000001c0: 939f 4ebe fd9b a9bc 4700 25bf 5e37 37be
000001d0: f3a2 22be 825d 8abe 51b2 c4be 0d60 0cbe
000001e0: f49b 38be 860f 4cbe 10d4 71be 83f7 d5bc
000001f0: 907d 31be 9130 8fbd 3d09 62bf 08a9 17be
00000200: 60ab 90bd e5dd e2bd 50e6 8fbe 7037 95be
00000210: 852d 8ebf 3399 09bf 7dcf 9ebe e1bc bebe
00000220: 1854 36be 9afa 09be edb9 6bbe 76a5 e4be
00000230: 7ab5 023f f449 8bbe 82fe 90be 7c0c 80be
00000240: 6125 d03c 97fd edbe 85d1 89be 25b6 d3bd
00000250: 6257 8dbe 76de d7be e78e 95bd 2827 88be
00000260: 7885 9abe 1ea8 8abe 711f 88be f32d b9bd
00000270: f75d 93be 3834 74be 9ef6 42be f70a e1bd
00000280: a0cb a9be cc69 95be 866f 43bf c975 16be
00000290: 7b2a 6fbe 9efa a9be 0ec9 90be aab3 81be
000002a0: ec95 7abe b497 93bf e230 33be 0eb8 88bf
000002b0: f53a 7ebe 8d4b 67be 1ad6 4bbe f218 8cbe
000002c0: 3b5a babe a6a4 73be f385 80be ebe9 16bf
000002d0: 68cf 8fbe f31c 2dbf bee9 b5be 1545 5abe
000002e0: 7bbd 81bd c0cf 5cbe ed21 99be 0d72 97bd
000002f0: e8f3 81be 3b85 afbe 22ad 99bd 0be1 083e
00000300: 98c5 79be bd6e 4c3e dda8 4cbe de9e 02be
00000310: 817b 84bf e53d 9ebe 348a 84be b037 2ebe
00000320: b2fe dfbe 4e42 f7be 7e2d e3be 2694 9cbe
00000330: 373c 0fbf f7d7 85be 0cf2 43be 1ede 86be
00000340: f11f b8be 5044 8dbe 9ba4 97be 1f50 06be
00000350: ee37 79be 4d15 44be 93e0 72be 30a2 a4be
00000360: 5cf6 a4bf 0016 94be 7874 8abe a8f9 adbe
00000370: 0a1e 81be a423 22be 56a5 86be 6199 8abe
00000380: e549 4ebe 7ce3 56bd 4565 8abe 5cf2 2dbd
00000390: ccbe a2be 980a 44be ad27 6ebe 98eb bcbe
000003a0: 948f 84be a49f 2cbe 56db 2bbe 29fb 86bd
000003b0: caaf f13c 4a97 83be 4510 45be b0ca 0fbe
000003c0: eeda 6cbe b743 f7bd 99ca 89bf a3b3 5ebe
000003d0: 2355 80be cce2 76be a098 cbbe c4dd 39be
000003e0: 2e05 68be 51e7 c1be 380c 89be 72f1 95be
000003f0: 3d9b c2be e598 9fbe 36de fcbe 58f9 46be
-0.18475784 -0.8101046 -0.021200333 -0.24335052 -0.30694926 -1.0187303 -0.20409523 -0.16455653
-0.07811695 -0.11626815 -0.037761454 0.093736395 -0.27913105 -0.1545205 -0.22595482 0.5098554
0.04655321 -0.03509324 -0.21067551 -0.15855637 -0.21929336 -0.37851 -0.21703704 -0.2006278
-0.2414615 -0.16944498 -0.27511412 -0.09642393 -0.3053874 -0.13899651 -0.21446969 -0.014918697
-0.08258876 -0.10182173 0.37590957 -0.1433705 -0.12181817 -0.12542668 -0.25330687 -0.031049686
-0.23166306 -0.20200297 -0.017700704 -0.46874866 -0.19738178 -0.08801707 -0.062041536 -0.23097773
-0.10396464 -0.2776566 -0.16669361 0.8088729 -0.26253292 -0.3559622 -0.30248952 -0.19690618
-0.18285495 -0.21014084 -0.28087103 0.06725173 -0.06743106 -0.27018422 -0.007198335 0.7831361
-0.11389113 -0.34995392 -0.1656713 -0.04405898 0.10616848 -0.25778112 -0.05656954 -0.21347806
-0.8028605 -0.108160235 -0.10804111 -0.26569036 -0.088677 -0.060021058 -0.07418771 -0.01469636
-0.3395679 -0.2282336 -0.1668562 0.16188987 -0.05550675 0.3179187 -0.0760769 -0.16542388
0.21803415 -0.15914014 -0.10714872 -0.21933188 -0.149738 -0.07751605 -0.2198267 -0.113016866
-0.0535362 0.0071997372 -0.22009553 -0.1503233 -0.19581714 -0.21646795 -0.04630991 -0.12991865
-0.086756855 -0.16354352 -0.19859785 0.019882537 -0.28810605 -0.2098333 -0.20565943 -0.060255665
-0.2017806 -0.020704264 -0.6445355 -0.17892215 -0.15882473 -0.27024466 -0.38417295 -0.13708515
-0.18028241 -0.19927797 -0.23616052 -0.026119 -0.17333055 -0.06991685 -0.88295346 -0.14810574
-0.07063937 -0.11077479 -0.28105402 -0.29143858 -1.1107641 -0.5374939 -0.31017676 -0.37253478
-0.17805517 -0.13474503 -0.23020144 -0.44657487 0.5105816 -0.2720486 -0.28319174 -0.25009525
0.025408449 -0.46482536 -0.26917663 -0.10337476 -0.2760573 -0.42161912 -0.07302647 -0.26592374
-0.30179954 -0.27081388 -0.26586488 -0.09041967 -0.28782627 -0.23848045 -0.1903939 -0.109884195
-0.33163166 -0.2918228 -0.76342046 -0.14693369 -0.23356049 -0.33199018 -0.28278393 -0.25332385
-0.24471253 -1.1530671 -0.17499116 -1.0681169 -0.24827178 -0.22587414 -0.19905892 -0.27362782
-0.36396965 -0.23793277 -0.25102195 -0.5895068 -0.28087926 -0.676223 -0.35529894 -0.21315415
-0.06334969 -0.21563625 -0.29908696 -0.073948 -0.25381398 -0.34281334 -0.075037256 0.13367097
-0.24391782 0.19964118 -0.19986291 -0.12755916 -1.035019 -0.30906597 -0.2588669 -0.1701343
-0.43749005 -0.48292774 -0.44370645 -0.30581778 -0.55951256 -0.2614133 -0.19135302 -0.26341337
-0.3596187 -0.2759118 -0.29617772 -0.13116501 -0.24337742 -0.1914875 -0.23718481 -0.3215499
-1.2887683 -0.28923035 -0.27041984 -0.33979535 -0.2521823 -0.15833908 -0.26298016 -0.27070144
-0.20145376 -0.05246304 -0.27030388 -0.04246746 -0.3178619 -0.19144666 -0.23257323 -0.36898494
-0.2589079 -0.16857773 -0.16782889 -0.06590874 0.029502768 -0.25701362 -0.19244488 -0.14042163
-0.2313039 -0.120734625 -1.0764953 -0.21748213 -0.25064954 -0.24109954 -0.3976488 -0.18151003
-0.22658226 -0.37871793 -0.26767135 -0.2928577 -0.38009062 -0.31171337 -0.49388283 -0.19431055

action_model._continuous_distribution.mu.bias f4 [2]
00000000: 1acb c9bd e6df db3c
-0.09853192 0.026840162

action_model._discrete_distribution.branches.0.weight f4 [2, 128]
00000000: c1f6 c9bc 8427 80be a77d 89bd 1c48 153f
00000010: 0aee aebd 013b 7bbe 311b d63e 3651 59be
00000020: 2ef8 5b3d cabc 0dbe b768 703e 3e90 16c0
00000030: 58df 8d3e 0645 afbe c5f1 093f b70b 82be
00000040: d96a bdbf 68e5 30be 856e d73e 559d c43e
00000050: 6dea c33e bb30 623f 3b80 753f db7b 5f3f
00000060: cae8 083f ccbb 0c3f 75e9 d1bd 1d36 50bd
00000070: d074 253f ac4d 87bf 2675 b63e 523b 183f
00000080: c580 e93e 6bd2 783d 4ac2 3e3e 3b93 86be
00000090: 8f63 4dbd 4b2a b3be d104 2d3d 7531 283b
000000a0: 856a 483e 62e7 61be 0be0 c03e c1d7 f4bd
000000b0: f959 0b3f 8e91 e3bd f7bd 2abe f4f6 5a3f
000000c0: 0f0b d43b f2cd 233d 198a a33e 93b7 0a3f
000000d0: 6234 d73e 9f5e bdbe 9670 fc3e 339e a83e
000000e0: 41d7 ea3d d264 323e 5a8b 5b3f 3c95 be3e
000000f0: de2c 453e 6e9b 483f a61b 003e c12b 963e
00000100: d5d2 9b3e e644 dcbe 6aa6 c73e fff5 37bf
00000110: 1d75 9bbe f361 62be 0e6b 16be 2522 213f
00000120: 816f 273f 6830 23be d386 53be 6047 3a40
00000130: 0ed4 c83e 7514 163e 709e 8cbd 32e0 69bd
00000140: 4cc9 1c3f 791e 303f 1fed e33d 0cb2 213e
00000150: a744 c83d 0886 f2ba 0d24 12bc c81b 993d
00000160: d2e4 86be b08b d33c 8af5 793e 5e64 293f
00000170: 3bff f4bf 2e41 8fbe b3ea fc3e 08ba b9bd
00000180: b5c4 963d 8c14 3bbd 9d35 233d 1723 333e
00000190: a460 0abd 552c d93e 5ebd 513d 4b43 913f
000001a0: 7519 51be 5002 c63e 285d 9dbe b3ed 9f3e
000001b0: f868 513f a5e5 a63e 319c 2e3f 5369 15be
000001c0: e3b9 c23c a691 ff3c 6fe7 863c 5ac0 dd3e
000001d0: fa02 8b3f 116d b0bf 4487 0b3f 27f7 5a3f
000001e0: 1568 223e 7e07 b8bf 5e0e 333f 827e 823d
000001f0: a118 403f 87b5 353d 6f16 a2be 7034 1c3e
00000200: f335 143d 2b95 7c3e b8cf 773d 2465 16bf
00000210: 4417 ac3d c18c 7e3e 6fa7 d6be 024c 413e
00000220: fa7c 8abd 3ff0 d53d 1d13 68be c3fe 1540
00000230: 7b1b 86be e387 b03e ab39 12bf 7b31 883e
00000240: dd1b be3f b92c 223e 3bb2 d3be 515d c3be
00000250: e7ff c7be ef58 5dbf 15cb 76bf db38 61bf
00000260: aee2 07bf e9c6 09bf 1db5 ae3d d95a 473d
00000270: fbe8 28bf 2725 883f f53b c0be 364e 19bf
00000280: 3462 efbe bd2c 85bd bd2b 3cbe 36bc 893e
00000290: c126 4d3d 1460 bc3e 203e 11bd d6ee 67bb
000002a0: b745 49be 121c 663e 2026 d1be f3e3 fa3d
000002b0: 1179 09bf 32d5 fc3d 5f5d 3a3e e5fd 59bf
000002c0: 131e e8bb cbd9 4bbd c54d a1be e8e0 0bbf
000002d0: 23ef e3be 33ec bb3e 6484 00bf d7b8 adbe
000002e0: 9304 d7bd 9af8 30be 90ef 58bf e05d bdbe
000002f0: 1e44 41be 2c85 45bf 3d91 00be 83b4 94be
00000300: a595 98be cf75 d93e 54ee c4be 4a7b 323f
00000310: 1349 963e 75a2 593e 83ff 0d3e eb21 22bf
00000320: 4b0a 2cbf f779 2d3e 5581 583e 3f19 3ac0
00000330: d8ff cebe 4b97 23be 6ce3 a83d 96aa 613d
00000340: 7770 1ebf 7a47 2fbf fcc9 dabd cdd0 1dbe
00000350: cfb2 e7bd 1be8 66bc 5b6b 933c 3f0f b6bd
00000360: 46af 813e aef6 5dbc 8d2c 7ebe fe59 27bf
00000370: aee8 f23f a7a3 823e e5bd 05bf 340f ac3d
00000380: b75c 52bd 8a11 b23c c6b5 44bd e4e5 29be
00000390: 3d2d ad3c 4479 e4be ec04 8fbd f6b8 91bf
000003a0: 2c2f 543e 8387 bebe e86e a03e a55b 9cbe
000003b0: 9483 56bf 0d80 a7be 4dd1 2ebf 7c29 f23d
000003c0: f7ea 37bd 25d8 dabc a35a f0ba 58f3 dabe
000003d0: 5f8e 8abf 6d28 b43f 84e7 0abf ec31 5ebf
000003e0: 2310 21be 7196 b83f 7766 35bf 1ffa 69bd
000003f0: 843e 43bf 5b98 60bd 109c b13e f89a 19be
-0.024653794 -0.25030148 -0.067134194 0.58313155 -0.08541496 -0.24534227 0.4181762 -0.21222386
0.05370348 -0.13841549 0.23477446 -2.3525538 0.2770946 -0.34232348 0.53884536 -0.25399563
-1.4798232 -0.17275012 0.42076507 0.38401285 0.3826479 0.88355607 0.9589879 0.87298363
0.5348021 0.54974055 -0.102496065 -0.050832856 0.64631367 -1.0570579 0.35636252 0.59465516
0.45606056 0.060747545 0.18628803 -0.26284203 -0.050143775 -0.34993204 0.04224092 0.0025664244
0.19571884 -0.22060922 0.3767093 -0.11955214 0.5443416 -0.11111747 -0.16674028 0.8553307
0.006471045 0.039991327 0.31941298 0.5418636 0.42032152 -0.36986253 0.49304646 0.32933196
0.11466838 0.17421272 0.8575951 0.37223232 0.19255397 0.78362167 0.12510547 0.29330257
0.3043429 -0.43021315 0.3899415 -0.71859735 -0.30362788 -0.22107677 -0.14689276 0.62942725
0.65404516 -0.15936434 -0.206569 2.9106064 0.39224285 0.14656241 -0.06866157 -0.057098575
0.61244655 0.687965 0.11129212 0.15790576 0.097787194 -0.0018503079 -0.008919728 0.07476002
-0.2634645 0.025823444 0.24410072 0.66168773 -1.914039 -0.27979416 0.4939781 -0.09068686
0.07361738 -0.045673892 0.03984605 0.17493854 -0.03378357 0.42416635 0.051205985 1.1348661
-0.20419867 0.3867364 -0.30735135 0.31236038 0.81800795 0.3259708 0.6820708 -0.14590959
0.023770278 0.03119738 0.016467778 0.43310815 1.0860283 -1.3783284 0.54503274 0.85533375
0.15860017 -1.4377286 0.699438 0.06371786 0.7503758 0.04436257 -0.3165774 0.15254378
0.036184262 0.24666278 0.06050083 -0.5874808 0.08402875 0.24858381 -0.41924617 0.18876651
-0.06762119 0.10446214 -0.22663541 2.3436744 -0.2619284 0.34478673 -0.57119244 0.2660025
1.4852253 0.15837373 -0.41346917 -0.38157132 -0.39062425 -0.86463827 -0.9640363 -0.8797738
-0.5308026 -0.5381914 0.08530638 0.048670623 -0.659805 1.0636338 -0.37545744 -0.59884965
-0.4675461 -0.06502674 -0.1837606 0.26901406 0.050085787 0.36792052 -0.035459638 -0.003539016
-0.196555 0.22471645 -0.408494 0.12250509 -0.5370036 0.12345351 0.18199681 -0.8515304
-0.0070836633 -0.04976825 -0.31504646 -0.54640055 -0.44518384 0.36703643 -0.5020201 -0.33930084
-0.10498919 -0.17282334 -0.84740543 -0.36985683 -0.18873641 -0.7715633 -0.12555404 -0.2904397
-0.2980167 0.42472693 -0.3846308 0.69719374 0.29352626 0.21253379 0.13867001 -0.63333005
-0.67203206 0.16941057 0.21143086 -2.907791 -0.40429568 -0.15975682 0.08246502 0.055094324
-0.6189036 -0.6846844 -0.10683057 -0.15411682 -0.11313402 -0.014093424 0.017995527 -0.08889627
0.25329036 -0.013547583 -0.24821682 -0.6537169 1.8977258 0.25515482 -0.5224288 0.08401337
-0.05135795 0.021736879 -0.048024915 -0.16591603 0.021139735 -0.44623768 -0.06983361 -1.1384571
0.2072112 -0.37212762 0.31334615 -0.3053867 -0.8379452 -0.32714882 -0.6828812 0.11824319
-0.044901814 -0.026714394 -0.0018337559 -0.42763782 -1.0824698 1.4074837 -0.54259515 -0.86794925
-0.15728812 1.4420911 -0.70859474 -0.0571233 -0.76267266 -0.054832797 0.3468938 -0.15000522

action_model._discrete_distribution.branches.0.bias f4 [2]
00000000: 9893 c3be ae0e c43e
-0.38198543 0.3829245

exp_avg f4 [128, 26]
00000000: eeb0 7634 ae8e ca37 fd5a f335 38a8 f730
00000010: 868d f032 486a 0eb2 aecd 81b7 3789 d936
00000020: 8851 9ab6 929c 1438 8839 db36 afee 7eb8
00000030: afee 7eb8 cfb7 8034 5a28 dc37 44d3 0636
00000040: ced8 0431 3a09 0133 81c9 18b2 3328 8eb7
00000050: ce75 db36 c4a3 9bb6 d5a5 1d38 94ff 0437
00000060: 6506 89b8 6506 89b8 c9be c0b5 fc45 e0b8
00000070: 0e39 bbb6 0ca9 1cb2 9d2a 18b4 d22c 3433
00000080: c501 8138 8aeb 46b8 0713 0e38 facd 42b9
00000090: 80da e3b8 2ca9 873a 2ca9 873a 427f c1b5
000000a0: bfc7 e3b8 b85f bfb6 c28a 1eb2 81fe 19b4
000000b0: d656 3633 6a47 8038 9f2a 49b8 18b0 0f38
000000c0: 6278 43b9 0beb efb8 9f66 8e3a 9f66 8e3a
000000d0: 49a5 deb4 6412 35b7 e291 5b34 35e6 b1b0
000000e0: c6cb acb2 159a cc31 0509 a937 a143 4737
000000f0: 4610 11b7 ec27 1db6 73af b9b7 1a43 6239
00000100: 1a43 6239 bd4c ddb4 ad64 21b7 ca4e ac34
00000110: 2832 a8b0 fa5e a3b2 2e71 c131 faa0 a337
00000120: 0275 4637 657c 10b7 a7f7 cfb5 cc9c bdb7
00000130: 1c20 6839 1c20 6839 d734 b334 7bc8 82b6
00000140: a385 8fb5 e854 472f ae9c 4131 6740 65b0
00000150: 5ddc 8736 f8d5 8536 b78c 3ab6 cd07 5236
00000160: 3baa 87b7 270e 2039 270e 2039 4aa6 b734
00000170: 12e6 01b6 177b 6bb5 0c00 a72f 8735 a231
00000180: 3c11 c0b0 882c 3236 de0d 8836 afa0 3db6
00000190: 1242 ae36 0017 89b7 9889 2939 9889 2939
000001a0: 74e9 57b3 b657 1a38 4c4e 7836 8977 1631
000001b0: 9626 1233 530d 2db2 4ccb f7b7 a005 92b5
000001c0: babf 4e35 e5e2 2338 01b8 bf36 b328 4ab8
000001d0: b328 4ab8 f877 15b3 24a1 2538 d384 8436
000001e0: 10f5 2131 ba4f 1d33 5c44 3ab2 4b4c 05b8
000001f0: 3922 94b5 a2d1 5135 58c4 3038 8867 0137
00000200: 6f8f 6fb8 6f8f 6fb8 ba6f 1432 f334 5337
00000210: 2389 a435 a557 5130 5356 4b32 c6c3 70b1
00000220: 28ae 41b7 6ab1 09b6 d278 c635 a1cc 4337
00000230: 405e 7536 b597 03b8 b597 03b8 d6f8 2832
00000240: 4fd2 5837 b67e a835 ef3f 5730 3a13 5132
00000250: 108f 77b1 7595 47b7 6e3e 0ab6 1d46 c735
00000260: 659b 4b37 6315 9136 1e64 19b8 1e64 19b8
00000270: b8bd c2b7 52d1 0a3a 5987 e038 d5ef a5b1
00000280: 092d a1b3 0ed8 be32 7818 05ba 4b25 5dba
00000290: b746 1d3a 12b2 8dba 20d0 0cb9 5ee6 bf3a
000002a0: 5ee6 bf3a 4997 c1b7 9163 0a3a e738 e038
000002b0: b7c4 a9b1 b7e5 a4b3 3540 c332 2bf7 0eba
000002c0: b588 60ba cbbd 1f3a df75 8aba eb60 02b9
000002d0: e10b b03a e10b b03a bb5c 69b7 0bc6 ab39
000002e0: 44e9 8838 293f 1cb1 dfc2 17b3 45b2 3332
000002f0: 5bd8 a0b9 a529 00ba e743 b639 8fa0 1fba
00000300: 7f30 afb8 52b7 6f3a 52b7 6f3a 4c2e 68b7
00000310: b437 ab39 d8b4 8838 0c22 21b1 fc81 1cb3
00000320: eb50 3932 6452 acb9 0f26 02ba f927 b939
00000330: 48e8 1bba a41e a1b8 7603 5b3a 7603 5b3a
00000340: 60ee a1b7 a802 193a 9837 d638 819a 9031
00000350: 9374 8c33 474e a6b2 9051 25ba 61f3 7dba
00000360: d5e1 343a ec7b 9aba e792 d437 5470 ddb8
00000370: 5470 ddb8 cf64 a0b7 30bb 183a 3a09 d638
00000380: 4a52 8e31 033d 8a33 50ae a3b2 9049 30ba
00000390: 68bc 80ba 956f 373a 2d9e 96ba 6c7d 2038
000003a0: acc6 84b9 acc6 84b9 b3ec 40b2 ca7a f9b6
000003b0: 2136 41b5 d275 fdaf 8830 f6b1 97c0 1131
000003c0: 662f c536 2017 beb3 bc64 8733 06f1 0cb7
000003d0: 1176 d1b4 156e 0f36 156e 0f36 26dd 5cb2
000003e0: ea8d 00b7 8389 46b5 8db4 02b0 6ce9 fdb1
000003f0: fa52 1631 3c6d cb36 abb3 beb3 d9d3 8733
2.2974902e-07 2.4146717e-05 1.8131392e-06 1.8019426e-09 2.8004035e-08 -8.289653e-09 -1.5473775e-05 6.483078e-06
-4.599049e-06 3.5431767e-05 6.533406e-06 -6.078061e-05 -6.078061e-05 2.3975596e-07 2.6244834e-05 2.0090529e-06
1.9331767e-09 3.0043545e-08 -8.893381e-09 -1.6946438e-05 6.540423e-06 -4.638425e-06 3.758616e-05 7.9273195e-06
-6.53386e-05 -6.53386e-05 -1.436064e-06 -0.00010694188 -5.5796763e-06 -9.118832e-09 -1.4171606e-07 4.195028e-08
6.151529e-05 -4.742624e-05 3.387316e-05 -0.00018578014 -0.00010864902 0.00103501 0.00103501 -1.4416657e-06
-0.00010861409 -5.7033867e-06 -9.22836e-09 -1.4341823e-07 4.2454154e-08 6.1168175e-05 -4.796183e-05 3.4257857e-05
-0.00018641495 -0.00011440188 0.0010864324 0.0010864324 -4.1470983e-07 -1.0792723e-05 2.0449036e-07 -1.2943874e-09
-2.01161e-08 5.9546985e-09 2.015057e-05 1.187707e-05 -8.646462e-06 -2.341806e-06 -2.2135418e-05 0.00021578037
0.00021578037 -4.1220292e-07 -9.619788e-06 3.2094823e-07 -1.2237864e-09 -1.9018888e-08 5.6299063e-09 1.9506075e-05
1.1828963e-05 -8.612032e-06 -1.5494778e-06 -2.260357e-05 0.00022137206 0.00022137206 3.3379794e-07 -3.897641e-06
-1.0693224e-06 1.812911e-10 2.8174258e-09 -8.3401236e-10 4.048967e-06 3.988618e-06 -2.7798067e-06 3.129698e-06
-1.6172524e-05 0.00015264061 0.00015264061 3.4207397e-07 -1.9356416e-06 -8.772344e-07 3.0377156e-10 4.720906e-09
-1.3974737e-09 2.6549988e-06 4.05473e-06 -2.8256725e-06 5.1932957e-06 -1.6342383e-05 0.00016168354 0.00016168354
-5.0270913e-08 3.679815e-05 3.7000455e-06 2.189582e-09 3.4028368e-08 -1.0072955e-08 -2.9539362e-05 -1.0879485e-06
7.701998e-07 3.907354e-05 5.7136645e-06 -4.8198457e-05 -4.8198457e-05 -3.4800877e-08 3.948914e-05 3.9493693e-06
2.3567885e-09 3.6626922e-08 -1.0842168e-08 -3.1780724e-05 -1.1036819e-06 7.8163623e-07 4.214453e-05 7.713104e-06
-5.7115623e-05 -5.7115623e-05 8.6401375e-09 1.2588908e-05 1.2258864e-06 7.615831e-10 1.1835783e-08 -3.503588e-09
-1.1544245e-05 -2.051786e-06 1.4787313e-06 1.167055e-05 3.6562706e-06 -3.1374122e-05 -3.1374122e-05 9.835466e-09
1.292357e-05 1.2553853e-06 7.83074e-10 1.2169773e-08 -3.6024552e-09 -1.18961225e-05 -2.0599941e-06 1.4847061e-06
1.21359235e-05 4.3238265e-06 -3.6571284e-05 -3.6571284e-05 -2.3214947e-05 0.00052954734 0.00010706363 -4.8293978e-09
-7.5053386e-08 2.2217161e-08 -0.00050771935 -0.0008436038 0.0005999612 -0.0010810515 -0.00013428973 0.0014640798
0.0014640798 -2.307784e-05 0.0005279119 0.00010691751 -4.9409112e-09 -7.67863e-08 2.2730186e-08 -0.0005453701
-0.0008565293 0.000609365 -0.0010563693 -0.00012433871 0.0013431275 0.0013431275 -1.3909473e-05 0.00032763215
6.5284345e-05 -2.273689e-09 -3.533466e-08 1.0459705e-08 -0.00030678776 -0.0004889018 0.00034764336 -0.0006089294
-8.3536834e-05 0.00091444433 0.00091444433 -1.3839057e-05 0.00032657164 6.51867e-05 -2.3447937e-09 -3.64398e-08
1.0786816e-08 -0.00032867782 -0.00049647776 0.00035315732 -0.00059473934 -7.6827855e-05 0.0008354703 0.0008354703
-1.9303698e-05 0.00058368826 0.0001021467 4.2085166e-09 6.540463e-08 -1.936054e-08 -0.0006306404 -0.00096874504
0.00069001067 -0.0011786199 2.5340776e-05 -0.00010559024 -0.00010559024 -1.9120429e-05 0.0005826233 0.00010206034
4.142099e-09 6.437224e-08 -1.9054966e-08 -0.0006724829 -0.0009821774 0.0006997523 -0.0011491232 3.826378e-05
-0.00025325024 -0.00025325024 -1.122969e-08 -7.435073e-06 -7.197687e-07 -4.6104148e-10 -7.1650597e-09 2.1209752e-09
5.8765754e-06 -8.851771e-08 6.304751e-08 -8.400768e-06 -3.9015188e-07 2.1372737e-06 2.1372737e-06 -1.2855969e-08
-7.6624365e-06 -7.3960854e-07 -4.75503e-10 -7.389806e-09 2.187504e-09 6.062588e-06 -8.880246e-08 6.324962e-08

exp_avg_sq f4 [128, 26]
00000000: c345 af2c 4d1f e131 6ec8 be2e 7ea4 4d24
00000010: 7f03 4228 2b01 8826 496d cf31 916b 3030
00000020: 10ea ba2f 7b53 5c32 aa5c 4632 a500 9a35
00000030: a500 9a35 2a84 af2c e3e5 2432 96f1 002f
00000040: a0bc 8024 e6e9 7228 ad48 aa26 48a8 0a32
00000050: 8a0a 3630 0ddc c02f 3538 9032 8d20 4832
00000060: 58f8 9a35 58f8 9a35 0bc8 5830 b861 9833
00000070: fb11 c031 796a 5927 111f 4d2b 88ca 8f29
00000080: b617 2f34 9c7c 1a33 6d3c a332 c1c1 da34
00000090: 9978 c735 e4e6 1b39 e4e6 1b39 05d2 5830
000000a0: 14d7 9b33 b061 c231 067d 5927 9430 4d2b
000000b0: c9d6 8f29 74bd 2834 3643 2133 7363 aa32
000000c0: d5c6 dd34 7767 c735 32d6 1b39 32d6 1b39
000000d0: 8095 452c abf0 4b30 158d b02d 490c 8023
000000e0: 359d 7127 8c5f a925 0bd8 d230 e84f 1c30
000000f0: 7d64 a52f 6453 e330 284b d331 507f 2435
00000100: 507f 2435 f915 462c 89f1 b330 ac2a df2d
00000110: b5bb 9423 8652 8c27 dfbb c425 d9e2 0331
00000120: 6e24 1b30 4629 a42f 5dae 2131 3228 d431
00000130: 9a12 2535 9a12 2535 6e08 c82c 5f23 e332
00000140: eb89 8e2f 7e6a 1525 84f7 0c29 21a3 4527
00000150: 3288 9f32 e507 e52f 66d6 722f e4c7 1333
00000160: afa5 aa32 19bf fb35 19bf fb35 df86 c82c
00000170: 60a8 f532 1152 992f ca31 1f25 3631 1629
00000180: 4792 5227 bf07 ac32 1875 ea2f 0896 782f
00000190: d258 1f33 5c64 b532 3750 0536 3750 0536
000001a0: 1ccf 852b bc89 3c32 a787 e52e 3cdc 5824
000001b0: e998 4c28 826c 8f26 5bf3 f231 fb70 e02e
000001c0: 391d 6d2e 5718 6b32 a843 8531 6d56 c234
000001d0: 6d56 c234 3ecf 862b 7e6e 8832 fdd9 252f
000001e0: d5e7 9724 cc50 8f28 14ee c826 bb73 3132
000001f0: dce0 e42e 8bcf 712e ecd2 a932 482b 9031
00000200: 6c37 d034 6c37 d034 966c 352a 0451 6530
00000210: edc1 172d e2cb 8e22 c9b8 8626 9be1 bc24
00000220: c8d4 1d30 d7f8 552d 1175 e22c 7e69 9630
00000230: 1bc9 ef2f e2b8 3333 e2b8 3333 eca5 352a
00000240: 1231 6f30 1595 1d2d 81f1 9322 d293 8b26
00000250: 57b0 c324 d59a 2430 7313 5c2d cdea e82c
00000260: b30f 9d30 f613 fc2f 1b54 3b33 1b54 3b33
00000270: bf7e ac34 ef23 3c38 0a27 ed35 f460 de2b
00000280: c5cd d12f be12 132e befb 3e38 0441 9d37
00000290: 2531 2637 ebe0 0b39 591d 4e3a 1fe9 a03d
000002a0: 1fe9 a03d e1c1 ac34 c9fa 3a38 83c1 ee35
000002b0: 5f55 de2b d0c2 d12f 2b0b 132e 2b5f 3838
000002c0: 4f98 a237 69d7 2b37 9fa5 0c39 d741 4e3a
000002d0: e606 a13d e606 a13d 9eb9 eb33 f796 7f37
000002e0: 9317 2235 69c2 172b 812d 0f2f a4bc 482d
000002f0: e80d 8237 1efd d636 5e35 6336 99e6 3e38
00000300: 23c7 8c39 31d1 db3c 31d1 db3c d014 ec33
00000310: eafd 7d37 1546 2335 cab2 172b ca1e 0f2f
00000320: 0ca8 482d 6cf3 7a37 534d de36 acf1 6a36
00000330: dde2 3f38 6ede 8c39 3bf7 db3c 3bf7 db3c
00000340: a151 c634 c59b 5738 be8c 0836 5278 ff2b
00000350: 2706 f12f 91f5 282e fe2c 5c38 7775 b537
00000360: f2c5 3f37 660b 2139 e6e2 6c3a 3df0 b83d
00000370: 3df0 b83d 019f c634 d24b 5638 1e6f 0936
00000380: bb72 ff2b bd00 f12f c0f1 282e b3a2 5438
00000390: 7e9b bb37 9546 4637 87f5 2139 790b 6d3a
000003a0: 3511 b93d 3511 b93d 86ac 4127 8459 ed2f
000003b0: 8943 922c 19a8 f221 46ef e425 177c 2024
000003c0: b381 9b2f 6740 072a 1412 8f29 36f5 1230
000003d0: 4e4b 1d2d 12eb 3530 12eb 3530 21dc 4327
000003e0: 4812 0630 7cf0 a42c 6c08 0922 a748 0126
000003f0: eb41 3524 831e b02f b210 092a e0ff 9029
4.9815443e-12 6.5519203e-09 8.675803e-11 4.459162e-17 1.07699214e-14 9.437212e-16 6.036917e-09 6.418129e-10
3.3999514e-10 1.2824667e-08 1.1546186e-08 1.1474082e-06 1.1474082e-06 4.9884723e-12 9.598327e-09 1.1727361e-10
5.5830694e-17 1.3484417e-14 1.1815818e-15 8.07092e-09 6.622619e-10 3.5080952e-10 1.6789366e-08 1.1648933e-08
1.1546172e-06 1.1546172e-06 7.886462e-10 7.0958265e-08 5.5899796e-09 3.0172518e-15 7.2873744e-13 6.385609e-14
1.6306771e-07 3.596925e-08 1.9003176e-08 4.074664e-07 1.4861754e-06 0.00014867965 0.00014867965 7.88788e-10
7.2568724e-08 5.657249e-09 3.0182575e-15 7.2898046e-13 6.387735e-14 1.5715142e-07 3.754686e-08 1.9835829e-08
4.1309127e-07 1.4856768e-06 0.00014861746 0.00014861746 2.8078373e-12 7.419298e-10 2.0071536e-11 1.388299e-17
3.353069e-15 2.9381572e-16 1.5340914e-09 5.6866023e-10 3.0084726e-10 1.6540125e-09 6.1494525e-09 6.1280025e-07
6.1280025e-07 2.814969e-12 1.3092613e-09 2.5371115e-11 1.6125689e-17 3.894728e-15 3.4127887e-16 1.9191957e-09
5.644044e-10 2.9860753e-10 2.3527698e-09 6.1745817e-09 6.149436e-07 6.149436e-07 5.6852778e-12 2.6442363e-08
2.5927646e-10 1.2959771e-16 3.130093e-14 2.7427674e-15 1.857197e-08 4.1660467e-10 2.2085941e-10 3.4407904e-08
1.9865949e-08 1.8756574e-06 1.8756574e-06 5.6993156e-12 2.8598322e-08 2.788885e-10 1.3807921e-16 3.3349374e-14
2.9222652e-15 2.0026958e-08 4.2647552e-10 2.260877e-10 3.7100854e-08 2.1116811e-08 1.9865236e-06 1.9865236e-06
9.507703e-13 1.0974357e-08 1.0437811e-10 4.702408e-17 1.1357432e-14 9.952029e-16 7.0707933e-09 1.020641e-10
5.3913516e-11 1.36843346e-08 3.878501e-09 3.61982e-07 3.61982e-07 9.578794e-13 1.588273e-08 1.5084108e-10
6.587855e-17 1.591123e-14 1.3942319e-15 1.032907e-08 1.04081826e-10 5.498139e-11 1.9770106e-08 4.195872e-09
3.8783344e-07 3.8783344e-07 1.6113703e-13 8.3424845e-10 8.626416e-12 3.8705046e-18 9.348204e-16 8.1914194e-17
5.741865e-10 1.2162902e-11 6.4363033e-12 1.0943919e-09 4.361674e-10 4.1844835e-08 4.1844835e-08 1.6133595e-13
8.7017427e-10 8.95752e-12 4.010013e-18 9.685129e-16 8.48665e-17 5.988288e-10 1.2509871e-11 6.6199047e-12
1.1427715e-09 4.5852716e-10 4.3615824e-08 4.3615824e-08 3.2129716e-07 4.485616e-05 1.7669238e-06 1.5800959e-12
3.8163087e-10 3.3440577e-11 4.5533983e-05 1.8746134e-05 9.905813e-06 0.00013339861 0.00078626495 0.07856964
0.07856964 3.2178562e-07 4.4579418e-05 1.7788701e-06 1.5797744e-12 3.81553e-10 3.343385e-11 4.395765e-05
1.938283e-05 1.0242548e-05 0.00013413139 0.0007868087 0.07862644 0.07862644 1.0976804e-07 1.5234334e-05
6.038401e-07 5.3915775e-13 1.302194e-10 1.141057e-11 1.5503683e-05 6.4071637e-06 3.38567e-06 4.551429e-05
0.0002685125 0.026833149 0.026833149 1.0993392e-07 1.5139094e-05 6.0824215e-07 5.3894096e-13 1.3016713e-10
1.1405998e-11 1.4957837e-05 6.6251173e-06 3.5009389e-06 4.574923e-05 0.00026868604 0.026851287 0.026851287
3.6939767e-07 5.1405066e-05 2.0347502e-06 1.8152235e-12 4.3842016e-10 3.8416884e-11 5.249399e-05 2.163158e-05
1.1430575e-05 0.00015358403 0.0009036496 0.09030197 0.09030197 3.6996065e-07 5.109219e-05 2.047927e-06
1.8150684e-12 4.383817e-10 3.8413495e-11 5.0696264e-05 2.2364544e-05 1.1818153e-05 0.00015445623 0.0009042542
0.09036485 0.09036485 2.6877656e-15 4.3173654e-10 4.1570675e-12 1.6443053e-18 3.9713833e-16 3.4799578e-17
2.8286493e-10 1.2012753e-13 6.353612e-14 5.3462956e-10 8.941138e-12 6.618147e-10 6.618147e-10 2.7181018e-15
4.8774895e-10 4.6878595e-12 1.857142e-18 4.485433e-16 3.9303953e-17 3.2035893e-10 1.2173837e-13 6.439272e-14

exp_avg f4 [128]
00000000: 487d 3538 87a2 58b9 d2c7 e5b7 e053 e336
00000010: dc58 5d38 ea0f 9337 4948 e6b8 6820 5cb8
00000020: d8b8 c238 5793 32b7 3018 a8b8 7360 8f36
00000030: 483a d138 e4af 3437 a56f 94b9 a1ce 36b7
00000040: 01f0 d439 4fe9 5f38 b294 1db9 af6c 97b9
00000050: 7109 4138 320b efb8 75af 41b8 426c d035
00000060: 91d1 67b7 3124 1ab9 dbe0 4a38 330e 31b9
00000070: 0e33 6cb9 30b6 34b9 f6ef 52b9 c3c5 9cb7
00000080: 50a6 70b9 9416 4f39 7e1f d138 b17f 6db7
00000090: 63ce e137 27c5 cfb8 194c 14b9 2cf0 b437
000000a0: 9b62 b9b7 de9b 2a39 5dd4 93b8 0773 02b9
000000b0: e0ac 3eb9 fbe7 5b39 42d8 e3b6 b702 24b9
000000c0: 0f3d 1ab9 6092 57b8 c66b 9f37 2c2f 2537
000000d0: 3459 feb7 ce40 d0b8 ac63 6a38 bfe7 8737
000000e0: 7874 b1b9 1908 4935 0b0b b339 6d41 27b9
000000f0: 2275 5839 fa57 fbb8 d623 3db8 cd79 7bb9
00000100: 7784 6e38 2def 7eb8 6c34 8b37 28b0 20b6
00000110: 399f 88b8 de65 4d37 49a7 70b7 392c 66b9
00000120: 39df 9639 a463 49b9 4d8d 69b7 f0a8 7fb8
00000130: 6d61 47b9 95c0 7c38 367f a8b6 675b 0339
00000140: 6dbd 8bb8 003f f5ba 4fcf f9b8 34ad b0b9
00000150: b762 41b9 d382 4bb9 359b 8ab9 6f5c 8cb7
00000160: e16b e4b9 3325 b5b9 ce5e 83b9 6df7 25b9
00000170: dabe 09b8 f5e5 0db9 bffc 85b9 864b 2bb7
00000180: c4fd e5b6 7ae9 2eb9 f60b cab8 d466 6f37
00000190: b449 3d36 8f51 d237 1e23 6db9 e058 a4b8
000001a0: 1395 cb37 8a5b bf37 3ab4 0ab9 34e2 ccb8
000001b0: 58c1 60b9 c5c4 1f37 7109 65b7 52c1 ce35
000001c0: 1a6e ac38 0f50 32b9 a3e7 84b9 85eb bfb8
000001d0: 0592 e137 d9b2 9bb9 2858 0238 7388 04b9
000001e0: 80a0 39b9 b550 2839 8c6f dd37 533b 0bb9
000001f0: 1d5c 6c38 3d02 e837 7182 8fb9 3d4c 7d39
4.327044e-05 -0.00020659911 -2.7391976e-05 6.7748915e-06 5.2773263e-05 1.7531176e-05 -0.00010980719 -5.2482268e-05
9.285071e-05 -1.0643932e-05 -8.0153695e-05 4.2729603e-06 9.976752e-05 1.0769789e-05 -0.0002831194 -1.0896155e-05
0.00040614608 5.338463e-05 -0.0001502808 -0.0002888194 4.602358e-05 -0.000113984934 -4.6178193e-05 1.5528715e-06
-1.3817466e-05 -0.00014700067 4.8369966e-05 -0.00016885325 -0.00022525733 -0.00017234008 -0.00020116553 -1.868874e-05
-0.0002295014 0.0001974947 9.9717625e-05 -1.4156031e-05 2.6918196e-05 -9.907252e-05 -0.00014142728 2.156951e-05
-2.2099635e-05 0.00016270528 -7.049062e-05 -0.00012440617 -0.00018184213 0.00020971887 -6.790303e-06 -0.0001564127
-0.0001470933 -5.1396317e-05 1.9004463e-05 9.845749e-06 -3.0320698e-05 -9.930284e-05 5.5882774e-05 1.620117e-05
-0.00033846847 7.489012e-07 0.00034149768 -0.00015950734 0.00020643 -0.000119849996 -4.5094486e-05 -0.000239826
5.686699e-05 -6.078107e-05 1.6594502e-05 -2.3944394e-06 -6.514643e-05 1.224267e-05 -1.4344064e-05 -0.00021950984
0.00028776543 -0.00019205973 -1.3920781e-05 -6.0954073e-05 -0.00019014413 6.0260838e-05 -5.0215995e-06 0.00012527184
-6.66332e-05 -0.0018710792 -0.000119118595 -0.00033698382 -0.00018442688 -0.00019408324 -0.0002643705 -1.6732343e-05
-0.00043567925 -0.00034550726 -0.00025056902 -0.000158278 -3.284109e-05 -0.00013532474 -0.00025556047 -1.0209978e-05
-6.854274e-06 -0.0001668091 -9.6343385e-05 1.4269452e-05 2.8206096e-06 2.507193e-05 -0.00022615163 -7.836684e-05
2.4268904e-05 2.28116e-05 -0.00013227845 -9.769612e-05 -0.00021434331 9.5229525e-06 -1.3651662e-05 1.540446e-06
8.222107e-05 -0.00017005227 -0.00025349585 -9.151459e-05 2.6890086e-05 -0.00029697156 3.1076517e-05 -0.00012639332
-0.00017702766 0.00016051794 2.6397196e-05 -0.00013278173 5.6352572e-05 2.7657597e-05 -0.00027372272 0.00024156361
