AIRocketLanding/results/3AIRocket1/AIRocket.onnx (onnx, 80149 bytes, 7 tensors)

action_model._continuous_distribution.log_sigma f4 [1, 3]
-6.0244 -6.6691275 -6.7952676
00000000: e3c7 c0c0 7e69 d5c0 d572 d9c0

action_model._continuous_distribution.mu.bias f4 [3]
-0.22004028 0.20209399 0.046842054
00000000: 3d52 61be baf1 4e3e 74dd 3f3d

action_model._continuous_distribution.mu.weight f4 [3, 128]
-0.00051837217 0.0003760743 -6.7763496e-05 5.0990682e-05 -0.0002988022 -0.00033807708 -0.00087379006 5.239071e-05
0.00039627857 -0.00059471786 2.8319699e-05 0.00036163474 0.0002048399 0.00016648119 0.00033002955 -0.00016915309
0.00042245694 0.0002861068 -0.00026094355 -4.8733582e-05 -0.0006966481 -0.00029428492 0.00043967052 -0.00021031691
0.0005191823 9.94184e-06 -0.040482227 0.00027094904 -0.00037827418 0.00053746643 -0.0005524226 -0.00011411606
-5.5389322e-05 0.00012895664 -4.1651206e-06 0.00075784413 0.000179403 0.00036543928 0.000292752 -0.0008656234
-0.00035234852 0.0005302856 4.0431347e-05 0.00011395718 0.00036758633 -0.00021516632 0.001175819 0.0008176762
-0.09161703 -0.00048101268 -0.12941293 0.0004910364 -0.00046926254 0.0003960042 0.00021059075 -0.0005883678
-0.00014570646 0.00012516802 0.000661306 -0.00014376687 -0.00033765085 -0.16168623 -0.0004707207 -0.00035176755
0.00075466983 0.00035445672 -0.00026318282 0.0005050265 0.00065789436 0.2944447 -0.036792554 -0.00021584063
-6.5727536e-06 -0.00025307978 0.00020756092 6.2128696e-05 -0.15878215 -9.118135e-05 -0.00092216255 -0.0005751258
0.00020200861 0.00032447153 -0.0004894314 0.00013934905 -7.4922165e-05 -0.00017581084 -0.0005859685 0.00062712515
0.0003061537 -0.00024716227 -0.00027799615 -0.000105481326 -0.0008163279 8.1944825e-05 -0.0006311721 -0.00017511078
0.00010257528 0.00033440022 -0.00050916296 -0.00046538108 0.00021562207 0.0003469532 4.7125577e-05 0.0004147431
0.0003990815 0.00071792497 0.0009044808 4.2442916e-05 -4.899903e-05 0.00017685677 -0.00025344244 0.00034189975
-0.0014723337 -0.000498775 -0.0005501245 0.00055749266 5.9716425e-05 0.0006753943 0.00040636663 -0.0005906447
0.00048546982 -0.000427305 9.454262e-05 -8.722764e-05 0.00037822395 0.0007247361 0.00035566717 0.0006524351
-0.0003740487 -0.000454136 0.00023172554 -0.00029401295 0.00019229691 -0.00072876795 -0.00014238643 -0.00038702114
0.0007766564 -0.0005994073 -0.00010966941 0.0003256557 0.000100822064 -2.789613e-05 -0.0002884826 -0.00047601736
0.00040412258 1.5461697e-05 -0.0007582125 0.0005201673 -0.00022806965 -0.00032190228 0.00013669235 -7.526245e-05
0.0001704625 -0.00017791952 -0.11915585 8.329944e-05 0.00037901622 0.0004400286 -0.0002805965 -5.767719e-06
-0.0004333037 0.00048843183 -0.00051639887 0.0007816966 -2.4288876e-05 0.00047291964 0.0006297816 -0.00038468064
-0.00024482573 0.00013846376 -5.151096e-05 -0.00017549394 -0.0002629499 2.1197748e-05 -0.0016343754 0.0002603855
-0.1643185 0.0001470431 -0.068203054 0.00067707465 -0.00053168414 -7.021713e-05 0.0003001321 -0.0006716302
0.0005705641 0.00012025956 0.00035239552 0.00013992008 -0.0005428004 -0.0018567425 8.600007e-05 -0.00028571428
0.0009690059 0.0007489366 -0.00045618266 -0.00030537206 0.00022301024 -0.052791175 0.0014408813 -0.00045248674
0.00014669128 -0.0004162171 0.00061883754 0.00037774496 -0.036581293 0.00036555034 -0.0007128719 -0.0008354429
0.00012830416 -0.0005994426 -0.00081111834 6.7887086e-05 -8.641776e-06 -0.00046692308 -0.00018928885 0.0014096206
0.00037704143 -7.974963e-05 -0.00057780725 7.765798e-05 -0.00041511212 3.1546748e-05 -0.00070036494 -0.00016873033
0.00024868033 0.00019981839 -0.0004612431 -0.00038812365 3.580446e-05 0.00029080283 -0.000502282 0.00036831817
0.00039176721 0.00030798896 0.00038456812 -7.29615e-05 0.0002999595 1.3822135e-05 -0.00040951133 0.00054646976
-0.086497046 -0.0006576061 -0.00021232762 0.0001395281 -0.00013334666 -0.00030831806 -0.00015569622 -0.00057941297
0.00013495855 0.00011961708 -5.3461113e-06 -0.00015043997 0.00045437363 -0.0020455816 0.00046131265 0.00039317855
00000000: 5ee3 07ba d72b c539 401c 8eb8 d4de 5538
00000010: 8da8 9cb9 f03f b1b9 0f0f 65ba 19be 5b38
00000020: 9cc3 cf39 d7e6 1bba 1790 ed37 cb99 bd39
00000030: 4bca 5639 7491 2e39 d107 ad39 b05e 31b9
00000040: 367d dd39 9b00 9639 40cf 88b9 4967 4cb8
00000050: 439f 36ba 414a 9ab9 9483 e639 8488 5cb9
00000060: bc19 083a e1cb 2637 b1d0 25bd 2a0e 8e39
00000070: 1a53 c6b9 c3e4 0c3a 74d0 10ba 9851 efb8
00000080: d551 68b8 8938 0739 1dc2 8bb6 0faa 463a
00000090: 201e 3c39 6e98 bf39 827c 9939 01eb 62ba
000000a0: 6bbb b8b9 dd02 0b3a d494 2938 4cfc ee38
000000b0: 9ab8 c039 459e 61b9 f01d 9a3a 5259 563a
000000c0: b6a1 bbbd 6e30 fcb9 d384 04be e5b8 003a
000000d0: 5a07 f6b9 c99e cf39 06d2 5c39 b23c 1aba
000000e0: c8c8 18b9 893f 0339 7f5b 2d3a 20c0 16b9
000000f0: bb06 b1b9 1391 25be 10cb f6b9 716d b8b9
00000100: 09d5 453a 60d6 b939 cdfb 89b9 c163 043a
00000110: 8b76 2c3a 75c1 963e cab3 16bd 4753 62b9
00000120: 868b dcb6 cbaf 84b9 b6a4 5939 174b 8238
00000130: ca97 22be 9d38 bfb8 48bd 71ba 0ac4 16ba
00000140: 46d2 5339 d51d aa39 2f4d 00ba 3a1e 1239
00000150: 881f 9db8 dd59 38b9 ae9b 19ba a865 243a
00000160: 4183 a039 8f95 81b9 03c0 91b9 db35 ddb8
00000170: d7fe 55ba cbd9 ab38 3e75 25ba f19d 37b9
00000180: af1d d738 7052 af39 5979 05ba 64fe f3b9
00000190: 9c18 6239 45e7 b539 b4a8 4538 e071 d939
000001a0: d03b d139 2133 3c3a ae1a 6d3a bc04 3238
000001b0: 4f84 4db8 a172 3939 78e0 84b9 0241 b339
000001c0: 52fb c0ba 39c0 02ba 3b36 10ba b324 123a
000001d0: 0678 7a38 f20c 313a 9b0d d539 7fd5 1aba
000001e0: a886 fe39 e807 e0b9 2f45 c638 fced b6b8
000001f0: 5c4c c639 37fc 3d3a d778 ba39 2e08 2b3a
00000200: f71b c4b9 1a19 eeb9 5afb 7239 c025 9ab9
00000210: 4fa3 4939 ca0a 3fba 914d 15b9 19e9 cab9
00000220: 8798 4b3a 8b21 1dba 51fe e5b8 c5bc aa39
00000230: 6f70 d338 7c02 eab7 7b3f 97b9 f891 f9b9
00000240: 6ae0 d339 beb3 8137 c8c2 46ba d65b 083a
00000250: fb25 6fb9 fec4 a8b9 1355 0f39 38d6 9db8
00000260: 2ebe 3239 e88f 3ab9 fb07 f4bd 0cb1 ae38
00000270: b2b6 c639 a4b3 e639 061d 93b9 5488 c1b6
00000280: 0a2d e3b9 1b0a 003a f15e 07ba c5ea 4c3a
00000290: f7bf cbb7 33f2 f739 ee17 253a f6ae c9b9
000002a0: f45b 80b9 9530 1139 790d 58b8 cc04 38b9
000002b0: 8adc 89b9 d1d1 b137 8a38 d6ba 5a84 8839
000002c0: 1c43 28be 952f 1a39 0bae 8bbd b67d 313a
000002d0: b860 0bba 8941 93b8 0c5b 9d39 5710 30ba
000002e0: e991 153a dc33 fc38 bac1 b839 83b7 1239
000002f0: b84a 0eba f15d f3ba f05a b438 eccb 95b9
00000300: e304 7e3a 4954 443a cd2b efb9 581a a0b9
00000310: dbd7 6939 8f3b 58bd f4db bc3a be3b edb9
00000320: 24d1 1939 b737 dab9 7c39 223a 120c c639
00000330: 44d6 15bd 56a7 bf39 06e0 3aba a001 5bba
00000340: 6389 0639 e923 1dba 3ba1 54ba 9a5e 8e38
00000350: 25fc 10b7 5bcd f4b9 d77b 46b9 05c3 b83a
00000360: a5ad c539 423f a7b8 fd77 17ba 4fdc a238
00000370: 68a3 d9b9 1051 0438 b298 37ba 34ed 30b9
00000380: 4f61 8239 5786 5139 00d3 f1b9 137d cbb9
00000390: bf2c 1638 e576 9839 93ab 03ba d41a c139
000003a0: 1b66 cd39 9479 a139 dc9f c939 e802 99b8
000003b0: e243 9d39 9ee5 6737 aeb3 d6b9 f740 0f3a
000003c0: 5d25 b1bd 3363 2cba 43a4 5eb9 4a4e 1239
000003d0: f9d2 0bb9 c0a5 a1b9 6342 23b9 bfe3 17ba
000003e0: a983 0d39 eeda fa38 bf62 b3b6 6cbf 1db9
000003f0: ff38 ee39 2a0f 06bb 56dc f139 8823 ce39

network_body._body_endoder.seq_layers.0.bias f4 [128]
0.103113234 -0.0834088 0.02109163 0.03652759 -0.032433365 -0.07298494 0.0069309874 0.028397888
-0.03899494 -0.0913393 -0.017774174 0.03492791 0.10819381 -0.033195928 -0.028253894 -0.06667744
0.07264524 0.035426326 0.05913723 0.0041002696 -0.09482052 0.046214964 0.02323649 -0.040164024
-0.055274326 -0.1382097 0.018535474 0.07721915 0.011092888 -0.014199787 -0.022591604 -0.11644055
0.042957146 -0.06997841 0.001218838 -0.11975203 0.022978736 -0.096593134 -0.032465696 -0.08177075
-0.2301695 -0.043485124 -0.04418027 0.03573856 -0.021969609 -0.014174487 -0.18959722 0.008723794
0.12869076 -0.005683474 -0.015801527 -0.0828985 -0.020863544 -0.103655666 -0.027313955 -0.005484162
0.05965202 0.0121911215 0.03702718 -0.0084368475 -0.013440542 0.033711966 -0.03821193 -0.019365922
-0.03824705 -0.049546003 -0.012848951 0.07220615 0.09122065 -0.050940495 -0.030975522 0.008078284
0.06416972 0.05878345 -0.02247425 -0.0054612905 -0.026243886 -0.06482572 0.11130928 -0.030195694
-0.016367525 0.008749676 -0.011752191 0.0019339145 0.005293703 -0.04280452 -0.034500036 -0.06254909
-0.023674775 -0.021833682 0.036264997 -0.10320829 -0.024034804 -0.030920304 -0.03018499 0.045493517
-0.041346427 0.051014375 -0.04123714 0.033762615 -0.024556335 0.06372727 -0.016332153 -0.062810294
0.0027686094 -0.0016091528 -0.0381314 0.003099115 0.05200322 -0.05198437 -0.035528377 -0.008492837
-0.009430931 -0.039770234 -0.038634863 0.070957296 -0.06513386 0.0698645 -0.015562807 -0.064073384
-0.082107306 -0.079848915 -0.014249582 -0.038898543 -0.044011436 -0.121719964 -0.061112523 -0.103474304
00000000: 082d d33d 3cd2 aabd 5bc8 ac3c f49d 153d
00000010: d9d8 04bd 2179 95bd 561d e33b b0a2 e83c
00000020: 29b9 1fbd 1910 bbbd 259b 91bc 9110 0f3d
00000030: b794 dd3d 74f8 07bd b674 e7bc 2f8e 88bd
00000040: 07c7 943d 321b 113d e139 723d 8e5b 863b
00000050: 4331 c2bd e74b 3d3d 745a be3c 0883 24bd
00000060: 5567 62bd d886 0dbe b5d7 973c 1325 9e3d
00000070: f2be 353c 39a6 68bc 0712 b9bc 6278 eebd
00000080: d5f3 2f3d d750 8fbd 6bc1 9f3a 8d40 f5bd
00000090: e73d bc3c 9fd2 c5bd c0fa 04bd 6c77 a7bd
000000a0: 8eb1 6bbe 751d 32bd 5ff6 34bd 9962 123d
000000b0: 9cf9 b3bc 1c3c 68bc c625 42be 3eee 0e3c
000000c0: 83c7 033e 6f3c babb 3472 81bc b0c6 a9bd
000000d0: 06ea aabc 6c49 d4bd 84c1 dfbc 7cb4 b3bb
000000e0: ad55 743d 45bd 473c d0a9 173d b43a 0abc
000000f0: b835 5cbc 8f15 0a3d 1d84 1cbd 48a5 9ebc
00000100: f0a8 1cbd c0f0 4abd 6884 52bc d1e0 933d
00000110: e4d1 ba3d fba6 50bd 61c0 fdbc c75a 043c
00000120: 6a6b 833d eac6 703d eb1b b8bc a0f4 b2bb
00000130: 6bfd d6bc 59c3 84bd 1ff6 e33d f65c f7bc
00000140: 3015 86bc cd5a 0f3c 438c 40bc 677b fd3a
00000150: cd76 ad3b cb53 2fbd e94f 0dbd bd19 80bd
00000160: 9af1 c1bc 8ddc b2bc 9b8a 143d de5e d3bd
00000170: a3e4 c4bc 944c fdbc 8346 f7bc 6957 3a3d
00000180: df5a 29bd 73f4 503d 46e8 28bd ab4a 0a3d
00000190: 5e2a c9bc 7183 823d 02cb 85bc afa2 80bd
000001a0: 8f71 353b 35ea d2ba ac2f 1cbd 861a 4b3b
000001b0: 5401 553d 90ed 54bd 3486 11bd 8a25 0bbc
000001c0: 3184 1abc 1de6 22bd 973f 1ebd 0f52 913d
000001d0: e764 85bd 1e15 8f3d 25fb 7ebc e838 83bd
000001e0: e027 a8bd d487 a3bd 1477 69bc 1454 1fbd
000001f0: 5645 34bd 5148 f9bd 2051 7abd 56ea d3bd

network_body._body_endoder.seq_layers.0.weight f4 [128, 20]
-0.061675005 -0.03354282 0.2832397 0.037744984 0.1522495 -0.120578356 0.072072 0.32987624
-0.01728594 0.1498508 -0.0050508743 -0.087518886 0.18211184 0.08053443 0.0012961209 -0.19160941
-0.099278554 0.20622152 -0.40075698 -0.22227404 -0.82325065 0.28970394 -0.46965086 -0.005104229
-0.027294317 -0.048130207 -0.089081265 0.119917125 -0.11922518 -0.15926106 -0.44039348 -0.12031042
-0.19954926 0.16402118 -0.07331969 0.037108503 0.06757609 0.021853952 0.042323228 0.14636934
0.6939842 -0.12346795 0.17278811 -0.15701064 -0.67152786 -0.10925545 0.107736625 -0.18915872
-0.29261854 0.11980058 0.58778304 0.054340284 0.10987933 -0.2551486 0.21141127 -0.043298174
-0.118580446 -0.17693828 0.3961218 -0.11110668 -0.5880634 -0.24542278 0.48678407 -0.028704483
0.13838789 -0.068756506 0.15363662 0.29981974 -0.17860678 0.002379436 -0.2510661 0.17240314
-0.17015858 -0.12884204 0.0052906633 -0.05484355 -0.11560426 0.40325058 -0.38151386 0.023421431
0.49794996 -0.13908015 -0.22893967 -0.4567997 -0.4761547 0.14726129 0.09437451 -0.56143963
0.69542795 0.17726342 0.44670022 0.19435045 0.006883544 -0.13076805 0.30859795 0.20836122
-0.15136184 -0.51766175 -0.034865182 -0.20592894 0.20817602 -0.061889216 0.20595321 -0.20312454
-0.4223958 -0.08976952 -0.01907765 -0.30649838 0.11340621 -0.08228291 0.12734422 0.053551123
-0.15630579 -0.2649035 -0.06816944 -0.11709613 0.02295868 -0.17427939 0.33143374 0.17970423
-0.8701866 -0.12643032 0.07360963 -0.061669383 -0.057278655 -0.31393263 -0.25148663 0.48545164
-0.40774623 -0.10110879 -0.9414103 0.055316787 0.20865448 -0.17011099 0.1440231 0.28344402
0.32293713 0.46615228 -0.06126208 0.17976803 0.1716145 -0.09690637 0.34899423 0.085217185
-0.08594541 -0.04332953 -0.14621603 0.24594297 0.019628832 -0.19984576 0.3377105 0.037591033
-0.10162887 0.1996392 -0.28354454 0.02871673 0.19157578 0.35555404 -0.37554127 0.2332322
0.059215616 -0.2171727 -0.22198534 0.15088636 0.39324704 0.058803536 -0.10941548 -0.43942937
-0.31513214 -0.06354848 0.6489068 -0.14670955 -0.10115591 0.52257395 -0.033338085 0.41509297
0.19240406 -0.9192742 -0.2368982 0.01867046 -0.28935096 -0.50982356 -0.03375358 0.1447422
0.03863291 0.0028350018 -0.003280681 0.33968565 -0.13511325 -0.10076136 -0.062196407 -0.64599204
-0.15693602 -0.028229611 0.0674685 0.28765392 -0.3152067 0.36118397 0.028213 0.22457518
0.46972555 0.08269443 0.00752861 -0.2457099 0.28734168 0.010654782 0.1625701 0.28977135
-0.051965788 0.077337354 0.7736053 -0.1681459 0.35296318 0.032332055 -0.3001817 -0.31837174
-0.121423215 0.051557098 -0.16912057 0.020973891 -0.4896568 0.0051160995 0.13675632 0.19975556
-0.1377434 -0.20786467 -0.038612787 0.5793781 -0.44772214 -0.2528155 -0.75143147 -0.087395824
0.20349543 0.06111258 -0.22433835 0.2989493 0.06307272 0.36321688 -0.274454 0.27627882
0.00949139 -0.46414652 -0.04072082 -0.09052817 0.25391302 -0.2390392 0.05068662 0.06421803
-0.43078306 0.025198212 0.02874686 -0.5361974 -0.42626145 -0.1035175 -0.050307937 0.009136382
00000000: ee9e 7cbd 3264 09bd cb04 913e 7c9a 1a3d
00000010: 4be7 1b3e c9f1 f6bd 7c9a 933d 8ae5 a83e
00000020: 3e9b 8dbc 7d72 193e ce81 a5bb 1a3d b3bd
00000030: 877b 3a3e 3cef a43d 9ae2 a93a 4235 44be
00000040: 8e52 cbbd bc2b 533e 0530 cdbe ce9b 63be
00000050: 8ec0 52bf 1354 943e 1476 f0be 6041 a7bb
00000060: 5598 dfbc 2e24 45bd 3d70 b6bd 1c97 f53d
00000070: 552c f4bd 5515 23be 417b e1be 4f65 f6bd
00000080: a456 4cbe 2bf5 273e a228 96bd 16ff 173d
00000090: 5565 8a3d 0f07 b33c 1f5b 2d3d d8e1 153e
000000a0: f3a8 313f c4dc fcbd 5eef 303e 66c7 20be
000000b0: 40e9 2bbf 52c1 dfbd 05a5 dc3d d3b2 41be
000000c0: 19d2 95be 025a f53d f378 163f eb93 5e3d
000000d0: 6a08 e13d d6a2 82be 327c 583e 6d59 31bd
000000e0: 4eda f2bd 4f2f 35be 7ad0 ca3e e68b e3bd
000000f0: 538b 16bf 1c50 7bbe c33b f93e aa25 ebbc
00000100: 8eb5 0d3e 36d0 8cbd eb52 1d3e f981 993e
00000110: b2e4 36be 50f0 1b3b bc8b 80be 738a 303e
00000120: 0d3e 2ebe 2bef 03be 4d5d ad3b a1a3 60bd
00000130: edc1 ecbd dc76 ce3e c955 c3be 4dde bf3c
00000140: 4cf3 fe3e 076b 0ebe 296f 6abe a6e1 e9be
00000150: 8dca f3be aacb 163e 6c47 c13d 82ba 0fbf
00000160: 9107 323f 8b84 353e e4b5 e43e ce03 473e
00000170: 5a8f e13b 0fe8 05be 8d00 9e3e a55c 553e
00000180: 99fe 1abe 7b85 04bf cbce 0ebd 09df 52be
00000190: 182c 553e 8c7f 7dbd 66e5 523e e1ff 4fbe
000001a0: 4344 d8be 15d9 b7bd bb48 9cbc 5bed 9cbe
000001b0: 8441 e83d f183 a8bd 8666 023e 6c58 5b3d
000001c0: a00e 20be 6ea1 87be 6b9c 8bbd 19d0 efbd
000001d0: d713 bc3c 4c76 32be afb1 a93e 6304 383e
000001e0: 8dc4 5ebf f376 01be a5c0 963d 0999 7cbd
000001f0: 069d 6abd c7bb a0be dbc2 80be 1e8d f83e
00000200: 1dc4 d0be 2012 cfbd 4400 71bf db93 623d
00000210: 85a9 553e 9331 2ebe cb7a 133e 931f 913e
00000220: 0458 a53e 83ab ee3e f2ed 7abd 1c15 383e
00000230: b6bb 2f3e d976 c6bd 5faf b23e 5986 ae3d
00000240: 2604 b0bd 4e7a 31bd a8b9 15be 79d8 7b3e
00000250: a5cc a03c 5ea4 4cbe 64e8 ac3e 0ef9 193d
00000260: cc22 d0bd 386e 4c3e c02c 91be 593f eb3c
00000270: 712c 443e 2e0b b63e f246 c0be 6cd4 6e3e
00000280: 138c 723d 8562 5ebe 2050 63be f481 1a3e
00000290: ad57 c93e fadb 703d 3915 e0bd e3fc e0be
000002a0: 0059 a1be b525 82bd c21e 263f 073b 16be
000002b0: d42a cfbd 68c7 053f 848d 08bd 1187 d43e
000002c0: 9205 453e 8e55 6bbf 7195 72be cbf2 983c
000002d0: cf25 94be cc83 02bf 3241 0abd 4d37 143e
000002e0: 8b3d 1e3d 70cb 393b b200 57bb 47eb ad3e
000002f0: 215b 0abe f95b cebd a9c1 7ebd bc5f 25bf
00000300: d6b3 20be c941 e7bc ed2c 8a3d 6047 933e
00000310: c662 a1be 1bed b83e f31e e73c 09f7 653e
00000320: de7f f03e b35b a93d 8fb2 f63b 609b 7bbe
00000330: 731e 933e 6591 2e3c c778 263e e95c 943e
00000340: 14da 54bd 0c63 9e3d ff0a 463f 702e 2cbe
00000350: 97b7 b43e 9e6e 043d 6ab1 99be 9f01 a3be
00000360: bcac f8bd 892d 533d f12d 2dbe 70d1 ab3c
00000370: 4cb4 fabe f4a4 a73b d909 0c3e b98c 4c3e
00000380: 9b0c 0dbe 7ada 54be 7128 1ebd 2052 143f
00000390: d63b e5be 0971 81be d05d 40bf 95fc b2bd
000003a0: 1b61 503e 2f51 7a3d f4b8 65be e20f 993e
000003b0: 452c 813d 90f7 b93e 3c85 8cbe 6b74 8d3e
000003c0: c681 1b3c 9da4 edbe e0ca 26bd d566 b9bd
000003d0: e300 823e b1c6 74be c69c 4f3d be84 833d
000003e0: 998f dcbe 7b6c ce3c 897e eb3c 3c44 09bf
000003f0: f13e dabe fc00 d4bd b20f 4ebd c3b0 153c

network_body._body_endoder.seq_layers.2.bias f4 [128]
0.026576862 0.0020608406 -0.03792493 -0.020744467 -0.13164718 -0.17016979 0.008201571 -0.025354613
-0.03254882 -0.014873948 -0.018270776 -0.00539097 0.010957379 -0.014393316 -0.044404853 -0.0049983887
-0.03176571 -0.014777259 -0.21359062 0.013376936 0.0035082174 -0.0041504772 -0.004732232 -0.00997984
-0.0057141525 -0.02763978 -0.25746813 -0.018847464 0.027916588 -0.027958756 -0.0022031832 0.010346637
-0.03469298 -0.029392911 -0.024578081 -0.0017612628 -0.0037140904 -0.00049657724 0.0210541 -0.09671579
0.012562502 -0.0389702 -0.023019299 -0.036827594 -0.19316874 -0.0156068 -0.2138342 0.005579026
-0.37943146 0.01295267 -0.0817409 -0.1486032 -0.00921028 -0.059448607 0.006465843 -0.03508672
-0.010588717 -0.03283059 -0.13936149 -0.039159857 -0.002061877 0.022893874 -0.10578948 0.014584785
0.007111058 0.0002587553 -0.022471668 -0.04501142 -0.018950587 -0.2688664 0.067608885 0.008211041
-0.033274364 -0.027733527 0.012928402 -0.021442441 -0.043509778 -0.038634904 -0.027487105 -0.03065274
-0.05375806 -0.007794007 -0.017912058 -0.029396303 -0.040625487 -0.015899522 -0.0033738483 0.008182626
-0.055443604 -0.02507756 -0.02619288 -0.023676086 -0.025892934 0.015644994 -0.05457127 -0.010451565
-0.0019905667 -0.008984136 0.031309053 -0.0056306976 -0.019390205 -0.012792128 -0.009648134 0.021644419
-0.03249371 -0.027856484 -0.049881257 -0.0055094264 -0.050223313 -0.037780922 0.0030400495 -0.085563906
-0.2741508 -0.011437138 0.003630892 -0.20695588 -0.033996426 -0.025102057 -0.018384634 0.01329736
-0.078473166 -0.016727686 -0.019203734 -0.04431976 -0.020726949 -0.19373213 -0.026264274 -0.1285848
00000000: b8b7 d93c 2b0f 073b 2c57 1bbd 4df0 a9bc
00000010: 85ce 06be fd40 2ebe e25f 063c 7ab4 cfbc
00000020: e951 05bd dcb1 73bc 98ac 95bc bca6 b0bb
00000030: 9486 333c f1d1 6bbc dde1 35bd 86c9 a3bb
00000040: c31c 02bd 511c 72bc 80b7 5abe f02a 5b3c
00000050: 1fea 653b ba00 88bb d710 9bbb 7c82 23bc
00000060: c93d bbbb d26c e2bc ddd2 83be ff65 9abc
00000070: 54b1 e43c c309 e5bc 4863 10bb f184 293c
00000080: 3a1a 0ebd 67c9 f0bc f957 c9bc 2cda e6ba
00000090: 1968 73bb bc2c 02ba a679 ac3c ee12 c6bd
000000a0: f4d2 4d3c 379f 1fbd f892 bcbc 88d8 16bd
000000b0: 07ce 45be aab3 7fbc 5af7 5abe 43d0 b63b
000000c0: d744 c2be 7037 543c c667 a7bd 702b 18be
000000d0: b7e6 16bc 6280 73bd 6cdf d33b 18b7 0fbd
000000e0: 4c7c 2dbc 5e79 06bd c7b4 0ebe 1666 20bd
000000f0: 8e20 07bb ef8b bb3c 28a8 d8bd 06f5 6e3c
00000100: e103 e93b 8ca9 8739 8116 b8bc e55d 38bd
00000110: 433e 9bbc dba8 89be 8776 8a3d 9a87 063c
00000120: b34a 08bd 6c31 e3bc a6d1 533c 0fa8 afbc
00000130: 4f37 32bd a23f 1ebd a32c e1bc 741b fbbc
00000140: 6931 5cbd df64 ffbb 4fbc 92bc 84d0 f0bc
00000150: e966 26bd b73f 82bc c81b 5dbb 6c10 063c
00000160: d518 63bd 756f cdbc 7392 d6bc 5af4 c1bc
00000170: 6b1d d4bc ee29 803c 2086 5fbd 0a3d 2bbc
00000180: 2b74 02bb 3332 13bc ec3d 003d b781 b8bb
00000190: 35d8 9ebc 1396 51bc 3513 1ebc a34f b13c
000001a0: 2018 05bd 4833 e4bc 4a50 4cbd 6b88 b4bb
000001b0: f6b6 4dbd 2bc0 1abd 913b 473b 213c afbd
000001c0: 7e5d 8cbe d562 3bbc 42f4 6d3b 3eec 53be
000001d0: d63f 0bbd d4a2 cdbc 5f9b 96bc 2cdd 593c
000001e0: 8ab6 a0bd 8008 89bc 2651 9dbc a388 35bd
000001f0: 90cb a9bc b761 46be 2d28 d7bc bcab 03be

network_body._body_endoder.seq_layers.2.weight f4 [128, 128]
-0.0014164095 -0.018789101 -0.0051527685 -0.0009891608 0.009607044 0.019712726 0.009341909 0.005555981
-0.007168945 0.04976288 0.0020487506 -0.0017236411 -0.0037739477 -0.006937641 -0.0025439225 0.021112138
-0.2573409 -0.00094625214 -0.01150563 -0.0027343947 0.04417542 0.009628686 -0.0062771034 0.014837426
0.07200687 -0.035178363 -0.008790302 -0.03600131 -0.017804366 0.029394697 0.010016294 -0.018163864
-0.016825799 0.00065820717 -0.00308352 0.07195728 -0.0073509277 -0.04418866 0.009544043 0.068592094
0.206203 0.009138558 -0.0293142 0.009686831 -0.010956756 0.013368971 -0.0024878767 -0.0074490146
0.025106343 -0.016610567 0.034891788 -0.0108914105 0.0053350665 0.15801327 0.1070914 0.0024379562
-0.010687367 0.022394853 0.05185707 0.0011227778 -0.0007182224 -0.101658106 0.115631744 -0.0034487126
-0.010925523 -0.010266891 -0.0023232314 -0.012110618 0.070152 0.0026263786 -0.007212248 -0.014192629
0.13713871 -0.006755077 -0.0075797453 -0.0062731183 -0.0076015606 -0.008386977 -0.012936392 0.04079818
0.0013769747 -0.01500037 0.0036670857 0.007438224 0.0028398712 -0.08662865 0.0119812805 -0.0031937612
-0.018940862 0.015040983 -0.0029821375 -0.05079073 -0.0046920073 -0.01335261 0.016036937 -0.07554486
0.013204679 -0.008986053 0.0017186067 -0.010533016 0.0030510058 -0.077334486 0.00846684 -0.0123187555
-0.04023042 -0.0030017227 -0.012330085 -0.0022438203 0.0070929118 0.008420427 -0.14850424 -0.01191702
-0.0054871095 0.0077162418 0.0058199717 -0.067950144 -0.051353898 -0.006262424 0.027479354 -0.058507312
-0.005681127 0.16364346 0.00070555985 -0.0023147184 0.025962843 -0.08587451 0.001548268 0.046149097
0.004600334 -0.0037312345 0.00074594485 -0.015800338 0.0123969205 -0.002468191 -0.001309259 -0.001246665
0.029965643 -0.06402571 0.004447465 -0.008402898 0.040151708 0.0016780263 0.00076193654 0.006227376
-0.023612572 -0.011115576 0.002545007 -0.0010092278 -0.012774375 -0.009053776 -0.14906345 -0.01837072
-0.029346833 -0.034377284 -0.0032769209 0.1594523 -0.0023038606 -0.00336719 0.004056538 -0.03406778
-0.00450735 -0.011699424 0.013539922 -0.0017396791 0.0032762904 0.02530185 -0.0072251116 0.027583776
0.07424089 0.004327825 -0.04708415 0.008262339 0.0026558414 0.015629945 0.017481297 0.021583581
-0.046061676 -0.008324923 -0.00084688683 0.012542589 0.0020392044 -0.098619886 -0.027407939 0.0027977794
-0.012761582 0.018019844 -0.008138446 -0.003895137 0.012947344 0.034099534 -0.041632805 0.002976018
0.0062349136 0.011971781 0.00028101393 0.05953686 -0.046895627 0.003510405 0.011774903 0.0066116294
0.12015554 0.009976342 -0.0061797276 -0.0033591855 0.021230435 0.004622433 -0.045691628 0.08771119
0.028087309 0.0026777985 -0.005818367 0.013420479 0.013011692 0.1175902 -0.0045158286 0.009736879
0.13040493 0.017370319 -0.012999548 0.13618882 -0.02726368 0.0065624416 -0.0096284365 -0.01837381
-0.020793835 -0.006502145 0.0012249623 -0.0059745586 -0.007415568 -0.042815547 0.009056628 -0.0020201483
-0.057365485 -0.007948231 0.010551912 -0.001712272 -0.0038225558 0.00083985337 -0.16315977 0.0027076665
-0.0041539753 -0.18074283 0.009704497 0.03527639 0.039537583 -0.0012073497 -0.00977456 0.07885675
0.0051840567 -0.065574385 0.0007628161 0.0023561711 0.0018214029 -0.14602013 0.009853879 0.016623886
00000000: d1a6 b9ba 9aeb 99bc 8ed8 a8bb bba6 81ba
00000010: dd66 1d3c 957c a13c ce0e 193c f20e b63b
00000020: 78e9 eabb 29d4 4b3d 5544 063b cceb e1ba
00000030: 5654 77bb 2755 e3bb f0b7 26bb 5df3 ac3c
00000040: 30c2 83be e80d 78ba 1c82 3cbc 8833 33bb
00000050: 49f1 343d a3c1 1d3c 29b0 cdbb ad18 733c
00000060: 5678 933d 3017 10bd 3305 10bc 1c76 13bd
00000070: 76da 91bc 26cd f03c 621b 243c 62cc 94bc
00000080: 42d6 89bc 898b 2c3a e214 4abb 575e 933d
00000090: 0de0 f0bb 2bff 34bd 9e5e 1c3c 037a 8c3d
000000a0: e126 533e e4b9 153c 5524 f0bc 84b5 1e3c
000000b0: f783 33bc 8709 5b3c a50b 23bb dd16 f4bb
000000c0: d1ab cd3c e212 88bc b1ea 0e3d e371 32bc
000000d0: c8d1 ae3b 3bce 213e bc52 db3d 1ec6 1f3b
000000e0: 111a 2fbc 6975 b73c 1468 543d 2c2a 933a
000000f0: 1747 3cba 2032 d0bd 56d0 ec3d cc03 62bb
00000100: f700 33bc 7636 28bc 5b41 18bb 9d6b 46bc
00000110: daab 8f3d 521f 2c3b b954 ecbb 3388 68bc
00000120: 176e 0c3e b159 ddbb 835f f8bb bb8e cdbb
00000130: 8316 f9bb 8869 09bc 29f3 53bc fe1b 273d
00000140: 9b7b b43a 1dc4 75bc 7d53 703b 58bc f33b
00000150: 221d 3a3b 5d6a b1bd 224d 443c 6c4e 51bb
00000160: de29 9bbc 756e 763c f76f 43bb f109 50bd
00000170: 69bf 99bb e8c4 5abc e55f 833c 43b7 9abd
00000180: 7058 583c 3d3a 13bc df42 e13a ac92 2cbc
00000190: 62f3 473b 8b61 9ebd 80b8 0a3c 9bd4 49bc
000001a0: a7c8 24bd 8db8 44bb 2004 4abc 0f0d 13bb
000001b0: a86b e83b d5f5 093c 7f11 18be 9b3f 43bc
000001c0: 36cd b3bb 87d8 fc3b 76b5 be3b 7229 8bbd
000001d0: 7758 52bd 0535 cdbb 621c e13c 5da5 6fbd
000001e0: bf28 babb 2792 273e 52f5 383a 88b2 17bb
000001f0: 07b0 d43c fade afbd 41ef ca3a d606 3d3d
00000200: 66be 963b ba87 74bb 838b 433a b66f 81bc
00000210: 741c 4b3c 60c1 21bb 719b abba 2367 a3ba
00000220: 827a f53c e91f 83bd 0abc 913b 4fac 09bc
00000230: 1e76 243d 38f1 db3a b2bc 473a 040f cc3b
00000240: 276f c1bc 1b1e 36bc 22ca 263b 1148 84ba
00000250: 9d4b 51bc 4a56 14bc 17a4 18be 317e 96bc
00000260: c568 f0bc 32cf 0cbd 9cc1 56bb 7747 233e
00000270: 5efc 16bb 13ac 5cbb b5ec 843b a88a 0bbd
00000280: 64b2 93bb f1ae 3fbc 8dd6 5d3c f205 e4ba
00000290: 08b7 563b d345 cf3c a1c0 ecbb 5ff7 e13c
000002a0: 9c0b 983d 6dd0 8d3b 4fdb 40bd c35e 073c
000002b0: a00d 2e3b 5f0a 803c f034 8f3c 0dd0 b03c
000002c0: 2bab 3cbd 4265 08bc 9d01 5eba 6e7f 4d3c
000002d0: 2ca4 053b 39f9 c9bd 9d86 e0bc f35a 373b
000002e0: f415 51bc 5a9e 933c 1e57 05bc 8e45 7fbb
000002f0: 1921 543c f4ab 0b3d 2987 2abd 4c09 433b
00000300: 3f4e cc3b 4a25 443c 0d55 9339 ecdc 733d
00000310: a115 40bd d30e 663b 86eb 403c 5ea6 d83b
00000320: 1c14 f63d d073 233c 507f cabb c825 5cbb
00000330: 73eb ad3c c777 973b 2527 3bbd eda1 b33d
00000340: 5b17 e63c 017e 2f3b 00a8 bebb 92e1 5b3c
00000350: fe2e 553c 21d3 f03d 84f9 93bb 6e87 1f3c
00000360: df88 053e 334c 8e3c 0efc 54bc 1575 0b3e
00000370: 1558 dfbc c009 d73b 97c0 1dbc ac84 96bc
00000380: d557 aabc f20f d5bb ea8e a03a 3bc6 c3bb
00000390: 4bfe f2bb 5b5f 2fbd 4062 143c 7764 04bb
000003a0: 12f8 6abd 4c39 02bc ede1 2c3c 506e e0ba
000003b0: d883 7abb 9b29 5c3a 5b13 27be 1b73 313b
000003c0: 121e 88bb a614 39be 9cff 1e3c fa7d 103d
000003d0: 29f2 213d ef3f 9eba 7a25 20bc a67f a13d
000003e0: 05df a93b dd4b 86bd b9f7 473a fe69 1a3b
000003f0: 24bc ee3a 4d86 15be 2a72 213c d12e 883c
