AIRocketLanding/Assets/Models/Again 1/1/AIRocket-12999983.onnx (onnx, 84776 bytes, 9 tensors)

action_model._continuous_distribution.log_sigma f4 [1, 2]
0	0xbfeed17b	-1.8657678
1	0xc01a34b0	-2.4094658

action_model._continuous_distribution.mu.bias f4 [2]
0	0xbd2b62d4	-0.041842297
1	0xbbb5e955	-0.005551497

action_model._continuous_distribution.mu.weight f4 [2, 128]
0	0x3d014980	0.031564236
1	0x3c2202f9	0.009888404
2	0x3c924128	0.017853335
3	0xbc0f9021	-0.00876239
4	0xbd5e7918	-0.054314703
5	0x3ade2f8c	0.0016951426
6	0xbc695a27	-0.014242685
7	0x3d0ff1cf	0.035142716
8	0x3ba74d34	0.005105639
9	0x3cfe8311	0.031068357
10	0xbc7e8368	-0.015534259
11	0x3d23ca1e	0.039987676
12	0xbd84adff	-0.064784996
13	0x3c5485f1	0.012971387
14	0x3c4395b2	0.011937546
15	0x3c249775	0.010045876
16	0xbcb12940	-0.021626115
17	0x3ca24d22	0.01981217
18	0x3b2ad005	0.002606393
19	0x3d2c6a3d	0.042093504
20	0x3caba370	0.020951957
21	0x3bc49e48	0.006000314
22	0x3c8b7288	0.017022386
23	0xbc6019c1	-0.013678015
24	0x3bac159f	0.005251601
25	0xbd43f724	-0.047843114
26	0x3cfcb992	0.030850206
27	0x3c6e7194	0.014553446
28	0x3caa665b	0.02080076
29	0xbdce2e54	-0.1006743
30	0xbc7265d2	-0.014794784
31	0xbb84c2cc	-0.004051542
32	0x3d0d9c73	0.03457303
33	0xbb6ffda8	-0.0036619697
34	0x3cb2e641	0.02183831
35	0x3c13c10f	0.009018197
36	0x3d1802da	0.037112094
37	0x3bf74d28	0.0075470395
38	0xbb630b2f	-0.0034644117
39	0x3c8386a7	0.016055418
40	0xbc386235	-0.011253883
41	0xbb6163aa	-0.003439168
42	0x39cd72cc	0.00039186177
43	0xbcf7c0b3	-0.030243253
44	0x3b3d2823	0.0028863035
45	0x3b1e45c1	0.0024150463
46	0x3ca4abcf	0.020101456
47	0xbc84d387	-0.016214145
48	0x3d30acaa	0.043133415
49	0x3baef8ba	0.005339709
50	0x3c6f62c1	0.014610947
51	0x3cd90b23	0.026494568
52	0x3d9af796	0.075667545
53	0x3d874fba	0.066070035
54	0xbbe2c7a1	-0.0069207703
55	0x3d2ba46a	0.041904844
56	0x3cfbbe29	0.030730324
57	0xbc5e8f50	-0.013583973
58	0x3d243c5e	0.040096633
59	0xbbc36b9d	-0.0059637562
60	0xbb147038	-0.0022649895
61	0x3be00ac1	0.0068372195
62	0x3d10c1cf	0.03534108
63	0xbca05a76	-0.019574385
64	0xbe0db80b	-0.13839738
65	0xbcd225ed	-0.02565285
66	0x3b1dfbda	0.0024106414
67	0xbca7d7a7	-0.020488573
68	0xbcad5778	-0.021159872
69	0xbc816946	-0.015797269
70	0x3c1892bc	0.009312328
71	0xbc4a3a98	-0.012343071
72	0x3c3cb626	0.011518037
73	0x3e2d3652	0.16915253
74	0x3d245620	0.040121198
75	0xbb69ad02	-0.00356561
76	0xbc018262	-0.007904621
77	0x3d19734a	0.037463464
78	0xb8b789de	-8.7518e-05
79	0x3acf13e1	0.0015798771
80	0xbd266d08	-0.040631324
81	0x3d3f9c76	0.046780072
82	0x3b713144	0.0036803046
83	0x3c14b3bd	0.009076056
84	0xb9fef2ce	-0.0004862756
85	0xbb89acfd	-0.00420153
86	0xba65194f	-0.0008739428
87	0x3cb37471	0.02190611
88	0xbc1ed24f	-0.009693696
89	0x3a18f263	0.0005834458
90	0xbc49fd1d	-0.012328413
91	0x3c699283	0.0142561225
92	0x3d625f03	0.05526639
93	0x3bd8eedc	0.006620271
94	0xb9da9de1	-0.0004169783
95	0x3c83d699	0.01609354
96	0x3d34d352	0.044146843
97	0x3c1feeb7	0.009761504
98	0xbb9239ad	-0.004462442
99	0xbc9f1c9a	-0.019422818
100	0xbccd3783	-0.025050884
101	0x3cd6e41a	0.026231814
102	0xbd366aca	-0.044535436
103	0x3c1f94db	0.00974008
104	0x3c8bf310	0.017083675
105	0xbd90b706	-0.07066159
106	0xbc98cf2d	-0.018653477
107	0x3dd82614	0.10554138
108	0x3be29e08	0.0069158114
109	0xbcbc727f	-0.023003815
110	0xba3163df	-0.0006766896
111	0x3d8965b8	0.067088544
112	0x3d078eb4	0.033095077
113	0xbc200826	-0.009767568
114	0x3d145f95	0.036223967
115	0xbd9410e2	-0.07229783
116	0x3d8af809	0.0678559
117	0x3bdc792b	0.0067283115
118	0x3c907447	0.01763357
119	0x3c31479f	0.010820298
120	0xbbbaa1a2	-0.0056955377
121	0x3c232efa	0.009959931
122	0x3ccbb517	0.024866624
123	0x3d8ae3b1	0.0678171
124	0x3d3dc336	0.046328746
125	0x3c4c7e77	0.012481323
126	0x3d41d7e6	0.047325037
127	0x3d52f3a6	0.051501893
128	0xbc8292f6	-0.015939217
129	0xbc8abe32	-0.016936395
130	0xbaeef3c4	-0.0018230607
131	0xbb26cce2	-0.002545171
132	0xbcba737e	-0.02276015
133	0x3b8d2dbe	0.0043084314
134	0xbd6627b2	-0.0561902
135	0xbd12571e	-0.035727613
136	0xbc96449a	-0.018343259
137	0xba3f4309	-0.0007296061
138	0xbce37173	-0.027764058
139	0x3c980454	0.018556751
140	0xbcb5cb8c	-0.022191785
141	0xbc1d7b69	-0.009611943
142	0xbd1a2ae0	-0.037638545
143	0xbcfa4610	-0.030550987
144	0xbc4f6db8	-0.012660436
145	0xbcb26c65	-0.021780202
146	0xbb96af02	-0.0045984993
147	0x3c130823	0.008974108
148	0xbc2acb15	-0.010424395
149	0xbba656d6	-0.0050762696
150	0xbc9447a3	-0.018100565
151	0xbca37fd2	-0.01995841
152	0x3921a5c9	0.00015415916
153	0xbd0785fb	-0.033086758
154	0x3b5111fd	0.003190159
155	0xbaafe7e5	-0.001342055
156	0x3d09b6f4	0.033621743
157	0xbd074046	-0.03302028
158	0xbcb5835b	-0.022157362
159	0xbccff543	-0.025385505
160	0x3bdfb7e5	0.006827342
161	0xbcf32980	-0.029682875
162	0x3d41a199	0.047273252
163	0xbcd6dd34	-0.026228525
164	0xbaef6c77	-0.0018266578
165	0xbd04d272	-0.03242726
166	0x3b21ed62	0.0024708142
167	0xbccc49dc	-0.024937563
168	0xbc60f93f	-0.0137313
169	0xbbb8bdb6	-0.0056378497
170	0x3c81dbea	0.015851934
171	0x3d1b5c74	0.037929967
172	0xbb12d5a8	-0.002240518
173	0x3a9a50f4	0.0011773393
174	0xbd6cd6ab	-0.05782191
175	0x3c33649a	0.010949278
176	0x3bd7aa7d	0.006581603
177	0xbcf21eee	-0.029555764
178	0x3c6de7d2	0.014520602
179	0xbcda6312	-0.026658569
180	0xbb45429b	-0.0030099514
181	0xbd642276	-0.055696927
182	0x3c24e0b5	0.01006334
183	0xbceb07ab	-0.02869018
184	0xbb643453	-0.0034821227
185	0xbb45c1c6	-0.0030175312
186	0xbb19cf17	-0.0023469382
187	0xbd2f284c	-0.04276304
188	0xbd1c9f34	-0.038237765
189	0x3a6268b3	0.0008636817
190	0xbd6abce6	-0.057309054
191	0xbbf61e2a	-0.00751092
192	0xbdc0121b	-0.09378453
193	0xbc5c995a	-0.013464296
194	0x3b66492b	0.0035138826
195	0xbbff88c6	-0.007798287
196	0x3c9d549a	0.01920538
197	0x3ab47b2d	0.0013769619
198	0xbd9d5261	-0.07681728
199	0xbd119623	-0.035543572
200	0xbd01726b	-0.031603258
201	0xbe0d8a38	-0.13822258
202	0xbabb999d	-0.0014312748
203	0xbce1a1b5	-0.027542928
204	0xbd97120d	-0.0737649
205	0x3c2b04e5	0.010438179
206	0xbca2caca	-0.019872088
207	0xb9e43727	-0.0004352864
208	0x3d13eef2	0.036116548
209	0xbd09b514	-0.033619955
210	0x3a5e3575	0.00084765936
211	0xbc56ddfb	-0.013114448
212	0xbcf1c758	-0.029514
213	0x3d57c0eb	0.052674215
214	0xba2ecd0b	-0.0006668127
215	0xbab07dec	-0.0013465262
216	0xbbdcc353	-0.0067371516
217	0xb9fbb48d	-0.00048008971
218	0xbd4992d1	-0.04921228
219	0xbcc848df	-0.02444881
220	0x3c0d14ae	0.008610887
221	0xbcc06441	-0.023485305
222	0xbcbaa068	-0.022781566
223	0xbc76547b	-0.01503479
224	0xbc5ec037	-0.013595632
225	0xbbc057ec	-0.005869856
226	0xbb7d43fd	-0.003864526
227	0x3d54678a	0.051856555
228	0xbccf7930	-0.025326341
229	0xbd45965c	-0.048239097
230	0xbd5f7fe1	-0.054565314
231	0xbb6f28ad	-0.003649275
232	0x3cb2bbc3	0.021818047
233	0xbcf35b34	-0.029706575
234	0xbaf814df	-0.0018927119
235	0xbcc756c8	-0.024333373
236	0xb9b53227	-0.00034560377
237	0xbce98e53	-0.028510248
238	0xbd2e7bac	-0.04259841
239	0x3c9c9644	0.019114621
240	0xbc466cab	-0.012110869
241	0xbaff3c62	-0.0019472952
242	0x3c5c3cc2	0.01344222
243	0xbc869488	-0.016428247
244	0xba2196c8	-0.0006164131
245	0xba9af627	-0.0011822627
246	0x3c8b6d0b	0.01701977
247	0x3c86b79c	0.016444974
248	0xbc00115e	-0.007816641
249	0x3cbdcd73	0.023169255
250	0x3b343fcc	0.0027503846
251	0xbd4e5002	-0.05036927
252	0x3bc8b56b	0.0061251423
253	0xbc9a4d95	-0.018835822
254	0x3c8eb033	0.017418003
255	0xbcd42585	-0.025896797

action_model._discrete_distribution.branches.0.bias f4 [2]
0	0xbeb2d556	-0.34928387
1	0x3eb2d561	0.3492842

action_model._discrete_distribution.branches.0.weight f4 [2, 128]
0	0x3e6e4791	0.23269488
1	0x3e397802	0.18112186
2	0xbe250ccf	-0.16118167
3	0xbadeb0fa	-0.0016989999
4	0xbe403d86	-0.1877347
5	0x3e6325db	0.2218241
6	0xbde9fcc8	-0.11425167
7	0x3dc21482	0.09476568
8	0x3c330baa	0.010928074
9	0x3d86eca5	0.06588105
10	0x3de9c73c	0.11414954
11	0x3d6525a0	0.055944085
12	0x3e1b9ff6	0.15197739
13	0x3e4380e1	0.19092132
14	0xbc90a9ef	-0.017659156
15	0xbeb922a0	-0.3615923
16	0x3cb42f4b	0.021995207
17	0x3ebdc2f9	0.37062815
18	0x3eae49a0	0.34040546
19	0x3d7b1e9b	0.061308485
20	0x3e14b761	0.14523079
21	0x3b391933	0.002824378
22	0xbd84b636	-0.064800665
23	0x3cfd3ea0	0.030913651
24	0x3e071f04	0.13195425
25	0xbc0ccefa	-0.008594269
26	0x3e0a2216	0.13489565
27	0x3e52eb44	0.20597559
28	0x3cee7225	0.029107163
29	0x3e0c8f84	0.13726622
30	0x3d3d0842	0.046150453
31	0x3d89e0b6	0.06732313
32	0x3e765d64	0.24059063
33	0xbdd5a40f	-0.10431682
34	0x3e76b7af	0.24093507
35	0x3e291b42	0.16514304
36	0x3e1af97f	0.15134238
37	0xbd6ebb30	-0.058283985
38	0x3e402372	0.18763521
39	0xbed66668	-0.41875005
40	0xbb90d9eb	-0.004420509
41	0x3cbb6033	0.02287302
42	0xbcc534bc	-0.024072997
43	0x3c4e069c	0.012574818
44	0x3ec33ec0	0.38133812
45	0x3d0df372	0.034655996
46	0x3dabb83e	0.08384751
47	0xbb144159	-0.0022621958
48	0x3e8b349d	0.27188578
49	0x3ddd4c50	0.10805571
50	0xbbf77ef0	-0.007552974
51	0x3d878a07	0.066181235
52	0x3e225eb1	0.15856434
53	0x3de20ff7	0.11038201
54	0x3e615677	0.2200564
55	0x3e419555	0.18904622
56	0x3ec9416b	0.39307722
57	0xbd07f175	-0.033189256
58	0x3e33916e	0.17535946
59	0xbe66dffd	-0.22546382
60	0x3e194913	0.14969282
61	0xbd8443f2	-0.06458272
62	0xbda0bcfe	-0.078485474
63	0xbced6419	-0.028978394
64	0x3ddae183	0.10687544
65	0x3cb2ed7b	0.021841755
66	0x3ea7a048	0.32739472
67	0x3e184106	0.14868554
68	0xbe0b2344	-0.13587672
69	0xbd5ec222	-0.05438436
70	0xbd11418d	-0.035462905
71	0xbd441666	-0.047872923
72	0x3e11449b	0.14186327
73	0x3e06c174	0.13159734
74	0x3ebf988c	0.37421072
75	0xbe2621a0	-0.16223764
76	0xbbbbe457	-0.0057340073
77	0x3d49de8f	0.049284514
78	0x3e2609bd	0.16214652
79	0xbdab99cd	-0.083789445
80	0x3e05c5d2	0.13063744
81	0x3e248c49	0.1606914
82	0xbce432a7	-0.027856184
83	0x3e066fc6	0.13128576
84	0xbe8bf513	-0.27335414
85	0x3d33efe9	0.043929968
86	0xbd0c90ae	-0.034317665
87	0x3ec636cf	0.3871369
88	0x3de73198	0.11288756
89	0xbc35ba8e	-0.011091841
90	0x3eeb47bd	0.4595317
91	0xbcb45b79	-0.022016274
92	0x3eeb0ade	0.45906729
93	0x3e584f80	0.21124077
94	0xbbdaecdc	-0.006681068
95	0x3e40263c	0.18764585
96	0x3e465482	0.19368175
97	0x3e248304	0.16065603
98	0x3e84f9af	0.25971743
99	0x3e77a732	0.24184874
100	0x3d12e1af	0.03585976
101	0xbd53ae9a	-0.051680185
102	0x3e33a81f	0.17544602
103	0xbe903f3b	-0.2817324
104	0x3ec3529f	0.38148972
105	0x3e168b28	0.14701521
106	0x3d8bf816	0.06834428
107	0x3db4f35d	0.0883548
108	0x3c050793	0.008119482
109	0x3cbd3596	0.02309684
110	0xbdfc7a1d	-0.12327979
111	0x3dd41531	0.103556044
112	0x3e062082	0.13098338
113	0x3d83dc3a	0.06438489
114	0x3e82cede	0.25548452
115	0x3d1cb891	0.038261954
116	0x3e5082a5	0.20362337
117	0xbd249839	-0.040184233
118	0x3ea60e6d	0.3243288
119	0xbd94eebf	-0.072721
120	0x3eaf31db	0.34217724
121	0x3eb5a2c8	0.35475755
122	0x3e58bff4	0.21166974
123	0x3de3392e	0.110948905
124	0x3eafcc0e	0.3433537
125	0x3e63f928	0.22263014
126	0x3e5bd4d2	0.21467903
127	0x3dc3f2c8	0.09567791
128	0xbe6c8522	-0.23097661
129	0xbe38221b	-0.1798176
130	0x3e1e8674	0.15480977
131	0x3aba76f2	0.0014226122
132	0x3e38efd1	0.18060233
133	0xbe5b1658	-0.21395242
134	0x3dc4ef27	0.09615927
135	0xbde2ea00	-0.11079788
136	0xbc57e8cd	-0.013178063
137	0xbd93d564	-0.072184354
138	0xbdce3e5a	-0.10070486
139	0xbd7f21a2	-0.062287934
140	0xbe1d557a	-0.15364638
141	0xbe3b866c	-0.18312997
142	0x3a375eb3	0.0006995007
143	0x3eb3ea03	0.35139474
144	0xbc7802a6	-0.01513735
145	0xbeb5497b	-0.35407624
146	0xbeba851a	-0.36429673
147	0xbd767365	-0.060168643
148	0xbe28e417	-0.1649326
149	0xbb8a9c05	-0.0042300248
150	0x3d80c426	0.06287412
151	0xbce5ec7d	-0.028066868
152	0xbde60970	-0.11232269
153	0x3cd81718	0.0263782
154	0xbe0d9611	-0.13826777
155	0xbe4959fa	-0.1966323
156	0xbd06f799	-0.03295097
157	0xbe0d19e5	-0.13779409
158	0xbd215392	-0.03938634
159	0xbd6fc270	-0.05853504
160	0xbe6fd75a	-0.23421994
161	0x3db7bb0b	0.089712225
162	0xbe743738	-0.2384919
163	0xbe320bc7	-0.17387305
164	0xbe265cc5	-0.16246326
165	0x3d59101b	0.052993875
166	0xbe3accff	-0.18242262
167	0x3edb9a1e	0.4289102
168	0xbbf3ab16	-0.0074361665
169	0xbc0da8d4	-0.008646209
170	0x3cdbded7	0.026839657
171	0xbc3547d3	-0.0110644875
172	0xbec86cd5	-0.39145532
173	0xbceb867d	-0.028750652
174	0xbddc19f9	-0.107471414
175	0xbc1c7e62	-0.009551616
176	0xbe8d7b54	-0.27633154
177	0xbdb9877d	-0.090590455
178	0x3c6fc55b	0.014634456
179	0xbd7e0f55	-0.06202634
180	0xbe2f1c68	-0.1710068
181	0xbde8575d	-0.11344788
182	0xbe543bd2	-0.20725945
183	0xbe57fd50	-0.21092725
184	0xbece7473	-0.4032322
185	0x3d02d524	0.031941548
186	0xbe216828	-0.15762389
187	0x3e512368	0.20423663
188	0xbe28db6c	-0.16489953
189	0x3d480535	0.04883309
190	0x3d9da1f3	0.07696905
191	0x3d0cfaf9	0.034419034
192	0xbdc7742d	-0.09738956
193	0xbc9dc98d	-0.019261146
194	0xbea4f1b3	-0.32215652
195	0xbe1ed4b5	-0.15510829
196	0x3e0f474f	0.13992046
197	0x3d49b8de	0.04924857
198	0x3d166a17	0.03672227
199	0x3d854f44	0.06509259
200	0xbe1d73dc	-0.15376228
201	0xbe18e12d	-0.14929648
202	0xbec06ccf	-0.37583014
203	0x3e1ef542	0.15523246
204	0x3ba43e22	0.0050122896
205	0xbd472bb2	-0.048625655
206	0xbe2ca54f	-0.16859935
207	0x3da8440e	0.082161054
208	0xbe045198	-0.1292175
209	0xbe1a2fc0	-0.15057278
210	0x3ca2e07b	0.019882431
211	0xbe070692	-0.131861
212	0x3e8f2fd1	0.2796617
213	0xbc9ae792	-0.01890925
214	0x3cbce249	0.02305712
215	0xbecf88ee	-0.40534157
216	0xbdd0c4ac	-0.10193762
217	0x3accff2c	0.0015640012
218	0xbee6fa31	-0.45112756
219	0x3d0b3b05	0.033991832
220	0xbeebb554	-0.4603678
221	0xbe6e954a	-0.23299137
222	0xbc32807c	-0.010894891
223	0xbe2fb5ee	-0.17159244
224	0xbe4528d0	-0.1925385
225	0xbe060add	-0.13090082
226	0xbe777227	-0.2416464
227	0xbe7f49ee	-0.24930546
228	0xbd40d5e3	-0.04707898
229	0x3d611571	0.05495209
230	0xbe29bf2b	-0.16576831
231	0x3e8797d9	0.26483038
232	0xbeb835dc	-0.3597859
233	0xbe28d06d	-0.16485758
234	0xbd96f08f	-0.07370102
235	0xbdbe6e09	-0.09298331
236	0xbc3e21ba	-0.011604721
237	0xbc9c3951	-0.0190703
238	0x3dcb756b	0.09934505
239	0xbdeea861	-0.116532095
240	0xbe160b79	-0.14652814
241	0xbd5e0c1d	-0.05421077
242	0xbe819108	-0.25305963
243	0xbd211c48	-0.03933361
244	0xbe5103a8	-0.20411551
245	0x3d1ade0c	0.037809417
246	0xbea90f18	-0.33019328
247	0x3db7054a	0.08936556
248	0xbeb184fe	-0.34671777
249	0xbeae7e96	-0.34080952
250	0xbe4a4c59	-0.19755687
251	0xbdc99893	-0.09843554
252	0xbeafff10	-0.34374285
253	0xbe56e7d0	-0.20986867
254	0xbe566d6d	-0.2094018
255	0xbe04090f	-0.1289408

network_body._body_endoder.seq_layers.0.bias f4 [128]
0	0x3db86216	0.090030834
1	0xbd74b2c7	-0.059740808
2	0x3c457f48	0.012054272
3	0xbdb59461	-0.08866192
4	0x3d523c15	0.05132683
5	0xbda4503d	-0.08023117
6	0xbd5622dd	-0.052279342
7	0xbc37d399	-0.011219882
8	0xbd86f390	-0.065894246
9	0xbb6ae79c	-0.0035843616
10	0xbe2bc362	-0.16773751
11	0x3d57f20f	0.05272108
12	0xbea96800	-0.33087158
13	0xbdd0e8bc	-0.102006406
14	0x3ca561c3	0.020188218
15	0xbe89384d	-0.26800767
16	0xbe4202da	-0.189464
17	0xbdb6116e	-0.08890043
18	0x3ca87988	0.020565763
19	0x3d1e7882	0.038689144
20	0xbb00937f	-0.0019619165
21	0x3b0483ef	0.002022024
22	0xbc0023e7	-0.00782106
23	0xbcd97aba	-0.026547778
24	0xbdb11ce9	-0.08648092
25	0xbb73bb96	-0.0037190667
26	0x3d848bfa	0.06472011
27	0x3cac5945	0.02103866
28	0xbd574988	-0.05256036
29	0xbe6da108	-0.2320596
30	0xbe1d4442	-0.1535807
31	0x3d849c0d	0.06475077
32	0xbdf699b0	-0.12041032
33	0xbd7c4ad0	-0.061594784
34	0xbd2d3fc0	-0.042297125
35	0x3a04d556	0.000506719
36	0xbdb432c0	-0.08798742
37	0x3b5bbd54	0.0033529596
38	0x3c63995c	0.013891544
39	0x3db04019	0.08605976
40	0x3d0a93fc	0.033832535
41	0xbe3be318	-0.18348348
42	0xbe5717b3	-0.21005134
43	0xbe6554bc	-0.22395605
44	0xbe34a85a	-0.17642346
45	0xbe434354	-0.19068652
46	0xbe40ed71	-0.18840577
47	0xbbd6b7d8	-0.0065526776
48	0xbd5fcc57	-0.054638233
49	0x3da76c85	0.08174995
50	0xbe198729	-0.14992966
51	0xbdc37670	-0.095440745
52	0xbcaf73bc	-0.021417491
53	0xbe01fe1a	-0.12694588
54	0x3ca62014	0.020278968
55	0x3d7dbe5d	0.061949123
56	0xbda82669	-0.08210451
57	0x3dcb1970	0.09916961
58	0xbe09ca01	-0.13455965
59	0x3d2d9a38	0.042383403
60	0x3cc278be	0.023739215
61	0xbd898887	-0.06715494
62	0xbe3be83a	-0.18350306
63	0xbd877d7d	-0.06615732
64	0xbdce248b	-0.10065564
65	0xbe1aa267	-0.15101014
66	0xbd47d131	-0.048783485
67	0xbda3719e	-0.07980655
68	0x3d84b1fc	0.0647926
69	0xbe48a23e	-0.1959314
70	0xbd62298d	-0.055215407
71	0xbe28bb10	-0.16477609
72	0x3d7799b0	0.060449302
73	0xbd6f4ca3	-0.058422696
74	0x3d2e1214	0.04249771
75	0x3d1cd835	0.03829213
76	0xbd9feff9	-0.07809443
77	0xbddc6a2a	-0.10762437
78	0x3dcf9118	0.10135096
79	0x3cf5173b	0.029918304
80	0x3c889a96	0.016675275
81	0xbd978470	-0.07398307
82	0xbd9c8f5b	-0.076445304
83	0x3e020812	0.12698391
84	0xbe11ebbf	-0.14250086
85	0x3ccf4661	0.025302114
86	0x3d8f6531	0.070017226
87	0xbd851b2f	-0.064993255
88	0x3cb9d4f3	0.02268455
89	0x3da84669	0.08216555
90	0x3d920c4c	0.07131252
91	0x3c515b8f	0.012778177
92	0xbbfa56fa	-0.007639763
93	0xbc070948	-0.008241959
94	0xbeaf7904	-0.34272015
95	0xbd8ed26a	-0.06973727
96	0x3d160c9a	0.03663311
97	0xbddb0862	-0.10694958
98	0x3d892714	0.06696907
99	0x3dc79545	0.09745268
100	0xbe86d1ab	-0.2633184
101	0xbe565e07	-0.20934306
102	0xbd47c20c	-0.048769042
103	0x3db64840	0.08900499
104	0xbb7c1952	-0.003846724
105	0xbd4e06fe	-0.050299637
106	0x3ca6ace4	0.020346113
107	0xbd944cbb	-0.07241198
108	0x3d252fdd	0.04032885
109	0x3da4b02f	0.08041417
110	0xbe39f01c	-0.18158
111	0x3d05546a	0.032551207
112	0x3cc03226	0.023461413
113	0xbea889ca	-0.32917625
114	0x3dd526ab	0.10407766
115	0xbd9b0347	-0.075689845
116	0xbdfcac97	-0.123376064
117	0x3e029cb8	0.12755096
118	0xbe08ce9d	-0.13360067
119	0x3d9d13c1	0.076697834
120	0xbd910d8b	-0.07082661
121	0xbd09bc55	-0.033626873
122	0xbcadca77	-0.021214707
123	0x3dc030e7	0.093843274
124	0x3e01e8ee	0.12686512
125	0x3e280007	0.1640626
126	0x3e1b47e7	0.15164147
127	0xbddcd9a9	-0.10783703

network_body._body_endoder.seq_layers.0.weight f4 [128, 26]
0	0x3d40825d	0.046999324
1	0xbebbaebf	-0.36656758
2	0xbf029c86	-0.51020086
3	0x3ec06e4d	0.37584153
4	0x3e0c83b5	0.13722117
5	0x3e8860b0	0.26636267
6	0xbd8964bf	-0.06708669
7	0xbe3cc62e	-0.18434975
8	0x3eafde88	0.34349465
9	0x3ee4c064	0.44678032
10	0x3e77e9b6	0.24210247
11	0xbc00afe3	-0.007854435
12	0x3de79e67	0.1130951
13	0x3e85ad61	0.2610884
14	0xbe8cf9be	-0.27534288
15	0xbec97d3a	-0.39353353
16	0x3b97a352	0.0046276236
17	0xbe1075ad	-0.1410739
18	0x3df1625c	0.11786339
19	0xbdb95f02	-0.090513244
20	0x3d4acb96	0.04951056
21	0xbe11a031	-0.14221264
22	0xbd799551	-0.060933415
23	0x3e58b268	0.21161807
24	0x3d48e56f	0.04904693
25	0x3da65dc7	0.08123355
26	0x3e6f5881	0.23373605
27	0xbef1f047	-0.4725363
28	0xbeb25fb4	-0.3483864
29	0xbe2a0f19	-0.16607322
30	0xbdb189c4	-0.08668855
31	0x3ebcd65a	0.36882287
32	0xbeaa4a0d	-0.3325962
33	0x3e37eb5b	0.17960875
34	0x3e49d673	0.19710712
35	0x3eb6d41a	0.35708696
36	0xbee4b6bf	-0.44670674
37	0x3d8b9b74	0.0681676
38	0x3eba501e	0.3638925
39	0x3da34f4d	0.0797411
40	0xbd744006	-0.05963137
41	0xbef3b760	-0.47600842
42	0xbe96835e	-0.293971
43	0x3e4fb32a	0.2028319
44	0xbdf73ea0	-0.12072492
45	0xbe3bf7c5	-0.18356235
46	0xbe527b88	-0.20554936
47	0xbd23507b	-0.039871674
48	0xbead2388	-0.3381617
49	0xbd63d56f	-0.055623468
50	0xbc5c867c	-0.013459798
51	0xbe0cb9ae	-0.13742706
52	0xbe56ea53	-0.20987825
53	0xbf1daf04	-0.6159518
54	0xbec7da89	-0.39033917
55	0x3dddc4f6	0.10828583
56	0xbe90a85f	-0.28253457
57	0x3c35aaf1	0.011088119
58	0xbe90f3ad	-0.2831091
59	0xbda86bb7	-0.0822367
60	0x3d56bdab	0.052426975
61	0x3c9fb7a9	0.019496756
62	0xbddd58cb	-0.108079515
63	0xbe44bab8	-0.19211853
64	0xbd94ff39	-0.07275242
65	0x3d66537b	0.056231957
66	0xbe668a4c	-0.22513694
67	0xbe25707e	-0.16156194
68	0x3d04e7c5	0.032447595
69	0x3dde32c4	0.108495265
70	0xbe810632	-0.2520004
71	0xbe2391a2	-0.15973523
72	0x3da768c6	0.08174281
73	0xbe976f90	-0.29577303
74	0x3eb229df	0.3479757
75	0xbe7ff6a5	-0.24996431
76	0x3e39ff13	0.1816371
77	0xbd375ed5	-0.044768173
78	0xbbb56820	-0.0055360943
79	0x3e9e522d	0.3092207
80	0x3f29e165	0.6635955
81	0xbc2e4d9f	-0.0106386235
82	0xbee9fd21	-0.45700935
83	0x3d8407bb	0.06446787
84	0xbe4aa867	-0.19790803
85	0xbe14f5cf	-0.14546894
86	0x3e2c82bf	0.1684675
87	0x3e0b69cb	0.13614576
88	0x3d965b11	0.07341588
89	0xbe12def0	-0.14342856
90	0x3edbd248	0.4293387
91	0xbec735f1	-0.38908342
92	0x3f279c71	0.65473086
93	0x3ee39494	0.44449294
94	0x3b681122	0.0035410603
95	0xbe1bc398	-0.15211332
96	0xbc5e0ea3	-0.013553294
97	0x3eeb5c51	0.4596887
98	0x3e87283b	0.2639788
99	0xbe0b2b0b	-0.13590638
100	0xbe04ae48	-0.12957108
101	0x3cd388cf	0.025822071
102	0x3debfce4	0.115228444
103	0xbd727f3c	-0.05920337
104	0x3e97e240	0.29664803
105	0x3c263b32	0.010145949
106	0x3d3c0188	0.045899898
107	0x3de42e6d	0.111416675
108	0x3d98c0a0	0.07458615
109	0x3d57313f	0.0525372
110	0xbe1d90ad	-0.1538722
111	0x3d003bdf	0.031307098
112	0x3e439c13	0.19102506
113	0xbd7bda92	-0.06148774
114	0x3e9b8eda	0.30382425
115	0x3eb6d6b0	0.3571067
116	0xbde961a2	-0.11395575
117	0xbe80720a	-0.25087005
118	0xbde07edd	-0.10961697
119	0xbece6838	-0.40313888
120	0xbe55e496	-0.2088798
121	0xbe0eabda	-0.13932744
122	0x3ac28227	0.0014839814
123	0xbe87d3dd	-0.26528826
124	0xbdcd3377	-0.10019582
125	0xbe950cb2	-0.29111248
126	0xbe7ee736	-0.24892887
127	0x3ec2a1ac	0.3801397
128	0x3e12b34e	0.14326212
129	0xbf056bb1	-0.5211745
130	0xbe0360a1	-0.1282983
131	0x3e2f2e23	0.17107444
132	0x3d0f492b	0.034981888
133	0xbec1330f	-0.37734267
134	0xbe7643cb	-0.24049298
135	0x3e171c5e	0.14756915
136	0x3edc79b1	0.43061593
137	0xbc4f6219	-0.012657666
138	0xbd5cb663	-0.053884875
139	0x3d9bfe26	0.07616834
140	0xbeb24d03	-0.3482438
141	0xbd50dab3	-0.050989818
142	0x3d0ce274	0.03439565
143	0x3e849c94	0.2590071
144	0xbd8725f2	-0.06599034
145	0xbd2b49c8	-0.04181841
146	0xbd8e0388	-0.06934267
147	0xbe38d91c	-0.1805157
148	0x3e855ec6	0.2604887
149	0xbe40af74	-0.1881693
150	0x3b7eeb1b	0.0038897458
151	0xbc1ff25b	-0.009762372
152	0xbe036c6c	-0.12834328
153	0xbe73994f	-0.23788951
154	0xbed6bcb6	-0.4194085
155	0xbe5be46b	-0.21473853
156	0x3e009689	0.12557425
157	0xbeca2daa	-0.39487964
158	0xbdaf281f	-0.08552574
159	0x3e154ba7	0.1457964
160	0xbdaa8140	-0.08325434
161	0xbdb73a64	-0.08946684
162	0x3dfed721	0.12443376
163	0x3db5debc	0.08880374
164	0x3d9f1017	0.07766741
165	0xbe472e28	-0.19451201
166	0xbe6b283e	-0.2296457
167	0xbe7f9ab7	-0.24961363
168	0x3e57cae2	0.21073487
169	0x3c163247	0.0091672605
170	0x3d3bf077	0.045883622
171	0xbe60cccc	-0.21953124
172	0xbe65d160	-0.22443151
173	0x3e1df4dc	0.15425438
174	0xbc840096	-0.01611356
175	0xbe9bd23c	-0.30433834
176	0x3dacf9dd	0.08446095
177	0x3e5320ec	0.20618027
178	0xbe04e74f	-0.12978862
179	0xbeb62ae3	-0.35579595
180	0x3eba8a4f	0.36433646
181	0x3e347c07	0.17625438
182	0x3dc85096	0.097809955
183	0xbdefab15	-0.11702553
184	0xbf3000a0	-0.68750954
185	0x3e392b67	0.18082963
186	0x3dd2ba88	0.10289484
187	0x3d844559	0.064585395
188	0xbe80bf62	-0.25146013
189	0x3d20e5bc	0.03928159
190	0xbc980ec3	-0.018561726
191	0x3e6698f2	0.22519282
192	0xbd7444f4	-0.05963607
193	0x3d023bf0	0.031795442
194	0x3e7f7f60	0.24950933
195	0xbda5fe99	-0.08105201
196	0xbe92e832	-0.28692776
197	0xbf0a5db4	-0.5404923
198	0x3d402915	0.04691418
199	0x3e1e4bca	0.15458599
200	0x3e88be0b	0.2670749
201	0xbd943854	-0.07237306
202	0xbe376aec	-0.17911881
203	0xbc99eeb7	-0.018790586
204	0xbc333f13	-0.010940331
205	0x3ee2907c	0.44250858
206	0x3d06adad	0.032880474
207	0xbd8ae521	-0.06781984
208	0xbe7b8712	-0.24563244
209	0x3f5464b6	0.8296617
210	0x3f19296d	0.59828836
211	0xbe6a0c26	-0.22856197
212	0x3daeba2b	0.085316025
213	0x3e5bb453	0.21455507
214	0xbde6a015	-0.11261002
215	0x3c44c3a2	0.012009533
216	0x3ece9a52	0.40352112
217	0xbd87069b	-0.06593057
218	0x3e7d443c	0.2473306
219	0x3cdf1e73	0.027236199
220	0x3e5bd666	0.21468505
221	0xbee97ca5	-0.4560291
222	0x3e082887	0.1329671
223	0x3e8eba76	0.27876633
224	0xbd84d6b2	-0.064862624
225	0x3d9f4d64	0.07778433
226	0xbd8f2c6a	-0.06990893
227	0xbd880453	-0.0664145
228	0x3d6f376a	0.058402456
229	0x3eba6cf6	0.36411256
230	0xbd4c6922	-0.04990495
231	0xbd7de784	-0.06198837
232	0xbd065195	-0.032792646
233	0x3e30781a	0.17233315
234	0xbb4ec15f	-0.0031548364
235	0xbe656f33	-0.224057
236	0xbe35330e	-0.17695257
237	0xbe79de76	-0.24401268
238	0xbe7c6f76	-0.24651894
239	0x3ea2ec71	0.31821015
240	0x3d213e18	0.039365858
241	0xbe04a19b	-0.12952273
242	0x3dab2a61	0.083576925
243	0x3dda5972	0.106615916
244	0x3e956276	0.29176682
245	0x3eb6178c	0.3556484
246	0xbeceebb1	-0.40414193
247	0x3eb436c1	0.35198024
248	0x3da81efa	0.08209033
249	0xbe1fe777	-0.1561564
250	0x3e109a45	0.14121349
251	0x3e5419f7	0.2071303
252	0xbdfe6cbe	-0.12423085
253	0xbd9c3f69	-0.07629282
254	0xbeaa5fd5	-0.3327624
255	0x3e483f3a	0.19555369

network_body._body_endoder.seq_layers.2.bias f4 [128]
0	0x3ccea67f	0.025225876
1	0xbeb6fb00	-0.35738373
2	0xbe71eab0	-0.23624682
3	0xbe075c11	-0.13218714
4	0xbd64e4d7	-0.0558823
5	0xbd5fc1e1	-0.054628257
6	0xbe790a91	-0.24320437
7	0xbe822c06	-0.25424212
8	0xbe510a07	-0.20413981
9	0xbd980457	-0.07422703
10	0xbce6eef9	-0.028190123
11	0xbddc23af	-0.107489936
12	0xbbad8223	-0.0052950545
13	0x3d387f4b	0.04504327
14	0xbe9f78c0	-0.31146812
15	0xbe66ff44	-0.22558314
16	0xbd944838	-0.07240337
17	0xbe4d8b27	-0.20072614
18	0xbe751293	-0.23932867
19	0xbe2f5f31	-0.17126156
20	0xbe4ecdc1	-0.20195676
21	0xbcdf94c6	-0.02729262
22	0xbe965dc1	-0.29368404
23	0xbde34edc	-0.110990256
24	0x3d0f64a0	0.035008073
25	0x3d0f4a18	0.03498277
26	0xbe8330e2	-0.25623232
27	0xbd1b3a2f	-0.037897285
28	0xbd571958	-0.052514404
29	0xbdc7d92f	-0.09758221
30	0xbca29c88	-0.01985003
31	0xbdd2f9a7	-0.10301524
32	0xbe40e983	-0.18839078
33	0xbe8cbfb2	-0.27490002
34	0xbd7d183a	-0.061790682
35	0xbea15274	-0.3150822
36	0xbe6a9201	-0.22907259
37	0xbeaf4151	-0.3422952
38	0x3dc8dbd6	0.098075554
39	0xbd960be1	-0.073264845
40	0xbd33a389	-0.04385713
41	0xbd0747f6	-0.03302761
42	0xbd8ad57e	-0.06779002
43	0xbc589b9b	-0.013220693
44	0x3d85e040	0.06536913
45	0xbcd2f1f1	-0.025750132
46	0xbe763394	-0.24043113
47	0xbdca79f4	-0.09886542
48	0xbdf23631	-0.118267424
49	0xbea2ef33	-0.3182312
50	0xbdcba73f	-0.09944009
51	0xbe8b76b6	-0.27239007
52	0xbdb9232b	-0.09039911
53	0xbe5528e9	-0.20816387
54	0x3bae4a7e	0.0053189388
55	0xbe486b08	-0.19572079
56	0x3c437836	0.011930516
57	0x3d70a272	0.05874867
58	0x3d766840	0.060158014
59	0xbe75b9dd	-0.23996682
60	0x3c3eacf2	0.011637913
61	0xbd4f9eca	-0.050688542
62	0xbe3aa288	-0.18226063
63	0xbd9ee9bd	-0.07759426
64	0xbdf216a9	-0.11820728
65	0x3c4004ff	0.011719941
66	0xbe17dbc7	-0.14829932
67	0x3c968e2d	0.018378342
68	0xbd95df6f	-0.07318007
69	0xbd7901e4	-0.06079282
70	0xbdd1cfa2	-0.10244681
71	0xbec05e48	-0.3757193
72	0xbe94b3c3	-0.29043397
73	0xbde98b85	-0.11403564
74	0xbe70504a	-0.23468128
75	0xbe5d5181	-0.21613123
76	0xbde231de	-0.11044668
77	0xbe697cd6	-0.22801527
78	0x3d054e9a	0.032545663
79	0xbd2a693e	-0.041604273
80	0xbb39da8d	-0.0028359026
81	0xbe6ba9fe	-0.23014066
82	0xbdeba51e	-0.11506103
83	0xbe6fb8b4	-0.23410302
84	0xbe1e09fc	-0.15433496
85	0x3d64fa9e	0.05590307
86	0xbdd4ef32	-0.103971854
87	0x3d54a1d2	0.051912136
88	0xbd89459b	-0.06702729
89	0xbd315f37	-0.043303695
90	0xbde2f143	-0.11081173
91	0xbe96deab	-0.29466757
92	0xbcc47857	-0.023983164
93	0xbda197b1	-0.07890261
94	0xbdb64e23	-0.08901622
95	0xbdb728e1	-0.08943344
96	0xbd18e83f	-0.037330862
97	0xbeae180e	-0.34002727
98	0x3cca6a24	0.024708815
99	0x3da38cb5	0.07985822
100	0xbd5b831e	-0.05359184
101	0xbe4623db	-0.19349615
102	0xbe067cc2	-0.13133529
103	0xbe5b8e39	-0.21440972
104	0xbd4ab13d	-0.049485434
105	0xbdc89d63	-0.09795644
106	0xbd0764cb	-0.033055108
107	0xbcbecfde	-0.023292478
108	0xbe0ab9f8	-0.13547504
109	0xbe02c6b2	-0.12771109
110	0xbe58ec7c	-0.21183962
111	0xbd9305a3	-0.071788095
112	0xbe044b4d	-0.1291935
113	0xbdf6acac	-0.12044653
114	0xbe1da4aa	-0.15394846
115	0xbdafac15	-0.08577744
116	0xbdd9d8e7	-0.10637074
117	0xbdb24b67	-0.08705788
118	0x3d651dd6	0.055936657
119	0xbd890fa7	-0.066924386
120	0x3dd27acb	0.10277327
121	0x3d0c1047	0.03419521
122	0xbe1ee4dc	-0.1551699
123	0xbe27e242	-0.16394904
124	0xbc8da27f	-0.017289398
125	0x3d899e37	0.0671963
126	0xbd5448e1	-0.051827315
127	0xbe450da0	-0.19243479

network_body._body_endoder.seq_layers.2.weight f4 [128, 128]
0	0xbd24a2d8	-0.040194362
1	0x3e108702	0.14114001
2	0xbb5891a5	-0.0033045795
3	0xbd554786	-0.052070163
4	0xbe1e2f92	-0.15447834
5	0x3da2dd18	0.079523265
6	0x3db068b7	0.08613723
7	0x3d7824cf	0.06058198
8	0xbcf6a799	-0.030109214
9	0xbc4c28ea	-0.012460927
10	0xbda2dc3c	-0.079521626
11	0x3c639cb5	0.013892342
12	0x3ca56536	0.020189863
13	0xbdfab7af	-0.12242066
14	0xbea5585e	-0.3229398
15	0xbd25a656	-0.040441833
16	0x3c2ff986	0.010740643
17	0xbbdf629d	-0.0068171755
18	0x3bd1573f	0.0063885744
19	0x3e21803a	0.15771571
20	0xbe2d11de	-0.16901347
21	0xbd4ecfcc	-0.05049114
22	0xbda6953d	-0.08133934
23	0x3de6bdd1	0.11266673
24	0xbdc26993	-0.09492793
25	0xbd47376f	-0.04863685
26	0xbe477c02	-0.19480899
27	0xbdd0615a	-0.10174818
28	0x3d754c6b	0.05988733
29	0xbe1d89a1	-0.15384533
30	0xbdfd4e51	-0.12368453
31	0xbc9b936c	-0.018991195
32	0xbd08b528	-0.03337589
33	0x3ddf9cbc	0.109185666
34	0xbe12f633	-0.1435173
35	0x3d8f7e0f	0.07006466
36	0x3ca266d3	0.019824421
37	0xbe5940ff	-0.212162
38	0xbe28f6cf	-0.165004
39	0xbeb635cb	-0.35587916
40	0xbd80c326	-0.062872216
41	0xbe34cb60	-0.17655706
42	0xbd042963	-0.032266032
43	0xbba662d0	-0.0050776973
44	0x3d24341d	0.04008876
45	0xbd12778b	-0.035758536
46	0xbd2f3470	-0.042774618
47	0xbd05e866	-0.032692336
48	0xbdd4300e	-0.10360728
49	0xbdb80f0e	-0.089872465
50	0xbdabc134	-0.0838646
51	0x3e09809d	0.13427968
52	0xba1c0829	-0.00059521437
53	0xbc5cd81b	-0.013479258
54	0xbe1b8c2b	-0.15190189
55	0xbc93d296	-0.018044751
56	0xbe0be408	-0.13661206
57	0x3e7668af	0.24063371
58	0xbe02baab	-0.1276652
59	0x3e168439	0.14698876
60	0xbc29224f	-0.010323121
61	0xbcd84cb2	-0.026403759
62	0xbd3de4e5	-0.04636087
63	0x3e23fd5f	0.16014622
64	0x3e150f5f	0.14556645
65	0x3d989426	0.07450132
66	0xbdcb4110	-0.09924519
67	0xbe1a1fbe	-0.15051171
68	0xbe16a967	-0.1471306
69	0xbe32a731	-0.17446591
70	0xbd6c5294	-0.05769594
71	0xbe4b32a1	-0.19843532
72	0xbdbb2882	-0.091385856
73	0x3c5cedbc	0.013484415
74	0x3d679b33	0.056544494
75	0xbd44db87	-0.04806092
76	0x3d1e743d	0.038685072
77	0xbe4bc80f	-0.19900535
78	0xbd6a4848	-0.05719784
79	0x3a5a11bd	0.0008318683
80	0x3d82d87a	0.06388946
81	0xbcff564d	-0.031169081
82	0x3d288b69	0.041148577
83	0xbe81e048	-0.25366426
84	0xbd1d5a68	-0.038416296
85	0xbea31a00	-0.31855774
86	0x3e7979ca	0.24362865
87	0x3db68646	0.089123294
88	0xbe7318e9	-0.23739971
89	0x3e3e2091	0.1856711
90	0xbd082c26	-0.03324523
91	0xbe1af612	-0.15132931
92	0x3e2607cb	0.1621391
93	0xbd39f473	-0.04539914
94	0xbe1b6de5	-0.1517864
95	0xbe170a5d	-0.14750047
96	0x3d9aa1be	0.07550381
97	0xbd13cfc4	-0.036086813
98	0xbc2d935c	-0.010594215
99	0xbcec60aa	-0.028854687
100	0xbd27e178	-0.040986508
101	0xbe23b3bf	-0.15986536
102	0x3d8a2fd9	0.067474075
103	0xbe586f75	-0.21136267
104	0x3d0fb207	0.03508189
105	0x3c914060	0.017730892
106	0xbdca3fd8	-0.098754585
107	0x3c073f66	0.008254861
108	0xbcebfd78	-0.028807387
109	0xbe63f4fe	-0.22261426
110	0xbe0567be	-0.13027856
111	0x3b8e9345	0.004351052
112	0xbdd02e70	-0.10165107
113	0x3da42b66	0.0801609
114	0x3de50707	0.11182981
115	0xbea94c3c	-0.33065975
116	0x3c4a9756	0.012365183
117	0xbd13a4c4	-0.036045805
118	0x3dc72f55	0.09725825
119	0x3ed0aa69	0.40755013
120	0x3d866a78	0.06563276
121	0xbe1eb32e	-0.15498039
122	0xbe355951	-0.17709853
123	0x3c440680	0.01196444
124	0xbd0f99c8	-0.035058767
125	0xbe06b0ed	-0.1315343
126	0xbe43d69d	-0.19124837
127	0x3d8f96cc	0.07011184
128	0xbdb36bfa	-0.08760829
129	0xbe2eb389	-0.17060675
130	0xbe3eac16	-0.18620333
131	0xbe14ef9a	-0.14544526
132	0x3e721524	0.23640877
133	0xbde61da9	-0.11236126
134	0xbd8b3c10	-0.067985654
135	0xbe8b3ce5	-0.27194896
136	0xbeae579e	-0.34051222
137	0x3e253d0a	0.16136566
138	0x3e85f792	0.26165444
139	0xbccef9d4	-0.025265612
140	0x3e992abb	0.29915413
141	0xbe0bce09	-0.13652815
142	0xbd0c5414	-0.03425987
143	0x3eeb30c2	0.45935637
144	0x3df5bb00	0.11998558
145	0xbc4fd65e	-0.012685386
146	0xbe99c070	-0.3002963
147	0x3bd4027a	0.006470022
148	0x3de8cf16	0.113676235
149	0xbeb41d8b	-0.3517879
150	0xbe9be87a	-0.30450803
151	0x3df9eb87	0.122031264
152	0xbe381fcc	-0.1798088
153	0xbe2aec2e	-0.16691658
154	0xbe5465fc	-0.20742029
155	0xbe8b1642	-0.2716542
156	0x3de3cecb	0.11123427
157	0x3e046c02	0.12931827
158	0x3e2eb13b	0.17059796
159	0xbeafa019	-0.34301832
160	0x3d157764	0.036490813
161	0xbe802239	-0.2502611
162	0xbecb9883	-0.39764795
163	0x3c475004	0.012165073
164	0x3ea647cd	0.32476655
165	0xbb6eca87	-0.0036436634
166	0xbe266c6a	-0.16252294
167	0x3e40df60	0.18835211
168	0xbec8503b	-0.3912371
169	0x3dc4cdff	0.09609603
170	0x3e19b491	0.15010287
171	0xbdc128e1	-0.09431625
172	0xbe176d73	-0.14787845
173	0x3ea50e1e	0.32237333
174	0x3e81854c	0.2529701
175	0xbdbae009	-0.091247626
176	0xbb4799d7	-0.0030456686
177	0xbe3bb655	-0.18331273
178	0x3e9dc0f8	0.30811286
179	0xbdfd6ce5	-0.123742856
180	0xbdae8515	-0.08521477
181	0x3e8d46f7	0.27593204
182	0x3d7c9754	0.061667755
183	0xbd3fdf6e	-0.04684394
184	0x3d333827	0.043754723
185	0x3cb8ccd1	0.022558602
186	0x3c6f46f6	0.014604321
187	0xbeb94b3b	-0.3619021
188	0x3e2fe130	0.17175746
189	0xbe276f1b	-0.16350977
190	0x3d1ea54d	0.03873186
191	0xbe4615f4	-0.19344312
192	0xbeaa3631	-0.3324447
193	0x3df63f30	0.12023771
194	0x3c9c4c97	0.01907949
195	0xbd3461c7	-0.04403856
196	0xbe1ce710	-0.15322518
197	0x3de3bb3c	0.111196965
198	0xbe7b6d48	-0.24553406
199	0x3c93395a	0.017971683
200	0xbdd389d5	-0.10329024
201	0x3eb546ce	0.35405582
202	0xbee850e8	-0.45374227
203	0x3e3c3bc6	0.18382177
204	0x3e06d640	0.13167667
205	0x3c02d705	0.007985835
206	0xbe491a3d	-0.19638915
207	0xbcc377d2	-0.023860846
208	0x3e596664	0.21230465
209	0xbe26e91a	-0.16299859
210	0xbe3714bc	-0.17879003
211	0xbca6374c	-0.02029004
212	0x3ea12c19	0.31478956
213	0xbcd3f95d	-0.025875742
214	0xbd4af7c8	-0.04955271
215	0x3ea3ae5a	0.31968957
216	0xbde8256f	-0.11335265
217	0x3e11fc8c	0.14256495
218	0xbdc7a0d2	-0.09747471
219	0xbe555d6d	-0.2083642
220	0xbde56025	-0.11199979
221	0xbdc521fb	-0.09625622
222	0x3e5ffc86	0.21873674
223	0xbd7e588b	-0.06209616
224	0x3d0c4198	0.034242243
225	0xbca3267b	-0.01991581
226	0xbde212e3	-0.110387586
227	0x3e0f4683	0.13991742
228	0x3e17a5c1	0.14809324
229	0x3e050f3c	0.12994093
230	0xbe0f0538	-0.13966835
231	0x3e015078	0.12628353
232	0x3e3d0f01	0.18462755
233	0x3e3a4536	0.18190464
234	0xbc12f13c	-0.008968648
235	0xbd2c7935	-0.04210778
236	0xbe2e3b77	-0.17014872
237	0xbe659e92	-0.22423771
238	0x3e8bbc72	0.2729221
239	0xbea316a1	-0.31853202
240	0xbdd8d710	-0.10587895
241	0x3dffb319	0.12485332
242	0xbe05529a	-0.13019791
243	0xbddd625c	-0.10809776
244	0xbe527b4a	-0.20554844
245	0x3cea3e15	0.028594056
246	0xbed5a7db	-0.41729626
247	0xbd8a1788	-0.067427695
248	0xbd998bc6	-0.07497363
249	0xbdef4c59	-0.11684484
250	0xbe0c658b	-0.1371061
251	0xbe9dbde0	-0.30808926
252	0xbe81d970	-0.25361204
253	0xbe824a69	-0.25447395
254	0xbe8897ad	-0.2667822
255	0xbd835083	-0.06411841
