AIRocketLanding/results/AIRocketNewNew6/AIRocket/checkpoint.pt (torch, 505935 bytes, 42 tensors)

network_body._body_endoder.seq_layers.0.weight f4 [128, 26]
000000 a3 d5 6a be 25 be 0e 3f 8e 81 5e 3e 3d 53 18 3e
       -0.22933058 0.5575889 0.21729109 0.14875503
000010 ae 42 0b 3e 34 c9 c3 be 17 6c b3 bd 5d cb 7e be
       0.13599655 -0.38239443 -0.08760851 -0.24882264
000020 22 a1 45 be cd 3d ed bd 92 25 89 3d 63 75 d8 3e
       -0.19299749 -0.11584053 0.06696619 0.4227706
000030 a5 4a 0d 3e d5 00 2f 3e 74 e4 ab 3e 08 96 ef 3e
       0.13798006 0.17090161 0.33572733 0.46794152
000040 eb 5a ee 3b 31 8c ad 3e 54 89 b3 3c 69 24 09 3e
       0.007274022 0.3389602 0.02191607 0.13392796
000050 56 19 3e be 6f b9 2a bc 1c 14 4a 3d ca 85 1e be
       -0.18564352 -0.010420187 0.049335584 -0.15480724
000060 dd 3b 3c 3e 8c a3 0c be 3b 61 2f 3c f1 3f 7c 3d
       0.18382211 -0.13734263 0.010704334 0.061584417
000070 26 17 6a 3e 2e 83 a4 bd 3e 6b d7 bd fa 62 44 be
       0.22860393 -0.08032833 -0.10518502 -0.19178382
000080 aa 53 e8 3d 76 f7 e3 bd 33 88 ef bd fd d7 0b 3e
       0.11344083 -0.11131184 -0.116959 0.13656612
000090 04 1f aa 3e e8 0f 0d bd b3 18 51 bd 6c d7 a7 3c
       0.33226788 -0.034438998 -0.051048946 0.020488463
0000a0 05 df 96 be da 58 3e 3e 79 3d a6 bc 5c a5 af be
       -0.29467025 0.18588582 -0.020292984 -0.34305847
0000b0 68 35 a6 be 52 c0 85 3e b2 5c af be a3 fe 5d 3e
       -0.3246262 0.2612329 -0.34250408 0.21679167
0000c0 59 5c 2c 3d e7 17 33 be ee e3 8b bc a3 c5 6b 3c
       0.042080257 -0.17489587 -0.017076459 0.014390382
0000d0 e2 0a c4 be 78 b6 21 3e 20 3f 18 be 12 0c d8 3d
       -0.38289553 0.15792263 -0.1486783 0.10549177
0000e0 ef 97 d0 3e 46 40 2e 3e a1 1a 97 bd d9 62 4c be
       0.40740916 0.17016706 -0.07378126 -0.19959582
0000f0 51 f7 70 3e 44 d2 2e bd 66 b1 77 3d 9d 59 b0 bd
       0.23531844 -0.042680994 0.060471915 -0.086108424
000100 b4 91 37 be 5f 59 99 3d 62 bc 9a 3e 8a 25 fe bd
       -0.17926675 0.07487749 0.3022185 -0.12409504
000110 23 70 94 be 05 18 99 bd 3a 13 57 3e 93 fe 38 bc
       -0.28991804 -0.074752845 0.21003428 -0.011291164
000120 07 09 1e be 43 1a eb 3d b7 73 08 bf 8b db c9 bb
       -0.15433131 0.114796184 -0.53301567 -0.0061602048
000130 3a 5b a7 3b f3 37 f0 bc 95 b0 ed 3e e1 83 18 b9
       0.0051073106 -0.029323554 0.46423784 -0.00014544978
000140 37 24 b6 3e 89 13 67 be 74 38 39 3d ad 40 a9 3d
       0.35574505 -0.22566046 0.045219854 0.08264289
000150 27 9b 81 3e bf 1b aa be 56 43 dc bd eb 0e 31 3e
       0.25313684 -0.33224294 -0.10755031 0.17290847
000160 1c 3a d6 3d ea a4 2e ba 72 75 be 3e 91 8a 7d bd
       0.10460302 -0.00066621474 0.3719898 -0.061899725
000170 48 95 ce 3e 0f 63 db 3d d2 7c 8f be 30 bc 15 3d
       0.40348268 0.10712253 -0.28024918 0.036556423
000180 e9 49 75 bc 2e ba 0a 3e 6e 50 9b 3e a9 9d 1d 3e
       -0.014971235 0.13547584 0.303348 0.15392174
000190 dc a8 84 bd 36 09 b2 bc 72 ff 9a 3d 4f dd 33 3d
       -0.0647752 -0.021732908 0.075682536 0.04391223
0001a0 05 28 71 3e 92 dd 5e 3e 9f 26 d7 bc 24 65 6e be
       0.23550422 0.2176421 -0.026263533 -0.2328077
0001b0 60 29 39 be b9 29 cb bc db 5a 79 bd 34 b0 05 bd
       -0.1808219 -0.024800168 -0.060877662 -0.032638744
0001c0 32 10 19 3e 85 7e 35 bd 1b da 78 be bc 50 5e be
       0.14947584 -0.04431011 -0.2430195 -0.21710485
0001d0 82 dd 80 be 64 17 9e bd 64 4c 5f 3e 9e 4c 57 3e
       -0.25168997 -0.07719305 0.21806484 0.21025321
0001e0 6d b6 cf be f5 0e 8a bd c3 6f 6c 3e cb 54 55 bd
       -0.40568867 -0.06741134 0.23089509 -0.052082818
0001f0 72 14 c9 3d ea 60 26 3d b8 97 26 be 1b a8 d9 bd
       0.09818353 0.04061977 -0.16268814 -0.10627767
000200 cc 44 67 be 2a 26 61 3e 98 ee 73 be cb ea f2 3e
       -0.22584838 0.21987215 -0.23821485 0.47444758
000210 83 8a a9 bc 79 42 90 3e d2 8d 8c 3d 38 f2 4b bc
       -0.02069593 0.28175715 0.068629876 -0.012447886
000220 87 89 a0 be fa 31 03 3e b4 ab a6 3b 0f 7c f6 3d
       -0.31354925 0.12812033 0.0050863866 0.12035381
000230 e6 5a 05 3e 52 ac cf 3e a1 a4 92 be 9b 56 25 3d
       0.13022956 0.40561157 -0.28641227 0.040365797
000240 0c d1 93 3e fd 20 11 3e f6 dc b3 3e a3 a1 a6 3e
       0.28870428 0.1417274 0.35129517 0.32545194
000250 14 84 c9 bd 2a 8e 59 be ff 92 95 be c3 62 ed be
       -0.09839645 -0.21245638 -0.29213712 -0.46364412
000260 a8 cc e2 bd a1 8b f9 3e 2e 8f 9f 3d 75 91 b6 bc
       -0.11074191 0.4873934 0.07790981 -0.022286156
000270 ce 5f 3b be c1 c4 58 3f 06 88 06 3e 3a a6 1b 3d
       -0.18298265 0.8467522 0.13137826 0.038000323
000280 6e 1d 9b bd 78 64 1d be 71 0f eb 3d 95 42 b1 be
       -0.07573973 -0.15370357 0.114775546 -0.3462111
000290 31 ba 92 be 60 c0 4c be 0b e8 96 3c 60 9a df be
       -0.28657678 -0.1999526 0.018421194 -0.43672466
0002a0 10 6c a2 3e 44 f8 20 3d e2 a4 da 3e 0c 3a d6 be
       0.3172307 0.039299265 0.4270392 -0.4184116
0002b0 24 44 7c 3d e4 78 3a bd 38 4a 58 bd 29 67 04 be
       0.06158842 -0.045525447 -0.052805156 -0.12929977
0002c0 50 8f 50 be 22 e8 b8 3d 2c 87 e1 bd bf 9d b7 3b
       -0.2036717 0.09028651 -0.1101211 0.0056035216
0002d0 1c eb 2f bd d4 3c 26 bd d4 56 2e 3d 4c 7f b0 be
       -0.042948827 -0.040585354 0.042563275 -0.3447212
0002e0 47 07 08 3e 44 39 79 be d4 73 98 be 99 69 9e 3e
       0.13284026 -0.24338251 -0.2977587 0.3093994
0002f0 54 ea c7 bd 9a 11 91 bd f9 18 0e be 49 87 04 3e
       -0.097614914 -0.07083435 -0.13876714 0.12942232
000300 d3 4a 96 be c3 71 f4 3d c7 c5 63 3e 40 6b 55 bd
       -0.2935396 0.11935761 0.22243415 -0.052104235
000310 f4 79 47 be 30 e7 b6 be 51 2e 45 be 4c 8a 11 3e
       -0.19480115 -0.35723257 -0.1925595 0.14212912
000320 1a 6c 4e 3e 83 e5 b6 bd 8c 40 c8 bd 67 59 a6 3c
       0.20158425 -0.08930495 -0.09777936 0.020306302
000330 8e ae 36 3e be 9a ef be 89 ca 30 3d 36 8e ee bd
       0.17840025 -0.46797746 0.043161903 -0.11648218
000340 33 31 8f 3e c0 4d ab be e0 b6 2c 3e b5 2f 22 3e
       0.27967224 -0.33457756 0.16866636 0.15838511
000350 b8 88 83 be cd e4 a3 be 29 fe 29 3d d3 3b 92 3d
       -0.25690246 -0.320105 0.04150215 0.07140317
000360 6b e8 46 be b5 e2 85 3e fa d5 65 bd c1 cb 87 ba
       -0.19424598 0.26149526 -0.056112267 -0.0010360406
000370 14 8c 58 3e 71 a3 04 3c f3 58 48 be ec a5 44 3e
       0.21147186 0.008095608 -0.19565181 0.19203919
000380 22 e7 65 3e 5c 71 10 3e 5f 1d 89 be e7 f1 3a be
       0.22451451 0.14105743 -0.2678022 -0.18256341
000390 90 15 9c 3d 9a 03 72 be 8d 34 2e 3e 01 14 82 bd
       0.076213 -0.23634186 0.17012234 -0.06351472
0003a0 6f 67 ac bd f9 75 44 3d e6 2e ac be 75 4f 3a be
       -0.08418166 0.04796407 -0.3362953 -0.18194373
0003b0 0b 2f 28 3e bc e1 d2 3e ce 6e 29 be 55 42 ee bb
       0.16424195 0.41187847 -0.16546175 -0.007271091
0003c0 23 9e ba 3d 61 78 9b bd f9 3f 22 3e 76 df 0a be
       0.091121934 -0.0759132 0.15844716 -0.13561806
0003d0 71 e3 be 3e 5e 30 8f 3e 66 d3 09 3e 60 b7 a3 3e
       0.372829 0.2796659 0.13459548 0.31975842
0003e0 1d fb 90 3e a2 fe a5 bd d2 45 2a 3e fe 95 a3 3c
       0.28316584 -0.08105208 0.16628197 0.019968983
0003f0 b6 a9 18 bd f0 4f 6b bd 94 75 13 3e d8 4d a1 3d
       -0.037271224 -0.05744928 0.14400321 0.07876176

network_body._body_endoder.seq_layers.0.bias f4 [128]
000000 9e 9a b5 3d 1a 1e f2 bd 98 a0 08 3c 14 93 ee bb
       0.088673815 -0.11822148 0.00833907 -0.0072807167
000010 b8 5f 21 bd 07 83 92 3d 20 3b b1 bc d2 c7 7b bd
       -0.039397925 0.07153898 -0.021634638 -0.06146986
000020 d8 23 6e bc 8a ed 15 3d 1d a9 9d bd 9d 2c f0 3c
       -0.014534913 0.036603488 -0.076982714 0.029318148
000030 25 dc 15 3d 4f 0b 6f bd 45 4b e6 bc e7 21 11 be
       0.0365869 -0.058360394 -0.028112063 -0.14173089
000040 2f 79 a5 bc bd d1 3b bc 55 39 9e bd 62 15 1f 3d
       -0.020199386 -0.01146358 -0.07725779 0.03883875
000050 ff 81 37 bd 1b e5 3b be 8f 5c 0c be d7 90 23 3a
       -0.04480171 -0.18349116 -0.13707183 0.00062395394
000060 e7 e5 26 bd b5 03 05 3d 32 e3 f6 bd 9b 7c 84 3d
       -0.040746596 0.03247424 -0.12055053 0.06469079
000070 ec db 0a be d0 f6 b8 bb 24 fe 8b 3d df 59 2a be
       -0.13560456 -0.0056446567 0.06835583 -0.16635846
000080 bf 24 a5 3c 0a 9a 19 bd 8f 8d 40 bc 77 ff 47 bd
       0.020159123 -0.03750042 -0.0117525 -0.048827615
000090 b0 11 1e bd b2 3c bb bc 97 b2 d5 3b c7 0e d7 3d
       -0.038591087 -0.02285609 0.0065215337 0.105008654
0000a0 97 97 d2 bd 29 3e 06 3d bd a6 1e bc b9 20 1b bd
       -0.1028282 0.032774124 -0.009683308 -0.037873004
0000b0 15 c2 a0 3d 76 e9 c8 bd 25 b4 94 3d 0f 3f 8d bc
       0.07849518 -0.09810154 0.07260922 -0.017241983
0000c0 64 d6 c3 bd f4 52 88 bd e0 db 96 bd 10 ff 3f be
       -0.09562376 -0.06656447 -0.073661566 -0.18749642
0000d0 98 3f 0d 3d 1c 5e a7 3c 6c 05 e1 bc 0c 75 20 3d
       0.034484476 0.020430617 -0.027468406 0.039174125
0000e0 0c c3 7e bd 81 bd 87 3a 16 ba be 3c 8e 2d 6c 3c
       -0.06219773 0.0010356159 0.023282092 0.014415158
0000f0 14 a7 6a bd 6d 75 00 be de 51 10 bd 78 49 43 bc
       -0.057288244 -0.12544794 -0.035234325 -0.011919372
000100 26 50 16 be c6 cd b1 bd e8 c0 09 bd 17 d9 51 3d
       -0.14679012 -0.08681826 -0.033631235 0.051232424
000110 44 e4 07 3d 4a 9e 91 3d b1 4d 4b bc 38 aa b2 3d
       0.033176675 0.07110269 -0.01240866 0.08723873
000120 14 97 0b 3d 8d f9 ae 3c f3 0f 2c 3d b7 b0 55 3c
       0.034079626 0.02135923 0.042007398 0.01304262
000130 77 15 ad 3c c3 83 0f bd b8 4c 67 bd bc 54 51 bd
       0.0211284 -0.035037767 -0.05646965 -0.0511062
000140 2a cd d3 3c f3 7b 08 bd 1f 7a 0d bd d8 bf bd bc
       0.025854666 -0.033321332 -0.034540292 -0.023162767
000150 0b 8f 1b bd bd 5f 10 3d 26 f0 da bc 57 c4 1b 3d
       -0.037978213 0.035247553 -0.02672584 0.03802904
000160 ca 93 26 bd 51 ab 6e bd 2d db 05 be 4a c5 3a 3c
       -0.040668286 -0.05826885 -0.1307189 0.011399576
000170 41 13 3d bd fb 03 ab bd 50 81 54 ba 47 37 50 be
       -0.04616094 -0.083503686 -0.0008106427 -0.20333587
000180 08 c7 b4 bd 31 db e4 bc 65 ac 54 3d 52 87 e5 bd
       -0.08827025 -0.02793655 0.05192222 -0.11207451
000190 e3 ad c9 bc fa 1f 02 be 7d 01 4c 3c 41 61 12 be
       -0.024619048 -0.1270751 0.012451527 -0.14294912
0001a0 eb f1 35 bd a4 27 8e bd d1 dc de bc 3a 39 6f 3d
       -0.044420164 -0.069411546 -0.027204903 0.058404185
0001b0 3c fb 60 3d 2e 74 24 bd a3 51 ba bd a4 4b 50 3d
       0.054927096 -0.04014986 -0.09097602 0.050853387
0001c0 67 53 01 be a2 83 9b bc 1a c5 96 bc b8 9a 1e bd
       -0.12629472 -0.018983666 -0.018404532 -0.03872177
0001d0 c8 a7 d2 3d 24 86 48 be 3b 97 3f 3d 99 cb d7 bd
       0.10285908 -0.1958242 0.046775084 -0.1053688
0001e0 d0 ba 70 3d 3a 31 29 3c 9b 29 9f 3c 8f 7f c1 3c
       0.05877191 0.010326678 0.019429019 0.023620395
0001f0 81 84 ed bc db eb 4e bd 17 07 73 bb b5 41 f3 3c
       -0.028993847 -0.050517898 -0.0037083083 0.029694417

network_body._body_endoder.seq_layers.2.weight f4 [128, 128]
000000 29 19 85 3b e6 fe 88 3d 61 8c 27 be 0d 9a 19 bc
       0.004061837 0.06689243 -0.16362144 -0.0093751075
000010 f9 88 94 be c7 88 40 be 6d 3d 7c bd 2b 83 5f 3e
       -0.29010752 -0.18802176 -0.061582018 0.2182738
000020 30 80 d1 bd 1e b4 d1 3c 33 d8 03 be 43 e4 8c bb
       -0.10229528 0.025598582 -0.12875442 -0.004299672
000030 d9 19 00 3d 4a 9f 35 be e1 e9 13 bd 8d f9 93 bd
       0.03127465 -0.17736545 -0.036111716 -0.072253324
000040 9f 94 6e 3e a0 28 32 3d 1c 79 a5 3d 7c bc be bd
       0.23298882 0.043495774 0.080797404 -0.09313294
000050 23 25 80 3c b3 38 6a bd 87 bd c7 bd 58 73 f0 3d
       0.015642708 -0.05718298 -0.09752946 0.1174075
000060 20 ef 88 bd e5 88 c3 be e0 7b 0c bb 50 7b b9 3d
       -0.066862345 -0.3819038 -0.002143614 0.09056723
000070 5e 41 0c bd 11 6b c4 bd ba bb 21 be 61 99 db 3d
       -0.034242027 -0.09590734 -0.15794268 0.10722614
000080 5b 43 9a 3d dc 09 d1 3d 42 55 87 3e ec a3 91 be
       0.07532378 0.10206959 0.26432234 -0.28445375
000090 a4 71 52 bd 45 1b 05 be e3 da 2a be 72 09 6c be
       -0.051377907 -0.12998684 -0.16685061 -0.23050478
0000a0 9b 17 24 bd 3d 8e 00 be 42 09 a8 bd 20 09 18 be
       -0.040061574 -0.1255426 -0.08204891 -0.14847231
0000b0 3c 65 05 3c c9 0a 83 be 02 eb 2d be ca cd 91 3d
       0.008141812 -0.25594166 -0.1698418 0.07119329
0000c0 43 a4 76 bd 64 34 45 bd a1 3c d8 bc 40 ae 0d be
       -0.060215246 -0.048145667 -0.026396098 -0.13836002
0000d0 f9 19 91 bd fb 9b c1 3d 04 2a 89 be 4e ab a4 bd
       -0.07085032 0.09453579 -0.26789868 -0.08040486
0000e0 81 6b de bd c5 c7 56 3e 30 b7 23 3d 88 f0 4f 3e
       -0.108603485 0.20974644 0.039969623 0.20306599
0000f0 6d 88 b0 bd e2 c3 90 be 7b 91 2a bc 26 c0 a0 3d
       -0.08619771 -0.28274447 -0.010410662 0.078491494
000100 9d f6 34 bd 0e b8 26 3d d8 f2 77 ba 2b 10 b2 3d
       -0.0441805 0.040702872 -0.0009458489 0.0869449
000110 da ea 35 bd 60 88 1a 3d e2 8f c5 3c 15 89 07 3d
       -0.044413425 0.037727714 0.02411646 0.033089716
000120 de 08 a9 be 69 4e c3 be 20 da 81 3d c5 9d 2e 3d
       -0.33014578 -0.3814576 0.06340432 0.04263093
000130 87 a2 48 bc bc 11 91 bd 70 84 5e be 8d 74 7c be
       -0.012245781 -0.07083461 -0.21730208 -0.24653836
000140 9a b7 f3 3d 76 23 0d be 28 0d 12 3e 7a 69 43 3d
       0.119002536 -0.13783059 0.14262831 0.047708012
000150 f8 0c fd 3d f1 76 94 3c 04 71 10 be 97 e0 f9 bd
       0.12355989 0.018123122 -0.14105612 -0.1220104
000160 ad e7 cc 3a cc 32 ad be 55 50 a3 3d 96 90 d3 bd
       0.001563301 -0.33827817 0.079743065 -0.10330312
000170 34 c2 4a be e0 79 8c 3d dd 91 69 bd 10 4c 20 3e
       -0.19800645 0.06859183 -0.05702387 0.15654016
000180 37 e1 0b be d2 da 05 3e 4f ae 42 3b c3 f5 bd 3c
       -0.13660131 0.13071755 0.0029705947 0.023188477
000190 da d0 ba 3c 18 2d 90 be e1 e4 a4 bd 61 49 06 3d
       0.022804666 -0.28159404 -0.08051468 0.032784823
0001a0 05 32 dd bc e6 85 91 bd 66 65 7a 3c e6 33 20 bd
       -0.02700139 -0.07105617 0.015282964 -0.039111994
0001b0 bf f2 4f be 35 d1 80 bd e6 6d 0c be d1 af 89 3d
       -0.20307444 -0.06289903 -0.13713798 0.067229874
0001c0 3e a2 95 bd 2a 2a a2 3d 3e 8f 55 3e 8b 49 4f bb
       -0.07306336 0.079181984 0.20855424 -0.0031629528
0001d0 54 a4 36 be 5e e3 10 ba cc 76 a1 bd 4d b5 39 3a
       -0.17836124 -0.00055270444 -0.07883987 0.0007084206
0001e0 88 8e ca bd a3 e6 f5 bd c0 55 88 bd b7 24 5c bd
       -0.09890467 -0.12006881 -0.066569805 -0.05374595
0001f0 64 b9 78 be 5b fa 07 3e 21 ec a5 bd 1e 75 b0 be
       -0.24289471 0.13279097 -0.08101679 -0.34464353
000200 ae a2 d5 bd 30 26 10 be 94 f8 43 3e 14 81 17 bc
       -0.10431419 -0.14077067 0.19137794 -0.009247083
000210 ad a4 58 be 3d 19 47 bc b8 cd c2 bc d8 1a 21 3e
       -0.21156569 -0.012152013 -0.023779735 0.15732896
000220 ea d4 76 bc 93 6a 80 bc 76 0d 71 bd ab b1 48 be
       -0.015065411 -0.015675819 -0.058850728 -0.19599025
000230 fe 95 41 3d 97 7c 59 bd 7c d4 8a be f6 20 a7 bd
       0.047262184 -0.053097334 -0.27115238 -0.08160584
000240 1f 14 06 3c d2 1a 4b be 3c 9f 06 be cd e5 1c bd
       0.008183508 -0.1983445 -0.1314668 -0.038305093
000250 ee 7b 70 be c7 a3 19 be 10 99 db 3d 2b 5c 97 bb
       -0.23484775 -0.15003882 0.10722554 -0.0046191416
000260 e2 55 51 bc 6f 2b 72 be 8d a4 7f 3d 7b 18 b4 3d
       -0.012776824 -0.23649381 0.062412787 0.08793732
000270 50 2e 11 3d 5f 77 a7 bd ed 57 f6 3c 93 17 84 3d
       0.035444558 -0.08177065 0.030071223 0.06449809
000280 d0 58 1d bc 80 3b 1e bd 49 b3 cc 3d b3 5d a9 3d
       -0.009603694 -0.038630962 0.099951334 0.08269825
000290 10 1e ac bd b6 bf 26 be a5 10 16 be 4b 08 85 bc
       -0.084041715 -0.1628407 -0.14654787 -0.016239306
0002a0 49 2f 55 3d 17 58 ae 3c 42 4a 2e be a2 5f d8 3c
       0.052047048 0.021282239 -0.17020515 0.026412789
0002b0 15 74 9f be 89 ca e8 bb 4c 40 b3 bd c5 c6 83 bd
       -0.3114325 -0.007104222 -0.08752498 -0.06434397
0002c0 40 64 93 bc 68 09 61 3d f0 e7 35 be 1e 92 96 3d
       -0.017992139 0.05494061 -0.17764258 0.073520884
0002d0 ee e8 98 bd 18 19 63 3d 6f 24 aa 3d a7 43 48 bd
       -0.07466303 0.055443853 0.083077304 -0.048892643
0002e0 5c 6b 7b bd bc fb a1 3c 62 80 26 3d ea 82 86 be
       -0.061381683 0.019773357 0.04064978 -0.26271755
0002f0 1d 43 cb bd df 31 39 3e 48 57 f2 bd 3e 60 48 bd
       -0.0992491 0.1808543 -0.11833054 -0.04891991
000300 a1 1b e5 3c aa 38 98 3d 0f 58 0f 3b c5 b3 d8 3d
       0.027967276 0.07432683 0.0021872555 0.10581163
000310 99 af 3e bd dc ff 15 be 71 41 12 3e f1 ad 96 be
       -0.04655418 -0.14648384 0.14282776 -0.29429582
000320 bb db 66 3d ea 46 2d 3d 7b 85 6d bd 16 7e 7a bd
       0.056361895 0.042303957 -0.057988625 -0.0611554
000330 6f ec 82 bd 38 4f 55 3e f8 1c 07 3e 13 97 c0 bd
       -0.063927524 0.20831001 0.13194644 -0.09403815
000340 14 b1 3d 3e 9c fb cb bd c6 2b a2 bc 8c f5 ae 3d
       0.18524581 -0.099601 -0.019796263 0.08542928
000350 f5 df 69 3d 9b 92 dc bd 3e 07 e5 bd 4a 2a 7a bd
       0.057098348 -0.1077015 -0.11183022 -0.061075486
000360 08 72 14 bd 94 65 a4 bd 2e 12 1a bd ba 0a 9c be
       -0.03624156 -0.08027187 -0.037614994 -0.30476934
000370 1f 6b 89 bd fb 5f e5 bd cc f5 e1 3d 7f 25 a5 3d
       -0.06709885 -0.111999474 0.1103321 0.080637924
000380 e8 42 fd 3d b7 11 2c bd be 71 99 bc 42 a8 76 be
       0.12366277 -0.04200908 -0.018730994 -0.24087623
000390 1b 53 84 bd af 92 07 bd 26 3f fa bd c8 e7 26 bd
       -0.064611636 -0.033098873 -0.12219076 -0.040748388
0003a0 b6 e5 23 3e c3 fe 6c 3b 2f 93 21 bd 32 b0 df 3c
       0.16005597 0.0036162592 -0.039447006 0.027305696
0003b0 cb 43 b1 bd f2 d2 01 be 96 fd a5 3d dc e7 8f bd
       -0.086555086 -0.12678126 0.08105008 -0.070266455
0003c0 76 3e 06 3e 44 27 88 3d a4 96 93 bc 51 28 4d bc
       0.13109764 0.06648114 -0.018016167 -0.012521819
0003d0 31 85 f6 bd 1f ad 24 3d b6 10 ad bd f2 01 0f be
       -0.12037123 0.040204164 -0.08450453 -0.13965586
0003e0 dc 12 92 3d 65 ec 20 bc 42 25 d7 3c 79 dd 35 be
       0.071325034 -0.009821986 0.026262883 -0.17760266
0003f0 a7 e9 a4 bd 02 70 f6 bb ac f0 94 bd 76 d2 1f bc
       -0.08052378 -0.0075206766 -0.07272467 -0.009754768

network_body._body_endoder.seq_layers.2.bias f4 [128]
000000 03 06 c2 3c 59 08 07 bd f0 fb 1f bc 5c 5e b3 bd
       0.023684507 -0.032966945 -0.009764656 -0.08758232
000010 e8 d2 84 bd 11 80 a1 bd 2e 64 df bd 51 c2 a2 bd
       -0.0648554 -0.07885755 -0.1090778 -0.07947219
000020 71 38 1a bd f4 62 97 3b c3 52 1e bd c1 8e 4e 3d
       -0.037651483 0.0046199504 -0.038653146 0.05042911
000030 38 17 32 3a 01 dd a8 bc be 29 d1 bd 61 ad 9f bd
       0.0006793621 -0.020613195 -0.1021304 -0.07796741
000040 e9 28 27 bd a3 a6 f3 3b 9e f5 26 3c 42 b5 88 bd
       -0.0408105 0.007435636 0.010190396 -0.06675197
000050 3f 76 2b bd f4 0e a5 3c e0 78 d3 bd 03 a3 8b bd
       -0.041860815 0.020148732 -0.103257895 -0.068182014
000060 23 c8 9e bc c7 55 03 bd 4b 47 d3 bc cb d0 78 bb
       -0.019382542 -0.032064226 -0.025790831 -0.0037966247
000070 85 8b 48 3c bf 91 d7 bc 9f 3a d9 bd 70 fc e6 bc
       0.012240295 -0.026314614 -0.10606884 -0.028196543
000080 9f 32 83 bd d0 17 af bd b2 f0 8f bb 0b 5d 2e 3d
       -0.064061396 -0.08549464 -0.004392707 0.0425692
000090 fd a7 e0 bd 8e 44 01 bc c0 0f 73 bd 27 c0 1c bd
       -0.10969541 -0.00788988 -0.059341192 -0.03826919
0000a0 bb f7 be bd 43 e2 2e ba bb b9 f2 bc a3 92 e3 bd
       -0.093245946 -0.0006671289 -0.029629579 -0.11111953
0000b0 71 62 c1 bd c2 d5 e6 bc 4b ee b0 bd 9b 87 8d 3c
       -0.09442604 -0.0281781 -0.08639201 0.017276576
0000c0 4d e4 29 bc f8 20 5b bd ac c4 87 bd 53 a8 e7 bd
       -0.010369373 -0.05349824 -0.06629309 -0.11311402
0000d0 9a dc 5c bd f2 4d fa bd 7f 90 15 3c a8 af 31 bd
       -0.05392132 -0.12221898 0.009128689 -0.04338041
0000e0 71 aa dd 3c 62 df 92 bc 89 c1 90 3c 32 e3 1b bc
       0.027058812 -0.017928783 0.01767041 -0.009514617
0000f0 d0 8f 79 bb 9b e8 ff bc bd 5e c4 bd 60 37 a5 bd
       -0.0038080104 -0.031238845 -0.095883824 -0.080672026
000100 83 40 90 3d 2e e7 9c bc 5b cb 29 3d 22 59 94 3c
       0.07043555 -0.019153204 0.0414537 0.018108908
000110 ce b2 ea bc b8 25 fd bd 1c 32 52 3d 45 b7 76 3c
       -0.028649714 -0.1236071 0.05131732 0.015058343
000120 11 00 e3 bd bd b7 48 bd 5d 4c 74 3c 5e bc e3 bc
       -0.11083997 -0.04900335 0.014910785 -0.027799781
000130 3b b2 8f 3a bb ab af bd 05 7a d1 bc 62 6d 56 3b
       0.0010963151 -0.08577677 -0.025570879 0.0032719006
000140 62 4d 94 bb 05 93 89 ba 1a 1b 24 be 3d e8 c5 bd
       -0.0045258263 -0.0010496086 -0.16025963 -0.096634366
000150 aa 4b 5f bd ca c7 7e bc 6e 60 f9 bd 14 c1 d2 bd
       -0.05451552 -0.015550563 -0.12176596 -0.10290733
000160 3f 78 14 bd 31 a4 8d bd 46 5b 87 bc fe 3a d4 bd
       -0.036247488 -0.06916083 -0.016523015 -0.10362814
000170 2a 39 d6 bc 05 a8 33 bd a9 0e b1 bc 82 16 49 3d
       -0.026150305 -0.043861408 -0.021613436 0.04909373
000180 c2 f3 05 bc d7 9b a3 3b 40 3e 33 bd 95 98 5f bc
       -0.008175792 0.004992943 -0.043760538 -0.013647218
000190 0a 4f d6 3b 58 cf 76 bd 92 a7 a0 bd 72 66 df 3d
       0.006540184 -0.060256332 -0.078444615 0.10908212
0001a0 d9 c3 91 bd f2 51 12 3c 1c da 91 bc ca 97 04 bd
       -0.07117433 0.00893067 -0.017804198 -0.03237132
0001b0 e2 b4 00 bd e7 4a 69 3d 51 8b 1e bd 57 81 54 bd
       -0.031422503 0.056956198 -0.03870708 -0.05188116
0001c0 49 cb 32 be 51 a9 f5 bc 7f ff c6 bd 94 98 8c bd
       -0.1746036 -0.029987963 -0.09716701 -0.068650395
0001d0 92 51 a7 bc 67 0d d4 3b f8 00 58 bc c0 63 00 be
       -0.020424638 0.0064713242 -0.013183825 -0.12538052
0001e0 9a cb 9f bc 7b b8 76 3d 84 2b bb 3c 14 01 0c bc
       -0.019506264 0.060234528 0.022847898 -0.008545179
0001f0 9e 18 32 bc ed 15 e6 3c a1 fb 89 bc 98 c4 49 bc
       -0.010870127 0.028086627 -0.016843619 -0.012314938

action_model._continuous_distribution.log_sigma f4 [1, 2]
000000 a9 07 b4 bf 3e 9b 9d bf
       -1.4064838 -1.2313001

action_model._continuous_distribution.mu.weight f4 [2, 128]
000000 c3 87 90 bc d4 85 18 ba b6 e2 7a 3c 6d c9 fb 3c
       -0.017642861 -0.0005818282 0.015312841 0.030735696
000010 b0 09 07 3d 0f eb be 39 a7 b5 a7 bc 5d 2b 00 3d
       0.032968223 0.00036414756 -0.02047236 0.031291354
000020 0a 11 ef 3c 66 29 be 3d 5e 09 67 3d 99 21 c5 bd
       0.02918293 0.0928524 0.056405418 -0.09625549
000030 69 0f e6 ba b0 9e 62 3d 8c 65 ad 3c 38 3f 0b 3d
       -0.00175522 0.055327117 0.021166585 0.033995837
000040 bb 71 21 3d 52 4f 3a 3d c9 13 cf 3a ba 65 ef 3c
       0.039415102 0.045485802 0.0015798743 0.029223312
000050 8b d3 08 3d 9b 2f ec bc 64 b8 e2 3c 9e ce 22 3d
       0.033404868 -0.028831294 0.027675815 0.039747827
000060 f7 2b 95 bc 06 85 3b 3d 21 32 83 3c e1 89 4e 3d
       -0.01820944 0.045781158 0.016015114 0.05042446
000070 4b cc 1c 3d 9b ed 66 3d 62 a1 68 3c fd b4 01 3b
       0.038280766 0.056378942 0.014198633 0.0019791715
000080 b4 8b 3c 3d c4 3e 1c 3d 47 4e 5b 3d a5 9b c6 bc
       0.04603167 0.038145795 0.053541448 -0.024244139
000090 af e3 12 bd eb 06 b7 bb 46 4d 7b 3b 98 d0 1d 3d
       -0.035861667 -0.0055855415 0.003834562 0.03852901
0000a0 90 6a 10 3d 92 1b ef 3c cc 6d 1d 3d 54 79 03 bc
       0.035257876 0.029187951 0.03843479 -0.008024532
0000b0 f6 9f e1 3c e9 8f d4 3c 1f 82 77 3c b9 9a aa 3d
       0.027542096 0.025947528 0.015106707 0.08330292
0000c0 c0 3b 0f 3e f0 a4 e2 3c 2b 57 77 3c 7e e0 05 bd
       0.13987637 0.027666539 0.015096466 -0.032684796
0000d0 36 32 86 ba 19 33 3a 3d 92 5a c8 3d 5f 4f f6 39
       -0.0010238353 0.045458887 0.097829 0.00046979912
0000e0 45 6d 2f 3c 02 e2 b5 3d 7d 0f c7 38 a3 10 16 3d
       0.010707204 0.08880998 9.4919444e-05 0.03663696
0000f0 1e 2f bf 3d e0 0e a9 3d 1b 43 cd 3c d9 39 51 3d
       0.09335159 0.0825479 0.025056412 0.05108056
000100 b3 89 14 bc 62 40 51 3a 98 a1 ba bc 89 a2 26 3d
       -0.009066033 0.0007982311 -0.022782132 0.04068235
000110 dc 31 e3 3c e6 80 32 3d d9 c0 2f 3c fc a4 d3 3c
       0.027733736 0.04357996 0.010727131 0.025835507
000120 54 ca e4 3c ba 5a 81 ba 38 17 a5 3d da 2e ab 3d
       0.027928509 -0.0009868958 0.08061069 0.083585456
000130 22 3c 48 3d 46 29 18 37 3b fb 4a 3a 69 6a 56 3d
       0.048885472 9.069516e-06 0.0007743125 0.052347574
000140 80 ec 61 bd 4a 42 6b bd 59 db f8 3c e0 56 a7 3c
       -0.055157185 -0.057436265 0.03037803 0.020427167
000150 76 cc df 3d fb ad 3b 3d 71 90 75 3d 8c ba 04 3b
       0.1092767 0.045820218 0.059952203 0.0020252792
000160 58 01 6c 3a bd fc e1 3c c8 6d 02 3d 5a aa e7 3c
       0.0009002886 0.027586335 0.031842977 0.028279472
000170 ae 5c c5 bd 09 7d b6 3c 4a 87 f3 3d 60 64 ee 3d
       -0.09636818 0.022276418 0.11891039 0.11640239
000180 eb d1 41 3d 7f d3 a7 bc 33 7a d9 3c 6c bd 01 3e
       0.047319334 -0.020486591 0.026547527 0.12669915
000190 cf 00 ff 3d 84 04 c6 3c 91 d9 ff 3c 32 d2 18 bd
       0.12451326 0.024172075 0.031231673 -0.037309833
0001a0 78 96 e8 3c 28 20 bc 3c e3 f0 31 3c f2 b1 a2 3c
       0.028392062 0.022964552 0.0108606545 0.019860242
0001b0 39 96 0e 3d fe 69 b9 bb 24 c0 e6 ba 23 94 8a 3d
       0.034811232 -0.005658387 -0.001760487 0.06766536
0001c0 ba e2 15 3d 2a 3b d7 bc 63 d5 60 3b 50 a7 8a 3a
       0.036593176 -0.026273329 0.0034306876 0.0010578427
0001d0 60 79 05 bb 33 47 b7 3c d3 83 80 3c 1e 72 d0 3c
       -0.0020366535 0.022372818 0.015687859 0.02544504
0001e0 87 85 99 3d 2d c9 2c bc ed b9 1a bd e0 7e 01 b9
       0.074961714 -0.010546011 -0.03777497 -0.00012349663
0001f0 b6 be 7d 3d f5 75 b1 bb aa 5f 9f ba 4a ca 96 3c
       0.061949454 -0.005415673 -0.0012159247 0.018407006
000200 3b 90 84 bd e7 c5 83 bb 55 b9 0b 3c 26 0a 8f 3c
       -0.06472822 -0.0040213945 0.008528073 0.017460894
000210 ae 58 53 bb f0 c6 8c 3b 83 10 e4 bc 17 ca 72 bd
       -0.0032248902 0.004296176 -0.027839905 -0.05927476
000220 65 f4 d1 bc dd 46 eb 3c f5 db 80 bd 1a 0e 08 3d
       -0.025629232 0.028720314 -0.062919535 0.033216573
000230 cb 25 5c 3d f9 e0 1f 3d 45 a3 e1 3b 2e 01 83 bd
       0.05374698 0.03903291 0.0068859183 -0.063967094
000240 3b 9e 48 bd 8c 89 69 bd b5 b9 07 3c 2d 78 16 bd
       -0.048979025 -0.05701594 0.008284022 -0.036735702
000250 9a 6e f8 bb 08 16 89 bc 39 ca a0 bc 4b 43 14 3d
       -0.007581544 -0.016734138 -0.019627677 0.036196988
000260 1d c6 fd bc 78 74 2a 3c d9 02 51 bd 61 7e 55 3c
       -0.030978257 0.010403745 -0.051028106 0.013030619
000270 d3 81 b1 bd bf ed 1b bd fd f2 c6 bc c4 0f 28 bd
       -0.0866734 -0.03806853 -0.024285788 -0.04103066
000280 bb 82 90 bc 47 ff c2 bc 81 64 68 3c c9 39 be 3d
       -0.017640462 -0.023803366 0.014184118 0.092883654
000290 9c e1 7b bd fb f6 ad bd ad 16 92 bd 57 5c b5 3c
       -0.061494455 -0.084943734 -0.07133231 0.022138758
0002a0 14 34 f4 bc 1e 33 a1 bd 73 a2 8f 3c db c1 41 bd
       -0.029809989 -0.07871078 0.017533517 -0.047304016
0002b0 22 c8 ca bc 1f c2 45 3d 2b 3d fe 3a 74 46 51 bd
       -0.024753634 0.04828083 0.0019396892 -0.05109258
0002c0 d0 ca c5 bd 42 d0 8d bc 9d 96 7e bd 52 d3 77 bd
       -0.09657824 -0.01731122 -0.062155355 -0.060504265
0002d0 5a ee 9d bb 8d 69 a2 bd 71 b6 29 bc a5 30 44 bd
       -0.0048196735 -0.079302885 -0.010358439 -0.047897954
0002e0 35 32 99 bd b5 65 92 3c 61 36 f3 39 76 30 5a bc
       -0.07480279 0.017870763 0.00046389087 -0.013317218
0002f0 5e 91 21 bc c0 31 38 3c 2f dd d5 bc 63 5a e6 39
       -0.009861318 0.01124233 -0.026106445 0.00043936362
000300 a6 06 47 3d 56 e8 b5 b9 12 52 c5 bc bc 89 37 bd
       0.048590325 -0.00034696114 -0.024086986 -0.044809088
000310 86 f4 7b bd 8d 6f a7 bd 24 d1 25 3d 05 32 53 bd
       -0.061512493 -0.081755735 0.040482655 -0.051561374
000320 b1 c6 42 bd ef 3b 6e 3a c0 23 0f bc 90 21 fc 3c
       -0.04755277 0.00090879103 -0.008736551 0.030777723
000330 c5 79 ef bb ac 1b 9e bb 8e 01 b8 b8 0d c4 81 ba
       -0.007308217 -0.004825076 -8.774093e-05 -0.0009900347
000340 51 2a b9 bd 07 21 c4 bc 30 d1 5c bd 6f 34 69 bd
       -0.09041274 -0.02394153 -0.053910434 -0.05693477
000350 17 e0 d3 3c 30 39 ac bd c5 c9 b8 bb be 49 dc 3b
       0.02586369 -0.08409345 -0.005639287 0.006722658
000360 6a a3 a8 38 d6 d2 18 bd d0 a5 62 bd c7 8a c5 bc
       8.0413025e-05 -0.037310444 -0.055333912 -0.024114026
000370 32 95 36 bd 92 68 36 bd 80 02 39 bc 54 50 9a bd
       -0.044575877 -0.04453332 -0.0112921 -0.075348526
000380 4b 11 ba bd bf 23 8f bd 0d a4 79 3c 2f ea 62 3c
       -0.090853296 -0.0698924 0.015236867 0.013849779
000390 1a 62 b7 3c d3 b5 a2 bd 3c e6 8f bc b6 4e 13 3e
       0.022385646 -0.079448365 -0.017565839 0.14385495
0003a0 01 af 0a bd a7 f1 84 bd ee 30 92 3c 7e 33 ad 3c
       -0.033858303 -0.06491404 0.017845597 0.021142717
0003b0 f5 e7 34 bd 4a df 52 bc 5f df 37 bd b3 89 49 3d
       -0.044166524 -0.012870619 -0.044890758 0.049203586
0003c0 1b b7 82 bc 6f f9 f1 bc e1 c2 ab bc d0 df b0 3b
       -0.015956452 -0.029537885 -0.020966949 0.0053977743
0003d0 55 37 49 bd 90 1a 1d 3c 2f a9 60 3c 24 3a 0b bc
       -0.049125034 0.0095888525 0.0137122115 -0.0084977485
0003e0 7f 9c 32 3d 21 db 0f 3d 95 b0 f7 bc 6c 91 1e 39
       0.043606278 0.035121087 -0.030235568 0.00015122228
0003f0 08 f6 4f 3d 4c 16 c4 bd 38 1d 62 bb 85 ce 55 3c
       0.050771743 -0.09574565 -0.003450228 0.013049726

action_model._continuous_distribution.mu.bias f4 [2]
000000 ad f8 3e bd 5f 94 dc ba
       -0.046623874 -0.0016828886

action_model._discrete_distribution.branches.0.weight f4 [2, 128]
000000 f4 ce 22 3c e8 be f7 bc 0c d5 61 3d 2e 43 f9 3d
       0.009937037 -0.030242398 0.055134818 0.12171017
000010 43 af 0b 3c d7 91 57 bd 91 a1 7a be bb f8 e5 bc
       0.008525672 -0.052629318 -0.24475695 -0.028072705
000020 80 74 02 3e bc fa 6b 3d 00 35 6e bd 05 84 34 3d
       0.12739754 0.057612166 -0.058156013 0.044071216
000030 f9 3b af 3c 26 05 41 3d 3e 40 82 bc 03 7d f0 bd
       0.021390902 0.04712405 -0.015899774 -0.11742594
000040 cc 31 27 bd 87 4c f0 3c 85 b3 32 be 58 bb d0 3d
       -0.040818974 0.029333366 -0.17451294 0.10191983
000050 a5 56 eb bd 1d 8c ec bd cf 45 fc 3d 2b b4 88 3d
       -0.114911355 -0.11550162 0.123180024 0.06674989
000060 b1 0b ad 3d bd 85 e9 3d 1c be 66 3d 80 4e ce bc
       0.084494956 0.11402462 0.056333646 -0.025183916
000070 d9 e1 0d be 4f 0d 90 3d a6 2c 8a bd 29 21 f9 b8
       -0.13855685 0.070337884 -0.06746797 -0.00011879422
000080 ab 79 45 3c f5 f0 17 3d bd a5 e9 bb 67 20 f4 3d
       0.012052934 0.03709503 -0.0071303532 0.11920243
000090 8f d4 7b 3b d9 65 71 bd c9 0f 86 3c 29 62 09 3c
       0.0038426255 -0.05893502 0.016364949 0.00838522
0000a0 f2 5e da 3d 8d a4 c8 bd 18 bc eb 3d 46 36 2d be
       0.10662641 -0.097970106 0.115104854 -0.16915235
0000b0 13 4e e3 3d de f4 0b be 84 4a b3 bb 5a cc 2d bb
       0.11098876 -0.13667628 -0.0054715294 -0.0026519508
0000c0 b6 5e 3f bd 21 87 70 3d 38 5b 0c bd 7e 6f ef 3c
       -0.046721183 0.05872262 -0.03426668 0.029227968
0000d0 13 80 b6 3d 91 3d 5e bd 9f f4 aa 3d de 87 7b 3d
       0.08911147 -0.054257933 0.08347439 0.06140887
0000e0 9d 97 bc bd 45 ef 8e 3d b1 ad e8 3b 84 df ee bd
       -0.092086054 0.06979231 0.0071007838 -0.11663726
0000f0 e4 68 0e 3d b4 07 a0 bd 38 6d 14 3e 4e da 6a 3c
       0.034768 -0.07813969 0.14494789 0.014334274
000100 bc 88 26 3e 63 90 5f bc d6 37 7d be aa 9b 27 be
       0.16263098 -0.013645264 -0.24728331 -0.16367975
000110 1a 44 67 3d fd 3f e7 bd e4 e6 cf bd e8 56 ae bd
       0.05646143 -0.11291502 -0.10151461 -0.0851267
000120 ab 5c 0e bc bc 1e c4 ba 26 61 b8 3d 9f 2a e0 bc
       -0.008689086 -0.0014962773 0.090029046 -0.027364073
000130 01 4e 09 3e 2c ec c5 3d 61 b3 54 bd 20 16 47 3c
       0.13408662 0.09664187 -0.05192888 0.012151271
000140 14 aa c7 3d 20 d1 82 3d 40 40 6a bd ca 5a ce bd
       0.09749237 0.06387544 -0.05719018 -0.100759104
000150 c3 18 ae 3c 71 af 09 be 5a 8d 4d 3d bc 79 ea 39
       0.021252042 -0.13445832 0.05018363 0.00044722657
000160 33 72 58 be 7e 89 eb 3d 4d 77 e0 3d c0 54 18 3e
       -0.21137314 0.11500834 0.10960255 0.1487608
000170 b3 78 a6 3b fb 25 8a 3d df 20 1a bd c7 07 73 bd
       0.0050803064 0.067455254 -0.037629005 -0.05933359
000180 bb 26 02 be 2f ba 98 bd ca 24 1f bd c9 04 9a bd
       -0.12710087 -0.07457387 -0.038853444 -0.07520444
000190 fd 75 9f bd 5c a2 22 be d9 66 f7 3d e1 8a e6 3c
       -0.07786176 -0.15882248 0.120801635 0.028142394
0001a0 05 eb 42 bd b9 8f 70 bd 70 12 f0 3d 17 38 9f 3d
       -0.047587413 -0.058730815 0.11722267 0.0777437
0001b0 1e 23 8d bd 89 44 0c be ed 8b 28 3d fd fc 0d 3e
       -0.06891464 -0.13698019 0.04114907 0.13866039
0001c0 24 1b 71 3d 5d d4 36 be 4f c8 09 3e 71 ca b2 bd
       0.058863774 -0.17854448 0.13455318 -0.08730019
0001d0 a7 58 cd bd 43 11 a7 bd 2b 60 82 bd 42 98 9a 3d
       -0.10026675 -0.08157589 -0.06365999 0.07548572
0001e0 32 5a 20 bd d1 aa 8f bd de 21 d8 bd ee 00 0a be
       -0.039148517 -0.070150025 -0.10553335 -0.13476917
0001f0 ba 01 e7 bb 13 57 93 bd 84 42 68 3d ed e1 a9 bc
       -0.0070497664 -0.071943425 0.05670406 -0.020737613
000200 0d 14 a0 3b de 7d 12 3d fd 9e 62 bd 0a 93 04 be
       0.0048852027 0.035764568 -0.055327404 -0.12946716
000210 56 e7 5a bc 19 0b 71 3d 03 b7 71 3e a2 92 e0 3c
       -0.013360819 0.058848474 0.2360497 0.02741367
000220 ab 13 ef bd 7b 54 4d bd 96 62 44 3d d2 b0 80 bd
       -0.11673673 -0.050129395 0.04794558 -0.06283726
000230 2a 84 16 3a 48 bc 8e bd d6 d8 a3 3c 06 32 f7 3d
       0.000574174 -0.069695055 0.020000856 0.12070088
000240 47 ed 4b 3d 46 38 32 bd f8 78 25 3e f2 80 d7 bd
       0.049786832 -0.043510698 0.16159427 -0.10522641
000250 ca b9 f1 3d 82 5e 0b 3e 2e 7d fd bd 66 34 a7 bd
       0.118030146 0.1361027 -0.12377392 -0.08164291
000260 ad 50 d2 bd 2f 8b 0b be 60 ef 46 bd 11 f8 a6 3c
       -0.10269294 -0.13627313 -0.04856813 0.02038196
000270 83 13 22 3e a4 c3 8c bd af cc 70 3d fa 35 83 3a
       0.15827756 -0.06873253 0.05878895 0.0010010593
000280 4f 7f 76 bc 45 20 23 bd 0b e8 66 3c 71 82 f9 bd
       -0.015045001 -0.039825696 0.014093409 -0.12183083
000290 6c d1 41 b8 51 81 81 3d 25 18 b4 bc 0b 99 72 3b
       -4.6209825e-05 0.06323493 -0.02198417 0.003701749
0002a0 3d f9 e9 bd 9a c2 c7 3d a3 19 f2 bd f6 85 28 3e
       -0.114244916 0.09753914 -0.11821296 0.16457352
0002b0 9a 12 c5 bd b2 72 05 3e 71 a7 11 3b c5 68 79 bc
       -0.096226886 0.13032034 0.0022225047 -0.015222733
0002c0 4b f2 2b 3d 7f 80 80 bd 5f 1d 45 3c 87 fb 11 bd
       0.041979115 -0.06274509 0.012030928 -0.035640266
0002d0 2e 67 cf bd 93 ca 62 3d e5 0a cb bd d7 7e 3d bd
       -0.10127102 0.05536897 -0.09914187 -0.046263542
0002e0 d5 6f c8 3d dd e9 68 bd c9 75 89 bc 85 1c c8 3d
       0.09786955 -0.056863654 -0.016779797 0.09771065
0002f0 f1 1b 37 bd d9 84 a1 3d 4f c4 eb bd bd ea 8e bb
       -0.04470438 0.07886667 -0.11512052 -0.004361479
000300 a3 04 0e be a1 db 20 bb da c6 71 3e bb 9c 33 3e
       -0.13868956 -0.0024544972 0.23611012 0.17540257
000310 07 c1 2d bd 93 79 d0 3d a6 71 ca 3d b9 f0 96 3d
       -0.042420413 0.101794384 0.09884958 0.07370133
000320 25 18 b0 3c 66 32 83 bc 3f b0 c8 bd 92 44 aa 3c
       0.021495888 -0.016015243 -0.09799241 0.02078465
000330 a7 ea 02 be 11 fa bc bd 33 a0 a9 3c e9 b9 b3 bc
       -0.12784825 -0.09227384 0.020706272 -0.021939235
000340 88 be a5 bd 68 1c b4 bd 91 ea 71 3d fc 0f c0 3d
       -0.080929816 -0.087944806 0.05906159 0.09378049
000350 9e 50 26 bc ce a3 d6 3d b1 7a 57 bd 16 64 b2 39
       -0.010151057 0.10480462 -0.052607242 0.00034025375
000360 dc 4f 3c 3e 5d 19 ff bd 4d 84 e6 bd 24 ff ff bd
       0.18389839 -0.124560095 -0.11255703 -0.12499836
000370 d9 9f 09 3c 53 9c 6b bd df 2d 23 3d 61 f9 39 3d
       0.008399927 -0.05752213 0.039838668 0.045403842
000380 15 92 05 3e e7 7d 9e 3d e9 4a 7f 3c 7b 95 7d 3d
       0.13044007 0.07738858 0.015581825 0.061910134
000390 09 bc 93 3d 80 82 04 3e 4e 03 01 be 8f c3 80 bc
       0.07213599 0.12940407 -0.12598917 -0.01571825
0003a0 bc cb 37 3d 54 35 4f 3d 55 a2 f6 bd 86 fd af bd
       0.04487203 0.050587967 -0.12042681 -0.08593278
0003b0 e6 3a 9f 3d c4 39 06 3e af cb 4e bd ea 39 09 be
       0.07774906 0.13107973 -0.050487217 -0.13400999
0003c0 40 6d 90 bd 61 c9 36 3e 5b 48 11 be 18 68 bc 3d
       -0.07052088 0.17850257 -0.14187758 0.09199542
0003d0 e4 b2 bb 3d 17 57 7f 3d 4e 4a 44 3d 54 8d bb bd
       0.0916498 0.062338915 0.047922425 -0.091578156
0003e0 29 2f e7 3c fb 51 c7 3d 0e 3f d1 3d d1 45 fa 3d
       0.02822073 0.097324334 0.10217105 0.12220348
0003f0 5d 4c aa bb c7 00 90 3d 1c 30 7f bd a9 90 04 3d
       -0.0051970915 0.07031398 -0.06230174 0.03236452

action_model._discrete_distribution.branches.0.bias f4 [2]
000000 31 4e 0a be 3c 4e 0a 3e
       -0.1350639 0.13506407

exp_avg f4 [128, 26]
000000 48 40 d8 31 a5 ee 0c 37 9c 79 80 35 dc b6 01 30
       6.2937353e-09 8.400214e-06 9.572136e-07 4.7189785e-10
000010 34 f0 fb 31 ee 28 15 b1 9f 2c cf b6 a6 74 41 af
       7.3323694e-09 -2.170562e-09 -6.1742753e-06 -1.759469e-10
000020 62 2f 0b 2f 7c ce 0f 37 30 65 99 34 2f ad ba 36
       1.265881e-10 8.57154e-06 2.8572094e-07 5.563393e-06
000030 09 61 99 37 44 68 5f 31 ee 25 ca 34 2b ac 38 34
       1.8284207e-05 3.251004e-09 3.765303e-07 1.719897e-07
000040 a6 87 ad ad b2 85 a8 af 2d 8b c7 2e 2f 12 bb 34
       -1.9728063e-11 -3.0654018e-10 9.074195e-11 3.4844695e-07
000050 86 1c 42 af 78 80 0b 2f 43 34 9d b4 93 93 ff b3
       -1.7654331e-10 1.2687618e-10 -2.9281554e-07 -1.19012064e-07
000060 eb b3 5a 36 00 87 8c 37 25 df 06 33 1b 59 4e 37
       3.2589257e-06 1.6752165e-05 3.1402255e-08 1.2299303e-05
000070 18 7c 53 b6 3d 99 17 31 bf 38 13 33 32 53 2e b2
       -3.1513682e-06 2.2060498e-09 3.4277715e-08 -1.0147049e-08
000080 d6 00 f4 b7 e3 d5 f9 31 f0 1b b4 b1 69 63 27 38
       -2.9087456e-05 7.27117e-09 -5.2418656e-09 3.9908486e-05
000090 f3 48 37 34 96 25 01 ba db 4b 0a ba 44 35 08 33
       1.7069742e-07 -0.000492656 -0.00052755856 3.1713412e-08
0000a0 90 a9 57 37 d2 39 50 b6 39 1c 1a 31 2a a9 15 33
       1.2854478e-05 -3.102807e-06 2.2425992e-09 3.484562e-08
0000b0 94 36 31 b2 3f 10 f8 b7 72 14 fa 31 d5 43 b4 b1
       -1.0315166e-08 -2.9571469e-05 7.278282e-09 -5.246401e-09
0000c0 ba 27 2a 38 a2 68 54 33 73 47 02 ba 4e f5 08 ba
       4.0568157e-05 4.945526e-08 -0.0004969753 -0.00052245415
0000d0 e5 91 2a b1 4c 8b bf 37 17 6d 2b 36 d8 cd b4 30
       -2.4821187e-09 2.283384e-05 2.5544484e-06 1.3155228e-09
0000e0 81 95 af 32 ab e8 cf b1 7a 21 91 b7 9f 63 5b b1
       2.0440668e-08 -6.050944e-09 -1.7300936e-05 -3.1925322e-09
0000f0 ee 6e 1e 31 9c e9 c7 37 89 9b 78 35 5a 84 c0 38
       2.3055082e-09 2.3831431e-05 9.2613533e-07 9.179926e-05
000100 ca bc 0f 39 b2 87 8c b1 c5 a3 bf 37 b9 f2 2a 36
       0.00013707872 -4.089963e-09 2.2845235e-05 2.5473257e-06
000110 3e 1b b5 30 a5 e0 af 32 a3 41 d0 b1 b2 87 91 b7
       1.3177226e-09 2.0474838e-08 -6.0610588e-09 -1.7348535e-05
000120 0e 16 5c b1 5e e1 1e 31 03 22 c8 37 07 da 2e b5
       -3.202675e-09 2.3120132e-09 2.3857696e-05 -6.513732e-07
000130 69 1d a6 38 bc 15 0d 39 fb 04 0b b3 36 b3 2a b7
       7.920975e-05 0.00013454905 -3.236799e-08 -1.0174515e-05
000140 cf a4 67 b5 cf 06 39 b0 39 af 33 b2 9c c3 54 31
       -8.6294034e-07 -6.7312284e-10 -1.0459012e-08 3.0961251e-09
000150 33 74 11 37 51 69 58 af 2c 60 1d 2f a1 cc 4e b7
       8.669728e-06 -1.9682501e-10 1.4313234e-10 -1.2326201e-05
000160 f9 82 20 35 7a a6 24 38 b6 2c 8f 37 b5 f0 08 b3
       5.9795235e-07 3.925569e-05 1.7067749e-05 -3.188389e-08
000170 ce a6 e3 b6 2e 59 0e b5 7c 0d 00 b0 02 b6 f8 b1
       -6.784546e-06 -5.3028896e-07 -4.658529e-10 -7.238442e-09
000180 cd 3f 13 31 29 60 c6 36 4a 00 59 af f8 05 1e 2f
       2.1427582e-09 5.9120543e-06 -1.9736138e-10 1.4372137e-10
000190 64 31 10 b7 28 30 8b b4 64 78 2e 38 2b aa 98 37
       -8.5945685e-06 -2.5925806e-07 4.1596955e-05 1.8199053e-05
0001a0 84 cf 66 b2 d3 33 1a 38 1c 28 ab 36 4b 37 f5 30
       -1.3434946e-08 3.6764726e-05 5.1008665e-06 1.7841811e-09
0001b0 d3 22 ee 32 01 fd 0c b2 92 ed c5 b7 c8 6c 30 b1
       2.7722683e-08 -8.206599e-09 -2.3594857e-05 -2.5673206e-09
0001c0 9c d7 fd 30 6e 2a 07 38 22 1b 6b 35 e5 9b 2c 39
       1.8469453e-09 3.2226024e-05 8.7583805e-07 0.00016461273
0001d0 54 4f a4 39 d1 dc f8 b1 de 70 3d 38 dc 9e c6 36
       0.00031339622 -7.242854e-09 4.5166227e-05 5.9193535e-06
0001e0 da 28 1e 31 dc 97 19 33 95 de 35 b2 dd 1e ff b7
       2.3015247e-09 3.5761204e-08 -1.0586196e-08 -3.041274e-05
0001f0 8d 95 30 b1 0a c0 fd 30 3f 6e 2e 38 48 36 27 b5
       -2.569638e-09 1.8462754e-09 4.1587507e-05 -6.229134e-07
000200 44 e3 1a 39 a8 13 a1 39 a2 2d 17 33 2d 73 4c 38
       0.00014771248 0.00030722958 3.519893e-08 4.8744656e-05
000210 e4 a7 8c 36 b0 d8 5a 31 1f 87 54 33 6b a7 7b b2
       4.19187e-06 3.1846348e-09 4.948299e-08 -1.4648189e-08
000220 78 c6 2f b8 35 22 8a 2f 8e a6 49 af 61 e4 71 38
       -4.190809e-05 2.512636e-10 -1.8340016e-10 5.7671572e-05
000230 de a8 51 35 fa 79 87 b9 cd 75 1d b9 a9 66 02 33
       7.81043e-07 -0.00025840086 -0.00015016571 3.0361353e-08
000240 53 5b 2a 38 bb 01 63 36 65 d4 38 31 41 7e 33 33
       4.061621e-05 3.3826643e-06 2.6896256e-09 4.1791512e-08
000250 a6 89 54 b2 d0 52 14 b8 53 45 8d 2f d7 a3 4f af
       -1.2371322e-08 -3.5363075e-05 2.5697008e-10 -1.8884748e-10
000260 3d 63 4c 38 3f ab cf b4 6b df 8d b9 10 c6 24 b9
       4.8729813e-05 -3.8681353e-07 -0.00027060075 -0.00015714043
000270 e3 ca 29 b4 76 db 52 b8 66 a1 e6 36 ee ee ef b1
       -1.5813161e-07 -5.027229e-05 6.8733234e-06 -6.9829786e-09
000280 84 01 e9 b3 75 f3 09 33 21 80 c0 38 65 5d a8 b2
       -1.0850184e-07 3.211922e-08 9.179139e-05 -1.9600245e-08
000290 c4 b3 72 32 df ac 04 b9 b5 30 6d 35 53 d0 e7 3a
       1.4127128e-08 -0.000126529 8.836026e-07 0.0017685987
0002a0 e9 9d ea 3a f9 ee 26 b4 d1 78 3a b8 67 6d fa 36
       0.0017899844 -1.5546892e-07 -4.4458375e-05 7.4633167e-06
0002b0 d7 f1 e3 b1 07 5d dd b3 dd 0e 03 33 19 d4 b6 38
       -6.6340635e-09 -1.0308036e-07 3.0514332e-08 8.7179425e-05
0002c0 28 ac a8 b2 ae 1b 73 32 66 21 fc b8 eb 98 df b5
       -1.9636062e-08 1.4150755e-08 -0.00012022517 -1.66593e-06
0002d0 e7 02 e8 3a 6a f2 e9 3a 08 14 77 31 64 a9 cd 36
       0.001770106 0.0017848734 3.5954617e-09 6.1291958e-06
0002e0 83 1f a4 32 ae 1d 1b 30 2f a3 16 32 9c 5e 32 b1
       1.9106443e-08 5.643085e-10 8.768253e-09 -2.5956188e-09
0002f0 b7 44 fa b6 4c f6 31 30 15 86 00 b0 8a 0d 2b 37
       -7.45858e-06 6.4742234e-10 -4.675667e-10 1.0195547e-05
000300 2e d7 bb 33 21 2e 01 b9 90 9a f8 b8 fe 4d 89 31
       8.747007e-08 -0.00012319583 -0.00011854351 3.9960915e-09
000310 1f 07 e7 36 46 08 c3 33 77 06 28 30 8e 2c 23 32
       6.8851655e-06 9.0819e-08 6.112723e-10 9.497979e-09
000320 d2 36 41 b1 96 9d 07 b7 05 a8 32 30 be 12 01 b0
       -2.8116358e-09 -8.083318e-06 6.4994793e-10 -4.695656e-10
000330 5e 3d 39 37 3b 01 af 33 1a b4 01 b9 af a9 fa b8
       1.1041147e-05 8.149296e-08 -0.00012369492 -0.00011952535
000340 c0 73 0b b2 b1 1a 99 b7 aa cf c2 b5 31 ca a9 b0
       -8.117183e-09 -1.825145e-05 -1.4514565e-06 -1.2353835e-09
000350 3c e3 a4 b2 40 3e c3 31 96 eb 88 37 16 b1 e1 af
       -1.9195447e-08 5.682324e-09 1.6322167e-05 -4.105309e-10
000360 1b 85 a2 2f 42 46 bb b7 89 85 0a b5 e1 52 ed 38
       2.9562205e-10 -2.2324853e-05 -5.1603325e-07 0.00011316478
000370 15 3b 9b 38 a8 e0 fb b1 d8 5c 96 b7 fa bb bd b5
       7.401981e-05 -7.330602e-09 -1.7924627e-05 -1.4136306e-06
000380 3b 39 a7 b0 40 65 a2 b2 ce 4a c0 31 d0 ea 86 37
       -1.2167115e-09 -1.8905325e-08 5.5964398e-09 1.6083388e-05
000390 9a b0 e0 af 17 66 a2 2f 4f 65 b8 b7 cd 73 9e 34
       -4.0870846e-10 2.9540168e-10 -2.1981685e-05 2.951405e-07
0003a0 b9 a0 f6 38 84 2a a0 38 97 3e 84 b1 0c b0 9b b6
       0.00011760131 7.637314e-05 -3.8488213e-09 -4.6398545e-06
0003b0 50 a0 02 b5 dd 28 95 af 6b da 90 b1 37 85 ab 30
       -4.866206e-07 -2.7131977e-10 -4.215783e-09 1.247975e-09
0003c0 d7 94 6b 36 0d 73 7c 2e ea 6c 36 ae 71 51 a6 b6
       3.5104365e-06 5.7400352e-11 -4.1478744e-11 -4.9566665e-06
0003d0 d9 f2 c6 34 10 30 1f b7 3f 33 38 b7 b3 b1 24 b2
       3.705707e-07 -9.488329e-06 -1.0979186e-05 -9.5864605e-09
0003e0 1b 58 2b b7 d4 25 8b b5 50 9e 28 b0 06 c0 23 b2
       -1.0212908e-05 -1.0367316e-06 -6.134302e-10 -9.53151e-09
0003f0 74 e5 41 31 68 31 06 37 07 3f 7d 2e 5f 9e 35 ae
       2.8215625e-09 7.998526e-06 5.758152e-11 -4.1295297e-11
