AIRocketLanding/results/AIRocketFast6/AIRocket.onnx (onnx, 84776 bytes, 9 tensors)

action_model._continuous_distribution.log_sigma f4 [1, 2]
00000000: 1986 2bc0 7a0d 2cc0
-2.6800597 -2.6883225

action_model._continuous_distribution.mu.bias f4 [2]
00000000: b8bd 8fbe 4523 53be
-0.2807443 -0.20618923

action_model._continuous_distribution.mu.weight f4 [2, 128]
00000000: 3bc1 d9bd 44fa 053c 3aa1 46bc a4c7 e53c
00000010: d512 94bc 87ad 913c 0f0f b2bd ff6e d4bd
00000020: 0eb6 33bd 82ca f13c d705 99bd 9758 7cbe
00000030: eb7e fdbd 510f e53d 8cff 09bc 80f9 d5bd
00000040: 4596 c5bd 7f58 6abd f503 96bc 612f 80bc
00000050: d969 57bd e007 75be b192 86bd 5115 623e
00000060: e45d 41bd 9a39 41bd 95c2 63bd 1628 5ebb
00000070: 6659 e9bd bbdc 16bd fc0f 113d ee84 acbd
00000080: be10 38bd 182d d9bc 6d44 633d 03f6 8f3d
00000090: 82f1 23bd 100a b6bd 452f 85bd d221 153d
000000a0: a2dc c0bc eb41 e4bd 88f0 8fbc ca26 c4bd
000000b0: 1612 e53b a756 5c3d f9fc 863d 20fe a1bd
000000c0: e5d8 84bc c6d0 34bd b905 cdbd b45c e1ba
000000d0: 61a1 1d3e 9771 48bd edfa 8e3b 9440 55be
000000e0: 2ae3 a0bd c3c9 2bbc cae2 a73b a929 16bc
000000f0: 4269 983c 9b7b 553e e48c 02be 6ad8 743d
00000100: cbc9 8fbe d795 07bd 15cc 993c a9e1 21be
00000110: 32b8 2bbd 6155 9cbd a737 b13c d547 c6bd
00000120: e303 2abd 6496 d2bb 2211 543c 841f 493e
00000130: bc20 e43a b130 083a 7fa5 afbb 9f37 ca3d
00000140: 82ba f73c b57c 48bb 3d1a 9dbd 46a9 a9bd
00000150: acec 82bc 4bf6 ddbd f526 cd3d 5018 073c
00000160: f61e 62ba e9ff c337 fc00 31bc b9df 47bb
00000170: 4035 833d f849 84bb aadd 543d 554a 82bd
00000180: 9479 c1bd 2a64 9abd fd29 c53d 646d 95bc
00000190: 37ef 85bc 1820 cbbd f051 b93b db6e 45bd
000001a0: 57c6 98bd 2b66 0bbe f813 beba def7 533d
000001b0: aa76 abbd 67f5 323b 1260 32bd 7924 863d
000001c0: 434c 4ebd cef2 373b bf68 c8bd f404 ffbb
000001d0: 5e95 cebd 8353 aabd a31b 3f3d 0e89 d1bc
000001e0: cfd1 b23d 1bf3 0b3d 1b3f 38be f017 a93c
000001f0: ea30 c53d f8dc adbd 3794 193d 1e4d d1bb
00000200: 4fdc 023b 3e18 5b3d 2ce4 ac3d 9892 d0bb
00000210: 9960 413d 0c24 023d 60bb 8abd a8fc 34bc
00000220: 6aef 18bd 691d 1eba d7f8 9abc af0b 603e
00000230: 2834 6c3e 0816 843d 61c2 e2bc 7f80 15bc
00000240: 06dc 43bc 9bbf e9bc 1a78 243d 7960 c53d
00000250: 41e0 53bc d8f5 2a3e ed41 41bc bd5f 253e
00000260: 217f 82bc 8d3a f8bc ab37 30bd 40e6 673a
00000270: a99c 18bc 643e 45bd 4bec 263d 660a 30bc
00000280: f5e7 20bd cfed 36bd ce25 b83c 604e 9a3d
00000290: dc3e 123d 4a61 cbbb 692b 0cbd a667 a43d
000002a0: 8906 b9bc 8dd8 4dbc bcbb dc3d 0b50 3dbc
000002b0: a682 ddbc 46de 8e3d 5e68 0f3d b666 dcbc
000002c0: 4317 e5bc cfe3 2dbd 7294 98bc 3818 b63b
000002d0: 9bd5 b33d f429 07bd 457a 11bd c80a 923d
000002e0: ad64 2abc 740b 32bd 1355 b43c 03c9 d4bc
000002f0: ad28 b33d 7eb3 033e 0c49 443e ac22 a43c
00000300: 8b6b a23e a6d6 a53d 4e1a 06bc b64f 1f3e
00000310: b082 8a3d 6d8c bebc d2bd 8c3c 4110 f93c
00000320: 1d49 2abd af4e 0cbd 9744 dfbc 5f09 1d3e
00000330: c88b 22bd a8f2 3a3a 4d0a afbc 8ba5 ee3d
00000340: 73fc 393c 9597 2d3c 868e 5ebc 8af7 31bb
00000350: afd3 e6bc 6be3 a0bc 1d3e 3a3d 88ec 343c
00000360: 2d8f e8bb 3cdb 1ebd 7cad 2ebd de91 72bc
00000370: fd74 3dbc 7ab3 d23c e8cf 393b 3d2c e9bc
00000380: 5b11 abbc 56be fd3a 03d0 683d 05f3 c1bc
00000390: 0d4d 093c 82c7 633c d05d e0bc 3357 803e
000003a0: 6634 0a3e 9e86 9e3d bc05 323d 9b41 be3c
000003b0: e8ca d1bc 756f ee3c fcff 1fbd f6b5 bc3b
000003c0: 4fc8 46bd e853 fc3a 63d1 e6ba 4149 18bc
000003d0: 35e0 1d3d c083 ecbc 2f3e d63c 96b6 a53d
000003e0: 903a 613d 4829 a53d 6862 233e 0491 963c
000003f0: 7952 693d 70e0 b9bb 6627 f13d 97d3 0cbd
-0.10632559 0.008177344 -0.0121234 0.028049298 -0.018075386 0.01778294 -0.086942784 -0.10372733
-0.043874793 0.029515509 -0.07471817 -0.2464317 -0.12377723 0.11184562 -0.0084227435 -0.10447979
-0.09647802 -0.057213303 -0.018312434 -0.015647592 -0.05259118 -0.23928785 -0.06570948 0.22078444
-0.04720868 -0.047174074 -0.05560549 -0.0033898405 -0.113940045 -0.0368316 0.035415635 -0.08423792
-0.04493784 -0.02651076 0.055485178 0.07029345 -0.04002524 -0.08888638 -0.065031566 0.036409207
-0.023542706 -0.11145385 -0.017570749 -0.09577711 0.0069906814 0.053793576 0.065912195 -0.079097986
-0.016216705 -0.044144414 -0.10010857 -0.0017193765 0.15393592 -0.048936453 0.004363409 -0.20825416
-0.07855828 -0.010485115 0.005123471 -0.009165206 0.018604878 0.20847933 -0.12749058 0.0597767
-0.28083643 -0.033101883 0.018774072 -0.15808739 -0.04192371 -0.07633472 0.021632982 -0.096816696
-0.041507613 -0.0064266194 0.012943538 0.19640929 0.0017404775 0.0005195244 -0.005360305 0.0987389
0.030240301 -0.003059191 -0.0767102 -0.082842395 -0.015981995 -0.10837992 0.10017196 0.008245543
-0.00086258294 2.3364979e-05 -0.010803457 -0.003049834 0.06406641 -0.004037138 0.051969208 -0.06361834
-0.09447017 -0.07538636 0.09627149 -0.018240638 -0.016349418 -0.09918231 0.0056555197 -0.048201423
-0.07459705 -0.13613193 -0.0014501801 0.051750056 -0.08372243 0.0027306916 -0.04354865 0.06549925
-0.050365698 0.0028068307 -0.09785604 -0.007782573 -0.10087083 -0.0831671 0.046657216 -0.025578048
0.08731424 0.03416739 -0.17992823 0.020641297 0.0962847 -0.08489412 0.037494864 -0.006387367
0.001996774 0.053489916 0.08441958 -0.0063651316 0.047211263 0.03177266 -0.0677402 -0.011046566
-0.037337698 -0.0006031604 -0.018917484 0.21879457 0.23066771 0.064495146 -0.027680578 -0.009124874
-0.011954313 -0.028533747 0.0401536 0.09637541 -0.012931884 0.16695344 -0.011795503 0.16149803
-0.01592976 -0.030301357 -0.04302184 0.00088462606 -0.009314694 -0.048155203 0.04075269 -0.010744667
-0.03928371 -0.044660386 0.022478964 0.0753448 0.03570448 -0.006206666 -0.034221087 0.08027582
-0.022586124 -0.012563837 0.10777995 -0.011554728 -0.027039837 0.06975989 0.03501164 -0.026904445
-0.027965194 -0.042453583 -0.018625472 0.0055570863 0.087809764 -0.032998994 -0.035516996 0.071309626
-0.01039998 -0.043467954 0.022013223 -0.025974756 0.08747993 0.1286144 0.1916849 0.020036064
0.31722674 0.080975816 -0.008184982 0.15557751 0.06763208 -0.02326032 0.017180357 0.030403258
-0.041573633 -0.034254726 -0.027254386 0.15335606 -0.039684087 0.00071314955 -0.021367216 0.116526686
0.0113516925 0.010595222 -0.013583785 -0.0027155601 -0.02817711 -0.019639691 0.045469392 0.011042722
-0.007097146 -0.038783297 -0.042645916 -0.014805285 -0.011563537 0.025720347 0.0028352682 -0.028463477
-0.0208823 0.0019359093 0.056839 -0.023675451 0.008380187 0.013902547 -0.027388483 0.25066528
0.13496551 0.0774052 0.0434625 0.023224643 -0.025609449 0.029105881 -0.039062485 0.005758996
-0.048530873 0.001925108 -0.001761001 -0.009294809 0.0385439 -0.028871417 0.026152698 0.08091466
0.05498749 0.080645144 0.15955508 0.018379696 0.056963418 -0.005672507 0.11775093 -0.034381475

action_model._discrete_distribution.branches.0.bias f4 [2]
00000000: 6d2e 58be 732e 583e
-0.2111146 0.21111469

action_model._discrete_distribution.branches.0.weight f4 [2, 128]
00000000: 09ff cb3e 84f2 cb3b 5a36 bebd d5c4 5e3e
00000010: 0a7a e53e 3df6 b4be 5de0 32be f25d f93e
00000020: 5f23 e93e 4ee9 a93d 02fa a53d 915b 333e
00000030: 76c6 d63d 47f4 edbd 2ff0 b23e dcf4 343e
00000040: 1efa 4a3e 3fc4 a23e 9d01 4c3f b2aa b4bd
00000050: 6e8d 623e 6527 d93d a476 ed3e a3fb 4a3e
00000060: d423 043f 3793 d13e faeb 8f3e e062 ed3d
00000070: 48be 773d 36d2 c83e 4424 e4be f0d0 ab3e
00000080: c496 953e eed7 833e 0203 2abc e0cc 45bd
00000090: 2c31 043f fc56 993e b745 b83e 42d3 01bf
000000a0: 028d f13e eb3e 203e cd87 dcbb 170a f63d
000000b0: 2aed 883e 5411 4fbe a652 31bd 64ef 563e
000000c0: 18ad 593b 64db b73e 917d b03e fb30 fd3e
000000d0: 6a6a c2bd 0bfa a93d ee4f 863e 3d88 6d3f
000000e0: 91ae 0e3e 72d1 4e3e 41c2 2dbd 59c9 1c3d
000000f0: 5a14 99be e328 d73d b0c6 3a3e 44ea 043e
00000100: adff 9f3e 7f56 97bd 698c 99be a33b fcbd
00000110: ffc9 f4bb abdd 473d 45bc d6be b64d 4f3e
00000120: 3e66 923e 55f7 3d3e 1f6f 953e ef42 463e
00000130: e9d8 af3e cbf5 04be d699 823e 1097 99be
00000140: 0487 593f 4fec cabe 5723 c23e ef99 e53d
00000150: e541 153d 4573 a13c 3d49 6e3d bbcf 303e
00000160: e59c 3d3e f556 ad3e a7d5 9c3e b459 c13e
00000170: 4466 2e3f c036 bebe a4b4 9cbe 7441 a83c
00000180: 904b 5bbb f7e9 703e 85c8 03be c20e a8bd
00000190: c8f4 cbbe 609e ceb9 105c 843e 3510 49bd
000001a0: 7aa4 5abc 8286 633e 6d2d 5dbe 9087 91be
000001b0: ae29 8f3e 6823 06bf b343 a43e d3a0 ff3e
000001c0: 56ed a33e d279 1cbe 9400 bc3e 5caa 5e3e
000001d0: 5337 543e eccf 643e b602 063e 1bbc ac3d
000001e0: fd24 d4be ff94 9abe 00d5 dfbb 67de 3abe
000001f0: 2132 5ebe 4d62 223e fbbe 6b3c f683 1f3e
00000200: 5968 c4be 0ed9 37ba 77d1 bd3d 04b6 66be
00000210: aaf3 e7be 8925 b83e fbf5 293e 4cb4 f9be
00000220: 0aae e3be 5d96 9abd bbe2 babd 8292 46be
00000230: 55c9 a9bd 8fba bf3d 90d6 b0be 689a 31be
00000240: 56cb 41be 8e06 aabe 4e50 4fbf f8e4 ad3d
00000250: fe5b 5fbe d2f5 aebd 77c4 edbe 9f3b 5abe
00000260: 83cc 08bf 47f7 dcbe f1f1 8bbe a538 f7bd
00000270: a9f6 26bd d1ff c7be cdb2 df3e 495d abbe
00000280: de1e 97be db3d 85be 350c 8e3c b008 3b3d
00000290: 5b38 03bf 7d23 97be 3126 bbbe 52eb 043f
000002a0: 8d73 f5be d9af 20be 305a 6d3b b56a ffbd
000002b0: 485e 81be 588f 483e 3704 243d 383d 69be
000002c0: 3f1d 04bc 89ea b9be ebdf bbbe c33c 00bf
000002d0: 6a83 a93d 7bb3 a7bd 5b55 8ebe b0a7 69bf
000002e0: 5ac2 08be 0794 41be bd1c 063d f94f 6abd
000002f0: 07fe 933e 87ab d5bd 893b 1cbe e367 f5bd
00000300: 7cbd 93be a3bb 6c3d f5d3 933e b81e 0a3e
00000310: 4437 b03c e169 75bd 035f d53e ce00 5bbe
00000320: 92d7 8bbe 5fe5 4fbe 0083 99be ddff 4cbe
00000330: 26a7 acbe ac6e 093e 6796 92be 2194 943e
00000340: 8149 55bf 6499 be3e 192e c1be 9de4 f3bd
00000350: 8d93 cfbc a230 4abd 1336 78bd 4701 30be
00000360: 17bf 59be 113b b2be e758 9ebe d22e b5be
00000370: e1f2 2abf 044d c33e 4bd6 9d3e 722f 0dbd
00000380: 361d db3b 2808 6ebe 02e8 d73d bcd4 8c3d
00000390: 5506 c93e 24c0 edbc 0504 87be 08f3 7b3d
000003a0: ca25 2e3c 6bdd 6bbe 67e5 593e 2656 8d3e
000003b0: bda3 8abe d8a0 043f a40b a9be 4e3f fdbe
000003c0: 67e5 a9be e26e 1c3e 93c0 bfbe 67db 59be
000003d0: 6b0a 5dbe ce82 78be 1a20 16be 5cb1 cdbd
000003e0: ad8c ce3e a57e a83e 1b51 633b 2a00 2e3e
000003f0: b5a7 513e 970d 24be e0ba a3bc 049c 13be
0.39843014 0.0062239785 -0.092877105 0.21754773 0.4481967 -0.35344115 -0.174684 0.48704487
0.45534799 0.082964525 0.08104326 0.17515399 0.10487072 -0.11618858 0.3494887 0.17671531
0.19821975 0.3179035 0.7968996 -0.0882162 0.22124264 0.10603217 0.46379578 0.19822554
0.5161717 0.4093263 0.28109723 0.115911245 0.0604842 0.39222878 -0.44558918 0.33557844
0.29216588 0.2575068 -0.010376694 -0.048291087 0.5163753 0.29949176 0.35990688 -0.5071298
0.47177893 0.15649001 -0.006730056 0.12013643 0.26743442 -0.20221454 -0.04329171 0.20989758
0.0033214744 0.3590957 0.344708 0.49451432 -0.09492953 0.08299645 0.26232857 0.9278601
0.1393378 0.20197085 -0.042421583 0.038277958 -0.2989834 0.105058454 0.18239856 0.1297999
0.31249753 -0.07389545 -0.29989937 -0.12316062 -0.007470369 0.048795383 -0.41940513 0.20244488
0.2859363 0.18551381 0.2918634 0.1936147 0.34345177 -0.12984388 0.25507993 -0.29998064
0.8497164 -0.39633414 0.37917587 0.11211001 0.036439795 0.019708285 0.058175314 0.17266743
0.18516882 0.33855405 0.30631754 0.3776375 0.68124795 -0.37151146 -0.30606568 0.020539023
-0.0033461787 0.2352675 -0.12869461 -0.0820594 -0.3983519 -0.0003940938 0.25851488 -0.04908772
-0.013344878 0.2221928 -0.2159936 -0.28423738 0.27961487 -0.52397776 0.320829 0.49927387
0.3201701 -0.15280846 0.3671919 0.21744674 0.2072423 0.22344941 0.13086972 0.08434316
-0.4143447 -0.301918 -0.0068308115 -0.18248902 -0.2169881 0.15857811 0.014388795 0.15577683
-0.3836086 -0.00070132397 0.09268468 -0.22530371 -0.45303088 0.35966137 0.1659774 -0.48770368
-0.4446872 -0.07548211 -0.09125277 -0.19391826 -0.08290354 0.09361755 -0.34538698 -0.17344058
-0.18925223 -0.33208126 -0.8098191 0.08490938 -0.21812436 -0.0854298 -0.46438953 -0.21311806
-0.5343706 -0.43157408 -0.27333024 -0.12071351 -0.040762577 -0.3906236 0.43691102 -0.33469608
-0.29515737 -0.26023754 0.017339805 0.045662582 -0.51257867 -0.29519263 -0.36552575 0.5192157
-0.4793972 -0.1569208 0.0036217086 -0.124715246 -0.25267243 0.19585931 0.040043082 -0.2277726
-0.008063613 -0.3631175 -0.36694273 -0.50092715 0.08277018 -0.0818853 -0.27799496 -0.91271496
-0.13355389 -0.18904124 0.03274225 -0.057205174 0.28904745 -0.10433107 -0.15257086 -0.119827054
-0.28855503 0.05779613 0.28872648 0.13488281 0.021510728 -0.059915427 0.4167405 -0.21387026
-0.27312905 -0.20302342 -0.29982758 -0.20019479 -0.33721274 0.13421124 -0.28630373 0.29019263
-0.83315283 0.37226403 -0.37730482 -0.11908839 -0.025338912 -0.049362786 -0.060598444 -0.17187987
-0.21264301 -0.3481069 -0.30927202 -0.35387284 -0.66776854 0.38144696 0.30827555 -0.034469076
0.006686832 -0.23245299 0.10542299 0.06876513 0.39262643 -0.029022284 -0.26370254 0.06151107
0.010629127 -0.23033683 0.21278916 0.2760479 -0.27078047 0.5180793 -0.33016694 -0.4946236
-0.33182833 0.15276673 -0.3745161 -0.21275102 -0.21586005 -0.24268648 -0.14660683 -0.10043594
0.40341702 0.32909122 0.0034685794 0.1699225 0.20474131 -0.16020809 -0.01998657 -0.14414984

network_body._body_endoder.seq_layers.0.bias f4 [128]
00000000: 07d0 a13d ee39 d1bd b563 8a3c 0ef4 fb3d
00000010: 6daf 83bc d6d5 d3bd d12b 02be 7e71 2fbd
00000020: 748e eebd defc 2fbc 3f40 55be b33d 363c
00000030: 0394 3dbe 9642 bcbc 6091 02be 749f d5be
00000040: b234 0fbd 7110 483d edfc a8bd ef26 30be
00000050: c38c 23be b83c f5be 2418 c0be 6659 cabd
00000060: 2423 0a3e a42e 58bc ad9b c5bd a233 ce3d
00000070: 209e acbd 6f6a 11bd ac64 a93d a839 f5be
00000080: 3eca 5fbc ece8 c0be ac15 4abe 9e51 46be
00000090: 5db9 7bbe 904b abbd d868 fbbc 78ea c13d
000000a0: 77c1 a2be 8d3a 12be 676b b1bd 7740 e7bd
000000b0: e8ba 3fbe b108 82be 31c4 8bbd 271d 67bd
000000c0: c722 09be 99cd 0ebd b3bc 4fbd 7280 d1be
000000d0: 101a 11be e367 1fbe 2b17 c6bd 8990 f3bd
000000e0: 088a 49bd 1430 973c 8700 9abd d96b ca3c
000000f0: c39b 013b e996 87be b30f 83bd fed4 a4bd
00000100: d29e 1abe 062a 2bbe 30d4 cabd 8efa a3bd
00000110: 6c46 30be c6e0 193b 6d89 cbbd 989a 5ebd
00000120: 45c2 c7bd 28ca 54be 2d61 383d 1690 02be
00000130: 386c 963c 55d2 29be 66bc c6bd f70f 493c
00000140: 613c 01be d24d b0bc 718e 76be f14b 7cbd
00000150: c459 973d 77e1 dbbd d7b7 22be 07a9 a4bd
00000160: d2a8 73be 1f89 bfbd 3861 b5bd 378a b0bd
00000170: 7d4d 13be 2bdd 94be 6833 843d df82 08bf
00000180: 7842 d2bd 2079 1fbd 3f8f 973d de0e 55bd
00000190: 52ea aebd a575 d1bd f73a ebbc 4b52 dbbe
000001a0: bf4f a6bd 6401 42be a35a a73d 6c3c f4bc
000001b0: 4daa d9bd 2cb5 14bd 75ac c9bd 3d0e 03be
000001c0: 611d 51be 6b72 08be cb14 0f3e 7aef 40be
000001d0: 0f07 f6bb 55c4 b1be 6fb6 b9bc b959 2b3c
000001e0: cbda e6ba 4bbd 303d d35f 2dbe c595 883d
000001f0: 00f6 37be c559 11be 1190 6b3b 1b36 193d
0.07901006 -0.10216127 0.016893247 0.12302409 -0.01607486 -0.1034352 -0.12712027 -0.042832844
-0.116482645 -0.010741441 -0.20825289 0.011123109 -0.18513493 -0.02298097 -0.12750769 -0.41723216
-0.034962364 0.048843805 -0.08251367 -0.17202352 -0.15971665 -0.47897887 -0.37518418 -0.09880333
0.13489968 -0.013194714 -0.096488334 0.10068442 -0.084285975 -0.035501894 0.08271155 -0.4789555
-0.013659058 -0.37677705 -0.1973483 -0.19367072 -0.24582429 -0.08364022 -0.030689642 0.094685495
-0.31788227 -0.14280148 -0.086630635 -0.112915926 -0.18723643 -0.25397256 -0.0682453 -0.056424286
-0.13392173 -0.034864042 -0.050717067 -0.40918308 -0.14170098 -0.15566973 -0.09672388 -0.11892802
-0.049203902 0.018455543 -0.07519632 0.024709629 0.001977668 -0.26482323 -0.06399479 -0.080484375
-0.15099648 -0.1671525 -0.09903753 -0.08006774 -0.17214364 0.0023479923 -0.09938321 -0.05434665
-0.09753851 -0.20780241 0.04501455 -0.12750277 0.01836215 -0.16584142 -0.09703903 0.012271873
-0.12620689 -0.021521483 -0.24077775 -0.06159586 0.07390168 -0.107363634 -0.15890442 -0.08040052
-0.23794869 -0.09352326 -0.08856434 -0.086201124 -0.14385028 -0.29074988 0.064551175 -0.53324693
-0.10266584 -0.038933873 0.07400369 -0.05201613 -0.08540787 -0.10227517 -0.02871464 -0.42836222
-0.08120679 -0.18945843 0.081715845 -0.029813968 -0.106281854 -0.03630559 -0.09847347 -0.127984
-0.20421363 -0.13324897 0.13972776 -0.18841353 -0.0075081657 -0.34720102 -0.022669999 0.010458403
-0.0017612813 0.043149274 -0.16931085 0.06669191 -0.17964935 -0.141944 0.0035944025 0.037405115

network_body._body_endoder.seq_layers.0.weight f4 [128, 26]
00000000: 7068 85be 6ca3 1d3f c8ec c43e bdce 1f3e
00000010: f80c 013e e554 c4be 41ed c9bd 899b 50bf
00000020: 7b48 bc3e 610b 12be 4cb1 f8bc 4d42 273f
00000030: fe3a 8c3e c08c e03d d63f cf3e a75c 1f3f
00000040: 20d6 5d3c 4d23 ab3e 8d33 ad3c 75c9 ee3d
00000050: 049b 40bf a908 0d3f b997 113d 44e8 bf3c
00000060: 86cb ca3e 268a bbbc 2048 333e 530d 493e
00000070: 9685 e73e 0593 a1bd b142 a5bd d310 52be
00000080: 1b62 463d 6c2a 8cbe 440d 193d 2456 2f3e
00000090: bbf7 e23d 934d 9dbc 46c7 33bd 4479 6b3e
000000a0: 4843 20be 67d8 d13e d29d 94bc 427b a9be
000000b0: d54c aabe 0cdf 503e 6835 01bf 5ae6 bd3e
000000c0: 8480 703d 7c25 fcbe 6ad1 b6bb 24f8 aa3c
000000d0: 37c4 0ebf 7370 06bd 9a84 99be b6fd a23d
000000e0: 2dc1 c23e ddf6 4c3e f8da 403d 0afa 75bd
000000f0: 9827 d13d 605f 5dbd e3da a3b9 120f 13bd
00000100: cde3 d3bd 60da 12be 26c1 473e 3f17 5ebe
00000110: de8c 9cbe 3fa5 98bd 66d1 5f3e 0434 3e3d
00000120: 1ed8 78bc 54ce 93bc 6ef8 03bf 9828 013e
00000130: d1f0 6f3d 57e0 473d 0e07 cc3e 993e fa3d
00000140: 4754 063f 4db8 61be 4eab b93d 3374 5e3d
00000150: 63dc 3e3e 78ad 3ebf 4df8 953e 101a 6a3e
00000160: 1b73 883d b7d8 ef3d 868d da3e 9de9 93bd
00000170: adc9 1a3f 6f0b b03e a949 7ebe 7b37 143e
00000180: 050c bdbd 5146 babb 3b9d e0bd a816 0e3f
00000190: 9fb9 813d 0428 e83c 0ebf 1d3e a89f 823d
000001a0: 3901 313e eb15 9abd e7f9 c7be 90f3 67be
000001b0: af74 33be 069e f8bc bb2a 073d 2601 2a3d
000001c0: 31b3 933d 65eb 49bd 795f abbe c382 91be
000001d0: 1c07 8abe 6071 2fbe 791a 28bd e1bd fcbd
000001e0: fd6b c7be 23f7 38bd a596 573e 0d3b 8b3c
000001f0: d4b8 303e b38d 17bd 3b83 19be adf5 f539
00000200: e07d 94be 3a12 523e ecbb 423d a231 db3e
00000210: b3e1 713e f571 383e 9264 a2bd 401f 003e
00000220: 37d0 5abe 1466 9fbe 106b de3e aa3e 06bd
00000230: 05c2 613e 3072 163f 6293 29be 71df 8c3e
00000240: 4ae1 673e 3122 bf3e 61f2 733e 1551 203e
00000250: 849c 6a3d 12d0 b3bd bd69 3bbf c15b 0abd
00000260: 7429 92be ad5c 8f3e dfa2 853e fcc1 ca3d
00000270: 61fc d3bd 55ef 4c3f 7ff5 773d e825 3ebd
00000280: 7919 44be c1df 30bd c22e 873e b960 6cbe
00000290: c12d d1be 8ede 9dbe d174 9ebc 012b c3be
000002a0: 0b2a c43e cca4 d23d 270d d03e ab86 e9be
000002b0: 19bc 29bc dffb 17be cee4 323d 19b7 243c
000002c0: b816 b7bd 93ae fabc fdb8 54be 41b2 89be
000002d0: fe0b 773c 98e1 e33c 1b15 343c 7014 98be
000002e0: 78c8 953e fdb1 83be 0cef 96be 9bda a13e
000002f0: 114e 64be ec8c c3be 8f86 2f3e 0587 0b3e
00000300: 6fa2 babe 1096 d23c aa28 363e 0592 b0bd
00000310: 604a 29be 537f 55be 3f56 53be 8a60 193e
00000320: 68fc 523e ca39 57be 3e89 d0be 9365 a83e
00000330: db8a 463e 7910 e7be bfb8 46bd 0ca0 26be
00000340: 905e 4a3e cd49 0dbf d188 d03c 9af5 0e3e
00000350: efe7 d1be 9dab 79be 2cc6 943e 48c5 253e
00000360: ea18 90be 7eeb 1c3c ed25 e0be cd71 9e3e
00000370: dcb2 013f 7eea 2abd 22e5 7cbe 7f95 273e
00000380: a502 513e 4e66 7e3d f342 5dbe 9e29 adbd
00000390: ab3a 293e 27ef a4be f1ea 883d b0d8 c1be
000003a0: c50f 673e dfc6 af3e 5a84 e9be 96d4 b5bd
000003b0: 6f85 933e 8078 cb3e 227e 2ebe 6bcb c03b
000003c0: 90bd a83d 7655 2ebf fff0 3e3f 3f96 0bbe
000003d0: 31cb 893e ebe7 083f 8d62 873e 9862 653e
000003e0: 520a 9f3e 34ad 26bc 9662 183e 1f88 afbc
000003f0: 6f2f 7ebb 57aa 7ebc 074f eabe d3c0 293f
-0.26056242 0.61577487 0.384619 0.15606208 0.12602603 -0.3834602 -0.09859706 -0.8148733
0.36774048 -0.14262153 -0.03035798 0.6533554 0.27388757 0.10964346 0.4047839 0.6225075
0.013539821 0.3342537 0.021142745 0.11659519 -0.75236535 0.5509134 0.035545085 0.023426183
0.396084 -0.022893023 0.17507982 0.19633989 0.45219105 -0.0788937 -0.08069361 -0.2051423
0.048433404 -0.27376115 0.037366167 0.17122704 0.11082407 -0.01920203 -0.043891214 0.22995478
-0.15650666 0.40985414 -0.01814166 -0.3310185 -0.33261743 0.20397586 -0.50472116 0.37089807
0.058716312 -0.49247348 -0.0055791633 0.020870276 -0.5576815 -0.032822084 -0.2998398 0.07958548
0.38038006 0.20016046 0.047083825 -0.06005291 0.1021263 -0.054046035 -0.00031252866 -0.035903044
-0.10346184 -0.14341116 0.19507274 -0.21688555 -0.30576223 -0.07453393 0.21857223 0.046436325
-0.015188245 -0.01804272 -0.5155095 0.12613142 0.05857927 0.04879793 0.39849132 0.12218971
0.5247235 -0.22042961 0.09065877 0.054310035 0.18638758 -0.7448344 0.29291 0.22861505
0.066625796 0.11711257 0.426861 -0.072222926 0.6046398 0.34383723 -0.24832787 0.14474289
-0.09230808 -0.005684652 -0.10967489 0.5550332 0.063342325 0.028339393 0.15404913 0.06378108
0.17285623 -0.07523712 -0.39057848 -0.22651505 -0.1752498 -0.030348789 0.032999735 0.041505
0.072119124 -0.049296755 -0.33471277 -0.28420076 -0.2695855 -0.17133093 -0.04104087 -0.12340904
-0.38949576 -0.045157563 0.2105356 0.016995931 0.17258006 -0.03700037 -0.14991467 0.00046913084
-0.29002285 0.20514765 0.047542498 0.42811304 0.23621254 0.18012221 -0.079293385 0.12511921
-0.2136849 -0.31132567 0.43441057 -0.032774605 0.22046669 0.58767986 -0.16560128 0.27514222
0.22644535 0.37330773 0.23822929 0.1565593 0.05727817 -0.08779921 -0.7320822 -0.03377891
-0.2854725 0.28000394 0.26100823 0.09900281 -0.10350872 0.8005269 0.060536858 -0.04642287
-0.19150342 -0.04318214 0.2640286 -0.23083772 -0.4085522 -0.30833858 -0.019342812 -0.38118747
0.38313326 0.10285339 0.40635034 -0.45610556 -0.010359787 -0.14842175 0.043675236 0.0100534195
-0.0893988 -0.030600822 -0.20773692 -0.2689381 0.015078543 0.027817532 0.01099136 -0.29703093
0.29254508 -0.25721732 -0.29479253 0.31612095 -0.22295405 -0.38193452 0.17141174 0.13625725
-0.36452052 0.025706321 0.1778895 -0.08621601 -0.16532278 -0.20849352 -0.20638369 0.14978233
0.20604098 -0.21018139 -0.40729707 0.32889995 0.19388907 -0.45129755 -0.04851603 -0.1627199
0.19762635 -0.55190736 0.025455864 0.13960877 -0.40997264 -0.24381872 0.29057443 0.16188538
-0.28144008 0.00957763 -0.43778935 0.30946198 0.5066354 -0.041727535 -0.24696782 0.16365622
0.20411165 0.062109284 -0.2160757 -0.084552035 0.16526286 -0.3221371 0.066854365 -0.37860632
0.2256461 0.34331414 -0.4560879 -0.08878438 0.2881274 0.39740372 -0.17040303 0.0058836243
0.08239281 -0.68099153 0.7458648 -0.13631533 0.26912835 0.5347888 0.26442376 0.22400892
0.3106256 -0.010173131 0.14881358 -0.021427212 -0.0038785597 -0.015543542 -0.45763418 0.6630985

network_body._body_endoder.seq_layers.2.bias f4 [128]
00000000: 9847 1ebf c081 72be fb93 50be f452 0abf
00000010: 8ab0 41be 3c03 b4be 1aae babd 9f4f 74bf
00000020: 6a14 36bf 6a0e e4be 18e0 0ebf e142 9ebd
00000030: c40d 1fbe 17e1 26be 46f3 57bf 22ad 20bf
00000040: 4cc5 1fbf 9783 3abf 5307 66be b38b 4ebe
00000050: 8983 41bf e8a5 9a3b ff86 55bf e659 d1bd
00000060: 9b69 33bf 7441 4dbf 8914 4dbf f9b1 d7be
00000070: d131 bfbe 3393 4fbf 0618 a6be 5b19 64bf
00000080: 617b 73bf 0193 7abf cdc6 5abe 88b2 0ebe
00000090: 18e4 0abf afd2 19bf bb9d 5ebf bef2 61be
000000a0: 18a5 39bf 2483 eebe 2ac6 61be dcc7 0ebf
000000b0: e70c 34bf a092 42be d1b4 8bbe 0390 51bf
000000c0: d428 0dbf deda 6cbf c54d 5cbf 7346 0bbf
000000d0: a032 30be d5ea 19bf beac 3dbf 92e9 e6bd
000000e0: 751a 1dbf 533c 65bf d5db a8be 06ec 59bf
000000f0: 929a 5bbe 75bc dcbd d9c4 0bbe 82ec 91be
00000100: 0c5e 23bd 7405 8cbe ef4a f53b dd04 41be
00000110: fcd3 2ebe b531 15bf 1943 2abe 1470 e5be
00000120: 26f7 84bf 512b 75bf 4c4e 38bf 8e60 e4bd
00000130: f87b 47bf caf5 84bd 7fbb 53bf 1e77 2abe
00000140: ada6 f0bd 96cb a7be fa83 75bf f62a 2abf
00000150: f99a 51bf cded dabe 7c88 90be d04c a2bd
00000160: 8778 833b b899 35bf e027 3abf 5538 3dbf
00000170: 712b 66be 52ca 82be 4be3 48be 1480 e9be
00000180: f4d0 c4be 5185 1dbf 767e 42be d819 40bf
00000190: 2593 9dbe 7649 eebe a17c 40bf 22ec 81bd
000001a0: 81f0 45be 6ced 6abe 45a2 94be 5108 8abe
000001b0: b8f4 4abf b683 0a3c b687 65bf 9ced 39be
000001c0: 6dcd 7ebf 0532 41bd 0aab a0be 5948 6dbd
000001d0: 44c0 d6be 3bde 6abf 7b69 42be d44b 8dbe
000001e0: 7d7c 32be 90fe 59be 1b5a eebd 2a26 a1be
000001f0: 3479 23be 27b8 04bf 004e 1dbe 11ee 64bf
-0.61827993 -0.23682308 -0.2036895 -0.54032826 -0.18915 -0.35158718 -0.091152385 -0.9543399
-0.711249 -0.44542247 -0.5581069 -0.077276 -0.15532595 -0.16296802 -0.8435558 -0.6276418
-0.62410426 -0.7285704 -0.22463731 -0.20170479 -0.7559133 0.0047194846 -0.8340911 -0.10222225
-0.70083016 -0.80178 -0.8010946 -0.4212797 -0.37342694 -0.81083983 -0.32440203 -0.8910119
-0.95110136 -0.9788056 -0.21364899 -0.13935292 -0.54254293 -0.600871 -0.8695943 -0.22065255
-0.7251754 -0.46584427 -0.2204825 -0.5577371 -0.7033219 -0.19001245 -0.2728639 -0.8186037
-0.55140424 -0.92521465 -0.86056167 -0.5440437 -0.17206812 -0.6012395 -0.7409171 -0.11275019
-0.61368495 -0.8954517 -0.3298022 -0.8512577 -0.21445683 -0.10778133 -0.1364931 -0.28500754
-0.039884612 -0.2734791 0.0074857394 -0.18849511 -0.17073053 -0.5827897 -0.16627158 -0.4481207
-1.0387924 -0.9576922 -0.7199447 -0.11151229 -0.77923536 -0.06492193 -0.8270797 -0.16647002
-0.11750541 -0.3277251 -0.95904505 -0.66471803 -0.81877095 -0.42759553 -0.2822913 -0.07924807
0.0040121707 -0.7093768 -0.72717094 -0.7391408 -0.22477509 -0.25544983 -0.19617955 -0.45605528
-0.3844067 -0.6153155 -0.18993554 -0.75039434 -0.30776325 -0.4654042 -0.7519017 -0.06343867
-0.19330026 -0.22942132 -0.29030052 -0.2695947 -0.7927966 0.008454254 -0.89660203 -0.18157047
-0.99532205 -0.047166843 -0.31380492 -0.057930324 -0.41943562 -0.91745347 -0.1898555 -0.27596915
-0.17430301 -0.21288514 -0.1163828 -0.3147443 -0.15964204 -0.51843494 -0.15361786 -0.8942576

network_body._body_endoder.seq_layers.2.weight f4 [128, 128]
00000000: 7158 f3be 7052 0f3f 0281 2e3e 27f8 f7be
00000010: bcea 16bf b005 37bf b6b8 a4be 4538 f0bd
00000020: e6f7 6a3e 2150 9abe 382c f73e 89df f6be
00000030: 7766 85be fd58 00be d180 fd3e daac b83e
00000040: 32c4 e6bd c21c adbc 963a 103f a836 b33e
00000050: e1b6 a33e 0811 ca3e 17ab 163e becf 1b3f
00000060: 8d17 863e fb09 79bf 1874 033e 4ec7 c8be
00000070: 8be2 cd3e 5dcd 8e3e c4ec 3ebf 240a 1c3f
00000080: 3e77 a5be 769f 043f ffd5 673f 16e4 16bf
00000090: 5449 0e3f be66 05bf e370 48bf 7992 4fbf
000000a0: 1fa1 3e3e 2475 bbbe 0703 06bf 3c45 cbbe
000000b0: 4bfd 123f e533 82be 9640 29bf a723 0b3f
000000c0: 52f1 72be c70a cabe 33a5 783e 9011 aa3e
000000d0: 0804 c6be 4c43 123e d611 3abf 8e30 63be
000000e0: cf04 7ebd 11b4 9e3e c504 8f3c 7c1f a5be
000000f0: e8d1 f8be a75a 27be 0976 7e3d e501 0a3e
00000100: 317f f33e a16d 093f c3c9 ab3e f81f 8cbe
00000110: b76e e6be 66c9 adbe 5e17 223f a5f2 9abe
00000120: 9bde 52be 6386 3ebf a30e cdbe d992 fa3e
00000130: 030f a1be 7943 c13c a504 bbbe 20bc 3dbf
00000140: 1f6d 063f fbc1 e23e 0464 363f 4e6a 593e
00000150: d8da 003f 0c32 d0bd 6f75 81bd a17a dfbe
00000160: d3dc 24be 5f0f 0fbf 2501 0b3f bf08 f9be
00000170: cc4f 1dbf c2d2 1d3f 522c e03e 5449 fa3e
00000180: e8fe ffbd b4f2 db3e 6e50 f7be 85a1 e23e
00000190: 80e3 a7be 02a6 c2bd 33f9 3ebe d204 093f
000001a0: 014f 8b3e bad8 dfbd 99b2 71be 7147 423e
000001b0: 4890 19bf c653 613e 6c13 bfbe 6d44 17be
000001c0: 8bf7 383e def2 253f c84d bd3e a1e1 053f
000001d0: 78ef 49bf 9a8c fd3e b5e1 b7be cd4d 793e
000001e0: 1ccc b03d b39f 1c3e 2e5e 96be dad4 10bf
000001f0: e9ff 0fbe 33fc 0e3f 86d5 e3be ecda 64bf
00000200: 8d86 563a e941 28be 5b40 163e b713 433e
00000210: d647 d1be 041e b73d d41a 1f3e 9453 123e
00000220: 564b d53d 226e 103e a805 1d3d d07f 1ebe
00000230: 0938 61bc 2fd4 7b3d 6d19 1abe e470 a9bd
00000240: 22d2 213e c6d7 abbd 5369 49be 2a2a 353e
00000250: aa63 d7bd 11c4 36be 98b1 103e f06e 403d
00000260: 4fb3 dd3d 8e0f e2bd 9f1a 1c3e 8365 0d3e
00000270: 7ce0 2d3c f882 c9bc 9d9e 66be 11bd 85bc
00000280: c5ed 8c39 3bff d3bc 24a9 433e a1a0 223e
00000290: 0635 543c c040 743d 1aa8 02bd cb8a 4b3d
000002a0: f5de 1a3d 84bc 0f3e 9771 3bbd 9c31 8cbd
000002b0: 7468 edbd d640 05bc 997b 80ba c275 21bd
000002c0: b1af de3d e52d 493e 906e 6bbd cbb1 8a3d
000002d0: 77ee fdbd 8f99 2f3c 635c e03d 877e 9ebd
000002e0: 14e2 e23c bf18 1b3e 9692 3f3e a622 a3bd
000002f0: ed35 903d 2cb1 4d3e 77a1 56bc e75c a43d
00000300: f2b4 053e 546e 853e 47ef b63c b319 50bc
00000310: f548 873d ba47 01bd 179d a73e 93e2 71be
00000320: a0f1 643e fbfd 833d 9868 c53d 8aa0 4a3d
00000330: 22ef 9c3d 5266 5b3e b69e 823e f11e 9bbe
00000340: 7f3e ad3e e543 8e3d 47f1 1f3e d4ac 743d
00000350: a155 653e 93cd c83a 2f3a 9e3c 5791 b03d
00000360: 9f29 69bd d2a3 883b 3057 113c 0a45 72bd
00000370: 1f73 883d dcf8 96bd c2de 4fbc f4f2 723d
00000380: cd0a 123e 94ad 173e 1e6a 2e3e 6f2d eebd
00000390: 0011 ff3d 8bd5 0c3d 55e5 ed3d 43b4 c9bc
000003a0: d4b9 1e3e bfdc b03d 44a1 f93d 0389 3e3e
000003b0: 7113 4e3d 77bb 8abd 52d0 253e 7379 983c
000003c0: 51a4 123e 928c 833e 5f04 ea3d 900e 69bb
000003d0: 0197 ce3d db0c ad3d 9893 66bc 2752 5ebd
000003e0: 34a2 78bd 38a3 ed3d 20e8 32bd 4d10 51be
000003f0: 5ba6 68bc ad5d 8dbc cdd0 78bd db58 3cbe
-0.47528413 0.55985165 0.170414 -0.48431513 -0.58951926 -0.71493053 -0.32172173 -0.117294826
0.22946128 -0.30139259 0.48275924 -0.4821742 -0.26054737 -0.12533946 0.49512342 0.36069375
-0.1126789 -0.021131877 0.56339395 0.35002637 0.31975463 0.3946612 0.14713703 0.60863864
0.26189843 -0.97280854 0.12837255 -0.39214557 0.402119 0.27891055 -0.74580026 0.60952973
-0.32317537 0.5180582 0.9056091 -0.5894178 0.5558064 -0.521099 -0.7829725 -0.81082875
0.1861615 -0.3661281 -0.5234837 -0.3970126 0.57417744 -0.25430217 -0.66114175 0.54351276
-0.23724869 -0.39461347 0.24281769 0.33216524 -0.3867495 0.14283484 -0.72683465 -0.22186491
-0.062016305 0.30996755 0.017458329 -0.32250583 -0.48597646 -0.16343175 0.062124286 0.13477285
0.47557977 0.53682905 0.3355237 -0.2736814 -0.45006344 -0.33942717 0.63316905 -0.30263248
-0.2059273 -0.7442381 -0.4005023 0.4894016 -0.31456766 0.023591744 -0.3652698 -0.7411518
0.52510256 0.4428862 0.7124636 0.21231958 0.5033393 -0.10165796 -0.06321227 -0.43648246
-0.16099863 -0.5588283 0.5429862 -0.48639485 -0.61449885 0.61649716 0.43783814 0.4888407
-0.124997914 0.42958605 -0.4830355 0.44263855 -0.32790756 -0.0950432 -0.1864975 0.5352298
0.27208713 -0.10930009 -0.23603286 0.18972565 -0.5998578 0.22004613 -0.37319505 -0.14772196
0.1806318 0.6482371 0.36973405 0.5229741 -0.78881025 0.49521333 -0.35914388 0.24346085
0.08632681 0.15295295 -0.29368728 -0.56574786 -0.14062466 0.55853575 -0.44498843 -0.8939655
0.0008183502 -0.16431393 0.14672987 0.1905049 -0.4087512 0.08941272 0.15537578 0.14289695
0.1041476 0.14104512 0.038335472 -0.15478444 -0.01374627 0.06148165 -0.15048762 -0.08273485
0.15802816 -0.08390765 -0.19669084 0.17691866 -0.10517056 -0.17848231 0.14130247 0.0469808
0.10825216 -0.11038123 0.1524453 0.13808255 0.010612603 -0.024598584 -0.22521444 -0.016325505
0.00026880033 -0.02587854 0.19107491 0.15881588 0.012952095 0.059632063 -0.031898595 0.04969291
0.037810285 0.14036757 -0.045762625 -0.068454 -0.115921885 -0.008133134 -0.000980246 -0.039418943
0.10873354 0.19646414 -0.057478487 0.067721926 -0.12398999 0.010717764 0.10955121 -0.07738977
0.027695693 0.15146159 0.18708262 -0.07965593 0.070415355 0.20087117 -0.01310002 0.08025532
0.13057306 0.26060736 0.022330893 -0.01270144 0.06605712 -0.031562544 0.32737038 -0.23621587
0.22357798 0.06444927 0.0963909 0.04946951 0.076627985 0.21425751 0.25511712 -0.30297044
0.33836743 0.069465436 0.15619384 0.059735134 0.22395946 0.0015320055 0.019314853 0.086214714
-0.05692446 0.0041699195 0.008870885 -0.059147872 0.066625826 -0.07371685 -0.012687387 0.05931373
0.14261933 0.14812309 0.17032668 -0.116297595 0.12454414 0.034383338 0.11616007 -0.024622088
0.15500575 0.08635854 0.12188962 0.18606953 0.05031151 -0.06774037 0.16192749 0.018612599
0.14320494 0.25693184 0.11426615 -0.0035561658 0.100873955 0.084497176 -0.014073275 -0.054277565
-0.060701564 0.11603397 -0.043678403 -0.20416375 -0.0141998185 -0.017256582 -0.060746003 -0.1839327
