AIRocketLanding/results/AIRocketNew5/AIRocket/AIRocket-8999996.onnx (onnx, 84776 bytes, 9 tensors)

action_model._continuous_distribution.log_sigma f4 [1, 2]
000000 fd d1 5c bf 2d 2a 4a bf
       -0.86257917 -0.78970605

action_model._continuous_distribution.mu.bias f4 [2]
000000 fb f7 43 bc d9 91 7f 3c
       -0.011960979 0.015598738

action_model._continuous_distribution.mu.weight f4 [2, 128]
000000 7c 07 89 bd 17 b6 19 bd 7c f6 47 bd f9 cb d1 bb
       -0.06690881 -0.03752717 -0.04881905 -0.0064024893
000010 e0 de 46 3c 41 c5 37 bd ad 31 7a bc 15 c9 c7 bc
       0.0121380985 -0.04486585 -0.015270633 -0.024387876
000020 33 13 36 bb 12 0a 80 3d fd 4f b3 3c 18 6d 0b be
       -0.002778244 0.06251921 0.021888727 -0.13615835
000030 df 7d 72 bd 95 aa 12 3d 23 55 18 bc 66 f4 18 bc
       -0.05920207 0.03580721 -0.009297642 -0.009335613
000040 65 1f 13 3c 71 15 86 3b e9 7d 89 bd bd 5e a5 bc
       0.008979653 0.0040919115 -0.067134686 -0.020186776
000050 3c 2d 4c 3c 2c 9b 9a bd 02 a3 87 bc 82 f6 10 3d
       0.012461957 -0.07549128 -0.01655722 0.03539134
000060 1f 87 86 bd ce 0c a5 3c f6 d1 21 bd 9b 8f 88 3c
       -0.06568741 0.020147707 -0.039506875 0.016670039
000070 95 50 d2 39 be 3f 7b bb ef 11 09 3d e0 87 43 bd
       0.0004011436 -0.0038337554 0.03346437 -0.047737002
000080 ee 94 ae ba fa 50 ba 3a 1d 44 a2 3d df ed 82 bd
       -0.0013319531 0.0014214807 0.07923148 -0.063930266
000090 22 d4 c7 bd 24 1c 6b bd 9e fd 54 bd eb 7c f4 3b
       -0.09757258 -0.057399884 -0.05199968 0.0074611804
0000a0 5d 6e a9 ba ba a9 1e bc 2e 46 cb ba 4e 86 50 bd
       -0.0012926568 -0.009684021 -0.0015508586 -0.050909333
0000b0 2a 61 bf bc 01 91 f3 3c 4a 23 1c bd 52 ac ed 3c
       -0.023361761 0.02973223 -0.03811959 0.029012833
0000c0 af 90 b7 3d c0 0e d8 bc 13 f2 14 bd ee 89 c0 bd
       0.08963143 -0.02637422 -0.036363672 -0.09401308
0000d0 c6 ea 6e bc 52 2e 91 3c ce 3d 69 3d 4e 73 ae bb
       -0.014582342 0.017722283 0.056943707 -0.005323804
0000e0 42 2e 19 bd 7f 3a 7a 3d 82 19 06 bc 99 02 28 bb
       -0.03739763 0.061090942 -0.0081847925 -0.0025636314
0000f0 f7 a4 1c 3d 8b 5b df 3d 44 ce 87 bc 72 47 b3 3c
       0.03824326 0.10906132 -0.016577847 0.021884654
000100 14 ea 55 bd d8 2c c9 3b 43 b3 bd bc 9c d2 84 bb
       -0.052225187 0.006139379 -0.023156768 -0.004053427
000110 00 99 7a 3c 9f 43 79 3b 2e e0 42 bc 82 ae b0 bc
       0.015295267 0.003803469 -0.011894269 -0.021567587
000120 b1 82 dd bc c6 d0 fb 3b 64 b2 16 3d 7f 94 3e 3d
       -0.027039858 0.0076848 0.03679122 0.046528336
000130 16 c7 92 3c c2 90 45 bd c8 04 1d 3c a9 73 54 3b
       0.017917197 -0.048233755 0.0095836595 0.0032417572
000140 2d 0f a4 bd c4 87 84 bd 19 2e a1 bc a2 5e cd bc
       -0.08010707 -0.06471208 -0.019675301 -0.025069539
000150 8c 41 6d 3d 63 d7 af 3b 06 96 ff 3c 88 dc 74 bc
       0.05792384 0.0053662523 0.031199466 -0.014945157
000160 d7 e0 03 3d a4 d9 1c bc 36 c9 49 ba a3 fc 99 bc
       0.032196846 -0.009573374 -0.0007697524 -0.018797224
000170 ce 08 b7 bd 26 c5 b4 3c 76 f6 90 3d dc 03 40 3d
       -0.08937226 0.022066664 0.07078259 0.04687868
000180 db a7 fa 3b 67 b7 8b bd df 80 8c 3c 96 47 9d 3d
       0.0076494045 -0.068220906 0.017151294 0.076796696
000190 f3 8b 93 3d 65 cc 68 bc 71 25 28 bc 94 77 80 bd
       0.072044276 -0.014208888 -0.010262833 -0.06272808
0001a0 8e de 31 bc 36 70 f1 bc 93 75 12 bd aa 7a 6e bc
       -0.010856284 -0.029472452 -0.03575666 -0.014555613
0001b0 4e 17 f5 bb 3d da 2f bd 9e 4e 55 bd 49 c7 07 3d
       -0.007479585 -0.042932738 -0.05207693 0.033149038
0001c0 db a4 14 3b 32 e2 dc bc 6b 7e 16 bd c5 95 c1 bc
       0.002268127 -0.026963327 -0.036741655 -0.023630986
0001d0 1a 54 42 bd 93 53 d2 bb 91 a2 00 3d 1c 65 96 bc
       -0.047443487 -0.006418654 0.031405035 -0.01835876
0001e0 e8 24 b3 3c d4 25 74 bd 0e 70 9d bd 1d f5 31 3a
       0.021868184 -0.05960639 -0.07687388 0.0006788539
0001f0 29 b5 92 3c 32 27 43 bd a0 b1 88 3c c5 25 1b bd
       0.01790865 -0.0476448 0.01668626 -0.037877817
000200 5d 70 43 bc 89 17 83 3c d7 4d 15 3d 88 e7 27 3d
       -0.011928645 0.016002433 0.036451187 0.04099229
000210 96 e1 42 3c 54 b8 42 bd f9 97 db bc 72 77 80 bc
       0.011894604 -0.04753907 -0.026805865 -0.015681956
000220 e6 89 48 bc 3b 66 91 3c f5 d5 56 bd 76 0d c5 3c
       -0.012239909 0.017748943 -0.05245014 0.02405427
000230 41 54 cb 3d 47 ed d4 3c 7a 02 bd 3c a1 fb 65 bc
       0.099281795 0.025992049 0.02307247 -0.014037044
000240 2b ca 69 bc 1a ae 19 bd 76 a8 62 3c b9 20 64 3d
       -0.014269392 -0.03751955 0.0138341095 0.05569527
000250 5f b0 c7 3b d8 61 ce 3b 0b a6 1b 3d a9 86 37 3d
       0.006094023 0.006298285 0.038000148 0.044806156
000260 b0 1d a0 bb b0 11 8e 3c 0c 8b b6 3c c9 4a b1 3c
       -0.0048863515 0.017342418 0.0222831 0.021642106
000270 64 81 1e bd 7a 09 aa ba 24 d9 6d bd 1b 45 98 3c
       -0.038697615 -0.0012972795 -0.05806841 0.01858764
000280 1d bb ad ba 86 d5 7a 3c 12 af c1 3b 5a f1 90 3d
       -0.0013254617 0.015309697 0.0059107626 0.07077284
000290 5c d7 cf 3b b0 c8 92 bc a3 22 87 bc 28 12 7a 3c
       0.0063428115 -0.01791796 -0.016496008 0.015263118
0002a0 5e 6d 55 bc 52 f1 d2 bc db 3a 86 3d 7b db 47 bd
       -0.013026563 -0.025749836 0.065541945 -0.048793297
0002b0 17 ba 40 3c 3d 8f 8d 3d d2 dd c3 3c e3 a6 0b bd
       0.011763117 0.06912086 0.023909483 -0.034094702
0002c0 62 9a bb bd b0 8a 09 3d 44 82 a0 bb a7 86 4b 3b
       -0.091603056 0.03357953 -0.0048983414 0.00310556
0002d0 59 6d 39 3c 39 c7 83 bd 79 a6 84 bc 90 0a f0 bc
       0.011317574 -0.06434483 -0.016192662 -0.029301912
0002e0 b9 ed e2 3a ab 8e 9f 3a bf 30 a0 bc 9b 6d 2b 3b
       0.0017313279 0.0012173256 -0.019554494 0.002615786
0002f0 e5 f8 6d 3d b4 d0 7a bc a1 cb 68 3d 61 bc a6 3c
       0.058098692 -0.015308548 0.05683482 0.020353498
000300 a7 a9 d3 3d 67 44 9d bb 94 e6 89 bc e0 6f 0a 3c
       0.10335093 -0.004799414 -0.016833581 0.008449525
000310 66 b3 42 bd 74 6c 7b bd 5c eb fb 3c 63 32 eb 3c
       -0.04753437 -0.061382726 0.030751877 0.02871055
000320 53 a6 04 bc e3 75 9c 3c 95 5c 00 3c d8 3f 95 3c
       -0.008096295 0.019099182 0.007834573 0.01821892
000330 1c 0b 2d 3c 75 cc 94 bd 47 28 ea bb 5d 9f cc 3d
       0.010561731 -0.072655596 -0.0071459147 0.09991334
000340 3a 32 dd bd 6a a3 c8 bd 4c 56 46 bd db cd 85 bb
       -0.108005956 -0.09796794 -0.048422143 -0.004083378
000350 e6 50 34 3d db 17 8a bd d9 8c c4 3c 06 e3 91 bc
       0.044022463 -0.06742831 0.023992943 -0.017808449
000360 c1 1b 1c 3c 0a 39 9e bc 7f c6 5b bd cd 73 12 3d
       0.009528101 -0.019314308 -0.053656098 0.035754967
000370 05 b0 81 bd 34 b8 80 bd f7 04 4c bc b6 72 89 bd
       -0.06332401 -0.06285134 -0.012452356 -0.067113325
000380 1f 40 6e bd 9a c2 8f bc c7 d1 ae 3c 98 00 dd 3c
       -0.05816662 -0.017548848 0.021340264 0.026977822
000390 25 e0 18 3d 7b 05 ef bc b7 54 96 3c 01 0b 18 3e
       0.037323136 -0.029177418 0.018350942 0.14847948
0003a0 bc 17 49 3d af 59 0a 3d ed 49 2a 3d 66 97 23 bc
       0.0490949 0.033776935 0.041574407 -0.009984827
0003b0 26 33 4b 3c 1c 29 ad 3b 52 f0 63 3c d7 ad a2 3d
       0.012402331 0.0052844416 0.013912277 0.079433136
0003c0 25 28 a1 3c 7d 6e d7 bc 8e b3 d0 bc e4 db 40 bd
       0.019672463 -0.026297802 -0.025476243 -0.047084704
0003d0 e4 66 e5 3c be ff b2 3b 7f 24 a0 3c d7 32 56 3d
       0.028003164 0.0054626158 0.019548653 0.05229458
0003e0 50 43 3b 3d 6d 65 8e 3d 3c 55 bc 3c 26 22 0a 3d
       0.04571849 0.06952939 0.022989862 0.033723973
0003f0 39 2a 3c 3d 11 50 02 bd a4 20 b3 bb ea 1c 08 3d
       0.045938704 -0.03181464 -0.0054665376 0.0332307

action_model._discrete_distribution.branches.0.bias f4 [2]
000000 43 59 0e bc 2c 59 0e 3c
       -0.008688274 0.008688252

action_model._discrete_distribution.branches.0.weight f4 [2, 128]
000000 16 f3 70 3d 16 c3 86 bc d0 09 a5 3d fa 24 0a 3e
       0.058825575 -0.016450446 0.08058512 0.13490668
000010 18 fb f3 3c 6b 65 f9 bd cf a5 8f bd 25 e1 52 bb
       0.029782817 -0.12177547 -0.07014047 -0.0032177654
000020 e0 2f 41 3e 6e cf b0 3d 24 96 88 bc ac 86 e7 3d
       0.18865919 0.08633314 -0.016673155 0.113049835
000030 64 c4 36 3d 0e 1f b1 bd b4 98 08 3d 0e fc b3 bd
       0.044620886 -0.08648501 0.033348754 -0.0878831
000040 53 99 94 bc 62 b2 e6 3d a4 d4 2a be a2 55 02 3e
       -0.018139517 0.112644926 -0.16682678 0.12727979
000050 54 fe c4 bd f2 fc 48 3b 3a 20 28 3e 84 87 10 3d
       -0.09618822 0.0030668345 0.16418543 0.035285488
000060 36 0f 2f 3e 16 ef 02 3e 55 9a df 3d 6e fb 58 3c
       0.17095646 0.12786517 0.109181084 0.013243539
000070 33 da de bd ed 7a 13 3e fd 27 b1 bd b1 d3 5b 3d
       -0.10881462 0.14402361 -0.08650205 0.05366868
000080 fd 96 83 3d c4 8d 9f 3d 69 7f c5 3c 3a 1c d9 bc
       0.06425283 0.077907115 0.024108605 -0.026502717
000090 6b 66 03 3d c7 9f 91 bc 10 b0 80 3d f3 70 16 be
       0.032080095 -0.017776383 0.06283581 -0.14691524
0000a0 87 ba 1d 3e 0e c2 89 bd 9d 70 0f 3e 77 b0 a2 bd
       0.15403186 -0.06726466 0.14007802 -0.07943814
0000b0 ec af 25 3e 69 4e cb bd 5d 44 21 bd 28 70 4a 3d
       0.1618039 -0.09927065 -0.039371837 0.049423367
0000c0 08 f8 1b 3d 5a 39 09 3e 26 ff fc 3b fc 67 6e 3d
       0.038078338 0.13400784 0.0077208458 0.058204636
0000d0 9e ed 1d bd 7f f0 04 bd a4 47 05 3e 38 35 3e 3d
       -0.038556688 -0.032455917 0.1301561 0.046437472
0000e0 d9 3a 75 bd 21 ad a0 3d 16 36 e5 bd 65 b3 be bd
       -0.059870575 0.07845522 -0.11191957 -0.093115605
0000f0 02 66 9b 3d 97 e8 5e bd a9 69 4a 3e c1 60 10 3d
       0.07587816 -0.054421034 0.19766869 0.03524852
000100 93 92 4f 3e 18 13 a1 bd 89 08 a5 bd 87 cd 08 be
       0.20270757 -0.0786497 -0.080582686 -0.13359652
000110 9f e7 97 3d b9 1e b9 bd 65 f6 88 bd 4d ab 3b bd
       0.07417225 -0.09039063 -0.06687621 -0.045817662
000120 f1 ac ac 3c 3e bf ea bd 20 4f fe 3d 83 1f 9c 3b
       0.021078559 -0.11462258 0.12417436 0.0047644987
000130 c8 b2 2c 3e 00 e5 56 3d 41 e7 a9 bd 4e 97 70 3d
       0.16865075 0.052464485 -0.08296061 0.058738045
000140 4d 69 5e 3c 8d 05 c3 bb 76 05 6a bd 6a f4 8c bd
       0.01357491 -0.0059515894 -0.057134114 -0.06882556
000150 29 95 86 3d 27 a2 c5 bd bb ef 99 3d 08 f2 12 3d
       0.06571419 -0.09650069 0.07516428 0.03587535
000160 d9 e0 db bd e9 b6 31 3e 20 51 38 3e 9d 45 3f 3e
       -0.10736246 0.17354931 0.17999697 0.18678899
000170 ed 2b a0 bd 07 d5 47 3d b8 84 32 bc 55 c1 37 3b
       -0.07820878 0.048787143 -0.0108959 0.002803882
000180 24 9f d0 bd 0e 18 e8 bc e2 e3 d8 bd 7f 0f e1 bc
       -0.10186604 -0.028331783 -0.1059034 -0.02747321
000190 5e 31 1f bd c1 55 05 be 6c 5c 2a 3e 85 55 94 3c
       -0.03886544 -0.13020994 0.16636819 0.018107185
0001a0 a4 c0 85 bc f9 f4 e3 bc 2e 37 ca 3d 95 95 3a 3c
       -0.01632721 -0.027826773 0.09873806 0.011388202
0001b0 0c 05 3d bd 13 a7 90 bd e0 03 ce 3d d1 80 1c 3e
       -0.04614739 -0.07063117 0.10059333 0.15283515
0001c0 b8 d5 cc 3d 93 23 42 bc ca 43 41 3d 43 61 2d 3d
       0.10001701 -0.011849302 0.04718379 0.042329084
0001d0 3d 9f 80 bd b5 bc 47 bd b3 00 1d bc c8 21 d3 3d
       -0.06280372 -0.04876395 -0.009582686 0.10309178
0001e0 eb 6a 39 bc d7 40 b2 bc 6a ed 72 bd a7 6e 94 bd
       -0.011316995 -0.021759434 -0.059308447 -0.07247668
0001f0 b0 6c db bb ee ba 07 bd cb ab 75 bd 76 f0 5e 3c
       -0.006696306 -0.033137254 -0.059978288 0.013607135
000200 4d 3d 34 bd 51 00 b4 3c bf 6e a5 bd 66 16 12 be
       -0.044003773 0.021972807 -0.08077764 -0.14266357
000210 fc ca 0d bd 05 11 03 3e 7a a1 7b 3d 86 b1 27 3b
       -0.03461741 0.12799461 0.061433293 0.002558799
000220 3c 45 36 be 21 7c a1 bd 09 c6 d3 3b db fa 06 be
       -0.17799848 -0.07885004 0.0064628166 -0.13181631
000230 d3 97 b9 bc 84 e5 82 3d 80 98 ef bc 0e b1 ba 3d
       -0.022655403 0.06391433 -0.029247522 0.09115802
000240 51 10 de 3c ae dd 01 be 14 9a 1d 3e 7e b8 05 be
       0.02710739 -0.1268222 0.15390807 -0.1305866
000250 6d 61 cb 3d 6e a3 8f 3c e5 bb 28 be c4 87 4d bd
       0.09930692 0.017533984 -0.16477926 -0.050178304
000260 aa b1 41 be 1f b7 19 be aa b2 cf bd 96 d4 93 bc
       -0.1891543 -0.15011261 -0.10141499 -0.018045705
000270 03 9f 03 3e 13 d6 11 be db 61 9f 3d 97 36 58 bd
       0.12853627 -0.14241819 0.07782336 -0.052786436
000280 95 b7 89 bd 6b 25 a5 bd 38 74 8c bc aa 94 c3 3c
       -0.067244686 -0.080637775 -0.017145261 0.0238746
000290 28 b3 e7 bc 27 d9 b4 3c 24 32 8c bd 81 d1 22 3e
       -0.02828367 0.022076203 -0.06845501 0.15900232
0002a0 c2 87 25 be 18 e0 88 3d 5a 9f 12 be ef 4f 99 3d
       -0.16165069 0.066833675 -0.143186 0.07485949
0002b0 21 92 16 be 52 4a be 3d c2 f5 13 3d a7 d3 89 bd
       -0.14704181 0.09291519 0.036123045 -0.067298226
0002c0 70 64 2f bd b3 57 0d be 0f 67 f5 bc bf 55 84 bd
       -0.042820394 -0.13802986 -0.029956369 -0.06461667
0002d0 65 3f d8 3c 91 7d 09 3d aa 52 15 be 05 2c 00 bd
       0.026397416 0.033567015 -0.14582315 -0.03129198
0002e0 d5 75 86 3d a8 32 86 bd a1 63 d1 3d 63 f0 97 3d
       0.065654434 -0.06552631 0.10224081 0.07418897
0002f0 57 bf af bd fa e2 61 3d 8b de 2b be ab 0e cf bc
       -0.08581417 0.055148102 -0.16784112 -0.025275549
000300 7a 0e 37 be 13 1a 80 3d 98 26 8e 3d 7b ce 14 3e
       -0.17876616 0.06254973 0.06940955 0.14531891
000310 7e 4c 76 bd 42 58 a2 3d 40 81 83 3d 33 df 0c 3d
       -0.060131542 0.0792699 0.06421137 0.034392547
000320 a7 86 07 bc cf e2 c6 3d 0e 4f 07 be ac db 39 bc
       -0.00827185 0.09711229 -0.1321375 -0.011343878
000330 67 4f 26 be 06 01 45 bd 50 eb 53 3d 8a 57 8c bd
       -0.16241227 -0.04809668 0.051738083 -0.06852634
000340 ac cb 43 3b 70 6b 94 bc 88 af 71 3d 78 53 7d 3d
       0.0029876037 -0.018117636 0.05900529 0.06184718
000350 a6 b1 5f bd 5f e7 88 3d 23 e6 9e bd 3c b8 0f bd
       -0.054612778 0.066847555 -0.07758739 -0.03508781
000360 99 9c a3 3d df 7e 3b be a8 57 3b be 66 f0 26 be
       0.07988853 -0.18310116 -0.18295157 -0.16302642
000370 9b c7 bb 3d 46 25 1f bd b1 b8 56 3c 15 15 89 bc
       0.09168931 -0.038853906 0.013105557 -0.016733686
000380 fe 75 d7 3d c2 26 ff 3c e3 3a a9 3d 44 4e 68 3c
       0.10520552 0.03114641 0.08263185 0.014178816
000390 85 bd 07 3d 96 6c ce 3d 46 ac 2f be c9 39 ba bb
       0.033139724 0.10079305 -0.17155561 -0.005683158
0003a0 57 03 5f 3c f9 3f a1 3c 08 c7 d0 bd 31 60 a0 bc
       0.013611636 0.019683825 -0.10194212 -0.019577118
0003b0 93 35 61 3d 9d 91 84 3d ed 23 e1 bd b9 bd 17 be
       0.054982733 0.06473086 -0.109931804 -0.14818467
0003c0 47 b5 e4 bd 60 74 41 3c b4 43 5f bd 88 25 1a bd
       -0.111673884 0.011807531 -0.054507926 -0.03763345
0003d0 84 f2 5d 3d 7b e2 f1 3c ef ac c9 bb 22 17 f4 bd
       0.05418636 0.02952694 -0.0061546485 -0.11918475
0003e0 52 27 cc 39 7a 6e 48 3d ee 27 65 3d eb 64 75 3d
       0.00038939208 0.048933484 0.055946283 0.059910696
0003f0 a9 e1 b5 bb 79 0e 01 3d 87 be 5e 3d a1 c3 01 bb
       -0.0055505824 0.031507943 0.05438092 -0.0019800442

network_body._body_endoder.seq_layers.0.bias f4 [128]
000000 aa 8f 9e 3d be c5 08 be dd 70 46 3c 21 01 c1 bb
       0.077422455 -0.13356683 0.01211187 -0.005890027
000010 71 f3 77 bb 9d 8e aa 3d a6 10 b3 bc 22 c9 6f bb
       -0.0037834311 0.083279826 -0.021858525 -0.003658839
000020 c3 6c 26 3c 34 26 83 bc 2e e4 a2 bc 59 e3 70 3d
       0.010157767 -0.016009428 -0.019884195 0.058810566
000030 f4 72 54 3c 78 bc 0b bd 8f 36 a6 bb 0b 7c b1 bd
       0.01296686 -0.034115285 -0.005072422 -0.086662374
000040 30 fa 61 bd b0 e3 86 3c bc c7 3f bd d8 ce fa 3c
       -0.055170238 0.016465992 -0.04682134 0.030616209
000050 99 f2 fc bc 35 57 2c be 0c c4 d6 bd 39 bd 52 3d
       -0.030877398 -0.16830142 -0.10486612 0.051449988
000060 3d 3f d7 bc e5 e9 08 3d 2a fa 60 bd 13 5f f0 3c
       -0.026275272 0.033426184 -0.054926075 0.02934221
000070 b9 9c a8 bd 21 9e e9 bc f5 d3 90 3d 10 f7 1a be
       -0.082330175 -0.028517785 0.070716776 -0.1513331
000080 78 a5 81 3c c5 a9 15 bb a2 7a a1 3c a4 34 0a bc
       0.015825972 -0.0022836786 0.019711796 -0.008435402
000090 6f 99 1e bd 3d 43 9f bb 8d a9 ea 3c 10 0c 02 3e
       -0.038720544 -0.0048603103 0.028645301 0.12699914
0000a0 b7 01 c1 bd 7b 00 f3 3c d7 f6 2c 3c af 80 c6 bc
       -0.09424155 0.029663315 0.010556898 -0.024231283
0000b0 e9 e3 a1 3d 55 1d 35 bd b1 a5 d8 3d 71 4e 64 bb
       0.079047985 -0.044217426 0.10578478 -0.0034836794
0000c0 8f 7e 8b bd 4a 2c 38 bd 55 83 5e bd 81 c8 34 be
       -0.068112485 -0.044964112 -0.054324467 -0.17654611
0000d0 5d 35 e6 3c c3 3d fd 3c 35 8e 24 bc e3 83 4b 3c
       0.028101617 0.03091324 -0.01004367 0.012421581
0000e0 99 a7 e6 bc 85 07 bb 3c 4c 4c 17 bd b5 ae d7 bc
       -0.028156089 0.022830734 -0.036937997 -0.026328424
0000f0 04 87 e1 bc c4 ff b2 bd 56 fa a5 bc 64 f7 7d bc
       -0.0275302 -0.0874019 -0.020260971 -0.015500877
000100 22 f0 65 bd a7 4c 9e bc ca 9a 08 bd af 70 8e 3c
       -0.05613721 -0.01932366 -0.033350743 0.017387716
000110 0b 28 2d 3d 79 16 b2 3d 9e c9 a0 3b 3e d0 a8 3d
       0.042274516 0.086956926 0.004906847 0.08242844
000120 6e 60 43 3d 09 5a ef 3c e2 21 27 3d 73 fa df bc
       0.047699384 0.029217737 0.040803798 -0.027341103
000130 db 18 d3 3a d4 06 0f bd c6 cc 6f bd 17 a3 53 bd
       0.001610543 -0.03491862 -0.058544897 -0.051669206
000140 4b 7e 6e 3d 43 b9 5a bc 17 be 2a bd f0 84 e2 bc
       0.05822591 -0.013349834 -0.04168519 -0.02765128
000150 ed f8 e4 bc f6 96 55 3d 3a 89 56 bb 36 7d 49 3d
       -0.027950728 0.05214592 -0.0032735602 0.049191676
000160 23 a0 3a 3c 7b ab b0 bc 35 28 a8 bd 1a 9c 07 3c
       0.011390719 -0.021566143 -0.08210794 0.008276964
000170 94 1e b8 bc 81 d4 82 bd 82 50 17 3c 1a 92 41 be
       -0.022475518 -0.06388188 0.009235503 -0.1890339
000180 cc 61 7a bc 76 7d 4e bd 31 e5 78 3d ea 20 b2 bd
       -0.015282106 -0.050412618 0.06076545 -0.08697684
000190 d1 bd 49 bc c7 dc 90 bd 66 12 a4 3c 69 4a e1 bd
       -0.012313322 -0.0707336 0.020028304 -0.11000521
0001a0 5f 73 23 bd 50 4e 91 bc 25 2e d9 bb d9 5b 1a 3d
       -0.03990495 -0.017737538 -0.0066278153 0.03768525
0001b0 e4 5f 51 3d a6 a4 3e bd 67 07 98 bd 5d 1f 5f 3d
       0.05111684 -0.04654374 -0.07423287 0.05447327
0001c0 3e 0d 83 bd 83 44 00 bd 09 d1 46 bc 1c 79 3c bc
       -0.0639901 -0.031315338 -0.012134799 -0.011503484
0001d0 03 20 e2 3d 56 ff 31 be e6 61 8c 3d 99 d6 8b bd
       0.11041262 -0.17382559 0.0685461 -0.06828041
0001e0 57 52 15 3d 45 6a 65 3b 50 8e 07 3d e7 dc 69 3d
       0.03645548 0.0035005969 0.033094704 0.057095435
0001f0 49 52 2e bc b2 30 2c bd 3b 79 c3 3c 9a eb 60 3c
       -0.0106397355 -0.042038627 0.023861518 0.013728047

network_body._body_endoder.seq_layers.0.weight f4 [128, 26]
000000 e0 a2 80 be c8 95 10 3f be a1 54 3e f1 9f 1d 3e
       -0.25124264 0.5647855 0.20764825 0.15393044
000010 e6 40 08 3e c8 2b c5 be ee 7a c7 bd 40 2e 78 be
       0.13306007 -0.38509965 -0.09740244 -0.24236393
000020 be 7e 4b be 43 47 00 be ae 04 59 3d 8b 2a db 3e
       -0.19872567 -0.12527184 0.05298298 0.42805895
000030 71 8a 08 3e b0 04 11 3e 22 19 b2 3e da bb e9 3e
       0.13334061 0.14161944 0.347848 0.45651132
000040 32 74 4a 3c 1f ce aa 3e 0c a8 ab 3c 9d 80 00 3e
       0.012356805 0.33360383 0.020954154 0.12549062
000050 c2 78 37 be 75 58 84 bc e1 ca 19 3d fa 10 18 be
       -0.17917159 -0.01615546 0.037546996 -0.14850226
000060 ad 9c 40 3e 74 8a 13 be 9f 8f bc 3b ef df bf 3d
       0.18809767 -0.14408284 0.0057544257 0.09368884
000070 18 07 91 3e 56 06 b6 bd b0 93 f4 bd 39 6f 37 be
       0.28325725 -0.08887927 -0.11942232 -0.17913522
000080 9c 82 00 3e 84 41 05 be df 3b c9 bd 5c 3d f7 3d
       0.12549824 -0.13013273 -0.09825873 0.1207225
000090 67 7e 8f 3e 38 e3 96 bb aa 99 b2 bc 47 d2 7b 3c
       0.28026125 -0.0046047233 -0.021801788 0.015369958
0000a0 e3 90 84 be df 0b 76 3e 1c 4e ee bc ef 14 b7 be
       -0.2589179 0.24027966 -0.02908998 -0.3575816
0000b0 0d 95 9f be 2c fb 8b 3e a0 10 b9 be ff 46 71 3e
       -0.31168404 0.27340066 -0.36145496 0.23562239
0000c0 c5 ef d4 3c 7a 21 1a be 17 b5 4b 3c 64 a8 2f 3d
       0.025993237 -0.15051833 0.012433312 0.0428852
0000d0 7e 0d c9 be bd 1f 42 3e 72 20 04 be bb 52 e5 3d
       -0.39268106 0.1895742 -0.12903002 0.1119742
0000e0 03 05 d5 3e 97 d2 25 3e 0b 68 a3 bd fb 34 3a be
       0.41605386 0.16193615 -0.07978829 -0.18184273
0000f0 3b 97 60 3e 06 38 09 bd 83 c9 de 3c 24 5d f4 bd
       0.2193269 -0.033500694 0.027195698 -0.11931828
000100 7d ac 49 be 52 7a 81 3d 19 c7 a7 3e be 79 df bd
       -0.19694705 0.06322159 0.32769087 -0.10911892
000110 ad 9f 92 be 77 33 91 bd eb 0a 53 3e f6 1a 47 bc
       -0.28637448 -0.07089894 0.20609634 -0.012152424
000120 29 c6 0b be 2e 2f ca 3d ec 64 07 bf 77 1e 66 bd
       -0.13649811 0.0987228 -0.5288837 -0.056181397
000130 e5 2c e2 bc 6a a2 44 bd c2 2b f9 3e 67 f6 2a 3b
       -0.027609298 -0.048006453 0.48666197 0.0026086809
000140 1d 3c a9 3e 91 7d 67 be 04 74 0b 3d 91 95 b4 3d
       0.33053675 -0.22606494 0.034046188 0.0881759
000150 c4 cd 85 3e 9f cd a7 be e4 a5 e4 bd 0c 25 20 3e
       0.2613355 -0.32774064 -0.111644536 0.15639132
000160 e4 7a 1a 3e 09 cf b3 3b 7d 94 b7 3e 43 2b 0d bd
       0.15085942 0.005487327 0.35855475 -0.034465086
000170 81 f3 dc 3e 8d f2 cb 3d ed a9 8e be 1f e4 1d 3d
       0.4315453 0.09958372 -0.27864018 0.03854763
000180 cd 76 8d bc fa 78 fd 3d 27 a2 9d 3e ba 66 19 3e
       -0.017268563 0.1237659 0.30787775 0.14980593
000190 ae 2d 82 bd 88 18 2a 3d a0 10 a6 3d f6 55 02 3d
       -0.06356369 0.0415273 0.0810864 0.03182026
0001a0 8c b5 5c 3e 4a 24 49 3e 70 c4 79 bd a3 ab 5b be
       0.2155363 0.1964275 -0.060978353 -0.21452193
0001b0 90 be 1f be df fb 43 bd cd 73 ab bd 97 b9 5f bc
       -0.15600038 -0.047847625 -0.083716966 -0.013655088
0001c0 e5 5a 07 3e b2 9f 96 bc 24 f2 8d be fa cc 84 be
       0.13218267 -0.018386696 -0.277238 -0.25937635
0001d0 d9 7e 95 be a6 b5 be bd 21 f5 52 3e b2 5e 3d 3e
       -0.2919834 -0.093119904 0.20601322 0.18493155
0001e0 2c 35 c4 be 7f 3f 09 bd 0d ff 4c 3e d7 c5 ad bd
       -0.38321817 -0.03350782 0.20019169 -0.084850006
0001f0 78 2d f0 3d 3a 46 be 3c b9 fd 01 be 6f 77 ec bd
       0.117274225 0.023226846 -0.12694444 -0.11546218
000200 9f e6 88 be 30 7f 37 3e f1 4b 74 be 49 55 fb 3e
       -0.2673845 0.17919612 -0.23857094 0.49088505
000210 12 6d 17 bd 8e 88 94 3e 46 82 ab 3d 8a 0b cb bc
       -0.036969252 0.29010433 0.08374457 -0.024785776
000220 62 dc ad be e0 77 f1 3d 10 7c 74 3c 33 56 0c 3e
       -0.339572 0.117904425 0.014922157 0.13704757
000230 9b 78 de 3d 30 70 c5 3e 31 26 9c be 50 77 0a 3d
       0.108628474 0.38562155 -0.30497888 0.03380519
000240 0b 22 9b 3e 92 3e f2 3d 97 75 b7 3e 9d ff ab 3e
       0.3029941 0.118283406 0.358319 0.33593455
000250 51 06 dc bd 91 8d 6e be 71 cc 9a be 11 5b e8 be
       -0.10743392 -0.23296191 -0.302341 -0.45381978
000260 44 f2 cb bd 43 ff e9 3e a2 a8 70 3d 60 96 26 bd
       -0.09958318 0.45702562 0.05875457 -0.040670753
000270 43 d8 5d be 62 69 6b 3f c1 0e 10 3e 3d 2c 1a 3d
       -0.21664529 0.91957676 0.14068128 0.037639845
000280 52 62 9d bd 33 6c 1c be 18 ea fa 3d 4f b7 a3 be
       -0.07684769 -0.1527565 0.12251681 -0.3197579
000290 ec 93 a0 be d9 9b 4d be 12 17 a8 3d 04 4e e3 be
       -0.31362855 -0.20078982 0.08207525 -0.4439546
0002a0 c1 d1 9d 3e 30 35 c7 3b 7a 4d 00 3f 33 25 d1 be
       0.30824092 0.0060793385 0.5011822 -0.40848693
0002b0 c9 c3 7d 3d a0 29 3b bd c3 16 58 bd 27 41 fa bd
       0.061954293 -0.045693994 -0.052756082 -0.12219458
0002c0 24 55 35 be 35 3a 81 3d 69 5b e1 bd 08 00 2a bb
       -0.1770826 0.0630993 -0.11003763 -0.002593996
0002d0 ae d2 4c bd 97 bf 4a bd 8e 27 bc 3d c7 6a 8b be
       -0.050005607 -0.04949912 0.09187232 -0.27229902
0002e0 70 c3 ff 3d 52 c1 5c be c6 57 6f be 34 c0 84 3e
       0.124884486 -0.21558121 -0.23373327 0.2592789
0002f0 82 c4 30 be dd 1e 9e bd 60 49 08 be ea e7 51 3e
       -0.17262462 -0.077207305 -0.1330924 0.20498624
000300 da 0e 8a be d0 8f 38 3d d1 45 20 3e f8 26 a6 ba
       -0.26964456 0.045059025 0.15651633 -0.0012676409
000310 bd ec 16 be 25 8a c1 be db d3 2a be 3a b5 46 3e
       -0.14738746 -0.37800708 -0.16682379 0.1940507
000320 da 61 22 3e 14 41 17 be 75 70 d5 bd 9e 4a d5 3c
       0.1585764 -0.14770919 -0.1042184 0.026036557
000330 08 fe 72 3e 9b b3 ce be 2c c3 01 bd 69 d8 3a be
       0.23729718 -0.40371403 -0.03168027 -0.18246616
000340 cd ca 85 3e ac bb 99 be 65 39 3e 3e 95 03 2a 3e
       0.26131287 -0.30025995 0.18576582 0.16602929
000350 5e 41 7b be 88 70 a9 be e9 ef f0 3c 44 be a2 3d
       -0.24536654 -0.33093667 0.029411273 0.079464465
000360 42 b2 4d be 61 b9 8b 3e b2 34 45 bd 65 8b 8e ba
       -0.20087531 0.2728987 -0.048145957 -0.0010875283
000370 ec 12 4c 3e ae cb 9b bb be fa 12 be 6b ce 63 3e
       0.19929093 -0.004754505 -0.14353463 0.22246711
000380 2d 8e 71 3e 99 aa 27 3e 04 eb 92 be 13 8c 56 be
       0.23589392 0.16373672 -0.28694928 -0.20951872
000390 e8 a8 ac 3d ed d2 78 be 10 28 47 3e c1 20 40 bd
       0.08430654 -0.24299212 0.19448876 -0.046906237
0003a0 03 6d ae bd 25 b0 16 3d eb 9e 96 be d7 b0 21 be
       -0.08516886 0.03678908 -0.2941812 -0.15790115
0003b0 be bd ac 3d 90 f4 d2 3e 2f b5 2f be d2 43 b2 bb
       0.08434628 0.4120221 -0.1715896 -0.0054402137
0003c0 46 f4 c8 3d 44 1c 94 bd 0a fe 1e 3e 79 b3 18 be
       0.098122165 -0.07231954 0.15526596 -0.14912213
0003d0 86 bd ba 3e 18 0d 69 3e a1 92 5f 3d a1 4b b0 3e
       0.3647272 0.22758901 0.054583196 0.344327
0003e0 61 7d 81 3e 71 3b 45 be 13 41 23 3e d6 ae 8a bc
       0.2529097 -0.19260956 0.15942793 -0.016929071
0003f0 19 98 80 bc d7 2f 31 bc d5 22 17 3e da c9 9a 3d
       -0.015697526 -0.010814629 0.14759381 0.075580314

network_body._body_endoder.seq_layers.2.bias f4 [128]
000000 92 5b 89 3d ab 7a 98 bc 5f 5a 7b 3c d6 85 59 bd
       0.06706919 -0.01861318 0.01534137 -0.05310615
000010 de a2 00 bd b2 fb 82 bd eb 30 e6 bd 41 a2 98 bd
       -0.031405322 -0.06395663 -0.11239799 -0.074528225
000020 41 9e 95 3b fd a5 c1 3b d9 c2 56 bd 77 51 10 3d
       0.0045659845 0.00590968 -0.052431915 0.03523394
000030 86 d9 c6 bb 3d 8d 9f bc c0 bc 6d bd c7 f9 93 bd
       -0.0060684113 -0.019476527 -0.058041334 -0.072253756
000040 3d 8e 28 bd 8c 5c c3 3b 8b b4 a3 3c ae 9b 6b 3c
       -0.041151274 0.00596196 0.01998355 0.014380379
000050 a3 8b a8 ba f4 9d 40 3d 33 46 83 bc b7 3f 33 bd
       -0.0012858998 0.047025636 -0.016024685 -0.043761935
000060 7a e5 2c 3d 8a 0c 1a bd 43 d4 27 3d 0b 88 e3 3b
       0.042211033 -0.037609614 0.040973913 0.006943708
000070 e9 27 3a bc f6 62 89 bc a7 8b 22 bd 25 ad 1f 3d
       -0.011362054 -0.016770821 -0.039683964 0.038983483
000080 ec 08 0a bd f5 2e 75 bd 4d 03 b9 3c 95 31 81 3c
       -0.033699915 -0.059859235 0.022584582 0.015770713
000090 78 70 72 bd 2c 64 da 3c 98 f2 35 bc 6a d7 5b bc
       -0.05918929 0.026659094 -0.011105202 -0.013418058
0000a0 80 59 60 bd 5f a7 48 bc 57 8c 58 ba a5 a6 5d bd
       -0.054772854 -0.012246936 -0.00082606584 -0.054114003
0000b0 d3 62 3a bc eb 04 c1 ba 61 eb cc bc 70 49 0f bc
       -0.011376101 -0.0014726197 -0.025014581 -0.008745536
0000c0 e2 32 d6 bc b7 bc be bc a3 33 e4 bc a9 98 82 bd
       -0.02614731 -0.023283346 -0.027856654 -0.06376774
0000d0 85 7e 30 bd 48 2f 09 be 79 f9 46 bc c7 6a c9 bc
       -0.04308941 -0.13396943 -0.01214444 -0.024587048
0000e0 da 9d 3e 3d 42 da f2 bc a5 66 b2 3c dd f2 b6 3c
       0.046537258 -0.029645089 0.02177746 0.022332603
0000f0 e6 ae 9b 3c 54 f5 79 3c 49 c1 54 3a f6 ec 5b bd
       0.019004297 0.015256245 0.000811596 -0.05369278
000100 ea ee dc 3d c6 f9 ae ba cd a8 f9 3c 5a b0 99 3c
       0.10787757 -0.0013349585 0.030475998 0.018760849
000110 f1 78 b9 3a c6 2c 0b be a4 45 0c 3d 66 bc 9c 3d
       0.0014150423 -0.13591298 0.034246102 0.07653122
000120 bb 89 8e bd 0b 30 0e bd 45 e0 27 3c ae d3 cc bb
       -0.06959864 -0.034713786 0.010246341 -0.00625082
000130 3d a3 e6 3a 9b 1a 87 bd 30 30 fb 3a 2f 0a 3a 3d
       0.0017596256 -0.065968715 0.0019164141 0.045419868
000140 62 97 ae 3b ad 91 eb 3c fa c5 f9 bd ef ad 81 bd
       0.005328105 0.028755987 -0.12195964 -0.06332003
000150 be 00 3a bd ba ea a5 bc 28 39 ab bd d9 77 89 bd
       -0.045410864 -0.020253528 -0.08360511 -0.06712312
000160 d1 46 2b 3a a5 b4 31 bc 87 3c b4 3c 67 50 22 bc
       0.0006533685 -0.010846292 0.022001518 -0.009906865
000170 29 c3 1c bd 38 d2 59 bb d9 1f 49 bc ee 40 bd 3c
       -0.038272057 -0.0033236872 -0.0122756595 0.02310225
000180 fd 4b d1 bc 62 b9 42 3d 2b 54 85 bc ea 79 0e bc
       -0.02554893 0.047540076 -0.016275486 -0.008696059
000190 3b 17 0d 3b 20 f4 94 bd fb 78 dc bc ca 76 97 3d
       0.002152874 -0.07273126 -0.026913157 0.07395704
0001a0 0c 7f 08 bc 5b 62 87 3d af 83 a0 bc 7e 8e c6 bc
       -0.008331072 0.06610557 -0.019594042 -0.024237867
0001b0 62 26 cd bb 8e 23 cb 3d 27 f7 e2 3c 2e eb 08 bd
       -0.006260679 0.09918891 0.027705742 -0.03342741
0001c0 72 35 09 be 3f 58 1d bd e5 1a 9d bd 06 2e 28 bd
       -0.13399294 -0.038414236 -0.07671145 -0.041059516
0001d0 8e de bf 3c cb 64 f3 3c 70 27 13 3d 9e b6 14 bd
       0.023421552 0.029711148 0.035926282 -0.03630697
0001e0 d4 40 29 b9 34 7a 32 3d a8 29 6a 3d d7 c6 4c 3c
       -0.00016141246 0.043573573 0.057168633 0.012498579
0001f0 1b eb d6 3b b7 9a 02 3d ba 98 53 bc fd 09 eb 3b
       0.0065587885 0.03188583 -0.012914831 0.0071728216

network_body._body_endoder.seq_layers.2.weight f4 [128, 128]
000000 a9 2b 32 3c 72 42 1b 3d 0c 35 f1 bd e1 f5 e2 bc
       0.010874667 0.037905164 -0.11777696 -0.027705135
000010 5f 5b 6b be 0c 47 11 be c2 84 a5 3b 08 bb 37 3e
       -0.22984074 -0.14187258 0.0050512264 0.1794244
000020 7f 70 8d bd b8 86 56 bd 07 f5 09 be a6 14 ba 3c
       -0.069062226 -0.05237457 -0.13472377 0.022714924
000030 1b 87 8d 3d 0b 03 f3 bd 80 97 9e bd 2d 39 f5 bd
       0.06910535 -0.11865815 -0.0774374 -0.11973796
000040 dc f1 15 3e 8c e2 09 bc 67 5d c9 3c dc 0c 41 bd
       0.14643043 -0.008415829 0.02458067 -0.047131404
000050 3e 38 89 bc 26 a3 89 bd a2 1c 06 be 6d 35 6c 3d
       -0.016750451 -0.06720571 -0.1309686 0.05766814
000060 e8 92 d8 bd 2d b3 a3 be d4 80 6c 3a 29 b6 a9 3d
       -0.10574895 -0.31972638 0.00090218824 0.082866974
000070 f1 82 ac 3c 3a a7 13 bd 47 75 ce bd 17 03 7d 3d
       0.021058531 -0.03604815 -0.10080963 0.061770525
000080 9b 54 8e 3d fa 93 bd 3d 13 5f 5c 3e 89 02 6d be
       0.06949731 0.0925674 0.21520643 -0.23145498
000090 64 1d cb bc 6c 8a 81 bd 4d 15 d2 bd da c8 2b be
       -0.024794288 -0.0632523 -0.10257969 -0.16775838
0000a0 aa de b5 bd f9 b0 91 bd c8 65 7a bc fc ba a3 bd
       -0.088803604 -0.07113833 -0.015283056 -0.07994649
0000b0 76 42 ab 3d fc 8e 58 be cb 98 06 be 80 54 c8 3c
       0.08362286 -0.21148294 -0.13144223 0.024454355
0000c0 d6 77 96 bc 79 32 bb 3a 61 5a 12 bc 2c 7c 25 be
       -0.01836769 0.001428201 -0.008932681 -0.16160649
0000d0 f6 5d 66 bd 0e e9 13 3e 43 36 4d be 09 9d 57 bd
       -0.056241952 0.14444372 -0.2004023 -0.052639995
0000e0 02 98 82 bd 57 c1 3d 3e 19 32 24 3c 05 9e 03 3e
       -0.063766494 0.18530785 0.01002171 0.12853248
0000f0 ef 67 58 bd ac bc 8c be 6f 6e 42 3d 71 5f ff 3d
       -0.052833494 -0.27487695 0.0474686 0.12469376
000100 09 e2 b6 bd d7 b6 a6 bc 86 0e 84 3d 75 96 9f 3d
       -0.089298315 -0.020350857 0.064480826 0.07792369
000110 1a 55 22 bc df 21 fe 3c 0c a0 07 bd c5 f4 b0 3d
       -0.009907985 0.03102201 -0.033111617 0.08640436
000120 27 61 97 be 94 5e a7 be d4 9b 98 3d cf cf 63 bc
       -0.2956631 -0.32689345 0.07451597 -0.013904526
000130 da 59 84 bd f7 f2 66 bc 85 b1 17 be b3 cb 41 be
       -0.0646245 -0.014096013 -0.14813812 -0.18925361
000140 ba b7 22 3e 13 10 af bd bc d4 57 3d 66 ff 22 3c
       0.15890399 -0.08547988 0.052693114 0.009948587
000150 a0 62 9b 3d 83 b5 6e 3d b8 9e e7 bd 74 be 91 bd
       0.075871706 0.05827857 -0.1130957 -0.07116404
000160 8b 67 60 3d e6 80 98 be a8 9c f2 3c f0 8f 27 bd
       0.054786246 -0.29785842 0.029615715 -0.040908754
000170 86 c1 05 be 98 0a ef 3c 4a 55 db bd 2f 42 da 3d
       -0.13062105 0.029179856 -0.10709627 0.10657155
000180 84 8b 29 be 3a 8a 96 3d d8 6e 80 bd cd 7b 9d 3d
       -0.16557127 0.073505834 -0.06271142 0.07689629
000190 01 e6 9e 3d 5f b6 65 be 1b c8 d6 bd 0c 47 18 3b
       0.077587135 -0.2243285 -0.10487386 0.0023235707
0001a0 db 94 8e bd b1 45 93 bc 74 f9 58 3d 4b 8c b8 bd
       -0.06961986 -0.017977567 0.052972272 -0.09011134
0001b0 a7 21 21 be e9 88 53 3c ae ca ed bd f9 d6 f4 3c
       -0.15735494 0.01291106 -0.11610924 0.029887663
0001c0 9a 16 9e bc db 37 10 3d 15 b0 40 3e 60 f6 43 bd
       -0.019297887 0.035209518 0.1881717 -0.047842383
0001d0 dd ed e3 bd 8e d9 49 bd e5 b8 07 bd 69 99 c3 bc
       -0.11129353 -0.049279742 -0.033135314 -0.023876863
0001e0 45 9b 07 be 28 14 71 bd 03 3f e2 bc 89 74 79 3c
       -0.13242824 -0.058857113 -0.027617937 0.015225538
0001f0 b1 3a 53 be 87 a4 a3 3d 95 c2 df bc b4 d0 8d be
       -0.20627858 0.079903655 -0.027314464 -0.2769829
000200 08 19 b3 bd 09 a8 cb bd e1 88 5e 3e fb 38 c7 bb
       -0.08745009 -0.099441595 0.21731903 -0.0060797906
000210 c9 5b 44 be 76 58 a1 bc 58 b7 97 3c e7 43 f2 3d
       -0.19175638 -0.019695502 0.018520042 0.118293576
000220 cb 06 f6 bc 03 5d 87 bc 65 af 34 bd f5 da 56 be
       -0.030032536 -0.016523844 -0.04411258 -0.20981963
000230 85 37 90 3d 96 4f ee bc d0 50 7d be c2 ac 7e bd
       0.070418395 -0.029090684 -0.24737859 -0.062176473
000240 1a d7 22 3d 0f 98 59 be 42 d0 e3 bd 3c 51 56 bd
       0.039755918 -0.21249412 -0.111237064 -0.052323565
000250 d3 6f 7e be a4 f0 0e be 1b fb 01 3e ee f7 0e bc
       -0.24847345 -0.13958985 0.12693445 -0.008726103
000260 e9 9e 8f bb 1c ca 48 be 3d 67 a6 3d 33 eb b2 3d
       -0.0043829572 -0.19608349 0.0812516 0.08736267
000270 14 4f 66 3d 54 1d c2 bd 27 1c 59 3d e8 ea 8c 3d
       0.05622776 -0.0947825 0.053005364 0.06880742
000280 5e 39 92 bb cd 1d c7 bc 1b d0 96 3d 48 52 d6 3d
       -0.004462405 -0.024306202 0.07363912 0.10464913
000290 53 1b b9 bd 4b 8b 0a be 3b ac e5 bd 19 bb 4a 3c
       -0.09038415 -0.13529699 -0.11214491 0.012373709
0002a0 7e fb 9f 3d c7 f0 db 3c ae 34 0d be a3 90 82 3d
       0.0781164 0.02684821 -0.13789627 0.063752435
0002b0 b1 f8 84 be 48 d7 7f 3c 13 f7 e4 bd 29 1c 90 bd
       -0.25970986 0.015615292 -0.11179938 -0.07036621
0002c0 0b dc ea 3c 4c c9 11 3d 1a ce 21 be 8f e2 84 3d
       0.028669378 0.035592362 -0.15801278 0.06488525
0002d0 f0 02 77 bd 6f 30 9a 3d 6a a1 b5 3d c3 b3 ba bc
       -0.060305536 0.07528769 0.08868678 -0.022790795
0002e0 05 40 37 bd 14 b3 b8 3b ed 1e 2d 3d 42 63 7a be
       -0.04473879 0.005636582 0.04226582 -0.24451926
0002f0 0c 08 00 be 22 42 52 3e 4a 42 c8 bd 91 01 b7 3a
       -0.1250307 0.2053304 -0.09778269 0.0013962259
000300 0d 74 a0 3c 1f 08 5d 3d fb 89 00 3d 37 13 c2 3d
       0.019586587 0.053962823 0.03138159 0.09476321
000310 e5 68 9a 3c 64 a5 28 be 01 b3 df 3d 00 cd 96 be
       0.018848846 -0.16469342 0.10922814 -0.29453278
000320 1b c3 31 3d fd d6 94 3d 0c 1d 4e bd 0a d0 5d bd
       0.043398958 0.07267568 -0.05032067 -0.05415348
000330 8d 8e 48 bd ec 4c 6e 3e ec 22 28 3e 9b 9b 94 bd
       -0.048964072 0.23271531 0.16419572 -0.07256242
000340 58 3d 2e 3e 3d 57 b8 bd ef 97 14 bd d8 9a a8 3d
       0.17015588 -0.090010144 -0.036277708 0.08232659
000350 a5 e8 71 3d 34 e0 5e bd 07 98 d0 bd 74 d3 dc 3b
       0.059059758 -0.054413036 -0.10185247 0.0067390744
000360 0b 75 83 bc e7 31 b6 bc 35 5a 0d bd cf 6a 6a be
       -0.016047021 -0.022240592 -0.034509856 -0.22892307
000370 2b 40 31 bd 5e cb e9 bd bc fe 03 3e 54 13 d1 3d
       -0.043274086 -0.11415742 0.12890142 0.10208765
000380 fd df 15 3e 17 84 29 bd b8 4f 21 bc ee 5e 64 be
       0.14636226 -0.041385736 -0.009845667 -0.22301838
000390 21 6c 97 bd 31 3e 40 bc 67 54 a3 bd 10 ad 30 bd
       -0.07393671 -0.011733578 -0.07975083 -0.043133795
0003a0 8f 4e 35 3e fd ec fc 3c df 8f 1a bd 19 5f 20 3d
       0.17705749 0.030874724 -0.037734862 0.039153192
0003b0 76 a1 fe bc af 1a fe bd 92 0f e7 3d 2b 64 a9 bd
       -0.03108285 -0.12407433 0.11282267 -0.08271059
0003c0 ef 3d 1d 3e 6b 65 91 3d b6 01 9b bc 87 58 15 bc
       0.15355657 0.07099422 -0.018921714 -0.009115345
0003d0 ee 9f 14 3c 16 39 87 3d 08 c1 b5 bd 0e b1 0c be
       0.009071333 0.06602685 -0.088747084 -0.13739416
0003e0 18 df 93 3c 7b cb b8 bc d5 e5 38 3d db 71 5a be
       0.018050715 -0.022557965 0.04514106 -0.21332495
0003f0 d7 28 70 bd 64 8d 58 bc b4 91 a6 bd 8a 76 c1 3c
       -0.058632698 -0.013217304 -0.081332594 0.023616094
