AIRocketLanding/results/AIRocketNew5/AIRocket/AIRocket-9499956.onnx (onnx, 84776 bytes, 9 tensors)

action_model._continuous_distribution.log_sigma f4 [1, 2]
-0.86742187 -0.79137653
00000000: 5c0f 5ebf a797 4abf

action_model._continuous_distribution.mu.bias f4 [2]
-0.01154855 0.014718205
00000000: 2136 3dbc a024 713c

action_model._continuous_distribution.mu.weight f4 [2, 128]
-0.074455366 -0.037343893 -0.050359625 -0.00639062 0.016633376 -0.0476039 -0.015153358 -0.02703147
-0.010552297 0.060628876 0.014619873 -0.14230494 -0.05986556 0.035629686 -0.009457763 -0.014771933
0.0023461701 -0.0035494873 -0.069635905 -0.022716088 0.012165374 -0.08149668 -0.020872783 0.038118623
-0.07179967 0.017034872 -0.045404647 0.01779296 -0.006090465 -0.011194246 0.032235693 -0.05286725
-0.002843541 0.001556103 0.07984656 -0.071545236 -0.09979037 -0.06432795 -0.059255235 0.0053473758
-0.008928425 -0.015808567 -0.0031964083 -0.057885166 -0.028445113 0.02981451 -0.042042032 0.021633714
0.082245395 -0.029674638 -0.043081272 -0.0967382 -0.014125015 0.010991819 0.051012915 0.0020764577
-0.043226425 0.056503844 -0.01709107 -0.0040242127 0.039010193 0.11011358 -0.019851118 0.02200938
-0.057492845 0.006022855 -0.023176678 -0.008778406 0.024568753 -0.00272659 -0.009002682 -0.022420734
-0.032693133 0.0075582094 0.031543653 0.04911668 0.01236296 -0.047994174 0.009983548 0.007002514
-0.083186634 -0.06512698 -0.019968195 -0.0321247 0.05486753 -0.0017286817 0.03153305 -0.014905051
0.03207907 -0.017408397 -0.008497574 -0.021967966 -0.09104464 0.026219677 0.06677853 0.039714564
0.0017530969 -0.075245954 0.016729683 0.076695204 0.070116684 -0.02092719 -0.013811666 -0.056904014
-0.011878656 -0.030916568 -0.0369336 -0.019940002 -0.009321397 -0.04906638 -0.058382627 0.03367152
0.000818156 -0.026976211 -0.037970785 -0.023672638 -0.050656155 -0.005806451 0.032311235 -0.01799928
0.020668907 -0.0590218 -0.08150611 0.0005693876 0.016991973 -0.055181548 0.016982177 -0.038480487
-0.0054736454 0.01583154 0.03767044 0.040811457 0.010246323 -0.049155835 -0.02718689 -0.013430752
-0.0062678806 0.018784445 -0.046948865 0.02981467 0.10062731 0.02653974 0.023118006 -0.008414546
-0.008492193 -0.03174177 0.013103372 0.059163988 0.008821762 0.01184367 0.04346769 0.04400641
0.00068502064 0.01948535 0.028324535 0.021934677 -0.033456407 0.0045707063 -0.061085325 0.023946036
0.002844604 0.018616192 0.0058138217 0.06683394 0.008956008 -0.011491979 -0.009818645 0.014894481
-0.006924957 -0.020703452 0.06824908 -0.042610772 0.017390162 0.06880955 0.023678163 -0.028630806
-0.08622438 0.038732212 0.0018218559 0.0053368923 0.011024222 -0.05882692 -0.011361652 -0.034233414
0.008467196 0.005071463 -0.02063893 0.0030210568 0.059034552 -0.015394704 0.06080219 0.020728812
0.10894022 -0.004841277 -0.017125132 0.013779897 -0.052220073 -0.055903237 0.03286337 0.03244576
-0.0021698128 0.018781794 0.012736546 0.01827402 0.015800595 -0.073047444 -0.007341953 0.10283815
-0.10995737 -0.101652324 -0.047844395 0.0023759126 0.04748961 -0.061900053 0.025164256 -0.018152503
0.009347588 -0.013124251 -0.04781266 0.040040918 -0.06397706 -0.06515405 -0.0074915723 -0.061975032
-0.053343236 -0.011053011 0.022545882 0.027089328 0.039752986 -0.023256103 0.022955788 0.14893089
0.05244882 0.036353465 0.042913876 -0.008304882 0.015957922 0.0111042755 0.020176617 0.07900493
0.023077643 -0.026520811 -0.02564296 -0.047431644 0.033007912 0.005251674 0.01928232 0.052244112
0.047197353 0.07239479 0.02796617 0.03351338 0.04710573 -0.025774207 -0.005364328 0.033937465
00000000: 0e7c 98bd e9f5 18bd e545 4ebd 6868 d1bb
00000010: b842 883c 4ffc 42bd ca45 78bc 1a71 ddbc
00000020: 8be3 2cbc fc55 783d 3188 6f3c 63b8 11be
00000030: 9735 75bd 6ff0 113d bcf4 1abc fa05 72bc
00000040: 34c2 193b 849e 68bb 459d 8ebd 1717 babc
00000050: 4751 473c bbe7 a6bd 66fd aabc 4622 1c3d
00000060: b50b 93bd b78c 8b3c 39fa 39bd 8bc2 913c
00000070: 8692 c7bb 1268 37bc 9309 043d 548b 58bd
00000080: b45a 3abb 27f6 cb3a 9886 a33d 4f86 92bd
00000090: e55e ccbd 5fbe 83bd 9eb5 72bd 0a39 af3b
000000a0: 8748 12bc f880 81bc d57a 51bb ff18 6dbd
000000b0: ba05 e9bc 8f3d f43c 4434 2cbd 3039 b13c
000000c0: 4670 a83d 3a18 f3bc fd75 30bd ad1e c6bd
000000d0: 9b6c 67bc 0817 343c ebf2 503d 2e15 083b
000000e0: 310e 31bd 9370 673d 9202 8cbc 8bdd 83bb
000000f0: 27c9 1f3d 3b83 e13d d09e a2bc 044d b43c
00000100: 9e7d 6bbd 5f5b c53b 04dd bdbc 4ed3 0fbc
00000110: 6944 c93c 97b0 32bb fc7f 13bc b0ab b7bc
00000120: 3ce9 05bd dbaa f73b eb33 013d 922e 493d
00000130: 038e 4a3c 8a95 44bd 0992 233c 5875 e53b
00000140: c15d aabd 4b61 85bd 5794 a3bc 3095 03bd
00000150: c6bc 603d ef94 e2ba cd28 013d 5134 74bc
00000160: 5865 033d 0e9c 8ebc 6939 0bbc 2af6 b3bc
00000170: 9d75 babd a6ca d63c 2fc3 883d bdab 223d
00000180: 2cc8 e53a 8d1a 9abd b00c 893c 6012 9d3d
00000190: 5699 8f3d 806f abbc 534a 62bc 2f14 69bd
000001a0: b29e 42bc be44 fdbc b047 17bd 3759 a3bc
000001b0: c6b8 18bc d4f9 48bd 9f22 6fbd 26eb 093d
000001c0: 8579 563a 37fd dcbc 4187 1bbd 1fed c1bc
000001d0: d47c 4fbd 0b44 bebb c958 043d 3a73 93bc
000001e0: d751 a93c d8c0 71bd adec a6bd f442 153a
000001f0: c032 8b3c 0c06 62bd 351e 8b3c b79d 1dbd
00000200: 445c b3bb 25b1 813c 524c 1a3d ea29 273d
00000210: 32e0 273c a157 49bd 0ab7 debc a80c 5cbc
00000220: cb62 cdbb d6e1 993c 744d 40bd e53d f43c
00000230: b115 ce3d de69 d93c f961 bd3c 2add 09bc
00000240: d722 0bbc a903 02bd 87af 563c f055 723d
00000250: 2789 103c f40b 423c 2d0b 323d 1140 343d
00000260: f592 333a be9f 9f3c db08 e83c 5ab0 b33c
00000270: 9609 09bd ddc5 953b 9b34 7abd 7a2a c43c
00000280: 896c 3a3b fc80 983c df81 be3b 3ce0 883d
00000290: 38bc 123c da48 3cbc 62de 20bc fb07 743c
000002a0: c0ea e2bb 499a a9bc 2cc6 8b3d a288 2ebd
000002b0: d075 8e3c 05ec 8c3d b5f8 c13c 278b eabc
000002c0: 6896 b0bd aba5 1e3d 57cb ee3a 19e1 ae3b
000002d0: f09e 343c 7ff4 70bd 3926 3abc 5638 0cbd
000002e0: feb9 0a3c 842e a63b f912 a9bc ecfc 453b
000002f0: 37ce 713d 123a 7cbc b80b 793d 78cf a93c
00000300: 0d1c df3d 93a3 9ebb 014a 8cbc 14c5 613c
00000310: b7e4 55bd cbfa 64bd be9b 063d d8e5 043d
00000320: 6b33 0ebb 47dc 993c f2ac 503c 66b3 953c
00000330: 4070 813c e699 95bd c494 f0bb cf9c d23d
00000340: 5431 e1bd 182f d0bd 7cf8 43bd 33b5 1b3b
00000350: 7784 423d e98a 7dbd 4525 ce3c 8fb4 94bc
00000360: a026 193c 1907 57bc 35d7 43bd f201 243d
00000370: 6806 83bd 7d6f 85bd dd7b f5bb 88d9 7dbd
00000380: 707e 5abd b017 35bc 24b2 b83c 70ea dd3c
00000390: 07d4 223d 9583 bebc c70d bc3c 5781 183e
000003a0: 93d4 563d 5fe7 143d 76c6 2f3d 3311 08bc
000003b0: 30ba 823c b5ee 353c 6f49 a53c 56cd a13d
000003c0: 530d bd3c 2c42 d9bc 2f11 d2bc af47 42bd
000003d0: 4e33 073d 3c16 ac3b f5f5 9d3c ecfd 553d
000003e0: 0352 413d b843 943d 4f19 e53c 5345 093d
000003f0: f0f1 403d 6e24 d3bc 3fc7 afbb 0302 0b3d

action_model._discrete_distribution.branches.0.bias f4 [2]
-0.0057432572 0.005743238
00000000: ef31 bcbb c631 bc3b

action_model._discrete_distribution.branches.0.weight f4 [2, 128]
0.058694217 -0.015047821 0.07716708 0.1333666 0.028773163 -0.1188129 -0.06777986 -0.007670653
0.18893386 0.083334826 -0.016939916 0.111982815 0.041630212 -0.088570245 0.032204498 -0.08910631
-0.020499537 0.11325641 -0.16464525 0.12318946 -0.10017831 0.0017727824 0.16031626 0.034460615
0.168881 0.124581486 0.106275275 0.010629539 -0.10977573 0.14376175 -0.08562936 0.05180769
0.059706047 0.07309347 0.025587626 -0.02364058 0.027499473 -0.018655624 0.06091153 -0.14697611
0.15365724 -0.067934364 0.1361421 -0.07987267 0.15853971 -0.09710542 -0.040569954 0.049124397
0.038343605 0.13001047 0.005268725 0.053480193 -0.037209082 -0.034237485 0.12833813 0.04550805
-0.063132904 0.07591293 -0.10953639 -0.09511856 0.07307435 -0.052320816 0.19364928 0.03422496
0.19913094 -0.077616535 -0.07835999 -0.1360319 0.0726889 -0.09166281 -0.07035416 -0.048081655
0.018989304 -0.11286667 0.1213554 0.0042106602 0.16604634 0.054833375 -0.080869 0.05795237
0.015901234 -0.0044563054 -0.059706364 -0.06925108 0.06302514 -0.09667843 0.0722998 0.03814836
-0.10581975 0.17348431 0.18079592 0.18305491 -0.076942496 0.048008062 -0.0137496535 0.0029107989
-0.102853715 -0.02879285 -0.10880511 -0.02925243 -0.04236704 -0.13071889 0.16268843 0.018969145
-0.020400107 -0.0321046 0.09531687 0.008629516 -0.05065909 -0.071597636 0.09749485 0.15192962
0.095555596 -0.010020851 0.04820711 0.044639625 -0.06542466 -0.050022848 -0.0074496614 0.10073679
-0.014377804 -0.024677483 -0.06089616 -0.0711182 -0.00980371 -0.033757053 -0.05666657 0.011690124
-0.043872416 0.020570168 -0.07735962 -0.14112343 -0.033607673 0.12503253 0.059072725 0.007011686
-0.17827316 -0.07585173 0.0067295926 -0.13074927 -0.019664649 0.06599953 -0.028103134 0.092381224
0.029467413 -0.12743308 0.15172648 -0.12649643 0.10329702 0.018828059 -0.16091008 -0.04935343
-0.18707885 -0.14682926 -0.09850919 -0.015431789 0.12949795 -0.14215635 0.07695067 -0.050925437
-0.0626981 -0.07582412 -0.018624276 0.02101246 -0.023703031 0.022955442 -0.06653054 0.15906318
-0.16127607 0.06750338 -0.1392501 0.07529401 -0.14377762 0.090749964 0.03732118 -0.06699948
-0.043085657 -0.13403249 -0.027504236 -0.059892196 0.025049947 0.03534858 -0.14400518 -0.03036269
0.068916745 -0.062984 0.09985763 0.0761919 -0.08301037 0.05304791 -0.1638217 -0.024251975
-0.17518952 0.06151632 0.06718687 0.14775428 -0.05864816 0.08054208 0.067689344 0.036656547
-0.0061825896 0.0953564 -0.12931876 -0.010790049 -0.15980788 -0.050465528 0.049646426 -0.06774042
0.00066124863 -0.019612852 0.061577518 0.0622728 -0.05192381 0.067025304 -0.0747229 -0.037360817
0.07834587 -0.18303616 -0.18375053 -0.15929234 0.09042305 -0.03807482 0.015959255 -0.01684062
0.10619319 0.031607434 0.085533544 0.015958004 0.03664133 0.10130149 -0.16787586 -0.006545125
0.017684532 0.023961626 -0.09852095 -0.016818421 0.05949442 0.06569732 -0.10683332 -0.14727913
-0.10721246 0.009979088 -0.05553124 -0.039944 0.056807376 0.030785838 -0.008287656 -0.11682976
0.0034502258 0.05185148 0.05753403 0.058552347 -0.002443178 0.03212773 0.051069185 -6.303317e-05
00000000: 5969 703d 238b 76bc c609 9e3d 4191 083e
00000010: b2b5 eb3c 2d54 f3bd 2bd0 8abd 1a5a fbbb
00000020: e177 413e 73ab aa3d 94c5 8abc 3f57 e53d
00000030: 7184 2a3d 5164 b5bd dde8 033d 5e7d b6bd
00000040: a5ee a7bc faf2 e73d c498 28be c14a fc3d
00000050: 492a cdbd b55c e83a f229 243e 9326 0d3d
00000060: 24ef 2c3e 9424 ff3d daa6 d93d 8527 2e3c
00000070: 19d2 e0bd 4836 133e 725e afbd 4d34 543d
00000080: 548e 743d 07b2 953d 249d d13c e4a9 c1bc
00000090: 9346 e13c aed3 98bc 5e7e 793d e880 16be
000000a0: 5358 1d3e 2c21 8bbd d668 0b3e 4894 a3bd
000000b0: 3c58 223e 35df c6bd ae2c 26bd aa36 493d
000000c0: 2f0e 1d3d 7721 053e 45a5 ac3b 0c0e 5b3d
000000d0: 8d68 18bd 9b3c 0cbd 126b 033e a666 3a3d
000000e0: d34b 81bd 3d78 9b3d 9d54 e0bd 85cd c2bd
000000f0: 01a8 953d 5a4e 56bd ff4b 463e 792f 0c3d
00000100: fbe8 4b3e 6bf5 9ebd 347b a0bd f24b 0bbe
00000110: ebdd 943d b6b9 bbbd d815 90bd 45f1 44bd
00000120: 758f 9b3c a426 e7bd 2e89 f83d 94f9 893b
00000130: 0d08 2a3e f698 603d a59e a5bd 775f 6d3d
00000140: 4e43 823c 3306 92bb a98e 74bd 83d3 8dbd
00000150: 5313 813d 57ff c5bd eb11 943d 7441 1c3d
00000160: 06b8 d8bd dfa5 313e 9122 393e bf72 3b3e
00000170: 0794 9dbd 1aa4 443d 3a46 61bc 1ac3 3e3b
00000180: f8a4 d2bd fcde ebbc 37d5 debd cba2 efbc
00000190: 1089 2dbd 2cdb 05be cc97 263e 2e65 9b3c
000001a0: 201e a7bc 1d80 03bd 7e35 c33d d062 0d3c
000001b0: e87f 4fbd c8a1 92bd 61ab c73d 7093 1b3e
000001c0: a7b2 c33d 7f2e 24bc d274 453d 0ad8 363d
000001d0: 5dfd 85bd c2e4 4cbd 4a1c f4bb 174f ce3d
000001e0: e190 6bbc 6f28 cabc 406e 79bd 6ba6 91bd
000001f0: bd9f 20bc d644 0abd 351b 68bd ef87 3f3c
00000200: 90b3 33bd c582 a83c b86e 9ebd a982 10be
00000210: 33a8 09bd 8708 003e 3ef6 713d 49c2 e53b
00000220: 3d8d 36be 2758 9bbd ea83 dc3b 23e3 05be
00000230: c217 a1bc c32a 873d 8b38 e6bc 5e32 bd3d
00000240: a565 f13c d17d 02be 305e 1b3e 4888 01be
00000250: 638d d33d 4d3d 9a3c 9dc5 24be d226 4abd
00000260: 9991 3fbe 695a 16be 30bf c9bd 9dd5 7cbc
00000270: 1c9b 043e 6f91 11be 5098 9d3d 3197 50bd
00000280: dd67 80bd ad49 9bbd f091 98bc 5322 ac3c
00000290: dc2c c2bc 0d0d bc3c 2a41 88bd 75e1 223e
000002a0: 8e25 25be 363f 8a3d 9497 0ebe bf33 9a3d
000002b0: 713a 13be 1edb b93d 18de 183d 0637 89bd
000002c0: 967a 30bd d03f 09be 9050 e1bc 8551 75bd
000002d0: 8c35 cd3c acc9 103d 1876 13be 2dbb f8bc
000002e0: 3924 8d3d c1fd 80bd 2882 cc3d 800a 9c3d
000002f0: 5701 aabd c448 593d e0c0 27be 14ac c6bc
00000300: e264 33be 89f8 7b3d 4599 893d e64c 173e
00000310: 0e39 70bd 3ff3 a43d b6a0 8a3d 2d25 163d
00000320: 5297 cabb 374a c33d 236c 04be bfc8 30bc
00000330: ada4 23be f1b4 4ebd 0d5a 4b3d 7dbb 8abd
00000340: a557 2d3a 22ab a0bc b538 7c3d c311 7f3d
00000350: 10ae 54bd 9044 893d 5208 99bd a807 19bd
00000360: cd73 a03d d56d 3bbe 1929 3cbe 881d 23be
00000370: b82f b93d 58f4 1bbd fcbc 823c 57f5 89bc
00000380: d17b d93d cc76 013d 362c af3d 5cba 823c
00000390: 3815 163d 2877 cf3d a6e7 2bbe 7d78 d6bb
000003a0: 27df 903c 2c4b c43c 5ac5 c9bd c9c6 89bc
000003b0: 6cb0 733d 518c 863d 6dcb dabd 57d0 16be
000003c0: 3592 dbbd 547f 233c ba74 63bd 529c 23bd
000003d0: daae 683d 9532 fc3c f3c8 07bc 7144 efbd
000003e0: 2f1d 623b 3862 543d cea8 6b3d 96d4 6f3d
000003f0: ba1d 20bb 5e98 033d ec2d 513d ad30 84b8

network_body._body_endoder.seq_layers.0.bias f4 [128]
0.082434505 -0.13599636 0.010721698 0.0037646592 -0.0031852962 0.0853283 -0.022648238 -0.002551674
0.012966701 -0.017902877 -0.019912487 0.06248048 0.011522447 -0.034349665 -0.0053093797 -0.08696466
-0.05605745 0.017337935 -0.046816695 0.032442782 -0.030224493 -0.16888511 -0.10306418 0.054585163
-0.026119737 0.03356397 -0.05435733 0.02677848 -0.083260484 -0.02667195 0.07012091 -0.1511142
0.014614769 -0.0022147282 0.021446252 -0.006524422 -0.038492113 -0.0037189752 0.02919533 0.12736325
-0.09442825 0.031988066 0.010722586 -0.023569513 0.07944042 -0.04526576 0.111174665 -0.0017919097
-0.067297585 -0.04162352 -0.055089656 -0.17850402 0.029902324 0.029829357 -0.0064860783 0.011762505
-0.028231287 0.026267651 -0.039980605 -0.018868221 -0.023942063 -0.08788113 -0.019291498 -0.013674739
-0.056333724 -0.01860503 -0.034017153 0.015750367 0.042794354 0.08596573 0.005393434 0.08723674
0.052454114 0.028479716 0.041746415 -0.027164184 0.0014004357 -0.034830336 -0.057887193 -0.051337898
0.06278949 -0.012813584 -0.04124698 -0.028110113 -0.027333936 0.052326366 -0.005311748 0.04956728
0.012650884 -0.021504343 -0.08085746 0.012631208 -0.021975048 -0.06266826 0.008909328 -0.18870892
-0.015400716 -0.048487633 0.06449664 -0.08685847 -0.00929999 -0.07003116 0.021266151 -0.11038199
-0.039953943 -0.017133916 -0.000567345 0.03882556 0.052219298 -0.04690539 -0.074536525 0.05783781
-0.06458317 -0.031758655 -0.010226554 -0.011394673 0.11204953 -0.17299066 0.069985986 -0.06794114
0.035688728 0.0051819445 0.031499587 0.059860203 -0.011387486 -0.04030714 0.026581567 0.013596774
00000000: 6cd3 a83d a142 0bbe 10aa 2f3c 80b8 763b
00000010: 67c0 50bb 9bc0 ae3d cc88 b9bc fc39 27bb
00000020: 4972 543c 0ea9 92bc 831f a3bc 88eb 7f3d
00000030: a5c8 3c3c 3cb2 0cbd 4efa adbb 871a b2bd
00000040: 7f9c 65bd 4908 8e3c ddc2 3fbd b9e2 043d
00000050: 5b99 f7bc 38f0 2cbe 5013 d3bd b194 5f3d
00000060: 0ff9 d5bc 607a 093d cba5 5ebd 8b5e db3c
00000070: 7984 aabd 227f dabc 8d9b 8f3d aebd 1abe
00000080: c972 6f3c f924 11bb 0db0 af3c d2ca d5bb
00000090: e8a9 1dbd 0dba 73bb 0b2b ef3c 836b 023e
000000a0: 9963 c1bd eb05 033d c9ad 2f3c da14 c1bc
000000b0: a9b1 a23d 9768 39bd 8baf e33d 83de eaba
000000c0: 51d3 89bd 6d7d 2abd b1a5 61bd c2c9 36be
000000d0: b8f5 f43c b25c f43c 2b89 d4bb 86b7 403c
000000e0: 4d45 e7bc 422f d73c b4c2 23bd 8791 9abc
000000f0: 2522 c4bc 06fb b3bd 3409 9ebc 030c 60bc
00000100: 31be 66bd 9369 98bc 9255 0bbd ea06 813c
00000110: 2249 2f3d cd0e b03d 67bb b03b 2da9 b23d
00000120: 20da 563d 4b4e e93c 4afe 2a3d 6c87 debc
00000130: d38e b73a 41aa 0ebd 1f1b 6dbd b047 52bd
00000140: c797 803d 11f0 51bc 98f2 28bd 2e47 e6bc
00000150: 6beb dfbc 2c54 563d 2c0e aebb 0f07 4b3d
00000160: a745 4f3c e029 b0bc 9998 a5bd 20f3 4e3c
00000170: 0405 b4bc 3758 80bd 6ef8 113c e93c 41be
00000180: 4953 7cbc f89a 46bd d016 843d dbe2 b1bd
00000190: fc5e 18bc 7f6c 8fbd 5a36 ae3c f40f e2bd
000001a0: bfa6 23bd 6d5c 8cbc e1b9 14ba 8d07 1f3d
000001b0: e7e3 553d de1f 40bd 9ba6 98bd 57e7 6c3d
000001c0: 2e44 84bd 5d15 02bd 478d 27bc b9b0 3abc
000001d0: 397a e53d 7724 31be d054 8f3d b924 8bbd
000001e0: 582e 123d 4dcd a93b b605 013d f92f 753d
000001f0: 9492 3abc 1a19 25bd 96c1 d93c 01c5 5e3c

network_body._body_endoder.seq_layers.0.weight f4 [128, 26]
-0.24574651 0.57019925 0.21265064 0.15608953 0.13798004 -0.389167 -0.1027953 -0.24135935
-0.19965853 -0.11987569 0.055226766 0.42961347 0.1339319 0.14634208 0.3536334 0.46219912
0.014575661 0.33823833 0.017025258 0.120479316 -0.18046609 -0.014875348 0.04255911 -0.1488055
0.18877576 -0.14424269 0.004485907 0.09070033 0.28354305 -0.08986601 -0.12146226 -0.17739892
0.12770477 -0.13004273 -0.09827712 0.118523836 0.2814949 -0.0037482756 -0.02075715 0.013918394
-0.26210216 0.24072887 -0.030190066 -0.35983557 -0.30976015 0.27583358 -0.36187875 0.23610727
0.023566328 -0.15619516 0.013544198 0.044166323 -0.39192292 0.1856114 -0.12974373 0.11101462
0.41499054 0.16298115 -0.07871036 -0.1803798 0.21788609 -0.034569338 0.028508881 -0.1190734
-0.19653416 0.06366022 0.32328096 -0.10971805 -0.28762054 -0.072279155 0.20745175 -0.010757131
-0.13537918 0.09762387 -0.53027153 -0.060550705 -0.027005263 -0.04725519 0.49336386 0.0129725095
0.34022284 -0.2240213 0.041723497 0.08288555 0.25186226 -0.32820094 -0.11115363 0.16586618
0.15009952 0.0024057883 0.35410848 -0.027740456 0.44212013 0.10956866 -0.2765189 0.046405282
-0.022715153 0.11411005 0.3073728 0.1503472 -0.05391076 0.038349178 0.07782464 0.027018534
0.21581899 0.18750961 -0.06334337 -0.21421546 -0.15566003 -0.048181627 -0.08404998 -0.012400756
0.13091479 -0.018039223 -0.28038186 -0.25984234 -0.2923467 -0.092583545 0.19825208 0.18247736
-0.38268065 -0.03291387 0.19960776 -0.08543785 0.118820824 0.021669554 -0.12634104 -0.11037734
-0.26807618 0.1785975 -0.23659419 0.50052017 -0.033869095 0.29176432 0.085848056 -0.026801266
-0.34173578 0.11653942 0.016303714 0.13917902 0.11282139 0.38444275 -0.3065194 0.035739496
0.31232205 0.121681675 0.35990974 0.3379457 -0.10936171 -0.23503278 -0.3046533 -0.45149732
-0.09754625 0.45442608 0.057591613 -0.04215275 -0.21596573 0.9308217 0.14334114 0.037343785
-0.07718961 -0.15242325 0.122855775 -0.31999403 -0.31336126 -0.20113888 0.08595936 -0.4431632
0.30894938 0.006310841 0.5103784 -0.40563816 0.061270654 -0.04647602 -0.051992178 -0.1214128
-0.17782497 0.06386985 -0.1108313 -0.008537435 -0.048762236 -0.048342716 0.09321422 -0.27557027
0.12307827 -0.21485306 -0.23283517 0.2584144 -0.17352776 -0.07585715 -0.134453 0.20590334
-0.27171153 0.04465523 0.15618518 0.00012232606 -0.1497743 -0.38012657 -0.16592206 0.19514133
0.15752153 -0.14880744 -0.101952866 0.02376948 0.23840877 -0.40003818 -0.03227877 -0.18301031
0.2621286 -0.297516 0.18740244 0.1666717 -0.24370936 -0.33225542 0.027540633 0.077746674
-0.1991323 0.2747527 -0.046119377 -0.0014529562 0.19859594 -0.0029801258 -0.13982962 0.22393455
0.2371788 0.16632885 -0.28915316 -0.2123422 0.08317376 -0.24186113 0.19728987 -0.04371622
-0.08658589 0.035094257 -0.29619542 -0.15783542 0.086477004 0.41149542 -0.17305234 -0.0043061385
0.09978765 -0.07342681 0.15633373 -0.15078892 0.36242622 0.22867525 0.055749867 0.34232137
0.25195324 -0.19121818 0.15872975 -0.018626967 -0.014329534 -0.008920093 0.14774323 0.075455256
00000000: f9a4 7bbe 94f8 113f 17c1 593e efd5 1f3e
00000010: a44a 0d3e e640 c7be 5886 d2bd e826 77be
00000020: 4973 4cbe 6381 f5bd 7635 623d 4cf6 db3e
00000030: 7225 093e b3da 153e 700f b53e 5da5 ec3e
00000040: c1ce 6e3c 932d ad3e 8e78 8b3c dcbd f63d
00000050: 1acc 38be bbb7 73bc 7652 2e3d 7860 18be
00000060: 6f4e 413e 5bb4 13be 84fe 923b 18c1 b93d
00000070: 8e2c 913e ac0b b8bd 35c1 f8bd 10a8 35be
00000080: 0ac5 023e ec29 05be 8445 c9bd a0bc f23d
00000090: 1920 903e a1a5 75bb e60a aabc fa09 643c
000000a0: 4132 86be a181 763e 2851 f7bc 5e3c b8be
000000b0: e298 9ebe 0f3a 8d3e 2c48 b9be 1bc6 713e
000000c0: 2c0e c13c a0f1 1fbe 7ce8 5d3c bfe7 343d
000000d0: 1faa c8be ea10 3e3e 8adb 04be a25b e33d
000000e0: a479 d43e 88e4 263e e632 a1bd 7bb5 38be
000000f0: 881d 5f3e 9498 0dbd 758b e93c c1dc f3bd
00000100: 4040 49be 4a60 823d 1585 a53e dbb3 e0bd
00000110: 0043 93be 1807 94bd 3b6e 543e ad3e 30bc
00000120: d7a0 0abe 06ef c73d e0bf 07bf 0404 78bd
00000130: 243a ddbc a88e 41bd 309a fc3e a68a 543c
00000140: b031 ae3e d765 65be 42e6 2a3d e6bf a93d
00000150: 17f4 803e f409 a8be 84a4 e3bd d3d8 293e
00000160: b0b3 193e 6eaa 1d3b b54d b53e f43f e3bc
00000170: 925d e23e 8965 e03d e393 8dbe 7713 3e3d
00000180: 2115 babc 88b2 e93d f85f 9d3e 9ef4 193e
00000190: 87d1 5cbd 0714 1d3d 8662 9f3d f955 dd3c
000001a0: a7ff 5c3e 8502 403e 2bba 81bd 4c5b 5bbe
000001b0: 5865 1fbe 195a 45bd 6522 acbd 8a2c 4bbc
000001c0: 870e 063e fec6 93bc 368e 8fbe 0e0a 85be
000001d0: 77ae 95be 719c bdbd 9802 4b3e 58db 3a3e
000001e0: b8ee c3be b2d0 06bd fa65 4c3e 0afa aebd
000001f0: 5558 f33d 5984 b13c 8c5f 01be 840d e2bd
00000200: 4841 89be 43e2 363e bf45 72be 1722 003f
00000210: 52ba 0abd 2262 953e 1bd1 af3d 548e dbbc
00000220: fef7 aebe 38ac ee3d 5e8f 853c f284 0e3e
00000230: e70e e73d aed5 c43e 1cf0 9cbe 9463 123d
00000240: ade8 9f3e 3e34 f93d 1746 b83e 3807 ad3e
00000250: 08f9 dfbd 6fac 70be 84fb 9bbe a82a e7be
00000260: 54c6 c7bd 89aa e83e 2fe5 6b3d 5da8 2cbd
00000270: 1f26 5dbe 554a 6e3f 05c8 123e ccf5 183d
00000280: 9615 9ebd d714 1cbe cf9b fb3d 42d6 a3be
00000290: e370 a0be 5af7 4dbe 760b b03d 49e6 e2be
000002a0: 9d2e 9e3e 2ccb ce3b 29a8 023f ceaf cfbe
000002b0: f0f6 7a3d a45d 3ebd c0f5 54bd 46a7 f8bd
000002c0: c017 36be 32ce 823d 85fb e2bd 99e0 0bbc
000002d0: e9ba 47bd 0303 46bd 19e7 be3d 8c17 8dbe
000002e0: 7610 fc3d 7102 5cbe 586c 6ebe e44e 843e
000002f0: 43b1 31be fe5a 9bbd 0cae 09be 53d8 523e
00000300: c61d 8bbe 67e8 363d 02ef 1f3e a744 0039
00000310: 6f5e 19be f39f c2be 79e7 29be 21d3 473e
00000320: 534d 213e fa60 18be aacc d0bd 36b8 c23c
00000330: 6e21 743e ced1 ccbe be36 04bd 0e67 3bbe
00000340: b835 863e 0454 98be 6de6 3f3e fcab 2a3e
00000350: f28e 79be 621d aabe e59c e13c a639 9f3d
00000360: 56e9 4bbe 63ac 8c3e ace7 3cbd 1f71 beba
00000370: bc5c 4b3e 374e 43bb 7f2f 0fbe 194f 653e
00000380: 00df 723e 1c52 2a3e e20b 94be 3c70 59be
00000390: 0157 aa3d 72aa 77be 5b06 4a3e c70f 33bd
000003a0: f153 b1bd ffbe 0f3d eda6 97be 9c9f 21be
000003b0: db1a b13d 87af d23e a234 31be 821a 8dbb
000003c0: 785d cc3d cc60 96bd f315 203e 6968 1abe
000003d0: ee8f b93e d829 6a3e f959 643d bf44 af3e
000003e0: 0400 813e b3ce 43be 0d8a 223e 9597 98bc
000003f0: 6cc6 6abc 9525 12bc 004a 173e 4988 9a3d

network_body._body_endoder.seq_layers.2.bias f4 [128]
0.07292576 -0.018814124 0.015718935 -0.052844714 -0.030006593 -0.063502245 -0.11223246 -0.07332448
0.004126408 0.0046081953 -0.060348548 0.033803545 -0.0069407276 -0.020482691 -0.059142508 -0.071883015
-0.046856415 0.00092427555 0.01928926 0.014869699 -0.0011771012 0.04451148 -0.018901728 -0.042730667
0.038819637 -0.0393279 0.041696936 0.0082761925 -0.015330196 -0.016284736 -0.04019818 0.03720125
-0.03697333 -0.062719956 0.022515409 0.015359585 -0.057300206 0.031214425 -0.007950676 -0.016305808
-0.057232037 -0.013544442 -0.00079631817 -0.054170262 -0.013372637 -0.0022957912 -0.02391004 -0.017276192
-0.03459882 -0.027701713 -0.023014171 -0.061441686 -0.04340376 -0.14111802 -0.018525958 -0.019802105
0.052361716 -0.03364512 0.02257537 0.020273669 0.02072207 0.015904263 0.001234737 -0.051296767
0.10518958 -0.0018019027 0.03017217 0.024882767 0.008849382 -0.14131857 0.02909466 0.07580261
-0.06656745 -0.035811704 0.006735324 -0.0043495 -0.00053083926 -0.06542521 0.0013419101 0.04261709
0.006221054 0.030943096 -0.122995205 -0.05745398 -0.045568123 -0.026140314 -0.083679624 -0.0665834
0.00021460172 -0.011677065 0.01799604 -0.010499634 -0.037993353 0.001736705 -0.013054208 0.014549473
-0.030800577 0.052269302 -0.01737791 -0.008437322 0.0019831478 -0.073719375 -0.028372483 0.06901326
-0.009028557 0.06750872 -0.019184884 -0.023634018 -0.0021316626 0.10018634 0.027124275 -0.03186432
-0.13548084 -0.038225718 -0.076387785 -0.040375266 0.021488238 0.027285684 0.035904493 -0.036587764
9.044438e-05 0.041552898 0.05527786 0.011651644 0.006791962 0.035893958 -0.012818798 0.0060633863
00000000: 1a5a 953d 1420 9abc ffc4 803c b373 58bd
00000010: 63d0 f5bc 770d 82bd 22da e5bd 252b 96bd
00000020: d236 873b 5800 973b 0a30 77bd 9675 0a3d
00000030: 0b6f e3bb 51cb a7bc 6a3f 72bd 6737 93bd
00000040: 83ec 3fbd 154b 723a 8304 9e3c 0aa0 733c
00000050: f648 9aba ab51 363d ccd7 9abc 5a06 2fbd
00000060: 5701 1f3d 4b16 21bd 68ca 2a3d de98 073c
00000070: 812b 7bbc 9167 85bc d9a6 24bd 5760 183d
00000080: 5971 17bd 5273 80bd 3c72 b83c c5a6 7b3c
00000090: 9fb3 6abd 65b5 ff3c 8d43 02bc c293 85bc
000000a0: 246c 6abd 82e9 5dbc 02c0 50ba a3e1 5dbd
000000b0: e818 5bbc fc74 16bb fdde c3bc cd86 8dbc
000000c0: 7eb7 0dbd b4ee e2bc 3788 bcbc 47aa 7bbd
000000d0: 24c8 31bd 3e81 10be c0c3 97bc 0638 a2bc
000000e0: 3d79 563d 77cf 09bd fbef b83c f714 a63c
000000f0: 55c1 a93c a849 823c e6d6 a13a 8f1c 52bd
00000100: a26d d73d d22d ecba a02b f73c f2d6 cb3c
00000110: 00fd 103c d1b5 10be ed57 ee3c 663e 9b3d
00000120: 8454 88bd 4baf 12bd feb3 dc3b 4086 8ebb
00000130: 0528 0bba a7fd 85bd 08e3 af3a 428f 2e3d
00000140: fcd9 cb3b 607c fd3c e9e4 fbbd dd54 6bbd
00000150: a4a5 3abd 3624 d6bc 3960 abbd e15c 88bd
00000160: b606 6139 2951 3fbc 6e6c 933c a806 2cbc
00000170: eb9e 1bbd 26a2 e33a 51e1 55bc ea60 6e3c
00000180: 7e51 fcbc 5618 563d 1e5c 8ebc b23c 0abc
00000190: b3f7 013b 2ffa 96bd 696d e8bc d356 8d3d
000001a0: 83ec 13bc 0342 8a3d 9e29 9dbc 219c c1bc
000001b0: 5db3 0bbb 7f2e cd3d ba33 de3c 2984 02bd
000001c0: 7dbb 0abe 9292 1cbd 3371 9cbd 8960 25bd
000001d0: 1a08 b03c 3a86 df3c 9710 133d 0ddd 15bd
000001e0: f5ac bd38 5f33 2a3d 0a6b 623d 89e6 3e3c
000001f0: 1b8f de3b 8b05 133d f005 52bc 5faf c63b

network_body._body_endoder.seq_layers.2.weight f4 [128, 128]
0.016945815 0.032155067 -0.11597924 -0.028148955 -0.22646873 -0.13648795 0.011303656 0.1853092
-0.063052274 -0.057817403 -0.13694412 0.028769778 0.07379004 -0.11360197 -0.0828108 -0.12580022
0.14166921 -0.013109734 0.021703595 -0.046133414 -0.020883542 -0.07235046 -0.13278031 0.053805027
-0.111136034 -0.31410027 -0.00022878106 0.08816331 0.024982356 -0.030038279 -0.095776975 0.05579908
0.07429907 0.08619583 0.21016224 -0.22662117 -0.029511975 -0.056523964 -0.09700782 -0.16205205
-0.09367551 -0.06465027 -0.009723073 -0.074220896 0.08837997 -0.20872727 -0.1255333 0.018781783
-0.013640318 0.008211248 -0.0120087 -0.16753776 -0.051168565 0.14872701 -0.1944273 -0.04785776
-0.060204268 0.19240168 0.008373834 0.1255466 -0.046197083 -0.27247426 0.050839204 0.1303721
-0.095037736 -0.025068903 0.06956429 0.08307088 -0.0048955083 0.037034072 -0.038626827 0.09198916
-0.29352263 -0.3218583 0.08087117 -0.0180037 -0.06881425 -0.00978684 -0.14275579 -0.18516818
0.16543682 -0.08902954 0.047283925 0.0038621563 0.07057738 0.06358515 -0.10871662 -0.06555553
0.05947479 -0.2929414 0.023301423 -0.03488172 -0.124943584 0.023351131 -0.112920396 0.10097303
-0.16294846 0.067775935 -0.0614003 0.071994305 0.08459542 -0.22053862 -0.10581092 -0.003623246
-0.07634408 -0.012934341 0.05869888 -0.095708765 -0.15180843 0.018782923 -0.11452516 0.034668162
-0.01581901 0.028051265 0.18774489 -0.052759275 -0.10542482 -0.05592832 -0.026909791 -0.028730404
-0.13047199 -0.052693922 -0.02336275 0.021823192 -0.20414439 0.07510001 -0.020920977 -0.2718974
-0.09491813 -0.09919914 0.21713173 -0.00817847 -0.19202328 -0.014978529 0.01868511 0.11658135
-0.030534605 -0.017363792 -0.04480616 -0.21162786 0.07088254 -0.029310476 -0.24818209 -0.062546596
0.037350137 -0.21407142 -0.11152069 -0.05271451 -0.24854897 -0.14053671 0.12657873 -0.00844463
-0.00401321 -0.19521452 0.080587044 0.0846817 0.055759333 -0.09521252 0.052720346 0.06755399
-0.005115427 -0.024919432 0.06723101 0.10440601 -0.090790704 -0.13624896 -0.111736335 0.012386246
0.077526525 0.026946131 -0.13772926 0.06429644 -0.25884116 0.01534558 -0.110460855 -0.07070721
0.029041585 0.03439665 -0.15873846 0.064975016 -0.06085915 0.07496726 0.09183715 -0.02134797
-0.04542521 0.0044060145 0.04250377 -0.24962193 -0.12578279 0.20491727 -0.0985621 0.008325305
0.018737003 0.052688345 0.031180337 0.0955633 0.021283181 -0.16526021 0.10769319 -0.2932581
0.04341482 0.07268534 -0.056212656 -0.056843057 -0.050535228 0.23252591 0.16412254 -0.072940335
0.1703969 -0.090561524 -0.036416356 0.078792766 0.058732804 -0.053726874 -0.10216131 0.00759572
-0.016172012 -0.022232415 -0.03524798 -0.22462389 -0.043676678 -0.11547222 0.12744498 0.1013435
0.14625452 -0.042379264 -0.01262466 -0.22327286 -0.07365142 -0.011963066 -0.08115872 -0.04456882
0.17643018 0.030638821 -0.04138209 0.038496044 -0.025624689 -0.122815646 0.11251615 -0.08047855
0.15320122 0.06940341 -0.020318761 -0.012109739 0.015603886 0.06561895 -0.09230266 -0.13697678
0.015096013 -0.023870831 0.04491197 -0.21693899 -0.059037898 -0.016451206 -0.085228704 0.02391547
00000000: f3d1 8a3c 08b5 033d 8686 edbd a398 e6bc
00000010: 6be7 67be 7fc3 0bbe f832 393c b2c1 3d3e
00000020: 8d21 81bd f1d1 6cbd 143b 0cbe 99ae eb3c
00000030: 3c1f 973d 26a8 e8bd b598 a9bd c6d1 00be
00000040: bc11 113e 36ca 56bc bdcb b13c 64f6 3cbd
00000050: f613 abbc 7a2c 94bd 90f7 07be a962 5c3d
00000060: 4a9b e3bd c0d1 a0be f3e4 6fb9 f78e b43d
00000070: cca7 cc3c d612 f6bc b826 c4bd 938d 643d
00000080: 1c2a 983d 7087 b03d c534 573e 610f 68be
00000090: 19c3 f1bc ac85 67bd 09ac c6bd f9f0 25be
000000a0: f2d8 bfbd 5c67 84bd 864d 1fbc 2001 98bd
000000b0: 8f00 b53d 9abc 55be cd8b 00be 41dc 993c
000000c0: a47b 5fbc 7888 063c 23c0 44bc 058f 2bbe
000000d0: 2196 51bd e54b 183e f317 47be 8006 44bd
000000e0: c098 76bd f204 453e 6832 093c 4a8f 003e
000000f0: 2739 3dbd bf81 8bbe c53c 503d 4480 053e
00000100: 25a3 c2bd 4d5d cdbc b977 8e3d 1121 aa3d
00000110: 806a a0bb 0ab1 173d 2a37 1ebd d064 bc3d
00000120: 9948 96be 9cca a4be c99f a53d 7f7c 93bc
00000130: 7cee 8cbd fb58 20bc 932e 12be ba9c 3dbe
00000140: 4568 293e 1f55 b6bd caac 413d 3b1c 7d3b
00000150: e08a 903d ee38 823d d2a6 debd fa41 86bd
00000160: d69b 733d 6afc 95be a0e2 be3c 22e0 0ebd
00000170: 6ce2 ffbd df4a bf3c cf42 e7bd f3ca ce3d
00000180: f6db 26be 1cce 8a3d e27e 7bbd c071 933d
00000190: 5d40 ad3d e0d4 61be 65b3 d8bd fb73 6dbb
000001a0: 495a 9cbd 8fea 53bc 3d6e 703d f502 c4bd
000001b0: ab73 1bbe a5de 993c 2b8c eabd 3400 0e3d
000001c0: de96 81bc c4cb e53c 3240 403e 1c1a 58bd
000001d0: f8e8 d7bd 1815 65bd ec71 dcbc 065c ebbc
000001e0: 739a 05be 95d5 57bd 3d63 bfbc 8dc6 b23c
000001f0: 3a0b 51be 09ce 993d 7862 abbc 2336 8bbe
00000200: 7064 c2bd eb28 cbbd c857 5e3e fdfe 05bc
00000210: c0a1 44be 8168 75bc 8411 993c 34c2 ee3d
00000220: b523 fabc 833e 8ebc aa86 37bd f9b4 58be
00000230: dd2a 913d 861c f0bc 7223 7ebe 6e18 80bd
00000240: 75fc 183d 8a35 5bbe f664 e4bd 2ceb 57bd
00000250: 9f83 7ebe dbe8 0fbe db9d 013e 585b 0abc
00000260: 3f81 83bb 51e6 47be d20a a53d 996d ad3d
00000270: e663 643d c8fe c2bd 4af1 573d bf59 8a3d
00000280: 509f a7bb d623 ccbc 69b0 893d d1d2 d53d
00000290: 7af0 b9bd d984 0bbe 05d6 e4bd aeef 4a3c
000002a0: 3ac6 9e3d 22be dc3c e608 0dbe daad 833d
000002b0: d486 84be 076c 7b3c 4d39 e2bd f1ce 90bd
000002c0: 9ee8 ed3c 80e3 0c3d 568c 22be 9f11 853d
000002d0: 7247 79bd 6f88 993d 1e15 bc3d f0e1 aebc
000002e0: c90f 3abd 5460 903b 6f18 2e3d e49c 7fbe
000002f0: 34cd 00be d5d5 513e edda c9bd dc66 083c
00000300: 587e 993c bccf 573d e86d ff3c b1b6 c33d
00000310: 115a ae3c f939 29be 3f8e dc3d ed25 96be
00000320: bdd3 313d 0ddc 943d 3e3f 66bd 44d4 68bd
00000330: 07fe 4ebd 461b 6e3e bd0f 283e be61 95bd
00000340: 867c 2e3e 5278 b9bd 5129 15bd 1a5e a13d
00000350: cf91 703d b610 5cbd f339 d1bd 84e5 f83b
00000360: 2b7b 84bc c120 b6bc 3060 10bd ce03 66be
00000370: 51e6 32bd b37c ecbd f080 023e 2e8d cf3d
00000380: bfc3 153e e195 2dbd a9d7 4ebc a4a1 64be
00000390: 8ed6 96bd bc00 44bc 8b36 a6bd cc8d 36bd
000003a0: 1daa 343e 44fe fa3c 4480 29bd 07ae 1d3d
000003b0: deea d1bc c586 fbbd de6e e63d f0d1 a4bd
000003c0: c8e0 1c3e 6023 8e3d 8873 a6bc ed67 46bc
000003d0: 71a7 7f3c 3a63 863d 2d09 bdbd a443 0cbe
000003e0: 4555 773c c38c c3bc 9df5 373d 4125 5ebe
000003f0: b9d1 71bd aec4 86bc 638c aebd 60ea c33c
