AIRocketLanding/results/3AIRocket1/AIRocket/AIRocket-67999983.onnx (onnx, 80149 bytes, 7 tensors)

action_model._continuous_distribution.log_sigma f4 [1, 3]
0	0xc0c226d9	-6.067242
1	0xc0d2f825	-6.592791
2	0xc0d78371	-6.734795

action_model._continuous_distribution.mu.bias f4 [3]
0	0xbe61c2f6	-0.22047028
1	0x3e4eb5ad	0.20186491
2	0x3d3ff53e	0.04686474

action_model._continuous_distribution.mu.weight f4 [3, 128]
0	0x39ee192d	0.00045413655
1	0x39ecac0b	0.0004514161
2	0xba3dd1d7	-0.00072410464
3	0xb9eab073	-0.00044763423
4	0x39f56462	0.00046804833
5	0x3a585a61	0.00082532136
6	0x39044a70	0.00012616231
7	0x38f2591b	0.000115560564
8	0x3904283b	0.00012603488
9	0xb9c9c948	-0.00038487674
10	0x3998950d	0.0002910275
11	0x39ecc0a6	0.00045156962
12	0xb8bd1f8a	-9.018097e-05
13	0xba2bdd51	-0.0006556111
14	0x3a058dae	0.0005094659
15	0x391b3956	0.00014803311
16	0xb920b623	-0.0001532664
17	0x394a988c	0.0001932105
18	0x39ea9ba9	0.00044747934
19	0xb9facc8d	-0.00047836118
20	0x399387ba	0.0002813915
21	0x393f3e5c	0.0001823841
22	0x396383b3	0.00021697469
23	0x39d61f91	0.0004084078
24	0x38b8c278	8.810026e-05
25	0x396905b3	0.00022222735
26	0xbd24ce3e	-0.04023575
27	0x38aa16cd	8.110479e-05
28	0x39027bb4	0.00012443849
29	0xb8a77df5	-7.986642e-05
30	0x381dad78	3.7593272e-05
31	0x392631de	0.0001584957
32	0x3a17b6db	0.00057874405
33	0xb87d75d6	-6.0429644e-05
34	0xb983f144	-0.00025166024
35	0x3911ef32	0.00013917385
36	0xb8210b04	-3.839565e-05
37	0xba003700	-0.0004891008
38	0xba86a271	-0.00102718
39	0xb9f3f92e	-0.00046534225
40	0xb93b5066	-0.0001786366
41	0xba2e59a0	-0.00066509284
42	0x39ff306c	0.00048673467
43	0xb9ee2924	-0.0004542555
44	0x3a4ea84d	0.0007883355
45	0x37a4df51	1.9654313e-05
46	0x3aa0f22f	0.0012279208
47	0x39e55874	0.00043744186
48	0xbdbb155e	-0.09134935
49	0xb8b7cf78	-8.764764e-05
50	0xbe050bcd	-0.12992783
51	0xb8da7e38	-0.0001041856
52	0xb9cc38e2	-0.00038952293
53	0xba6698e0	-0.0008796584
54	0x38d06e4b	9.9387566e-05
55	0xba5f190b	-0.00085105066
56	0xba76f86d	-0.00094211736
57	0x398b1cd5	0.00026533628
58	0xb984b723	-0.0002531345
59	0xba19525e	-0.00058487605
60	0xb942106c	-0.000185074
61	0xbe285074	-0.1643694
62	0xb9b0f02f	-0.00033748287
63	0xb65373a0	-3.1508753e-06
64	0x3a535865	0.0008062183
65	0x38e13515	0.00010738723
66	0x39b339c9	0.00034184594
67	0x38f84ca7	0.00011839839
68	0x363d3987	2.819668e-06
69	0x3e957bbd	0.29195967
70	0xbd843e37	-0.06457179
71	0x39d2526f	0.0004011574
72	0xb8690671	-5.5557528e-05
73	0x39d1b11e	0.0003999555
74	0xb935307f	-0.00017279571
75	0xb9d84e8b	-0.0004125725
76	0xbe2355f8	-0.15950763
77	0xb8c4254e	-9.352957e-05
78	0x39c6aa53	0.00037892404
79	0xba46cc92	-0.0007583584
80	0x39d195f8	0.00039975322
81	0x3a075e7f	0.00051639223
82	0x3982fd28	0.00024984148
83	0x38bab81f	8.9034664e-05
84	0xb910378f	-0.00013753607
85	0xb9f3c858	-0.0004649784
86	0xb7f159ca	-2.877125e-05
87	0xb85385eb	-5.043104e-05
88	0x36dd0776	6.587182e-06
89	0xb8a14235	-7.68941e-05
90	0xb83755c0	-4.371046e-05
91	0xba4db323	-0.0007846823
92	0xbaa006ad	-0.0012209021
93	0xba2e3f54	-0.000664701
94	0x397fff08	0.00024413702
95	0x3988a228	0.00026060757
96	0xb985c5dc	-0.00025515154
97	0x3940446a	0.00018336033
98	0xba8255fb	-0.0009943837
99	0x3a0f026a	0.0005455377
100	0x3a083146	0.00051953306
101	0xba7564b7	-0.0009361016
102	0x3a02d87b	0.00049913645
103	0x398902d2	0.00026132778
104	0x3924bcd4	0.00015710603
105	0xb9d9fe07	-0.0004157873
106	0x39904205	0.0002751501
107	0xb9ccc5a6	-0.00039057172
108	0xb9dcdab9	-0.0004212463
109	0x38cfe6c6	9.913514e-05
110	0x39738672	0.0002322437
111	0x395d28c1	0.00021091384
112	0xba8466a9	-0.0010101396
113	0xb9ef5053	-0.00045645479
114	0x39a6817b	0.00031758458
115	0x3a684229	0.0008859956
116	0xb933d77b	-0.00017151043
117	0xb9116ee8	-0.00013869593
118	0xb87dbfe8	-6.0498627e-05
119	0xba94b07a	-0.0011344098
120	0xb97edb6a	-0.00024305066
121	0xb694bad0	-4.4324916e-06
122	0xba1dc75a	-0.00060187804
123	0xb980d1a4	-0.00024570257
124	0xb8ed21f7	-0.00011307367
125	0x3afbabd8	0.0019200994
126	0x3767c6f6	1.3814997e-05
127	0x3aa1ecc7	0.001235389
128	0x3a6d320c	0.000904829
129	0x39b74d2a	0.00034961972
130	0xba8cdd5b	-0.0010747121
131	0xb97f0484	-0.00024320377
132	0xb8e48c8d	-0.00010898067
133	0x3a18bdd1	0.00058266247
134	0x3a3968aa	0.0007072786
135	0x39ab6d25	0.0003269698
136	0x39339d72	0.00017129423
137	0xb9d4ce0f	-0.00040589317
138	0x3a2d4f9b	0.00066112884
139	0x39026566	0.0001243554
140	0xba4a75d5	-0.0007723247
141	0xb9decfdc	-0.00042498007
142	0x396b8848	0.00022462115
143	0x3a0ff79e	0.0005491915
144	0xba1d544d	-0.00060016365
145	0x37c4c949	2.3458751e-05
146	0xba2548b1	-0.00063050824
147	0xba223a37	-0.0006188484
148	0x39e26a3d	0.00043185233
149	0x38ed4bef	0.000113151844
150	0xb860513b	-5.3481413e-05
151	0x3a72bdba	0.0009259839
152	0x3a8fbcbe	0.0010966284
153	0x3a2d4e18	0.0006611063
154	0xbdf4ce60	-0.119534254
155	0xb927c4b6	-0.00015999642
156	0x38c1a5b9	9.2338254e-05
157	0xb9a29425	-0.00031009424
158	0xb8dc6834	-0.00010509827
159	0x39d9861e	0.0004148939
160	0x39d0bc41	0.00039813112
161	0x3859e08e	5.1945965e-05
162	0xb8b8b7c4	-8.808033e-05
163	0x39fa01bf	0.00047685017
164	0xba22bbbf	-0.0006207786
165	0xb997083c	-0.000288071
166	0xbaa6f051	-0.0012736415
167	0xb9f248f8	-0.00046212203
168	0x3977124e	0.00023562575
169	0xb9e2991e	-0.0004322016
170	0x39ec61be	0.0004508625
171	0xba11f2eb	-0.00055675086
172	0x3970893c	0.00022939307
173	0xb94293bc	-0.00018556317
174	0xbb0308a5	-0.0019994166
175	0xb99254dc	-0.00027910515
176	0xbe282971	-0.16422059
177	0x39a458ac	0.00031346583
178	0xbd8cabcc	-0.06868705
179	0xb8f06160	-0.00011462229
180	0xb9dd4fd4	-0.0004221188
181	0xbaa95652	-0.0012919402
182	0xb9aa1bdc	-0.00032445684
183	0xba91b769	-0.0011117283
184	0xba1ae219	-0.0005908325
185	0x39e9f8fc	0.0004462673
186	0xb9e6c985	-0.00044019162
187	0xba3dc7cc	-0.000723955
188	0x39919a26	0.00027771405
189	0xb7faa60a	-2.987964e-05
190	0xb81b1f26	-3.698389e-05
191	0x392d0ad5	0.00016502601
192	0x3ac316a6	0.0014884069
193	0xb918fe15	-0.00014590503
194	0x393b9b8f	0.0001789166
195	0xb9866364	-0.00025632523
196	0xb9da93cd	-0.0004169032
197	0xbd5df7f1	-0.054191533
198	0x3ba44fed	0.0050144107
199	0x3a0588dd	0.00050939416
200	0xb953fab8	-0.00020215928
201	0x3a2623f7	0.00063377566
202	0x39aaecc4	0.0003260133
203	0xba129e49	-0.00055930443
204	0xbd17d9e1	-0.03707302
205	0xb98af667	-0.00026504995
206	0x3a0d7754	0.00053965044
207	0xba5f133c	-0.0008509641
208	0x394ba56c	0.00019421213
209	0x39c96231	0.00038410866
210	0x3a0af646	0.000530098
211	0x38121177	3.4825378e-05
212	0xb9bee829	-0.00036412597
213	0xb9f7b398	-0.0004724532
214	0xb98f19d5	-0.00027294332
215	0xb9a6498e	-0.0003171679
216	0x38b34e34	8.5499516e-05
217	0x38ff38b8	0.00012169912
218	0x39e8c380	0.00044396147
219	0xbab01ae7	-0.0013435752
220	0xba52f2c9	-0.0008047042
221	0xba3117af	-0.0006755543
222	0x39ca40da	0.0003857676
223	0x388ddf5a	6.7650064e-05
224	0xba59d3c0	-0.0008309446
225	0xb993b9be	-0.00028176414
226	0xba44e39c	-0.0007510723
227	0x3a4d4422	0.0007830282
228	0x3a07b90c	0.00051774154
229	0xba754fe5	-0.00093579135
230	0x3a569f77	0.0008187214
231	0x3949892b	0.00019219953
232	0xb90bcc6f	-0.0001333223
233	0xba5fba13	-0.0008534502
234	0x388e6c51	6.791263e-05
235	0xb8dee954	-0.00010629246
236	0xba110ef3	-0.00055335386
237	0xb7816bc1	-1.5428175e-05
238	0xb99488ae	-0.00028330594
239	0x399363af	0.00028112295
240	0xbdb2d105	-0.087312736
241	0xb91c42a2	-0.00014902142
242	0x3a11bb44	0.0005559216
243	0xb9c4f95d	-0.00037569823
244	0xb9a97ae6	-0.00032325758
245	0xb9fc36c3	-0.00048105986
246	0xb9cd6db9	-0.00039182397
247	0xba563788	-0.0008171727
248	0xba07d25d	-0.0005181188
249	0x38fa585b	0.000119373864
250	0xba8a5083	-0.0010552559
251	0xb98f6ba6	-0.0002735529
252	0xba0e29c1	-0.0005423092
253	0xba5d9a13	-0.000845344
254	0xba10a77e	-0.00055181223
255	0x37b17102	2.1152668e-05

network_body._body_endoder.seq_layers.0.bias f4 [128]
0	0x3dd21c4a	0.10259302
1	0xbda9bd13	-0.08288016
2	0x3cac4d6c	0.021033011
3	0x3d163a1d	0.036676515
4	0xbd047eb0	-0.03234738
5	0xbd94e44e	-0.07270108
6	0x3be01f07	0.0068396362
7	0x3ce2bb60	0.027677238
8	0xbd26e9d0	-0.040750325
9	0xbdbc4be1	-0.0919416
10	0xbc95ae07	-0.01827146
11	0x3d0e6724	0.03476633
12	0x3ddd4d47	0.10805755
13	0xbd0520e9	-0.03250209
14	0xbce57554	-0.028010048
15	0xbd883e10	-0.066524625
16	0x3d90844e	0.07056485
17	0x3d1224cb	0.03567962
18	0x3d70a873	0.058754396
19	0x3b8dbbf7	0.0043253857
20	0xbdc1ceba	-0.09463258
21	0x3d3d061d	0.04614841
22	0x3ccb5eba	0.024825443
23	0xbd23bfa5	-0.03997769
24	0xbd68fcb4	-0.05688162
25	0xbe0f4502	-0.13991168
26	0x3c925bb5	0.017865995
27	0x3d9b64d8	0.07587594
28	0x3c30f290	0.010800019
29	0xbc685dfb	-0.014182563
30	0xbcb4cb2d	-0.022069538
31	0xbdeef974	-0.11668673
32	0x3d2e0da5	0.04249348
33	0xbd900d89	-0.070338316
34	0x3a8883e7	0.0010415287
35	0xbdf3cb5a	-0.119040206
36	0x3cb887fa	0.022525776
37	0xbdc344fc	-0.09534642
38	0xbd058197	-0.03259429
39	0xbdaa67ec	-0.08320603
40	0xbe6abcba	-0.22923556
41	0xbd30e587	-0.043187644
42	0xbd318ee9	-0.04334918
43	0x3d105813	0.035240244
44	0xbcafd6b2	-0.02146468
45	0xbc5fd74a	-0.013662169
46	0xbe42c31d	-0.19019742
47	0x3c0e4b0a	0.008684883
48	0x3e024b5f	0.12724064
49	0xbba523ce	-0.0050396686
50	0xbc96146d	-0.018320287
51	0xbda8a890	-0.08235276
52	0xbcab8cad	-0.020941103
53	0xbdd7fdb7	-0.10546439
54	0xbceedd55	-0.029158274
55	0xbbb0531a	-0.005381
56	0x3d733724	0.059378758
57	0x3c42b286	0.011883384
58	0x3d178860	0.03699529
59	0xbc072077	-0.008247486
60	0xbc5e539f	-0.0135697415
61	0x3d0369bd	0.03208326
62	0xbd181bc4	-0.037135854
63	0xbc9c4865	-0.01907749
64	0xbd1a2ba4	-0.037639275
65	0xbd49aef1	-0.049239103
66	0xbc4c54f2	-0.012471424
67	0x3d937cd2	0.07201542
68	0x3db9b235	0.090671934
69	0xbd4f21b6	-0.05056926
70	0xbcf8a88c	-0.030353807
71	0x3c00d654	0.0078636
72	0x3d7ff3b0	0.062488258
73	0x3d6e543f	0.058185812
74	0xbcb88ae5	-0.022527168
75	0xbbb448af	-0.0055018286
76	0xbcd3038d	-0.02575853
77	0xbd8460de	-0.064637884
78	0x3de3bb9e	0.111197695
79	0xbd0570bd	-0.03257822
80	0xbc87b2cc	-0.01656475
81	0x3c0e95b9	0.008702689
82	0xbc4016c9	-0.011724182
83	0x3a981d7e	0.0011605469
84	0x3baff9b4	0.005370343
85	0xbd361c5f	-0.04446065
86	0xbd1057be	-0.035239927
87	0xbd7d4c79	-0.061840508
88	0xbccffc22	-0.025388781
89	0xbcb26d50	-0.02178064
90	0x3d145888	0.036217242
91	0xbdd4d5bf	-0.10392331
92	0xbcc48d45	-0.023993144
93	0xbcfb06b8	-0.030642852
94	0xbcf4ca25	-0.029881546
95	0x3d3bdd8b	0.045865577
96	0xbd25745e	-0.04039418
97	0x3d4f382a	0.05059067
98	0xbd285ad7	-0.041102257
99	0x3d096c2e	0.033550434
100	0xbcc874c5	-0.024469743
101	0x3d7d6d28	0.061871678
102	0xbc8a70f4	-0.016899563
103	0xbd7f2408	-0.06229022
104	0x3a6d4197	0.0009050606
105	0xba9ded9c	-0.0012048963
106	0xbd1cf893	-0.038322996
107	0x3b61c486	0.0034449412
108	0x3d546b3c	0.05186008
109	0xbd534d8d	-0.05158763
110	0xbd1711e1	-0.036882285
111	0xbc05d268	-0.008167841
112	0xbc15cd17	-0.0091431355
113	0xbd2ba3b1	-0.041904155
114	0xbd1cda9d	-0.038294423
115	0x3d8e1f36	0.06939547
116	0xbd82f913	-0.063951634
117	0x3d8e7784	0.069563895
118	0xbc81ff56	-0.015868824
119	0xbd8794ee	-0.06620203
120	0xbda7958f	-0.08182823
121	0xbda7c432	-0.08191718
122	0xbc6d61db	-0.014488663
123	0xbd1daae2	-0.038493045
124	0xbd344008	-0.044006377
125	0xbdfdc9e3	-0.123920225
126	0xbd78e41a	-0.06076441
127	0xbdd5e002	-0.10443117

network_body._body_endoder.seq_layers.0.weight f4 [128, 20]
0	0xbd84b018	-0.064789
1	0xbd038066	-0.032104872
2	0x3e9152e7	0.28383562
3	0x3d188701	0.037238125
4	0x3e1b5c3b	0.15171902
5	0xbdf5ddda	-0.120052055
6	0x3d934604	0.07191089
7	0x3eab5759	0.33465078
8	0xbc55d9c7	-0.01305241
9	0x3e18966a	0.14901128
10	0xbc09a182	-0.008400323
11	0xbdb05813	-0.08610549
12	0x3e3b19c8	0.18271554
13	0x3da3ee44	0.0800443
14	0x3a4d4863	0.0007830916
15	0xbe43af89	-0.1910993
16	0xbdcbb108	-0.099458754
17	0x3e58183d	0.21102996
18	0xbecb01b3	-0.39649734
19	0xbe64730f	-0.22309516
20	0xbf4f72d5	-0.81034595
21	0x3e93efff	0.2889404
22	0xbef0b38b	-0.4701198
23	0xbb9c905f	-0.0047779526
24	0xbcdcda9a	-0.026959706
25	0xbd46819e	-0.048463456
26	0xbdb56ef0	-0.0885905
27	0x3dbd0875	0.09230129
28	0xbe06a1ef	-0.1314771
29	0xbe2261ef	-0.15857671
30	0xbedb012c	-0.42774332
31	0xbdf5f39a	-0.12009354
32	0xbe4cab07	-0.19987117
33	0x3e287d64	0.16454083
34	0xbd951074	-0.07278529
35	0x3d15d138	0.03657648
36	0x3d8af5cb	0.067851625
37	0xbbbd7d50	-0.0057827607
38	0x3cf62af8	0.030049786
39	0x3e16c751	0.1472447
40	0x3f2d1026	0.67602766
41	0xbdffa051	-0.1248175
42	0x3e320c93	0.17387609
43	0xbe213fc8	-0.15746987
44	0xbf2c08e1	-0.6720105
45	0xbddec63a	-0.108776525
46	0x3ddc9f74	0.10772601
47	0xbe319cc4	-0.17344958
48	0xbe9291bf	-0.2862682
49	0x3df3e192	0.119082585
50	0x3f121c9d	0.5707491
51	0x3d60f79d	0.054923642
52	0x3de3dd0e	0.11126147
53	0xbe82ab79	-0.25521448
54	0x3e586d88	0.21135533
55	0xbd311cc0	-0.04324031
56	0xbdf3d45b	-0.11905738
57	0xbe25189e	-0.16122672
58	0x3ece127f	0.40248486
59	0xbde42b8d	-0.11141119
60	0xbf0f0551	-0.5586749
61	0xbe7bbb5a	-0.24583188
62	0x3ef9123c	0.48646724
63	0xbcf04688	-0.029330507
64	0x3e0d0904	0.1377297
65	0xbd8b79ed	-0.06810365
66	0x3e1e43bf	0.1545553
67	0x3e90c82c	0.2827772
68	0xbe33d784	-0.17562681
69	0x3ae9e726	0.0017845377
70	0xbe60ed0c	-0.21965426
71	0x3e3335ae	0.17500946
72	0xbe2df4df	-0.16987942
73	0xbe03caec	-0.12870377
74	0x3bb24a65	0.0054409974
75	0xbd613ef7	-0.05499169
76	0xbdecb0b2	-0.115571395
77	0x3ec5be15	0.38621584
78	0xbec1cc9c	-0.37851417
79	0x3cc15e96	0.023604672
80	0x3eee4bc2	0.46542174
81	0xbe0fd46f	-0.1404588
82	0xbe6aa903	-0.22916035
83	0xbee9cb93	-0.45663127
84	0xbef3b3c7	-0.47598097
85	0x3e169e60	0.14708853
86	0x3dc0e55b	0.09418746
87	0xbf09cef0	-0.53831387
88	0x3f301041	0.687748
89	0x3e35b254	0.17743808
90	0x3ed3fca5	0.4140369
91	0x3e451bcc	0.19248885
92	0x3bd83356	0.0065979166
93	0xbe05d202	-0.13068393
94	0x3e9e0bd3	0.30868396
95	0x3e5545f1	0.20827462
96	0xbe1b165c	-0.15145248
97	0xbefd3400	-0.49453735
98	0xbd2e42a9	-0.04254404
99	0xbe52c6cc	-0.20583647
100	0x3e5e64e1	0.2171817
101	0xbd81d1df	-0.06338858
102	0x3e519ae4	0.20469242
103	0xbe50ac98	-0.2037834
104	0xbed8a367	-0.42312166
105	0xbdb6638f	-0.08905708
106	0xbc914c54	-0.017736591
107	0xbe9ecd25	-0.31015888
108	0x3dcf5db2	0.10125293
109	0xbda9705f	-0.08273386
110	0x3e0bbca6	0.13646182
111	0x3d685879	0.056725
112	0xbe209b5d	-0.15684266
113	0xbe877f2e	-0.26464218
114	0xbd8b0735	-0.06788484
115	0xbdf0631a	-0.11737652
116	0x3cbe0591	0.023196014
117	0xbe36386e	-0.17794964
118	0x3ea377bc	0.31927288
119	0x3e388dcc	0.18022841
120	0xbf574a3c	-0.8409765
121	0xbdff6cbf	-0.124719135
122	0x3d97571c	0.07389662
123	0xbd7d8aa6	-0.061899804
124	0xbd6b99ce	-0.057519726
125	0xbea09c77	-0.31369373
126	0xbe809f76	-0.2512166
127	0x3eecc1c7	0.4624159
128	0xbeccf2fd	-0.40029135
129	0xbdcf87f9	-0.101333566
130	0xbf6987a1	-0.9122258
131	0x3d6cb81f	0.05779278
132	0x3e561105	0.2090493
133	0xbe2e49d0	-0.17020345
134	0x3e1361c6	0.14392766
135	0x3e912c05	0.28353897
136	0x3ea56678	0.3230474
137	0x3ee2e0a2	0.44312006
138	0xbd5c655a	-0.053807594
139	0x3e37fe85	0.17968185
140	0x3e3b210f	0.1827433
141	0xbdc798b6	-0.09745924
142	0x3eb29ee3	0.34886846
143	0x3dad3633	0.08457603
144	0xbdb17bab	-0.08666166
145	0xbd2e995d	-0.042626727
146	0xbe14f307	-0.14545833
147	0x3e85dbc4	0.2614423
148	0x3d1dede5	0.038556952
149	0xbe4d5dc1	-0.20055296
150	0x3eb2cfa1	0.34924033
151	0x3d17dad4	0.037073925
152	0xbdd06522	-0.101755396
153	0x3e4bc66d	0.19899912
154	0xbe918a28	-0.28425717
155	0x3cf0fb60	0.02941674
156	0x3e44f1ff	0.19232939
157	0x3ebdfedb	0.37108502
158	0xbeb693ec	-0.3565973
159	0x3e6e1c64	0.23253018
160	0x3d11bad0	0.03557855
161	0xbe5a39b2	-0.21311072
162	0xbe5fc957	-0.21854149
163	0x3e18acc6	0.14909658
164	0x3ec86cde	0.3914556
165	0x3d783296	0.060595118
166	0xbddb8977	-0.10719579
167	0xbee73518	-0.45157695
168	0xbeb455ab	-0.3522161
169	0xbd85769f	-0.06516766
170	0x3f201a55	0.6254018
171	0xbe11cfb0	-0.14239383
172	0xbdc81346	-0.09769301
173	0x3f0554da	0.520826
174	0xbd0fbbb7	-0.03509113
175	0x3ed56cee	0.4168467
176	0x3e473fe2	0.19457963
177	0xbf6e71f6	-0.9314264
178	0xbe8c468a	-0.27397567
179	0x3c8bfc80	0.017088175
180	0xbe8c9217	-0.27455208
181	0xbf0209d2	-0.50796235
182	0xbcf5093e	-0.029911634
183	0x3e13a9a5	0.14420183
184	0x3d1c0605	0.03809168
185	0x3b5d3f7a	0.0033759759
186	0xbb5894ad	-0.0033047602
187	0x3eab9771	0.33513978
188	0xbdca52d1	-0.09879077
189	0xbdcff18d	-0.10153494
190	0xbd41af20	-0.047286153
191	0xbf24f93d	-0.6444281
192	0xbe1ccd48	-0.15312684
193	0xbcec2f4a	-0.028831143
194	0x3d88f164	0.066866666
195	0x3e93964a	0.288256
196	0xbea15e0e	-0.3151707
197	0x3eb69a34	0.35664523
198	0x3d8426af	0.06452691
199	0x3e651c76	0.22374138
200	0x3ef542c9	0.47902516
201	0x3da8c4f8	0.08240694
202	0x3c0ec27d	0.008713362
203	0xbe7c0b17	-0.24613605
204	0x3e92e0e6	0.2868721
205	0x3c362969	0.011118271
206	0x3e265e5b	0.16246931
207	0x3e85001a	0.2597664
208	0xbd9d5911	-0.07683004
209	0x3d9ceb99	0.07662124
210	0x3f486093	0.7827236
211	0xbe2c91fe	-0.16852567
212	0x3eb54fb7	0.3541238
213	0x3d029979	0.031884644
214	0xbe99f2b2	-0.30067974
215	0xbea2c182	-0.3178826
216	0xbdf8d2c1	-0.12149573
217	0x3cb08f89	0.021552818
218	0xbe46a734	-0.1939972
219	0x3ca5c38c	0.020234846
220	0xbeefa4fe	-0.46805567
221	0x3bbe16c2	0.005801053
222	0x3e0c58d3	0.13705759
223	0x3e4c4fd8	0.19952333
224	0xbe0d4b49	-0.1379825
225	0xbe549c38	-0.20762718
226	0xbd1e16be	-0.038595907
227	0x3f122b58	0.5709739
228	0xbedec444	-0.43509114
229	0xbe81a002	-0.2531739
230	0xbf3aa7d8	-0.7291236
231	0xbdb122a0	-0.08649182
232	0x3e50c06e	0.20385906
233	0x3d79acd1	0.060955826
234	0xbe65e2d8	-0.22449815
235	0x3e9924c4	0.29910862
236	0x3d81063d	0.06300018
237	0x3eb5aece	0.35484928
238	0xbe860a47	-0.26179716
239	0x3e8d4f21	0.27599433
240	0x3cd1f5c7	0.025629891
241	0xbeeca349	-0.46218327
242	0xbd18c0dc	-0.0372933
243	0xbdb9a11e	-0.09063934
244	0x3e81f234	0.253801
245	0xbe74a971	-0.23892762
246	0x3d4d0f94	0.050063685
247	0x3d7134de	0.05888831
248	0xbecea3da	-0.40359384
249	0x3ccafca5	0.024778673
250	0x3d3821a6	0.044953965
251	0xbf08cc5e	-0.5343684
252	0xbed87e72	-0.4228397
253	0xbdd44877	-0.10365384
254	0xbd4e9e8f	-0.050444182
255	0x3c17ec9a	0.009272719

network_body._body_endoder.seq_layers.2.bias f4 [128]
0	0x3cd953b2	0.026529167
1	0x3b1ae769	0.0023636466
2	0xbd1e1bc8	-0.038600713
3	0xbcae1a3f	-0.02125275
4	0xbe06456b	-0.13112418
5	0xbe2e3a9e	-0.17014548
6	0x3c06259c	0.008187678
7	0xbcd5193c	-0.02601301
8	0xbd032135	-0.03201409
9	0xbc87c267	-0.01657219
10	0xbc916225	-0.017746994
11	0xbbb0e679	-0.005398568
12	0x3c320073	0.010864365
13	0xbc705b9e	-0.014670281
14	0xbd3760e3	-0.044770133
15	0xbba0bcd5	-0.004905323
16	0xbd01bff0	-0.031677186
17	0xbc7032ea	-0.014660576
18	0xbe5b4370	-0.21412444
19	0x3c5c2562	0.013436647
20	0x3b62adfa	0.0034588561
21	0xbb84f379	-0.0040573445
22	0xbb8e7798	-0.004347753
23	0xbc18e5ec	-0.009332161
24	0xbbaaa362	-0.005207465
25	0xbce235ca	-0.02761354
26	0xbe83429a	-0.2563675
27	0xbc96f234	-0.018426038
28	0x3ce75980	0.02824092
29	0xbce31362	-0.027719203
30	0xbb3e241b	-0.002901322
31	0x3c320d22	0.010867389
32	0xbd0ebadf	-0.034846183
33	0xbcee1b26	-0.02906568
34	0xbccfd2f3	-0.025369143
35	0xba48b0f1	-0.0007655761
36	0xbb803c84	-0.003913464
37	0xb9f8d25a	-0.0004745897
38	0x3cabed8c	0.020987295
39	0xbdc79225	-0.09744672
40	0x3c444291	0.011978761
41	0xbd1ee9b5	-0.0387971
42	0xbcbc0688	-0.022952333
43	0xbd17bcf1	-0.037045423
44	0xbe4521fd	-0.19251247
45	0xbc7edb96	-0.015555283
46	0xbe5b1434	-0.21394426
47	0x3bb7c3ae	0.0056080436
48	0xbebcfb14	-0.36910307
49	0x3c5e46fa	0.013566727
50	0xbda9ef05	-0.082975425
51	0xbe177085	-0.14789017
52	0xbc2ec2c9	-0.010666558
53	0xbd76a0fc	-0.06021212
54	0x3bdb314f	0.0066892277
55	0xbd172221	-0.036897782
56	0xbc40e49a	-0.011773253
57	0xbd05e4e2	-0.032688983
58	0xbe0eb0c5	-0.1393462
59	0xbd22bb36	-0.03972932
60	0xbb35b833	-0.00277282
61	0x3cb08ded	0.02155205
62	0xbdd9f3d6	-0.10642211
63	0x3c6bd1ac	0.014393251
64	0x3c13201f	0.008979826
65	0x3a8bb3d6	0.0010658454
66	0xbcba75cc	-0.022761248
67	0xbd3ac822	-0.045601018
68	0xbc98b803	-0.018642431
69	0xbe891d82	-0.26780325
70	0x3d89c1a9	0.06726391
71	0x3c034ef6	0.008014431
72	0xbd0a2b49	-0.033732686
73	0xbce75dc1	-0.028242948
74	0x3c612cb5	0.013743569
75	0xbcb4b45e	-0.022058662
76	0xbd36a997	-0.044595327
77	0xbd1eaff5	-0.038742024
78	0xbce5705c	-0.028007679
79	0xbd025796	-0.03182181
80	0xbd5a864b	-0.053350728
81	0xbc003e0a	-0.007827291
82	0xbc9679a9	-0.018368559
83	0xbcf48f69	-0.02985354
84	0xbd28beff	-0.041197773
85	0xbc86d857	-0.01646058
86	0xbb6f4de1	-0.0036514925
87	0x3c2035f5	0.009778489
88	0xbd62be90	-0.055357516
89	0xbcceb523	-0.025232857
90	0xbcdb604f	-0.026779322
91	0xbcc930f5	-0.024559477
92	0xbcdc52ab	-0.026894888
93	0x3c727c57	0.014800153
94	0xbd61cb94	-0.055125788
95	0xbc28ff9c	-0.010314848
96	0xbb1a6f76	-0.002356497
97	0xbc14eb50	-0.009089306
98	0x3cf92139	0.03041135
99	0xbbd97277	-0.0066359597
100	0xbc9ece46	-0.019385468
101	0xbc527ab3	-0.012846637
102	0xbc16f562	-0.009213777
103	0x3cb701ff	0.022339819
104	0xbd053c54	-0.032528237
105	0xbce75d37	-0.02824269
106	0xbd49ee86	-0.04929974
107	0xbbc08a4e	-0.005875862
108	0xbd4f382a	-0.05059067
109	0xbd197de9	-0.037473593
110	0x3b3639f4	0.002780554
111	0xbdadf5c6	-0.08494143
112	0xbe8d167f	-0.27556226
113	0xbc43a6db	-0.011941637
114	0x3b64910b	0.0034876491
115	0xbe53a773	-0.20669346
116	0xbd0a78ce	-0.033806615
117	0xbcca2107	-0.024673952
118	0xbc98b8cd	-0.018642807
119	0x3c493341	0.012280286
120	0xbda171f5	-0.07883064
121	0xbc8b836e	-0.017030444
122	0xbca1ddfd	-0.019759173
123	0xbd3803b8	-0.04492542
124	0xbca21391	-0.01978472
125	0xbe4643e2	-0.19361833
126	0xbcd4ff5e	-0.026000675
127	0xbe02d4b6	-0.12776455

network_body._body_endoder.seq_layers.2.weight f4 [128, 128]
0	0xbbb961af	-0.0056573967
1	0xbc264a14	-0.010149498
2	0xbc068af2	-0.008211838
3	0xbbe9eb3e	-0.0071386388
4	0x3c04d428	0.008107223
5	0xbbd39380	-0.0064567924
6	0x3ba20b0d	0.004945165
7	0x3c3839eb	0.0112442775
8	0xbbb10699	-0.005402398
9	0x3d3e91d9	0.04652581
10	0xbbdf44b0	-0.006813608
11	0x39b861f0	0.00035168184
12	0xbbb984e3	-0.0056615933
13	0xbc937739	-0.018001186
14	0xbbac157a	-0.0052515836
15	0x3b62f3e1	0.0034630226
16	0xbe84cb39	-0.25936297
17	0xbb87e7a1	-0.0041474854
18	0xbc6f236f	-0.01459585
19	0xbb7d4107	-0.0038643496
20	0x3d31ddce	0.04342442
21	0x3bdf6cce	0.0068183905
22	0xbbd2af17	-0.0064295637
23	0x3c11157b	0.008855219
24	0x3d946ae3	0.072469495
25	0xbd0aab49	-0.033854757
26	0xbc4b3419	-0.012402558
27	0xbd0cbd3b	-0.03436015
28	0xbcb9cc4f	-0.02268043
29	0x3c9d11ae	0.01917347
30	0x3bfbe919	0.0076876995
31	0x3b9da24e	0.004810608
32	0xbc50734a	-0.0127228
33	0xbd3f216d	-0.046662737
34	0xbc8a5ac7	-0.01688899
35	0x3d94bf14	0.07263008
36	0xbc7fa293	-0.015602726
37	0xbd34fd20	-0.04418671
38	0xbb34ece2	-0.0027607013
39	0x3d871a38	0.06596798
40	0x3e534fae	0.20635864
41	0x3b9566ee	0.0045593893
42	0xbcea713f	-0.028618453
43	0xbba3bf37	-0.00499716
44	0xbc04e1dd	-0.008110491
45	0x3cc5dce1	0.024153175
46	0xbca7319e	-0.020409402
47	0xbb88810a	-0.0041657733
48	0x3cd04002	0.025421146
49	0xbc6a9ce8	-0.014319636
50	0x3d0a9768	0.0338358
51	0xbbe04a61	-0.006844804
52	0x3b843bea	0.0040354626
53	0x3e1f322c	0.15546483
54	0x3dd9e4af	0.10639321
55	0xbb86576b	-0.0040997765
56	0xbc7be87b	-0.015375252
57	0x3c43663d	0.011926231
58	0x3d4da59c	0.050206766
59	0x3b8c3169	0.004278351
60	0x3bb83798	0.0056218617
61	0xbdce443b	-0.10071608
62	0x3ded3240	0.1158185
63	0xbb0cdddb	-0.002149454
64	0xbb0a0972	-0.0021062759
65	0xbc16de1e	-0.00920823
66	0xba947451	-0.0011326169
67	0xbc81c528	-0.015841082
68	0x3d86194f	0.06547796
69	0x3c2fb534	0.010724355
70	0xbae1be54	-0.001722286
71	0xbc43667d	-0.011926291
72	0x3e0eef6e	0.13958523
73	0xbc8bca5e	-0.01706427
74	0xbb0dc549	-0.0021632484
75	0xbc2a040f	-0.010376944
76	0xbb4150ee	-0.00294977
77	0xbc614325	-0.013748919
78	0xbbba2376	-0.005680497
79	0x3d27b63a	0.04094527
80	0xbbb0944b	-0.0053887716
81	0xbc4cfc56	-0.012511333
82	0x3ba8a6b2	0.0051468248
83	0x3af6b8c2	0.0018823373
84	0xbc19ee66	-0.0093952175
85	0xbdb21703	-0.086957954
86	0xbc202d23	-0.009776386
87	0xbc251402	-0.010075571
88	0xbcb4575b	-0.02201431
89	0x3c9a5236	0.01883803
90	0xbb147ff2	-0.002265927
91	0xbd3b288c	-0.045692965
92	0xbc90129a	-0.017586995
93	0xbbd1930e	-0.006395704
94	0x3cc2eb4a	0.023793835
95	0xbd9ef010	-0.07760632
96	0x3c87d0af	0.016579
97	0xbc7a12c5	-0.015263264
98	0x3b34dbbd	0.0027596795
99	0xbb29c2e2	-0.0025903513
100	0x3b6bc9c2	0.0035978411
101	0xbd9d1185	-0.07669357
102	0x3c37d80b	0.011220942
103	0xbac7d03e	-0.0015244556
104	0xbd258138	-0.040406436
105	0xbba29cd2	-0.004962542
106	0x3c00a5a9	0.007851996
107	0xbaa9266c	-0.0012905127
108	0x3c2e5293	0.010639804
109	0x3954117c	0.00020224409
110	0xbe18d33f	-0.14924334
111	0xbb5ce160	-0.003370367
112	0x3b939abd	0.00450453
113	0x3c07d5a4	0.008290682
114	0x38b2808c	8.511645e-05
115	0xbd8ac098	-0.067750156
116	0xbd4f0ab0	-0.0505473
117	0xbc8b7d85	-0.017027626
118	0x3cd79c0e	0.02631953
119	0xbd78e5e3	-0.060766112
120	0x3c54c5bf	0.0129865995
121	0x3e289b34	0.16465455
122	0xbb493cde	-0.0030706446
123	0x3ba1f938	0.0049430393
124	0x3c16ecb3	0.009211707
125	0xbdb16486	-0.086617514
126	0x3b118c98	0.0022209045
127	0x3d15b49d	0.0365492
128	0x393ce5a0	0.00018014619
129	0xbaff7f82	-0.0019492956
130	0x3bacb152	0.0052701617
131	0xbc96617d	-0.018357033
132	0x3ca3f3a8	0.020013645
133	0xbb0affae	-0.0021209526
134	0xbc09b303	-0.008404496
135	0xba935eda	-0.0011243478
136	0x3d0068aa	0.031349815
137	0xbd85ebf0	-0.06539142
138	0xbb3bf9fb	-0.0028682936
139	0xbc2473d3	-0.01003738
140	0x3d235e48	0.039884835
141	0xba49b180	-0.0007693991
142	0x3c20ba02	0.009809973
143	0x3b9a5ce2	0.0047107795
144	0xbcc17dcb	-0.023619553
145	0xbc1f1d87	-0.00971163
146	0x3b8e55a8	0.004343707
147	0x3b3fdb2d	0.0029274926
148	0xbc7096c2	-0.014684381
149	0xbc4f85e8	-0.012666203
150	0xbe18fcb7	-0.14940153
151	0xbc584489	-0.013199934
152	0xbcefadf9	-0.029257761
153	0xbd0756de	-0.033041827
154	0xbacd26a7	-0.0015651778
155	0x3e253621	0.1613393
156	0x39b1eb6d	0.00033935477
157	0xbb7533cb	-0.0037414904
158	0x3b28df7d	0.0025767975
159	0xbc677d77	-0.014129034
160	0x3ae68c06	0.0017589338
161	0xbd1b16d3	-0.037863564
162	0x3c55f70e	0.013059391
163	0xbb4b5156	-0.0031023822
164	0x3af75ebb	0.0018872836
165	0x3cc55998	0.024090573
166	0xbc47a964	-0.012186382
167	0x3cd35865	0.025798986
168	0x3d976f4d	0.07394276
169	0x3c1dd700	0.0096337795
170	0xbd41b5b6	-0.047292434
171	0x3bc83248	0.0061095096
172	0x3b17b327	0.0023147555
173	0x3cc9b18c	0.024620794
174	0x3c32e753	0.01091941
175	0x3c87c86c	0.01657506
176	0xbd3c619d	-0.04599153
177	0x3bb7d810	0.0056104735
178	0xbb73a70d	-0.0037178427
179	0x3be6da40	0.0070450604
180	0x3b9e2210	0.004825838
181	0xbdcdaa12	-0.10042204
182	0xbce448e3	-0.027866786
183	0x3aa0945d	0.0012251247
184	0xbc9d2963	-0.019184774
185	0x3c82889e	0.015934285
186	0xbb825488	-0.003977362
187	0x3b89a064	0.0042000283
188	0x3c32be25	0.010909592
189	0x3d0ebfa1	0.03485072
190	0xbd307035	-0.04307576
191	0x3ba2dee7	0.0049704197
192	0x3bab797c	0.005232988
193	0x3c5413aa	0.012944141
194	0x3b5eed0c	0.0034015803
195	0x3d721dc4	0.059110418
196	0xbd511151	-0.051041905
197	0x3b8d9c66	0.0043216227
198	0x3c3b287e	0.011423228
199	0x3aada632	0.0013248383
200	0x3dfeb080	0.124360085
201	0x3b8a8bcc	0.004228091
202	0xbbae042a	-0.005310555
203	0xb9b8a487	-0.00035217797
204	0x3caf650d	0.02141049
205	0x3c26dca2	0.010184439
206	0xbd6e906e	-0.058243208
207	0x3db23e12	0.08703245
208	0x3ce489b1	0.027897688
209	0xbb49a22a	-0.0030766823
210	0xbb6baf96	-0.0035962812
211	0x3b20f2e5	0.002455884
212	0xb96da006	-0.00022661695
213	0x3defea40	0.117146015
214	0xbc87a637	-0.01655875
215	0x3bfafd1f	0.007659569
216	0x3e03b5dc	0.12862343
217	0x3c74f40f	0.014950766
218	0xbb59b639	-0.0033220185
219	0x3e0de943	0.13858514
220	0xbcea3597	-0.028590007
221	0x3b79f0ce	0.0038137916
222	0xbb78c60b	-0.003795984
223	0xbca76c2d	-0.020437324
224	0xbca35bc5	-0.01994122
225	0xbbcdafef	-0.0062770764
226	0x3bc0b27b	0.0058806515
227	0xbc29b46d	-0.010357958
228	0xbb0e380d	-0.002170089
229	0xbd2f25c3	-0.04276062
230	0x3c4b876a	0.012422422
231	0x3af410bc	0.001862071
232	0xbd6d3498	-0.057911485
233	0x389b2222	7.397334e-05
234	0x3c184402	0.009293558
235	0x3bab9780	0.005236566
236	0xbbfb6c69	-0.0076728356
237	0xb9ccd2a2	-0.00039066846
238	0xbe278f8b	-0.16363351
239	0x3b44e450	0.0030043311
240	0xbb95a413	-0.0045666783
241	0xbe389f19	-0.18029441
242	0x3c8d2c78	0.017233118
243	0x3d0f76ca	0.035025395
244	0x3d209dd7	0.039213028
245	0xbc4c15b7	-0.012456349
246	0xbc1144fc	-0.008866545
247	0x3d9f9330	0.07791746
248	0x3c71970b	0.014745484
249	0xbd84a8d5	-0.06477515
250	0xbbc7ea9b	-0.006100965
251	0x3aac71cd	0.0013156474
252	0x3a8415f1	0.001007734
253	0xbe16200f	-0.14660667
254	0x3c6440db	0.013931478
255	0x3c3767cc	0.011194181
