AIRocketLanding/results/3AIRocket1/AIRocket/AIRocket-66999987.onnx (onnx, 80149 bytes, 7 tensors)

action_model._continuous_distribution.log_sigma f4 [1, 3]
000000 9c f3 c1 c0 b0 8e d4 c0 7a ca d8 c0
       -6.0609875 -6.642418 -6.7747164

action_model._continuous_distribution.mu.bias f4 [3]
000000 6a 9d 62 be e8 a7 4d 3e 7a ff 3e 3d
       -0.22130361 0.20083582 0.04663036

action_model._continuous_distribution.mu.weight f4 [3, 128]
000000 83 62 54 b8 60 a6 03 39 f0 f9 c2 b9 ad cf e0 b9
       -5.0636485e-05 0.00012555113 -0.0003718878 -0.0004287934
000010 ad 9c a9 38 ba 5e 4b b9 52 56 8f b9 4e 4b 40 b9
       8.087731e-05 -0.00019394877 -0.000273394 -0.000183386
000020 b2 b3 23 39 d0 68 5a b9 02 b5 ef b8 9d 74 ba b9
       0.00015611833 -0.00020829146 -0.000114301234 -0.00035563568
000030 11 01 57 38 ff d0 14 ba e2 7e 3f 39 00 7d 19 39
       5.1260988e-05 -0.0005676895 0.00018262447 0.00014637783
000040 e6 48 03 ba 26 5b 07 ba 0e 5d 5b ba b4 db 2f b9
       -0.0005008116 -0.00051634235 -0.0008368053 -0.00016771146
000050 a4 36 a1 b8 68 6e 0c b9 4c 41 03 b9 d1 cd dd b8
       -7.687256e-05 -0.0001339257 -0.00012517459 -0.000105764375
000060 ac c6 d6 b8 4c a2 dd b8 c4 9c 20 bd 51 a0 48 b9
       -0.00010241321 -0.00010568331 -0.039212003 -0.00019133209
000070 1d 6b 94 38 e6 e7 30 3a 83 19 2c b9 47 cd 3f b8
       7.077141e-05 0.0006748423 -0.00016412702 -4.5729128e-05
000080 4d 4f a8 38 38 85 f3 b8 12 05 88 b6 8f 17 37 b8
       8.025635e-05 -0.00011611957 -4.053706e-06 -4.365254e-05
000090 de 8e 06 ba b4 98 ef b9 51 92 28 39 4e 5a a3 37
       -0.0005132983 -0.00045699405 0.00016076236 1.9473166e-05
0000a0 23 bd e7 39 33 c3 75 b9 92 8f 10 39 ec 5c b9 b7
       0.0004420067 -0.00023437738 0.00013786394 -2.2096989e-05
0000b0 a8 5a e5 39 ca 31 95 38 62 d2 28 3a ca 75 de 39
       0.00043745828 7.1141476e-05 0.0006440041 0.000424309
0000c0 81 8a b9 bd 18 cd ad 39 6f 80 04 be f6 99 1e 39
       -0.09059621 0.00033149938 -0.12939619 0.00015125409
0000d0 06 8f b9 38 b6 87 5c b8 f9 9f 99 b8 91 17 a2 b8
       8.8481276e-05 -5.2578478e-05 -7.325406e-05 -7.7291515e-05
0000e0 17 42 c7 b9 0c 03 a4 39 dd 41 2d b9 4e e8 19 39
       -0.0003800548 0.00031282788 -0.00016523102 0.00014677757
0000f0 bf 87 c1 b9 34 85 2a be e4 e2 06 b9 e2 a0 95 39
       -0.00036912967 -0.16652375 -0.00012863759 0.00028539362
000100 ad 81 1b b9 9b c2 03 b9 39 c1 82 b9 33 4a 1c ba
       -0.0001483026 -0.0001256563 -0.00024939494 -0.0005961984
000110 ae a4 f2 38 e4 96 95 3e d4 23 a9 bd 53 11 c5 b9
       0.00011570133 0.29216683 -0.08258787 -0.00037587676
000120 2b e6 94 39 00 29 4e b8 44 b6 02 39 58 b1 5e 38
       0.00028400248 -4.915241e-05 0.00012465665 5.309409e-05
000130 80 95 23 be 0c d9 4b 39 b7 0c 02 b8 e2 5c 50 38
       -0.15974998 0.00019440445 -3.1006257e-05 4.967757e-05
000140 5c 1f 60 b9 dd e2 78 b9 92 4e 00 b9 4f 79 b5 b9
       -0.00021373987 -0.00023735636 -0.00012236301 -0.00034613392
000150 5b b2 84 39 3a 7d fa 38 3a c6 c1 37 ae d9 10 39
       0.00025309887 0.00011944254 2.30997e-05 0.00013814002
000160 c8 5c 0a ba 32 7f d2 b9 e4 34 e0 39 0b 29 5f b9
       -0.0005278108 -0.0004014909 0.00042764016 -0.00021282227
000170 77 ea 1f b9 18 7b 30 b9 c2 ad 1b b8 1e e9 b0 b8
       -0.00015250767 -0.00016830524 -3.7116704e-05 -8.4357554e-05
000180 ca 71 ad 37 2a d7 08 ba d9 56 16 ba 10 56 78 39
       2.0676194e-05 -0.000522005 -0.0005734987 0.00023683184
000190 2f 6b a6 38 a1 26 01 ba e0 ba d4 39 0c 5a c5 b8
       7.935461e-05 -0.00049267156 0.00040575024 -9.4104646e-05
0001a0 08 6f 31 38 94 a7 97 b9 45 d1 f1 b8 2a b6 b6 37
       4.2303494e-05 -0.0002892582 -0.00011530755 2.1780917e-05
0001b0 a9 a1 e9 b9 90 fe 0e 39 47 15 39 39 d8 ba af b9
       -0.0004456167 0.00013637007 0.00017650901 -0.0003351781
0001c0 ad 72 ed 37 e2 24 b4 b9 4c 92 c2 b8 e9 71 94 b8
       2.8306002e-05 -0.00034359755 -9.277891e-05 -7.078407e-05
0001d0 df 37 24 ba 8c 8a 0b b9 0e 8f 99 37 fd 6b 0b 39
       -0.0006264429 -0.00013307686 1.8305636e-05 0.00013296302
0001e0 ae ab b4 b9 76 01 2f 37 fc 9e 11 b9 bd 62 70 b9
       -0.00034460187 1.0431153e-05 -0.00013887504 -0.00022924966
0001f0 bf 2a fc 37 c5 83 93 3a 28 6b 86 39 0a a0 b6 39
       3.0060646e-05 0.001125448 0.0002563831 0.00034832984
000200 e3 31 54 38 9f 86 64 39 0b 1d 05 b9 e3 1d cd b8
       5.05912e-05 0.00021793925 -0.00012694688 -9.7807286e-05
000210 39 6e b3 b9 a9 92 26 b9 8d 15 a3 b9 18 48 af b8
       -0.00034223663 -0.00015885629 -0.0003110584 -8.358079e-05
000220 f2 d5 df b8 99 10 e7 b8 54 5b f4 38 1f 70 8f b8
       -0.00010673319 -0.0001101803 0.00011651838 -6.8396555e-05
000230 57 37 f8 38 d1 ec 7b b8 b3 7c 0a 37 5a aa 72 38
       0.000118358694 -6.0063616e-05 8.254475e-06 5.785595e-05
000240 43 24 19 38 99 bc af b7 67 a3 25 b9 17 2c 6a b9
       3.6511814e-05 -2.0949448e-05 -0.00015796498 -0.00022332404
000250 6b fd 41 b9 4d 8a 60 38 d7 2f 34 36 41 69 56 39
       -0.0001850032 5.3534564e-05 2.6849937e-06 0.0002044784
000260 f9 0d 74 38 50 57 6b 38 a8 e5 f4 bd 6f 5b eb 35
       5.8187146e-05 5.6109682e-05 -0.11957866 1.7535475e-06
000270 12 ee c5 37 89 b2 88 39 03 36 a4 b9 2b 07 ff b7
       2.359509e-05 0.0002607296 -0.0003132076 -3.0401707e-05
000280 69 4c bf 38 a8 8b 0f 38 21 c4 72 38 ca 7e b1 b6
       9.121822e-05 3.4223922e-05 5.7879955e-05 -5.2897713e-06
000290 db 99 01 b9 30 d0 49 b9 8a 9d ac 39 ff b1 33 b8
       -0.00012359714 -0.0001924641 0.00032923772 -4.2842697e-05
0002a0 9e 62 92 39 77 83 48 39 ef 88 ca 39 f3 da 19 39
       0.00027920766 0.00019122461 0.00038630466 0.00014672782
0002b0 20 b4 f5 37 27 aa a2 37 9b 36 08 3a 41 59 0d 38
       2.9290153e-05 1.9391138e-05 0.0005196125 3.3700144e-05
0002c0 cb 5d 27 be e3 32 bd 39 89 af 8e bd 83 1c 8e b6
       -0.16344373 0.00036086803 -0.069670744 -4.235249e-06
0002d0 66 df bb 38 82 75 d3 38 e6 64 02 39 e4 fe 10 b7
       8.958466e-05 0.000100831516 0.00012435354 -8.642415e-06
0002e0 df 96 6c b8 c1 94 a4 39 b7 f0 6e 39 19 dc 3c b8
       -5.6407294e-05 0.00031391348 0.00022787122 -4.5027675e-05
0002f0 e4 59 3c b8 b5 8d 87 ba 49 1c b5 b8 1c 1f 55 39
       -4.490641e-05 -0.0010341915 -8.636021e-05 0.00020324852
000300 a4 00 20 38 1c 8a 0e b9 3e a1 05 b9 0a 65 a6 b9
       3.814757e-05 -0.00013593625 -0.00012743936 -0.00031737267
000310 40 2f 90 39 fd 62 59 bd 12 69 f4 3b c5 38 f4 b8
       0.00027501024 -0.05307292 0.0074588144 -0.00011645401
000320 2d 0d 45 39 8f 12 35 38 33 c6 28 39 33 59 fb 38
       0.00018792292 4.3171047e-05 0.00016095563 0.00011985227
000330 04 26 1c bd b0 5f fa b6 67 a7 92 b9 09 25 c4 38
       -0.038122192 -7.46172e-06 -0.00027972015 9.3529066e-05
000340 e3 a4 6f b8 ea df 57 b8 e7 b9 c4 38 0d 18 d3 36
       -5.7135603e-05 -5.146853e-05 9.380635e-05 6.29109e-06
000350 86 93 8a b8 c1 dd ba 38 82 2e 9a b9 92 bc 81 b6
       -6.607831e-05 8.910476e-05 -0.0002940782 -3.866452e-06
000360 c2 76 81 b9 f3 ee db 38 bd 40 f7 38 c8 e8 24 b9
       -0.0002469328 0.000104872415 0.00011789936 -0.00015726977
000370 84 bd 9f b8 8d 4c 1f b9 ed e1 c2 38 fe 36 b9 b8
       -7.617011e-05 -0.00015191939 9.292723e-05 -8.8317305e-05
000380 4f e2 8b b8 06 8e a3 b9 91 3b f0 37 32 1e 4f 39
       -6.67019e-05 -0.00031195598 2.8637967e-05 0.00019752307
000390 14 ed 84 b8 1d d9 06 b8 57 03 10 39 71 72 9b b9
       -6.33841e-05 -3.2150292e-05 0.00013734154 -0.0002964917
0003a0 19 56 6b b8 ba 1e cd b8 67 fb fe 37 10 fc 05 39
       -5.610855e-05 -9.780885e-05 3.0396228e-05 0.00012777769
0003b0 ea e7 4b b9 ff cd 9a 39 59 95 b7 b8 62 5f d9 b8
       -0.00019445983 0.00029526648 -8.753938e-05 -0.00010365133
0003c0 89 05 b4 bd a0 5b 0d b9 ab 25 67 b9 71 0c 22 b9
       -0.08790118 -0.00013480941 -0.00022043909 -0.00015454159
0003d0 bc df 09 b8 bc 51 98 39 4d 9f ac b6 e6 95 fb 38
       -3.2871714e-05 0.00029052596 -5.1445445e-06 0.000119965334
0003e0 a6 3a 3d b8 bb f6 29 38 3a f0 a1 b8 8b 06 c6 b9
       -4.5115732e-05 4.0522526e-05 -7.721824e-05 -0.00037770378
0003f0 3b f5 ef 38 79 ca 2d 38 35 1e 03 b9 d0 8c c1 36
       0.00011442086 4.143498e-05 -0.00012504387 5.768241e-06

network_body._body_endoder.seq_layers.0.bias f4 [128]
000000 73 d5 d2 3d 0e 86 ab bd 51 f3 b4 3c c6 26 1b 3d
       0.102946185 -0.08375178 0.022088679 0.037878774
000010 22 fb 03 bd 96 37 96 bd 4b aa d4 3b 92 b2 e9 3c
       -0.03222192 -0.07334821 0.006490027 0.028527532
000020 59 d1 2d bd f6 4a bc bd ea c6 96 bc 91 35 11 3d
       -0.042435978 -0.09193985 -0.018405396 0.035451476
000030 73 6a dd 3d 78 4f 05 bd ed 39 df bc 79 d3 88 bd
       0.10811319 -0.03254649 -0.0272493 -0.0668096
000040 db 61 8d 3d d9 79 11 3d 5b cf 73 3d d9 b3 8b 3b
       0.0690343 0.035516594 0.05952392 0.004263383
000050 af 96 c1 bd 0d 6a 3f 3d e3 28 dc 3c 88 48 20 bd
       -0.09452569 0.046731997 0.026874965 -0.03913167
000060 23 3e 6e bd 82 92 10 be 30 2c 93 3c f1 58 99 3d
       -0.058164727 -0.14118388 0.017965406 0.07487667
000070 18 1e 3e 3c 3f 40 69 bc e6 04 b6 bc 0f df ec bd
       0.011603855 -0.014236509 -0.022219133 -0.115659826
000080 c3 24 30 3d d4 54 91 bd 99 83 70 3a 5c 6f f1 bd
       0.04300381 -0.07096258 0.0009174883 -0.11788818
000090 6a 8c bf 3c 04 73 bf bd c2 39 06 bd 6c a5 ab bd
       0.023382384 -0.09348109 -0.032769926 -0.08381161
0000a0 cf 85 68 be e5 63 31 bd cc 12 2e bd f0 ce 12 3d
       -0.22707294 -0.043308157 -0.042498395 0.035841882
0000b0 88 aa b2 bc ae 4b 6f bc 4b 26 43 be ac b9 07 3c
       -0.021809831 -0.014605446 -0.19057576 0.008284014
0000c0 be ef 00 3e fe c2 7f bb b2 77 8c bc 57 d9 a7 bd
       0.12591454 -0.0039026137 -0.017146919 -0.08195751
0000d0 f3 75 b0 bc 47 7f e1 bd c1 d9 f6 bc 6a e0 7c bb
       -0.021540618 -0.11010604 -0.03013313 -0.003858591
0000e0 bb 3e 72 3d b8 67 43 3c 81 51 1a 3d 4a b0 e4 bb
       0.059141856 0.011926584 0.037675384 -0.006979023
0000f0 9f c1 54 bc 9f 97 fe 3c 40 43 12 bd 54 42 a3 bc
       -0.012985616 0.031078158 -0.035708666 -0.019929089
000100 10 46 1b bd f9 b0 49 bd ef 85 4d bc 5a 64 92 3d
       -0.037908614 -0.04924104 -0.012544139 0.07148047
000110 dd 1f bb 3d d7 3d 51 bd a8 30 fe bc 65 b0 fd 3b
       0.09136937 -0.051084366 -0.03102906 0.007741975
000120 92 e3 76 3d e4 96 6f 3d 3f 71 b9 bc 4e db aa bb
       0.06027562 0.05849351 -0.022637008 -0.0052141314
000130 81 af d7 bc 2b a2 84 bd 4e 68 e3 3d 9e 84 0c bd
       -0.026328804 -0.064762436 0.11103879 -0.03430616
000140 89 d4 8b bc 70 66 10 3c 0c 3e 35 bc b5 4f 38 3a
       -0.017069118 0.0088134855 -0.011062156 0.000703092
000150 0e ac 9c 3b 34 af 39 bd 81 c2 12 bd 45 a0 7d bd
       0.0047812527 -0.045333102 -0.035830025 -0.061920423
000160 f2 d8 d7 bc d2 74 af bc 86 51 19 3d a3 59 d6 bd
       -0.026348565 -0.021418009 0.037431262 -0.104663156
000170 d5 10 bf bc 68 21 00 bd 2e 5e f3 bc b6 c6 3f 3d
       -0.023323456 -0.03128186 -0.029707994 0.046820365
000180 47 af 28 bd 80 10 50 3d a5 71 29 bd 5f 3d 09 3d
       -0.041182783 0.050796986 -0.041368145 0.033505794
000190 fc 11 cb bc f3 86 73 3d 66 ff 8c bc 94 7a 80 bd
       -0.024788849 0.05945487 -0.017211627 -0.0627338
0001a0 20 ab 07 ba c3 93 91 ba 04 cc 1d bd bc 01 5c 3b
       -0.0005175341 -0.0011106658 -0.038524643 0.003357037
0001b0 85 70 54 3d fc ef 53 bd 3f 3f 1b bd bc 7e 11 bc
       0.05186512 -0.05174254 -0.037902113 -0.0088803135
0001c0 1e 81 20 bc 3d cd 30 bd 15 4d 19 bd 14 2c 8a 3d
       -0.009796409 -0.04316448 -0.037427027 0.067466885
0001d0 86 59 7e bd e4 f1 8e 3d 5f cc 71 bc ca b6 89 bd
       -0.062097095 0.06979731 -0.0147581985 -0.06724317
0001e0 29 58 a8 bd f1 9b aa bd 8b a6 63 bc bb 5d 1d bd
       -0.0821994 -0.08330525 -0.013894687 -0.038419466
0001f0 b6 96 34 bd f5 95 ff bd b7 6a 78 bd 4f 74 d2 bd
       -0.04408904 -0.12479774 -0.060648646 -0.1027609

network_body._body_endoder.seq_layers.0.weight f4 [128, 20]
000000 40 ff bc bc 9e 2d 03 bd da f8 90 3e 80 c3 1b 3d
       -0.023070931 -0.032025926 0.2831486 0.03802824
000010 61 35 1c 3e fd 8c f7 bd 4e 6b 90 3d d4 20 96 3e
       0.15254737 -0.12087438 0.07051717 0.2932192
000020 4b c9 53 bc b3 2f 19 3e 0e da 07 3d cb 0f b5 bd
       -0.01292641 0.14959602 0.033166938 -0.08840903
000030 f4 0a 3a 3e d1 9d a4 3d f8 81 94 3a 99 0a 44 be
       0.18168241 0.080379136 0.0011330238 -0.19144668
000040 6e 78 cd bd 79 a2 2d 3e 86 f4 ca be c6 52 64 be
       -0.10032736 0.1695651 -0.39639682 -0.222972
000050 ad 83 58 bf 22 03 97 3e de 5b f0 be c6 eb 7f bb
       -0.8457592 0.29494578 -0.4694509 -0.0039050444
000060 d4 40 d5 bc 69 44 4a bd 48 0e b5 bd 9a fa f0 3d
       -0.026031889 -0.049381647 -0.088406146 0.117665485
000070 9d 20 07 be 15 f3 20 be c4 c1 ed be 68 08 fa bd
       -0.13196035 -0.15717728 -0.46436894 -0.122086346
000080 b8 59 4d be e0 a5 27 3e bc d8 96 bd 2b 59 19 3d
       -0.20053756 0.1637187 -0.073655576 0.037438553
000090 04 5b 8f 3d e3 82 a0 3c 84 43 f2 3c 2d 6f 16 3e
       0.06999782 0.019593662 0.02957321 0.14690848
0000a0 57 96 29 3f d1 73 05 be b2 b3 31 3e b1 ce 21 be
       0.66245025 -0.13032462 0.17353705 -0.15801503
0000b0 06 30 2c bf 76 90 dd bd 8c 22 dd 3d b1 4a 10 be
       -0.6726078 -0.10818569 0.10797605 -0.14090993
0000c0 7f c1 87 be 7a 54 f2 3d f5 a2 0e 3f c8 05 66 3d
       -0.26514813 0.11832519 0.557174 0.056157857
0000d0 8b a0 e5 3d f9 2f 82 be 05 7f 59 3e e0 4f 35 bd
       0.11212262 -0.25427225 0.2123986 -0.044265628
0000e0 96 fe f6 bd 83 cc 03 be 36 e1 d8 3e 51 77 e2 bd
       -0.12060277 -0.12870984 0.42359322 -0.11057914
0000f0 a4 bd 03 bf ec 57 81 be 73 5b f7 3e 56 66 fc bc
       -0.51461244 -0.25262392 0.48311958 -0.030810516
000100 0a 6f 0b 3e 4e 4d 88 bd b2 ed 20 3e d5 73 8c 3e
       0.13616577 -0.0665537 0.15715674 0.27432123
000110 22 59 12 be 63 ec 23 3a fb 2a 34 be 7e 3b 36 3e
       -0.14291814 0.0006253181 -0.17594521 0.17796132
000120 08 32 2f be a9 a2 02 be db a3 d9 3b 55 1d 66 bd
       -0.17108929 -0.12757362 0.0066418475 -0.056180317
000130 05 8b ed bd 1b 67 c1 3e f7 11 b1 be 7e b7 cd 3c
       -0.115987815 0.37773976 -0.3458402 0.02511191
000140 a8 01 da 3e 9b ea 10 be 71 f8 68 be 26 e0 e9 be
       0.4257939 -0.14151995 -0.22751023 -0.45678824
000150 ae c9 f3 be e8 c9 16 3e b7 09 c0 3d 6f ca 00 bf
       -0.47614807 0.14725459 0.09376853 -0.5030889
000160 90 35 2d 3f 5f 4b 35 3e 53 dd bf 3e 6e 67 45 3e
       0.67659855 0.17704533 0.37473544 0.19277737
000170 76 71 0a 3c 67 b5 05 be 5b 1b 9e 3e 35 27 55 3e
       0.008449903 -0.13057481 0.30880246 0.20815738
000180 e4 d5 1b be 0e 29 eb be c6 c0 5b bd 88 e4 52 be
       -0.15218312 -0.4592976 -0.05365064 -0.2059499
000190 bc 43 59 3e ed f7 7f bd 18 d9 51 3e e3 8e 50 be
       0.21217245 -0.0624923 0.20492971 -0.20367007
0001a0 c0 91 d8 be be a8 b6 bd a2 02 93 bc e7 44 a8 be
       -0.42298698 -0.08918904 -0.017945591 -0.32865068
0001b0 68 5b 61 3d c4 3f a9 bd c4 90 05 3e 80 66 60 3d
       0.055018812 -0.082641155 0.13043505 0.05478525
0001c0 7e fc 20 be 24 cb 87 be 08 59 8c bd 4a 17 ef bd
       -0.15721318 -0.26522171 -0.06852919 -0.11674364
0001d0 57 47 c3 3c 42 23 49 be 66 d0 8b 3e 38 df 37 3e
       0.023837728 -0.19642356 0.27307433 0.17956245
0001e0 3a 62 4b bf 67 56 fc bd 48 10 94 3d 6e 46 7d bd
       -0.79446757 -0.123211674 0.07229668 -0.061834745
0001f0 24 51 6b bd 75 a5 a0 be 68 78 80 be df e7 cf 3e
       -0.05745043 -0.31376234 -0.25091863 0.4060659
000200 8b cb d6 be b0 20 cf bd 06 9e 5d bf ec ce 6a 3d
       -0.41952166 -0.101136565 -0.8656925 0.057326242
000210 2f 1f 54 3e b5 9e 2e be 83 07 13 3e 9a 58 91 3e
       0.2071502 -0.1705273 0.14358334 0.2838791
000220 4d c8 a5 3e 0c 05 c6 3e c5 a7 95 bd 08 c9 37 3e
       0.3237938 0.38675725 -0.0730739 0.17947781
000230 ca 62 5e 3e f7 c1 d4 bd ae 09 b2 3e d2 8e a9 3d
       0.21717373 -0.10388558 0.3477301 0.08279194
000240 44 97 b5 bd 05 8c 26 bd d4 a5 12 be db bc 71 3e
       -0.08866742 -0.040660877 -0.14321071 0.23607199
000250 40 f6 1e 3d d8 5d 4f be b6 fa c5 3e 3e f3 30 3d
       0.03880906 -0.20250642 0.3866784 0.043200724
000260 48 64 ce bd 58 87 4c 3e 6a 1b 91 be 9e 3b ea 3c
       -0.10077721 0.19973505 -0.28341228 0.02859288
000270 be 0b 44 3e 89 04 b1 3e 9e 73 b6 be 42 f1 6e 3e
       0.19145104 0.34573773 -0.35635084 0.2333422
000280 34 65 78 3d 0d 33 5a be ff f9 5c be 65 0f 17 3e
       0.06064339 -0.21308537 -0.21579741 0.14751966
000290 fb 9d c7 3e a4 a9 7e 3d 40 57 da bd 64 cb e6 be
       0.38987717 0.0621735 -0.10661173 -0.4507705
0002a0 4c 99 af be fe 8e 89 bd cb 72 26 3f 5f 54 12 be
       -0.34296644 -0.06716727 0.6501891 -0.14289998
0002b0 02 9c c2 bd df e6 04 3f 60 9c 16 bd 1d 49 d6 3e
       -0.095024124 0.5191478 -0.036770225 0.41852656
0002c0 31 f6 47 3e f2 3a 6e bf 00 88 87 be 67 a1 75 3c
       0.19527508 -0.93058693 -0.26470947 0.014992095
0002d0 04 39 9f be 42 c8 01 bf 28 ae e2 bc 22 b5 13 3e
       -0.31098187 -0.50696194 -0.027670935 0.14424565
0002e0 98 33 1c 3d 9a 64 5a 3b 89 13 8f bb d2 7c aa 3e
       0.03813514 0.0033324123 -0.0043663424 0.33298355
0002f0 c1 4e 0a be bb ba d0 bd 50 c5 ab bd 36 c7 24 bf
       -0.13506605 -0.10191866 -0.08387244 -0.6436647
000300 d9 8c 1a be 83 33 ec bc 42 f0 88 3d 9c 96 93 3e
       -0.15092792 -0.028833156 0.066864505 0.28825843
000310 d6 e2 a1 be 48 83 b5 3e e7 aa e7 3c 92 ac 64 3e
       -0.31618375 0.35451722 0.028279735 0.22331455
000320 66 ec f8 3e 97 ce a9 3d 05 02 00 3c 47 d1 7b be
       0.48617858 0.08291357 0.0078129815 -0.24591552
000330 58 04 93 3e e0 e1 31 3c 30 87 26 3e 6b d9 85 3e
       0.28714252 0.010857075 0.16262507 0.2614244
000340 6e ab 4b bd 45 c8 9d 3d 6f 24 4a 3f d2 02 2e be
       -0.049724035 0.07704214 0.78961843 -0.16993263
000350 8e b2 b4 3e 5d 08 02 3d d9 03 9a be 08 b0 a2 be
       0.35292476 0.031746257 -0.3008106 -0.31774926
000360 08 99 f7 bd 5e 27 be 3c 0c e8 2a be b5 08 a6 3c
       -0.12089735 0.023212131 -0.16690081 0.020267824
000370 42 44 d3 be fa 7c 7b 38 2c 6d 09 3e cc 79 4b 3e
       -0.41263014 5.9959457e-05 0.13420552 0.1987068
000380 2b 2a 0e be fc be 53 be 5f 09 17 bd 2d 92 0d 3f
       -0.13883273 -0.20678324 -0.03687417 0.5530117
000390 88 38 c9 be a3 e2 81 be 8f 43 2c bf 6a be ae bd
       -0.39300942 -0.25368223 -0.67290586 -0.08532412
0003a0 da fc 4e 3e 52 50 7c 3d 89 30 65 be 7e cc 98 3e
       0.20213643 0.061600037 -0.22381796 0.29843515
0003b0 1e 22 81 3d 63 7a ac 3e e1 03 61 be ae cd 8d 3e
       0.063053355 0.33687124 -0.21974136 0.27695984
0003c0 71 5d b6 bc 8e 26 eb be ff f3 0d bd 05 5d b9 bd
       -0.022261353 -0.45927852 -0.03465652 -0.09050945
0003d0 2c 03 82 3e 94 cb 74 be d8 1c 4a 3d b0 79 9a 3d
       0.25393045 -0.23905784 0.049343914 0.07542741
0003e0 44 79 da be 23 0b ca 3c 7b 74 4a bb 27 29 08 bf
       -0.42670643 0.024663514 -0.0030892182 -0.53187793
0003f0 f4 2c d7 be 08 2c d4 bd 01 66 4e bd e1 08 17 3c
       -0.42026484 -0.10359961 -0.050390247 0.0092184255

network_body._body_endoder.seq_layers.2.bias f4 [128]
000000 bc b3 d9 3c a0 4d 12 3b dc 19 1f bd ff 60 b0 bc
       0.026574962 0.00223241 -0.03884302 -0.021530626
000010 a7 1d 06 be bb a3 2d be 73 ab f3 3b 6e f2 d4 bc
       -0.13097249 -0.1695699 0.00743621 -0.025994506
000020 fd ac 04 bd 75 d4 8a bc 62 15 92 bc 3b 4d c2 bb
       -0.032391537 -0.01694701 -0.017832462 -0.0059296167
000030 6a 6d 37 3c 95 d4 65 bc c6 f6 35 bd a3 65 b9 bb
       0.01119552 -0.014027734 -0.044424795 -0.005657868
000040 35 26 00 bd a4 7e 71 bc 27 38 5a be 29 35 53 3c
       -0.031286437 -0.014739666 -0.21310483 0.012891092
000050 00 aa 60 3b cf b4 8b bb 4c e0 8e bb 26 70 16 bc
       0.0034281015 -0.0042634974 -0.0043602344 -0.009182012
000060 57 e1 ad bb 68 14 e2 bc 4f 0f 82 be 33 1d 95 bc
       -0.0053064036 -0.027597621 -0.25402305 -0.0182024
000070 ee 36 e5 3c 82 4b e1 bc 39 fb 56 bb b5 fe 34 3c
       0.027980294 -0.027501825 -0.003280355 0.011047055
000080 92 81 0e bd fb 3b ec bc 2e 15 d3 bc e2 bd 9a ba
       -0.034791537 -0.028837195 -0.025766935 -0.0011805857
000090 d5 a1 7e bb b5 7c 57 ba f1 f6 af 3c 05 2a c8 bd
       -0.0038853784 -0.0008220182 0.021480056 -0.097736396
0000a0 f4 05 48 3c 28 c7 1c bd e1 0d b8 bc 30 7f 16 bd
       0.012208451 -0.038275868 -0.022467555 -0.03674239
0000b0 bb e4 44 be fb f0 77 bc 50 24 59 be 55 80 c0 3b
       -0.19227879 -0.015133138 -0.21205258 0.0058746734
0000c0 d1 eb b5 be a3 fa 60 3c 00 a4 ab bd 49 ba 17 be
       -0.35531476 0.013731631 -0.0838089 -0.14817156
0000d0 cb 0a 30 bc 2b 3c 76 bd d4 fe dd 3b d8 2e 15 bd
       -0.010744761 -0.060115974 0.0067747626 -0.036421627
0000e0 49 1f 50 bc ff a6 05 bd ff 46 0f be 4e 8b 22 bd
       -0.012702771 -0.032629963 -0.13991927 -0.039683633
0000f0 7b 73 85 bb aa 8f a4 3c c3 6e da bd 5e b5 76 3c
       -0.0040726042 0.020088036 -0.10665657 0.01505789
000100 aa 1e 0a 3c bd af 60 3a 83 df be bc 63 ed 3c bd
       0.008430162 0.0008571109 -0.023299938 -0.046124827
000110 60 4b 92 bc 4f 64 88 be ff 7f 89 3d 4b c2 fa 3b
       -0.017858207 -0.2663903 0.067138664 0.007652556
000120 86 25 0b bd d4 e0 ec bc b2 d4 67 3c 7a 63 b5 bc
       -0.033971332 -0.0289158 0.014149832 -0.02214216
000130 55 c5 3a bd aa ac 1d bd 64 a7 e0 bc 1b 56 00 bd
       -0.045598347 -0.038494743 -0.027423568 -0.031332117
000140 c7 53 5a bd 3a df 06 bc bd 6c 93 bc 50 bc f5 bc
       -0.053302553 -0.008231932 -0.017996186 -0.029997021
000150 c6 44 2a bd 9c 52 83 bc 6f ce 47 bb 0c 27 21 3c
       -0.041569494 -0.016030602 -0.0030488034 0.00983597
000160 7a 02 62 bd 96 2a cd bc 1b b7 d8 bc f6 6d c9 bc
       -0.055178143 -0.02504472 -0.026454499 -0.024588566
000170 1e 99 dc bc 61 a9 73 3c d6 2c 60 bd 2d 9e 1d bc
       -0.02692848 0.014871926 -0.05473026 -0.009620232
000180 74 cd 2c bb c3 38 1e bc 58 8e f7 3c 5c 8f d6 bb
       -0.0026367577 -0.009657088 0.030219242 -0.0065478515
000190 54 7e 9f bc 82 69 47 bc 49 bd 10 bc 0b 79 b3 3c
       -0.019469418 -0.012171151 -0.008834192 0.021908304
0001a0 44 db 06 bd 6f 41 e8 bc d8 80 48 bd 67 b2 ce bb
       -0.03292395 -0.028351514 -0.048951 -0.0063078883
0001b0 0e b9 4f bd 0b de 17 bd 9b 1a 3f 3b a7 71 ae bd
       -0.05071359 -0.03707699 0.0029160145 -0.08517771
0001c0 30 c4 8d be d6 10 4b bc cf 66 2f 3b e0 ca 53 be
       -0.27688742 -0.012394151 0.002676416 -0.2068286
0001d0 13 65 07 bd 17 64 c6 bc 8a 10 98 bc 75 13 4e 3c
       -0.033055376 -0.024217648 -0.018562574 0.012577881
0001e0 67 a3 a2 bd 9d 0a 8e bc c7 37 a4 bc fb 78 39 bd
       -0.07941323 -0.017339045 -0.020046128 -0.04528139
0001f0 4a 5b a4 bc 63 aa 44 be ea b3 d4 bc 46 91 02 be
       -0.020063061 -0.19205622 -0.025964696 -0.1275073

network_body._body_endoder.seq_layers.2.weight f4 [128, 128]
000000 c2 ec 31 3a 03 fa 7a bc da 6d fb ba 85 73 2d 3b
       0.0006787294 -0.0153183965 -0.0019182519 0.002646656
000010 d9 86 17 3c ba 43 8b bb 2d 20 73 3a af 19 a0 3c
       0.009248459 -0.004250017 0.0009274509 0.019543497
000020 39 e7 c1 bb 25 f5 3d 3d 8a 7e 0b bc d7 9e b9 3b
       -0.0059174565 0.046376366 -0.008514056 0.005664687
000030 3c fd d0 bb 22 52 79 bc e4 c6 0b 3c d6 79 98 bb
       -0.006377844 -0.015217336 0.008531306 -0.004653196
000040 4f ea 84 be 49 df d0 3b ab 58 1d bc 0f a8 50 3b
       -0.25960013 0.006374274 -0.00960366 0.0031838452
000050 c7 92 25 3d 93 d1 60 3c 90 70 e4 bb dc 6c 11 3c
       0.04042318 0.013721841 -0.0069714263 0.008876052
000060 91 d0 94 3d aa e1 05 bd 70 48 89 bc 97 fd 09 bd
       0.072663434 -0.032685913 -0.016758174 -0.033689108
000070 02 92 96 bc 19 c8 05 3d d0 35 0c 3c bf ca cc bc
       -0.018380169 0.03266153 0.008557752 -0.02499902
000080 fd 58 3f bc 31 fa 4f bc 1f 48 8a bc b7 ea 96 3d
       -0.011678931 -0.012693928 -0.016880093 0.07368987
000090 c3 c3 10 bc 5a 50 3b bd c4 39 1d 3a 9b 35 8b 3d
       -0.008835736 -0.045730926 0.00059976825 0.06797334
0000a0 23 49 53 3e 90 41 8b ba fc c8 ea bc ae 5a 40 3b
       0.20633368 -0.0010624398 -0.02866029 0.0029350924
0000b0 bb aa 9e bc 42 aa 0d 3c d6 9b ee bb e3 11 6b bc
       -0.01936852 0.00864655 -0.0072817607 -0.014347526
0000c0 0f 6a ce 3c 71 c6 92 3b df 2b 19 3d 57 80 f7 bb
       0.025197057 0.0044792225 0.037395354 -0.007553141
0000d0 28 ff 0a bb 6e 51 21 3e c8 ea dc 3d ea 31 02 3b
       -0.0021209214 0.15753719 0.107869685 0.0019866177
0000e0 f6 6a 00 bc 72 cb c3 3c 16 e6 43 3d 1f 3d 84 3c
       -0.0078380015 0.023900721 0.04782685 0.016142426
0000f0 19 5a 2a 3b 15 40 cc bd 38 2a ed 3d 1a e9 b7 bb
       0.0025993644 -0.0997316 0.11580318 -0.0056125047
000100 49 3d 5f bc d6 da 84 bc f6 b0 e8 bb 22 8e 86 bc
       -0.013625451 -0.01621763 -0.0071011735 -0.016425196
000110 6f f5 ac 3d 19 4c 6f 3b c2 8d 00 bc 54 55 b6 bc
       0.0844525 0.0036513864 -0.007846298 -0.022257484
000120 60 70 0e 3e 72 26 5e bc 21 63 e6 ba 43 0e 5d bb
       0.13910055 -0.013558971 -0.001757715 -0.0033730424
000130 0e 5d f5 bb 35 e4 72 bb 37 2f b0 bc bc 81 2b 3d
       -0.0074878996 -0.0037062292 -0.021506889 0.04187177
000140 99 58 8a bb 81 00 a9 bc e2 63 6c 3c 48 d5 86 3a
       -0.0042219874 -0.020630123 0.014428111 0.0010286951
000150 91 79 f2 bb 75 25 b2 bd 59 33 0a bc 65 0a af bb
       -0.0073997458 -0.086985506 -0.008435094 -0.0053418153
000160 f7 b5 a8 bc a7 54 9f 3c 56 3e 39 bb 0b 0a 3c bd
       -0.02059458 0.019449545 -0.0028265915 -0.045908015
000170 f3 97 37 bc 30 0f 7f bc 31 55 af 3c 85 32 a0 bd
       -0.011205661 -0.015567586 0.021402927 -0.07822136
000180 0a 92 a8 3c 34 58 59 bc dd 7a 80 bb 62 80 b4 bb
       0.02057745 -0.013265658 -0.0039208964 -0.0055084685
000190 d4 0b c4 ba 08 50 9c bd c5 5a 69 bc 7d 82 63 bc
       -0.0014957138 -0.07632452 -0.014242833 -0.013886091
0001a0 25 0d 24 bd 14 3f 5a 3c 2f d9 81 3a 57 4f 90 3b
       -0.040051598 0.013320703 0.0009906645 0.0044039893
0001b0 c5 98 86 3c 71 98 1a bb eb a2 18 be 17 c8 58 bc
       0.016430268 -0.0023589397 -0.14905898 -0.013231299
0001c0 65 8f 42 3a bc 52 0e 3c db 77 5e 3c f1 ec 8a bd
       0.000742188 0.008686718 0.01357838 -0.06783474
0001d0 4b 6d 51 bd cd f7 62 bc e3 56 02 3d ab a5 79 bd
       -0.05112962 -0.013853026 0.031821143 -0.06094901
0001e0 d0 1c a9 bb a9 2e 29 3e 4b 26 2a bb 65 93 b2 3b
       -0.0051609054 0.16521706 -0.0025962766 0.0054496997
0001f0 51 aa a1 3c 19 66 b0 bd ff 29 75 bb bf a9 5a 3d
       0.019734534 -0.086132236 -0.0037409065 0.05338454
000200 f0 bb 72 bb 58 46 1f bb bc 03 f6 3b 43 9d 24 bc
       -0.003703829 -0.0024303403 0.0075077694 -0.01004726
000210 af 9b 1b 3c 55 13 66 3b 60 2a 8b 3b 69 fe c5 3b
       0.009497567 0.0035106738 0.004246995 0.006042291
000220 f7 f0 ff 3c 9f 55 85 bd 8e 8e eb 3b 52 09 25 bb
       0.03124283 -0.065104716 0.0071886247 -0.0025182557
000230 15 ca 23 3d 94 1d e0 3a 7d 8c 45 ba 47 9b 22 3c
       0.039987642 0.0017098659 -0.0007535888 0.009924716
000240 95 48 be bc a4 d8 11 bc 9d 37 aa 3b 7e 5a 2b 3a
       -0.02322797 -0.008901749 0.005194618 0.0006536617
000250 35 b1 8e ba 18 aa 00 bb 05 eb 18 be da 36 9b bb
       -0.0010886552 -0.0019632634 -0.14933403 -0.0047367634
000260 06 0a eb bc 75 13 08 bd 69 87 b2 3b 68 8a 25 3e
       -0.028691303 -0.03322168 0.005448271 0.16166079
000270 47 7c 52 3b e6 7e f7 bb 8b 7c ce ba 0f 3e 69 bd
       0.0032117532 -0.0075529693 -0.001575367 -0.05694395
000280 14 20 4f bc 1a 65 dd bc 4e 84 e2 3b f3 6f 1a bb
       -0.012641925 -0.027025748 0.0069127446 -0.0023565262
000290 07 a0 57 3b b2 6b c9 3c 67 97 75 3b a5 ee d9 3c
       0.003290178 0.024587486 0.0037474276 0.026603052
0002a0 13 cb 97 3d fc b5 6a 3b 01 75 41 bd 84 7a d8 bb
       0.0741178 0.0035814038 -0.047230724 -0.006606402
0002b0 6b a8 b7 bb b0 26 09 3c 75 a7 ba 3c 45 71 ad 3c
       -0.005604794 0.00837104 0.022784928 0.021172175
0002c0 22 b8 3b bd 91 84 41 3c ea c7 6b bb 98 f4 b4 3c
       -0.0458299 0.011811391 -0.0035977312 0.022089288
0002d0 dc 8f f0 3a f7 a4 d1 bd 3d f4 e1 bc 1f 46 89 ba
       0.001835342 -0.10236543 -0.027582282 -0.0010473168
0002e0 e7 07 7f ba 66 43 aa 3c e4 6c 3f bc 2d ef 40 ba
       -0.00097286556 0.020784091 -0.011683676 -0.0007359859
0002f0 92 fa 37 3c fc a5 10 3d 60 f3 2e bd 91 6a 5c 3b
       0.011229174 0.035314545 -0.04271257 0.0033632854
000300 12 13 a3 3c 9f cf 25 3c c9 49 d0 bb ad b6 74 3d
       0.019906554 0.0101203015 -0.006356452 0.059744526
000310 21 37 40 bd e1 df ae 3b 89 85 02 3c 47 f2 e6 3b
       -0.046927575 0.005336747 0.007966408 0.0070479247
000320 da ab 00 3e 1a 5d 76 3c d4 83 a3 bb fd 18 ff ba
       0.12565556 0.015036846 -0.0049900804 -0.0019462403
000330 0b 92 1e 3d 6b 9b f9 ba 7e c7 83 bd 38 08 b6 3d
       0.038713496 -0.001904351 -0.064345345 0.08888286
000340 d1 81 c6 3c 4d c3 5e 3b 93 88 45 bc 39 06 1c 3b
       0.024231823 0.003399092 -0.012056488 0.002380742
000350 87 48 16 bb f9 0e f0 3d c4 22 ed 3b 03 46 4f 3b
       -0.0022931413 0.11721606 0.0072368104 0.0031627424
000360 ef 38 03 3e 09 09 74 3b 6f 56 0c bb 07 f9 0e 3e
       0.12814687 0.003723683 -0.0021413823 0.13962184
000370 ee 27 db bc aa c5 e5 3b 29 45 96 bc 93 55 9b bc
       -0.026752438 0.007012089 -0.018343525 -0.018961703
000380 a6 36 51 bd ff 36 e1 3b 6e 91 36 ba 18 93 5c bb
       -0.051077507 0.006873011 -0.000696442 -0.003365701
000390 af 33 1b bc ec 8a 2d bd dc 63 02 3b 30 6f 64 bc
       -0.009472772 -0.042368814 0.0019895947 -0.013942525
0003a0 5b 4e 6a bd 11 25 0e bb a9 91 9f 3a a3 27 b7 b9
       -0.05720363 -0.0021689574 0.0012174147 -0.00034934012
0003b0 be fd 3d 3c a8 82 05 3a db 44 27 be 88 5d 28 3c
       0.011596141 0.00050930167 -0.1633486 0.010276206
0003c0 b9 b3 8d 3b 45 08 38 be 92 30 e5 3b d9 7a 10 3d
       0.004324403 -0.17971905 0.0069943154 0.035273407
0003d0 ed 99 21 3d a9 76 d6 3b 48 01 6e bc 12 39 a1 3d
       0.039453436 0.006544907 -0.014526673 0.078722134
0003e0 09 da 53 bc 25 e9 83 bd 9a 3d 60 bb f2 00 e3 3a
       -0.012930402 -0.06440953 -0.0034216405 0.0017319007
0003f0 5a f9 94 3b d2 a5 15 be 8e ec 9d bb 96 0c ad 3c
       0.0045463266 -0.14614037 -0.0048194593 0.021124166
