AIRocketLanding/results/3AIRocket1/AIRocket/AIRocket-67499941.onnx (onnx, 80149 bytes, 7 tensors)

action_model._continuous_distribution.log_sigma f4 [1, 3]
0	0xc0c1d981	-6.057801
1	0xc0d4239b	-6.6293464
2	0xc0d7fb54	-6.7494297

action_model._continuous_distribution.mu.bias f4 [3]
0	0xbe62cc2b	-0.22148196
1	0x3e4eb89a	0.20187607
2	0x3d3f92b8	0.04677078

action_model._continuous_distribution.mu.weight f4 [3, 128]
0	0x38d564ae	0.000101753845
1	0x393c01cf	0.00017929751
2	0xb90d68fb	-0.00013485916
3	0xb6b102b0	-5.275324e-06
4	0x39af0310	0.00033380883
5	0x35cf1bde	1.5430812e-06
6	0xb9d1d592	-0.0004002271
7	0x39d5ddbd	0.00040791734
8	0x38af07a6	8.346075e-05
9	0x39884443	0.000259908
10	0x37114ddf	8.660804e-06
11	0x3a41f313	0.00073985866
12	0x39d78329	0.00041105718
13	0xb99db6ec	-0.0003008166
14	0x3961e689	0.00021543553
15	0x38b55537	8.646625e-05
16	0x3946868c	0.00018932874
17	0x3a22245e	0.00061852287
18	0x3aaeacc3	0.0013326633
19	0xb93da1ed	-0.00018084767
20	0xb9023b3f	-0.00012419837
21	0xb9074f0c	-0.0001290405
22	0xb9ad1a06	-0.0003301652
23	0x3949cd12	0.00019245248
24	0xb7e91375	-2.7784825e-05
25	0x3988f6b8	0.0002612376
26	0xbd2093b4	-0.03920336
27	0xb915daf6	-0.00014291317
28	0xb8c72937	-9.496736e-05
29	0xb9ad498e	-0.00033051934
30	0xb972a114	-0.00023138925
31	0x38115bb7	3.465611e-05
32	0x39c79940	0.00038070418
33	0xb988b328	-0.00026073423
34	0x3950b28d	0.00019902941
35	0xba2cd080	-0.0006592348
36	0xb94d7268	-0.00019592943
37	0xb9331281	-0.00017077664
38	0x37a8a54d	2.0104135e-05
39	0xb9f33d07	-0.0004639404
40	0x38ffa482	0.000121899895
41	0xb9721539	-0.00023086825
42	0x3a0a3c91	0.00052733073
43	0x39c7b3e4	0.00038090267
44	0x3a1e300e	0.00060343824
45	0xb65ab3e7	-3.2589248e-06
46	0x3b29cf30	0.0025910847
47	0x3a2fa8e1	0.0006700885
48	0xbdb93415	-0.09043137
49	0x39a01516	0.00030533288
50	0xbe046759	-0.12930049
51	0xb978070b	-0.00023653747
52	0x39ba2829	0.00035506606
53	0x395d705f	0.00021118064
54	0xb890db2c	-6.907279e-05
55	0x3a24396d	0.00062646606
56	0xba246335	-0.00062708865
57	0xb6afff07	-5.2450955e-06
58	0x39854106	0.00025416183
59	0xb9bdeaba	-0.00036223774
60	0xb8834662	-6.2596766e-05
61	0xbe29a4b0	-0.1656673
62	0xb9bee64a	-0.00036411203
63	0x39e63046	0.00043904985
64	0xb8ad5f8d	-8.2670806e-05
65	0xb9a1fb7c	-0.00030895683
66	0x385606f4	5.102805e-05
67	0x390390e6	0.00012547112
68	0x37cbaf75	2.428119e-05
69	0x3e955879	0.29169062
70	0xbd9d033f	-0.07666635
71	0x38d35dc8	0.00010078732
72	0x39a8e31f	0.00032212675
73	0x3933b962	0.00017139831
74	0xba06b67e	-0.0005138888
75	0xb7a24240	-1.9342755e-05
76	0xbe2310f8	-0.15924442
77	0xb975187b	-0.0002337414
78	0xb8518768	-4.995559e-05
79	0xb9376615	-0.00017490269
80	0xb8a663eb	-7.934108e-05
81	0x39147987	0.00014159652
82	0xb9dd0667	-0.00042157175
83	0x3a01cfa9	0.0004951903
84	0xb911bdfb	-0.00013899051
85	0x379bd3bd	1.8576038e-05
86	0xb7a47358	-1.9604035e-05
87	0xb9552acf	-0.0002032921
88	0xb940ac1f	-0.00018374667
89	0x397052a8	0.00022918975
90	0x38539313	5.0443294e-05
91	0xb9cd6f88	-0.00039183744
92	0xb8e05f85	-0.00010698944
93	0xb9da306a	-0.00041616271
94	0x39e785fa	0.00044159574
95	0xb8972d86	-7.2087205e-05
96	0xb9030027	-0.0001249319
97	0xb7ce0373	-2.455872e-05
98	0xb990c8ca	-0.0002761542
99	0x39ed4d37	0.00045261692
100	0xb8cb9fb1	-9.709539e-05
101	0xb88fe3e4	-6.861219e-05
102	0x39e5894a	0.00043780572
103	0xb9c82f77	-0.00038182337
104	0xb9e9ab85	-0.00044569015
105	0x39676ecf	0.00022071156
106	0x3a486866	0.0007644951
107	0xb885e389	-6.384316e-05
108	0x37946818	1.7691447e-05
109	0x3a00961e	0.00049051817
110	0x38a91bde	8.063739e-05
111	0xb963b86e	-0.00021717112
112	0x38f3546a	0.00011602866
113	0xb99ed410	-0.00030294107
114	0xb93a1eee	-0.00017749864
115	0x3a712913	0.0009199541
116	0x39e3df40	0.00043463148
117	0x3990b371	0.00027599515
118	0x3a3d13ed	0.0007212747
119	0xb9c34cd1	-0.0003725053
120	0x39b5ba87	0.00034661984
121	0xb9fe884f	-0.00048548213
122	0xb910c726	-0.00013807099
123	0xb8a4f6ed	-7.866123e-05
124	0xb99ee502	-0.00030306733
125	0x3ae5e48e	0.0017539428
126	0x390ffd7c	0.00013731973
127	0x3a32f724	0.0006826988
128	0xb868abfb	-5.547328e-05
129	0x3807d21d	3.238219e-05
130	0x38b22942	8.495386e-05
131	0xb9e8c36c	-0.0004439609
132	0x390eb4bc	0.00013609504
133	0xb94b1b76	-0.00019369819
134	0x39a69ed1	0.00031780315
135	0xb9fda2db	-0.00048377257
136	0x39844c99	0.00025234072
137	0xb91f6bd2	-0.00015203588
138	0x38039763	3.1373824e-05
139	0xba3a9c2c	-0.00071186083
140	0xb99341cc	-0.00028087047
141	0x3874e348	5.8385805e-05
142	0xb9538099	-0.00020170434
143	0x384b5de1	4.8486403e-05
144	0xb9cf5624	-0.00039546296
145	0xba2c58e7	-0.0006574527
146	0xba772463	-0.0009427724
147	0x39ef29ad	0.00045616683
148	0x39698423	0.00022269836
149	0x386b78f3	5.614101e-05
150	0x3a0282bf	0.0004978589
151	0xb78efcce	-1.704544e-05
152	0x39897e9f	0.00026225016
153	0xb9aee612	-0.00033359282
154	0xbdf5de1d	-0.12005255
155	0x37cc58db	2.4360072e-05
156	0x391f69d9	0.00015202853
157	0x39b717b5	0.00034922143
158	0xb961ed35	-0.00021546039
159	0x39d3152c	0.0004026083
160	0x3881936d	6.1786595e-05
161	0x3a06156c	0.00051148864
162	0xb9f34055	-0.00046396503
163	0x39def990	0.00042529078
164	0xb90bd3dd	-0.00013334998
165	0x39320991	0.00016978967
166	0x39ab55cd	0.00032679588
167	0x3a03ec2a	0.00050324446
168	0x38e36ed8	0.0001084485
169	0x396c359a	0.00022526682
170	0xb9cb6248	-0.00038792402
171	0xb976aab4	-0.0002352398
172	0xb9907d9f	-0.00027559415
173	0xb7c694c2	-2.367271e-05
174	0xbb3bed63	-0.002867543
175	0xb9d6d3fa	-0.00040975196
176	0xbe285031	-0.1643684
177	0x3900fc22	0.00012300958
178	0xbd8e9e9f	-0.06963848
179	0x397469c8	0.0002330906
180	0xba0a27e6	-0.00052702276
181	0xb953d0d9	-0.0002020033
182	0x390224a9	0.00012411423
183	0xba05bde6	-0.00051018444
184	0xb7f0f4b4	-2.8724178e-05
185	0x389344a7	7.022294e-05
186	0xb9af0d3a	-0.00033388456
187	0x390dca8a	0.0001352226
188	0x3951aa2b	0.00019995186
189	0xba0fd67b	-0.0005486977
190	0x39bab6c0	0.00035612844
191	0xb98f6e5f	-0.00027357318
192	0x39b4e412	0.000345022
193	0x39c3ec4f	0.00037369362
194	0xba11bfd2	-0.00055598945
195	0xb8eb5c88	-0.000112229085
196	0x3965b0cc	0.00021905004
197	0xbd5eb94a	-0.054375924
198	0x3bc2ef22	0.005948917
199	0x38edda08	0.00011341652
200	0xb8a14d75	-7.691506e-05
201	0xb94068e2	-0.00018349619
202	0x3a133574	0.000561557
203	0x38ae67b0	8.31628e-05
204	0xbd1b986a	-0.03798715
205	0x39081cae	0.00012980655
206	0x38d9e21a	0.00010389481
207	0xb9a1ea91	-0.0003088308
208	0x37eb72c4	2.8067625e-05
209	0xb85492fc	-5.068163e-05
210	0x399081de	0.0002756258
211	0xb9f225ac	-0.00046185905
212	0xb99401be	-0.00028230058
213	0xb777467a	-1.4738756e-05
214	0x38477de9	4.756256e-05
215	0x39ca9282	0.000386376
216	0xb89eaef2	-7.566613e-05
217	0xb8020064	-3.099478e-05
218	0xb8ddbda0	-0.000105734216
219	0xb8983e88	-7.259572e-05
220	0x37993e5e	1.8268063e-05
221	0x3882cea9	6.2373765e-05
222	0xb9946377	-0.00028302867
223	0xb92b0542	-0.0001630979
224	0x39507adc	0.00019882194
225	0x391d16fc	0.00014981249
226	0xb7f04462	-2.8642073e-05
227	0xb9b791e3	-0.00035013174
228	0x38e37c94	0.00010847408
229	0x387c8885	6.0208626e-05
230	0xb958d16c	-0.00020677381
231	0x3899ce80	7.334072e-05
232	0x3a0224e9	0.00049646065
233	0xb97ef9dc	-0.00024316408
234	0xba19a284	-0.00058607035
235	0x38df3e77	0.000106451036
236	0xb9b42649	-0.000343608
237	0xb8f494ef	-0.00011662568
238	0x38fe857f	0.000121365294
239	0x39275973	0.00015959684
240	0xbdb46f00	-0.08810234
241	0x38a3b5e6	7.806327e-05
242	0x39d57dc3	0.00040720226
243	0xb9fc78cc	-0.00048155186
244	0xba1c550a	-0.00059635995
245	0xb9f7801e	-0.00047206966
246	0xba360b12	-0.00069443986
247	0x397ff3aa	0.00024409467
248	0xb9b041f5	-0.00033618478
249	0x39c4a69c	0.00037508167
250	0x3888beee	6.520549e-05
251	0x3891610b	6.9322145e-05
252	0x39a4f224	0.00031460926
253	0xbad45d45	-0.0016202113
254	0x389348ca	7.023064e-05
255	0xb915ce15	-0.00014286519

network_body._body_endoder.seq_layers.0.bias f4 [128]
0	0x3dd1b330	0.102392554
1	0xbdaad6cf	-0.08341753
2	0x3cb55940	0.022137284
3	0x3d1a0f98	0.037612528
4	0xbd023f32	-0.03179855
5	0xbd95bb2f	-0.07311093
6	0x3bc69990	0.0060607865
7	0x3ce6b7f3	0.028163886
8	0xbd29d2d7	-0.04146084
9	0xbdbb85c2	-0.09156372
10	0xbc973e63	-0.018462365
11	0x3d0e8732	0.0347969
12	0x3dde6ac2	0.10860206
13	0xbd053c59	-0.032528255
14	0xbcdd3e4d	-0.027007246
15	0xbd88f707	-0.06687742
16	0x3d8f700b	0.070037924
17	0x3d1257c3	0.035728227
18	0x3d71e919	0.05906019
19	0x3b957381	0.0045608883
20	0xbdc1af5d	-0.09457276
21	0x3d3d3fc6	0.046203397
22	0x3cd1d544	0.025614388
23	0xbd219fa6	-0.039458893
24	0xbd6a085e	-0.057136886
25	0xbe0fc910	-0.14041543
26	0x3c8fcb0e	0.017552879
27	0x3d9ade1a	0.07561894
28	0x3c3d7ae0	0.01156494
29	0xbc662197	-0.014046094
30	0xbcb34875	-0.021885136
31	0xbded5e68	-0.11590272
32	0x3d2e6572	0.042577215
33	0xbd919d2e	-0.07110058
34	0x3a94e144	0.0011358638
35	0xbdf3af00	-0.11898613
36	0x3cbd082f	0.023075191
37	0xbdc1f747	-0.094709925
38	0xbd048367	-0.032351878
39	0xbda9dc71	-0.08293999
40	0xbe687963	-0.22702555
41	0xbd2e83f1	-0.042606298
42	0xbd32e0ae	-0.043671302
43	0x3d117f73	0.035521936
44	0xbcb18a94	-0.021672525
45	0xbc64974b	-0.013952087
46	0xbe4357bd	-0.19076438
47	0x3c07c158	0.008285843
48	0x3e021488	0.12703145
49	0xbb7464c8	-0.0037291516
50	0xbc94de70	-0.018172473
51	0xbda6dc00	-0.081474304
52	0xbcad3776	-0.02114461
53	0xbddc3ca3	-0.10753753
54	0xbcf1a578	-0.029497847
55	0xbb745e42	-0.0037287627
56	0x3d6fac84	0.058514133
57	0x3c3beb9b	0.011469747
58	0x3d178f05	0.03700163
59	0xbbdc711c	-0.006727351
60	0xbc5beb53	-0.013422805
61	0x3d02b772	0.03191323
62	0xbd162c38	-0.036663264
63	0xbca0d27d	-0.019631619
64	0xbd1a813a	-0.037720896
65	0xbd48e1f4	-0.04904361
66	0xbc413bbc	-0.011794027
67	0x3d940105	0.07226757
68	0x3db9d896	0.090745136
69	0xbd4f6981	-0.050637726
70	0xbcfa4e4c	-0.030554913
71	0x3bf05803	0.0073347106
72	0x3d7aefbc	0.061263785
73	0x3d6db021	0.058029298
74	0xbcbd5b4f	-0.023114828
75	0xbba44cec	-0.0050140526
76	0xbcd4c76a	-0.025973994
77	0xbd845bf6	-0.06462853
78	0x3de29d89	0.11065204
79	0xbd05b5aa	-0.03264395
80	0xbc875d6d	-0.016524041
81	0x3c0aee51	0.008479671
82	0xbc3bc3c9	-0.011460253
83	0x3a3a9091	0.0007116879
84	0x3ba8c390	0.005150266
85	0xbd391119	-0.04518232
86	0xbd13407e	-0.035950176
87	0xbd7aedba	-0.06126187
88	0xbcd40cdb	-0.025885036
89	0xbcb0d174	-0.02158425
90	0x3d1a07d3	0.037605118
91	0xbdd6b415	-0.10483567
92	0xbcc0deeb	-0.023543796
93	0xbcfe9608	-0.0310774
94	0xbcf0993d	-0.029369945
95	0x3d3cb608	0.046072036
96	0xbd26e744	-0.040747896
97	0x3d4f861c	0.050665006
98	0xbd270194	-0.04077299
99	0x3d06e859	0.032936428
100	0xbcc71566	-0.024302196
101	0x3d797fca	0.060912885
102	0xbc8feab8	-0.017567977
103	0xbd7f93bc	-0.06239675
104	0x3a362567	0.00069483224
105	0xba8f3498	-0.0010925708
106	0xbd1ef4cd	-0.03880768
107	0x3b62f360	0.0034629926
108	0x3d533937	0.051568236
109	0xbd520846	-0.05127742
110	0xbd1b87fc	-0.03797148
111	0xbc0d7055	-0.008632739
112	0xbc1db771	-0.009626255
113	0xbd2ce5c2	-0.0422113
114	0xbd16d86d	-0.036827493
115	0x3d8d72b5	0.06906644
116	0xbd81b5d4	-0.06333509
117	0x3d8e0b53	0.06935754
118	0xbc7b5632	-0.015340375
119	0xbd8808f2	-0.06642331
120	0xbda849fe	-0.08217238
121	0xbda8b27b	-0.082371674
122	0xbc625a25	-0.013815437
123	0xbd1d59a7	-0.038415577
124	0xbd33668a	-0.04379896
125	0xbdfebdfd	-0.12438581
126	0xbd764641	-0.060125593
127	0xbdd38e5c	-0.10329887

network_body._body_endoder.seq_layers.0.weight f4 [128, 20]
0	0xbd36ba82	-0.04461146
1	0xbcf04d2d	-0.029333675
2	0x3e91f43b	0.28506646
3	0x3d19b825	0.03752913
4	0x3e1bad4a	0.15202823
5	0xbdf67e79	-0.120358415
6	0x3d91595d	0.07097123
7	0x3e9b6521	0.30350593
8	0xbc918ec3	-0.01776827
9	0x3e18a454	0.14906436
10	0x3c3c6def	0.01150082
11	0xbdafe106	-0.08587842
12	0x3e3bfd08	0.18358243
13	0x3da3897a	0.07985206
14	0x3a1949e0	0.0005847495
15	0xbe437bc9	-0.19090189
16	0xbdcc7b39	-0.0998444
17	0x3e382ed2	0.1798661
18	0xbecd6e45	-0.4012319
19	0xbe64e5b4	-0.2235325
20	0xbf544605	-0.8291934
21	0x3e95db54	0.29268897
22	0xbef1202e	-0.47094864
23	0xbb5a099d	-0.003326989
24	0xbcd04aa0	-0.025426209
25	0xbd4cbacc	-0.04998283
26	0xbdb73f8f	-0.0894767
27	0x3dfae909	0.12251479
28	0xbe0180da	-0.12646809
29	0xbe2087ad	-0.15676756
30	0xbee5a3a2	-0.44851404
31	0xbe00c004	-0.12573248
32	0xbe4f1257	-0.2022184
33	0x3e27f9d5	0.16403897
34	0xbd962948	-0.073320925
35	0x3d17fcc5	0.037106294
36	0x3d8dc641	0.069225796
37	0x3cc81f18	0.02442889
38	0x3d0f9d3a	0.035062052
39	0x3e169659	0.1470579
40	0x3f2a1e8e	0.6645287
41	0xbe02c572	-0.12770632
42	0x3e33a23b	0.17542355
43	0xbe224f38	-0.15850532
44	0xbf2c5346	-0.67314565
45	0xbddc7bc9	-0.10765798
46	0x3dddb133	0.10824814
47	0xbe21053b	-0.15724652
48	0xbe8b93bc	-0.2726115
49	0x3df10507	0.11768537
50	0x3f0f8f2e	0.5607785
51	0x3d7e6169	0.062104616
52	0x3dea4ef6	0.11440842
53	0xbe82298e	-0.2542233
54	0x3e598b37	0.21244512
55	0xbd358197	-0.04431304
56	0xbdf7bfb8	-0.12097114
57	0xbe148223	-0.14502768
58	0x3ed50ef7	0.4161298
59	0xbde29ebd	-0.11065433
60	0xbf0ab17e	-0.5417708
61	0xbe81a180	-0.25318527
62	0x3ef8a8b4	0.4856621
63	0xbd0309aa	-0.03199164
64	0x3e0a246c	0.13490456
65	0xbd85bf18	-0.06530589
66	0x3e2166ba	0.15761843
67	0x3e853c8b	0.26022753
68	0xbe308750	-0.17239118
69	0xba7a8bc5	-0.00095575704
70	0xbe4ccf27	-0.20000897
71	0x3e39f777	0.18160807
72	0xbe2bec0d	-0.16789265
73	0xbe02e598	-0.12782896
74	0x3bd0e300	0.0063747168
75	0xbd650748	-0.055915147
76	0xbdeed3ae	-0.116614684
77	0x3eba30cc	0.36365354
78	0xbec02961	-0.3753157
79	0x3cc8a5ca	0.024493117
80	0x3ee2c1f4	0.442886
81	0xbe10c9d4	-0.14139491
82	0xbe6b100a	-0.22955337
83	0xbee9a757	-0.45635483
84	0xbef38ce6	-0.47568434
85	0x3e1651b3	0.14679603
86	0x3dc0c50d	0.094125845
87	0xbeff998b	-0.4992183
88	0x3f35b6ee	0.70982254
89	0x3e361aa0	0.17783594
90	0x3ec88ff7	0.39172336
91	0x3e456704	0.19277579
92	0x3bd110c5	0.006380173
93	0xbe054be2	-0.13017228
94	0x3e9e53a8	0.309232
95	0x3e54b7df	0.20773266
96	0xbe1b6e53	-0.15178804
97	0xbee92ea9	-0.4554341
98	0xbca77631	-0.0204421
99	0xbe521e46	-0.20519361
100	0x3e5c4de0	0.21514082
101	0xbd7a4026	-0.061096333
102	0x3e515242	0.20441535
103	0xbe4fefb5	-0.20306285
104	0xbed83ad1	-0.42232373
105	0xbdb7feb6	-0.08984129
106	0xbc98ac41	-0.018636825
107	0xbe9e4dde	-0.30918783
108	0x3dc7cbd0	0.09755671
109	0xbda7e55e	-0.08198045
110	0x3e082e6a	0.13298956
111	0x3d5c8fa9	0.053847943
112	0xbe21ce80	-0.1580143
113	0xbe87ae6a	-0.26500255
114	0xbd8bdb5f	-0.06828951
115	0xbdef9320	-0.11697984
116	0x3cc170c5	0.023613343
117	0xbe35368c	-0.17696589
118	0x3ea194f5	0.31558958
119	0x3e38217f	0.17981528
120	0xbf4f9a17	-0.810945
121	0xbdfa5795	-0.12223736
122	0x3d97ce3b	0.07412382
123	0xbd7dc772	-0.061957784
124	0xbd6bdbea	-0.057582773
125	0xbea0945b	-0.31363186
126	0xbe80bc1d	-0.2514352
127	0x3ed3b27e	0.41347116
128	0xbedf805f	-0.43652627
129	0xbdcfe9d1	-0.10152019
130	0xbf61f66e	-0.88266647
131	0x3d68494f	0.056710538
132	0x3e55c7a8	0.20876944
133	0xbe2f08be	-0.17093179
134	0x3e129696	0.14315256
135	0x3e919096	0.28430623
136	0x3ea5afbb	0.32360634
137	0x3ec9d0fa	0.3941725
138	0xbdb874f0	-0.09006679
139	0x3e3718f8	0.17880619
140	0x3e4c01d1	0.19922568
141	0xbdce8074	-0.10083094
142	0x3eb35c2c	0.3503126
143	0x3da9f85d	0.08299325
144	0xbdb51f86	-0.08843903
145	0xbd277622	-0.040884145
146	0xbe139aee	-0.1441457
147	0x3e72166b	0.23641364
148	0x3cabe9c1	0.020985486
149	0xbe4f6916	-0.20254931
150	0x3ebc9db9	0.36839083
151	0x3d32d450	0.04365951
152	0xbdc9fe8f	-0.09863006
153	0x3e4c3258	0.1994108
154	0xbe914ae7	-0.28377458
155	0x3ced2400	0.02894783
156	0x3e43c177	0.1911677
157	0x3eb131a5	0.34608188
158	0xbebf934e	-0.37417072
159	0x3e6e5070	0.23272872
160	0x3d186533	0.037205886
161	0xbe5acb86	-0.213667
162	0xbe5e17da	-0.21688786
163	0x3e17fab4	0.1484173
164	0x3ec813c5	0.39077583
165	0x3d7afb18	0.061274618
166	0xbddb8c09	-0.10720069
167	0xbee8ec12	-0.45492607
168	0xbeb8309b	-0.35974583
169	0xbd87721f	-0.06613564
170	0x3f207d71	0.6269141
171	0xbe128b65	-0.14310987
172	0xbdc4bd21	-0.09606386
173	0x3f052660	0.5201168
174	0xbd12a322	-0.035800107
175	0x3ed5c9de	0.41755575
176	0x3e474714	0.19460708
177	0xbf6f4ca7	-0.9347634
178	0xbe90218a	-0.28150588
179	0x3c83d479	0.016092526
180	0xbe9d4929	-0.3071988
181	0xbf01df02	-0.5073091
182	0xbce82c2f	-0.02834138
183	0x3e140d1b	0.14458124
184	0x3d1d9441	0.038471464
185	0x3b445bf0	0.0029962026
186	0xbb8d1601	-0.0043056016
187	0x3eb3c102	0.3510819
188	0xbdd6a10e	-0.104799375
189	0xbdcfbb0c	-0.10143098
190	0xbda3d315	-0.07999245
191	0xbf24d0a6	-0.6438087
192	0xbe1b3311	-0.15156199
193	0xbce91871	-0.028454037
194	0x3d89b743	0.067244075
195	0x3e9364d3	0.2878786
196	0xbea1e0ee	-0.3161692
197	0x3ebec50e	0.37259716
198	0x3d6fc0c9	0.058533464
199	0x3e65373c	0.22384351
200	0x3ef75530	0.4830718
201	0x3dabddb9	0.083918996
202	0x3c26aad7	0.010172567
203	0xbe7bdf00	-0.24596786
204	0x3e92fc06	0.28707904
205	0x3c32e699	0.010919237
206	0x3e2538ee	0.16134998
207	0x3e7ddee6	0.2479206
208	0xbda22ab7	-0.079183035
209	0x3d9c90ef	0.076448314
210	0x3f495617	0.7864699
211	0xbe2cf3fc	-0.16889948
212	0x3eb5e911	0.35529378
213	0x3d01d9f4	0.031701997
214	0xbe9a0b08	-0.3008654
215	0xbea2a917	-0.3176963
216	0xbdfa3be9	-0.12218458
217	0x3c1f38e6	0.0097181555
218	0xbe490fad	-0.19634886
219	0x3ca13c98	0.019682214
220	0xbee2284e	-0.44171375
221	0x3a662140	0.00087787583
222	0x3e0c1464	0.13679653
223	0x3e4ac061	0.19799949
224	0xbe0eecc0	-0.139575
225	0xbe52fddf	-0.20604657
226	0xbd175554	-0.03694661
227	0x3f0a0ebc	0.5392873
228	0xbedf2a5a	-0.43587
229	0xbe826dda	-0.25474435
230	0xbf3387fa	-0.7012936
231	0xbdab85be	-0.08375119
232	0x3e51b284	0.20478255
233	0x3d79c597	0.060979452
234	0xbe65dafe	-0.2244682
235	0x3e9920f9	0.2990797
236	0x3d80c5a4	0.06287697
237	0x3ea574a9	0.32315567
238	0xbe8673b9	-0.26260164
239	0x3e8d4e10	0.2759862
240	0xbc3f8094	-0.01168837
241	0xbeebbf47	-0.4604437
242	0xbd127e84	-0.035765186
243	0xbdb86a2b	-0.09004625
244	0x3e82400c	0.2543949
245	0xbe7544f8	-0.2395209
246	0x3d4911d7	0.04908928
247	0x3dabd1fe	0.08389662
248	0xbecdaa85	-0.4016916
249	0x3cce73d3	0.025201714
250	0x3bf73a89	0.0075448197
251	0xbf086d44	-0.53291726
252	0xbed7bb7c	-0.42135227
253	0xbdd32c3c	-0.103111714
254	0xbd4c65c8	-0.049901754
255	0x3c0f0932	0.00873022

network_body._body_endoder.seq_layers.2.bias f4 [128]
0	0x3cd82663	0.026385492
1	0x3b0ef512	0.0021813554
2	0xbd1e212e	-0.03860586
3	0xbcb0123c	-0.02149307
4	0xbe05dd9b	-0.13072817
5	0xbe2e7e3a	-0.17040339
6	0x3c07db1a	0.008291984
7	0xbcd7ab46	-0.026326787
8	0xbd0202d6	-0.031740986
9	0xbc8af514	-0.016962565
10	0xbc93f790	-0.018062383
11	0xbbbb4bde	-0.005715831
12	0x3c36cca9	0.011157193
13	0xbc6e17dd	-0.014532057
14	0xbd37a5d4	-0.04483588
15	0xbbac6a3a	-0.0052616866
16	0xbd0237c7	-0.031791475
17	0xbc6f9257	-0.0146222925
18	0xbe5b306a	-0.21405187
19	0x3c5dcde7	0.0135378605
20	0x3b6d3875	0.003619698
21	0xbb878125	-0.0041352683
22	0xbb8a2e38	-0.0042169355
23	0xbc1a7fe5	-0.0094299065
24	0xbba4e3d8	-0.005032044
25	0xbce77be8	-0.028257325
26	0xbe82e531	-0.25565484
27	0xbc97902a	-0.01850136
28	0x3ce77fd0	0.028259188
29	0xbcdfa860	-0.027301967
30	0xbb4069a9	-0.0029359853
31	0x3c352d90	0.011058226
32	0xbd10727a	-0.035265423
33	0xbcec6447	-0.02885641
34	0xbcd3ca6c	-0.025853358
35	0xba637a37	-0.0008677574
36	0xbb6d65d5	-0.0036224027
37	0xb9fcc494	-0.00048211648
38	0x3cace27c	0.02110409
39	0xbdc6b94d	-0.09703312
40	0x3c400a9e	0.011721281
41	0xbd1da0a6	-0.038483284
42	0xbcbe086d	-0.023197377
43	0xbd183a8e	-0.037165217
44	0xbe454633	-0.1926506
45	0xbc7f3ea4	-0.0155788995
46	0xbe5a8f8b	-0.2134382
47	0x3bae3e30	0.005317472
48	0xbeb9833d	-0.3623294
49	0x3c5dfca7	0.013549007
50	0xbdaaa42c	-0.083320946
51	0xbe173151	-0.14764906
52	0xbc3445d9	-0.011002981
53	0xbd77707a	-0.06041
54	0x3bd9810b	0.0066376976
55	0xbd170580	-0.03687048
56	0xbc4762c7	-0.012169546
57	0xbd07067e	-0.032965176
58	0xbe0f29c4	-0.13980776
59	0xbd207a13	-0.03917892
60	0xbb5eedd0	-0.003401626
61	0x3cafa559	0.021441149
62	0xbdd948c7	-0.10609584
63	0x3c6c7ef3	0.014434564
64	0x3c13a17c	0.009010669
65	0x3a90bbfc	0.0011042352
66	0xbcbecf11	-0.023292096
67	0xbd3ad40e	-0.045612387
68	0xbc978868	-0.01849766
69	0xbe88f6bd	-0.26750746
70	0x3d8ac22d	0.06775317
71	0x3c0070d9	0.007839405
72	0xbd0b7a71	-0.034052316
73	0xbcec85e0	-0.02887243
74	0x3c68f9f5	0.014219751
75	0xbcb5d867	-0.022197915
76	0xbd37bcd4	-0.044857815
77	0xbd1e4fe7	-0.03865042
78	0xbce201f2	-0.027588818
79	0xbd027542	-0.031850107
80	0xbd59ea79	-0.053202126
81	0xbc06b517	-0.008221886
82	0xbc956152	-0.018234883
83	0xbcf8f668	-0.030390933
84	0xbd2a967d	-0.041647423
85	0xbc865494	-0.016397752
86	0xbb4ba52b	-0.003107379
87	0x3c23b76a	0.00999246
88	0xbd6251b1	-0.05525369
89	0xbccfa9f4	-0.025349595
90	0xbcdc4960	-0.026890457
91	0xbcc8181b	-0.024425557
92	0xbcdb68b9	-0.026783334
93	0x3c7858ad	0.015157861
94	0xbd63c7d3	-0.05561049
95	0xbc268e76	-0.010165801
96	0xbb264c1f	-0.0025374962
97	0xbc132a85	-0.008982305
98	0x3cfa87de	0.030582365
99	0xbbee93ad	-0.007280788
100	0xbc9ed099	-0.019386576
101	0xbc4e0d6a	-0.01257644
102	0xbc14a962	-0.009073587
103	0x3cb8eed5	0.022574821
104	0xbd053beb	-0.032527845
105	0xbce8659d	-0.028368765
106	0xbd4ac8bf	-0.049507853
107	0xbbc32f20	-0.0059565455
108	0xbd4f1dfa	-0.050565697
109	0xbd1a22a7	-0.037630703
110	0x3b3c7de3	0.0028761558
111	0xbdade813	-0.0849153
112	0xbe8dac51	-0.2767053
113	0xbc431dfa	-0.011909002
114	0x3b627f2b	0.0034560661
115	0xbe53eb0d	-0.20695134
116	0xbd0c0b02	-0.034190185
117	0xbccd3cd5	-0.025053421
118	0xbc9900bc	-0.018677108
119	0x3c4c69f9	0.012476438
120	0xbda1bc84	-0.078972846
121	0xbc8c43dc	-0.017122202
122	0xbca1d973	-0.019757008
123	0xbd37a1e5	-0.04483213
124	0xbca1b0b1	-0.019737573
125	0xbe458f45	-0.19292934
126	0xbcd2d867	-0.025737954
127	0xbe02a431	-0.12757947

network_body._body_endoder.seq_layers.2.weight f4 [128, 128]
0	0x3bb3de9b	0.005489183
1	0xbc9731bc	-0.018456332
2	0xbaa3b8e6	-0.0012491017
3	0xbb58a745	-0.0033058685
4	0x3c060f9b	0.008182432
5	0xbbe90291	-0.0071109016
6	0x3b1077b8	0.0022044014
7	0x3cac269a	0.0210145
8	0xbbb0b2bd	-0.005392401
9	0x3d3f35bc	0.046682104
10	0xbb1c098b	-0.00238094
11	0x3b47e6b0	0.003050249
12	0xbbc2d25f	-0.0059454883
13	0xbc1debdf	-0.009638756
14	0x3b7e6d82	0.0038822596
15	0x39eea024	0.00045514212
16	0xbe848364	-0.25881493
17	0x3b1c50a8	0.0023851786
18	0xbc106b1b	-0.008814598
19	0x3b31d65a	0.002713582
20	0x3d1a3e7e	0.037657253
21	0x3c21d59b	0.009877588
22	0xbbefd520	-0.0073191077
23	0x3c45d700	0.012075186
24	0x3d94dbee	0.07268511
25	0xbd05bf59	-0.032653186
26	0xbc26fb19	-0.010191702
27	0xbd0842e2	-0.03326691
28	0xbc8bf55e	-0.017084774
29	0x3caf0e8b	0.02136924
30	0x3b67f5b3	0.003539425
31	0xbc05dfd0	-0.008171037
32	0xbbb950ea	-0.0056553977
33	0xbca481fe	-0.020081516
34	0xbc49b69a	-0.012311602
35	0x3d94bd70	0.07262695
36	0xbc04e038	-0.008110099
37	0xbd3d1a57	-0.046167698
38	0x3a7717f9	0.00094258745
39	0x3d89e57b	0.06733223
40	0x3e5367ea	0.20645109
41	0x3a0afe27	0.0005302154
42	0xbceb3552	-0.028711949
43	0x3b8b24ae	0.004246316
44	0xbcb9bc59	-0.022672819
45	0x3c46dfbe	0.012138305
46	0xbbc8f63c	-0.006132869
47	0xbb637002	-0.0034704213
48	0x3cd161e3	0.025559371
49	0xbba1b424	-0.0049348045
50	0x3d18fddf	0.037351485
51	0xbc81f0fc	-0.01586198
52	0x3b21ea48	0.0024706293
53	0x3e211837	0.15731893
54	0x3ddc8b77	0.10768788
55	0x3bfbc049	0.0076828343
56	0xbc0a1cb2	-0.008429693
57	0x3cad4e0c	0.02115538
58	0x3d49c3a5	0.049258847
59	0x3c4cd412	0.012501733
60	0x3bc42052	0.005985298
61	0xbdcca25f	-0.09991907
62	0x3deb8605	0.115001716
63	0xbbe15da1	-0.0068776165
64	0xbca50a58	-0.020146534
65	0xbb8d4b79	-0.0043119756
66	0xbba30675	-0.004975135
67	0xbc80c10b	-0.01571705
68	0x3da8109f	0.08206295
69	0x3bada313	0.005298981
70	0xbc30e0f9	-0.010795825
71	0xbc660b7c	-0.014040824
72	0x3e0fc24b	0.1403896
73	0xbbe6d02f	-0.0070438604
74	0xba39b752	-0.0007084507
75	0xbbade3fe	-0.00530672
76	0xbbdadc05	-0.0066790604
77	0xbbb284c2	-0.005447955
78	0xbbda8db5	-0.006669725
79	0x3d280963	0.041024577
80	0xbb8d3882	-0.004309715
81	0xbc7a4996	-0.015276333
82	0x3c77900f	0.01511003
83	0x3b914951	0.004433789
84	0xbc1ecf34	-0.009692956
85	0xbdb18ba2	-0.08669211
86	0xbc691135	-0.014225294
87	0xbc280485	-0.010254984
88	0xbca80c63	-0.020513719
89	0x3c8adfc5	0.016952405
90	0x3c130308	0.008972891
91	0xbd39f5d3	-0.045400452
92	0xbc28eaf0	-0.01030992
93	0xbc4507f9	-0.012025827
94	0x3c7afb05	0.015318637
95	0xbda042af	-0.07825219
96	0x3c4de1c8	0.0125660375
97	0xbc339812	-0.010961549
98	0xb787e7b8	-1.6201157e-05
99	0xbb913f14	-0.0044325683
100	0xba17549f	-0.00057728024
101	0xbd9c4688	-0.0763064
102	0xbbb0a254	-0.005390445
103	0xbbb36e1f	-0.005475774
104	0xbd24af45	-0.040206213
105	0x3ac75b40	0.001520969
106	0x3a48ec21	0.00076645805
107	0x3ba062ea	0.004894604
108	0x3c7c91f3	0.015415656
109	0xbc104864	-0.008806322
110	0xbe18552f	-0.14876245
111	0xbc09e7fc	-0.008417126
112	0x3a2989b2	0.00064673566
113	0x3c0e57bc	0.00868791
114	0x3befa5a7	0.0073134485
115	0xbd8aa4f7	-0.06769746
116	0xbd5449b8	-0.051828116
117	0xbc1eceda	-0.009692872
118	0x3d12d2fd	0.035845745
119	0xbd7a5578	-0.061116666
120	0x3c078b01	0.008272887
121	0x3e2921b8	0.16516769
122	0xbbd51ef8	-0.006503936
123	0xbb174da6	-0.0023087054
124	0x3c4ddfa7	0.01256553
125	0xbdb06a2a	-0.08613999
126	0xbbf7d853	-0.0075636297
127	0x3d4faf3f	0.050704237
128	0xba3f4964	-0.0007297008
129	0xbb4cf34e	-0.003127295
130	0x3b92ef64	0.004484104
131	0xbc4458a7	-0.011984027
132	0x3ada62c9	0.001666152
133	0x3ba79631	0.0051143398
134	0x3c5f4ed2	0.013629632
135	0xbba593c8	-0.0050530173
136	0x3cfe72cc	0.031060599
137	0xbd856400	-0.06513214
138	0x3974455a	0.00023295489
139	0xbb97185d	-0.0046110586
140	0x3d23a18c	0.039948985
141	0x3c05098f	0.008119955
142	0xbb97fb6f	-0.0046381275
143	0x3c3ef879	0.01165592
144	0xbcc02859	-0.02345674
145	0xbc9465f0	-0.018115014
146	0x3b42323b	0.002963199
147	0xbc1342ca	-0.008988092
148	0xbc053f9b	-0.0081328405
149	0xbaf0485e	-0.0018332114
150	0xbe19128f	-0.14948486
151	0xba05deb7	-0.00051067345
152	0xbcee9c7a	-0.029127348
153	0xbd08d435	-0.0334055
154	0xb9dc6625	-0.00042037774
155	0x3e24dddc	0.16100258
156	0xbb95b339	-0.004568484
157	0xbc1ac300	-0.009445906
158	0x3ba74fc7	0.0051059457
159	0xbd30a7b2	-0.043128677
160	0xbb84ad94	-0.0040490124
161	0xbcede83f	-0.029041408
162	0x3bbb72c4	0.0057204682
163	0xbb41e5e7	-0.0029586495
164	0x3b237932	0.0024944064
165	0x3cc5553d	0.024088496
166	0xbc5f7f63	-0.013641211
167	0x3cd725f0	0.026263207
168	0x3d97cabf	0.074117176
169	0x3b05efc1	0.0020437094
170	0xbd419cad	-0.04726856
171	0x3b05c02a	0.0020408728
172	0x3b24b025	0.0025129404
173	0x3c3693f4	0.011143673
174	0x3c6da089	0.014503607
175	0x3cdd7a81	0.027035953
176	0xbd3c1074	-0.04591413
177	0x3bcbe348	0.0062221624
178	0xbb39ecd5	-0.0028369923
179	0x3c867dfc	0.016417496
180	0xbbdc6282	-0.0067256102
181	0xbdcfabb3	-0.10140171
182	0xbce34b3b	-0.027745834
183	0x3ab764bb	0.0013991812
184	0xbb878811	-0.0041360934
185	0x3c9dbe99	0.019255923
186	0xbbf0ad82	-0.0073449025
187	0xbc096c9b	-0.00838771
188	0x3cc67f52	0.024230633
189	0x3d0de5dd	0.034643043
190	0xbd2ee4cf	-0.042698678
191	0xbb71acad	-0.0036876604
192	0x3c80b7a2	0.015712563
193	0x3ba4515f	0.005014583
194	0xbbdbb3ee	-0.006704799
195	0x3d75d863	0.060020816
196	0xbd3de57d	-0.046361435
197	0x3bb32d5a	0.005468053
198	0x3bc35fce	0.0059623485
199	0x3c44fb73	0.012022841
200	0x3dffdb9d	0.1249306
201	0x3c6a4b40	0.014300168
202	0x3bdf0d65	0.0068070167
203	0xbc2558ff	-0.010092019
204	0x3ccd3d8c	0.025053762
205	0xbb58af14	-0.003306334
206	0xbd7d7cbe	-0.06188654
207	0x3db35704	0.08756831
208	0x3cae57a9	0.021282034
209	0x3c30a788	0.01078213
210	0xbbbcf0e2	-0.00576602
211	0xbb6318ef	-0.0034652313
212	0x3afd31d2	0.0019317216
213	0x3df04488	0.11731821
214	0xbbdec7f1	-0.006798737
215	0x3bb1157a	0.0054041715
216	0x3e041086	0.12896928
217	0x3c9b866c	0.018984996
218	0x3b0f45ab	0.0021861594
219	0x3e0da7d4	0.13833553
220	0xbcca8cfd	-0.024725432
221	0x3c18cd73	0.009326327
222	0xbc8dc2a4	-0.017304726
223	0xbca02cdd	-0.019552642
224	0xbd68d440	-0.056843042
225	0xbb0aa943	-0.0021158017
226	0xbbcc5e0b	-0.0062367967
227	0x3a5a13d1	0.0008318993
228	0xbc5cf8d2	-0.013487058
229	0xbd2ec879	-0.042671654
230	0x3c2082be	0.009796796
231	0xbc65581b	-0.013998057
232	0xbd6bf0c3	-0.057602655
233	0xbc165c8f	-0.009177341
234	0xbb6de901	-0.0036302211
235	0xbabeb009	-0.0014548312
236	0x3ba4f3d3	0.005033949
237	0xb991e7be	-0.00027829217
238	0xbe27298f	-0.16324447
239	0x3b869912	0.004107603
240	0x37f3b23b	2.9050852e-05
241	0xbe38890c	-0.18021029
242	0x3b06f7cc	0.0020594476
243	0x3d102051	0.03518707
244	0x3d1f4273	0.03888173
245	0x3bf27982	0.0073997388
246	0xbc1ed300	-0.009693861
247	0x3d9ff333	0.078100584
248	0xbbc6feaf	-0.006072841
249	0xbd84d1b8	-0.06485313
250	0x3ac1cce1	0.001478579
251	0x3b6ec8c8	0.0036435593
252	0xbb80a506	-0.0039259223
253	0xbe15d581	-0.14632227
254	0xb999c0cf	-0.00029326088
255	0x3cbbf3ad	0.022943342
