AIRocketLanding/results/3AIRocket1/AIRocket/AIRocket-67499941.pt (torch, 483743 bytes, 36 tensors)

network_body._body_endoder.seq_layers.0.weight f4 [128, 20]
0	0xbd36ba82	-0.04461146
1	0xbcf04d2d	-0.029333675
2	0x3e91f43b	0.28506646
3	0x3d19b825	0.03752913
4	0x3e1bad4a	0.15202823
5	0xbdf67e79	-0.120358415
6	0x3d91595d	0.07097123
7	0x3e9b6521	0.30350593
8	0xbc918ec3	-0.01776827
9	0x3e18a454	0.14906436
10	0x3c3c6def	0.01150082
11	0xbdafe106	-0.08587842
12	0x3e3bfd08	0.18358243
13	0x3da3897a	0.07985206
14	0x3a1949e0	0.0005847495
15	0xbe437bc9	-0.19090189
16	0xbdcc7b39	-0.0998444
17	0x3e382ed2	0.1798661
18	0xbecd6e45	-0.4012319
19	0xbe64e5b4	-0.2235325
20	0xbf544605	-0.8291934
21	0x3e95db54	0.29268897
22	0xbef1202e	-0.47094864
23	0xbb5a099d	-0.003326989
24	0xbcd04aa0	-0.025426209
25	0xbd4cbacc	-0.04998283
26	0xbdb73f8f	-0.0894767
27	0x3dfae909	0.12251479
28	0xbe0180da	-0.12646809
29	0xbe2087ad	-0.15676756
30	0xbee5a3a2	-0.44851404
31	0xbe00c004	-0.12573248
32	0xbe4f1257	-0.2022184
33	0x3e27f9d5	0.16403897
34	0xbd962948	-0.073320925
35	0x3d17fcc5	0.037106294
36	0x3d8dc641	0.069225796
37	0x3cc81f18	0.02442889
38	0x3d0f9d3a	0.035062052
39	0x3e169659	0.1470579
40	0x3f2a1e8e	0.6645287
41	0xbe02c572	-0.12770632
42	0x3e33a23b	0.17542355
43	0xbe224f38	-0.15850532
44	0xbf2c5346	-0.67314565
45	0xbddc7bc9	-0.10765798
46	0x3dddb133	0.10824814
47	0xbe21053b	-0.15724652
48	0xbe8b93bc	-0.2726115
49	0x3df10507	0.11768537
50	0x3f0f8f2e	0.5607785
51	0x3d7e6169	0.062104616
52	0x3dea4ef6	0.11440842
53	0xbe82298e	-0.2542233
54	0x3e598b37	0.21244512
55	0xbd358197	-0.04431304
56	0xbdf7bfb8	-0.12097114
57	0xbe148223	-0.14502768
58	0x3ed50ef7	0.4161298
59	0xbde29ebd	-0.11065433
60	0xbf0ab17e	-0.5417708
61	0xbe81a180	-0.25318527
62	0x3ef8a8b4	0.4856621
63	0xbd0309aa	-0.03199164
64	0x3e0a246c	0.13490456
65	0xbd85bf18	-0.06530589
66	0x3e2166ba	0.15761843
67	0x3e853c8b	0.26022753
68	0xbe308750	-0.17239118
69	0xba7a8bc5	-0.00095575704
70	0xbe4ccf27	-0.20000897
71	0x3e39f777	0.18160807
72	0xbe2bec0d	-0.16789265
73	0xbe02e598	-0.12782896
74	0x3bd0e300	0.0063747168
75	0xbd650748	-0.055915147
76	0xbdeed3ae	-0.116614684
77	0x3eba30cc	0.36365354
78	0xbec02961	-0.3753157
79	0x3cc8a5ca	0.024493117
80	0x3ee2c1f4	0.442886
81	0xbe10c9d4	-0.14139491
82	0xbe6b100a	-0.22955337
83	0xbee9a757	-0.45635483
84	0xbef38ce6	-0.47568434
85	0x3e1651b3	0.14679603
86	0x3dc0c50d	0.094125845
87	0xbeff998b	-0.4992183
88	0x3f35b6ee	0.70982254
89	0x3e361aa0	0.17783594
90	0x3ec88ff7	0.39172336
91	0x3e456704	0.19277579
92	0x3bd110c5	0.006380173
93	0xbe054be2	-0.13017228
94	0x3e9e53a8	0.309232
95	0x3e54b7df	0.20773266
96	0xbe1b6e53	-0.15178804
97	0xbee92ea9	-0.4554341
98	0xbca77631	-0.0204421
99	0xbe521e46	-0.20519361
100	0x3e5c4de0	0.21514082
101	0xbd7a4026	-0.061096333
102	0x3e515242	0.20441535
103	0xbe4fefb5	-0.20306285
104	0xbed83ad1	-0.42232373
105	0xbdb7feb6	-0.08984129
106	0xbc98ac41	-0.018636825
107	0xbe9e4dde	-0.30918783
108	0x3dc7cbd0	0.09755671
109	0xbda7e55e	-0.08198045
110	0x3e082e6a	0.13298956
111	0x3d5c8fa9	0.053847943
112	0xbe21ce80	-0.1580143
113	0xbe87ae6a	-0.26500255
114	0xbd8bdb5f	-0.06828951
115	0xbdef9320	-0.11697984
116	0x3cc170c5	0.023613343
117	0xbe35368c	-0.17696589
118	0x3ea194f5	0.31558958
119	0x3e38217f	0.17981528
120	0xbf4f9a17	-0.810945
121	0xbdfa5795	-0.12223736
122	0x3d97ce3b	0.07412382
123	0xbd7dc772	-0.061957784
124	0xbd6bdbea	-0.057582773
125	0xbea0945b	-0.31363186
126	0xbe80bc1d	-0.2514352
127	0x3ed3b27e	0.41347116
128	0xbedf805f	-0.43652627
129	0xbdcfe9d1	-0.10152019
130	0xbf61f66e	-0.88266647
131	0x3d68494f	0.056710538
132	0x3e55c7a8	0.20876944
133	0xbe2f08be	-0.17093179
134	0x3e129696	0.14315256
135	0x3e919096	0.28430623
136	0x3ea5afbb	0.32360634
137	0x3ec9d0fa	0.3941725
138	0xbdb874f0	-0.09006679
139	0x3e3718f8	0.17880619
140	0x3e4c01d1	0.19922568
141	0xbdce8074	-0.10083094
142	0x3eb35c2c	0.3503126
143	0x3da9f85d	0.08299325
144	0xbdb51f86	-0.08843903
145	0xbd277622	-0.040884145
146	0xbe139aee	-0.1441457
147	0x3e72166b	0.23641364
148	0x3cabe9c1	0.020985486
149	0xbe4f6916	-0.20254931
150	0x3ebc9db9	0.36839083
151	0x3d32d450	0.04365951
152	0xbdc9fe8f	-0.09863006
153	0x3e4c3258	0.1994108
154	0xbe914ae7	-0.28377458
155	0x3ced2400	0.02894783
156	0x3e43c177	0.1911677
157	0x3eb131a5	0.34608188
158	0xbebf934e	-0.37417072
159	0x3e6e5070	0.23272872
160	0x3d186533	0.037205886
161	0xbe5acb86	-0.213667
162	0xbe5e17da	-0.21688786
163	0x3e17fab4	0.1484173
164	0x3ec813c5	0.39077583
165	0x3d7afb18	0.061274618
166	0xbddb8c09	-0.10720069
167	0xbee8ec12	-0.45492607
168	0xbeb8309b	-0.35974583
169	0xbd87721f	-0.06613564
170	0x3f207d71	0.6269141
171	0xbe128b65	-0.14310987
172	0xbdc4bd21	-0.09606386
173	0x3f052660	0.5201168
174	0xbd12a322	-0.035800107
175	0x3ed5c9de	0.41755575
176	0x3e474714	0.19460708
177	0xbf6f4ca7	-0.9347634
178	0xbe90218a	-0.28150588
179	0x3c83d479	0.016092526
180	0xbe9d4929	-0.3071988
181	0xbf01df02	-0.5073091
182	0xbce82c2f	-0.02834138
183	0x3e140d1b	0.14458124
184	0x3d1d9441	0.038471464
185	0x3b445bf0	0.0029962026
186	0xbb8d1601	-0.0043056016
187	0x3eb3c102	0.3510819
188	0xbdd6a10e	-0.104799375
189	0xbdcfbb0c	-0.10143098
190	0xbda3d315	-0.07999245
191	0xbf24d0a6	-0.6438087
192	0xbe1b3311	-0.15156199
193	0xbce91871	-0.028454037
194	0x3d89b743	0.067244075
195	0x3e9364d3	0.2878786
196	0xbea1e0ee	-0.3161692
197	0x3ebec50e	0.37259716
198	0x3d6fc0c9	0.058533464
199	0x3e65373c	0.22384351
200	0x3ef75530	0.4830718
201	0x3dabddb9	0.083918996
202	0x3c26aad7	0.010172567
203	0xbe7bdf00	-0.24596786
204	0x3e92fc06	0.28707904
205	0x3c32e699	0.010919237
206	0x3e2538ee	0.16134998
207	0x3e7ddee6	0.2479206
208	0xbda22ab7	-0.079183035
209	0x3d9c90ef	0.076448314
210	0x3f495617	0.7864699
211	0xbe2cf3fc	-0.16889948
212	0x3eb5e911	0.35529378
213	0x3d01d9f4	0.031701997
214	0xbe9a0b08	-0.3008654
215	0xbea2a917	-0.3176963
216	0xbdfa3be9	-0.12218458
217	0x3c1f38e6	0.0097181555
218	0xbe490fad	-0.19634886
219	0x3ca13c98	0.019682214
220	0xbee2284e	-0.44171375
221	0x3a662140	0.00087787583
222	0x3e0c1464	0.13679653
223	0x3e4ac061	0.19799949
224	0xbe0eecc0	-0.139575
225	0xbe52fddf	-0.20604657
226	0xbd175554	-0.03694661
227	0x3f0a0ebc	0.5392873
228	0xbedf2a5a	-0.43587
229	0xbe826dda	-0.25474435
230	0xbf3387fa	-0.7012936
231	0xbdab85be	-0.08375119
232	0x3e51b284	0.20478255
233	0x3d79c597	0.060979452
234	0xbe65dafe	-0.2244682
235	0x3e9920f9	0.2990797
236	0x3d80c5a4	0.06287697
237	0x3ea574a9	0.32315567
238	0xbe8673b9	-0.26260164
239	0x3e8d4e10	0.2759862
240	0xbc3f8094	-0.01168837
241	0xbeebbf47	-0.4604437
242	0xbd127e84	-0.035765186
243	0xbdb86a2b	-0.09004625
244	0x3e82400c	0.2543949
245	0xbe7544f8	-0.2395209
246	0x3d4911d7	0.04908928
247	0x3dabd1fe	0.08389662
248	0xbecdaa85	-0.4016916
249	0x3cce73d3	0.025201714
250	0x3bf73a89	0.0075448197
251	0xbf086d44	-0.53291726
252	0xbed7bb7c	-0.42135227
253	0xbdd32c3c	-0.103111714
254	0xbd4c65c8	-0.049901754
255	0x3c0f0932	0.00873022

network_body._body_endoder.seq_layers.0.bias f4 [128]
0	0x3dd1b330	0.102392554
1	0xbdaad6cf	-0.08341753
2	0x3cb55940	0.022137284
3	0x3d1a0f98	0.037612528
4	0xbd023f32	-0.03179855
5	0xbd95bb2f	-0.07311093
6	0x3bc69990	0.0060607865
7	0x3ce6b7f3	0.028163886
8	0xbd29d2d7	-0.04146084
9	0xbdbb85c2	-0.09156372
10	0xbc973e63	-0.018462365
11	0x3d0e8732	0.0347969
12	0x3dde6ac2	0.10860206
13	0xbd053c59	-0.032528255
14	0xbcdd3e4d	-0.027007246
15	0xbd88f707	-0.06687742
16	0x3d8f700b	0.070037924
17	0x3d1257c3	0.035728227
18	0x3d71e919	0.05906019
19	0x3b957381	0.0045608883
20	0xbdc1af5d	-0.09457276
21	0x3d3d3fc6	0.046203397
22	0x3cd1d544	0.025614388
23	0xbd219fa6	-0.039458893
24	0xbd6a085e	-0.057136886
25	0xbe0fc910	-0.14041543
26	0x3c8fcb0e	0.017552879
27	0x3d9ade1a	0.07561894
28	0x3c3d7ae0	0.01156494
29	0xbc662197	-0.014046094
30	0xbcb34875	-0.021885136
31	0xbded5e68	-0.11590272
32	0x3d2e6572	0.042577215
33	0xbd919d2e	-0.07110058
34	0x3a94e144	0.0011358638
35	0xbdf3af00	-0.11898613
36	0x3cbd082f	0.023075191
37	0xbdc1f747	-0.094709925
38	0xbd048367	-0.032351878
39	0xbda9dc71	-0.08293999
40	0xbe687963	-0.22702555
41	0xbd2e83f1	-0.042606298
42	0xbd32e0ae	-0.043671302
43	0x3d117f73	0.035521936
44	0xbcb18a94	-0.021672525
45	0xbc64974b	-0.013952087
46	0xbe4357bd	-0.19076438
47	0x3c07c158	0.008285843
48	0x3e021488	0.12703145
49	0xbb7464c8	-0.0037291516
50	0xbc94de70	-0.018172473
51	0xbda6dc00	-0.081474304
52	0xbcad3776	-0.02114461
53	0xbddc3ca3	-0.10753753
54	0xbcf1a578	-0.029497847
55	0xbb745e42	-0.0037287627
56	0x3d6fac84	0.058514133
57	0x3c3beb9b	0.011469747
58	0x3d178f05	0.03700163
59	0xbbdc711c	-0.006727351
60	0xbc5beb53	-0.013422805
61	0x3d02b772	0.03191323
62	0xbd162c38	-0.036663264
63	0xbca0d27d	-0.019631619
64	0xbd1a813a	-0.037720896
65	0xbd48e1f4	-0.04904361
66	0xbc413bbc	-0.011794027
67	0x3d940105	0.07226757
68	0x3db9d896	0.090745136
69	0xbd4f6981	-0.050637726
70	0xbcfa4e4c	-0.030554913
71	0x3bf05803	0.0073347106
72	0x3d7aefbc	0.061263785
73	0x3d6db021	0.058029298
74	0xbcbd5b4f	-0.023114828
75	0xbba44cec	-0.0050140526
76	0xbcd4c76a	-0.025973994
77	0xbd845bf6	-0.06462853
78	0x3de29d89	0.11065204
79	0xbd05b5aa	-0.03264395
80	0xbc875d6d	-0.016524041
81	0x3c0aee51	0.008479671
82	0xbc3bc3c9	-0.011460253
83	0x3a3a9091	0.0007116879
84	0x3ba8c390	0.005150266
85	0xbd391119	-0.04518232
86	0xbd13407e	-0.035950176
87	0xbd7aedba	-0.06126187
88	0xbcd40cdb	-0.025885036
89	0xbcb0d174	-0.02158425
90	0x3d1a07d3	0.037605118
91	0xbdd6b415	-0.10483567
92	0xbcc0deeb	-0.023543796
93	0xbcfe9608	-0.0310774
94	0xbcf0993d	-0.029369945
95	0x3d3cb608	0.046072036
96	0xbd26e744	-0.040747896
97	0x3d4f861c	0.050665006
98	0xbd270194	-0.04077299
99	0x3d06e859	0.032936428
100	0xbcc71566	-0.024302196
101	0x3d797fca	0.060912885
102	0xbc8feab8	-0.017567977
103	0xbd7f93bc	-0.06239675
104	0x3a362567	0.00069483224
105	0xba8f3498	-0.0010925708
106	0xbd1ef4cd	-0.03880768
107	0x3b62f360	0.0034629926
108	0x3d533937	0.051568236
109	0xbd520846	-0.05127742
110	0xbd1b87fc	-0.03797148
111	0xbc0d7055	-0.008632739
112	0xbc1db771	-0.009626255
113	0xbd2ce5c2	-0.0422113
114	0xbd16d86d	-0.036827493
115	0x3d8d72b5	0.06906644
116	0xbd81b5d4	-0.06333509
117	0x3d8e0b53	0.06935754
118	0xbc7b5632	-0.015340375
119	0xbd8808f2	-0.06642331
120	0xbda849fe	-0.08217238
121	0xbda8b27b	-0.082371674
122	0xbc625a25	-0.013815437
123	0xbd1d59a7	-0.038415577
124	0xbd33668a	-0.04379896
125	0xbdfebdfd	-0.12438581
126	0xbd764641	-0.060125593
127	0xbdd38e5c	-0.10329887

network_body._body_endoder.seq_layers.2.weight f4 [128, 128]
0	0x3bb3de9b	0.005489183
1	0xbc9731bc	-0.018456332
2	0xbaa3b8e6	-0.0012491017
3	0xbb58a745	-0.0033058685
4	0x3c060f9b	0.008182432
5	0xbbe90291	-0.0071109016
6	0x3b1077b8	0.0022044014
7	0x3cac269a	0.0210145
8	0xbbb0b2bd	-0.005392401
9	0x3d3f35bc	0.046682104
10	0xbb1c098b	-0.00238094
11	0x3b47e6b0	0.003050249
12	0xbbc2d25f	-0.0059454883
13	0xbc1debdf	-0.009638756
14	0x3b7e6d82	0.0038822596
15	0x39eea024	0.00045514212
16	0xbe848364	-0.25881493
17	0x3b1c50a8	0.0023851786
18	0xbc106b1b	-0.008814598
19	0x3b31d65a	0.002713582
20	0x3d1a3e7e	0.037657253
21	0x3c21d59b	0.009877588
22	0xbbefd520	-0.0073191077
23	0x3c45d700	0.012075186
24	0x3d94dbee	0.07268511
25	0xbd05bf59	-0.032653186
26	0xbc26fb19	-0.010191702
27	0xbd0842e2	-0.03326691
28	0xbc8bf55e	-0.017084774
29	0x3caf0e8b	0.02136924
30	0x3b67f5b3	0.003539425
31	0xbc05dfd0	-0.008171037
32	0xbbb950ea	-0.0056553977
33	0xbca481fe	-0.020081516
34	0xbc49b69a	-0.012311602
35	0x3d94bd70	0.07262695
36	0xbc04e038	-0.008110099
37	0xbd3d1a57	-0.046167698
38	0x3a7717f9	0.00094258745
39	0x3d89e57b	0.06733223
40	0x3e5367ea	0.20645109
41	0x3a0afe27	0.0005302154
42	0xbceb3552	-0.028711949
43	0x3b8b24ae	0.004246316
44	0xbcb9bc59	-0.022672819
45	0x3c46dfbe	0.012138305
46	0xbbc8f63c	-0.006132869
47	0xbb637002	-0.0034704213
48	0x3cd161e3	0.025559371
49	0xbba1b424	-0.0049348045
50	0x3d18fddf	0.037351485
51	0xbc81f0fc	-0.01586198
52	0x3b21ea48	0.0024706293
53	0x3e211837	0.15731893
54	0x3ddc8b77	0.10768788
55	0x3bfbc049	0.0076828343
56	0xbc0a1cb2	-0.008429693
57	0x3cad4e0c	0.02115538
58	0x3d49c3a5	0.049258847
59	0x3c4cd412	0.012501733
60	0x3bc42052	0.005985298
61	0xbdcca25f	-0.09991907
62	0x3deb8605	0.115001716
63	0xbbe15da1	-0.0068776165
64	0xbca50a58	-0.020146534
65	0xbb8d4b79	-0.0043119756
66	0xbba30675	-0.004975135
67	0xbc80c10b	-0.01571705
68	0x3da8109f	0.08206295
69	0x3bada313	0.005298981
70	0xbc30e0f9	-0.010795825
71	0xbc660b7c	-0.014040824
72	0x3e0fc24b	0.1403896
73	0xbbe6d02f	-0.0070438604
74	0xba39b752	-0.0007084507
75	0xbbade3fe	-0.00530672
76	0xbbdadc05	-0.0066790604
77	0xbbb284c2	-0.005447955
78	0xbbda8db5	-0.006669725
79	0x3d280963	0.041024577
80	0xbb8d3882	-0.004309715
81	0xbc7a4996	-0.015276333
82	0x3c77900f	0.01511003
83	0x3b914951	0.004433789
84	0xbc1ecf34	-0.009692956
85	0xbdb18ba2	-0.08669211
86	0xbc691135	-0.014225294
87	0xbc280485	-0.010254984
88	0xbca80c63	-0.020513719
89	0x3c8adfc5	0.016952405
90	0x3c130308	0.008972891
91	0xbd39f5d3	-0.045400452
92	0xbc28eaf0	-0.01030992
93	0xbc4507f9	-0.012025827
94	0x3c7afb05	0.015318637
95	0xbda042af	-0.07825219
96	0x3c4de1c8	0.0125660375
97	0xbc339812	-0.010961549
98	0xb787e7b8	-1.6201157e-05
99	0xbb913f14	-0.0044325683
100	0xba17549f	-0.00057728024
101	0xbd9c4688	-0.0763064
102	0xbbb0a254	-0.005390445
103	0xbbb36e1f	-0.005475774
104	0xbd24af45	-0.040206213
105	0x3ac75b40	0.001520969
106	0x3a48ec21	0.00076645805
107	0x3ba062ea	0.004894604
108	0x3c7c91f3	0.015415656
109	0xbc104864	-0.008806322
110	0xbe18552f	-0.14876245
111	0xbc09e7fc	-0.008417126
112	0x3a2989b2	0.00064673566
113	0x3c0e57bc	0.00868791
114	0x3befa5a7	0.0073134485
115	0xbd8aa4f7	-0.06769746
116	0xbd5449b8	-0.051828116
117	0xbc1eceda	-0.009692872
118	0x3d12d2fd	0.035845745
119	0xbd7a5578	-0.061116666
120	0x3c078b01	0.008272887
121	0x3e2921b8	0.16516769
122	0xbbd51ef8	-0.006503936
123	0xbb174da6	-0.0023087054
124	0x3c4ddfa7	0.01256553
125	0xbdb06a2a	-0.08613999
126	0xbbf7d853	-0.0075636297
127	0x3d4faf3f	0.050704237
128	0xba3f4964	-0.0007297008
129	0xbb4cf34e	-0.003127295
130	0x3b92ef64	0.004484104
131	0xbc4458a7	-0.011984027
132	0x3ada62c9	0.001666152
133	0x3ba79631	0.0051143398
134	0x3c5f4ed2	0.013629632
135	0xbba593c8	-0.0050530173
136	0x3cfe72cc	0.031060599
137	0xbd856400	-0.06513214
138	0x3974455a	0.00023295489
139	0xbb97185d	-0.0046110586
140	0x3d23a18c	0.039948985
141	0x3c05098f	0.008119955
142	0xbb97fb6f	-0.0046381275
143	0x3c3ef879	0.01165592
144	0xbcc02859	-0.02345674
145	0xbc9465f0	-0.018115014
146	0x3b42323b	0.002963199
147	0xbc1342ca	-0.008988092
148	0xbc053f9b	-0.0081328405
149	0xbaf0485e	-0.0018332114
150	0xbe19128f	-0.14948486
151	0xba05deb7	-0.00051067345
152	0xbcee9c7a	-0.029127348
153	0xbd08d435	-0.0334055
154	0xb9dc6625	-0.00042037774
155	0x3e24dddc	0.16100258
156	0xbb95b339	-0.004568484
157	0xbc1ac300	-0.009445906
158	0x3ba74fc7	0.0051059457
159	0xbd30a7b2	-0.043128677
160	0xbb84ad94	-0.0040490124
161	0xbcede83f	-0.029041408
162	0x3bbb72c4	0.0057204682
163	0xbb41e5e7	-0.0029586495
164	0x3b237932	0.0024944064
165	0x3cc5553d	0.024088496
166	0xbc5f7f63	-0.013641211
167	0x3cd725f0	0.026263207
168	0x3d97cabf	0.074117176
169	0x3b05efc1	0.0020437094
170	0xbd419cad	-0.04726856
171	0x3b05c02a	0.0020408728
172	0x3b24b025	0.0025129404
173	0x3c3693f4	0.011143673
174	0x3c6da089	0.014503607
175	0x3cdd7a81	0.027035953
176	0xbd3c1074	-0.04591413
177	0x3bcbe348	0.0062221624
178	0xbb39ecd5	-0.0028369923
179	0x3c867dfc	0.016417496
180	0xbbdc6282	-0.0067256102
181	0xbdcfabb3	-0.10140171
182	0xbce34b3b	-0.027745834
183	0x3ab764bb	0.0013991812
184	0xbb878811	-0.0041360934
185	0x3c9dbe99	0.019255923
186	0xbbf0ad82	-0.0073449025
187	0xbc096c9b	-0.00838771
188	0x3cc67f52	0.024230633
189	0x3d0de5dd	0.034643043
190	0xbd2ee4cf	-0.042698678
191	0xbb71acad	-0.0036876604
192	0x3c80b7a2	0.015712563
193	0x3ba4515f	0.005014583
194	0xbbdbb3ee	-0.006704799
195	0x3d75d863	0.060020816
196	0xbd3de57d	-0.046361435
197	0x3bb32d5a	0.005468053
198	0x3bc35fce	0.0059623485
199	0x3c44fb73	0.012022841
200	0x3dffdb9d	0.1249306
201	0x3c6a4b40	0.014300168
202	0x3bdf0d65	0.0068070167
203	0xbc2558ff	-0.010092019
204	0x3ccd3d8c	0.025053762
205	0xbb58af14	-0.003306334
206	0xbd7d7cbe	-0.06188654
207	0x3db35704	0.08756831
208	0x3cae57a9	0.021282034
209	0x3c30a788	0.01078213
210	0xbbbcf0e2	-0.00576602
211	0xbb6318ef	-0.0034652313
212	0x3afd31d2	0.0019317216
213	0x3df04488	0.11731821
214	0xbbdec7f1	-0.006798737
215	0x3bb1157a	0.0054041715
216	0x3e041086	0.12896928
217	0x3c9b866c	0.018984996
218	0x3b0f45ab	0.0021861594
219	0x3e0da7d4	0.13833553
220	0xbcca8cfd	-0.024725432
221	0x3c18cd73	0.009326327
222	0xbc8dc2a4	-0.017304726
223	0xbca02cdd	-0.019552642
224	0xbd68d440	-0.056843042
225	0xbb0aa943	-0.0021158017
226	0xbbcc5e0b	-0.0062367967
227	0x3a5a13d1	0.0008318993
228	0xbc5cf8d2	-0.013487058
229	0xbd2ec879	-0.042671654
230	0x3c2082be	0.009796796
231	0xbc65581b	-0.013998057
232	0xbd6bf0c3	-0.057602655
233	0xbc165c8f	-0.009177341
234	0xbb6de901	-0.0036302211
235	0xbabeb009	-0.0014548312
236	0x3ba4f3d3	0.005033949
237	0xb991e7be	-0.00027829217
238	0xbe27298f	-0.16324447
239	0x3b869912	0.004107603
240	0x37f3b23b	2.9050852e-05
241	0xbe38890c	-0.18021029
242	0x3b06f7cc	0.0020594476
243	0x3d102051	0.03518707
244	0x3d1f4273	0.03888173
245	0x3bf27982	0.0073997388
246	0xbc1ed300	-0.009693861
247	0x3d9ff333	0.078100584
248	0xbbc6feaf	-0.006072841
249	0xbd84d1b8	-0.06485313
250	0x3ac1cce1	0.001478579
251	0x3b6ec8c8	0.0036435593
252	0xbb80a506	-0.0039259223
253	0xbe15d581	-0.14632227
254	0xb999c0cf	-0.00029326088
255	0x3cbbf3ad	0.022943342

network_body._body_endoder.seq_layers.2.bias f4 [128]
0	0x3cd82663	0.026385492
1	0x3b0ef512	0.0021813554
2	0xbd1e212e	-0.03860586
3	0xbcb0123c	-0.02149307
4	0xbe05dd9b	-0.13072817
5	0xbe2e7e3a	-0.17040339
6	0x3c07db1a	0.008291984
7	0xbcd7ab46	-0.026326787
8	0xbd0202d6	-0.031740986
9	0xbc8af514	-0.016962565
10	0xbc93f790	-0.018062383
11	0xbbbb4bde	-0.005715831
12	0x3c36cca9	0.011157193
13	0xbc6e17dd	-0.014532057
14	0xbd37a5d4	-0.04483588
15	0xbbac6a3a	-0.0052616866
16	0xbd0237c7	-0.031791475
17	0xbc6f9257	-0.0146222925
18	0xbe5b306a	-0.21405187
19	0x3c5dcde7	0.0135378605
20	0x3b6d3875	0.003619698
21	0xbb878125	-0.0041352683
22	0xbb8a2e38	-0.0042169355
23	0xbc1a7fe5	-0.0094299065
24	0xbba4e3d8	-0.005032044
25	0xbce77be8	-0.028257325
26	0xbe82e531	-0.25565484
27	0xbc97902a	-0.01850136
28	0x3ce77fd0	0.028259188
29	0xbcdfa860	-0.027301967
30	0xbb4069a9	-0.0029359853
31	0x3c352d90	0.011058226
32	0xbd10727a	-0.035265423
33	0xbcec6447	-0.02885641
34	0xbcd3ca6c	-0.025853358
35	0xba637a37	-0.0008677574
36	0xbb6d65d5	-0.0036224027
37	0xb9fcc494	-0.00048211648
38	0x3cace27c	0.02110409
39	0xbdc6b94d	-0.09703312
40	0x3c400a9e	0.011721281
41	0xbd1da0a6	-0.038483284
42	0xbcbe086d	-0.023197377
43	0xbd183a8e	-0.037165217
44	0xbe454633	-0.1926506
45	0xbc7f3ea4	-0.0155788995
46	0xbe5a8f8b	-0.2134382
47	0x3bae3e30	0.005317472
48	0xbeb9833d	-0.3623294
49	0x3c5dfca7	0.013549007
50	0xbdaaa42c	-0.083320946
51	0xbe173151	-0.14764906
52	0xbc3445d9	-0.011002981
53	0xbd77707a	-0.06041
54	0x3bd9810b	0.0066376976
55	0xbd170580	-0.03687048
56	0xbc4762c7	-0.012169546
57	0xbd07067e	-0.032965176
58	0xbe0f29c4	-0.13980776
59	0xbd207a13	-0.03917892
60	0xbb5eedd0	-0.003401626
61	0x3cafa559	0.021441149
62	0xbdd948c7	-0.10609584
63	0x3c6c7ef3	0.014434564
64	0x3c13a17c	0.009010669
65	0x3a90bbfc	0.0011042352
66	0xbcbecf11	-0.023292096
67	0xbd3ad40e	-0.045612387
68	0xbc978868	-0.01849766
69	0xbe88f6bd	-0.26750746
70	0x3d8ac22d	0.06775317
71	0x3c0070d9	0.007839405
72	0xbd0b7a71	-0.034052316
73	0xbcec85e0	-0.02887243
74	0x3c68f9f5	0.014219751
75	0xbcb5d867	-0.022197915
76	0xbd37bcd4	-0.044857815
77	0xbd1e4fe7	-0.03865042
78	0xbce201f2	-0.027588818
79	0xbd027542	-0.031850107
80	0xbd59ea79	-0.053202126
81	0xbc06b517	-0.008221886
82	0xbc956152	-0.018234883
83	0xbcf8f668	-0.030390933
84	0xbd2a967d	-0.041647423
85	0xbc865494	-0.016397752
86	0xbb4ba52b	-0.003107379
87	0x3c23b76a	0.00999246
88	0xbd6251b1	-0.05525369
89	0xbccfa9f4	-0.025349595
90	0xbcdc4960	-0.026890457
91	0xbcc8181b	-0.024425557
92	0xbcdb68b9	-0.026783334
93	0x3c7858ad	0.015157861
94	0xbd63c7d3	-0.05561049
95	0xbc268e76	-0.010165801
96	0xbb264c1f	-0.0025374962
97	0xbc132a85	-0.008982305
98	0x3cfa87de	0.030582365
99	0xbbee93ad	-0.007280788
100	0xbc9ed099	-0.019386576
101	0xbc4e0d6a	-0.01257644
102	0xbc14a962	-0.009073587
103	0x3cb8eed5	0.022574821
104	0xbd053beb	-0.032527845
105	0xbce8659d	-0.028368765
106	0xbd4ac8bf	-0.049507853
107	0xbbc32f20	-0.0059565455
108	0xbd4f1dfa	-0.050565697
109	0xbd1a22a7	-0.037630703
110	0x3b3c7de3	0.0028761558
111	0xbdade813	-0.0849153
112	0xbe8dac51	-0.2767053
113	0xbc431dfa	-0.011909002
114	0x3b627f2b	0.0034560661
115	0xbe53eb0d	-0.20695134
116	0xbd0c0b02	-0.034190185
117	0xbccd3cd5	-0.025053421
118	0xbc9900bc	-0.018677108
119	0x3c4c69f9	0.012476438
120	0xbda1bc84	-0.078972846
121	0xbc8c43dc	-0.017122202
122	0xbca1d973	-0.019757008
123	0xbd37a1e5	-0.04483213
124	0xbca1b0b1	-0.019737573
125	0xbe458f45	-0.19292934
126	0xbcd2d867	-0.025737954
127	0xbe02a431	-0.12757947

action_model._continuous_distribution.log_sigma f4 [1, 3]
0	0xc0c1d981	-6.057801
1	0xc0d4239b	-6.6293464
2	0xc0d7fb54	-6.7494297

action_model._continuous_distribution.mu.weight f4 [3, 128]
0	0x38d564ae	0.000101753845
1	0x393c01cf	0.00017929751
2	0xb90d68fb	-0.00013485916
3	0xb6b102b0	-5.275324e-06
4	0x39af0310	0.00033380883
5	0x35cf1bde	1.5430812e-06
6	0xb9d1d592	-0.0004002271
7	0x39d5ddbd	0.00040791734
8	0x38af07a6	8.346075e-05
9	0x39884443	0.000259908
10	0x37114ddf	8.660804e-06
11	0x3a41f313	0.00073985866
12	0x39d78329	0.00041105718
13	0xb99db6ec	-0.0003008166
14	0x3961e689	0.00021543553
15	0x38b55537	8.646625e-05
16	0x3946868c	0.00018932874
17	0x3a22245e	0.00061852287
18	0x3aaeacc3	0.0013326633
19	0xb93da1ed	-0.00018084767
20	0xb9023b3f	-0.00012419837
21	0xb9074f0c	-0.0001290405
22	0xb9ad1a06	-0.0003301652
23	0x3949cd12	0.00019245248
24	0xb7e91375	-2.7784825e-05
25	0x3988f6b8	0.0002612376
26	0xbd2093b4	-0.03920336
27	0xb915daf6	-0.00014291317
28	0xb8c72937	-9.496736e-05
29	0xb9ad498e	-0.00033051934
30	0xb972a114	-0.00023138925
31	0x38115bb7	3.465611e-05
32	0x39c79940	0.00038070418
33	0xb988b328	-0.00026073423
34	0x3950b28d	0.00019902941
35	0xba2cd080	-0.0006592348
36	0xb94d7268	-0.00019592943
37	0xb9331281	-0.00017077664
38	0x37a8a54d	2.0104135e-05
39	0xb9f33d07	-0.0004639404
40	0x38ffa482	0.000121899895
41	0xb9721539	-0.00023086825
42	0x3a0a3c91	0.00052733073
43	0x39c7b3e4	0.00038090267
44	0x3a1e300e	0.00060343824
45	0xb65ab3e7	-3.2589248e-06
46	0x3b29cf30	0.0025910847
47	0x3a2fa8e1	0.0006700885
48	0xbdb93415	-0.09043137
49	0x39a01516	0.00030533288
50	0xbe046759	-0.12930049
51	0xb978070b	-0.00023653747
52	0x39ba2829	0.00035506606
53	0x395d705f	0.00021118064
54	0xb890db2c	-6.907279e-05
55	0x3a24396d	0.00062646606
56	0xba246335	-0.00062708865
57	0xb6afff07	-5.2450955e-06
58	0x39854106	0.00025416183
59	0xb9bdeaba	-0.00036223774
60	0xb8834662	-6.2596766e-05
61	0xbe29a4b0	-0.1656673
62	0xb9bee64a	-0.00036411203
63	0x39e63046	0.00043904985
64	0xb8ad5f8d	-8.2670806e-05
65	0xb9a1fb7c	-0.00030895683
66	0x385606f4	5.102805e-05
67	0x390390e6	0.00012547112
68	0x37cbaf75	2.428119e-05
69	0x3e955879	0.29169062
70	0xbd9d033f	-0.07666635
71	0x38d35dc8	0.00010078732
72	0x39a8e31f	0.00032212675
73	0x3933b962	0.00017139831
74	0xba06b67e	-0.0005138888
75	0xb7a24240	-1.9342755e-05
76	0xbe2310f8	-0.15924442
77	0xb975187b	-0.0002337414
78	0xb8518768	-4.995559e-05
79	0xb9376615	-0.00017490269
80	0xb8a663eb	-7.934108e-05
81	0x39147987	0.00014159652
82	0xb9dd0667	-0.00042157175
83	0x3a01cfa9	0.0004951903
84	0xb911bdfb	-0.00013899051
85	0x379bd3bd	1.8576038e-05
86	0xb7a47358	-1.9604035e-05
87	0xb9552acf	-0.0002032921
88	0xb940ac1f	-0.00018374667
89	0x397052a8	0.00022918975
90	0x38539313	5.0443294e-05
91	0xb9cd6f88	-0.00039183744
92	0xb8e05f85	-0.00010698944
93	0xb9da306a	-0.00041616271
94	0x39e785fa	0.00044159574
95	0xb8972d86	-7.2087205e-05
96	0xb9030027	-0.0001249319
97	0xb7ce0373	-2.455872e-05
98	0xb990c8ca	-0.0002761542
99	0x39ed4d37	0.00045261692
100	0xb8cb9fb1	-9.709539e-05
101	0xb88fe3e4	-6.861219e-05
102	0x39e5894a	0.00043780572
103	0xb9c82f77	-0.00038182337
104	0xb9e9ab85	-0.00044569015
105	0x39676ecf	0.00022071156
106	0x3a486866	0.0007644951
107	0xb885e389	-6.384316e-05
108	0x37946818	1.7691447e-05
109	0x3a00961e	0.00049051817
110	0x38a91bde	8.063739e-05
111	0xb963b86e	-0.00021717112
112	0x38f3546a	0.00011602866
113	0xb99ed410	-0.00030294107
114	0xb93a1eee	-0.00017749864
115	0x3a712913	0.0009199541
116	0x39e3df40	0.00043463148
117	0x3990b371	0.00027599515
118	0x3a3d13ed	0.0007212747
119	0xb9c34cd1	-0.0003725053
120	0x39b5ba87	0.00034661984
121	0xb9fe884f	-0.00048548213
122	0xb910c726	-0.00013807099
123	0xb8a4f6ed	-7.866123e-05
124	0xb99ee502	-0.00030306733
125	0x3ae5e48e	0.0017539428
126	0x390ffd7c	0.00013731973
127	0x3a32f724	0.0006826988
128	0xb868abfb	-5.547328e-05
129	0x3807d21d	3.238219e-05
130	0x38b22942	8.495386e-05
131	0xb9e8c36c	-0.0004439609
132	0x390eb4bc	0.00013609504
133	0xb94b1b76	-0.00019369819
134	0x39a69ed1	0.00031780315
135	0xb9fda2db	-0.00048377257
136	0x39844c99	0.00025234072
137	0xb91f6bd2	-0.00015203588
138	0x38039763	3.1373824e-05
139	0xba3a9c2c	-0.00071186083
140	0xb99341cc	-0.00028087047
141	0x3874e348	5.8385805e-05
142	0xb9538099	-0.00020170434
143	0x384b5de1	4.8486403e-05
144	0xb9cf5624	-0.00039546296
145	0xba2c58e7	-0.0006574527
146	0xba772463	-0.0009427724
147	0x39ef29ad	0.00045616683
148	0x39698423	0.00022269836
149	0x386b78f3	5.614101e-05
150	0x3a0282bf	0.0004978589
151	0xb78efcce	-1.704544e-05
152	0x39897e9f	0.00026225016
153	0xb9aee612	-0.00033359282
154	0xbdf5de1d	-0.12005255
155	0x37cc58db	2.4360072e-05
156	0x391f69d9	0.00015202853
157	0x39b717b5	0.00034922143
158	0xb961ed35	-0.00021546039
159	0x39d3152c	0.0004026083
160	0x3881936d	6.1786595e-05
161	0x3a06156c	0.00051148864
162	0xb9f34055	-0.00046396503
163	0x39def990	0.00042529078
164	0xb90bd3dd	-0.00013334998
165	0x39320991	0.00016978967
166	0x39ab55cd	0.00032679588
167	0x3a03ec2a	0.00050324446
168	0x38e36ed8	0.0001084485
169	0x396c359a	0.00022526682
170	0xb9cb6248	-0.00038792402
171	0xb976aab4	-0.0002352398
172	0xb9907d9f	-0.00027559415
173	0xb7c694c2	-2.367271e-05
174	0xbb3bed63	-0.002867543
175	0xb9d6d3fa	-0.00040975196
176	0xbe285031	-0.1643684
177	0x3900fc22	0.00012300958
178	0xbd8e9e9f	-0.06963848
179	0x397469c8	0.0002330906
180	0xba0a27e6	-0.00052702276
181	0xb953d0d9	-0.0002020033
182	0x390224a9	0.00012411423
183	0xba05bde6	-0.00051018444
184	0xb7f0f4b4	-2.8724178e-05
185	0x389344a7	7.022294e-05
186	0xb9af0d3a	-0.00033388456
187	0x390dca8a	0.0001352226
188	0x3951aa2b	0.00019995186
189	0xba0fd67b	-0.0005486977
190	0x39bab6c0	0.00035612844
191	0xb98f6e5f	-0.00027357318
192	0x39b4e412	0.000345022
193	0x39c3ec4f	0.00037369362
194	0xba11bfd2	-0.00055598945
195	0xb8eb5c88	-0.000112229085
196	0x3965b0cc	0.00021905004
197	0xbd5eb94a	-0.054375924
198	0x3bc2ef22	0.005948917
199	0x38edda08	0.00011341652
200	0xb8a14d75	-7.691506e-05
201	0xb94068e2	-0.00018349619
202	0x3a133574	0.000561557
203	0x38ae67b0	8.31628e-05
204	0xbd1b986a	-0.03798715
205	0x39081cae	0.00012980655
206	0x38d9e21a	0.00010389481
207	0xb9a1ea91	-0.0003088308
208	0x37eb72c4	2.8067625e-05
209	0xb85492fc	-5.068163e-05
210	0x399081de	0.0002756258
211	0xb9f225ac	-0.00046185905
212	0xb99401be	-0.00028230058
213	0xb777467a	-1.4738756e-05
214	0x38477de9	4.756256e-05
215	0x39ca9282	0.000386376
216	0xb89eaef2	-7.566613e-05
217	0xb8020064	-3.099478e-05
218	0xb8ddbda0	-0.000105734216
219	0xb8983e88	-7.259572e-05
220	0x37993e5e	1.8268063e-05
221	0x3882cea9	6.2373765e-05
222	0xb9946377	-0.00028302867
223	0xb92b0542	-0.0001630979
224	0x39507adc	0.00019882194
225	0x391d16fc	0.00014981249
226	0xb7f04462	-2.8642073e-05
227	0xb9b791e3	-0.00035013174
228	0x38e37c94	0.00010847408
229	0x387c8885	6.0208626e-05
230	0xb958d16c	-0.00020677381
231	0x3899ce80	7.334072e-05
232	0x3a0224e9	0.00049646065
233	0xb97ef9dc	-0.00024316408
234	0xba19a284	-0.00058607035
235	0x38df3e77	0.000106451036
236	0xb9b42649	-0.000343608
237	0xb8f494ef	-0.00011662568
238	0x38fe857f	0.000121365294
239	0x39275973	0.00015959684
240	0xbdb46f00	-0.08810234
241	0x38a3b5e6	7.806327e-05
242	0x39d57dc3	0.00040720226
243	0xb9fc78cc	-0.00048155186
244	0xba1c550a	-0.00059635995
245	0xb9f7801e	-0.00047206966
246	0xba360b12	-0.00069443986
247	0x397ff3aa	0.00024409467
248	0xb9b041f5	-0.00033618478
249	0x39c4a69c	0.00037508167
250	0x3888beee	6.520549e-05
251	0x3891610b	6.9322145e-05
252	0x39a4f224	0.00031460926
253	0xbad45d45	-0.0016202113
254	0x389348ca	7.023064e-05
255	0xb915ce15	-0.00014286519

action_model._continuous_distribution.mu.bias f4 [3]
0	0xbe62cc2b	-0.22148196
1	0x3e4eb89a	0.20187607
2	0x3d3f92b8	0.04677078

exp_avg f4 [128, 20]
0	0xb460ddb4	-2.0942281e-07
1	0xb8771909	-5.8912705e-05
2	0x37e92f4a	2.7797785e-05
3	0xb284dda5	-1.5467615e-08
4	0xb4810df1	-2.4038266e-07
5	0x3398cf1a	7.115723e-08
6	0x3942a7c1	0.00018563775
7	0xb573d057	-9.082773e-07
8	0x330d674d	3.2923072e-08
9	0xb9993066	-0.00029218494
10	0xb461035f	-2.0955984e-07
11	0xb855cdaa	-5.0974697e-05
12	0x37f01178	2.8618364e-05
13	0xb280d42f	-1.4997651e-08
14	0xb47a4441	-2.3307895e-07
15	0x33942a83	6.89952e-08
16	0x393c55b4	0.00017961004
17	0xb573d7e2	-9.0838705e-07
18	0x330d83ee	3.294911e-08
19	0xb994ad0d	-0.00028357693
20	0x3397337d	7.040851e-08
21	0x3858e2f1	5.170977e-05
22	0xb82eee2d	-4.170665e-05
23	0x32a1f513	1.8854314e-08
24	0x349d4fc3	2.9301563e-07
25	0xb3ba4466	-8.6737415e-08
26	0xb963e716	-0.00021734493
27	0x351875cd	5.6795835e-07
28	0xb613d4e5	-2.2028628e-06
29	0x39bdc084	0.00036192324
30	0x33f91248	1.15982914e-07
31	0x38b8abe7	8.805823e-05
32	0xb8200e0e	-3.8160062e-05
33	0x32b550fd	2.1108002e-08
34	0x34b01d85	3.2804033e-07
35	0xb3d08832	-9.7105286e-08
36	0xb98166b1	-0.00024681308
37	0x3518698d	5.677801e-07
38	0xb613de51	-2.2034112e-06
39	0x39d33a7d	0.00040288633
40	0x33bf90d0	8.920472e-08
41	0xb8148fda	-3.5419922e-05
42	0x37078e24	8.079722e-06
43	0xb1bb05ae	-5.443062e-09
44	0xb3b5a848	-8.4590795e-08
45	0x32d71804	2.5040215e-08
46	0x387d3edf	6.0378454e-05
47	0x338d0b50	6.567882e-08
48	0x35d7ad4e	1.6069187e-06
49	0xb8de7059	-0.00010606711
50	0x33ca4542	9.418956e-08
51	0xb8181160	-3.6255806e-05
52	0x3706894e	8.018991e-06
53	0xb1bcf8e6	-5.4998166e-09
54	0xb3b78d2c	-8.5472806e-08
55	0x32d9562c	2.5301311e-08
56	0x387ff48c	6.102449e-05
57	0x338d1849	6.5702416e-08
58	0x35d7b7a4	1.6072195e-06
59	0xb8e0c6d4	-0.00010718187
60	0xb4dc7400	-4.1062594e-07
61	0xb90a466e	-0.00013186943
62	0x373c2053	1.1213199e-05
63	0xb28da69f	-1.649033e-08
64	0xb489966b	-2.5627682e-07
65	0x33a2e9a2	7.5862104e-08
66	0x3954b47d	0.00020285133
67	0xb56a2f35	-8.724049e-07
68	0xb524c768	-6.1384935e-07
69	0xb9a1aa85	-0.0003083536
70	0xb4d735d4	-4.0086036e-07
71	0xb91ce1c2	-0.0001496142
72	0x371fbc8d	9.521039e-06
73	0xb2972de9	-1.7599591e-08
74	0xb492d7be	-2.7351592e-07
75	0x33addf11	8.096516e-08
76	0x39637b0b	0.00021694244
77	0xb56a56e0	-8.729821e-07
78	0xb524d1a4	-6.139983e-07
79	0xb9ac6344	-0.00032880355
80	0x342ce984	1.6103701e-07
81	0x375ac8e5	1.3040587e-05
82	0x378594c7	1.5924115e-05
83	0xb18268c1	-3.795407e-09
84	0xb37d5620	-5.8984483e-08
85	0x3295fbd0	1.7460394e-08
86	0x381c4c8f	3.72646e-05
87	0x34deba62	4.1486334e-07
88	0x360a5525	2.0613163e-06
89	0xb8a17584	-7.698967e-05
90	0x34212d94	1.5010875e-07
91	0x368f82d8	4.2769643e-06
92	0x377cbb43	1.5063971e-05
93	0xb1950699	-4.337221e-09
94	0xb390c02e	-6.74048e-08
95	0x32ab6510	1.9952978e-08
96	0x3839fae4	4.4341097e-05
97	0x34ded8bc	4.1508417e-07
98	0x360a5c2e	2.0617258e-06
99	0xb8b61c78	-8.683739e-05
100	0x328f3c11	1.6674706e-08
101	0xb6094403	-2.045418e-06
102	0xb621fe73	-2.4138978e-06
103	0x3034290a	6.554194e-10
104	0x322efe0c	1.0185897e-08
105	0xb14f3415	-3.015207e-09
106	0xb701a49e	-7.727327e-06
107	0x34868aa8	2.506033e-07
108	0x340584e8	1.2434941e-07
109	0x3751d931	1.250794e-05
110	0x33575ec3	5.0144774e-08
111	0x37ad078e	2.0626725e-05
112	0xb43ad016	-1.7398301e-07
113	0x310ccf64	2.049057e-09
114	0x3308c55c	3.1844465e-08
115	0xb221f22f	-9.4265e-09
116	0xb7da5548	-2.6027337e-05
117	0x34867db7	2.5050915e-07
118	0x34059102	1.2439344e-07
119	0x381e7986	3.7783313e-05
120	0xb387ab09	-6.3175385e-08
121	0x37c71758	2.3733519e-05
122	0xb7d687c1	-2.5574003e-05
123	0x32378083	1.0681222e-08
124	0x34323d03	1.6599738e-07
125	0xb3530bca	-4.9137988e-08
126	0xb8fb58ea	-0.00011985174
127	0xb446a725	-1.8500994e-07
128	0xb6187ee6	-2.272363e-06
129	0x39592057	0.0002070678
130	0xb35d10c7	-5.147083e-08
131	0x38233c85	3.891859e-05
132	0xb7ca2a09	-2.409985e-05
133	0x3247b8f9	1.1625382e-08
134	0x3441fe59	1.8067057e-07
135	0xb365b378	-5.3481443e-08
136	0xb90a831b	-0.00013209546
137	0xb446b94f	-1.8507602e-07
138	0xb61885d2	-2.2727659e-06
139	0x396b2f77	0.00022429028
140	0xb33125b6	-4.1245322e-08
141	0xb7361aa0	-1.08542445e-05
142	0x371fe982	9.531506e-06
143	0xb1957d77	-4.3507344e-09
144	0xb39133b1	-6.761491e-08
145	0x32abedb4	2.0015115e-08
146	0x385765c7	5.1354782e-05
147	0xb4a1f306	-3.016541e-07
148	0x33d8337b	1.0067648e-07
149	0xb8ad84dc	-8.27403e-05
150	0xb3979266	-7.058115e-08
151	0xb80a368d	-3.295257e-05
152	0x36f6e9c7	7.3585866e-06
153	0xb1c44f36	-5.713356e-09
154	0xb3bead9f	-8.879146e-08
155	0x32e1c686	2.6283725e-08
156	0x38912194	6.920393e-05
157	0xb4a1e876	-3.0157724e-07
158	0x33d843dd	1.0070628e-07
159	0xb8e1665c	-0.00010747902
160	0x36c94abe	5.998968e-06
161	0xba154876	-0.00056946964
162	0x3a9ca699	0.0011951505
163	0xb4eee928	-4.4500598e-07
164	0xb6e80eba	-6.915853e-06
165	0x360962bd	2.0472064e-06
166	0x3ba2d36e	0.004969052
167	0x3795cfe6	1.7858994e-05
168	0x390b4d8d	0.00013284963
169	0xbc0d9169	-0.0086406255
170	0x36d9aa36	6.486919e-06
171	0xb9c6a7a1	-0.00037890396
172	0x3a9f4484	0.0012151157
173	0xb4e8dd1c	-4.3374246e-07
174	0xb6e22f14	-6.7408055e-06
175	0x3605e885	1.9953889e-06
176	0x3b9ddc53	0.0048175245
177	0x3795cdb6	1.7857976e-05
178	0x390b55a7	0.00013287981
179	0xbc0a43b6	-0.008438995
180	0xb805c77d	-3.189546e-05
181	0xbb4cb71c	-0.0031237071
182	0x3a23566e	0.00062308356
183	0xb506caa3	-5.0213765e-07
184	0xb702ecd1	-7.803742e-06
185	0x361b061d	2.3100358e-06
186	0x3bbe5525	0.00580849
187	0x37b15da0	2.1143642e-05
188	0xb79e4e7d	-1.8871617e-05
189	0xbc1d9811	-0.009618775
190	0xb804d940	-3.1673582e-05
191	0xbb52a0a5	-0.0032139209
192	0x3a214b2e	0.0006152865
193	0xb5086a07	-5.081824e-07
194	0xb704804a	-7.897683e-06
195	0x361ce3d6	2.337843e-06
196	0x3bc0cb86	0.005883637
197	0x37b1575c	2.1140724e-05
198	0xb79e3611	-1.8860244e-05
199	0xbc1f67a0	-0.009729296
200	0x335b2343	5.102198e-08
201	0x35e268fb	1.6868865e-06
202	0xb62591db	-2.4671815e-06
203	0x30967e3b	1.0949813e-09
204	0x32922d0a	1.7017118e-08
205	0xb1ad14fe	-5.037349e-09
206	0xb7531ef5	-1.2583788e-05
207	0x335dfbfa	5.1684744e-08
208	0x3313594e	3.4307327e-08
209	0x37b0b6ac	2.1065898e-05
210	0x337192da	5.6245746e-08
211	0x369ae3d1	4.616079e-06
212	0xb6123aae	-2.1789851e-06
213	0x30af6276	1.276091e-09
214	0x32aa5a80	1.983176e-08
215	0xb1c9b5b5	-5.8705276e-09
216	0xb77b37e7	-1.4973782e-05
217	0x335dde3f	5.1657704e-08
218	0x331360ee	3.431426e-08
219	0x37cc2e0e	2.4340141e-05
220	0xb4ca41f8	-3.767343e-07
221	0xb8d06154	-9.936342e-05
222	0x37901448	1.7175582e-05
223	0xb289175a	-1.5959518e-08
224	0xb48528a1	-2.4802742e-07
225	0x339dab2c	7.342018e-08
226	0x394f71c0	0.00019783434
227	0xb5bcda1f	-1.4070573e-06
228	0xb5cc7252	-1.5232456e-06
229	0xb99bef39	-0.0002974214
230	0xb4dcdfbf	-4.114099e-07
231	0xb90b816a	-0.00013304283
232	0x37691fda	1.3895298e-05
233	0xb29b0759	-1.8047716e-08
234	0xb49694e4	-2.804801e-07
235	0x33b24c6a	8.3026706e-08
236	0x396bfe0d	0.00022505988
237	0xb5bce82a	-1.407466e-06
238	0xb5cc8098	-1.523661e-06
239	0xb9afdbeb	-0.00033542453
240	0xb81a35d4	-3.6766593e-05
241	0xbba8e25c	-0.0051539373
242	0x3a4d37b2	0.00078284286
243	0xb5437836	-7.281809e-07
244	0xb73ddccd	-1.1316687e-05
245	0x3660cf3f	3.3499234e-06
246	0x3c098e60	0.008395761
247	0x37c3f3f0	2.3359404e-05
248	0x379b9d61	1.8550725e-05
249	0xbc64f02f	-0.01397328
250	0xb8190b0d	-3.6488334e-05
251	0xbba90b9c	-0.0051588546
252	0x3a4d945b	0.0007842236
253	0xb543c032	-7.292284e-07
254	0xb73e22bd	-1.1332971e-05
255	0x3661220a	3.3547426e-06

exp_avg_sq f4 [128, 20]
0	0x2d990e3a	1.7400404e-11
1	0x34ab1f66	3.1874077e-07
2	0x3488f3b1	2.5509283e-07
3	0x295378b6	4.695611e-14
4	0x2d47835f	1.1341011e-11
5	0x2b8bdc2c	9.937654e-13
6	0x36e45039	6.8042687e-06
7	0x2ea95165	7.699689e-11
8	0x2f3e5ac4	1.7312646e-10
9	0x378c40b8	1.6719438e-05
10	0x2d98ff5a	1.7393798e-11
11	0x34a9fe36	3.1663666e-07
12	0x348976e8	2.5604754e-07
13	0x295363e4	4.6938053e-14
14	0x2d476fce	1.1336666e-11
15	0x2b8bce67	9.933832e-13
16	0x36e436d7	6.8013137e-06
17	0x2ea95be7	7.7015554e-11
18	0x2f3e688a	1.7317539e-10
19	0x378c33af	1.6713368e-05
20	0x2d20adc4	9.133531e-12
21	0x34992eee	2.8532617e-07
22	0x340b0d03	1.2950117e-07
23	0x28ec3c4f	2.6227418e-14
24	0x2cdee0a6	6.3345605e-12
25	0x2b1c3d03	5.5507004e-13
26	0x367da6d8	3.7797054e-06
27	0x2e4980f9	4.581666e-11
28	0x2ed8c828	9.858098e-11
29	0x371d056f	9.359194e-06
30	0x2d212041	9.158952e-12
31	0x349d61c8	2.9314674e-07
32	0x340b5d9b	1.2979437e-07
33	0x28ed1eb3	2.63256e-14
34	0x2cdfb610	6.358254e-12
35	0x2b1cd2ac	5.57147e-13
36	0x367eb966	3.7956866e-06
37	0x2e4992cd	4.5832494e-11
38	0x2ed8da35	9.861304e-11
39	0x371d93b0	9.392315e-06
40	0x2c82bc42	3.715723e-12
41	0x33e9bfd8	1.0884804e-07
42	0x334c3412	4.754481e-08
43	0x2829e018	9.429977e-15
44	0x2c2044f4	2.2775644e-12
45	0x2a60b2f0	1.9957278e-13
46	0x35b7359e	1.3650167e-06
47	0x2d92b5df	1.6679045e-11
48	0x2e38fc39	4.2060775e-11
49	0x36616a37	3.3589438e-06
50	0x2c833352	3.7289416e-12
51	0x33f063ca	1.11940224e-07
52	0x334cc54f	4.7676902e-08
53	0x282a6e83	9.460859e-15
54	0x2c20cb37	2.2850174e-12
55	0x2a616f57	2.0022643e-13
56	0x35b7e4f6	1.3701199e-06
57	0x2d92c4ed	1.6685731e-11
58	0x2e390da5	4.207625e-11
59	0x36621c19	3.369298e-06
60	0x2d0e7730	8.09823e-12
61	0x34c369d2	3.6398575e-07
62	0x33e62a45	1.07178984e-07
63	0x28bc6324	2.0915188e-14
64	0x2cb1bbfd	5.0515135e-12
65	0x2af92f7b	4.4264231e-13
66	0x364cb511	3.0503763e-06
67	0x2e2a09fd	3.8662396e-11
68	0x2ee8db6a	1.0589114e-10
69	0x36f93abf	7.427617e-06
70	0x2d0fd4a6	8.175826e-12
71	0x34d08999	3.8843135e-07
72	0x33e71fca	1.0762558e-07
73	0x28bd9621	2.1048323e-14
74	0x2cb2dd95	5.083665e-12
75	0x2afac57d	4.4545956e-13
76	0x364e32fc	3.072607e-06
77	0x2e2a1bc3	3.8678182e-11
78	0x2ee8ee8d	1.0592514e-10
79	0x36fab847	7.4720333e-06
80	0x2d3ce129	1.0736558e-11
81	0x348ce033	2.6240158e-07
82	0x3413d157	1.3766599e-07
83	0x28f3b0d7	2.7055112e-14
84	0x2ce5e922	6.5344544e-12
85	0x2b212b2f	5.725862e-13
86	0x3684c904	3.957308e-06
87	0x2e1e9fd6	3.6067004e-11
88	0x2ee40cf5	1.0370541e-10
89	0x3720ff95	9.5962505e-06
90	0x2d3ce408	1.0737196e-11
91	0x348c5119	2.6136038e-07
92	0x3414559d	1.381472e-07
93	0x28f3b8bb	2.7058534e-14
94	0x2ce5f0aa	6.5352905e-12
95	0x2b21306f	5.7265905e-13
96	0x3684cd43	3.957802e-06
97	0x2e1eae4b	3.6079844e-11
98	0x2ee4228d	1.0374377e-10
99	0x372104d0	9.597468e-06
100	0x2c6af009	3.3386646e-12
101	0x339e81da	7.381068e-08
102	0x333235f1	4.1492914e-08
103	0x28114264	8.063513e-15
104	0x2c090b8b	1.9475279e-12
105	0x2a402383	1.7065346e-13
106	0x359f2cf2	1.1859504e-06
107	0x2d409296	1.0946485e-11
108	0x2e015c48	2.9413166e-11
109	0x363f80f9	2.853629e-06
110	0x2c6b4581	3.343409e-12
111	0x33a1cbf1	7.5342435e-08
112	0x3332bb96	4.1614463e-08
113	0x28119054	8.080413e-15
114	0x2c095518	1.9516107e-12
115	0x2a408aae	1.710114e-13
116	0x359f8c90	1.1887332e-06
117	0x2d40a13a	1.0949736e-11
118	0x2e016666	2.9422152e-11
119	0x363fe253	2.8592956e-06
120	0x2d429469	1.1060577e-11
121	0x349cbfa6	2.9196707e-07
122	0x341e912b	1.4767708e-07
123	0x290213f0	2.888309e-14
124	0x2cf571b0	6.9759407e-12
125	0x2b2c0ed8	6.1127275e-13
126	0x368d284c	4.2068186e-06
127	0x2e4303cf	4.434125e-11
128	0x2f070ac3	1.2282002e-10
129	0x372c2cb3	1.0262406e-05
130	0x2d42900c	1.1059608e-11
131	0x349c494c	2.9110595e-07
132	0x341f1d85	1.4818768e-07
133	0x29021c40	2.88903e-14
134	0x2cf5816d	6.977688e-12
135	0x2b2c19e0	6.1142584e-13
136	0x368d320e	4.2079546e-06
137	0x2e4315cf	4.4357237e-11
138	0x2f0716ff	1.2286348e-10
139	0x372c3751	1.0264878e-05
140	0x2bf3d9f4	1.7326683e-12
141	0x339155d8	6.7677036e-08
142	0x32cba2a0	2.3706264e-08
143	0x27aa2c5b	4.723257e-15
144	0x2ba08ce1	1.1407786e-12
145	0x29e117ea	9.9961557e-14
146	0x3538181c	6.8580425e-07
147	0x2d0f667f	8.151368e-12
148	0x2dbb8534	2.1318593e-11
149	0x35e188a2	1.6803572e-06
150	0x2bf41994	1.7344342e-12
151	0x3392e801	6.840856e-08
152	0x32cc7107	2.3800125e-08
153	0x27aa4e8c	4.726964e-15
154	0x2ba0ad10	1.1416718e-12
155	0x29e144fa	1.0003973e-13
156	0x353842f6	6.864278e-07
157	0x2d0f7355	8.154218e-12
158	0x2dbb9634	2.1326142e-11
159	0x35e1b2e6	1.6815873e-06
160	0x332b129c	3.9830965e-08
161	0x3a93d584	0.0011278843
162	0x3a0916dc	0.00052295416
163	0x2eebe22a	1.07267376e-10
164	0x32de8b6a	2.59076e-08
165	0x311c0143	2.2701705e-09
166	0x3c7f6bea	0.015589694
167	0x342211a8	1.5093849e-07
168	0x34b2a343	3.3273872e-07
169	0x3d1c3f32	0.038146205
170	0x332b1bf2	3.9839456e-08
171	0x3a930e85	0.0011219537
172	0x3a0993fc	0.00052481866
173	0x2eebe9e3	1.07281094e-10
174	0x32de92b5	2.5910916e-08
175	0x311c0670	2.2704647e-09
176	0x3c7f72f4	0.015591372
177	0x342220a0	1.5099295e-07
178	0x34b2b3ca	3.3285897e-07
179	0x3d1c449e	0.038151376
180	0x3333d3de	4.1869377e-08
181	0x3ac627b8	0.0015118038
182	0x3a07bc5b	0.00051779085
183	0x2ef6689a	1.1205366e-10
184	0x32e87981	2.7063608e-08
185	0x3122f75b	2.3714708e-09
186	0x3c859d5d	0.016310388
187	0x342e5d56	1.6238968e-07
188	0x34bc7b3f	3.5107402e-07
189	0x3d231dbe	0.039823286
190	0x3333df98	4.1880043e-08
191	0x3ac59927	0.001507555
192	0x3a083937	0.0005196514
193	0x2ef67e58	1.1209228e-10
194	0x32e88e0e	2.7072954e-08
195	0x312305bb	2.372288e-09
196	0x3c85a966	0.016316127
197	0x342e6e88	1.6245224e-07
198	0x34bc8e2c	3.5121172e-07
199	0x3d232c03	0.039836895
200	0x2c1d85c3	2.2385295e-12
201	0x33d0f96b	9.7311236e-08
202	0x32f43daf	2.8433389e-08
203	0x27d658f3	5.949337e-15
204	0x2bca39eb	1.4369039e-12
205	0x2a0dc304	1.2590975e-13
206	0x3568cd0f	8.6725134e-07
207	0x2d0c543e	7.976784e-12
208	0x2da6aa31	1.8947595e-11
209	0x360dcf0e	2.113116e-06
210	0x2c1d8333	2.2383872e-12
211	0x33d0552c	9.7012474e-08
212	0x32f51ecd	2.853576e-08
213	0x27d65f85	5.9500494e-15
214	0x2bca4028	1.437077e-12
215	0x2a0dc76e	1.2592507e-13
216	0x3568d334	8.6734076e-07
217	0x2d0c63d4	7.980245e-12
218	0x2da6bf6a	1.895702e-11
219	0x360dd3b3	2.1133862e-06
220	0x2da5ef9a	1.8864733e-11
221	0x34b289e2	3.3255407e-07
222	0x3487e2e9	2.5310808e-07
223	0x29543462	4.711889e-14
224	0x2d483468	1.138032e-11
225	0x2b8c5851	9.972111e-13
226	0x36e68273	6.8697204e-06
227	0x2ea3c30a	7.447028e-11
228	0x2f63f2ae	2.0731747e-10
229	0x378c638a	1.6735652e-05
230	0x2da644d4	1.8902581e-11
231	0x34b5b396	3.3844543e-07
232	0x34884c5f	2.538754e-07
233	0x2954894f	4.7192552e-14
234	0x2d48848e	1.1398117e-11
235	0x2b8c9073	9.987691e-13
236	0x36e6ea1e	6.881789e-06
237	0x2ea3cfa8	7.449269e-11
238	0x2f640483	2.0738082e-10
239	0x378c98cb	1.676045e-05
240	0x3378544c	5.7818667e-08
241	0x3acc8a0d	0.0015605107
242	0x3a42740c	0.0007417805
243	0x2f2382da	1.4871251e-10
244	0x331a43d3	3.5917605e-08
245	0x315847f9	3.1473049e-09
246	0x3cb1241d	0.021623665
247	0x3476e58f	2.2994048e-07
248	0x350de50b	5.2859895e-07
249	0x3d589518	0.052876562
250	0x33785c74	5.7826085e-08
251	0x3acbb449	0.00155414
252	0x3a4321a9	0.00074436754
253	0x2f238c09	1.4874514e-10
254	0x331a4c7c	3.592548e-08
255	0x31585422	3.147996e-09

exp_avg f4 [128]
0	0xb9affe6c	-0.0003356816
1	0x39f7c2d0	0.00047256658
2	0xb9011178	-0.00012308906
3	0xb9ce986f	-0.00039404954
4	0xb8cbbe66	-9.715259e-05
5	0x384064d7	4.587028e-05
6	0x39885805	0.0002600552
7	0xb90620c7	-0.00012791446
8	0xbc1f36d3	-0.009717661
9	0xbc3a2485	-0.011361246
10	0x37ef96bc	2.8561211e-05
11	0xb9d3c173	-0.00040389187
12	0xbc85af22	-0.016318861
13	0x39250dd6	0.0001574078
14	0xb9840f01	-0.0002518818
15	0x38636025	5.421056e-05
16	0xbb304193	-0.0026894554
17	0xb81e6328	-3.7762482e-05
18	0xb9e2cf2e	-0.0004326044
19	0xb90dc6c7	-0.00013520858
20	0x3a25426d	0.00063041487
21	0xb7e1b9fd	-2.6908698e-05
22	0x3ccd2c3b	0.025045505
23	0x387f6f87	6.0900606e-05
24	0xbca0b335	-0.019616703
25	0xbb3f6b2d	-0.002920817
26	0xb98279cf	-0.00024886287
27	0xbc0de2c9	-0.008660027
28	0xb996cbab	-0.00028761974
29	0x37a954aa	2.0185795e-05
30	0x397dd209	0.00024206204
31	0x398afdb6	0.0002651044
32	0xba2dbab3	-0.00066272466
33	0x377b2f81	1.4971826e-05
34	0xb99a56a2	-0.00029437715
35	0x3c9ab6b4	0.018885948
36	0xb9cdb942	-0.00039238675
37	0x3c6769be	0.014124332
38	0xb8442c9b	-4.6771584e-05
39	0xbc02ab49	-0.007975408
40	0xbadb39dd	-0.0016725619
41	0x39113a7a	0.00013850062
42	0xbb224274	-0.0024758847
43	0xba162da9	-0.000572885
44	0x39267aae	0.00015876695
45	0xba881568	-0.0010382356
46	0xba053f67	-0.0005082995
47	0x39e15655	0.00042979667
48	0xbc55c4dd	-0.013047424
49	0xb94dc2ad	-0.00019622846
50	0xbb15e5a8	-0.0022872481
51	0x393d78b7	0.00018069414
52	0x3875062d	5.8418304e-05
53	0x3aa44505	0.0012532776
54	0xbc386aa7	-0.011255897
55	0xb9024574	-0.0001242364
56	0xb923e221	-0.00015629131
57	0xba4962c3	-0.0007682258
58	0xb95e2d80	-0.0002118852
59	0xb99d97e1	-0.00030058532
60	0x3941bef4	0.0001847705
61	0xbd05c227	-0.03265586
62	0x3b78f0b1	0.003798526
63	0x3932548f	0.00017006903
64	0x3a2aee39	0.00065204833
65	0xb807a8a4	-3.2343567e-05
66	0x3947367d	0.00018998417
67	0x3ac3c458	0.0014935834
68	0xb9543d4d	-0.00020240732
69	0x39f18a3f	0.00046070103
70	0x397e769c	0.00024267513
71	0x38c443a9	9.358611e-05
72	0xbb8728c3	-0.004124732
73	0xb9b67b83	-0.00034805769
74	0x3935ee94	0.00017350382
75	0xb92f8714	-0.00016739621
76	0x39c61dfb	0.0003778784
77	0xb8fc8ca6	-0.00012042494
78	0x38af5079	8.3596395e-05
79	0xbc5a9ea7	-0.01334349
80	0x39472c62	0.00018994653
81	0x391f1750	0.00015172106
82	0xb901c6e5	-0.00012376493
83	0x385b7233	5.2320025e-05
84	0x38b018e2	8.396969e-05
85	0xbbb143bb	-0.0054096854
86	0x38bd4bd3	9.026346e-05
87	0x380d23b9	3.365029e-05
88	0xbb9c1f22	-0.0047644535
89	0x3947ca30	0.0001905344
90	0xb938c023	-0.00017619184
91	0xbbdb98bc	-0.006701557
92	0xba24c323	-0.0006285181
93	0x3a0b1f4f	0.00053070945
94	0x39192dc2	0.00014608263
95	0x3bf37749	0.0074299914
96	0x3a09ef16	0.0005261762
97	0xb941a5aa	-0.00018467629
98	0x368a588a	4.123028e-06
99	0xb83d66c6	-4.5156827e-05
100	0xb8fc39c1	-0.00012027054
101	0xbc11101f	-0.008853941
102	0x381a335a	3.6764286e-05
103	0x396580ed	0.0002188717
104	0xbc1138a7	-0.008863605
105	0xb9adda09	-0.0003315958
106	0xb8be0386	-9.060562e-05
107	0xb886b462	-6.423217e-05
108	0x387663c8	5.87439e-05
109	0x3992b259	0.0002798017
110	0x3adc129f	0.0016790217
111	0x3972f947	0.00023171782
112	0x393d0e60	0.000180298
113	0xbcab8b93	-0.020940578
114	0xb933b2f5	-0.00017137437
115	0xbbf52e83	-0.0074823513
116	0x3d1b3074	0.037888005
117	0xb7c79abb	-2.37947e-05
118	0xb9df4ec9	-0.00042592574
119	0xbc51676d	-0.012781006
120	0x398a374f	0.0002636262
121	0xbc983bcc	-0.0185832
122	0x38bd7df8	9.035686e-05
123	0x393a2df6	0.00017755464
124	0xb93971ac	-0.00017685321
125	0xbc0cd2a5	-0.008595143
126	0x3858eeab	5.172069e-05
127	0x389f1bf8	7.5869204e-05

exp_avg_sq f4 [128]
0	0x37c54c08	2.3519635e-05
1	0x375d4de3	1.3190761e-05
2	0x369f10cb	4.740524e-06
3	0x3730f1bd	1.0546702e-05
4	0x376377a0	1.3558107e-05
5	0x3687db1b	4.0488208e-06
6	0x3772de63	1.44761025e-05
7	0x361ef341	2.3685427e-06
8	0x3d5c2ea4	0.053755417
9	0x3d660da7	0.056165364
10	0x36481487	2.981427e-06
11	0x37c65d3d	2.3646857e-05
12	0x3d98a3df	0.07453131
13	0x3620063e	2.3845491e-06
14	0x36cb5a00	6.060349e-06
15	0x364f0017	3.0845456e-06
16	0x3bacae54	0.005269805
17	0x370dfc48	8.462994e-06
18	0x37205faa	9.559017e-06
19	0x36c6766b	5.9146455e-06
20	0x3778f40c	1.48387735e-05
21	0x37fc9cf6	3.0113832e-05
22	0x3ea368a8	0.31915784
23	0x35a3ddfb	1.2209051e-06
24	0x3e44f38a	0.19233528
25	0x3c911751	0.017711313
26	0x36e6f414	6.8829486e-06
27	0x3cd3a402	0.025835041
28	0x36c0be22	5.7441803e-06
29	0x3804b3f3	3.1638843e-05
30	0x36d05817	6.209138e-06
31	0x38532dc7	5.0348954e-05
32	0x3757bf07	1.2859476e-05
33	0x38922a59	6.9697104e-05
34	0x37c35377	2.3284678e-05
35	0x3dbc2ce4	0.0918825
36	0x371acc00	9.226613e-06
37	0x3d86769c	0.06565592
38	0x37353556	1.0800859e-05
39	0x3cb84a25	0.022496292
40	0x392179c0	0.00015399512
41	0x37662263	1.3717075e-05
42	0x3c15742b	0.009121935
43	0x379a9ded	1.843177e-05
44	0x35c79efd	1.4872927e-06
45	0x38fb7e58	0.00011992146
46	0x37b73b37	2.1842874e-05
47	0x37498958	1.2012511e-05
48	0x3d85cd19	0.0653326
49	0x35e3273e	1.6924239e-06
50	0x39cf4bf9	0.0003953872
51	0x3736c9dd	1.0895045e-05
52	0x37805462	1.5298083e-05
53	0x3a8288ea	0.0009959016
54	0x3cac3e30	0.021025747
55	0x35ae6dca	1.2995963e-06
56	0x37bf8d91	2.2834896e-05
57	0x37fa81c5	2.9862751e-05
58	0x37f86b85	2.9613971e-05
59	0x36c3e051	5.8375667e-06
60	0x37bb3e3b	2.2321115e-05
61	0x3e81e0f6	0.25366944
62	0x3d323bd4	0.043514088
63	0x370c8fd3	8.378137e-06
64	0x378722c6	1.6109447e-05
65	0x36127fb6	2.1830033e-06
66	0x37c4a2eb	2.3440885e-05
67	0x3ba072bb	0.0048964894
68	0x38b52af7	8.6387554e-05
69	0x372f2ba5	1.0440975e-05
70	0x36b4c2f8	5.3871154e-06
71	0x3792b678	1.7489525e-05
72	0x3b093ab4	0.002093953
73	0x378bc1b0	1.6660284e-05
74	0x36f09525	7.16992e-06
75	0x370cf9c5	8.402804e-06
76	0x3745a9b5	1.1781628e-05
77	0x3704197a	7.873745e-06
78	0x3717151e	9.005218e-06
79	0x3d75353d	0.059865225
80	0x374ee7fa	1.2332568e-05
81	0x378d8faa	1.6875409e-05
82	0x36060125	1.9968222e-06
83	0x35fe1a44	1.8932119e-06
84	0x36290eb2	2.5191516e-06
85	0x3bd13fec	0.006385794
86	0x363aff80	2.786488e-06
87	0x36ab94e0	5.1135285e-06
88	0x3b38e48b	0.0028212394
89	0x370d4cfe	8.422181e-06
90	0x3673c77d	3.632594e-06
91	0x3adf123e	0.0017018986
92	0x37cd7510	2.4492416e-05
93	0x377e7d4e	1.51687545e-05
94	0x38067aab	3.2062333e-05
95	0x3bf6fe34	0.0075376276
96	0x37fb4c3e	2.9957035e-05
97	0x36d6f210	6.405877e-06
98	0x37d59cfc	2.546468e-05
99	0x3784820a	1.579618e-05
100	0x384061cc	4.5867448e-05
101	0x3d3ec8c0	0.04657817
102	0x355a56bd	8.133755e-07
103	0x371dcda5	9.40581e-06
104	0x3d1fe5d2	0.039037533
105	0x3695cfbb	4.464729e-06
106	0x366af90b	3.501368e-06
107	0x36b62a69	5.42896e-06
108	0x3888ca17	6.5226275e-05
109	0x383af547	4.4574288e-05
110	0x3c027848	0.007963248
111	0x373116d3	1.0555336e-05
112	0x379697d2	1.795209e-05
113	0x3e418224	0.18897301
114	0x370ec568	8.509822e-06
115	0x3c7ecee7	0.015552259
116	0x3f5056ff	0.81382746
117	0x37afe1aa	2.0966709e-05
118	0x37d4a328	2.5348345e-05
119	0x3d9027b0	0.0703882
120	0x376a819a	1.3977662e-05
121	0x3e0f9269	0.14020695
122	0x36957def	4.4552066e-06
123	0x374c7731	1.2187099e-05
124	0x37e9eb04	2.7885202e-05
125	0x3c904d11	0.017614873
126	0x3864a8b2	5.4516546e-05
127	0x3a12cf30	0.00056003314
