AIRocketLanding/results/AIRocketFast6/AIRocket/AIRocket-7499964.onnx (onnx, 84776 bytes, 9 tensors)

action_model._continuous_distribution.log_sigma f4 [1, 2]
000000 99 f9 26 c0 d3 9f 28 c0
       -2.6089842 -2.634755

action_model._continuous_distribution.mu.bias f4 [2]
000000 e6 fc 8f be 60 6b 51 be
       -0.28122634 -0.20451117

action_model._continuous_distribution.mu.weight f4 [2, 128]
000000 21 db e7 bd 9f ca 4d 3c 30 59 ec bb db bd 06 3d
       -0.113210924 0.012560516 -0.0072127804 0.032895904
000010 2d 66 97 bc cd 17 07 3d 5e e5 bf bd 9f 51 dc bd
       -0.018481338 0.032981683 -0.0936992 -0.107577555
000020 48 b1 4b bd 7b 11 43 3d a5 20 8d bd fb 6e 7d be
       -0.049729615 0.047624093 -0.06890992 -0.24749367
000030 55 96 01 be 15 83 ec 3d 05 bc f2 ba 89 70 d2 bd
       -0.12655003 0.115484394 -0.0018519169 -0.10275371
000040 42 c5 c5 bd cd 5f 5b bd 32 d3 90 bc 15 72 22 bc
       -0.096567646 -0.05355816 -0.01767883 -0.009914895
000050 fd 74 62 bd 9b ce 79 be f7 a7 8f bd bb 9d 62 3e
       -0.05528735 -0.2439522 -0.070144586 0.22130482
000060 e4 16 58 bd df 29 52 bd 48 6b 5a bd ea 18 4b 3b
       -0.052756205 -0.051309463 -0.053324968 0.0030990192
000070 29 0c e1 bd d0 78 25 bd 1c ce 51 3d e4 1b b6 bd
       -0.109886475 -0.04039842 0.05122195 -0.088920385
000080 71 f5 44 bd 09 e6 c9 bc be ef 81 3d 33 a5 96 3d
       -0.048085634 -0.024645822 0.06344555 0.07355728
000090 dd e4 2c bd 72 ef bf bd d6 77 8f bd b6 38 3e 3d
       -0.04221045 -0.093718424 -0.07005279 0.046440803
0000a0 b2 8a e0 bc 1e 62 dc bd e0 b5 56 bc 0f 78 bd bd
       -0.027409885 -0.10760902 -0.013104886 -0.09251415
0000b0 97 48 2a 3c e1 ed 6e 3d c0 e8 8e 3d 34 16 97 bd
       0.010393283 0.058332328 0.06977987 -0.07377282
0000c0 d9 33 b2 bb 61 a2 40 bd d7 01 d3 bd 80 9a af ba
       -0.0054383096 -0.047029857 -0.10303085 -0.0013397485
0000d0 54 d0 1e 3e aa d3 47 bd 1b 90 31 3c d5 c4 58 be
       0.15509158 -0.048785843 0.01083758 -0.21168835
0000e0 f6 f5 9e bd 9c bf ac ba 51 24 2a 3c 6f 4f b4 3a
       -0.07761757 -0.0013179663 0.010384635 0.0013756583
0000f0 66 05 df 3c 16 15 56 3e 98 43 05 be 9a 09 88 3d
       0.027224254 0.20906481 -0.13014066 0.06642456
000100 42 43 92 be 14 67 0b bd d8 4f aa 3c b8 f3 20 be
       -0.2856694 -0.03403385 0.020790026 -0.15717971
000110 fe e3 30 bd e6 f3 9d bd 2c 5d 25 3d 0e a6 c7 bd
       -0.04318618 -0.077125356 0.04037206 -0.09748469
000120 56 8b 2e bd 1e bf 19 ba 63 dc 86 3c 0b c9 49 3e
       -0.04261335 -0.00058649655 0.01646251 0.19705598
000130 d2 3d 86 3b 14 bf 8f 3b 06 8c c6 ba 88 b0 d6 3d
       0.004096725 0.004386792 -0.0015147931 0.104828894
000140 42 5a db 3c 6c ac ae 3c 6e ea 9f bd b6 1f a6 bd
       0.026776437 0.021322452 -0.07808386 -0.08111517
000150 5c 96 06 3c 23 37 ce bd cb 97 d2 3d ff e9 21 3c
       0.008214559 -0.1006911 0.102828585 0.009882449
000160 6f fa 93 ba 9a fe 67 bb 09 8c 16 bc 03 c5 bc ba
       -0.0011289845 -0.0035399557 -0.00918866 -0.0014401976
000170 ed a2 8d 3d 80 ae 60 3c 3a 6b 9a 3d d5 f5 5d bd
       0.06915841 0.013713479 0.07539983 -0.05418952
000180 ff 87 b9 bd 79 85 a0 bd e0 88 cc 3d 47 54 f6 3b
       -0.09059142 -0.07837958 0.09987044 0.007517371
000190 6b b2 5e 3c c0 95 c8 bd 4c 86 42 3c 9c 13 4f bd
       0.013592343 -0.097941875 0.011872839 -0.05055581
0001a0 44 85 ae bd 92 34 10 be 15 28 a9 3b f2 c3 84 3d
       -0.08521512 -0.14082554 0.005162249 0.06482686
0001b0 da 0a ac bd ed a6 2d 3c 98 f4 39 bd 74 47 94 3d
       -0.08400507 0.01059888 -0.04539928 0.07240191
0001c0 4e 1a 47 bd bb 91 61 ba fd a7 d7 bd 03 ee d3 39
       -0.04860907 -0.00086047844 -0.10530088 0.0004042239
0001d0 c4 6d ce bd 1f 47 ab bd aa 5d 4f 3d b2 0f c6 bc
       -0.1007953 -0.08363175 0.050626434 -0.024177406
0001e0 4f 9c cd 3d 22 eb 26 3d fb ed 3d be 58 a4 ff 3c
       0.10039579 0.040751584 -0.18547814 0.031206295
0001f0 3b 74 d4 3d 90 e0 ab bd ca 32 24 3d 1e 76 02 ba
       0.10373732 -0.08392441 0.0400875 -0.0004976707
000200 4d 87 43 3c 03 58 81 3d 50 ea bf 3d 04 b3 bd bb
       0.011934114 0.06315615 0.093708634 -0.0057891626
000210 ee b8 53 3d 8f 0a 27 3d 07 e2 7b bd 56 52 6e b9
       0.051690035 0.040781554 -0.061494853 -0.00022728121
000220 56 c6 e6 bc 1f 78 05 bc e7 bb cd bb 36 d2 61 3e
       -0.028170746 -0.008146315 -0.006278503 0.22052845
000230 6c 8d 6c 3e b0 73 8c 3d 92 f4 62 bc e3 67 1d 3c
       0.23100823 0.06858003 -0.013852255 0.009607288
000240 66 37 bc ba 2d 10 84 bc 3c 3d 3f 3d b0 54 da 3d
       -0.0014359772 -0.016120994 0.046689257 0.10660684
000250 3c 63 74 bb 90 3d 2a 3e 90 f2 35 b9 85 b4 23 3e
       -0.0037290594 0.16625047 -0.00017351867 0.15986831
000260 f8 3c 9d bb 0d 9f a5 bc 0a 6b dd bc 74 cc d9 3b
       -0.004798528 -0.020217443 -0.02702858 0.006646687
000270 76 d5 da 3b 8c 51 14 bd e5 88 3a 3d 9a 31 22 3a
       0.0066782786 -0.03621058 0.04554071 0.0006187201
000280 2b 03 ff bc 3a ba 0c bd 9a 8e af 3c 15 46 a2 3d
       -0.03112944 -0.034357287 0.021430302 0.07923523
000290 ff 00 2a 3d 90 ad 5d 3b 24 e2 cf bc 5b 36 b4 3d
       0.041504856 0.0033825375 -0.025376387 0.0879943
0002a0 67 7d 53 bc fd da 51 3b 01 4f f4 3d 3b 1e 88 3b
       -0.012908316 0.0032021396 0.11929131 0.0041539944
0002b0 9a 24 c0 bc 84 3a 9b 3d ec ee 17 3d 10 d3 49 bc
       -0.023454953 0.0757952 0.037093088 -0.012318388
0002c0 17 68 f4 bc 1e 80 02 bd 95 f9 8f bb 86 90 5e 3c
       -0.02983479 -0.031860463 -0.004393766 0.013584262
0002d0 02 7f 86 3d ed f6 bb bc 52 c1 0b bd 7f 6f 92 3d
       0.065671936 -0.022944892 -0.03411991 0.071501724
0002e0 00 4b 0c 3b 9c f2 20 bd b5 ba f0 3c ce 54 bc bc
       0.0021407008 -0.03929387 0.029385904 -0.022989657
0002f0 72 22 c8 3d ca 11 02 3e c6 8a 44 3e ad 15 d8 3c
       0.09772195 0.12702098 0.19193563 0.026377523
000300 8b 22 a2 3e f7 c9 b3 3d a9 0d 7a bc eb 4f 2c 3e
       0.3166698 0.08778756 -0.015262046 0.16827361
000310 96 a5 96 3d a1 88 53 bc 6b 93 5e 3c 6c 62 2c 3d
       0.07355802 -0.012910993 0.013584952 0.04208605
000320 12 0c 08 bd 0b 7b c7 bc be e5 da bc 13 77 1b 3e
       -0.033214636 -0.024350664 -0.026720878 0.15182142
000330 1f c4 09 bd 2c 26 83 bb ea ec 42 bc 5d b0 fc 3d
       -0.0336343 -0.004002353 -0.011897305 0.12338326
000340 2e 7a 81 3b d6 30 2e 3c a0 4e 09 3a bf 88 5a 3c
       0.0039513325 0.010631761 0.00052378513 0.013338267
000350 c4 be f7 bc e4 8c 9d ba 3e 1a 3f 3d 32 a9 43 3b
       -0.030242331 -0.0012020138 0.046655886 0.0029855487
000360 09 98 b8 38 c0 bd 17 bd fc 6b 21 bd 4f 13 f2 bb
       8.8021225e-05 -0.037046194 -0.039409623 -0.0073875557
000370 65 dd 87 bc 8a 91 02 3d 9f 91 b5 bb f8 11 8a bc
       -0.016585061 0.031877078 -0.005541041 -0.016854271
000380 d5 34 fb bb 21 c5 65 3c 40 75 71 3d cf 75 fa bc
       -0.00766621 0.01402405 0.05894971 -0.030573754
000390 ac 6d a5 3b f2 21 fc 3c 34 b2 d6 bc 90 d1 80 3e
       0.0050484743 0.030777905 -0.02620802 0.25159883
0003a0 22 98 04 3e ed de 9d 3d 68 f0 58 3d dd b9 df 3c
       0.12948659 0.07708535 0.052963644 0.027310306
0003b0 5d eb 10 bc 66 73 0e 3d 81 c7 e2 bc cc 0b dc 3b
       -0.0088451775 0.03477802 -0.027683022 0.0067152735
0003c0 bd e2 06 bd f8 81 c9 b9 8d f2 bd bb e4 8e db ba
       -0.03293108 -0.00038434542 -0.0057967366 -0.0016750959
0003d0 d0 42 53 3d be ec 7e bc 60 24 fd 3c 11 28 b7 3d
       0.05157739 -0.015559373 0.030901134 0.08943189
0003e0 36 0d 68 3d 45 4f b1 3d bc 0b 22 3e 2b b1 9d 3c
       0.056653224 0.086576976 0.15824789 0.01924952
0003f0 28 85 6f 3d 82 eb ad 3b 4c 3d fb 3d 05 fb ee bc
       0.058476597 0.0053076157 0.12267551 -0.02917243

action_model._discrete_distribution.branches.0.bias f4 [2]
000000 14 64 33 be 1b 64 33 3e
       -0.17518646 0.17518656

action_model._discrete_distribution.branches.0.weight f4 [2, 128]
000000 85 6f af 3e df 79 f0 bc a8 67 f6 bd 57 ed 43 3e
       0.3426477 -0.029354988 -0.120314896 0.19133507
000010 e3 ed d4 3e b3 12 b3 be 97 85 18 be 17 21 de 3e
       0.41587743 -0.34975204 -0.1489471 0.4338462
000020 e0 b6 ca 3e 25 68 a9 3d de 44 1b 3d 9b db 15 3e
       0.39592648 0.08271817 0.037907474 0.14634554
000030 d7 19 a8 3d 2a 30 16 be 38 02 8b 3e c3 29 c9 3d
       0.082080536 -0.1466681 0.2715013 0.098224185
000040 e2 5c 12 3e 46 1c 85 3e aa e9 41 3f d2 b1 e8 bd
       0.14293244 0.25998133 0.7574717 -0.113620415
000050 2f be 29 3e dc f6 c0 3d b4 ed d2 3e af 54 26 3e
       0.16576456 0.09422085 0.41196978 0.16243242
000060 84 36 ed 3e 11 a4 b3 3e 45 bd 50 3e fc af cd 3d
       0.46330655 0.3508611 0.203847 0.10043332
000070 da c8 a5 bb 3f 22 a7 3e da 66 e0 be 53 2b 8b 3e
       -0.0050593438 0.32643315 -0.4382847 0.2718149
000080 3d a3 74 3e 3d 02 45 3e ab a7 c2 bc b3 76 a0 bd
       0.23890395 0.19239135 -0.023761591 -0.0783514
000090 0b 91 f5 3e 4b 51 74 3e 90 e1 98 3e f3 1f 04 bf
       0.47962222 0.23859136 0.2985959 -0.5161125
0000a0 41 7d d3 3e d3 5f ae 3d b4 23 25 bd 42 8c 59 3d
       0.413065 0.08514371 -0.040317252 0.053112276
0000b0 e1 6b 67 3e c8 5b 6b be 8d 1c 8c bd 32 3d 1c 3e
       0.22599746 -0.2298423 -0.06841383 0.15257719
0000c0 54 68 d8 bb cb d2 96 3e f6 a8 8b 3e 2b 38 e5 3e
       -0.0066042338 0.29457697 0.27277344 0.44769415
0000d0 1c f2 8b bd 6f 61 c0 3c 0f 6b 6f 3e 9e cd 68 3f
       -0.06833288 0.02348396 0.23380683 0.90938747
0000e0 1c dd aa 3d 7f 94 2d 3e 9a 2f 75 bd b7 49 62 3c
       0.083429545 0.16951178 -0.05985985 0.01381152
0000f0 5c 4c a3 be 47 07 8e 3d 8f eb 25 3e a9 f0 a3 3d
       -0.31894195 0.06934982 0.1620314 0.08004887
000100 1d bd 95 3e e5 8d dc bd 49 ae 88 be 53 a9 2e be
       0.29245844 -0.10769252 -0.2669547 -0.1705678
000110 ba 22 22 bd ad 2a f7 bb 59 3a d0 be aa 8b 17 3e
       -0.0395839 -0.007542929 -0.40669516 0.14799371
000120 c2 70 6b 3e 96 0b 09 3e aa 83 83 3e 08 87 21 3e
       0.22992232 0.13383326 0.2568639 0.15774167
000130 5a 0e 94 3e 32 ba 0f be 56 51 4a 3e 7b 48 a8 be
       0.289172 -0.14035872 0.1975759 -0.32867798
000140 aa 32 45 3f 42 86 b2 be 7a d0 a3 3e 17 da 4e 3d
       0.7703043 -0.34868056 0.31994992 0.050500955
000150 a8 fd 1f 3d 6f de 2b bd 11 f9 c7 3c 68 cb 25 3e
       0.039060265 -0.041960176 0.024410756 0.16190875
000160 57 cb 16 3e 0a 07 99 3e 83 9a 8a 3e f4 32 a5 3e
       0.14726005 0.29888183 0.27071008 0.32265437
000170 08 00 1d 3f d9 88 b0 be 32 28 94 be 97 ef 9f bc
       0.6132817 -0.34479406 -0.28936917 -0.019523425
000180 99 9d 84 bd 41 75 31 3e 07 c0 22 be 43 cc 87 bd
       -0.06475372 0.17329885 -0.15893565 -0.06630757
000190 a4 a9 b0 be 20 d6 80 bd 94 96 67 3e cc a4 90 bd
       -0.34504426 -0.06290841 0.22616035 -0.070626825
0001a0 7e 12 79 bc ed 44 51 3e be 1d 75 be 90 57 98 be
       -0.015202163 0.2043645 -0.23937127 -0.29754305
0001b0 4e df 57 3e 9f 85 0b bf 28 87 81 3e 79 07 dd 3e
       0.21081278 -0.54500765 0.2529843 0.43169764
0001c0 a4 54 77 3e 0d cb 98 bd db c9 b7 3e 52 6f 20 3e
       0.24153382 -0.07460604 0.3589619 0.15667465
0001d0 95 3b 1e 3e 41 6b 1c 3e b3 bd cf 3d e4 ff 3a 3d
       0.15452416 0.15275289 0.10143604 0.045654193
0001e0 46 83 d8 be 32 b6 a4 be 8f 83 8c bc 12 1b 3c be
       -0.42287654 -0.32170254 -0.017152576 -0.18369702
0001f0 98 33 71 be bd 37 dc 3d 3a 18 aa bc a0 c3 eb 3d
       -0.23554838 0.10752819 -0.020763505 0.11511922
000200 d6 d8 a7 be da db 0e 3d c3 02 f6 3d 7e de 4b be
       -0.3278262 0.034877636 0.120122455 -0.19909093
000210 7f 67 d7 be ff 41 b6 3e 34 9b 0f 3e 74 77 de be
       -0.4207115 0.35597226 0.14024049 -0.4345051
000220 8a 41 c5 be 39 15 9a bd 5c 16 45 bd 84 12 29 be
       -0.38526565 -0.07523579 -0.048117027 -0.1651097
000230 a2 39 76 bd 6e 26 fe 3d 9b e8 88 be b8 74 c2 bd
       -0.060113557 0.12409674 -0.26739964 -0.094949186
000240 18 2e 09 be 93 5e 8c be 59 38 45 bf 19 ec e1 3d
       -0.1339649 -0.27415904 -0.77039105 0.1103136
000250 c0 8c 26 be 44 c5 96 bd 88 3b d3 be ad 94 35 be
       -0.1626463 -0.07361844 -0.41256356 -0.17732497
000260 ba 87 f6 be 20 08 bf be 69 c9 48 be c1 85 d7 bd
       -0.48150426 -0.37310886 -0.19608082 -0.105235584
000270 c9 01 cb 3c d5 4f a6 be 60 f5 db 3e ae b7 8a be
       0.024781125 -0.32482782 0.42960644 -0.2709326
000280 73 b3 77 be 19 ce 47 be 9d b2 fb 3c a0 14 9b 3d
       -0.24189548 -0.19512214 0.030724818 0.07572293
000290 73 9f f3 be 37 ea 6f be 0a c2 9b be 05 38 07 3f
       -0.47582588 -0.2342919 -0.30421478 0.52819854
0002a0 cc 63 d7 be b5 41 af bd 77 68 18 3d 4a 4d 6c bd
       -0.42068326 -0.085574545 0.037209 -0.057690896
0002b0 4a 4e 58 be cc d9 64 3e 53 75 85 3d 0b 8b 2e be
       -0.21123615 0.22348708 0.065165184 -0.17045228
0002c0 dd 10 f4 3a ed e1 98 be 54 0b 97 be a7 80 e8 be
       0.0018620748 -0.29859868 -0.2950083 -0.45410654
0002d0 34 16 66 3d 2a 47 b7 bc f3 75 7f be 11 ed 64 bf
       0.05617352 -0.0223728 -0.24947338 -0.89424235
0002e0 95 04 9f bd 15 57 20 be 15 8a 4d 3d 0b 19 06 bd
       -0.07764546 -0.15658219 0.050180513 -0.032738727
0002f0 08 36 9e 3e f7 89 8c bd 79 60 07 be 13 84 8f bd
       0.30900598 -0.06862252 -0.13220395 -0.07007613
000300 f1 7a 89 be 29 95 bb 3d d4 f5 82 3e 46 aa 3a 3e
       -0.2685161 0.091593094 0.25578177 0.18229017
000310 07 a5 5b 3d 37 70 6a bb 11 dd ce 3e c4 3e 23 be
       0.05362418 -0.0035772452 0.40403035 -0.15941912
000320 79 53 5e be a0 f9 1a be 7e 97 87 be f9 43 28 be
       -0.2171153 -0.15134287 -0.26482767 -0.1643218
000330 95 dc 90 be 23 33 14 3e 6a 4a 6a be 8d 45 a3 3e
       -0.2829329 0.14472632 -0.22879949 0.31889
000340 25 f5 40 bf 55 33 a6 3e 38 db a2 be 51 6f 6b bd
       -0.7537406 0.32461038 -0.31807876 -0.057479206
000350 3c 0b e5 bc b2 9d 49 3c b4 d2 db bc ef fc 24 be
       -0.027959459 0.012305664 -0.02683387 -0.16112112
000360 88 ed 32 be 28 eb 9d be c4 1d 8c be 11 08 99 be
       -0.17473423 -0.30843472 -0.2736646 -0.29888967
000370 a4 8c 19 bf 1a 9f b5 3e d9 49 95 3e f4 48 b7 3b
       -0.59980226 0.35472947 0.29157904 0.0055934135
000380 0f 75 8b 3d 71 93 2e be d9 eb 0a 3e 70 24 59 3d
       0.068094365 -0.17048432 0.13566531 0.053013265
000390 33 bb ad 3e 02 2f 09 3d 7f e6 6c be 42 16 aa 3d
       0.33931884 0.033492096 -0.23134802 0.083050266
0003a0 13 94 4c 3c da 9b 59 be ba d5 71 3e 27 26 94 3e
       0.0124864755 -0.21250859 0.23616686 0.28935358
0003b0 3d d3 4e be 10 03 0a 3f 1c 4f 86 be e7 a5 da be
       -0.20197769 0.53910923 -0.2623223 -0.42704698
0003c0 46 a2 81 be 36 b5 98 3d db 89 bb be 5d a0 1b be
       -0.25319117 0.07456438 -0.36628613 -0.15197892
0003d0 ac 0e 27 be 22 1e 30 be 40 f8 ef bd bc ea 7c bd
       -0.1631419 -0.17198995 -0.11717272 -0.061747298
0003e0 f4 ea d2 3e d7 9f b2 3e 16 f1 61 3c d1 3c 2f 3e
       0.4119488 0.34887573 0.0137903895 0.17113043
0003f0 2b a9 64 3e 1e 8e df bd 6d 79 78 3c e2 f3 d3 bd
       0.22330157 -0.109157786 0.015165669 -0.10349251

network_body._body_endoder.seq_layers.0.bias f4 [128]
000000 de 87 df 3d f6 10 d5 bd ff 9a ac 3c 0e d3 0b 3e
       0.109145865 -0.10403626 0.021070002 0.1365473
000010 1e c2 bc bc 44 49 96 bd 13 07 f9 bd 7b b6 22 bd
       -0.023041781 -0.07338193 -0.121595524 -0.03972481
000020 42 01 d1 bd 6d 51 32 3d 44 1b 37 be 24 fc 2b 3d
       -0.10205318 0.043534685 -0.17881495 0.041988507
000030 ac 37 34 be 68 66 02 bd 15 65 01 be e6 72 cd be
       -0.17599362 -0.031835943 -0.12636216 -0.40126723
000040 c1 79 cd bc d7 23 4e 3d d3 0c 99 bd 08 21 2d be
       -0.02508247 0.05032715 -0.07473149 -0.16907132
000050 85 20 39 be 0d b3 ee be 04 94 b9 be 85 32 b3 bd
       -0.18078811 -0.4662098 -0.3624574 -0.0874987
000060 b8 52 0d 3e e6 30 47 bc 53 fc ba bd 99 55 eb 3d
       0.13801086 -0.012157654 -0.09130158 0.11490936
000070 32 74 ac bd ae 7a 5d bd 91 8e 8f 3d bd c3 f6 be
       -0.084206 -0.054072075 0.07009614 -0.4819621
000080 4b ce 71 bc f4 59 bb be 8c bf 36 be 57 37 4a be
       -0.014758657 -0.36592066 -0.17846507 -0.19747673
000090 19 44 85 be 92 35 ac bd 3d 5d ff bc 17 ca 7a 3d
       -0.26028517 -0.08408655 -0.03117239 0.061227884
0000a0 38 6d 9a be 0b 7f 0f be d1 ec b5 bd 27 f0 00 be
       -0.30161452 -0.14013307 -0.0888306 -0.12591611
0000b0 6e ea 2b be b4 da 7f be 52 7e 44 bd 3b c8 11 bd
       -0.16788647 -0.24985772 -0.04797203 -0.035591345
0000c0 37 93 f1 bd 17 c5 ca bb ea e2 3f bd 79 bf bb be
       -0.11795657 -0.0061880457 -0.04684726 -0.3666952
0000d0 cf 75 fd bd d4 ae 15 be 91 a6 a1 bd ac 2b de bd
       -0.12375986 -0.14617473 -0.07893098 -0.108481735
0000e0 9c 5f 66 bd 50 0b fd 3c 06 c0 3b bd 20 e0 78 3d
       -0.056243524 0.030889183 -0.045837425 0.060760617
0000f0 82 f3 c2 3c c2 fb 84 be 34 a0 6e bd b7 a0 a1 bd
       0.023797754 -0.25973326 -0.05825825 -0.07891982
000100 c7 36 25 be 22 57 22 be ff 44 d9 bd f9 7c 98 bd
       -0.16134177 -0.15853551 -0.10608863 -0.07445712
000110 77 9d 08 be c3 f3 28 3d b4 47 ca bd 7e b1 46 bd
       -0.13341318 0.041248094 -0.098769575 -0.048509113
000120 75 02 a7 bd da 7a 59 be e7 91 95 3d 0f ac ff bd
       -0.081547655 -0.2123827 0.07303219 -0.124839894
000130 90 31 10 3d b4 e2 1e be f7 c9 ba bd 33 a9 ba 3b
       0.035203516 -0.15516168 -0.09120553 0.0056964396
000140 ed 95 ca bd c9 06 0b bd d0 77 6d be 31 08 83 bd
       -0.09891877 -0.033942018 -0.23190236 -0.06398047
000150 9a 89 a5 3d 88 0a c0 bd 73 91 01 be d1 5b a4 bd
       0.08082886 -0.09377009 -0.1265314 -0.08025325
000160 6e b3 68 be 02 de c4 bd 6a 27 ae bd 11 c7 9c bd
       -0.22724697 -0.09612657 -0.085036114 -0.076551564
000170 f0 97 09 be 82 ac 9d be 6e 62 86 3d cc 97 08 bf
       -0.13436866 -0.30795676 0.06561743 -0.53356624
000180 fe 15 e0 bd cb 44 f0 bc 58 49 ca 3d 7a 5c 55 bd
       -0.10941695 -0.029329678 0.098772705 -0.052090146
000190 a1 14 ac bd cd c7 cf bd d6 3a 54 bd cf f6 c8 be
       -0.08402372 -0.10145531 -0.051813923 -0.392508
0001a0 5c 3b a1 bd 7c 40 31 be 3b f2 c2 3d 1a 45 6b bd
       -0.0787265 -0.17309755 0.09518858 -0.057438947
0001b0 39 b1 97 bd ee 59 09 bd 67 c4 b8 bd 40 98 e7 bd
       -0.074068494 -0.03353303 -0.09021836 -0.11308336
0001c0 51 c7 68 be d7 de 06 be f6 74 20 3e 70 14 54 be
       -0.22732283 -0.13170944 0.15669617 -0.20710921
0001d0 d8 52 00 3c 06 20 b0 be 35 54 cb 3b 44 cf 9c bb
       0.0078322515 -0.34399432 0.0062051066 -0.00478545
0001e0 9c 93 1f 3c b4 4e 25 3d 01 aa 23 be eb b6 85 3d
       0.009739783 0.04035826 -0.1598282 0.065290295
0001f0 62 a3 33 be d4 cf f8 bd 00 a5 72 3c da 9c fa 3c
       -0.17542794 -0.12149015 0.014809847 0.03059237

network_body._body_endoder.seq_layers.0.weight f4 [128, 26]
000000 1c 88 77 be fe 3f 25 3f a1 8f d1 3e 22 21 2b 3e
       -0.24173015 0.6455077 0.40929893 0.16711858
000010 1e 60 1b 3e 60 24 cf be 9a 4d 02 be c9 a6 4d bf
       0.15173385 -0.4045744 -0.12724915 -0.8033262
000020 dd 97 b6 3e 6a 71 e8 bd c2 39 e3 bc 91 00 20 3f
       0.35662737 -0.11349757 -0.027737502 0.62500864
000030 98 e5 7f 3e f4 1a 0b 3e a6 39 df 3e cb 56 26 3f
       0.24989927 0.135845 0.4359867 0.64976186
000040 a2 d1 d4 3c e7 44 b9 3e b4 ed f3 ba 5b 49 b0 3d
       0.025978867 0.3618538 -0.001861027 0.086077414
000050 17 a4 3d bf 87 2e 0a 3f 39 ef 87 3d dd 96 e4 3c
       -0.74078506 0.53977245 0.06637425 0.027903968
000060 4f f9 bc 3e be 47 3d bd 6c e6 1b 3e de 50 1b 3e
       0.36908957 -0.046210997 0.15224618 0.15167567
000070 9a f6 d5 3e 89 1e a2 bd 1b e8 a5 bd 5f c0 51 be
       0.41789705 -0.0791598 -0.08100911 -0.2048354
000080 28 88 5a 3d 56 24 82 be 7f fd 8f 3c 7a 47 2e 3e
       0.053352505 -0.25418347 0.017576931 0.17019454
000090 67 86 c6 3d d0 b2 a9 bc f2 11 32 bd 77 62 53 3e
       0.09693604 -0.020715147 -0.043474145 0.2064303
0000a0 70 91 52 be 27 af bf 3e 22 a4 a1 bc 4e 6e aa be
       -0.20563293 0.37438318 -0.019731585 -0.3328728
0000b0 22 60 a9 be ea d5 57 3e d4 72 f8 be f7 d2 b3 3e
       -0.33081156 0.21077695 -0.48525107 0.3512189
0000c0 be e8 65 3d df e4 00 bf 1b 0a ed bb 02 58 ad 3c
       0.056130163 -0.5034923 -0.0072338707 0.02116013
0000d0 6f a1 0b bf 52 c8 e6 bc 19 6a 97 be 51 b9 ae 3d
       -0.54543203 -0.028171692 -0.29573134 0.0853144
0000e0 46 be c6 3e 7e 6d 45 3e b5 9f 17 3d 78 b6 7a bd
       0.38817042 0.19280049 0.037017543 -0.061209172
0000f0 ff d5 d2 3d 3f 5c 3c bd 90 18 ac bb d2 f0 39 bd
       0.10294723 -0.04598641 -0.0052519515 -0.04539568
000100 76 ac e3 bd 0c 83 08 be 6c 64 44 3e c6 05 5d be
       -0.11116879 -0.1333124 0.19178933 -0.21584234
000110 64 d8 9a be bd 32 90 bd e5 ba 5b 3e 0a 73 27 3d
       -0.30243218 -0.070409276 0.21458013 0.040881194
000120 2e 8f 85 bc 0e 69 8d bc 4b e2 02 bf 50 09 00 3e
       -0.016303625 -0.017262008 -0.51126546 0.12503552
000130 6d 79 49 3d 6f 8b 28 3d 40 aa d9 3e 94 38 11 3e
       0.049188066 0.0411486 0.42512703 0.14181739
000140 f5 c9 0b 3f b6 cf 55 be d0 82 dc 3d 65 af 1d 3d
       0.54605037 -0.20880017 0.10767138 0.038497347
000150 4f 91 2b 3e 5c 9b 40 bf db fb 99 3e 8a b8 7c 3e
       0.1675465 -0.7523706 0.30074963 0.24679771
000160 53 60 ab 3d 5c 8e d7 3d 47 36 d6 3e 9d 33 53 bd
       0.08367982 0.105252 0.41838285 -0.051562894
000170 4c a6 1e 3f b4 72 b8 3e 94 34 75 be 85 9c 21 3e
       0.619725 0.36025012 -0.23945838 0.15782364
000180 df e6 d5 bd f3 05 a6 bc ac df ef bd f8 12 10 3f
       -0.10444426 -0.020266509 -0.11712584 0.56278944
000190 18 bf 9e 3d c0 77 42 3d ce 0d 12 3e 77 14 63 3d
       0.07751292 0.047477484 0.14263079 0.05543944
0001a0 e5 f6 28 3e ea 4d c0 bd ec 53 cd be bd 9b 6e be
       0.16500433 -0.09389861 -0.4010309 -0.23301597
0001b0 f8 29 3a be 12 07 c3 bc 0d bd 31 3d cf ce 5b 3d
       -0.18180072 -0.023807082 0.043393183 0.053664025
0001c0 00 cf 73 3d e5 f1 68 bd 36 17 b3 be 21 1e 8e be
       0.059523582 -0.056871314 -0.34978646 -0.27757362
0001d0 ab b2 86 be b8 b6 37 be b9 15 78 bd b2 71 09 be
       -0.26308188 -0.17940795 -0.06056759 -0.13422278
0001e0 b3 f5 ca be b3 7c 55 bd b8 b5 5e 3e 7a 3f e4 3c
       -0.3964058 -0.052120876 0.21749008 0.0278623
0001f0 2b 15 3d 3e a2 c8 4a bd f8 b0 21 be 69 5e 8b bc
       0.18465106 -0.049507745 -0.15790164 -0.017012792
000200 55 2d 91 be 21 8c 58 3e 99 fe 2e 3d 0f b3 ea 3e
       -0.28354898 0.21147205 0.042723272 0.45839736
000210 38 f7 72 3e bf 72 54 3e 35 c6 3e bd ca 53 bf 3d
       0.23727119 0.20746897 -0.046575744 0.09342153
000220 a4 bc 80 be de 21 99 be 8b 03 d8 3e 55 dc a4 3a
       -0.2514392 -0.2990865 0.42190203 0.0012577871
000230 58 ab 61 3e c8 05 0e 3f da d8 4f be 03 af 89 3e
       0.22038019 0.5547757 -0.20297566 0.26891336
000240 40 18 80 3e b7 83 be 3e 24 a8 86 3e 3f ac 3e 3e
       0.250185 0.37209865 0.26300156 0.18620394
000250 f4 f5 e9 3c 08 86 f9 bd 72 41 38 bf 94 fb 3d bd
       0.028559662 -0.121837676 -0.7197486 -0.0463825
000260 34 56 82 be 55 f2 8d 3e 4e a2 69 3e 7c d1 7c 3d
       -0.25456393 0.27723947 0.2281582 0.061723217
000270 d6 a2 d1 bd 36 06 4f 3f 31 28 72 3d 4d 90 25 bd
       -0.102361366 0.8086885 0.05912036 -0.04042082
000280 a5 fe 3b be 73 ab 4f bd bf c8 81 3e 74 e6 70 be
       -0.18358858 -0.050700616 0.2534847 -0.23525411
000290 fe c0 ce be f1 57 99 be c4 fe 24 bc 4e 58 c8 be
       -0.40381616 -0.29949906 -0.0100705065 -0.3912987
0002a0 ff b2 bf 3e 9e 8b cf 3d a1 ef d1 3e 8f a7 eb be
       0.3744125 0.10134052 0.41003135 -0.46026275
0002b0 75 b2 cb bb 8f 72 12 be 02 cf 1d 3d 50 cf 23 3b
       -0.006216342 -0.14301513 0.038527496 0.0024995394
0002c0 ca 01 c0 bd 6c 64 d4 bc f6 47 4e be e9 24 83 be
       -0.09375341 -0.025926791 -0.20144638 -0.25614098
0002d0 62 4a a4 3b 73 6a 9d 3c 98 19 37 3c 36 5f 8e be
       0.00501375 0.019215798 0.011175536 -0.27807015
0002e0 5f af 9a 3e 36 25 82 be dd 26 95 be 43 1d a0 3e
       0.30211923 -0.25419015 -0.29131213 0.31272325
0002f0 a1 a3 65 be 58 3f bc be 8a 55 20 3e 11 60 0e 3e
       -0.224257 -0.36767077 0.1565763 0.13903834
000300 3c 2f b7 be a3 f4 db 3c ba 3b 33 3e 96 82 b0 bd
       -0.35778224 0.02685005 0.17503253 -0.08618657
000310 69 43 17 be 07 09 4c be 83 95 50 be 17 87 1c 3e
       -0.14771809 -0.19925319 -0.20369534 0.15285908
000320 91 e8 4f 3e 0a 0c 58 be b8 41 c9 be ab d2 a0 3e
       0.20303561 -0.21098343 -0.39307952 0.31410727
000330 dc f7 48 3e f7 26 e3 be c9 17 43 bd a1 ad 29 be
       0.19625801 -0.44365665 -0.047630105 -0.1657014
000340 13 42 4d 3e 65 d5 0b bf 73 b9 06 3d 71 5e 0f 3e
       0.20044737 -0.5462249 0.032891702 0.1400087
000350 29 80 d0 be 5a 19 7b be 16 32 92 3e 04 0b 0e 3e
       -0.40722778 -0.2452139 0.28553838 0.1387139
000360 28 8e 84 be f9 d2 69 3c 18 01 e7 be eb 3d a8 3e
       -0.25889707 0.014271491 -0.45118022 0.3285974
000370 e1 b2 06 3f a0 45 08 bd 40 33 6d be 9f ac 38 3e
       0.526167 -0.033269525 -0.23164082 0.180346
000380 b5 2e 52 3e 55 fd 8f 3d e4 6e 61 be 6f d8 ca bd
       0.2052563 0.07030741 -0.22014958 -0.09904563
000390 8e 86 11 3e 90 67 99 be 50 8b a6 3d 42 a7 c8 be
       0.14211485 -0.29961824 0.081320405 -0.39190108
0003a0 0c 1c 7a 3e fe d6 b9 3e 9e bd d9 be 4c d9 0b bd
       0.24424762 0.3629684 -0.4252748 -0.034142777
0003b0 e3 c3 ae 3e 88 79 d1 3e 75 a3 0f be 63 b7 93 bc
       0.34133825 0.40913033 -0.14027198 -0.018031782
0003c0 4d 42 37 3d e5 40 2f bf d4 e4 3f 3f f9 f1 cf bd
       0.044740964 -0.68458396 0.7495854 -0.101535745
0003d0 f6 35 8e 3e af e8 01 3f 3b f3 6e 3e 35 1f 8c 3e
       0.27775544 0.5074567 0.23334973 0.2736756
0003e0 5f 28 c4 3e 88 a6 79 3d bd bd 2e 3e ce 8f e5 3c
       0.3831205 0.060949832 0.17064567 0.028022673
0003f0 63 53 37 bd 16 2e 97 bd 19 0d ec be 15 a8 2a 3f
       -0.04475726 -0.07381837 -0.46103743 0.6666272

network_body._body_endoder.seq_layers.2.bias f4 [128]
000000 91 c2 1c bf ab fe 63 be 1f 7c 42 be 75 04 08 bf
       -0.61234385 -0.22265117 -0.18992661 -0.531318
000010 cc ea 45 be 15 81 a7 be 82 e1 b8 bd c4 08 74 bf
       -0.19327849 -0.3271567 -0.09027387 -0.95325875
000020 f1 37 37 bf 24 0f d8 be 78 d6 0f bf d7 e8 96 bd
       -0.71569735 -0.4219905 -0.5618663 -0.073686294
000030 51 d3 24 be 29 41 22 be 5c 7a 5d bf 00 d0 20 bf
       -0.16096236 -0.15845169 -0.8651483 -0.6281738
000040 21 ab 1f bf b7 e0 3c bf f1 2d 6a be af 76 40 be
       -0.62370497 -0.7378039 -0.22869088 -0.18795274
000050 9f de 40 bf 81 1b 81 3c 78 5d 55 bf d5 a5 d5 bd
       -0.7533969 0.015760185 -0.83345747 -0.104320206
000060 be f4 33 bf aa 4e 4e bf ad ea 4f bf af c9 be be
       -0.7029532 -0.8058878 -0.8121746 -0.37263247
000070 57 bc bf be d9 f9 51 bf 36 2f 9c be 86 73 63 bf
       -0.3744838 -0.8202186 -0.3050477 -0.8884815
000080 05 35 74 bf a7 f8 7c bf 73 2e 55 be d7 a2 08 be
       -0.953934 -0.98816913 -0.208185 -0.13343368
000090 14 3a 0b bf ba d3 18 bf 6e e0 5e bf 76 bd 50 be
       -0.54385495 -0.5969807 -0.870612 -0.20384774
0000a0 4e 30 3c bf 4a 14 f0 be e8 26 54 be 2d 2d 0f bf
       -0.7351121 -0.4689048 -0.20717967 -0.5592831
0000b0 c0 da 33 bf e4 0f 37 be 16 f0 88 be fa 8e 53 bf
       -0.7025566 -0.17877156 -0.2674567 -0.8264004
0000c0 b4 dd 0a bf 09 96 6e bf 1d 70 5c bf c1 ea 0c bf
       -0.5424454 -0.93197685 -0.8610857 -0.55045706
0000d0 2f bf 2e be 83 fe 19 bf d0 b6 3c bf 44 81 ca bd
       -0.17065118 -0.6015398 -0.7371645 -0.09887937
0000e0 4f e0 1c bf 8d 73 65 bf 5b 17 9e be 3e 8e 57 bf
       -0.6127977 -0.8962944 -0.30877194 -0.8420142
0000f0 ad 5e 49 be fd 6e e5 bd 1b 71 0f be 84 fc 8d be
       -0.19665022 -0.1120281 -0.1400799 -0.27731717
000100 76 43 1f bd 58 05 86 be 60 82 42 3c ea da 39 be
       -0.038882695 -0.26175952 0.011871904 -0.18149915
000110 1f 6c 22 be ae a4 14 bf ee f6 11 be 4c a0 e2 be
       -0.15861557 -0.5806378 -0.14254352 -0.44262922
000120 ff 9f 85 bf fb 68 76 bf 22 9d 37 bf 84 c1 e9 bd
       -1.0439452 -0.9625394 -0.7172414 -0.11413863
000130 fe 6f 49 bf a6 a3 8b bd af 75 55 bf ec 71 20 be
       -0.7868651 -0.06818323 -0.83382696 -0.15668458
000140 91 7e 13 be 80 3f 97 be 32 d8 75 bf 7d ac 29 bf
       -0.1440375 -0.29540634 -0.9603301 -0.6627882
000150 90 b7 4e bf 14 c7 dd be 8b 41 8f be 5e 47 92 bd
       -0.80748844 -0.43315947 -0.27979693 -0.071425185
000160 44 df f2 3b ad 08 36 bf 4b a6 3a bf 91 3c 40 bf
       0.0074118692 -0.7110699 -0.7290999 -0.75092417
000170 ed d8 69 be 0d eb 6a be 3c 83 38 be b6 fc ec be
       -0.22836657 -0.22941227 -0.18018812 -0.46286553
000180 b6 79 c5 be 39 62 1c bf 4a 33 3d be 3c e6 3c bf
       -0.3856942 -0.61087376 -0.18476596 -0.7378881
000190 34 0a 9e be 6d 1c eb be ae 49 3f bf c3 df 9c bd
       -0.3086716 -0.45920125 -0.747218 -0.07659867
0001a0 66 8a 4c be 1f 00 60 be c7 f5 88 be 1f e6 81 be
       -0.1997467 -0.21875046 -0.26750013 -0.2537088
0001b0 7b c5 4b bf 80 d4 51 3d 7a 6d 67 bf 2e a9 3d be
       -0.79598206 0.051228046 -0.9040142 -0.18521568
0001c0 1a 15 81 bf fb 85 48 bd 65 65 9d be 82 49 64 bd
       -1.0084565 -0.0489559 -0.3074142 -0.055734165
0001d0 52 bb d3 be e6 9b 6b bf 36 3d 3c be 86 ce 89 be
       -0.41353852 -0.9203476 -0.18382725 -0.26915377
0001e0 32 03 26 be 47 09 4c be 02 ff e5 bd 28 e2 98 be
       -0.16212156 -0.19925414 -0.112302795 -0.29860044
0001f0 6a 61 1c be d1 81 04 bf 43 74 1a be 89 a4 64 bf
       -0.15271536 -0.51760584 -0.15083413 -0.8931356

network_body._body_endoder.seq_layers.2.weight f4 [128, 128]
000000 fa 76 da be da 06 0a 3f e3 02 34 3e ab 62 e6 be
       -0.42668897 0.53916705 0.17579226 -0.44997153
000010 d1 40 13 bf 97 52 39 bf f8 0b a1 be 6b 35 84 bd
       -0.57520777 -0.7239165 -0.31454444 -0.06455501
000020 88 0e 82 3e 1a b9 87 be 1e d3 01 3f e7 c5 dd be
       0.2540171 -0.2650841 0.50712764 -0.4331505
000030 a0 05 82 be f9 1e 06 be 61 aa fa 3e 7d f7 b5 3e
       -0.25394917 -0.13097753 0.48958114 0.3554038
000040 4a 9e b8 bd 78 46 8a 3b 3a 97 11 3f b2 96 ae 3e
       -0.09014566 0.0042198263 0.5687138 0.34099346
000050 7c 4f b0 3e 68 36 d1 3e 42 87 10 3e b1 75 22 3f
       0.34435642 0.4086182 0.14114097 0.6346083
000060 b9 7c 8f 3e 46 1f 79 bf 8b f5 00 3e 8b 56 b4 be
       0.28024843 -0.97313344 0.12593667 -0.35222277
000070 6b 25 cb 3e a1 3f 9d 3e 7b 74 3e bf dc 05 1c 3f
       0.39676985 0.30712608 -0.74396485 0.6094644
000080 c6 a1 96 be 03 73 0a 3f 44 32 65 3f 3f 72 18 bf
       -0.29420298 0.54081744 0.89529824 -0.59549326
000090 bc c4 15 3f 50 d4 06 bf 08 f3 46 bf 05 2a 56 bf
       0.5850332 -0.52667713 -0.77714586 -0.83657867
0000a0 61 07 36 3e b0 de be be f1 bf 07 bf b0 12 f4 be
       0.17776252 -0.37279272 -0.53027254 -0.47670507
0000b0 33 5b 19 3f 87 fc 85 be f0 3a 2c bf aa 0a 0e 3f
       0.59904784 -0.26169226 -0.6727743 0.5548502
0000c0 93 97 79 be be 73 b7 be d0 5a 72 3e c4 5e b5 3e
       -0.24374227 -0.35830492 0.23667455 0.35423863
0000d0 4b cf c2 be 3b 52 1a 3e cc 19 3d bf 4c dc 5a be
       -0.38048777 0.15070431 -0.7386749 -0.21373099
0000e0 95 d5 8c bd 86 dc a3 3e 5f 87 2d 3d 1f 8f 90 be
       -0.06876675 0.32004184 0.042365428 -0.28234193
0000f0 23 8e e5 be 97 33 30 be 13 50 85 3d d4 c8 12 3e
       -0.44835004 -0.1720718 0.065094136 0.14334422
000100 17 2d ff 3e f4 f9 08 3f 7d 3a a8 3e 27 59 88 be
       0.49839088 0.535064 0.32857123 -0.26630518
000110 8f 57 ea be ef c4 9f be 16 08 1f 3f 95 ff 95 be
       -0.45769927 -0.31204936 0.62121713 -0.29296556
000120 1d 86 54 be 93 d5 42 bf d5 4c b9 be 7d ac fc 3e
       -0.20754285 -0.7610714 -0.3619143 0.49350348
000130 32 be 94 be 69 3f e7 3c 55 24 be be f1 4c 3b bf
       -0.29051358 0.028228479 -0.37137094 -0.7316428
000140 ea e6 04 3f d6 d1 df 3e 36 7c 34 3f 1c 81 8d 3e
       0.51914847 0.4371478 0.7050203 0.27637565
000150 b4 a1 04 3f 61 65 85 bd ea 96 90 bd 5d af e7 be
       0.5180924 -0.06513477 -0.070600346 -0.4525098
000160 e6 6a 1f be 92 3c 10 bf 8b 25 1a 3f bf 31 f6 be
       -0.15568122 -0.5634242 0.60213536 -0.48084828
000170 8e 7e 1c bf d4 47 25 3f 19 b0 d5 3e 07 6c f5 3e
       -0.6113061 0.64562726 0.41735914 0.4793398
000180 7f 3b 0b be 82 28 eb 3e 4d 0a ea be 93 4e e0 3e
       -0.13596915 0.45929343 -0.45710984 0.43809947
000190 36 c7 aa be 45 42 02 be 73 a9 26 be b3 6a 0f 3f
       -0.3335511 -0.12720592 -0.16275577 0.56022185
0001a0 c8 70 a1 3e 2e 3c ee bd 0b ed 4a be c3 d3 54 3e
       0.31531358 -0.11632572 -0.19816987 0.20783906
0001b0 ec c2 1d bf e0 b9 90 3e e5 48 c1 be 38 60 29 be
       -0.6162555 0.2826681 -0.37750927 -0.16540611
0001c0 22 fb 2d 3e 50 cb 24 3f 17 56 c6 3e d6 71 0a 3f
       0.16990331 0.6437273 0.38737556 0.5407995
0001d0 9a a8 48 bf 2e 2c fe 3e a9 dd af be 13 c1 8a 3e
       -0.78382266 0.4964308 -0.343488 0.2710043
0001e0 b7 1d bf 3d cc 70 3d 3e 7f 44 92 be 4f 82 04 bf
       0.093318395 0.1850006 -0.28567883 -0.51761335
0001f0 f1 bd 17 be 7f eb 0f 3f c9 eb cd be a2 5c 63 bf
       -0.1481855 0.56218714 -0.40218952 -0.8881322
000200 d9 48 64 bd d3 0d 09 be e0 aa 16 3e cf 1f 1e 3e
       -0.055733535 -0.1338418 0.14713621 0.15441822
000210 7b 5a cf be 5a 09 9e 3d ef d5 07 3e b6 72 ff 3d
       -0.4049872 0.077166274 0.13265203 0.12473051
000220 26 93 bf 3d e6 d6 c2 3d 47 28 bc 3c 31 db 48 be
       0.09354238 0.09513645 0.022968424 -0.19614865
000230 47 cc 6a 3a 1d 31 45 3d 5f 51 24 be 37 39 c5 bd
       0.00089568313 0.04814254 -0.16046666 -0.096300535
000240 14 e1 02 3e 3c 62 ec bd 9a bc 37 be 9b c6 2b 3e
       0.12781173 -0.11542174 -0.1794304 0.1677498
000250 40 4f e5 bd 74 70 4a be aa 38 02 3e e6 d5 21 3d
       -0.11196756 -0.1976946 0.12716928 0.03951063
000260 0b 5e 98 3d e1 60 06 be 59 5f 0f 3e 5a b7 b2 3d
       0.07439812 -0.13122894 0.14001216 0.08726378
000270 e1 51 bc 3b 98 a6 52 bd 42 31 51 be f0 5a 0d bd
       0.0057470654 -0.051428407 -0.20428947 -0.034510553
000280 bc 3f 18 bd 80 1d 27 bd a0 7e 3e 3e 76 58 15 3e
       -0.037170157 -0.040799618 0.18602991 0.14584526
000290 29 08 ec 3a a3 da 49 3d 9c 05 78 bd 56 be 50 3d
       0.0018007803 0.049280774 -0.060552225 0.05096277
0002a0 0c e9 cc 3c 0d 03 04 3e 01 67 70 bd 63 5a 15 3d
       0.02501347 0.12891789 -0.058691982 0.036463153
0002b0 4e 1a 0d be e6 80 96 bc b8 de 34 bc 4e 70 77 bd
       -0.13779566 -0.01837201 -0.011039428 -0.060409836
0002c0 6e 7e c8 3d d3 1f 1e 3e c8 36 8a bd f8 f5 4b 3d
       0.097897395 0.15441827 -0.0674873 0.04979512
0002d0 69 de f5 bd 1f 9c b2 3c fc 15 c7 3d 19 d1 87 bd
       -0.12005312 0.02180296 0.0972099 -0.06631679
0002e0 0c ac 7b 3c 99 c5 f3 3d 98 5d 0f 3e 87 35 08 be
       0.015360843 0.11902923 0.14000547 -0.13301669
0002f0 a1 ff fc 3c 01 d5 41 3e bd 95 d6 bc 13 9c a6 3d
       0.030883612 0.18928911 -0.026194448 0.081352375
000300 cf 8d da 3d ed d1 78 3e 8c ad 95 3c 5a 34 c2 39
       0.10671579 0.2429883 0.01827123 0.00037041568
000310 59 c7 6a 3d dd 69 8b bd 28 66 a5 3e da a3 6c be
       0.05731902 -0.06807301 0.32304502 -0.2310938
000320 10 56 55 3e 49 05 dc 3d 2c c8 65 3d ad 7c cb 3c
       0.20833611 0.107431956 0.056099102 0.024839723
000330 d8 ed 52 3d 9a 71 68 3e 60 64 79 3e 6e 2f 96 be
       0.051496357 0.22699586 0.24354696 -0.2933306
000340 3b 25 a6 3e 54 2a 67 3d c0 3d 15 3e b5 3c 98 3c
       0.3245028 0.05643685 0.14574337 0.018583635
000350 d4 5a 45 3e 2c 52 20 bd 25 b5 d0 3b 3f 7b ae 3d
       0.1927293 -0.039140865 0.0063692504 0.08519601
000360 d3 45 43 bd 14 28 5d ba 92 51 74 bc 70 ce b1 bd
       -0.04767401 -0.0008436453 -0.014912026 -0.08681953
000370 04 06 49 3d 7c 17 b8 bd 70 4c dd 3c 80 1f 53 3d
       0.049078003 -0.08988854 0.027013987 0.051543713
000380 e8 65 20 3e 30 b4 e4 3d 42 fb 01 3e d9 84 03 be
       0.15663874 0.111671805 0.12693503 -0.12843646
000390 3e b1 eb 3d 6c e8 66 3d a6 ce b9 3d 00 65 31 bd
       0.11508416 0.056374 0.09072618 -0.04330921
0003a0 0b 58 06 3e c1 c3 96 3d f5 09 af 3d 77 fa 3d 3e
       0.13119523 0.07361556 0.08546821 0.18552576
0003b0 0b bd 35 3d 3d a6 ae bd 46 5d 19 3e f3 34 20 3d
       0.04436974 -0.08527801 0.14976987 0.039112996
0003c0 6d 4f 08 3e 91 6c 77 3e 76 c5 a9 3d fa be cf bc
       0.13311549 0.24162509 0.08289616 -0.02535962
0003d0 6c cc 9a 3d 24 38 b6 3d 02 fb 6d bd 9b 27 b2 bd
       0.07558522 0.08897427 -0.058100708 -0.086989604
0003e0 4b 2a 49 bd 49 1f 98 3d 9e 96 fe bc 26 03 7b be
       -0.0491126 0.07427842 -0.03107768 -0.2451292
0003f0 58 99 d5 bc 42 0f 0f bd ba 7c d8 bd 47 fc 2b be
       -0.026074097 -0.03492666 -0.10570665 -0.16795455
