AIRocketLanding/results/AIRocketFast6/AIRocket/AIRocket-7999965.onnx (onnx, 84776 bytes, 9 tensors)

action_model._continuous_distribution.log_sigma f4 [1, 2]
000000 bf ba 2b c0 46 df 29 c0
       -2.683273 -2.6542525

action_model._continuous_distribution.mu.bias f4 [2]
000000 b8 3e 90 be 2c 47 50 be
       -0.2817285 -0.2033965

action_model._continuous_distribution.mu.weight f4 [2, 128]
000000 c7 d0 dd bd 19 0c 40 3c f7 c9 23 bc eb ba f2 3c
       -0.10830837 0.011721634 -0.009996883 0.029630145
000010 3c 2e 93 bc 32 f5 c6 3c c7 af b5 bd 70 aa d2 bd
       -0.017966382 0.02428684 -0.088714175 -0.102864146
000020 1c 9d 3c bd 9f d3 18 3d f0 99 8c bd 8f 08 7c be
       -0.04604827 0.037311193 -0.06865299 -0.2461264
000030 61 9b ff bd 40 50 e8 3d db f6 23 bb 9f d4 c8 bd
       -0.12480808 0.113434315 -0.0025018963 -0.09806179
000040 0c 96 c3 bd 58 53 54 bd 9c ec 8b bc 72 0a 5f bc
       -0.095501035 -0.051837295 -0.017080598 -0.01361333
000050 b3 e7 50 bd 37 87 76 be 55 05 87 bd 92 1c 63 3e
       -0.051002216 -0.24075018 -0.06592814 0.22178867
000060 4a e7 3f bd e7 f2 45 bd 02 85 50 bd 1a d8 ac ba
       -0.046851434 -0.048327353 -0.050908096 -0.0013186962
000070 f5 3d db bd 62 89 12 bd 52 7c 2e 3d a2 ad ae bd
       -0.10705177 -0.03577555 0.04259903 -0.085292116
000080 63 da 36 bd b5 cd b0 bc bf 92 67 3d 35 ee 93 3d
       -0.044641864 -0.021582464 0.056536432 0.07223169
000090 c9 92 1f bd 5d 00 b9 bd bc bc 86 bd 10 95 2c 3d
       -0.038958345 -0.090332724 -0.06578967 0.042134345
0000a0 d4 2d bb bc 25 1f d8 bd d6 67 81 bc ed 4b b7 bd
       -0.022849001 -0.10552815 -0.015796583 -0.089500286
0000b0 e4 f2 1f 3c af 5a 64 3d 7a 1b 88 3d fb 57 96 bd
       0.0097624995 0.055750545 0.06645866 -0.07341
0000c0 36 f3 0f bc 3c 21 30 bd 5b 1d ca bd a7 18 98 3a
       -0.008786013 -0.043000445 -0.0986888 0.0011604027
0000d0 93 d3 16 3e 86 26 3e bd a6 b1 05 3c 9f a2 55 be
       0.14729147 -0.046423458 0.0081600305 -0.20862816
0000e0 8a 86 9a bd ed b2 93 bb bf 30 f9 3b 7b 42 8c 3a
       -0.075451925 -0.0045074136 0.007604688 0.0010700965
0000f0 7f 94 b5 3c 61 96 56 3e 02 70 03 be d5 9e 7c 3d
       0.022165535 0.20955803 -0.12835696 0.06167491
000100 22 4b 90 be 24 bb 08 bd 71 4f 95 3c b3 3a 1e be
       -0.28182322 -0.033381596 0.018226357 -0.1545208
000110 d4 7f 2f bd 98 70 97 bd d0 8d f1 3c b7 8b c1 bd
       -0.042846516 -0.073945224 0.029486567 -0.094504766
000120 53 92 26 bd 50 ba 88 ba d6 2f 62 3c c3 3c 4a 3e
       -0.04066689 -0.0010431502 0.01380535 0.19749741
000130 cd a1 7b 3b 5e 8b a2 ba a2 10 66 38 96 2e d1 3d
       0.0038396001 -0.0012401154 5.4851764e-05 0.10213964
000140 2a 2f d7 3c 3f cf b5 3b fb 00 99 bd fe cc 9f bd
       0.026267607 0.0055483873 -0.0747089 -0.07802771
000150 b8 5b 0c bb 1b 2e cf bd ff ca cd 3d ef 94 0a 3c
       -0.0021416973 -0.10116216 0.10048484 0.00845836
000160 d5 82 96 3a fe 8e 03 bb d4 a4 1a bc 8f 71 78 ba
       0.0011483083 -0.0020074244 -0.009438712 -0.0009477371
000170 ee 43 85 3d 17 06 3f 3b 0d fb 76 3d 36 ca 5c bd
       0.06507097 0.0029147917 0.060298014 -0.05390378
000180 c9 93 b6 bd 82 05 99 bd db 6f c7 3d 27 e4 72 bb
       -0.089149065 -0.07471754 0.097381316 -0.003706226
000190 59 0f a1 bb e2 8c c2 bd 5f 3b 0c 3c 21 66 49 bd
       -0.0049151597 -0.094995275 0.008559077 -0.049169663
0001a0 18 17 a6 bd 44 de 0b be 5a 92 01 3b 61 2f 6a 3d
       -0.081098735 -0.13659006 0.001977107 0.05717409
0001b0 f9 ee a1 bd 5c 74 d2 3b 1f 3d 2c bd 7e 10 88 3d
       -0.079069085 0.0064225625 -0.042050477 0.06643771
0001c0 4b 45 39 bd 25 72 da 3a 3f d7 c8 bd bd 1f a8 3a
       -0.0452321 0.0016666098 -0.0980668 0.0012826842
0001d0 ad 2c c9 bd 92 56 a6 bd 35 5f 3f 3d 37 0e c5 bc
       -0.09822974 -0.08121981 0.046721656 -0.02405463
0001e0 d2 62 bd 3d 33 0f 1a 3d 8c 06 3a be a4 b4 c0 3c
       0.09247364 0.03761215 -0.1816656 0.023523636
0001f0 53 d1 ca 3d 13 a0 ab bd d5 bc 23 3d 49 0e 44 ba
       0.09903207 -0.08380141 0.039975006 -0.00074789353
000200 9d a3 0b 3c d8 8a 6d 3d b0 3a b7 3d 6f 93 d0 bb
       0.008522895 0.05799374 0.089467406 -0.0063652317
000210 29 b8 49 3d 85 7b 11 3d 9f 91 6f bd 96 d6 98 bb
       0.049247894 0.035518188 -0.058488484 -0.0046642525
000220 bb 8c 02 bd 05 d3 bf bb 38 48 04 bc 2b be 60 3e
       -0.031872492 -0.005854013 -0.008073859 0.21947543
000230 29 a9 6b 3e 6a e4 86 3d 4c 9b 9b bc 44 63 27 3b
       0.23013748 0.06586535 -0.01899495 0.0025541345
000240 6a 88 6f bb 0d 32 a0 bc 85 6c 32 3d 3b 6f d0 3d
       -0.0036549815 -0.019555116 0.043560524 0.101774655
000250 8a bb d7 bb fb 10 2a 3e 9c e5 a9 bb c6 8a 22 3e
       -0.0065836357 0.1660804 -0.0051848423 0.1587325
000260 60 1c 19 bc 50 8e c9 bc d6 af 07 bd e6 ae 5b 3b
       -0.009345144 -0.024603993 -0.033126675 0.0033520996
000270 a9 19 10 3b 93 9a 28 bd 66 0e 25 3d 1a 40 5d bb
       0.002198795 -0.04116304 0.040296935 -0.0033760131
000280 89 4b 06 bd cf 09 17 bd 2e 39 a5 3c d5 87 9e 3d
       -0.03278688 -0.03687459 0.020168867 0.07740752
000290 1f 6f 20 3d 9b 08 21 3a 77 96 e5 bc f6 04 ac 3d
       0.039168473 0.0006142945 -0.028025849 0.08399384
0002a0 5a a1 88 bc b7 0f d9 ba 3f 95 e7 3d fa 0b 41 ba
       -0.0166785 -0.001656047 0.11307763 -0.00073641504
0002b0 e0 4f c7 bc 20 87 93 3d 89 f5 10 3d 72 09 83 bc
       -0.02433008 0.072035074 0.03539041 -0.015995715
0002c0 c1 b4 d8 bc 99 53 11 bd 85 29 1f bc 6e 91 26 3c
       -0.026453378 -0.035480116 -0.009714489 0.010166509
0002d0 c3 b8 90 3d 21 bd d5 bc 8a 45 0a bd 54 98 91 3d
       0.070664905 -0.02609116 -0.033757724 0.071091324
0002e0 ed 80 90 b8 3b bb 22 bd 3f 46 ce 3c 3b 8a b3 bc
       -6.8904694e-05 -0.03972934 0.02517998 -0.0219165
0002f0 c6 5a bb 3d 62 e7 00 3e 1d db 43 3e 27 09 b2 3c
       0.09148173 0.12588266 0.19126554 0.02173288
000300 cc 2b a2 3e ba 9c ad 3d a4 16 3e bc 8c f3 25 3e
       0.3167404 0.08477159 -0.011602078 0.16206187
000310 85 97 93 3d ca 67 81 bc 86 f5 56 3c 47 78 19 3d
       0.072066344 -0.01579656 0.013120061 0.03746822
000320 5a b0 0e bd 8b 81 e6 bc 1b 2a da bc e9 4b 1a 3e
       -0.03483615 -0.028137943 -0.026631406 0.1506802
000330 90 03 15 bd 46 9b e2 ba 76 4e 74 bc 18 3e f3 3d
       -0.03638035 -0.0017288707 -0.014911285 0.11877078
000340 6e e7 a2 3b c0 f9 01 3c 93 31 b7 bb 3c 1c 15 3c
       0.004971436 0.00793308 -0.0055906265 0.00910097
000350 bd b3 d8 bc 08 10 c8 bb 98 78 39 3d 79 b8 fd 3b
       -0.026452893 -0.0061054267 0.045281023 0.007742938
000360 6c 6a 15 bb c7 3a 15 bd 8e 44 20 bd 64 27 1f bc
       -0.0022799028 -0.036433008 -0.03912788 -0.009713981
000370 55 1a 99 bc 60 0c db 3c be b0 c8 bb 57 7d 9d bc
       -0.018689314 0.0267393 -0.006124585 -0.019224806
000380 ea ce 36 bc ed d9 29 3c c0 2e 6b 3d 57 0d cc bc
       -0.011157731 0.010366899 0.05741763 -0.024908705
000390 92 ce 67 3b 0e 7e d3 3c 4e 66 d8 bc b3 48 80 3e
       0.0035370928 0.025816943 -0.02641597 0.25055465
0003a0 b5 2f 06 3e ea a3 9f 3d 7a 73 40 3d 13 33 bb 3c
       0.13104136 0.07794936 0.046985127 0.022851503
0003b0 0e 98 82 bc 81 65 eb 3c 4e 02 ff bc de c3 51 3a
       -0.015941646 0.028734924 -0.031129029 0.0008001904
0003c0 f0 91 1f bd 1b 7b 43 3a a5 2a 83 bb 1e 9b 9b bb
       -0.038957536 0.0007457004 -0.0040028864 -0.004748716
0003d0 0d 69 3a 3d 92 c0 a3 bc 0a 18 e6 3c fb 19 ae 3d
       0.04551034 -0.019989286 0.028087635 0.08501049
0003e0 6d e5 54 3d 7b 28 aa 3d 45 92 22 3e f2 c7 92 3c
       0.05197661 0.08308502 0.1587611 0.017917607
0003f0 af 6c 65 3d a1 e3 76 3b eb 1b f6 3d aa 65 f4 bc
       0.056011852 0.0037672298 0.12017044 -0.029833633

action_model._discrete_distribution.branches.0.bias f4 [2]
000000 15 03 3f be 1a 03 3f 3e
       -0.1865352 0.18653527

action_model._discrete_distribution.branches.0.weight f4 [2, 128]
000000 f5 68 ba 3e 25 e2 80 bc f6 4a e4 bd a7 2d 45 3e
       0.364082 -0.015732834 -0.1114711 0.19255696
000010 ac e2 db 3e e7 77 b9 be 08 e2 1b be 2c 43 e9 3e
       0.42946374 -0.3622429 -0.15222943 0.4555906
000020 a4 75 d6 3e b9 73 5e 3d 08 48 3a 3d 83 a9 22 3e
       0.41886628 0.05430958 0.04547885 0.15884976
000030 0d 03 bd 3d 5e ec 0d be 91 a9 98 3e e0 42 02 3e
       0.092290975 -0.13859698 0.2981687 0.12720823
000040 15 45 24 3e 62 49 8d 3e 58 6f 46 3f 91 c2 d9 bd
       0.16041978 0.2759505 0.7751365 -0.10632814
000050 e5 b3 3d 3e 2f d5 c7 3d f0 f2 dd 3e 7e ed 31 3e
       0.18525656 0.097574584 0.4334941 0.17375752
000060 d6 3d f8 3e 01 28 bf 3e 72 36 6d 3e 2f 30 c6 3d
       0.48484677 0.37335208 0.231653 0.09677159
000070 c4 7d 7d 3c a1 60 b4 3e e6 62 e7 be a8 b9 97 3e
       0.015471879 0.35229972 -0.4519264 0.29633832
000080 fd 28 83 3e 8b ef 59 3e 2e 99 cd bc d7 95 8b bd
       0.2561721 0.21282785 -0.025097456 -0.06815689
000090 5f 02 fe 3e f1 85 85 3e a1 c1 a4 3e 8a d5 04 bf
       0.49611184 0.26078752 0.32178977 -0.51888335
0000a0 f1 d5 de 3e 3d cd dd 3d 3f 62 e2 bc ab bf 97 3d
       0.435226 0.10830162 -0.027634738 0.07409605
0000b0 9d 07 70 3e 26 e2 61 be 9b 3a 80 bd 5f 53 2c 3e
       0.23440404 -0.22058925 -0.06261178 0.16828679
0000c0 6d 81 af bc fc 0a a3 3e dc 8a 99 3e e6 2e ef 3e
       -0.02142402 0.31844318 0.29988754 0.46715468
0000d0 da f4 c8 bd e0 b3 2a 3d 24 db 6b 3e 25 59 6a 3f
       -0.09812327 0.04167545 0.23032814 0.91542274
0000e0 1f 65 cf 3d b0 e1 2c 3e d1 3a 66 bd c0 d0 e7 3b
       0.10126709 0.16882968 -0.056208435 0.0070744455
0000f0 8d a2 a0 be e4 5d a5 3d 51 19 2f 3e 56 df ca 3d
       -0.31374016 0.08074549 0.17099501 0.09905879
000100 b8 85 99 3e 2b f7 c0 bd 73 f2 90 be d5 2d 1a be
       0.29984832 -0.094221435 -0.28309974 -0.15056546
000110 f0 89 e3 bc 2f 32 28 3c 06 d9 dc be d8 b5 2d 3e
       -0.027775735 0.010265871 -0.43134326 0.16963899
000120 b6 8d 7e 3e 82 29 17 3e 0c b2 84 3e 43 4d 2d 3e
       0.24858746 0.14761928 0.2591709 0.16924004
000130 8d 08 9c 3e 57 93 fa bd 01 53 5c 3e 07 07 a4 be
       0.30475274 -0.12235134 0.21516038 -0.3203661
000140 8b 8f 50 3f f7 fa c6 be e3 36 b0 3e 3b c5 8f 3d
       0.8146903 -0.38863346 0.34416875 0.070200406
000150 a9 ef 17 3c 38 3a cc bc d9 79 10 3d 4b 09 1c 3e
       0.009273448 -0.024930105 0.035272453 0.1523792
000160 c9 4c 32 3e d7 bc 9e 3e 2d 9b 8c 3e 29 dc ad 3e
       0.17412104 0.31003448 0.2746214 0.3395703
000170 48 ab 27 3f 01 66 bb be 0f 26 a6 be bd 4c 8a bc
       0.6549573 -0.3660126 -0.3245091 -0.016882295
000180 28 0e 3f bd a8 ea 48 3e 11 1f 19 be 4a 2f cf bd
       -0.04664436 0.19620764 -0.14953257 -0.101164415
000190 e6 bc ca be c6 10 28 bd 72 af 66 3e 4e bd 74 bd
       -0.39597243 -0.04103162 0.22527865 -0.059750848
0001a0 92 f2 85 bc c6 38 55 3e 00 80 6c be f6 8f 9b be
       -0.016351018 0.20822439 -0.23095703 -0.3038327
0001b0 54 34 73 3e b9 dc 09 bf e3 df 8d 3e 86 c7 ee 3e
       0.2375043 -0.5385242 0.27709875 0.466366
0001c0 50 46 8a 3e 7b 32 cc bd bf 54 b7 3e 6f 0c 41 3e
       0.2700677 -0.09970566 0.35806844 0.188524
0001d0 00 9f 35 3e 76 16 36 3e 69 e6 e1 3d 0f 5e 7e 3d
       0.17736435 0.17782006 0.110302754 0.06210142
0001e0 af 68 dc be 55 65 a2 be 99 bb 86 bc ef ea 43 be
       -0.43048617 -0.31717935 -0.016446875 -0.19132589
0001f0 f0 96 70 be db 70 f9 3d 92 56 be bb 61 d7 f7 3d
       -0.23495078 0.121797286 -0.00580866 0.12101627
000200 46 d2 b2 be f5 1f ae 3c 15 e6 e3 3d d1 1e 4d be
       -0.3492605 0.021255473 0.11127869 -0.20031287
000210 49 5c de be 34 a7 bc 3e a7 f7 12 3e 88 99 e9 be
       -0.43429783 0.36846316 0.14352284 -0.45624948
000220 50 00 d1 be e9 cd 3f bd 8a 19 64 bd 6d e0 35 be
       -0.4082055 -0.04682723 -0.05568842 -0.17761393
000230 ee 05 90 bd e8 9e ed 3d f6 8f 96 be de d0 fd bd
       -0.07032381 0.116025746 -0.29406708 -0.12393354
000240 4c 16 1b be b0 8b 94 be 08 be 49 bf d8 fc d2 3d
       -0.15145224 -0.29012823 -0.7880559 0.10302132
000250 76 82 3a be 9b a3 9d bd c4 40 de be 79 2d 41 be
       -0.1821383 -0.07697221 -0.43408787 -0.18865003
000260 9c c7 00 bf 12 8c ca be 95 42 65 be f3 05 d0 bd
       -0.5030458 -0.3955999 -0.2238868 -0.10157385
000270 7f 42 8b 3b 3a 8e b3 be 6e f1 e2 3e 00 46 97 be
       0.0042498703 -0.35069448 0.4432482 -0.29545593
000280 16 b1 84 be 66 bb 5c be f4 51 03 3d c6 33 86 3d
       -0.25916356 -0.21555862 0.03206058 0.06552844
000290 cc 10 fc be 6f 52 83 be 1a a2 a7 be 9a ed 07 3f
       -0.49231565 -0.2564883 -0.3274086 0.53096926
0002a0 7c bc e2 be 1f af de bd a3 eb c8 3c 33 20 a1 bd
       -0.44284427 -0.108732454 0.024526423 -0.0786747
0002b0 06 ea 60 be 28 60 5b 3e c5 26 73 3d 35 a1 3e be
       -0.21964273 0.214234 0.059363145 -0.18616183
0002c0 57 a8 88 3c 1e 1a a5 be 39 ed a4 be 61 77 f2 be
       0.016681833 -0.32246488 -0.32212237 -0.47356704
0002d0 d9 0d b0 3d c9 26 26 bd 06 e6 7b be 97 78 66 bf
       0.08596391 -0.040564332 -0.24599466 -0.90027755
0002e0 9d 8c c3 bd 46 a4 1f be 45 95 3e 3d 49 01 d5 bc
       -0.09548304 -0.15590009 0.046529073 -0.02600159
0002f0 38 8c 9b 3e 91 e0 a3 bd 28 8e 10 be c0 72 b6 bd
       0.30380416 -0.08001817 -0.14116728 -0.089086056
000300 8b 43 8d be 6f fe 9f 3d ff 39 8b 3e cd 2e 26 3e
       -0.27590594 0.07812201 0.27192685 0.1622879
000310 55 47 2b 3d b2 31 af bc c1 7b db 3e f1 68 39 be
       0.041816074 -0.021386001 0.42867854 -0.18106438
000320 61 70 71 be 8b 17 29 be ea c5 88 be 31 0a 34 be
       -0.23578025 -0.16512887 -0.26713496 -0.17582013
000330 cb d6 98 be 92 c2 01 3e 16 4c 7c be 18 04 9f 3e
       -0.29851374 0.12671879 -0.246384 0.3105781
000340 06 52 4c bf 09 a8 ba 3e 9f 41 af be e9 0f 9e bd
       -0.7981266 0.36456326 -0.34229752 -0.07717878
000350 e6 86 ef 3a 67 ce 9a bb a5 66 1a bd d3 3a 1b be
       0.0018274456 -0.004724312 -0.037695546 -0.15159158
000360 fd 6e 4e be f4 a0 a3 be 6f 1e 8e be 45 b1 a1 be
       -0.20159526 -0.31958735 -0.27757594 -0.31580558
000370 e5 37 24 bf 43 7c c0 3e b6 47 a7 3e a3 7a 41 3b
       -0.6414779 0.37594804 0.326719 0.002952256
000380 12 bd 4c 3d d9 08 46 be c9 4a 01 3e 44 f5 b3 3d
       0.049985 -0.19339313 0.12626185 0.08787015
000390 73 ce c7 3e 28 4e 3e 3c 5b ff 6b be ff cf 93 3d
       0.39024696 0.011615314 -0.23046629 0.072174065
0003a0 a1 66 5f 3c b0 8f 5d be fd 37 69 3e 8e 5e 97 3e
       0.0136353085 -0.21636844 0.22775264 0.29564327
0003b0 40 28 6a be 2a 5a 08 3f d5 a7 92 be f5 65 ec be
       -0.22866917 0.5326258 -0.2864367 -0.46171537
0003c0 5c 3e 90 be a2 1c cc 3d be 14 bb be 7b 3d 3c be
       -0.28172576 0.09966399 -0.36539263 -0.18382828
0003d0 17 72 3e be 58 c9 49 be 9d 10 01 be 4b 24 a0 bd
       -0.1859821 -0.19705713 -0.12603994 -0.07819422
0003e0 5e d0 d6 3e fb 4e b0 3e 15 61 56 3c b1 0c 37 3e
       0.41955847 0.34435257 0.01308467 0.17875935
0003f0 80 0c 64 3e 44 c7 fc bd d6 1d 5d 39 a2 07 e0 bd
       0.22270393 -0.123426944 0.00021087317 -0.10938956

network_body._body_endoder.seq_layers.0.bias f4 [128]
000000 a2 f4 c1 3d b4 fd d1 bd e3 0f 90 3c f8 16 08 3e
       0.09470488 -0.10253468 0.0175857 0.13290012
000010 7a 24 93 bc eb 72 c1 bd 44 c9 fe bd 4e 41 24 bd
       -0.01796173 -0.09445747 -0.12440732 -0.040101342
000020 1b 05 e2 bd d7 6f 75 3c c8 45 4d be bd c2 d5 3c
       -0.1103613 0.014980278 -0.2004615 0.026093835
000030 26 da 39 be 65 30 ea bc a2 7d 03 be 12 16 d2 be
       -0.18149623 -0.02858753 -0.12840894 -0.41032463
000040 a1 65 ec bc 84 0d 52 3d 5c 20 a7 bd 4c a5 2f be
       -0.028857054 0.05128242 -0.08160469 -0.171529
000050 5e 3f 2d be ff 91 f1 be 35 64 bd be 7b 06 b6 bd
       -0.16918704 -0.471817 -0.36990514 -0.08887955
000060 ff 80 13 3e 73 aa 69 bc 4f 4f c0 bd 71 d0 dd 3d
       0.14404677 -0.01426183 -0.09390127 0.10830773
000070 b9 67 a9 bd 72 04 34 bd 12 4a 9c 3d 02 9a f5 be
       -0.08271737 -0.043949552 0.07631315 -0.4796906
000080 e6 2c 8c bc 11 26 c2 be a0 88 3f be 23 6c 48 be
       -0.017111253 -0.37919667 -0.18704462 -0.19572501
000090 82 53 7e be 93 4d aa bd c8 6a 0b bd 1f f4 b4 3d
       -0.24836543 -0.08315577 -0.03403738 0.08835625
0000a0 24 99 a0 be 25 da 14 be cb 8c b3 bd da 75 f9 bd
       -0.31366837 -0.1453634 -0.087670885 -0.121806815
0000b0 f7 ed 32 be 9f 5d 81 be 73 11 80 bd 1c cc 48 bd
       -0.17473589 -0.2526674 -0.06253328 -0.04902278
0000c0 e5 fa 03 be a1 48 98 bc cd 4c 44 bd 5f a5 c8 be
       -0.12888677 -0.01858932 -0.047924805 -0.39188668
0000d0 84 61 0c be 9b 80 1a be 0d d9 ae bd 56 e6 e8 bd
       -0.13709074 -0.15088122 -0.08537493 -0.11372058
0000e0 75 a7 4a bd 6b f3 c7 3c 17 69 80 bd 8f a5 24 3d
       -0.049476106 0.024408063 -0.06270044 0.04019695
0000f0 e8 2d 7b 3c 3f 51 85 be 6a 6c 7c bd a1 ff 9f bd
       0.015330769 -0.26038548 -0.06162683 -0.07812429
000100 22 99 17 be d5 3e 26 be 31 26 d2 bd a5 af a0 bd
       -0.1480451 -0.16234906 -0.10261191 -0.078460015
000110 14 59 20 be e7 4b af 3c a7 ac cc bd 7b d5 4e bd
       -0.1565898 0.021398498 -0.09993868 -0.05049656
000120 0a 4c c4 bd 4e c1 54 be c2 77 75 3d e2 99 02 be
       -0.09584816 -0.20776865 0.059928663 -0.12754014
000130 56 48 df 3c a5 fd 23 be e7 37 c4 bd 6b 54 20 3c
       0.027256172 -0.16014726 -0.09580975 0.009785752
000140 57 da f5 bd ac 04 e5 bc e5 70 73 be b0 ee 84 bd
       -0.12004536 -0.02795633 -0.23773535 -0.064908385
000150 1e 5a a7 3d 16 aa d0 bd 6a c1 19 be 85 cc a3 bd
       0.08171485 -0.10188691 -0.15015188 -0.079979934
000160 d7 19 6e be c3 7c c5 bd d6 fa b9 bd 90 61 ae bd
       -0.23252045 -0.09642937 -0.09081046 -0.08514702
000170 23 63 0f be af 41 9a be f4 04 87 3d a0 69 09 bf
       -0.14002661 -0.30128238 0.065927416 -0.53676796
000180 c1 4a d7 bd d7 25 0a bd 32 f2 af 3d d0 83 4d bd
       -0.10512305 -0.033727493 0.08591117 -0.050174534
000190 ff 67 ad bd 72 1c d1 bd c8 7d 1e bd f1 31 d3 be
       -0.08467101 -0.10210504 -0.038694173 -0.4124904
0001a0 cc 33 a4 bd a9 24 3d be 25 e8 c1 3d 2c db 26 bd
       -0.08017692 -0.18471016 0.09468106 -0.040736362
0001b0 ea 7c ca bd df 9a 0d bd 50 ce c1 bd de f7 f2 bd
       -0.09887107 -0.034571525 -0.09463179 -0.11863683
0001c0 c7 81 60 be 8a 69 07 be 40 f9 1d 3e a1 5e 46 be
       -0.21924506 -0.13223854 0.15427113 -0.19372036
0001d0 92 e8 05 bc b6 91 b1 be 82 50 2a bc 56 42 f8 3b
       -0.008173125 -0.3468148 -0.010395171 0.0075762672
0001e0 dc 54 79 b9 8c 1a 40 3d c8 af 2e be ac 79 89 3d
       -0.00023778103 0.046900317 -0.17059243 0.0671266
0001f0 5b 53 37 be 39 00 03 be 5a b5 6d 3c ed fa 15 3d
       -0.17902891 -0.12793054 0.01450857 0.036616255

network_body._body_endoder.seq_layers.0.weight f4 [128, 26]
000000 d0 5a 7a be 6b a6 20 3f a5 b4 c8 3e 26 e1 24 3e
       -0.24448705 0.62753934 0.3920032 0.16101512
000010 c9 87 0d 3e 00 5e c9 be c0 94 e4 bd 80 b5 4d bf
       0.13821329 -0.3932953 -0.11161184 -0.8035507
000020 a5 9c b6 3e b4 fe 03 be 38 0d 95 bc fc 2e 24 3f
       0.35666385 -0.1289013 -0.01819478 0.6413419
000030 be 8d 87 3e 62 5a 0f 3e 44 80 d6 3e ba 0e 22 3f
       0.26475328 0.13999322 0.41894734 0.6330372
000040 cc 68 a1 3c 74 72 b2 3e f1 e9 19 3c c1 79 cf 3d
       0.019703291 0.34852946 0.009394155 0.101306446
000050 1e b8 3d bf 2d 36 0a 3f fb 5a 52 3d 56 63 14 3d
       -0.74109066 0.53988916 0.051356297 0.036227547
000060 27 ff c4 3e 94 ab 02 bd 0a cb 2a 3e 5c 8a 2d 3e
       0.38475916 -0.03190191 0.16679016 0.16947311
000070 32 3f de 3e f2 96 a1 bd 70 4c a5 bd 8c 0c 52 be
       0.4340759 -0.07890119 -0.0807122 -0.20512599
000080 16 46 46 3d 5c fa 8b be c2 05 17 3d 1a 4e 2f 3e
       0.048406683 -0.27339447 0.036870725 0.17119637
000090 d3 a3 bd 3d 4a 84 bb bc 88 dc 34 bd 27 b4 62 3e
       0.092597626 -0.022890229 -0.044155627 0.22139035
0000a0 bc bf 3c be dd 70 c8 3e 42 48 97 bc af ab a9 be
       -0.18432516 0.39148608 -0.018467072 -0.33138797
0000b0 4d 1d aa be 71 43 51 3e 75 1e 01 bf db a7 bd 3e
       -0.3322548 0.20435883 -0.504371 0.37042126
0000c0 a0 eb 6e 3d eb 25 01 bf 4b b6 17 bc f2 66 a8 3c
       0.05833018 -0.50448483 -0.009259771 0.0205569
0000d0 65 82 0e bf fb 5b 22 bd 71 20 99 be 75 f6 a6 3d
       -0.55667716 -0.0396385 -0.29907563 0.08152477
0000e0 68 1e c4 3e 85 64 4a 3e 3c 82 33 3d 66 8b 76 bd
       0.38304448 0.19764908 0.043825373 -0.060191534
0000f0 5c 9d d0 3d 0e 4d 52 bd e9 05 37 bc 77 da 21 bd
       0.10186264 -0.051343016 -0.011170843 -0.039514985
000100 26 d9 d8 bd e5 76 13 be af 23 3d 3e 2d fe 5e be
       -0.10588293 -0.14400823 0.18470643 -0.21776648
000110 20 26 9c be fe 2b 97 bd 7f 09 5f 3e 70 56 3a 3d
       -0.30497837 -0.07381438 0.21780966 0.04549259
000120 65 f8 7a bc 79 0a 96 bc e6 cd 03 bf 1e 4f ef 3d
       -0.015318011 -0.01831554 -0.5148605 0.11685012
000130 58 95 61 3d b4 f9 3d 3d 69 95 d7 3e bc 85 08 3e
       0.055074066 0.046380714 0.42106178 0.13332266
000140 63 27 08 3f 2c ca 59 be c4 1d d1 3d 2c f8 32 3d
       0.531851 -0.21268529 0.102107555 0.043693706
000150 d3 bc 32 3e 83 bb 3e bf ae 63 96 3e 10 87 76 3e
       0.17454843 -0.7450487 0.29372925 0.2407496
000160 9e 7c ac 3d 7c 5e e3 3d 8a 0e d8 3e f4 d3 5d bd
       0.08422206 0.11102006 0.42198592 -0.054157212
000170 1f 14 1d 3f ec 83 b2 3e fe b6 77 be 66 fd 1d 3e
       0.6135883 0.34866273 -0.241909 0.15428695
000180 fa 25 cf bd 6b cf 7d bc 26 04 e1 bd 34 4b 0e 3f
       -0.10114665 -0.015491347 -0.109871194 0.555835
000190 d9 92 96 3d 03 4c 3f 3d 1f a6 17 3e a4 c0 70 3d
       0.07352228 0.04670335 0.14809464 0.058777466
0001a0 8e 47 32 3e 58 cb a9 bd 9a b3 c8 be 24 ae 69 be
       0.17410108 -0.08290738 -0.39199525 -0.22820336
0001b0 7d 33 35 be 43 ae ea bc ab 73 0f 3d 72 d1 31 3d
       -0.17695422 -0.028647548 0.03502242 0.043412633
0001c0 43 67 8e 3d 28 e4 52 bd e5 9b b1 be 8b 78 91 be
       0.06953289 -0.051487118 -0.3468925 -0.2841228
0001d0 74 49 89 be 6d 57 2e be b8 f8 48 bd 8f fe ff bd
       -0.26813853 -0.17025538 -0.04906532 -0.12499725
0001e0 e0 60 c8 be 65 b0 40 bd 5f 84 59 3e e3 7a 9d 3c
       -0.3913641 -0.047043223 0.21241902 0.019223636
0001f0 d6 a8 32 3e a8 14 22 bd 29 f1 1b be b0 fb 3e bc
       0.17447218 -0.03957048 -0.15228714 -0.011656687
000200 89 74 94 be 2d 80 53 3e 53 ca 15 3d 9b 18 d5 3e
       -0.2899516 0.20654364 0.036569905 0.41620335
000210 ff 04 5f 3e 34 ed 40 3e d1 ab 8e bd 73 08 ed 3d
       0.2177925 0.18840486 -0.06966365 0.11573877
000220 9b 00 66 be cf 82 9d be 33 a6 dc 3e fc 60 b8 bc
       -0.22461168 -0.30763862 0.4309555 -0.022507183
000230 f9 16 6b 3e 30 ef 13 3f de 99 33 be 8d ee 86 3e
       0.22957982 0.57786846 -0.17539164 0.26353875
000240 90 9f 59 3e 78 72 b5 3e 13 c5 7b 3e 31 68 29 3e
       0.21252275 0.35438895 0.24586897 0.16543652
000250 8b 30 47 3d 30 58 c8 bd c5 77 3a bf 17 8a 18 bd
       0.04863028 -0.097824454 -0.72839004 -0.037241068
000260 71 4c 8d be 02 0c 93 3e e8 9d 80 3e b5 ae b6 3d
       -0.27597383 0.287201 0.25120473 0.089200415
000270 e0 3a dd bd e4 17 4e 3f 1f 0e 63 3d dc 30 31 bd
       -0.10802245 0.80505204 0.05543339 -0.043259487
000280 8a a0 3f be 83 b6 41 bd b1 d9 84 3e a3 d5 6a be
       -0.18713585 -0.047293197 0.25947335 -0.22933058
000290 a9 a0 d1 be 05 5e 9b be 24 3f 14 bc f9 d7 c4 be
       -0.40942886 -0.3034517 -0.009048257 -0.38446024
0002a0 02 6f c2 3e 14 e2 c2 3d 89 e1 d0 3e 12 1f ed be
       0.37975317 0.09515777 0.4079707 -0.46312767
0002b0 75 18 0a bc cf 46 15 be 97 ae 28 3d e0 62 f5 3b
       -0.008428683 -0.14577793 0.041182127 0.0074885935
0002c0 f8 fd b3 bd 3f f4 00 bd 92 87 51 be 1e f6 83 be
       -0.08788675 -0.03148293 -0.20461872 -0.2577371
0002d0 a1 de 40 3c 07 36 c8 3c 6f 3a a8 3c b3 0b 8d be
       0.011771829 0.024439825 0.020535676 -0.27547988
0002e0 4f 99 9c 3e 91 83 82 be 00 8d 95 be 4d 82 a0 3e
       0.30585715 -0.25491002 -0.29209137 0.31349412
0002f0 fa 15 68 be 53 9a c3 be 4a 3a 2f 3e a8 2a 0e 3e
       -0.22664633 -0.38203678 0.1711208 0.1388346
000300 72 e4 b5 be 7d 60 cc 3c bc d7 33 3e a7 ec 9c bd
       -0.35525852 0.024948353 0.17562765 -0.07662325
000310 97 45 13 be 32 e5 47 be c4 fa 50 be 19 24 1c 3e
       -0.14382015 -0.19521025 -0.2040816 0.15248145
000320 49 4c 50 3e 32 00 5b be af 94 d0 be 6f 3d a8 3e
       0.203416 -0.21386793 -0.40738437 0.3285937
000330 e2 2d 49 3e 5b 16 e1 be a8 0c 4a bd 12 f6 28 be
       0.19646409 -0.43962368 -0.049328476 -0.16500118
000340 71 f1 42 3e 5c 53 0c bf 52 7b f0 3c 50 1c 0f 3e
       0.19037415 -0.54814696 0.029355679 0.13975644
000350 0d 1b d1 be ac 4d 7a be df c9 92 3e 56 21 22 3e
       -0.4084095 -0.24443692 0.2866964 0.15833029
000360 0a 90 8e be 16 90 5b 3c 46 74 df be 07 4c 9b 3e
       -0.27844268 0.013401052 -0.43643397 0.30331442
000370 4b b0 01 3f 3c e0 47 bd c5 b5 76 be d7 cd 2d 3e
       0.50659627 -0.04879783 -0.24092777 0.16973053
000380 8e 55 51 3e b5 17 85 3d fb 89 5e be 4d a1 b9 bd
       0.20442793 0.064986624 -0.21732323 -0.09063969
000390 e2 90 25 3e 6a 63 a3 be cb 79 95 3d 3f 59 c1 be
       0.1616855 -0.31911784 0.07298621 -0.37763402
0003a0 ef 91 60 3e e8 bd af 3e b3 01 e2 be 65 95 7c bd
       0.21930669 0.34324574 -0.4414192 -0.06166591
0003b0 90 17 9f 3e 1a a4 ce 3e 03 a6 1c be 8e 6e f7 bb
       0.31072664 0.40359575 -0.15297703 -0.007551021
0003c0 81 b9 7f 3d 29 7e 2b bf dc 12 3c 3f c5 1c ee bd
       0.06243277 -0.6698938 0.7346628 -0.11626581
0003d0 75 2e 92 3e 4c f6 04 3f 5e c8 7a 3e 7e d2 7f 3e
       0.2855107 0.5193832 0.24490497 0.2498264
0003e0 59 36 af 3e 37 05 94 3c dc ba 21 3e 62 21 d1 3a
       0.3422115 0.018068893 0.15793937 0.0015955383
0003f0 37 b9 b6 bc 99 95 29 bd 82 96 e4 be ac dd 26 3f
       -0.022305114 -0.041402433 -0.44646078 0.65181994

network_body._body_endoder.seq_layers.2.bias f4 [128]
000000 47 ff 1d bf 83 9f 6b be a9 d9 48 be fe e7 09 bf
       -0.6171765 -0.23010068 -0.19614281 -0.53869617
000010 fc a3 45 be 27 ff ac be e8 75 be bd de 02 75 bf
       -0.19300836 -0.33788416 -0.092998326 -0.957075
000020 5d 44 37 bf 12 1e df be c1 85 10 bf 86 68 9e bd
       -0.7158869 -0.4357763 -0.5645409 -0.0773478
000030 07 40 26 be 97 28 25 be fb 5c 5c bf 33 56 22 bf
       -0.16235362 -0.16128765 -0.86079377 -0.6341278
000040 db 33 20 bf 49 42 3d bf 07 ae 68 be 57 07 47 be
       -0.62579125 -0.7392927 -0.22722636 -0.19436394
000050 b9 3d 42 bf 54 f8 4a 3c 01 2b 56 bf 0e d9 d1 bd
       -0.7587543 0.012388308 -0.8365937 -0.10246478
000060 b3 ce 34 bf bc 61 4e bf 97 de 4f bf 77 9d cc be
       -0.706279 -0.8061788 -0.8119902 -0.39963886
000070 10 2d c2 be 43 c8 51 bf 5b cc a0 be 00 52 64 bf
       -0.37925005 -0.819462 -0.3140591 -0.8918762
000080 ed ef 74 bf b8 50 7d bf 1a 2a 5a be 73 8f 0b be
       -0.956786 -0.9895129 -0.21305123 -0.1362894
000090 5d 2c 0b bf 59 c3 19 bf 03 98 5f bf c2 fb 57 be
       -0.5436457 -0.600637 -0.87341326 -0.21092132
0000a0 06 34 3c bf e8 bd f1 be de 53 5b be 10 5b 10 bf
       -0.7351688 -0.472152 -0.21418712 -0.5638895
0000b0 1c ef 34 bf 07 5c 3d be 41 fe 8a be 7c d7 53 bf
       -0.7067735 -0.18492137 -0.27147105 -0.8275068
0000c0 2b f4 0c bf c2 d7 6e bf 54 5f 5d bf 69 f2 0c bf
       -0.5506007 -0.9329797 -0.86473584 -0.5505739
0000d0 16 b2 31 be b1 ea 1a bf a9 51 3e bf 0d 23 d4 bd
       -0.1735309 -0.6051436 -0.74343354 -0.10358248
0000e0 f2 e4 1d bf 62 6b 66 bf 84 ca a3 be 9a 01 5a bf
       -0.6167747 -0.90007603 -0.31990445 -0.85158694
0000f0 fe f9 52 be ca 17 de bd 48 5c 11 be 88 a0 91 be
       -0.20603177 -0.10844381 -0.14195359 -0.28442788
000100 e9 ca 31 bd 5f 09 89 be 8c 84 da 3b ce fb 3e be
       -0.0434064 -0.26764962 0.006668633 -0.18650743
000110 4d b1 27 be 15 da 15 bf 82 94 1f be 64 32 e5 be
       -0.16376229 -0.5853589 -0.15583995 -0.44765007
000120 6e ce 85 bf e7 d0 76 bf 47 1f 39 bf 15 41 e5 bd
       -1.0453622 -0.9641251 -0.7231335 -0.11194054
000130 c6 39 49 bf bf 45 91 bd c8 5b 56 bf 36 76 25 be
       -0.7860378 -0.07093381 -0.837338 -0.16158375
000140 58 42 ff bd 70 3a a2 be 68 93 76 bf 8a 0a 2b bf
       -0.12463826 -0.3168521 -0.96318674 -0.66812956
000150 ff c0 51 bf 39 96 de be 87 bb 90 be f7 e0 98 bd
       -0.81935114 -0.43473986 -0.28268072 -0.07464784
000160 eb 50 57 3c 0b b1 36 bf 9f 8a 3b bf 5a ca 40 bf
       0.013141851 -0.71363896 -0.73258394 -0.75308764
000170 3f f7 64 be 0b 1a 7b be f0 55 40 be 00 80 ee be
       -0.22359942 -0.24521653 -0.18782783 -0.4658203
000180 05 3f c7 be f7 9f 1d bf 6f ea 40 be 23 53 3f bf
       -0.38915268 -0.6157221 -0.1883943 -0.7473623
000190 f3 45 9b be 43 43 ee be 16 0d 41 bf d1 63 98 bd
       -0.30326805 -0.46535692 -0.7541059 -0.074409135
0001a0 2e 61 47 be 2d 99 66 be a1 89 8f be 0a a3 85 be
       -0.19470665 -0.2251937 -0.2803469 -0.2610095
0001b0 ba da 4c bf f1 f6 b6 3c 45 b4 67 bf 5e 61 3d be
       -0.8002125 0.022334548 -0.90509444 -0.18494174
0001c0 d3 f8 80 bf b9 6e 53 bd 41 49 a0 be fc 20 53 bd
       -1.0075935 -0.051619265 -0.31305888 -0.05154513
0001d0 49 6f d6 be 10 2c 6c bf d0 75 41 be e4 f1 8b be
       -0.4188178 -0.92254734 -0.18892598 -0.27332985
0001e0 29 a4 2c be 0c 12 53 be 73 87 e4 bd 7a 4b 9d be
       -0.16859497 -0.20612353 -0.111586474 -0.30721647
0001f0 6d 67 20 be e8 f1 04 bf ae 56 1c be 1e e6 65 bf
       -0.15664454 -0.5193162 -0.1526744 -0.89804256

network_body._body_endoder.seq_layers.2.weight f4 [128, 128]
000000 a1 c2 e2 be 70 53 0e 3f 79 c8 31 3e 1c 66 eb be
       -0.44289115 0.55596066 0.1736163 -0.4597634
000010 3f d0 14 bf af eb 36 bf 16 3d a0 be 33 66 62 bd
       -0.5813026 -0.71453375 -0.31296605 -0.055273246
000020 5a 22 7b 3e e3 f7 8c be 95 46 ff 3e 6f 63 e6 be
       0.24524823 -0.27532873 0.49858537 -0.44997737
000030 07 c3 84 be 5d 1d 01 be 8b 04 fd 3e b8 1f b8 3e
       -0.25930044 -0.12608857 0.4941753 0.359617
000040 e7 05 c0 bd e7 5a 41 ba 04 6a 10 3f b5 c1 b2 3e
       -0.09376126 -0.0007375911 0.56411767 0.34913412
000050 1f f4 aa 3e 4f c4 ce 3e c5 81 15 3e 6c bc 1f 3f
       0.33389375 0.40384147 0.14600284 0.62396884
000060 9c 57 8d 3e 57 6c 77 bf 22 d7 02 3e 0f b8 b9 be
       0.27605903 -0.9664969 0.12777379 -0.36273238
000070 aa c6 ce 3e 3f 90 97 3e 2a 76 3f bf d6 1f 1c 3f
       0.40385944 0.2960224 -0.7478968 0.6098608
000080 71 86 91 be a9 b2 07 3f d6 8b 65 3f 73 29 17 bf
       -0.28422883 0.5300699 0.896665 -0.5904762
000090 5f 92 12 3f b5 79 05 bf 0c bd 45 bf 37 c8 52 bf
       0.57254595 -0.52138835 -0.7724159 -0.82336754
0000a0 fd ea 3b 3e 06 ba bb be 3c 68 06 bf 1d a8 e0 be
       0.1835136 -0.36665362 -0.525028 -0.4387826
0000b0 6e bc 17 3f a0 de 83 be c9 65 29 bf e8 47 0d 3f
       0.59271896 -0.25755787 -0.66170937 0.55187845
0000c0 94 1a 73 be cc e3 bc be ac 71 78 3e 49 52 b0 3e
       -0.23740608 -0.36892545 0.24262112 0.3443778
0000d0 4c 6a bc be d7 5d 16 3e 1a ad 39 bf 87 65 61 be
       -0.36799848 0.14684235 -0.7252976 -0.22011386
0000e0 24 54 81 bd 6f 8e a4 3e cd f2 14 3d 68 bc 96 be
       -0.06314877 0.32139918 0.036364365 -0.29440618
0000f0 3e 37 eb be 15 d9 29 be 76 ed 83 3d 01 86 df 3d
       -0.45940584 -0.16586716 0.064417765 0.10914231
000100 a0 8a fd 3e dd ae 09 3f fa 55 ac 3e 2a 14 8b be
       0.49519825 0.53782445 0.33659345 -0.2716382
000110 5a ca e5 be e7 08 a2 be b9 26 20 3f 7e f0 9b be
       -0.44880944 -0.31647417 0.62559086 -0.30456918
000120 88 eb 4d be e1 4e 46 bf 04 46 bf be 45 46 fd 3e
       -0.2010938 -0.7746411 -0.37358105 0.49467674
000130 78 72 98 be 9e 13 95 3c 00 2a bb be a8 bb 3c bf
       -0.29774833 0.01819783 -0.3655548 -0.7372384
000140 5b 29 06 3f a5 e6 e1 3e 95 6e 35 3f 70 b4 89 3e
       0.52406853 0.4412128 0.7087186 0.26895475
000150 8f 35 04 3f 89 c3 9b bd 46 39 84 bd de 7d ef be
       0.51644224 -0.07605655 -0.064562365 -0.46775717
000160 6e c6 1e be 2b 60 13 bf eb ee 15 3f 38 40 f4 be
       -0.15505382 -0.57568616 0.58567685 -0.47705245
000170 2b f3 1b bf c2 3b 22 3f 32 73 e4 3e fc a9 f6 3e
       -0.6091792 0.63372433 0.44619137 0.48176563
000180 8d 19 10 be 0f ab e7 3e d2 80 ec be 24 92 e2 3e
       -0.14072247 0.45247695 -0.46192032 0.4425212
000190 b6 c3 a8 be 26 6e 13 be 26 6c 30 be 8f ad 0c 3f
       -0.32961816 -0.14397487 -0.17228755 0.5495233
0001a0 a1 ce 9b 3e 43 24 e3 bd d6 8e 57 be e9 af 4c 3e
       0.30431083 -0.11090901 -0.21050581 0.1998898
0001b0 5a 46 1a bf 8e a5 8e 3e ae 16 bf be 54 f6 21 be
       -0.602636 0.27860683 -0.3732199 -0.15816623
0001c0 07 ec 30 3e 26 69 25 3f e4 6f c4 3e c0 0b 09 3f
       0.17277537 0.6461357 0.38366616 0.53533554
0001d0 83 f0 47 bf 11 60 fd 3e 50 04 b0 be 66 dc 84 3e
       -0.78101367 0.49487355 -0.3437829 0.259494
0001e0 97 06 b9 3d 3d 96 36 3e 8a d3 94 be 3f ed 08 bf
       0.0903446 0.17830749 -0.29067641 -0.5348701
0001f0 64 db 11 be 8b 45 0f 3f d6 8b d4 be 00 1e 65 bf
       -0.14243847 0.5596549 -0.41512936 -0.894989
000200 7a b5 cb bc 35 4c 24 be b6 c2 18 3e 59 90 2e 3e
       -0.024866808 -0.16044696 0.14918026 0.17047252
000210 ae 2d d1 be 75 89 a8 3d b0 b0 13 3e d1 ce ef 3d
       -0.40855163 0.08229343 0.1442287 0.11709369
000220 4b 50 cd 3d 36 6a f0 3d 46 79 ff 3c b5 40 33 be
       0.1002508 0.11739008 0.031185757 -0.17505153
000230 c2 03 d3 bb e4 02 61 3d f0 4e 1f be 0d 27 b8 bd
       -0.006439657 0.054934397 -0.15557456 -0.08991823
000240 c5 d6 0f 3e 24 95 d3 bd 02 67 40 be da b5 2f 3e
       0.14046772 -0.10331181 -0.18789294 0.17159215
000250 71 0a dc bd f2 24 41 be 74 d6 09 3e cd 1e 2c 3d
       -0.10744179 -0.1886175 0.13460714 0.04202156
000260 17 54 b8 3d fd 10 f0 bd 39 58 16 3e d4 40 ec 3d
       0.09000414 -0.1172199 0.14682092 0.115358025
000270 75 65 a0 3b ae 93 04 bd d1 af 5d be ca c1 cb bc
       0.004894907 -0.0323674 -0.216491 -0.02487268
000280 a7 c1 2e bc d4 d6 07 bd 90 b2 40 3e 4c 38 1c 3e
       -0.0106662875 -0.03316386 0.18818116 0.1525585
000290 27 f3 01 3c 75 fb 5c 3d 66 ed 31 bd f8 21 5e 3d
       0.007931507 0.053950746 -0.04343929 0.054231614
0002a0 69 fd 02 3d de 49 09 3e 8c da 54 bd 1e a0 d3 bc
       0.031979952 0.13407084 -0.051966235 -0.025833186
0002b0 e9 a1 fe bd 23 bf 4e bc 5b 24 22 bb 3f 96 51 bd
       -0.12433226 -0.012618813 -0.0024740908 -0.051168676
0002c0 40 2a d2 3d 84 3e 32 3e 99 21 80 bd a7 37 77 3d
       0.10261965 0.1740666 -0.06256408 0.06035581
0002d0 9d 79 04 be 20 42 83 3c 8c a1 d3 3d 42 99 91 bd
       -0.12937017 0.016022742 0.10333547 -0.0710931
0002e0 41 4a b1 3c f8 75 09 3e 08 db 27 3e 62 c1 d7 bd
       0.021641852 0.13423908 0.16392148 -0.10534932
0002f0 7d 46 48 3d 60 5c 48 3e 82 1d 9e bc 57 bd ba 3d
       0.048895348 0.19566488 -0.01930118 0.09118145
000300 37 3e f1 3d 9d 9c 80 3e ef ce 01 3d b9 35 c6 bb
       0.11779445 0.25119486 0.031691488 -0.0060488847
000310 97 5c 6c 3d ab 1e 56 bd dc 06 a6 3e 17 49 6a be
       0.057705488 -0.05227534 0.32427108 -0.22879444
000320 a0 2c 5a 3e 8c d1 b6 3d aa 2b 9b 3d 86 f2 11 3d
       0.21306086 0.08926687 0.07576688 0.03563168
000330 48 a6 76 3d db c6 65 3e 26 0c 7f 3e bc 34 99 be
       0.060217172 0.22439139 0.24906978 -0.29923046
000340 4c e1 a9 3e 27 36 81 3d 57 01 1a 3e 07 72 1f 3d
       0.331797 0.06309157 0.15039574 0.038927104
000350 2c 01 53 3e 16 b0 94 bc 58 3e 51 3c 0a 90 ba 3d
       0.20605916 -0.01815037 0.012771212 0.091095045
000360 e5 d8 4f bd 4f c2 88 3c be 19 af bb a1 56 8f bd
       -0.050743956 0.016694216 -0.005343645 -0.06998945
000370 40 d8 6b 3d 16 01 a6 bd de d3 51 bc 3b 0a 62 3d
       0.05757928 -0.08105676 -0.012806861 0.055185538
000380 ad a2 14 3e d6 bb 02 3e 91 db 17 3e 04 28 fa bd
       0.14515181 0.12766966 0.14829852 -0.122146636
000390 aa 27 f5 3d 72 c0 5a 3d 20 2e e5 3d 99 85 08 bd
       0.11970456 0.053406186 0.11190438 -0.033330534
0003a0 83 8f 17 3e 46 58 a3 3d 54 50 d1 3d 06 86 3f 3e
       0.14800839 0.07975821 0.102203995 0.1870347
0003b0 ab df 46 3d c3 90 a7 bd e4 b5 1f 3e fe 47 d4 3c
       0.04855315 -0.08181908 0.1559673 0.025913235
0003c0 36 ce 0f 3e 2c 0c 7f 3e 0f cc c7 3d 98 27 78 bc
       0.14043507 0.24906987 0.09755718 -0.015146159
0003d0 73 6a c0 3d 12 0c b4 3d f4 da 11 bd a9 ae 90 bd
       0.093953036 0.08791365 -0.0356092 -0.07064564
0003e0 e8 8d 61 bd 3f 25 bf 3d 71 71 18 bd 06 27 64 be
       -0.055066973 0.09333276 -0.03721756 -0.22280511
0003f0 52 3e a2 bc e4 0b d6 bc b1 52 a7 bd 6a e0 34 be
       -0.019805107 -0.026128717 -0.08170069 -0.17663732
