AIRocketLanding/results/2AIRocket1/AIRocket/AIRocket-91999950.pt (torch, 505935 bytes, 42 tensors)

network_body._body_endoder.seq_layers.0.weight f4 [128, 26]
-0.4477455 -0.10135487 0.26106182 0.056681626 -0.10354518 0.30820554 0.13739261 -0.07332393
-0.0613647 0.2779097 -0.5832 -0.1169229 -0.23917913 -0.44645917 0.014215912 0.21585777
-0.18378738 -0.5426912 0.41481784 0.11265068 -0.48139107 0.015742173 -0.040748473 -0.41066942
0.13232014 0.2231537 -0.13806829 0.40482566 0.6482069 -0.2905724 -0.5519534 -0.06046731
0.08168955 -0.039199553 -0.044734485 0.30656007 -0.75964034 0.26187515 -0.08912227 -0.12100563
0.28385144 0.7840096 -0.16365218 -0.18506739 0.05235226 -0.29093203 0.29443815 -0.21928121
0.48899466 -0.65607935 0.03774559 -0.13532737 -0.45072332 0.60512584 0.5071003 -0.2677185
-0.12892623 -0.0014059938 -0.11498228 -0.9047714 1.0130473 -0.45863062 0.45496807 0.10538031
-0.16749294 -0.35258996 0.4999919 0.02536093 -0.37639502 -0.23494269 0.098084114 0.10544912
-1.0066179 0.9740971 -0.107616864 0.36697528 0.13635176 0.10265028 -0.06667857 -0.03142988
-0.020949254 -0.113085315 -0.27277592 0.23462315 0.122062504 0.17989314 0.07319072 -0.011683538
0.309518 0.48672417 -0.05740745 0.03369896 0.11976743 0.20256476 -0.1832425 -0.039717868
0.45059505 -0.14815515 -0.073467396 0.041544225 0.22520506 0.46965808 0.025300395 -0.25107136
-0.16160046 0.3196425 0.2414709 -0.40748176 0.18601398 0.41447273 0.17579849 0.4599248
-0.4697854 0.14604841 -0.014203029 0.18405123 0.048866715 0.08242045 0.28024688 0.49182522
-0.31894982 -0.084446035 0.53009796 0.25935408 0.45892063 -0.6333932 0.12197966 0.21393116
0.012104466 0.1356615 -0.27569985 -0.3515619 0.39405715 -0.6310301 -0.4955438 0.27670577
-0.10490262 0.24779887 0.010626829 -0.030169066 0.30531898 -0.20129424 0.44087017 -0.1549348
0.010337155 0.3636856 -0.27557984 0.03289266 0.087766565 -0.051267494 -0.0148966 -0.017716274
-0.22169372 -0.22794066 -0.13284145 -0.15758497 0.9660945 0.37955347 -0.2274879 -0.44532615
-0.11746383 -0.12895423 -0.28014323 0.6501267 -0.444447 0.05393415 0.07804356 0.07360313
-0.19235234 0.2153458 -0.20343858 -0.20942242 0.16276088 0.009617597 -0.40924078 -0.18556727
0.38045987 -0.811775 -0.11051191 0.54456186 -0.33930966 -0.38426843 0.24884124 0.36470535
0.8277311 0.11128587 0.43252406 -0.5195878 0.44431698 0.47340915 -0.5675504 0.009858428
0.2672866 0.20340693 -0.5992488 0.37770143 0.69922745 0.3580845 0.41403332 0.082082614
-0.3226928 0.16203718 0.49507594 -0.37467366 -0.0034040017 0.17606981 -0.107992545 -1.028347
0.6734805 0.5219562 -0.26764268 0.35264134 0.16457759 -0.22346605 -0.15500015 -0.012365753
-0.05333246 0.45144022 -0.4767053 -0.7249275 -0.35807338 0.49932715 -0.19464284 -0.065245286
0.27216053 -0.14921986 -0.06039677 0.12620576 0.430592 -0.26268855 -0.14779313 -0.16542298
-0.45760533 -0.22660303 -0.011210407 -1.3734387 -0.17249641 -0.31615573 -0.51902795 0.7501389
0.4419049 0.30022863 -0.19470794 -1.0418504 -0.89547676 -0.11678172 -0.04244648 -0.21804605
-1.3989085 0.010973665 -0.6354523 -0.8371775 0.7822656 0.5679497 -0.18909694 -0.12867124
00000000: e63e e5be 2493 cfbd e5a9 853e fe2a 683d
00000010: 7f0f d4bd 1ecd 9d3e a6b0 0c3e db2a 96bd
00000020: 8d59 7bbd 2e4a 8e3e 984c 15bf 4675 efbd
00000030: 60eb 74be 4c96 e4be dbe9 683c d209 5d3e
00000040: c232 3cbe cfed 0abf 0163 d43e 66b5 e63d
00000050: e478 f6be bbf5 803c dfe7 26bd 4343 d2be
00000060: ee7e 073e 6782 643e c661 0dbe 4f45 cf3e
00000070: e3f0 253f e8c5 94be d14c 0dbf 92ac 77bd
00000080: da4c a73d b68f 20bd 823b 37bd 71f5 9c3e
00000090: ca77 42bf 8014 863e bd85 b6bd cdd1 f7bd
000000a0: fa54 913e dab4 483f 7094 27be 4e82 3dbe
000000b0: 536f 563d 0bf5 94be 99c0 963e 418b 60be
000000c0: 825d fa3e d1f4 27bf 1f9b 1a3d 4293 0abe
000000d0: 35c5 e6be 87e9 1a3f 53d1 013f 6612 89be
000000e0: 3d05 04be 5349 b8ba d47b ebbd 199f 67bf
000000f0: 89ab 813f a2d1 eabe 93f1 e83e a2d1 d73d
00000100: 4583 2bbe ac86 b4be f0fe ff3e bac1 cf3c
00000110: d9b6 c0be d194 70be 53e0 c83d b5f5 d73d
00000120: dbd8 80bf 6d5e 793f 3b66 dcbd 2fe4 bb3e
00000130: cc9f 0b3e 4f3a d23d c68e 88bd 9ebc 00bd
00000140: c59d abbc 4699 e7bd 49a9 8bbe 0d41 703e
00000150: e8fb f93d e835 383e 04e5 953d 4f6c 3fbc
00000160: 2579 9e3e e933 f93e 1324 6bbd ec07 0a3d
00000170: a048 f53d 236d 4f3e eca3 3bbe 34af 22bd
00000180: 65b4 e63e fcb5 17be 1376 96bd 472a 2a3d
00000190: 289c 663e 0677 f03e c642 cf3c 6d8c 80be
000001a0: 977a 25be 2fa8 a33e 2644 773e 73a1 d0be
000001b0: 737a 3e3e c535 d43e 8504 343e 437b eb3e
000001c0: b687 f0be b78d 153e d2b3 68bc ed77 3c3e
000001d0: 7728 483d 0ecc a83d 857c 8f3e 84d0 fb3e
000001e0: 644d a3be 0bf2 acbd 80b4 073f 0fca 843e
000001f0: a5f7 ea3e 0f26 22bf 79d0 f93d c510 5b3e
00000200: cf51 463c d9ea 0a3e 8828 8dbe ecff b3be
00000210: dcc1 c93e 308b 21bf ebb7 fdbe 61ac 8d3e
00000220: 2fd7 d6bd fdbe 7d3e 271c 2e3c 1e25 f7bc
00000230: c552 9c3e 1420 4ebe bcb9 e13e 3aa7 1ebe
00000240: 2c5d 293c 0035 ba3e cd18 8dbe 74ba 063d
00000250: f5be b33d ddfd 51bd de10 74bc b821 91bc
00000260: ae03 63be 4769 69be 9707 08be f45d 21be
00000270: f851 773f d554 c23e 97f2 68be ca01 e4be
00000280: e090 f0bd 940c 04be ef6e 8fbe b46e 263f
00000290: 8f8e e3be 0eea 5c3d 4dd5 9f3d 3dbd 963d
000002a0: 03f8 44be 9c83 5c3e 3452 50be d572 56be
000002b0: caaa 263e 2093 1d3c 0288 d1be 5905 3ebe
000002c0: a3cb c23e 7dd0 4fbf 1154 e2bd 6868 0b3f
000002d0: ffb9 adbe d5be c4be 3dd0 7e3e a9ba ba3e
000002e0: 2fe6 533f d9e9 e33d cb73 dd3e b503 05bf
000002f0: 847d e33e af62 f23e fc4a 11bf 3e85 213c
00000300: cad9 883e e849 503e 5f68 19bf 1562 c13e
00000310: 9200 333f da56 b73e 2dfc d33e ee1a a83d
00000320: fe37 a5be 13ed 253e 987a fd3e 3ad5 bfbe
00000330: ac15 5fbb a54b 343e 322b ddbd e0a0 83bf
00000340: 3869 2c3f ec9e 053f 7608 89be 688d b43e
00000350: 0787 283e 49d4 64be 5cb8 1ebe ba99 4abc
00000360: 2373 5abd 2c23 e73e b812 f4be d994 39bf
00000370: 6555 b7be cfa7 ff3e 7450 47be 529f 85bd
00000380: a058 8b3e 17cd 18be 9a62 77bd 153c 013e
00000390: 8e76 dc3e 1d7f 86be 1557 17be a464 29be
000003a0: 3f4b eabe a00a 68be dbab 37bc d7cc afbf
000003b0: e6a2 30be 2adf a1be 04df 04bf 1a09 403f
000003c0: 5c41 e23e 91b7 993e 8561 47be 5b5b 85bf
000003d0: f73d 65bf 412b efbd 5cdc 2dbd 7747 5fbe
000003e0: 6f0f b3bf e3ca 333c 00ad 22bf 4451 56bf
000003f0: 8f42 483f 2765 113f a1a2 41be 65c2 03be

network_body._body_endoder.seq_layers.0.bias f4 [128]
-0.20974146 -0.14385654 -0.27264217 -0.12977794 -0.19968146 -0.2749593 0.18780974 0.22814153
0.049555425 -0.5999681 -0.13166901 -0.18300979 -0.013289879 -0.016496774 0.07919219 0.019072952
0.1158109 -0.096924104 0.10987886 0.05112025 -0.14163122 -0.164715 -0.07768324 -0.15612172
0.080595694 -0.36623216 0.08946191 0.026784988 0.42289716 0.09012592 0.4266743 0.3882396
0.30063346 0.0025955613 0.001442382 -0.087565206 0.14926556 0.1850006 0.20826326 -0.22659345
0.34101233 -0.2139881 0.0061317985 0.16599576 0.21642299 0.37952536 -0.22730948 -0.3345128
0.15429908 0.029629791 0.1326533 0.16206999 0.033835597 -0.088655375 -0.24056222 0.010033883
-0.14385241 -0.20850441 0.05280885 0.06354041 0.003578965 0.09408605 0.1406399 0.38038364
-0.12908296 0.22795705 -0.047114898 0.28519496 -0.21350673 -0.015529925 -0.39751816 -0.2011385
-0.06391866 -0.088596195 -0.18480536 0.22831213 0.14777198 -0.24330793 -0.16047134 0.17011173
0.029237442 -0.3251112 -0.22074822 0.2772074 0.24993664 0.29391026 0.017396223 0.06733105
0.08950461 -0.22628014 0.25777358 0.22604856 0.24885646 -0.21026349 0.2754024 -0.036435895
-0.49252036 -0.015287637 0.24738446 -0.27598184 0.31821397 -0.31961095 0.1958419 0.08951887
-0.3907819 -0.2319162 0.4138634 0.3390234 -0.112631135 0.25800845 0.24564143 -0.18205664
0.2354249 0.3435579 -0.03584215 0.07131971 -0.2068927 0.13307756 0.12325401 0.1466656
0.13064966 0.12833215 -0.16896683 -0.3003062 -0.21189477 -0.18020612 0.121463954 -0.14335035
00000000: 77c6 56be 214f 13be c197 8bbe 82e4 04be
00000010: 4c79 4cbe 77c7 8cbe 3251 403e ef9d 693e
00000020: a1fa 4a3d 8297 19bf 3ed4 06be eb66 3bbe
00000030: cbbd 59bc 3e24 87bc 842f a23d e13e 9c3c
00000040: 442e ed3d 2580 c6bd 2b08 e13d 7863 513d
00000050: c607 11be 0dab 28be 6418 9fbd 5fde 1fbe
00000060: 5b0f a53d c882 bbbe ce37 b73d 316c db3c
00000070: fa85 d83e f093 b83d 0e75 da3e 57c7 c63e
00000080: a1ec 993e 4b1a 2a3b 4f0e bd3a 6355 b3bd
00000090: 12d9 183e cc70 3d3e f742 553e 1d08 68be
000000a0: 2b99 ae3e b21f 5bbe 41ed c83b cbfa 293e
000000b0: fd9d 5d3e 2651 c23e d1c3 68be 4345 abbe
000000c0: 9400 1e3e 2dba f23c 44d6 073e adf5 253e
000000d0: 3297 0a3d f390 b5bd f155 76be 2865 243c
000000e0: 0c4e 13be 2e82 55be 184e 583d 7921 823d
000000f0: 128d 6a3b 30b0 c03d e803 103e a5c1 c23e
00000100: 532e 04be 936d 693e 8dfb 40bd 1305 923e
00000110: 82a1 5abe 3a71 7ebc 8087 cbbe 40f7 4dbe
00000120: c9e7 82bd ec71 b5bd 9e3d 3dbe a8ca 693e
00000130: 8a51 173e b725 79be 9952 24be c531 2e3e
00000140: 5c83 ef3c fa74 a6be d20b 62be 21ee 8d3e
00000150: 64ef 7f3e 687b 963e 8682 8e3c dde4 893d
00000160: 314e b73d fbb5 67be e6fa 833e 4679 673e
00000170: 3ad4 7e3e 504f 57be 8b01 8d3e ce3d 15bd
00000180: a12b fcbe ff78 7abc 5a52 7d3e 7e4d 8dbe
00000190: f1ec a23e 0ca4 a3be c78a 483e ab55 b73d
000001a0: 9114 c8be 717b 6dbe e7e5 d33e 7a94 ad3e
000001b0: 27ab e6bd af19 843e 6d89 7b3e 0e6d 3abe
000001c0: 3a13 713e d2e6 af3e 38cf 12bd 1110 923d
000001d0: aedb 53be 7c45 083e 996c fc3d 822f 163e
000001e0: 06c9 053e 8169 033e a405 2dbe bcc1 99be
000001f0: f1fa 58be f487 38be 18c2 f83d 6fca 12be

network_body._body_endoder.seq_layers.2.weight f4 [128, 128]
-0.007968965 -0.4428617 -0.5635462 -0.7363498 -0.7342114 -0.11887321 0.1777142 -0.51357436
0.26036477 0.26164103 0.09202637 -0.22087203 -0.27897418 -0.65592426 -0.056642745 -0.75849557
0.36518627 -0.5336018 0.6598463 -0.45418295 -0.28748778 -0.21862172 -0.61489856 0.021817658
0.047258753 -0.41082072 -0.38378882 -0.17406552 0.43992743 -0.04528009 -0.022228794 -0.046598025
-0.009513183 0.26097926 0.14132763 0.09651276 0.31636164 -0.081327125 0.38752854 -0.6724174
-0.8918818 -0.34025273 0.5314196 -0.5024971 0.68841887 -1.064869 0.436531 -0.19223443
0.2780944 -0.41460374 0.2807913 0.3846238 0.58814037 -0.40726572 -0.49054438 -0.5482687
-0.073949985 -0.06815623 0.33115086 0.4738406 0.537642 0.7462435 0.2565094 -0.1562904
-0.45113188 -0.05661144 -0.2347433 -0.0695348 0.09259258 0.13141541 -0.06528866 -0.11509283
0.27653304 -0.23645934 -0.7274915 0.2167018 0.15741071 -0.22037688 0.19045685 0.13906904
-0.11889385 -0.27921048 -0.5631649 0.38069746 -0.081390485 0.23573387 0.21607761 -0.2839964
-0.8279422 -0.15500978 -0.23915105 0.12118141 0.43899164 -0.34039706 0.27789745 -0.32782176
0.2250635 0.13442068 0.4253753 -0.16836025 -0.35665792 -0.2449459 0.14983372 -0.13426302
-0.11504539 0.08867605 -0.41375884 0.13953453 -0.22464511 0.18848136 -0.2536949 -0.43340272
0.5274075 -0.29292524 -0.36008546 0.351908 -0.26000604 0.8190908 0.4903052 0.63493717
0.4204128 0.2817411 0.6837651 -0.45392343 0.060105003 -0.06113923 0.112512745 0.5120244
-0.100903414 0.0077785263 -0.31625578 0.20003621 -0.38245085 -0.19173813 0.020991182 0.19008586
-0.29399604 0.19689004 -0.16162063 -0.38150936 -0.1731905 -0.08263911 -0.014294578 -0.03749146
-0.24849802 -0.27092913 0.012277383 -0.058887284 0.0846655 0.20706804 0.18267092 -0.33390045
-0.23527108 -0.57483166 0.07937995 0.07120124 0.12300702 0.0900976 0.17918515 0.05628972
-0.33787003 -0.3524375 -0.5057637 0.0456958 -0.047820117 -0.1261361 -0.13231693 0.02927958
-0.14781691 -0.53964347 -0.08159155 -0.26446325 0.10930366 -0.20913789 -0.20330822 -0.5396702
-0.036218442 -0.4627629 0.048418503 -0.16738957 -0.27084813 -0.0153400125 -0.3704105 -0.30890965
-0.223172 -0.48334116 -0.30734152 -0.36776036 -0.20277594 -0.09948114 0.08344026 -0.031588316
0.14067651 -0.046152536 -0.037171405 -0.16785872 -0.500035 0.13501856 -0.02883231 -0.0529194
-0.12327047 -0.29859313 0.118114874 0.25519118 -0.048913427 -0.34333894 0.06768763 0.013384846
0.21794462 -0.23434359 -0.09166295 -0.09948351 0.15528987 0.24378836 -0.27132845 0.06737748
-0.20262426 -0.22905865 -0.19102184 -0.011733084 -0.009553246 -0.35771993 -0.0072108395 -0.14467932
-0.3388832 0.06656309 0.044648327 -0.0703251 -0.07972613 -0.57596546 0.15371943 -0.06152622
-0.36618432 -0.19644521 0.20849335 0.02933343 -0.2745571 0.11131462 -0.0034927821 -0.0837094
0.39882797 -0.323406 -0.4882482 0.17202874 -0.09157901 0.13434272 -0.17475815 0.1399087
-0.07796794 -0.22174084 -0.4282779 -0.16977572 -0.13685672 0.08198613 0.14038558 -0.31405735
00000000: 4390 02bc c5be e2be 9044 10bf 6c81 3cbf
00000010: 47f5 3bbf cc73 f3bd b6fa 353e 9c79 03bf
00000020: 884e 853e d0f5 853e 5278 bc3d 472c 62be
00000030: b4d5 8ebe a7ea 27bf 3902 68bd c42c 42bf
00000040: b2f9 ba3e 219a 08bf b0eb 283f ab8a e8be
00000050: 9931 93be 5fde 5fbe fe69 1dbf f2ba b23c
00000060: 6592 413d 1857 d2be f87f c4be 3b3e 32be
00000070: 2b3e e13e 9e77 39bd 2919 b6bc 92dd 3ebd
00000080: 2edd 1bbc 139f 853e 31b8 103e 7ba8 c53d
00000090: 27fa a13e d68e a6bd 246a c63e 8c23 2cbf
000000a0: 5e52 64bf 9b35 aebe 1d0b 083f a6a3 00bf
000000b0: 383c 303f a14d 88bf fe80 df3e 1ad9 44be
000000c0: 6462 8e3e f146 d4be e1c3 8f3e 69ed c43e
000000d0: 5e90 163f 2285 d0be a228 fbbe 565b 0cbf
000000e0: 1773 97bd 7e95 8bbd 9b8c a93e 3c9b f23e
000000f0: e8a2 093f d009 3f3f 3355 833e 970a 20be
00000100: c2fa e6be 66e1 67bd 8c60 70be 4368 8ebd
00000110: 2ea1 bd3d c391 063e 10b6 85bd cab5 ebbd
00000120: bd95 8d3e 6622 72be e23c 3abf 14e7 5d3e
00000130: 4630 213e 7aaa 61be 1f07 433e 1d68 0e3e
00000140: 9e7e f3bd adf4 8ebe 932b 10bf c7ea c23e
00000150: 0eb0 a6bd 3864 713e 7343 5d3e fa67 91be
00000160: 05f4 53bf e2ba 1ebe 03e4 74be f62d f83d
00000170: 83c3 e03e 8648 aebe 9348 8e3e 41d8 a7be
00000180: 0c77 663e 93a5 093e cbca d93e a166 2cbe
00000190: de9b b6be 19d3 7abe 036e 193e 3f7c 09be
000001a0: eb9c ebbd ca9b b53d 33d8 d3be 24e2 0e3e
000001b0: 5e09 66be 4201 413e 4ce4 81be f6e6 ddbe
000001c0: 2e04 073f 4cfa 95be 1f5d b8be 492d b43e
000001d0: 831f 85be efaf 513f 4809 fb3e 3e8b 223f
000001e0: 5940 d73e 5f40 903e 3b0b 2f3f a768 e8be
000001f0: aa30 763d 216d 7abd 156d e63d 0814 033f
00000200: 73a6 cebd 02e3 fe3b 47ec a1be 4bd6 4c3e
00000210: 99d0 c3be 0057 44be b3f5 ab3c dea5 423e
00000220: a686 96be 8b9d 493e e17f 25be 3255 c3be
00000230: da58 31be b23e a9bd ce33 6abc a590 19bd
00000240: 4476 7ebe 39b7 8abe 1427 493c cb33 71bd
00000250: 1b65 ad3d a509 543e 160e 3b3e 00f5 aabe
00000260: e7ea 70be 2b28 13bf f591 a23d f5d1 913d
00000270: 1beb fb3d 1785 b83d 507c 373e 0d90 663d
00000280: 4dfd acbe b072 b4be bb79 01bf 852b 3b3d
00000290: 07df 43bd d229 01be 177e 07be bbdb ef3c
000002a0: 515d 17be 1326 0abf 7819 a7bd ba67 87be
000002b0: 99da df3d 3e28 56be 0830 50be d427 0abf
000002c0: ca59 14bd 42ef ecbe 7b52 463d 2c68 2bbe
000002d0: 9bac 8abe ad54 7bbc 72a6 bdbe 6829 9ebe
000002e0: 3387 64be 7e78 f7be de5b 9dbe 164b bcbe
000002f0: 7fa4 4fbe c5bc cbbd bae2 aa3d c062 01bd
00000300: 810d 103e 710a 3dbd 0b41 18bd 28e3 2bbe
00000310: 4b02 00bf 4e42 0a3e bd31 ecbc 03c2 58bd
00000320: 3a75 fcbd 33e1 98be 36e6 f13d 6ba8 823e
00000330: 7259 48bd 1fca afbe d09f 8a3d 1d4c 5b3c
00000340: e02c 5f3e c4f7 6fbe c9b9 bbbd 03be cbbd
00000350: 4f04 1f3e a8a3 793e 90eb 8abe 34fd 893d
00000360: bc7c 4fbe 5a8e 6abe 3b9b 43be 1f3c 40bc
00000370: 3885 1cbc 1127 b7be e848 ecbb d126 14be
00000380: 1982 adbe 3b52 883d 2ae1 363d 9b06 90bd
00000390: 7447 a3bd 7972 13bf a068 1d3e eb02 7cbd
000003a0: 837c bbbe ef28 49be 487f 553e a94c f03c
000003b0: c092 8cbe ebf8 e33d 29e7 64bb d56f abbd
000003c0: 2e33 cc3e 7995 a5be abfb f9be 4d28 303e
000003d0: c78d bbbd 2391 093e cdf3 32be 3a44 0f3e
000003e0: a8ad 9fbd 0810 63be 3e47 dbbe b0d9 2dbe
000003f0: 2b24 0cbe 58e8 a73d 3dc1 0f3e 20cc a0be

network_body._body_endoder.seq_layers.2.bias f4 [128]
-0.46418196 -0.4025542 -0.33031487 0.07773049 -0.3274163 -0.20701869 -0.053725094 -0.5400329
-0.55600536 -0.505602 -0.52506524 -0.044141896 0.31318802 -0.6579694 -0.1816416 -0.3727788
-0.11779176 -0.3742906 -0.17516853 -0.3623692 -0.32703763 0.042601902 0.024676166 -0.23030859
-0.14320733 -0.10591155 -0.23384704 -0.31608322 0.035953682 -0.21267727 -0.23354013 -0.69699335
-0.10437775 -0.25894308 -0.44316673 -0.19919087 -0.51493233 -0.18410839 -0.30801207 -0.50259316
-0.09012632 -0.3149324 -0.26859 -0.09059678 0.24365553 -0.5929986 -0.3326574 -0.03301137
-0.5082983 -0.14005579 -0.43725035 -0.022484599 -0.09342337 -0.16988945 -0.08926816 -0.49350643
-0.4824366 -0.35888666 -0.21032591 -0.20635526 -0.39622992 -0.008073039 -0.43473154 -0.62367773
-0.07384837 -0.5947534 -0.26760322 -0.06580691 -0.39679313 0.12275062 -0.6099837 -0.20746902
-0.4273816 -0.4706072 -0.39341494 -0.10018076 -0.62663263 -0.30090326 -0.4606894 -0.3652693
0.007945756 -0.22273758 0.068235114 -0.5857677 -0.35386288 -0.4684302 -0.58936787 -0.44126168
-0.45142382 0.16621786 -0.38399032 -0.017175172 -0.3456311 -0.48751107 -0.28439322 -0.40737364
-0.55884343 -0.66792554 -0.2971047 -0.2676083 -0.41494948 0.08945305 -0.3570684 0.1208358
-0.5352473 -0.5663237 -0.48966998 -0.7898048 -0.013289117 -0.3589228 -0.62343836 -0.33980832
-0.4298605 -0.52122486 -0.18560141 -0.38774133 -0.17560752 0.17516579 -0.023961682 -0.00982509
-0.33855724 -0.24535424 -0.17152652 -0.40197578 -0.0014626031 -0.32243526 -0.1422324 -0.45364827
00000000: 42a9 edbe 961b cebe 081f a9be 2a31 9f3d
00000010: 1ca3 a7be b5fc 53be d80e 5cbd 993f 0abf
00000020: 5e56 0ebf 226f 01bf ad6a 06bf 22ce 34bd
00000030: 2e5a a03e af70 28bf 4100 3abe dddc bebe
00000040: ce3c f1bd 04a3 bfbe 615f 33be 7588 b9be
00000050: 7a71 a7be 557f 2e3d ac25 ca3c 04d6 6bbe
00000060: f1a4 12be 28e8 d8bd 9975 6fbe a9d5 a1be
00000070: 2b44 133d 12c8 59be 2525 6fbe 286e 32bf
00000080: 00c4 d5bd 3094 84be c0e6 e2be b1f8 4bbe
00000090: 9bd2 03bf e986 3cbe c2b3 9dbe f2a9 00bf
000000a0: 2694 b8bd d23e a1be a184 89be ce8a b9bd
000000b0: d680 793e c2ce 17bf 1252 aabe ee36 07bd
000000c0: d61f 02bf c96a 0fbe 47df dfbe 9f31 b8bc
000000d0: c054 bfbd 80f7 2dbe 3ad2 b6bd e0ac fcbe
000000e0: ee01 f7be febf b7be ad5f 57be cb4e 53be
000000f0: a6de cabe c844 04bc 2295 debe 58a9 1fbf
00000100: d03d 97bd c241 18bf 4a03 89be c6c5 86bd
00000110: 7828 cbbe ad64 fb3d e427 1cbf c272 54be
00000120: c3d1 dabe 6df3 f0be af6d c9be 922b cdbd
00000130: ff6a 20bf fe0f 9abe 7bdf ebbe 9404 bbbe
00000140: eb2e 023c 5215 64be dabe 8b3d dff4 15bf
00000150: 842d b5be 15d6 efbe d0e0 16bf 0ded e1be
00000160: 0621 e7be 0435 2a3e 619a c4be f2b2 8cbc
00000170: 8ff6 b0be 0d9b f9be fd9b 91be 4793 d0be
00000180: 5d10 0fbf 2bfd 2abf 1b1e 98be f503 89be
00000190: 4274 d4be 2933 b73d abd1 b6be c378 f73d
000001a0: f805 09bf 97fa 10bf 06b6 fabe a630 4abf
000001b0: 99ba 59bc bbc4 b7be a899 1fbf 5bfb adbe
000001c0: ad16 dcbe fe6e 05bf 4c0e 3ebe 0886 c6be
000001d0: 75d2 33be a95e 333e 4a4b c4bc 6af9 20bc
000001e0: 6057 adbe 243e 7bbe a6a4 2fbe c5cf cdbe
000001f0: d1b4 bfba 3c16 a5be 5fa5 11be 9644 e8be

action_model._continuous_distribution.log_sigma f4 [1, 2]
2.4521222 2.7015307
00000000: 92ef 1c40 e1e5 2c40

action_model._continuous_distribution.mu.weight f4 [2, 128]
-0.1832163 -0.30475932 -0.00755822 -0.23099265 -0.2066793 -0.124232136 -0.18766606 -0.1414776
-0.074913196 -0.120948166 -0.049981356 0.16111149 0.3144516 -0.1416272 -0.21191388 0.020338986
-0.12564865 -0.013723473 -0.19600181 -0.1687998 -0.20426801 -0.3685522 -0.25590655 -0.1825641
-0.22274624 -0.15720525 -0.25569016 -0.1112411 -0.2926083 -0.12900512 -0.20973825 -0.030672316
-0.082488626 -0.09497756 -0.027577749 -0.24200995 -0.116618834 -0.11246342 -0.24542537 -0.022314219
-0.2215249 -0.22782457 -0.020010734 0.0058087274 -0.19410837 -0.09091363 -0.051061284 -0.2158247
-0.089280024 -0.26743793 -0.14834513 0.5934761 -0.2447169 -0.16626726 -0.29117155 -0.18728942
-0.105384946 -0.20296106 -0.2625983 0.055770006 -0.05345848 -0.25452754 -0.05054464 0.028790722
-0.11709252 -0.021160541 -0.1590129 -0.118280664 -0.15709165 -0.23661889 -0.048384108 -0.20701993
-0.23408708 -0.08985274 -0.09082243 -0.24322523 -0.2157877 -0.054915752 -0.08739178 -0.040797085
-0.32979953 -0.21384755 -0.18282701 0.051917322 -0.06093814 -0.038508438 -0.057575945 -0.15094584
0.03570101 -0.1477957 -0.09574229 -0.20104863 -0.12884662 -0.07603571 -0.20965421 -0.10223368
-0.05132337 0.015149286 -0.20556192 -0.17913595 -0.18843094 -0.22014302 -0.045220837 0.19223793
-0.079785675 -0.1634112 -0.1867918 0.0087923175 0.1856058 -0.1933059 -0.1947633 -0.07029003
-0.18427451 -0.029402116 -0.185492 -0.16917819 -0.14113533 -0.2719845 -0.374577 -0.17886342
-0.17534383 -0.17186703 -0.22231407 -0.0017832028 -0.16409032 -0.050017174 -0.2580586 -0.13705397
-0.048189595 -0.26010472 -0.34059206 -0.26419634 -0.5003893 -0.4549896 -0.28837588 -0.3585996
-0.17671625 -0.12233973 -0.30348566 -0.17139213 0.37968284 -0.25265628 -0.25450483 -0.091878764
-0.07607473 -0.4601061 -0.24573055 -0.080559194 -0.2527634 -0.39662394 -0.055382773 -0.2420162
-0.27543035 -0.24473105 -0.23777641 -0.07958754 -0.25737584 -0.23487441 -0.16444148 -0.17270401
-0.33550656 -0.2795944 -0.07947099 -0.18071558 -0.21850438 -0.33533397 -0.26027662 -0.2761286
-0.21644756 -0.42884678 -0.2501947 -0.53520733 -0.23338541 -0.23044704 -0.21314645 -0.2473061
-0.3518762 -0.21137457 -0.23157935 -0.2643609 -0.2569865 -0.5405308 -0.3294139 -0.18871121
-0.107769914 -0.1922675 -0.27082357 -0.27038363 -0.24901369 -0.31462446 -0.14250787 -0.16684866
-0.24595472 -0.15099381 -0.17772876 -0.29753715 -0.47953215 -0.28203878 -0.27667716 -0.14509861
-0.46770173 -0.46913674 -0.43451124 -0.27589673 -0.35891652 -0.2820345 -0.21812485 -0.4232968
-0.3345331 -0.24847865 -0.3644091 -0.22580439 -0.25671715 -0.09010679 -0.23420952 -0.30004585
-0.5347951 -0.27370074 -0.25955233 -0.31525823 -0.22904493 -0.16641335 -0.23970522 -0.26512465
-0.23186417 -0.19604874 -0.2570204 -0.01766993 -0.2973899 -0.17159763 -0.23459572 -0.13497959
-0.266801 -0.14738129 -0.14547983 -0.06683389 -0.124119416 -0.23249258 -0.17102747 -0.17061913
-0.20729953 -0.17131104 -0.66986877 -0.19952767 -0.23035121 -0.22512697 -0.371617 -0.19940528
-0.20630004 -0.35078058 -0.23938115 -0.3081544 -0.3598669 -0.30835763 -0.3177353 -0.17342879
00000000: 0e9d 3bbe 6a09 9cbe f2aa f7bb 5689 6cbe
00000010: bda3 53be 6b6d febd 882b 40be 81df 10be
00000020: 176c 99bd acb3 f7bd 40b9 4cbd 69fa 243e
00000030: cdff a03e b906 11be f4ff 58be f29d a63c
00000040: 0aaa 00be 6bd8 60bc b3b4 48be dbd9 2cbe
00000050: a22b 51be e0b2 bcbe 2f06 83be 15f2 3abe
00000060: 9717 64be 6afa 20be d2e9 82be 60d2 e3bd
00000070: c1d0 95be eb19 04be a0c5 56be 8244 fbbc
00000080: ccef a8bd 9883 c2bd bbea e1bc 75d1 77be
00000090: dbd5 eebd 3953 e6bd ca50 7bbe 4fcc b6bc
000000a0: 6cd7 62be d84a 69be 8ded a3bc 2357 be3b
000000b0: 58c4 46be ed30 babd a325 51bd 2601 5dbe
000000c0: 72d8 b6bd a0ed 88be c9e7 17be 0dee 173f
000000d0: 1197 7abe f741 2abe 7014 95be ccc8 3fbe
000000e0: 10d4 d7bd 06d5 4fbe 4973 86be 176f 643d
000000f0: 47f7 5abd 6f51 82be e507 4fbd 85da eb3c
00000100: 34ce efbd df58 adbc 47d4 22be 223d f2bd
00000110: a2dc 20be 394c 72be 6a2e 46bd 08fd 53be
00000120: 86b4 6fbe b704 b8bd 1c01 babd 0910 79be
00000130: 73f7 5cbe 57ef 60bd 76fa b2bd d81a 27bd
00000140: 7cdb a8be dafa 5abe 0137 3bbe 42a7 543d
00000150: 459a 79bd 06bb 1dbd c1d4 6bbd 8c91 1abe
00000160: 393b 123d c257 17be 8914 c4bd b1df 4dbe
00000170: 5ef0 03be 9cb8 9bbd 98af 56be e45f d1bd
00000180: 7438 52bd b634 783c d37e 52be 6a6f 37be
00000190: 0af4 40be 2c6d 61be 7c39 39bd 05da 443e
000001a0: ac66 a3bd 4455 27be 5a46 3fbe a70d 103c
000001b0: 720f 3e3e fbf1 45be 0870 47be 38f4 8fbd
000001c0: 75b2 3cbe b5dc f0bc 9df1 3dbe 0c3d 2dbe
000001d0: c885 10be 8d41 8bbe 8ec8 bfbe f927 37be
000001e0: 558d 33be e9fd 2fbe 4da6 63be 5bba e9ba
000001f0: 4b07 28be cfde 4cbd 4220 84be e057 0cbe
00000200: 7462 45bd 722c 85be 1562 aebe be44 87be
00000210: 8319 00bf 66f4 e8be 01a6 93be 5e9a b7be
00000220: 1bf5 34be 418d fabd 7962 9bbe 6b81 2fbe
00000230: ca65 c23e 2a5c 81be 754e 82be ef2a bcbd
00000240: 11cd 9bbd 0793 ebbe caa0 7bbe 38fc a4bd
00000250: 346a 81be 4b12 cbbe 0cd9 62bd 18d3 77be
00000260: 3505 8dbe c79a 7abe a97b 73be cbfe a2bd
00000270: c4c6 83be eb82 70be 5963 28be 52d9 30be
00000280: 84c7 abbe ff26 8fbe b0c1 a2bd 810d 39be
00000290: 9dbf 5fbe e5b0 abbe fa42 85be ba60 8dbe
000002a0: 6ea4 5dbe ce91 dbbe 8519 80be 5903 09bf
000002b0: 96fc 6ebe 4ffa 6bbe 1043 5abe cf3d 7dbe
000002c0: 1e29 b4be 9372 58be 2323 6dbe 505a 87be
000002d0: bc93 83be 3a60 0abf f0a8 a8be 833d 41be
000002e0: 79b6 dcbd c6e1 44be 63a9 8abe b96f 8abe
000002f0: 72fd 7ebe 7516 a1be 95ed 11be 60da 2abe
00000300: 8edb 7bbe 1f9e 1abe 87fe 35be ca56 98be
00000310: 3d85 f5be 6367 90be a1a8 8dbe bb94 14be
00000320: 9a76 efbe b132 f0be 4278 debe 5642 8dbe
00000330: e8c3 b7be d366 90be 1f5c 5fbe 5cba d8be
00000340: ec47 abbe 3071 7ebe d493 babe 4439 67be
00000350: 6e70 83be e989 b8bd 9fd4 6fbe 9c9f 99be
00000360: 55e8 08bf 8122 8cbe 0be4 84be 8769 a1be
00000370: c18a 6abe 4368 2abe 4975 75be 6bbe 87be
00000380: cd6d 6dbe 00c1 48be 2e98 83be 87c0 90bc
00000390: 7d43 98be 4ab7 2fbe dc39 70be 1738 0abe
000003a0: 249a 88be 1feb 16be aaf8 14be 35e0 88bd
000003b0: 5232 febd 8912 6ebe d321 2fbe c8b6 2ebe
000003c0: 5446 54be 296c 2fbe 857c 2bbf fb50 4cbe
000003d0: 30e1 6bbe af87 66be 9544 bebe e630 4cbe
000003e0: 5140 53be 8399 b3be 5520 75be 6ac6 9dbe
000003f0: 7940 b8be 0de1 9dbe 34ae a2be 5197 31be

action_model._continuous_distribution.mu.bias f4 [2]
-0.008458362 0.082851976
00000000: f194 0abc 4cae a93d

action_model._discrete_distribution.branches.0.weight f4 [2, 128]
-0.14082424 -0.27420288 -0.23657121 0.31087902 -0.030241977 -0.1374211 0.4015447 -0.34069037
0.019224156 -0.22271919 0.12468037 -2.3399372 0.38589847 -0.38681358 0.30403325 -0.4091702
-1.4037848 -0.45358297 0.2576597 0.26445845 0.2156041 0.7603717 1.0662572 0.8212747
0.5181465 0.3328227 -0.17480062 -0.13031833 0.4642161 -1.1442705 0.24819209 0.53678554
0.28048745 -0.046471212 0.3350785 -0.4485878 -0.1590328 -0.46079537 -0.059688237 -0.008010827
0.05171654 -0.18747373 0.2524861 -0.16603154 0.5845997 -0.1657861 -0.3293354 0.6367621
-0.08415329 -0.06725906 0.17575781 0.8852298 0.34192604 -0.34920332 0.32196143 0.2290875
0.003973108 0.049677502 0.76633215 0.20497076 0.090077 0.61560994 0.08244625 0.1534843
0.19518092 -0.53772557 0.21405245 -0.73990065 -0.15504041 -0.2381101 -0.19206065 0.5087697
0.42994156 -0.51239645 -0.49553758 2.9658053 0.40965337 0.032272823 -0.14836213 -0.33366245
0.51278824 0.4645556 0.105571866 0.1548293 0.043908022 -0.12593354 -0.025126295 0.033175413
-0.124729455 0.072666734 0.12632224 0.7266453 -2.0289147 -0.37174523 0.3627399 -0.20835689
-0.053763896 -0.08380888 -0.2099605 0.028403606 -0.27468845 0.4839883 0.034670573 1.1132375
-0.29178149 0.32131696 -0.40298077 0.31856546 0.9303674 0.084216245 0.574046 -0.26387545
-0.112872064 -0.015890565 -0.01893881 0.29046187 1.0225071 -1.3594668 0.2978007 0.6522712
-0.017148457 -1.3480201 0.53162885 -0.11422569 0.43604952 -0.114745565 -0.24589202 0.009133796
0.15242106 0.2703454 0.2302046 -0.31508166 0.027363978 0.13886406 -0.40264055 0.317344
-0.033113666 0.1888016 -0.11642632 2.3307724 -0.3726353 0.389384 -0.3360984 0.42086518
1.4079342 0.4392265 -0.25014594 -0.2617133 -0.22335126 -0.7415202 -1.0732548 -0.82805
-0.514082 -0.3209669 0.157827 0.1282266 -0.477417 1.1506199 -0.26713964 -0.54097986
-0.2917841 0.04229927 -0.333395 0.45519704 0.1591055 0.4788702 0.06658494 0.0070641846
-0.052153967 0.19134755 -0.28408477 0.16786233 -0.5779639 0.17814292 0.3447318 -0.6327862
0.08364017 0.057709634 -0.17114094 -0.8904666 -0.36669955 0.34557036 -0.33074495 -0.23891127
0.0058763516 -0.048029374 -0.75600225 -0.20258762 -0.08614143 -0.60332316 -0.08288233 -0.15086566
-0.18852398 0.5323731 -0.20853312 0.7173874 0.14354043 0.22938468 0.18391256 -0.51237744
-0.44800377 0.5225423 0.50045425 -2.9646285 -0.42170432 -0.045342218 0.16221435 0.33176348
-0.5193051 -0.4610616 -0.10306926 -0.1510244 -0.05916511 0.10967357 0.03424614 -0.04718048
0.1140876 -0.061423134 -0.13029054 -0.71879166 2.0124254 0.34717143 -0.39097586 0.20180629
0.0761526 0.0598952 0.20202254 -0.019187637 0.2622314 -0.5065615 -0.053258322 -1.1187747
0.29486376 -0.3066165 0.40907842 -0.31159043 -0.9517239 -0.08521435 -0.5746845 0.23641938
0.09190341 0.02037875 0.0320859 -0.2848367 -1.018648 1.387449 -0.29523787 -0.66464305
0.01869858 1.3509377 -0.54051024 0.12106044 -0.44819185 0.104422875 0.27467358 -0.006431346
00000000: 3b34 10be 5264 8cbe b93f 72be 892b 9f3e
00000010: 06be f7bc 1eb8 0cbe 4497 cd3e f86e aebe
00000020: fa7b 9d3c 8010 64be 6c58 ff3d 88c1 15c0
00000030: 7c94 c53e 6e0c c6be 3faa 9b3e c27e d1be
00000040: 38af b3bf 073c e8be f9eb 833e 1967 873e
00000050: 52c7 5c3e b8a7 423f 1e7b 883f 0f3f 523f
00000060: 40a5 043f bd67 aa3e effe 32be 2b72 05be
00000070: bcad ed3e 7577 92bf 1126 7e3e c76a 093f
00000080: 0d9c 8f3e 9958 3ebd 698f ab3e 4dad e5be
00000090: 7fd9 22be 5fed ebbe a77b 74bd d83f 03bc
000000a0: b9d4 533d 1df9 3fbe dc45 813e 2c04 2abe
000000b0: 53a8 153f d5c3 29be a69e a8be d702 233f
000000c0: 8f58 acbd 1ebf 89bd dbf9 333e 6c9e 623f
000000d0: ee10 af3e c7ca b2be 21d8 a43e ea95 6a3e
000000e0: d830 823b a37a 4b3d 582e 443f dbe3 513e
000000f0: 4a7a b83d 9d98 1d3f 94d9 a83d fd2a 1d3e
00000100: 82dd 473e 62a8 09bf 9130 5b3e 216a 3dbf
00000110: eac2 1ebe 22d3 73be 8cab 44be bb3e 023f
00000120: 4d21 dc3e 6a2c 03bf 1ab7 fdbe c1cf 3d40
00000130: 16be d13e 8230 043d 3eec 17be ced5 aabe
00000140: 1746 033f 3bda ed3e 1036 d83d 928b 1e3e
00000150: e6d8 333d b9f4 00be a9d5 cdbc f1e2 073d
00000160: 2872 ffbd 4cd2 943d 9e5a 013e 6d05 3a3f
00000170: bdd9 01c0 6455 bebe 0bb9 b93e 825b 55be
00000180: 8837 5cbd fda3 abbd e3ff 56be aeae e83c
00000190: f7a3 8cbe 51cd f73e bb02 0e3d 917e 8e3f
000001a0: 6264 95be a883 a43e 7f53 cebe 031b a33e
000001b0: 8f2c 6e3f 9179 ac3d aef4 123f af1a 87be
000001c0: 7829 e7bd ee2c 82bc 9025 9bbc 6bb7 943e
000001d0: 83e1 823f 0203 aebf 5579 983e 3ffb 263f
000001e0: ec7a 8cbc ec8b acbf d418 083f 29ef e9bd
000001f0: e241 df3e b9ff eabd 1ecb 7bbe eba5 153c
00000200: 4414 1c3e b66a 8a3e c1ba 6b3e 6252 a1be
00000210: 6c2a e03c 6132 0e3e e726 cebe ea7a a23e
00000220: 32a2 07bd 3555 413e ec70 eebd 602b 1540
00000230: 0eca bebe 575d c73e 1715 acbe a47b d73e
00000240: 3037 b43f 4ce2 e03e 2113 80be 49ff 85be
00000250: 31b6 64be 45d4 3dbf 6a60 89bf 16fb 53bf
00000260: e19a 03bf c655 a4be 679d 213e d54d 033e
00000270: 0070 f4be 8347 933f 87c6 88be a87d 0abf
00000280: ba64 95be 0042 2d3d c0b2 aabe 960f e93e
00000290: 8dec 223e 7a2e f53e af5d 883d ad7a e73b
000002a0: 669f 55bd 9df0 433e 8f73 91be 1ae4 2b3e
000002b0: 71f5 13bf 196b 363e b080 b03e 47fe 21bf
000002c0: 8a4b ab3d f060 6c3d 923f 2fbe 9ef5 63bf
000002d0: 0bc0 bbbe 99ee b03e 6757 a9be 28a5 74be
000002e0: 698e c03b 73ba 44bd 5d89 41bf 2173 4fbe
000002f0: eb6a b0bd 6373 1abf 36be a9bd 877c 1abe
00000300: 6e0c 41be 9a49 083f b589 55be b3a6 373f
00000310: 43fc 123e d1e3 6a3e 9353 3c3e 2b2b 03bf
00000320: c060 e5be 55c5 053f c51d 003f 79bc 3dc0
00000330: a1e9 d7be c3b8 39bd 851b 263e e7dc a93e
00000340: 2ef1 04bf 4410 ecbe fa15 d3bd 24a6 1abe
00000350: 1d57 72bd 899c e03d ae45 0c3d 5240 41bd
00000360: c2a6 e93d d396 7bbd e26a 05be bb02 38bf
00000370: 94cb 0040 74c0 b13e fd2d c8be 4fa6 4e3e
00000380: e5f5 9b3d ab54 753d ffde 4e3e 642f 9dbc
00000390: 3243 863e 04ae 01bf 6625 5abd 0234 8fbf
000003a0: 62f8 963e d6fc 9cbe ba72 d13e c888 9fbe
000003b0: 2da4 73bf dc84 aebd 861e 13bf ec17 723e
000003c0: db37 bc3d 56f1 a63c 816c 033d 1ed6 91be
000003d0: 0f63 82bf ee97 b13f 6b29 97be 0c26 2abf
000003e0: c42d 993c 87eb ac3f e15e 0abf 89ee f73d
000003f0: 6779 e5be a9db d53d 04a2 8c3e 0abe d2bb

action_model._discrete_distribution.branches.0.bias f4 [2]
-0.3567119 0.35672238
00000000: f1a2 b6be 51a4 b63e

exp_avg f4 [128, 26]
-4.159072e-08 3.826288e-06 -3.6890642e-06 1.0834255e-09 1.6837566e-08 -4.984198e-09 -6.175889e-06 2.9069151e-06
6.392891e-06 5.622592e-06 1.9169316e-05 -5.7086487e-05 -3.13229e-05 -4.053023e-08 3.7922039e-06 -3.704749e-06
1.0825214e-09 1.6823515e-08 -4.9800386e-09 -6.2920776e-06 2.927733e-06 6.4897517e-06 5.34463e-06 1.8691158e-05
-5.205096e-05 -2.5233498e-05 2.6308032e-06 2.9284562e-05 -6.038389e-06 2.2264337e-09 3.4600983e-08 -1.024245e-08
-0.00015778992 -8.233113e-06 -4.2944694e-06 -6.8408204e-05 8.8615656e-05 0.0019139604 0.00084313826 2.618767e-06
2.9072784e-05 -6.0017965e-06 2.2156956e-09 3.4434134e-08 -1.0193071e-08 -0.00015555506 -9.175251e-06 -4.6829387e-06
-6.8934496e-05 8.9518704e-05 0.0020014623 0.0009310547 3.608656e-06 5.7593086e-05 -0.0003794699 7.449732e-08
1.1577647e-06 -3.427175e-07 0.0010720851 0.00011347894 0.0008766917 -0.0007021847 0.0016015508 -0.0069399807
-0.012934033 3.690895e-06 5.6525783e-05 -0.00038005074 7.450048e-08 1.1578138e-06 -3.4273208e-07 0.0010706447
0.00011226243 0.00088288425 -0.0007045448 0.0016020488 -0.007096136 -0.0128576495 2.383822e-06 0.00010897986
-0.00017971008 4.2821778e-08 6.6549495e-07 -1.9699735e-07 0.00053140795 6.9175156e-05 0.00024459694 -0.00051347225
0.00095861277 -0.0011756015 -0.0072693517 2.3776756e-06 0.00010830732 -0.00017989222 4.282133e-08 6.6548796e-07
-1.9699525e-07 0.0005371232 6.756265e-05 0.00024422433 -0.000508615 0.00095919624 -0.001409962 -0.0072400686
2.317669e-06 -4.5798915e-05 4.4888955e-05 -1.45897205e-08 -2.2673912e-07 6.711858e-08 -0.00031624478 -5.91931e-05
-6.3202504e-05 0.00015285617 -0.000400311 0.0017396706 0.0040767323 2.3100324e-06 -4.553793e-05 4.501295e-05
-1.4588216e-08 -2.2671573e-07 6.7111664e-08 -0.000318779 -6.0547434e-05 -6.2743864e-05 0.00015032986 -0.00040530317
0.0018299817 0.0041051637 5.858627e-08 4.1389035e-06 4.916437e-07 2.1912404e-10 3.4054126e-09 -1.0080576e-09
-3.3983954e-06 -2.6114918e-07 -1.1180184e-05 2.9600184e-05 -1.0706419e-05 1.146928e-05 8.5646956e-05 5.8389578e-08
4.1969956e-06 4.9796546e-07 2.2291634e-10 3.4643504e-09 -1.0255037e-09 -3.8203093e-06 -3.4260654e-07 -1.1196598e-05
2.9687426e-05 -1.1687283e-05 -8.994052e-06 7.006117e-05 -3.5239025e-06 -0.00020946296 0.0005284509 -1.2160746e-07
-1.8899049e-06 5.594431e-07 -0.0018849311 -0.000423576 -0.0012041868 0.0005154447 -0.0027294229 0.020846711
0.026839942 -3.6510316e-06 -0.00020747798 0.0005294727 -1.2160433e-07 -1.8898563e-06 5.5942877e-07 -0.0018823382
-0.00042455542 -0.0012135211 0.00051987194 -0.0027293616 0.021226317 0.026895454 -2.2489776e-06 -9.9549434e-05
0.00027640737 -6.251725e-08 -9.715825e-07 2.8760437e-07 -0.00097326457 -0.00022499723 -0.0006501284 0.0002251681
-0.001406658 0.011998724 0.014326069 -2.3182413e-06 -9.850038e-05 0.00027694833 -6.2514154e-08 -9.715343e-07
2.875901e-07 -0.0009711209 -0.0002253118 -0.00065551326 0.00022850285 -0.0014065277 0.012164275 0.014288347
-5.595685e-06 -0.00024276173 0.0005282263 -1.2590695e-07 -1.9567233e-06 5.7922205e-07 -0.0018353305 -0.00040533044
-0.001219923 0.00047929402 -0.0028228809 0.022183383 0.027954193 -5.7353323e-06 -0.00024075784 0.0005293524
-1.2590553e-07 -1.9567012e-06 5.792156e-07 -0.0018328439 -0.00040730767 -0.001228725 0.00048361655 -0.0028231267
0.022558084 0.027948359 -5.6499726e-08 -2.1470864e-06 8.475858e-06 -1.9120066e-09 -2.9714549e-08 8.795998e-09
-2.8942124e-05 -5.399017e-06 -1.7003284e-05 1.136203e-05 -4.4741595e-05 0.00021703425 0.00031536128 -5.9213548e-08
-2.1443384e-06 8.495035e-06 -1.9135311e-09 -2.9738242e-08 8.803012e-09 -2.8733422e-05 -5.462889e-06 -1.7171753e-05
00000000: 7ba1 32b3 9063 8036 a491 77b6 a5e7 9430
00000010: 33a2 9032 7841 abb1 7c3a cfb6 6c14 4336
00000020: 8482 d636 b3a9 bc36 cbcd a037 2670 6fb8
00000030: b560 03b8 7613 2eb3 917d 7e36 1a9f 78b6
00000040: d6c7 9430 4d83 9032 e21c abb1 8920 d3b6
00000050: 127a 4436 8bc2 d936 0656 b336 f5ca 9c37
00000060: 4b51 5ab8 86ac d3b7 db8c 3036 1ea8 f537
00000070: 5e9d cab6 d6ff 1831 2f9c 1433 c6f6 2fb2
00000080: 6974 25b9 f320 0ab7 3619 90b6 6076 8fb8
00000090: 2bd7 b938 dbdd fa3a 0d06 5d3a 13be 2f36
000000a0: 54e1 f337 0a63 c9b6 ee42 1831 bbe4 1333
000000b0: 9a1d 2fb2 7e1c 23b9 67ef 19b7 2322 9db6
000000c0: ed90 90b8 fdbb bb38 f72a 033b 0612 743a
000000d0: 3d2c 7236 1b90 7138 96f3 c6b9 56fb 9f33
000000e0: 7e64 9b35 bcfe b7b4 3585 8c3a 8bfb ed38
000000f0: c9d1 653a d112 38ba 21eb d13a c768 e3bb
00000100: 44e9 53bc 18b1 7736 1916 6d38 8c41 c7b9
00000110: 12fd 9f33 2e66 9b35 bd00 b8b4 e054 8c3a
00000120: 6f6e eb38 5c71 673a 33b1 38ba d6fb d13a
00000130: b486 e8bb e4a8 52bc c0f9 1f36 1e8c e438
00000140: 8f70 3cb9 0beb 3733 77a4 3235 3886 53b4
00000150: 2f4e 0b3a 2112 9138 3f3d 8039 8a9a 06ba
00000160: 6a4b 7b3a a416 9aba be33 eebb 2890 1f36
00000170: 0d23 e338 73a1 3cb9 8dea 3733 fca3 3235
00000180: a485 53b4 bacd 0c3a 6cb0 8d38 3c0b 8039
00000190: 9354 05ba 9272 7b3a 79ce b8ba 193e edbb
000001a0: 4089 1b36 3618 40b8 2647 3c38 45a6 7ab2
000001b0: 9375 73b4 d422 9033 a8cd a5b9 1b46 78b8
000001c0: 968b 84b8 0448 2039 d5e0 d1b9 a905 e43a
000001d0: 1c96 853b 0e06 1b36 fbff 3eb8 49cc 3c38
000001e0: a79f 7ab2 256f 73b4 071f 9033 cb21 a7b9
000001f0: 50f4 7db8 5b95 83b8 dda1 1d39 df7e d4b9
00000200: ffdb ef3a 9c84 863b 49a0 7b33 e9e0 8a36
00000210: 7ff9 0335 efed 702f a704 6a31 e08b 8ab0
00000220: fd0f 64b6 1234 8cb4 8692 3bb7 e94d f837
00000230: b89f 33b7 2f6c 4037 5c9d b338 05c8 7a33
00000240: ebd3 8c36 edab 0535 5f19 752f 7f11 6e31
00000250: b4f1 8cb0 3530 80b6 7cef b7b4 06d9 3bb7
00000260: 4309 f937 8014 44b7 29e5 16b7 ceed 9238
00000270: 2f7c 6cb6 49a3 5bb9 bd87 0a3a 3493 02b4
00000280: a3a8 fdb5 a32c 1635 cb0f f7ba 6913 deb9
00000290: ced5 9dba e91e 073a 1ee0 32bb b9c6 aa3c
000002a0: 70df db3c 3f04 75b6 728e 59b9 50cc 0a3a
000002b0: 5892 02b4 f8a6 fdb5 a72b 1635 cab8 f6ba
000002c0: dd96 deb9 030f 9fba 0448 083a 17df 32bb
000002d0: d0e2 ad3c db53 dc3c 24ed 16b6 32c5 d0b8
000002e0: c5ea 9039 3941 86b3 5267 82b5 0b68 9a34
000002f0: ae22 7fba 3ced 6bb9 616d 2aba 1a1b 6c39
00000300: 9c5f b8ba 4c96 443c e3b7 6a3c 1593 1bb6
00000310: fd91 ceb8 6033 9139 853f 86b3 aa65 82b5
00000320: 1566 9a34 d292 7eba ad41 6cb9 c0d6 2bba
00000330: 449a 6f39 3d5b b8ba ab4c 473c ac19 6a3c
00000340: 91c2 bbb6 db8d 7eb9 ab78 0a3a 0a31 07b4
00000350: 4050 03b6 d67b 1b35 798f f0ba 8882 d4b9
00000360: d3e5 9fba c149 fb39 1500 39bb edb9 b53c
00000370: 3100 e53c 2172 c0b6 f173 7cb9 3dc4 0a3a
00000380: a630 07b4 df4f 03b6 657b 1b35 093c f0ba
00000390: e98b d5b9 2b0d a1ba ea8d fd39 3504 39bb
000003a0: bbcb b83c f5f3 e43c 1baa 72b3 aa16 10b6
000003b0: 8833 0e37 6064 03b1 fc3e ffb2 351d 1732
000003c0: bdc8 f2b7 3429 b5b6 46a2 8eb7 8c9f 3e37
000003d0: eca8 3bb8 b093 6339 1357 a539 fc51 7eb3
000003e0: 74e7 0fb6 e685 0e37 327f 03b1 1673 ffb2
000003f0: 0e3c 1732 8e08 f1b7 dc4d b7b6 0f0c 90b7

exp_avg_sq f4 [128, 26]
1.7951751e-10 9.736923e-09 3.4615142e-09 3.7670334e-16 9.09827e-14 7.972439e-15 7.832091e-08 5.907622e-08
2.1014099e-08 3.7810334e-08 1.701822e-07 1.5390544e-05 1.6205482e-05 1.8005106e-10 9.854407e-09 3.4730805e-09
3.7718835e-16 9.109996e-14 7.982723e-15 7.851037e-08 5.8830324e-08 2.0626414e-08 3.869335e-08 1.7063121e-07
1.5428319e-05 1.6293106e-05 1.2987146e-08 4.18371e-07 1.7994165e-07 2.0215366e-14 4.88249e-12 4.2783206e-13
4.936331e-06 9.3581434e-07 3.5162236e-07 2.9491705e-06 9.837992e-06 0.0003981482 0.0005882894 1.3041397e-08
4.1663557e-07 1.8054973e-07 2.0218062e-14 4.883137e-12 4.278891e-13 4.8908482e-06 9.33281e-07 3.5060523e-07
2.9990313e-06 9.843752e-06 0.00037600624 0.000621519 1.4963694e-08 2.051247e-06 4.8377206e-07 7.839778e-14
1.8934911e-11 1.6591865e-12 1.0578185e-05 6.337886e-06 6.8381064e-06 1.4360425e-05 3.8722166e-05 0.0028449679
0.0033941143 1.5032867e-08 2.0402183e-06 4.851319e-07 7.839674e-14 1.8934678e-11 1.6591608e-12 1.0823956e-05
6.3909897e-06 6.8944214e-06 1.39874755e-05 3.8746926e-05 0.0028369625 0.003441349 7.4393816e-09 4.3223108e-07
2.0891589e-07 2.0798352e-14 5.0232925e-12 4.4016968e-13 5.5504856e-06 5.4094306e-07 3.4953197e-07 4.0935474e-06
1.027044e-05 0.00017043488 0.0006852619 7.469633e-09 4.2990067e-07 2.0950169e-07 2.0798022e-14 5.0232114e-12
4.4016285e-13 5.569736e-06 5.401012e-07 3.4742223e-07 4.0779782e-06 1.0275094e-05 0.00016095991 0.00072283484
2.03804e-08 5.561722e-07 2.3225054e-07 3.14543e-14 7.596953e-12 6.656889e-13 6.1274973e-06 1.670414e-06
5.96798e-07 3.267401e-06 1.5651658e-05 0.00091670925 0.00089160877 2.04654e-08 5.5338126e-07 2.3317617e-07
3.1459884e-14 7.5983005e-12 6.6580747e-13 6.0380635e-06 1.6693243e-06 5.987681e-07 3.3521103e-06 1.5656358e-05
0.00087994547 0.0009311073 1.8025119e-12 1.3651488e-09 1.022723e-10 2.1144536e-17 5.106894e-15 4.474962e-16
4.2652073e-09 4.1629156e-10 4.2524964e-10 3.4530887e-09 4.173148e-09 5.2482005e-07 4.6326605e-07 1.808783e-12
1.415793e-09 1.03092e-10 2.1376703e-17 5.1629674e-15 4.5240977e-16 4.293356e-09 4.1912088e-10 4.2833118e-10
3.515585e-09 4.15223e-09 5.350892e-07 4.5230047e-07 1.9571785e-07 2.4811668e-05 2.5781476e-06 8.9623995e-13
2.1646333e-10 1.8967742e-11 4.0920415e-05 1.6987617e-05 1.6883343e-05 5.2393218e-05 0.00044693163 0.042738233
0.04380694 1.9623474e-07 2.4663696e-05 2.5885483e-06 8.962221e-13 2.1645875e-10 1.8967343e-11 4.065341e-05
1.7146473e-05 1.698425e-05 5.2384203e-05 0.00044726883 0.042783022 0.043913517 6.253503e-08 7.510681e-06
8.1514185e-07 2.7362214e-13 6.6086095e-11 5.790842e-12 1.3381218e-05 5.361328e-06 5.1232505e-06 1.6182274e-05
0.00013641053 0.012922659 0.013204895 6.270566e-08 7.464272e-06 8.184776e-07 2.735973e-13 6.6080176e-11
5.7903396e-12 1.3283875e-05 5.4082634e-06 5.1535853e-06 1.6202257e-05 0.00013651884 0.012927473 0.013243446
2.0417153e-07 2.7309938e-05 2.6320606e-06 9.764355e-13 2.358326e-10 2.0664985e-11 4.0177103e-05 1.8057972e-05
1.8564246e-05 5.5675395e-05 0.00048708415 0.04739678 0.04845136 2.0468313e-07 2.7148486e-05 2.64284e-06
9.76424e-13 2.358298e-10 2.0664786e-11 3.9907387e-05 1.8239612e-05 1.8671302e-05 5.5644257e-05 0.00048742365
0.0474771 0.048519034 2.4148223e-11 2.1611326e-09 6.182393e-10 1.150363e-16 2.7784094e-14 2.4345972e-15
1.316742e-08 2.5934426e-09 3.4474166e-09 1.5498186e-08 5.020048e-08 4.5641154e-06 4.4089497e-06 2.4208384e-11
2.1478652e-09 6.202601e-10 1.15036e-16 2.778397e-14 2.4345908e-15 1.3162041e-08 2.5715414e-09 3.4389531e-09
00000000: b061 452f 7147 2732 9adf 6d31 9a27 d925
00000010: f5df cc29 639e 0f28 6031 a833 feba 7d33
00000020: 7e82 b432 e764 2233 54bb 3634 f11a 8137
00000030: 02f1 8737 def7 452f 244c 2932 14ab 6e31
00000040: 2d6f d925 8d23 cd29 d0cd 0f28 8899 a833
00000050: a0ac 7c33 f72d b132 ca2f 2633 c036 3734
00000060: 106c 8137 2ead 8837 121e 5f32 799c e034
00000070: fc35 4134 7615 b628 8fc9 ab2c 19d9 f02a
00000080: c3a2 a536 ac34 7b35 9cc6 bc34 5dea 4536
00000090: db0d 2537 8cbe d039 6f37 1a3a ac0c 6032
000000a0: f5ad df34 22dd 4134 ad1b b628 63cf ab2c
000000b0: 51e1 f02a 111c a436 9586 7a35 d13a bc34
000000c0: f742 4936 9826 2537 b422 c539 6fed 223a
000000d0: 8389 8032 28a8 0936 90dc 0135 3e89 b029
000000e0: a18d a62d 7e82 e92b f578 3137 07aa d436
000000f0: e372 e536 8eed 7037 9c69 2238 a472 3a3b
00000100: ca6f 5e3b a021 8132 afea 0836 033a 0235
00000110: a588 b029 1b8d a62d 9181 e92b 8998 3537
00000120: 2f72 d636 a156 e736 c0ab 6a37 3284 2238
00000130: 55ec 393b 4188 613b 7e9d ff31 630d e834
00000140: 5d52 6034 bc55 bb28 ccbd b02c 23cb f72a
00000150: 4f3e ba36 5335 1135 4fa7 bb34 4e5b 8936
00000160: 344f 2c37 c4b6 3239 26a3 333a cb53 0032
00000170: 19cd e634 63f3 6034 f954 bb28 11bd b02c
00000180: 27ca f72a abe3 ba36 79fb 1035 5985 ba34
00000190: 91d5 8836 3163 2c37 59c7 2839 a07c 3d3a
000001a0: f910 af32 dd4b 1535 8b60 7934 57a8 0d29
000001b0: a2a5 052d f15f 3b2b cd9a cd36 fd32 e035
000001c0: a533 2035 8645 5b36 ae4b 8337 514f 703a
000001d0: daba 693a e4cb af32 128c 1435 fa5e 7a34
000001e0: c7ae 0d29 b4ab 052d 7c68 3b2b 929a ca36
000001f0: 8c0d e035 08bb 2035 d1f4 6036 c655 8337
00000200: 24ac 663a 8e15 743a 56ae fd2b e79f bb30
00000210: 30e6 e02e 2006 c323 c9fe b727 64fb 0026
00000220: 298d 9231 d4db e42f 91c8 e92f 614b 6d31
00000230: 6663 8f31 5ce1 0c35 cdb6 f834 4790 fe2b
00000240: ca95 c230 a3b3 e22e 502a c523 f803 ba27
00000250: f365 0226 c284 9331 056a e62f 417a eb2f
00000260: d396 7131 67ab 8e31 0da3 0f35 b4d3 f234
00000270: 8326 5234 a722 d037 3d04 2d36 e544 7c2b
00000280: 0301 6e2f 8fd7 a62d f6a1 2b38 a180 8e37
00000290: b4a0 8d37 cac0 5b38 2652 ea39 490e 2f3d
000002a0: e86e 333d 98b4 5234 e2e4 ce37 ecb6 2d36
000002b0: 9c43 7c2b b9ff 6d2f a9d6 a62d 4483 2a38
000002c0: c5d5 8f37 6679 8e37 1cb7 5b38 687f ea39
000002d0: 403d 2f3d a9de 333d ff4a 8633 4204 fc36
000002e0: 1fd0 5a35 1b09 9a2a 2a53 912e 45bf cb2c
000002f0: e57f 6037 75e5 b336 63e8 ab36 2bbf 8737
00000300: 6c09 0f39 8fb9 533c 5859 583c cda8 8633
00000310: 9c75 fa36 5ab5 5b35 8705 9a2a d54f 912e
00000320: beba cb2c cfdd 5e37 a178 b536 f6ec ac36
00000330: 15ea 8737 7f26 0f39 c0cd 533c 0afb 583c
00000340: 3e3a 5b34 a517 e537 75a2 3036 cc6b 892b
00000350: 7da6 812f 69c5 b52d d683 2838 337b 9737
00000360: 6aba 9b37 0085 6938 545f ff39 2023 423d
00000370: ef74 463d dfc6 5b34 eebc e337 a55b 3136
00000380: 626b 892b 18a6 812f f6c4 b52d 3b62 2738
00000390: 4501 9937 51a0 9c37 9163 6938 e58c ff39
000003a0: 5977 423d e5bb 463d f768 d42d 0c83 1431
000003b0: b9f0 2930 b9a0 0425 c241 fa28 646e 2f27
000003c0: ed36 6232 5338 3231 98e7 6c31 df20 8532
000003d0: 039c 5733 7425 9936 97f0 9336 6ff0 d42d
000003e0: a599 1331 ed7e 2a30 a2a0 0425 7941 fa28
000003f0: 466e 2f27 451f 6232 09b7 3031 b452 6c31

exp_avg f4 [128]
2.4225834e-05 4.953653e-05 0.0016683672 0.0009586212 -0.0003266252 4.9807913e-06 -0.0027219844 -0.0013990396
-0.0028179132 -4.281925e-05 -0.0017407193 0.00013441584 0.00017799866 0.0009837289 -0.0016081817 0.0012646869
-0.004793279 -1.9657698e-05 -0.0041908263 0.00048835395 -0.00024619317 0.00025908483 0.00016214472 -0.00045095387
-4.872874e-05 7.013272e-05 0.00039640415 -0.00022198261 -0.002252861 -0.00045939776 -0.0018512121 -0.0016786609
-0.0031228515 -0.004797308 -0.003038601 0.0007297777 -0.0030068515 -0.003807085 -0.0031471471 0.0004737572
-0.00042931587 -0.00028101756 -0.0027696127 -0.00029756018 -0.0037535976 4.6282315e-05 7.1248876e-05 -3.381196e-07
-0.0038460293 -5.171233e-05 -0.0030688515 -0.0015822275 -0.0032591035 -0.0002043115 -0.00032160094 -0.00032725665
6.8240355e-05 0.00029378608 -0.0047279494 -0.0036902695 -0.0052725193 -0.0038061338 -0.0011077601 -0.0028067876
0.00019133824 -0.00314615 0.00015665778 -0.0018076688 -0.0017927438 -0.0024572266 -0.00033832336 -0.00043084475
-0.0034754495 0.00011960722 0.00033284517 -0.0020585759 -0.0003922117 -0.0007772386 -4.2587482e-05 -0.0018557708
-0.00016426461 -0.00045316204 0.0012154625 -0.0031075338 -0.0032180694 -0.0027124425 -0.0022329758 -0.00023268868
0.00034268902 -6.966811e-05 -0.0004500725 -0.0009279128 -0.0034283332 0.00020457782 -0.0016747972 -0.00038169118
2.977178e-06 -3.8110002e-06 -0.0039264876 -0.0006005088 -0.0018075339 0.00011766557 -0.001961767 -0.0032860518
-1.6455366e-05 2.769366e-05 -0.0004735654 -0.0018543187 -0.0005466713 -0.0032792082 -0.0026882654 0.00022049758
-0.0052514095 -0.0012550995 -0.00025033986 -0.00277664 -0.0005292337 -0.0038706565 -0.0050896336 -0.0031876343
-0.0019984036 -0.0031218883 -0.0036711034 0.00021308807 -0.00090018456 -0.00018479247 -0.004813705 -0.0049053975
00000000: 9538 cb37 72c5 4f38 1dad da3a fb4b 7b3a
00000010: e43e abb9 ac20 a736 5263 32bb fb5f b7ba
00000020: bdac 38bb d298 33b8 d928 e4ba faf1 0c39
00000030: 27a5 3a39 77f0 803a a0c9 d2ba dac3 a53a
00000040: f010 9dbb 96e6 a4b7 3353 89bb e104 003a
00000050: 7d13 81b9 c7d5 8739 6405 2a39 016e ecb9
00000060: 1662 4cb8 3814 9338 77d4 cf39 01c4 68b9
00000070: bca4 13bb 53db f0b9 5fa4 f2ba 8306 dcba
00000080: c1a8 4cbb bc32 9dbb 4423 47bb 8d4e 3f3a
00000090: 990e 45bb 4a80 79bb 5e40 4ebb 9d62 f839
000000a0: cd15 e1b9 8a55 93b9 6482 35bb da01 9cb9
000000b0: ebfe 75bb 421f 4238 736b 9538 ce86 b5b4
000000c0: aa0d 7cbb b1e5 58b8 c91e 49bb bf62 cfba
000000d0: af96 55bb 733c 56b9 8c9c a8b9 a593 abb9
000000e0: 431c 8f38 4d07 9a39 eaec 9abb 73d8 71bb
000000f0: 19c5 acbb 5470 79bb 4332 91ba 15f2 37bb
00000100: f8a1 4839 a32f 4ebb 8144 2439 4def ecba
00000110: 80fa eaba 6c09 21bb fe60 b1b9 01e3 e1b9
00000120: 5ec4 63bb a3d5 fa38 b981 ae39 2ce9 06bb
00000130: c3a1 cdb9 99bf 4bba f69f 32b8 563d f3ba
00000140: 723e 2cb9 6196 edb9 2750 9f3a c4a7 4bbb
00000150: 3fe6 52bb 3cc3 31bb 1e57 12bb e4fd 73b9
00000160: f1aa b339 c81a 92b8 b5f7 ebb9 2d3f 73ba
00000170: e3ad 60bb f183 5639 de84 dbba b91d c8b9
00000180: 87cb 4736 7cc0 7fb6 c4a9 80bb 776b 1dba
00000190: c6ea ecba 39c3 f638 fd90 00bb cd5a 57bb
000001a0: a109 8ab7 af4f e837 df48 f8b9 9c0c f3ba
000001b0: 7d4e 0fba fce7 56bb 9c2d 30bb 5e35 6739
000001c0: 0414 acbb 2782 a4ba 0c40 83b9 4af8 35bb
000001d0: 46bc 0aba d7aa 7dbb f1c6 a6bb a1e7 50bb
000001e0: a6f7 02bb 9898 4cbb e596 70bb 6570 5f39
000001f0: 5dfa 6bba dac4 41b9 49bc 9dbb 75bd a0bb
